models/multi_resolution/SNN_Autoencoder_tsri_320s_160g.pth (torch, 37341 bytes, 11 tensors)

encoder_conv1.weight f4 [32, 1, 5]
000000 df 5c 36 3e c0 d8 ba 3e 87 57 03 3f 48 dd 09 3f
       0.17808865 0.36493492 0.5130543 0.53853273
000010 89 9e 9e 3e cd 64 a7 be fb 75 9e be b0 e1 3e bf
       0.30980328 -0.32694092 -0.30949387 -0.7456312
000020 3c f9 99 3d 85 c2 56 3f 59 68 e3 bc e3 b3 20 3c
       0.07518241 0.83890563 -0.027759718 0.009808513
000030 2d 38 81 3d c0 af a2 3d 6f ae 90 bc 99 61 c8 bd
       0.06309543 0.07943678 -0.017661301 -0.0978424
000040 51 e7 01 be fa 57 9e be 95 9b b6 be 01 87 8b be
       -0.12685896 -0.30926496 -0.35665575 -0.27251437
000050 a4 c6 fa bc 28 22 9e 3e f1 30 a2 3e 78 0c e0 3d
       -0.030612297 0.30885434 0.31677964 0.10939878
000060 9b 25 28 3f 4b e4 06 3e 64 2e 44 3f 1b 27 28 3e
       0.6568238 0.13173024 0.76633286 0.16421168
000070 ef ba f2 3d 6f a0 0f 3e 6c 2a 27 be 89 e1 36 3f
       0.11852061 0.14026044 -0.16324776 0.7143789
000080 ad 87 8e 3e 44 59 81 3e 74 08 13 be 39 a0 13 3f
       0.27837887 0.25263417 -0.14358693 0.57666355
000090 b9 77 e1 3e 45 73 2a bd bc 2e 9a 3e bc 6f 30 bd
       0.44036654 -0.041613836 0.3011378 -0.04307531
0000a0 c8 18 49 3d b0 3c 67 bc 56 0e 9c be 1a 45 ca bd
       0.0490959 -0.01411359 -0.30479687 -0.09876461
0000b0 da be 0f be 4b 93 a4 3d 79 8f b1 3d d8 bd 9b be
       -0.14037648 0.080359064 0.08669943 -0.30418277
0000c0 82 b1 58 3e 38 e6 fe 3e db cf 2d 3b 91 10 5f 3f
       0.21161464 0.49785018 0.0026521597 0.87134653
0000d0 87 26 44 3b 1d 76 7d 3b 2a 5e 0a 3a 86 02 0a be
       0.002993019 0.0038675137 0.0005278314 -0.13477525
0000e0 0d 5a 50 3e a8 17 e2 3e b3 6a 54 3e 99 77 04 3f
       0.20346852 0.44158673 0.20743828 0.5174499
0000f0 ba 74 a9 3c 49 28 7a be 3e e7 32 3f ec 45 2f 3f
       0.020685542 -0.2442943 0.698841 0.6846607
000100 89 11 95 3e 89 52 03 be 7b ca 55 be e8 f5 1e be
       0.2911494 -0.12824453 -0.20878021 -0.15523493
000110 89 a0 d9 3e 29 c5 7e 3f 95 3a de bd 4a 08 0e 3f
       0.4250529 0.9951959 -0.108510174 0.554814
000120 04 e3 38 3f 06 ae 05 3f 2d 9c 1d 3d ea 2b f6 3c
       0.722214 0.52218664 0.03847902 0.030050237
000130 a3 3d 1e bd 0f e3 49 3f 42 f5 73 bd 06 4e 1e bc
       -0.038633 0.7886209 -0.059560068 -0.009662157
000140 15 b9 08 3e 07 9e 03 3f a0 be 1a 3e 30 bb 44 3d
       0.13351853 0.51413006 0.1511178 0.04803008
000150 cb 3b e4 be ad 58 b0 3b 70 22 0d 3f 9d fd 1e 3f
       -0.44576868 0.0053816647 0.5513067 0.62105733
000160 c6 c3 04 3d fd 19 d8 3b aa 26 2f 3d 48 a3 b6 3d
       0.032413267 0.006594895 0.042761482 0.08917862
000170 4b 51 22 be 09 09 35 3f 3d 3b 09 3b bc e7 a8 bb
       -0.15851323 0.7071691 0.002093985 -0.005154578
000180 f5 7b ec ba 6b bb eb 3e 9d ea 3b 3f a1 f7 99 bb
       -0.0018042313 0.46041426 0.73404866 -0.004698709
000190 21 6f 18 3d 86 04 66 bd ba 07 0b 3f 1d 31 f1 3e
       0.037215356 -0.056156658 0.54308665 0.47107783
0001a0 e4 6e 68 3b 43 22 0f 3d 19 4a 0f bc b0 56 26 3c
       0.0035466487 0.034944784 -0.008745694 0.010152504
0001b0 0b a9 08 3f 61 37 11 3f 3a bb 4f be 22 3c 1f bf
       0.5338294 0.56725127 -0.20286265 -0.6220113
0001c0 4f 27 7a 3e 3d 97 a6 bd 86 41 ea 3e 77 34 79 3e
       0.24429058 -0.08134315 0.45753115 0.2433642
0001d0 29 25 9c 3e 5f 24 b7 3e b0 51 21 bf ee 88 0b 3e
       0.304971 0.35769936 -0.6301527 0.13626453
0001e0 82 86 a6 3e 7d 6c 73 bd 3b 52 72 3e fd ec 8c 3e
       0.32524496 -0.059429634 0.23664181 0.27524558
0001f0 7b 11 b7 3d 8e 07 8a be a4 df a4 be 05 70 9a 3d
       0.08938881 -0.2695889 -0.32201874 0.07540897
000200 d6 69 3a 3f cb 93 22 3f 5b 5c 80 3e 46 a5 44 3e
       0.7281774 0.63506764 0.25070462 0.19203672
000210 af b0 c0 bb 89 0a 21 bc eb 46 8c be d4 b6 97 bb
       -0.0058804373 -0.009829172 -0.27397856 -0.004629949
000220 25 4d 7c 3e be 1f 87 3e 54 78 d6 3e 8b a6 97 3d
       0.24638803 0.26391405 0.41888678 0.074048124
000230 7f 67 ee 3e 65 08 58 bf 7a 55 be 3e bd ab 00 be
       0.46563336 -0.8438781 0.37174588 -0.12565513
000240 81 c8 f8 bb f3 65 ef 3e 01 d8 2e 3f c1 ed 47 3f
       -0.0075922613 0.4675747 0.68298346 0.7809716
000250 63 f6 ba 3d 41 fe fe be dc a7 fd 3c f7 7f a8 3c
       0.09129026 -0.49803355 0.03096383 0.02056883
000260 f8 5c d9 3c f2 85 71 3f 38 74 b2 3c 94 ab 2e 3f
       0.026533589 0.9434501 0.021783933 0.6823056
000270 7c ad 0c 3f 93 8d 12 bf 22 17 84 be 06 46 c1 3e
       0.54952216 -0.57247275 -0.257989 0.37748736

encoder_conv1.bias f4 [32]
000000 cb 62 1a bf bc 1a 16 3e 6b 7c 6b 3f c6 60 28 3f
       -0.60306996 0.14658636 0.9198672 0.65772665
000010 7e fb 08 bf 27 91 2f 3f 00 3d 16 3e d7 3e 56 be
       -0.53508747 0.6858086 0.14671707 -0.20922409
000020 62 b2 2a 3f 53 1a 96 3e f2 5d 58 3e 3f 76 92 bd
       0.6667844 0.2931696 0.21129587 -0.0715146
000030 72 f5 00 bf a9 68 03 3f 18 a1 06 3f d7 0a 89 3e
       -0.5037452 0.51331574 0.5258956 0.26766083
000040 8c be bb 3e 94 7c e6 bd 69 9d aa 3e be e4 05 be
       0.36668813 -0.1125423 0.3332322 -0.1307554
000050 60 a3 a8 3d ab 3a 44 bd 15 3c 03 3f 06 13 10 3e
       0.08234286 -0.047907513 0.5126355 0.14069757
000060 1d 50 8c 3f 7b 9e 8d be 6a de 4f 3f 51 4f 18 bd
       1.0961949 -0.27659974 0.8119875 -0.037185017
000070 7d d8 7b 3e ed 29 d1 bc b2 61 d4 3d 60 51 bf 3d
       0.24594302 -0.025532687 0.103701964 0.09341693

encoder_conv2.weight f4 [16, 32, 5]
000000 5a 17 29 bd cb e0 26 3e f5 d9 04 bb 16 ff e0 bc
       -0.041282035 0.16296689 -0.0020271514 -0.027465384
000010 66 4b d2 bc 25 f5 01 bc dc ff 74 bd 84 c4 a8 3a
       -0.025670718 -0.007931982 -0.05981432 0.0012875949
000020 60 89 aa 3c a0 71 7e bc 21 8a bf bd f1 34 b0 bd
       0.020817459 -0.01553002 -0.09352518 -0.08603848
000030 df 18 9a bc 7b d5 06 bd 47 48 5d bd df 93 b4 3c
       -0.018810688 -0.032918435 -0.054024007 0.022043167
000040 6f 46 91 3d dd a4 1b 3d 82 cf cc bc 45 38 87 bb
       0.07093512 0.037999023 -0.025001291 -0.004126581
000050 a9 44 90 3d 84 54 6a 3d 7d 9d dc bc 74 cd 63 3c
       0.07044346 0.057209507 -0.026930565 0.013903964
000060 31 98 00 bd 41 8d c9 bc 65 b2 7d 3b e5 c5 ad ba
       -0.03139514 -0.024603488 0.0038711068 -0.001325783
000070 25 38 60 bc 64 53 7c 3a 92 38 3f bc cc 30 da 3d
       -0.013685261 0.0009625463 -0.011671202 0.106538385
000080 6f 2e 30 bd 1f c1 92 bb 08 4c 2a bb 9c 94 2e bd
       -0.043013033 -0.0044785882 -0.002598526 -0.042622194
000090 a5 c6 2f 3d 3d 5c 34 3c 33 54 95 3c 67 4e 79 bc
       0.04291405 0.011008319 0.018228626 -0.0152164465
0000a0 1b 99 98 bb 9c 5f 34 bd 17 26 15 3d 59 89 0f bc
       -0.0046569235 -0.044036493 0.03641328 -0.008760774
0000b0 84 fd 49 3c 20 55 88 3b d7 bc 2d bd 2a d9 d6 bc
       0.012328509 0.0041605383 -0.04241642 -0.026226599
0000c0 f0 8b 2c bc fe cc dc bc 8e 18 2b 3b 58 82 7f 3e
       -0.010531411 -0.026953217 0.0026107165 0.24952066
0000d0 88 66 f1 3d 3e 89 c2 3c 90 58 d6 3a a6 b4 65 bc
       0.117871344 0.023747083 0.0016353298 -0.014020121
0000e0 61 6f a4 3d bf e0 3e bc b5 cc 95 ba 54 d5 91 ba
       0.08029056 -0.011650263 -0.0011428805 -0.0011126199
0000f0 8f 68 47 bd 76 79 98 3d 06 1c 1e 3c 80 c6 5a ba
       -0.0486837 0.07445042 0.009650236 -0.0008345619
000100 26 6e a9 bc bc 6a a1 bb 4f e2 bf bc f0 b2 12 bb
       -0.020682406 -0.004926054 -0.023423342 -0.0022384487
000110 b3 57 53 39 44 c5 84 bb 1a a3 7b 3b 67 9f 3c 3d
       0.00020155199 -0.004051836 0.0038396777 0.046050455
000120 1d 64 3f 3b 4b 1c 6d 3c 4b 0c cf 3b 3f d5 5b 39
       0.002920396 0.014472078 0.006318604 0.00020964908
000130 8b 98 07 3d 02 59 65 3c 55 b5 ec ba e5 ea 28 bb
       0.03310446 0.013998272 -0.0018059412 -0.0025774774
000140 88 6c 35 bd f5 e3 b5 bc 4a 2e 64 bc 8e ca 6c 3b
       -0.044292957 -0.022203425 -0.013927052 0.0036131474
000150 8b 5a 01 bc b3 e6 91 bc ba 22 0b 3e cd 0c 75 bc
       -0.007895122 -0.017810201 0.13587466 -0.014956665
000160 96 06 b9 3c d1 c8 b1 bb 56 b5 2e bd a7 ca 47 be
       0.022586148 -0.0054255505 -0.042653404 -0.195109
000170 a5 ef 85 bb a1 53 e6 bb f6 38 7f bb 04 d6 bc bc
       -0.0040874057 -0.0070290123 -0.0038943863 -0.02305127
000180 1e 3d 6e 3e 06 81 1a bc 57 68 20 bb 6b ed 41 3b
       0.23265502 -0.009430176 -0.0024476254 0.0029590975
000190 00 65 2d bc 8e ed 4b 3e d8 09 e7 3b 74 23 c5 bb
       -0.010583162 0.19914839 0.007050734 -0.006016189
0001a0 b4 b9 34 3c f7 93 38 3d 3b f8 0b 3d 3f a5 8b 3b
       0.011030603 0.045062985 0.034172278 0.004261642
0001b0 82 42 c2 bc db ec 26 3c 52 29 59 bc da 35 15 bc
       -0.023713354 0.010188307 -0.01325448 -0.0091070775
0001c0 c7 e7 84 3c 2e ea d6 bb d9 3a 8b bc ea 8e 89 bc
       0.016223801 -0.006558678 -0.016995834 -0.01679178
0001d0 ce df 32 3d 40 1c 0e bc 90 0b 3d 3c 5b 07 d3 b9
       0.043670468 -0.0086737275 0.011538401 -0.00040250536
0001e0 70 6e c8 bc cb 62 27 3d 17 76 4c 3d 95 95 16 3d
       -0.024466723 0.0408657 0.049917307 0.036763746
0001f0 ca 4a 1d 3d cd d5 41 3b c4 8a 8e 3c ab cd 28 3c
       0.038401403 0.0029576898 0.017400153 0.010302941
000200 4c 79 ca 3a 01 61 3a 3a 99 22 ad bc b6 03 2e bd
       0.0015447526 0.00071097916 -0.021134662 -0.042484008
000210 73 0b 33 bc 97 ef 31 3b 85 5f 3a 3b d5 c7 8a bd
       -0.010928023 0.0027150863 0.0028438282 -0.06776396
000220 d1 05 4c 3c b6 8a 01 bd a7 e5 6e bc 9b 94 85 bc
       0.012452559 -0.031626426 -0.014581121 -0.016306212
000230 b2 f7 d4 3b f0 6a 39 3c 55 ce 3f 3d e6 56 ac bc
       0.006499254 0.011317 0.046827633 -0.02103753
000240 85 94 ec bb 27 d2 06 3c 24 95 ad 3d 52 87 85 bc
       -0.0072198533 0.008228815 0.08475712 -0.016299877
000250 f5 d3 89 3a 85 60 a1 bb cb ae 5e 3c e2 50 c5 3e
       0.0010515439 -0.004924836 0.013591479 0.3853827
000260 05 3a 70 bc e3 f2 c2 3c 11 da 60 3c 25 13 e9 3c
       -0.01466227 0.023797458 0.013723866 0.028451512
000270 f0 38 fe bc 4b 98 49 bc 8f 60 03 bb 56 7d e4 bb
       -0.03103301 -0.012304376 -0.0020046567 -0.006972949
000280 b2 25 bb bd 70 df f1 bc 67 ac b1 bc 1f 57 2b be
       -0.09138049 -0.029525489 -0.021688653 -0.16732453
000290 31 49 76 be ec ec 39 bd a6 16 70 3d 25 64 bf 3b
       -0.24051358 -0.045391962 0.05861535 0.0058407956
0002a0 0d 7a ed 3c 6f 0f 8f 3a 12 f4 85 be bc 68 1b 3d
       0.028988862 0.0010914634 -0.26162773 0.03794168
0002b0 00 b9 16 3d 68 95 54 3c b6 f0 90 3d ab b3 d2 bd
       0.036797523 0.012975074 0.07077162 -0.10288175
0002c0 33 85 8b 3d 2b d0 c9 3d 10 08 22 3d 13 7a c9 bd
       0.06812515 0.09854158 0.03955847 -0.09837737
0002d0 6b 0d 2f 3d 79 b6 b9 bd 3d 58 04 be 89 e0 f8 bc
       0.042737406 -0.09068007 -0.12924285 -0.030380504
0002e0 b5 f5 9b bb a1 e3 c7 3d 3a 3b c1 ba 3a 43 c7 bb
       -0.004759515 0.09760214 -0.0014742382 -0.006081012
0002f0 cb 63 f7 bc 13 e7 b2 bc 12 1f fe 3d 1f 03 8f 3d
       -0.030198952 -0.0218387 0.1240827 0.06983017
000300 df 3b 1f bd fc 5d 02 3d d1 01 45 3d c6 a0 47 3d
       -0.038875457 0.03182791 0.048097435 0.04873731
000310 f7 56 7c bb 81 d2 7c bd 78 44 8b bd 92 75 00 be
       -0.0038503984 -0.06172419 -0.06800169 -0.1254485
000320 6e d2 db bd 45 82 6c bc c8 a5 9b 3d 91 42 b1 3d
       -0.10733496 -0.014435356 0.0759998 0.08655275
000330 4d d3 69 bc 21 d1 2b be 4c c6 00 3c 57 11 f2 3c
       -0.014271569 -0.16778995 0.007859778 0.029549284
000340 b0 a5 e2 bb 4a c2 f0 3c 24 9a 2a 3f 65 5f 8b 3d
       -0.006916724 0.02938952 0.6664145 0.068053044
000350 10 11 b3 3d 12 8f 32 be 9c ef ef bd c6 98 07 3d
       0.08743489 -0.1743739 -0.11715624 0.03310468
000360 1b 23 57 3d 10 ac 02 3c 93 d8 80 bd 3e 9d 3c bc
       0.052523714 0.007975593 -0.06291308 -0.011512099
000370 81 e8 2d 3d c6 9b 22 bd bb 7b a0 bc 79 79 3e bc
       0.04245806 -0.03969934 -0.01959025 -0.011625641
000380 11 65 00 be 10 fe cc bd 13 5d 05 3d a4 92 06 bc
       -0.12538554 -0.10009396 0.032559466 -0.008213673
000390 ae 48 96 bc 69 ca 39 bd 8f 2a 2d 3d 95 60 15 3d
       -0.018345203 -0.04535905 0.042276915 0.03646906
0003a0 30 25 df bc 1f 8e 91 ba b8 37 a9 bc 1b 00 d2 3d
       -0.027239412 -0.0011104977 -0.020656452 0.10253926
0003b0 ca 73 ab 3b 5a fa 3e bd 79 a9 d8 bd 05 56 29 be
       0.005232309 -0.046625473 -0.10579199 -0.1653672
0003c0 91 26 05 3e ed f4 2f bd a3 90 e8 3c 8d 12 ae bc
       0.13002993 -0.04295819 0.02838928 -0.02124908
0003d0 66 05 e6 3b d8 64 b4 bd 84 a3 8d bd 01 cf d4 bd
       0.0070196865 -0.08808297 -0.06915954 -0.10391045
0003e0 ea 83 2e bd f3 af 3f be c1 ac a6 bd 98 40 1b 3d
       -0.04260627 -0.18719463 -0.08138419 0.0379034
0003f0 39 a4 87 3d b1 05 a1 3d 4c d0 8c 3d 22 54 91 3c
       0.0662312 0.07862414 0.06875667 0.017740313

encoder_conv2.bias f4 [16]
000000 61 85 9f 3e e8 07 06 3f cc cf 5b 3e 15 20 a1 3e
       0.31156448 0.52355814 0.21465987 0.3146979
000010 7d b2 2d bd 45 79 12 3e 27 50 a6 3e 21 dc 03 3e
       -0.042406548 0.14304073 0.32483026 0.12876941
000020 d1 6c 01 3e 30 43 06 3f 16 fd be ba 9c 45 53 be
       0.12639166 0.5244627 -0.0014571275 -0.20632023
000030 70 b1 c7 3e fc d1 87 3e ef 60 73 3e 38 14 0e 3f
       0.39002562 0.26527393 0.23767446 0.554996

encoder_conv3.weight f4 [8, 16, 5]
000000 49 43 c5 bc 26 af cb 3b 2b 60 72 bb f5 2e ac bc
       -0.024079936 0.0062159477 -0.003698359 -0.021018485
000010 52 8e 8d 38 3d 35 00 bc b0 0d 3d bd 64 fb 34 3d
       6.749913e-05 -0.007825193 -0.04615563 0.044185057
000020 bd 94 80 bb 0b 75 24 3b da 6d 9e bc fd 06 3a bc
       -0.003923981 0.0025094177 -0.01933949 -0.011354205
000030 6a 70 3d 3d 64 88 19 bd 35 0e b5 bb d3 a1 e0 bb
       0.046249785 -0.037483588 -0.0055253753 -0.0068552285
000040 20 31 9d 3c 94 96 f5 bc a8 2b 65 3c bf 77 b5 bc
       0.019188464 -0.029979028 0.013987459 -0.022151826
000050 f1 6f 07 bd 0f a6 60 3c 18 e6 6e 3d 86 b9 c3 3c
       -0.03306574 0.013711466 0.058324903 0.023892175
000060 af a3 d1 3c f5 61 c7 bb 63 81 e8 bb 3d 57 9a bd
       0.025590746 -0.0060846754 -0.007095502 -0.07536171
000070 45 0b 84 bd 70 11 04 bc dc d7 d1 bc 29 53 a7 3d
       -0.06447462 -0.008060798 -0.025615625 0.081701584
000080 7a be 6c 3d dc e1 03 bd 6a 73 63 bb 15 65 af bc
       0.05779884 -0.03219782 -0.0034706243 -0.021410504
000090 84 a7 c7 3d 77 26 41 bd d0 b9 62 bd a1 b6 99 bc
       0.09748748 -0.047155824 -0.055352986 -0.018763842
0000a0 bf ce 62 3c e8 af 2b 3d 95 77 87 ba 7c 7e 3a 3c
       0.013843237 0.041915804 -0.0010335321 0.011382695
0000b0 70 8b 96 38 42 22 18 bd 74 6e e8 bc 76 4b 0a bc
       7.1785296e-05 -0.037142046 -0.02837298 -0.008440843
0000c0 6a 02 68 bd ff 60 df 3c 31 27 1b 3c c0 56 38 3e
       -0.056642927 0.027267931 0.009469793 0.18001842
0000d0 0c 33 26 3b 16 28 8b 3b d9 3a 38 3c bd 8f a7 3b
       0.0025360016 0.004246722 0.011244499 0.0051135705
0000e0 e9 55 99 3e e0 d2 2e 3b a0 45 b7 bb 4d 5e f4 3b
       0.29948357 0.0026675984 -0.0055930167 0.0074575306
0000f0 96 04 aa bb 32 ad 30 be 5a 5f 70 bd d3 5c 0b bd
       -0.005188535 -0.17253569 -0.058684684 -0.03402407
000100 f7 56 f2 3b 5f 12 6f bd 8c 5a b3 3d 5c 63 f6 bb
       0.007395621 -0.05836713 0.08757505 -0.007519169
000110 bb 35 b4 bd 7a 29 60 bc 24 75 fe 3c 4f e1 85 3e
       -0.08799311 -0.013681764 0.031061716 0.2614846
000120 cc b7 94 3b 30 f3 cd 3b 55 8b 73 3c dd e1 c4 bc
       0.004538512 0.0062850937 0.014864762 -0.024033481
000130 c3 43 1c 3c 8a 6a 7e bd 8d 43 6c bc 50 09 11 bc
       0.00953764 -0.062113322 -0.014420402 -0.008852318
000140 13 e6 f6 3c 30 39 5d 3b 9d af ba bb 46 09 03 3d
       0.030139005 0.003375601 -0.0056972043 0.031991266
000150 93 be 53 bf 10 af e9 bb 66 bb ae bc 87 25 7d 3b
       -0.8271267 -0.007131465 -0.021329593 0.0038627104
000160 be fd 2e 3f 1a 05 06 3d b7 e1 84 3c 98 32 61 3b
       0.6835593 0.03271971 0.01622091 0.0034362432
000170 ef 12 d2 3a 50 d9 24 3e e1 80 51 bc 5d 22 14 3c
       0.0016027371 0.16098523 -0.012787075 0.009041396
000180 f3 c5 1a bc 43 34 2e bc a0 ac 31 3e af 14 4b 3d
       -0.009446609 -0.010632577 0.17351007 0.049580272
000190 3b 61 15 3c 51 b3 24 3a 95 d8 9f bc bf ea f2 3c
       0.00911742 0.0006282824 -0.019512454 0.029652951
0001a0 d6 92 b5 3b 6e a8 49 3c 18 e3 a4 3a e2 c2 3b 3b
       0.005541186 0.012308223 0.0012579886 0.0028650095
0001b0 a6 c9 2b be ed 6f aa 3d bf ab 50 b9 d0 b0 b5 3b
       -0.16776142 0.083221294 -0.00019900406 0.0055447593
0001c0 4d f1 01 be d5 26 e5 3c df 84 d8 bd a4 8d 44 3a
       -0.12689705 0.027972618 -0.10572218 0.0007497913
0001d0 ca 26 07 bd 96 dc d7 bd ea 51 8a bc d6 1b 99 bd
       -0.032995977 -0.1054012 -0.016884763 -0.074760124
0001e0 fc 38 b1 bb 6d e3 86 bc 78 1d 8d 3d 97 0d c4 bd
       -0.0054084044 -0.016465867 0.06890386 -0.095729046
0001f0 4b 46 1b 3d 35 bb 39 3c dd 43 de bb a7 99 a9 bc
       0.037908833 0.011336138 -0.0067829923 -0.02070315
000200 0b 96 77 bd bb 19 4d bd c3 7c 2a bc 83 ca d3 3c
       -0.060445827 -0.050073367 -0.010405722 0.025853401
000210 d4 fc ca 3c 29 00 d6 3d 8e 1e d5 bc 90 e2 af ba
       0.024778761 0.10449249 -0.026015546 -0.0013418961
000220 f2 a3 d2 3c b2 79 cc bc b1 66 87 3e 89 be 92 bc
       0.02571294 -0.024960373 0.26445535 -0.01791312
000230 53 57 30 3c f1 fd fb bd db df 49 3d 78 a7 31 be
       0.010763007 -0.12304295 0.04928575 -0.1734904
000240 bc 5c a2 bc 58 0a 2c 3d 75 d8 97 3d 65 29 62 3d
       -0.01981961 0.042002052 0.07414333 0.05521526
000250 1d dd 2c 3c 98 82 ae 3c 5d 2d 31 3c f0 06 40 3d
       0.010550764 0.021302506 0.010814038 0.046881616
000260 af 78 97 3d d6 dd 27 3e d4 37 2a bd 4c c1 08 3d
       0.073960654 0.16393217 -0.041557148 0.033387467
000270 f4 05 b4 3b 5f 47 ed bc 82 cc 38 3c 82 a7 81 3e
       0.0054938737 -0.028964696 0.011279227 0.2532311
000280 30 25 e6 3c db ad bc 3b d9 4d d5 bc 49 25 f3 bc
       0.028093904 0.00575803 -0.026038097 -0.029680865
000290 3c c1 f4 bb 36 d7 f9 bb ca 91 88 3c 19 bc 23 bd
       -0.0074693244 -0.007624532 0.01667108 -0.039974306
0002a0 9d c5 05 bd 3f 29 c7 bc fe 6e 88 3a a7 5c 39 3c
       -0.03265916 -0.02431166 0.0010409055 0.011313594
0002b0 f9 5f 46 3c 2b b0 08 3b 04 07 53 bb 3c 1e 82 b9
       0.012107843 0.0020856957 -0.0032200227 -0.0002481806
0002c0 f1 22 9e 3b d8 37 60 bd 20 ff f1 36 ec 0a 76 ba
       0.0048259427 -0.054740757 7.21206e-06 -0.0009385783
0002d0 bf 80 5b ba bb ac 1b bc a3 d8 41 3c 24 73 b4 bb
       -0.00083733717 -0.009501631 0.011831435 -0.00550689
0002e0 d6 9e a0 bc d3 c6 13 bc 3f bf 56 39 16 64 67 bc
       -0.019606989 -0.009019571 0.00020479875 -0.014122983
0002f0 ae bb 38 bc 81 53 6b 3c 7b fb e9 b9 37 d4 64 3b
       -0.011275215 0.014363171 -0.0004462859 0.003491653
000300 95 3b 10 be 2a 57 65 bc c3 57 6b bc 85 5e a5 3b
       -0.14085229 -0.013997832 -0.014364186 0.005046668
000310 01 a6 b9 bc 65 b4 d1 3e 37 88 52 bd 44 5a 29 bc
       -0.022662165 0.40957943 -0.051399436 -0.010336462
000320 4d 53 6b 3b 7b 17 aa bc 1c 66 6d bd 71 b3 0f bd
       0.0035907805 -0.02076315 -0.057958707 -0.035083238
000330 93 4a 00 bc 15 79 bb 3c 3f b5 fc 3a 19 0d e6 bc
       -0.00783028 0.022884885 0.001928009 -0.028082417
000340 18 17 fa bc 0d b2 a2 bc 9b b3 77 bc 41 07 9f bc
       -0.03052859 -0.019860292 -0.015118505 -0.019412639
000350 c3 fc ee 3c 3e 51 56 bc 0e a4 ed bb b9 39 ee 39
       0.02917326 -0.013080893 -0.007252223 0.00045437904
000360 db 88 d2 bc 13 92 cf 3b bc 24 07 bd df 2f 16 bc
       -0.025700023 0.006334552 -0.032994017 -0.009166687
000370 f5 44 80 3c c5 a3 ce bc d5 4c 19 bf 1e 09 bc bd
       0.015657881 -0.025224576 -0.5988286 -0.091814265
000380 70 8f c3 39 7b 6b 9a b9 49 2f 26 3c e6 96 a7 bc
       0.00037300168 -0.00029453248 0.01014311 -0.020457696
000390 1a e1 13 3b 9d 7d 20 3b fc d0 c0 3b de 94 c1 3a
       0.002256459 0.0024488934 0.005884288 0.0014769097
0003a0 11 c8 81 3e c5 42 ef bb 31 ca 94 ba 36 d3 be 3c
       0.2534795 -0.0073016607 -0.0011351762 0.023294073
0003b0 d5 be 8b 3c 37 fc 77 3c ba 5e 46 bc ec 54 5a 3c
       0.01705877 0.015135816 -0.0121075455 0.013325911
0003c0 d4 e7 1e 3d d2 38 7b 3c fd a3 44 bd b6 9a f5 bc
       0.038795307 0.015333371 -0.048007954 -0.029980998
0003d0 0f 9b 87 bc 70 a8 07 3c 3f 2e 6a ba e3 5c 8f 3a
       -0.01655343 0.008279905 -0.0008933283 0.0010937717
0003e0 3d 27 55 bb df d8 d8 bc c0 65 64 3d b6 c9 23 3d
       -0.0032524609 -0.0264706 0.0557611 0.03998729
0003f0 95 aa c7 bc 5c be 1c 3d 13 ac ce 3a b9 a3 5f 3b
       -0.024373332 0.03826748 0.0015767835 0.0034124686

encoder_conv3.bias f4 [8]
000000 e0 0a 10 3f d6 fd f1 3e 9f 84 49 3f 4e 85 25 3f
       0.56266594 0.47263974 0.7871799 0.6465653
000010 08 a5 de 3e 83 79 36 3f 58 d8 f3 3e a2 64 c2 3e
       0.43485284 0.7127916 0.47625995 0.37967402

deconv1.weight f4 [8, 16, 5]
000000 57 d7 8b 3c ab 70 2a 3f 73 36 29 3d fb bf 4a 3d
       0.017070455 0.6657817 0.041311692 0.049499493
000010 8c 0a 83 bd 18 f6 39 bf d3 a7 8d 3c f6 1d 28 bf
       -0.06398496 -0.72641134 0.017291939 -0.65670717
000020 1b 21 2d be 45 cb 0e 3e cd 8d ba bd e6 a5 a2 bd
       -0.1690716 0.13944729 -0.091090776 -0.07941799
000030 52 55 88 3e 43 b0 95 bb b0 b5 83 3e 2b 24 08 be
       0.26627594 -0.004568131 0.25724554 -0.13295047
000040 ee a5 84 3e 4d fc 6a 3e 7b 70 86 bd 00 f2 8a be
       0.25907844 0.22947808 -0.06564423 -0.27137756
000050 27 38 ff 3d 38 15 0b 3f 4c d6 0f bc 3f cf 76 bd
       0.12461882 0.5432925 -0.00877912 -0.06025624
000060 85 32 87 3e 71 02 ac 3d 83 fc cd 3e e1 76 83 bd
       0.2640573 0.08398903 0.40231714 -0.06419159
000070 3c 7d b0 3d 5f 32 2a be 53 51 6e bf bd f7 47 3e
       0.086176366 -0.16620778 -0.9309284 0.19528098
000080 24 95 0a be 27 df 11 3b 29 f0 27 be fe 06 9f bc
       -0.13533455 0.0022258253 -0.16400208 -0.019412514
000090 3c 5c 70 bd bb 57 82 be 8d 94 98 bd 8b 31 90 be
       -0.05868171 -0.25457558 -0.07450209 -0.28162798
0000a0 f9 67 00 bd 4f 72 cd 3e 7e b9 cf 3d d7 4c f1 bd
       -0.031349156 0.40126273 0.10142802 -0.11782234
0000b0 1e 19 6f 3e ef 38 50 bd 20 bf 91 3e 06 94 27 3d
       0.23349425 -0.050835546 0.2846613 0.04091265
0000c0 13 a4 de be 89 95 22 3d 9a 30 82 3d db 01 45 3e
       -0.43484554 0.03969339 0.06356926 0.19238989
0000d0 cd db 24 3f 4e 5d e5 3c 13 17 cc 3d 5d dd 86 3c
       0.6439789 0.027998593 0.099653386 0.016462976
0000e0 18 da 69 3d 18 82 67 3c ff 03 91 3d e9 1c 86 3c
       0.057092756 0.014130138 0.0708084 0.016371207
0000f0 c1 02 ab bc 52 82 a5 3c 54 75 68 3e 48 4e c2 bc
       -0.020875337 0.020203743 0.22701007 -0.023718968
000100 47 6f 88 3c f1 e3 9d 3e fd 23 cc 3c dd 06 97 3d
       0.016654624 0.30837968 0.024919504 0.07374356
000110 a6 50 97 bd 57 87 16 3d 39 52 0f bd 6c f3 44 bd
       -0.07388429 0.036750164 -0.034990523 -0.048083708
000120 f6 ba 53 bc 2b dd 41 3d af 70 73 bd 55 6e 4d bc
       -0.012922993 0.047330063 -0.059433635 -0.012538512
000130 a2 51 17 3e e7 a6 6d 3e ed 00 07 3b 31 c8 02 be
       0.14777234 0.232082 0.0020599917 -0.1277168
000140 70 de 03 bc 0a b5 6d bc 3c 5d c7 3c e4 6f 05 bc
       -0.008048639 -0.014508495 0.02433645 -0.008144353
000150 21 0e 1f be ec 91 98 3d f6 40 06 bc 3d 14 61 3e
       -0.15532734 0.074497074 -0.008194199 0.21980377
000160 d3 dd 53 bc 93 63 32 3e 95 f0 80 3c 18 31 c4 3c
       -0.012931305 0.17420797 0.015739718 0.023949191
000170 d2 b8 81 bc dc 0b 70 bd 30 8f 1a be 88 41 7a 3c
       -0.0158352 -0.05860506 -0.15093684 0.015274413
000180 e7 c9 39 bd 76 bd 49 bd 38 e1 16 3d 71 18 7f 3d
       -0.045358565 -0.04925295 0.03683588 0.06227917
000190 e1 42 80 bc d2 89 40 bc c8 e0 b5 bd 68 f8 bd 3b
       -0.01565689 -0.011751609 -0.08880764 0.0057974346
0001a0 36 93 1a 3c 20 a2 59 3c f1 0d 30 3d 13 c0 9c 3e
       0.009434512 0.0132832825 0.042982046 0.3061529
0001b0 62 b9 96 bd fd 83 da 3d e5 e9 83 bf 81 93 af bc
       -0.07359578 0.10669706 -1.0305754 -0.02143264
0001c0 c3 1a 10 3e 3b 2a d5 bd bd a8 c7 3c a7 8a ab bc
       0.14072709 -0.104084454 0.024372453 -0.020940138
0001d0 08 51 51 3c b1 cc 31 bd ae db 52 3c c6 d5 a1 be
       0.012775667 -0.0434081 0.0128697585 -0.3160841
0001e0 53 91 b6 3c 8a 19 d3 3a 1a 6a 47 3d ab 43 d0 3b
       0.022286093 0.0016105634 0.04868517 0.006355723
0001f0 ae 9b b5 3d 0a 82 1b bb 36 e6 0c 3d 9b e2 95 bc
       0.08867584 -0.0023728632 0.034399234 -0.01829653
000200 da 26 1e bd 76 ee 1f bd d2 c0 18 bc fc 32 00 3c
       -0.03861127 -0.039045773 -0.009323316 0.007824656
000210 c3 93 af ba 1d ec 99 3a 34 4a a3 bc d5 97 54 3c
       -0.0013395477 0.0011743341 -0.019932844 0.012975653
000220 19 c1 8c 3d d8 04 a5 ba 4c c0 56 3d cc 7a 60 3e
       0.06872768 -0.0012589945 0.052429482 0.21921843
000230 71 9f 4e 3c 97 90 ec 3a 72 4b 43 3e a6 f0 ae 3c
       0.012611256 0.0018048462 0.19071749 0.021354984
000240 9b 54 02 be 4b e9 62 bc 5d 8a 19 3c 81 75 a5 3e
       -0.12727587 -0.013849567 0.009371367 0.3231621
000250 37 5a c7 3d fe 6f 2c bd 9f 95 56 3c 34 dc 45 3d
       0.09734004 -0.04209899 0.013097196 0.048305705
000260 cf 3e 15 bd 38 fd 86 bc 16 f2 9b be 0d 1c 1c 38
       -0.036436852 -0.016478166 -0.30458134 3.7219423e-05
000270 3e 00 05 3d fc 3d 7c bc fe 27 f1 3d 22 89 9d 3c
       0.032470934 -0.015395638 0.11775206 0.01923043
000280 1e 50 fe 3b 1d 1b cf bc f4 da 5d bd 8c 88 7c 3b
       0.0077610156 -0.025281483 -0.054163888 0.0038533537
000290 a6 2d 89 3b 16 66 47 3e 7f cf e7 bb 8f 8d 2b 3e
       0.00418635 0.19472536 -0.007074296 0.16753219
0002a0 17 51 0e bc e8 f5 31 3e 07 ae b9 3c db 5f fe 3b
       -0.0086863255 0.17378962 0.02266599 0.0077628917
0002b0 24 67 23 bd a9 a1 4e bc df d5 c1 bc 8a d5 a4 3c
       -0.039893284 -0.012611785 -0.023661552 0.020121355
0002c0 a4 97 55 bd f0 a9 0c 3e 9d 3f f7 3a b1 52 2e 3d
       -0.05214657 0.13736701 0.0018863563 0.04255933
0002d0 f1 55 7a bc f5 1a 2c bc 4e 73 08 3f 51 65 96 bb
       -0.015279279 -0.010504474 0.5330094 -0.0045897146
0002e0 4f 52 b2 bc a5 7e 06 3d 15 88 39 3d 86 a8 b1 3e
       -0.021767763 0.03283562 0.045295794 0.34698886
0002f0 10 6e 20 bc ed 97 47 3d d8 4b 83 bf 7b a0 23 bd
       -0.009791866 0.048728872 -1.0257521 -0.039947968
000300 83 0a fd 3d 57 90 16 bb 4a ee c8 3d 99 73 74 bd
       0.123555206 -0.0022974217 0.09811075 -0.059680555
000310 9e 6f 6b 3c c2 8a 91 be 33 62 57 bb 29 dc a1 be
       0.014369873 -0.28426176 -0.0032864928 -0.3161328
000320 c6 67 c4 3b 8c 31 ff 3b 8a 24 b5 bd e0 83 94 3b
       0.005993816 0.007787889 -0.0884486 0.0045323223
000330 d5 65 74 bc 3e fd 5d bb c4 5e ec 3c d9 a3 46 3e
       -0.014916857 -0.0033872868 0.028853782 0.1939844
000340 35 24 bc 3c 83 59 87 bc 8f 42 35 bc e4 6b ca 3b
       0.022966484 -0.016522175 -0.011063232 0.0061774123
000350 6b 7c ac 3c 4a ae 65 3c b8 72 53 bc 04 4d b0 3b
       0.02105542 0.0140186045 -0.012905769 0.0053802747
000360 03 bb 6b 3d 5d 0d 2d be 4f ac 8e 3c 3c 3e ea 3c
       0.057551395 -0.16899629 0.017416148 0.028594129
000370 9c 33 af 3c ea fd bd 3b 99 25 41 bc 6d 3b 14 bb
       0.021386914 0.005798091 -0.011788749 -0.0022618428
000380 6b 5f 36 bc eb af 12 bc 8d c6 a2 3c 93 65 90 bc
       -0.011131148 -0.008953075 0.019870067 -0.01762656
000390 23 b3 7c 3c 01 62 34 ba 83 8f c9 3b eb 9c 36 3d
       0.015423569 -0.0006881059 0.006151141 0.044583242
0003a0 f5 43 14 3d 91 46 56 3c c0 84 a9 3c a6 cf 1d bc
       0.03619762 0.013078348 0.020693183 -0.009632027
0003b0 ac 69 63 3d 44 b3 80 3d 13 13 34 3d d8 c0 df 3b
       0.0555207 0.06284192 0.043963503 0.0068284087
0003c0 83 9b 78 3b fc df 8a bd 77 17 53 3e 72 a8 a0 bb
       0.003793449 -0.06781003 0.2061442 -0.0049028927
0003d0 63 66 78 3b 92 59 84 3e da a2 9a bb fe 3e c3 3e
       0.0037902824 0.25849587 -0.0047191205 0.38133997
0003e0 66 af 21 bc 25 fc bd 3d 6c b6 01 3d 26 bf 79 bc
       -0.009868478 0.092766084 0.03166811 -0.015243327
0003f0 bc 61 4f be ae 48 31 bc 16 37 93 bc 00 e3 01 3d
       -0.20252126 -0.010820551 -0.017970603 0.031710625

deconv1.bias f4 [16]
000000 af 02 dd 3d 72 2a 20 3d 8d f1 07 3e 51 83 8c 3e
       0.107915275 0.03910298 0.13275738 0.27443936
000010 e6 44 89 3d 71 34 1c 3e ee cf a9 3e 7a 48 3d 3e
       0.067025945 0.1525438 0.3316645 0.18484679
000020 0e 88 09 3e 80 39 fc 3d f0 99 89 bc 1f 08 5c 3d
       0.13430807 0.12315655 -0.016797036 0.053718682
000030 2c b8 c5 3d e2 b5 00 3e 5e 3e 82 3e 16 15 bc 3d
       0.096542686 0.12569383 0.25438207 0.09183709

deconv2.weight f4 [16, 32, 5]
000000 2d 33 9a be 70 f4 6c be 5a 37 c1 3d aa 80 91 be
       -0.3011717 -0.2314012 0.094343856 -0.28418475
000010 a8 19 66 be 20 cf a2 3d 08 c2 90 3e 90 2a 8d be
       -0.22470725 0.07949662 0.28273034 -0.27571535
000020 77 37 07 3e 45 03 24 be fa 30 39 bd 0c 2b 12 3d
       0.13204752 -0.16016872 -0.045212723 0.035685584
000030 f0 cb f8 bc 4f 02 df bd b1 4d 83 be 4c b7 09 3d
       -0.030370682 -0.10889112 -0.2564521 0.03362207
000040 ad 94 85 3e 46 38 e4 bc 59 31 0e 3e 13 c9 b1 bb
       0.26089993 -0.027858865 0.13886012 -0.0054255812
000050 fe 74 9c be b7 23 1e be 22 d7 06 3e ce 17 69 bd
       -0.30558008 -0.15443312 0.13168004 -0.056907468
000060 13 95 0a 3e 98 cb 1a 3d ad ac 95 3e 15 25 c0 3c
       0.1353343 0.03779182 0.29233304 0.023455182
000070 32 ad a0 bd 30 27 9b 3b 0a a9 32 bc 4d dc 44 3d
       -0.078455344 0.004734896 -0.01090456 0.048061658
000080 23 a4 90 3e a1 ea e8 3d b1 e9 84 bc 5e 83 66 ba
       0.28250226 0.11372877 -0.016224714 -0.0008793379
000090 86 01 73 bc 3e 51 82 3c 4f 05 6b be 8e 27 36 be
       -0.014831906 0.01590788 -0.22951244 -0.17788526
0000a0 fc 05 c1 be 79 b1 f4 3c a2 aa 0e be ab e9 68 3e
       -0.37699878 0.029869782 -0.13932279 0.22745387
0000b0 18 9f 4b 3e af 4b c9 bc 29 e8 03 3e 68 b5 24 3d
       0.19884908 -0.024572222 0.12881531 0.040212065
0000c0 0c 4d db 3d d7 47 a7 bc 7e ce 3f bd 29 c9 c5 bd
       0.10708055 -0.020419998 -0.046827786 -0.09657509
0000d0 82 4c ec 3d ea 91 0b bf 2a e2 07 be a1 64 ca 3d
       0.1153803 -0.5451952 -0.13269868 0.09882475
0000e0 f9 4b e7 bc fa 0c 45 bb c0 93 62 3e c9 9d 12 3c
       -0.028234469 -0.003006755 0.22126675 0.008948752
0000f0 8b ac e9 3b c2 a1 94 3e 40 dd c6 bd 72 51 87 3e
       0.0071311644 0.2902966 -0.09710169 0.26429325
000100 16 48 95 3d a4 80 82 3d 95 91 43 be a2 88 30 3f
       0.0728914 0.063721925 -0.19098504 0.68958485
000110 e8 27 0b 3e 66 16 b8 bc 0d 60 35 bd b0 44 3f b9
       0.13589442 -0.022471618 -0.044281054 -0.00018240768
000120 23 94 54 3d fc 68 59 3d cb 28 96 3c de 61 f8 3c
       0.051899087 0.053078637 0.018329998 0.030320104
000130 8a f9 18 3f e5 5b b3 3d bd d1 24 be 85 a2 c1 bd
       0.59755766 0.08757762 -0.16095634 -0.09454826
000140 92 54 34 3d 3d 8e 18 3e 07 04 83 3d ff 3d 28 be
       0.044025965 0.1489801 0.063972525 -0.164299
000150 44 df 11 bd 52 eb 80 bd 00 42 af be f0 d5 5d 3e
       -0.035613313 -0.06294884 -0.34230042 0.21663642
000160 b4 15 87 be 8c 6d 0d be af 40 ef 3d 8e 0b 91 be
       -0.26383746 -0.1381132 0.11682259 -0.28329128
000170 a0 ac 47 3e 54 c9 42 be b6 93 85 be aa eb 20 be
       0.19499445 -0.19022113 -0.26089257 -0.15714899
000180 85 4c 1b 3e 06 68 09 3d a1 52 2b be de b4 05 be
       0.15165909 0.03354647 -0.16730739 -0.13057277
000190 57 e2 7e bd 5c 2c e8 3c 24 36 30 3d ea 55 7a bc
       -0.062227573 0.028341465 0.043020383 -0.015279273
0001a0 fa fb 9e 3d 6c d8 5a bd d3 be 72 3e 34 f8 a0 3b
       0.077629045 -0.053429052 0.23705606 0.0049124006
0001b0 c9 78 8f 3d 01 6b be 3c 72 dc 87 3d 9e bb 57 3d
       0.0700546 0.023244383 0.066338435 0.05266916
0001c0 05 41 3f 3b 3b 35 c4 3e 91 4c 03 3e 58 d3 58 be
       0.0029183042 0.38321862 0.12822177 -0.21174371
0001d0 32 42 ec 3d df 6c a1 bc 29 ed 04 3e 7b 27 80 be
       0.11536063 -0.019705234 0.12981094 -0.2503012
0001e0 c4 a5 3f be 37 cf ae bd 94 c1 dd 3d 13 b3 19 3e
       -0.18715578 -0.08535617 0.10827938 0.15009718
0001f0 59 2f 8e 3d d3 a8 2c bd 11 72 45 bd c2 cb 1b 3d
       0.069426246 -0.04215319 -0.048204485 0.038036115
000200 27 39 00 3e d0 25 19 bd e8 c1 82 3d 69 44 78 3e
       0.12521802 -0.037389576 0.06384641 0.24244846
000210 13 46 c6 3c fd 67 46 3e 27 51 e6 3a 42 65 87 3d
       0.024203336 0.19375606 0.0017571793 0.0661111
000220 84 e0 5d 3e 16 de 32 3d b7 6d 87 3e b7 70 6f be
       0.21667677 0.04366883 0.26450893 -0.23382841
000230 01 f0 6a 3d b2 4d 2d bd 00 c7 30 bd d3 09 94 bc
       0.05735779 -0.042310424 -0.04315853 -0.01807109
000240 32 69 68 bd 4c 25 46 3d d4 51 97 bc 58 52 0a 3a
       -0.056740947 0.048375413 -0.018471636 0.00052765524
000250 bf e1 89 3c 08 2c 92 3b a5 95 0f 3e 43 e9 2b 3e
       0.016831277 0.0044608153 0.14021929 0.16788201
000260 cf f3 0d 3e 0d 49 02 3e 97 a4 29 bd 48 c7 86 3d
       0.13862537 0.12723179 -0.04141673 0.06580979
000270 2f d8 8a 3d 1a c4 2c 3e d8 ff a8 3b fc 94 ae bc
       0.06779515 0.16871682 0.005157452 -0.021311276
000280 97 1b 60 3e 5d dc 6a be 12 d1 da 3d 73 7a 09 3e
       0.21885525 -0.22935624 0.10684408 0.13425617
000290 19 c4 b6 bd 35 09 58 be 3e 45 29 bd 81 5f 80 3e
       -0.089241214 -0.21097262 -0.0413258 0.25072864
0002a0 24 c0 ec be 67 df 85 bd e5 20 44 3e bf cb 21 3d
       -0.46240342 -0.06536751 0.19153173 0.039500948
0002b0 0b 07 7a 3e 14 7c f0 3d 1f 08 d9 3d b4 e2 0d 3d
       0.24416749 0.11742416 0.10597252 0.03464003
0002c0 eb 74 05 bd 5e 34 9d 3b d5 49 ab 3c da 72 8f bd
       -0.032582205 0.0047975024 0.02090923 -0.07004328
0002d0 f8 78 3b be a7 70 e2 3d 64 a6 5a be f5 59 20 3d
       -0.18307865 0.11056643 -0.21352535 0.03914829
0002e0 32 be c8 3e f4 eb 2b 3e 01 da 2a bc ce 45 72 bd
       0.39207608 0.16789228 -0.010427953 -0.059148602
0002f0 b7 16 39 bd 36 99 a2 be f2 ca 11 3e 97 8c 86 be
       -0.04518768 -0.31757516 0.14237574 -0.26279137
000300 96 8c b4 3e 2b 58 18 bd ef 7f 0f 3d 86 7c 21 be
       0.3526351 -0.03719346 0.035034116 -0.15770158
000310 e1 67 72 bd be 4c b8 3e fa e1 81 be 96 20 1a be
       -0.059181098 0.3599605 -0.2536772 -0.15051493
000320 ce f3 07 bf fb 0a de 3d 38 c6 36 bc 0e 30 99 be
       -0.5310639 0.10841938 -0.0111556575 -0.29919475
000330 6b b1 50 3e 0d 94 3e 3d 7c bc 06 3e ce fa 3c be
       0.2038018 0.04652791 0.13157839 -0.1845505
000340 ff 68 69 3d 85 41 02 be 7f 93 a4 3e 3a 07 91 3e
       0.056984898 -0.12720306 0.3214378 0.28325826
000350 81 a5 2b bf f8 0a 96 be 90 35 4c 3e ca 09 ed 3c
       -0.67049414 -0.29305243 0.19942307 0.028935332
000360 4d b0 8b bc 0c fa 2d 3c 83 c5 f2 bd ba 5d 44 3c
       -0.01705184 0.010618698 -0.118540786 0.011985237
000370 f9 d9 c9 bd 23 57 2b be 0e f2 aa 3e f8 29 0e 3c
       -0.09856028 -0.16732459 0.33387798 0.008676998
000380 71 09 24 3d 0c a4 85 3d 88 1f ed bd 7c f5 2f 3f
       0.040048067 0.0652543 -0.1157828 0.68733954
000390 17 5d 10 3e d4 f3 0f be d6 90 d0 be 9b 93 13 bd
       0.14098011 -0.14057857 -0.407355 -0.03602944
0003a0 08 78 09 3d 58 80 30 bb ba 95 1d ba 55 a1 3a 3d
       0.033561736 -0.0026931968 -0.00060113857 0.045564014
0003b0 d1 27 bf 3c 75 66 4d 3e 84 96 4c bc 28 67 36 3e
       0.023334416 0.20058616 -0.012487058 0.17812788
0003c0 19 15 89 bd 61 80 ea 3d 21 f0 19 3d ed 5c ac bc
       -0.06693477 0.114502676 0.03758252 -0.021040404
0003d0 e8 40 f0 3d 20 fe 10 bd db b0 7c bd 18 e1 29 bf
       0.1173113 -0.035398602 -0.0616921 -0.6635909
0003e0 a1 f8 9c 3c 06 53 c2 3d 99 0c 89 3d 98 37 5b 3d
       0.019161524 0.09488492 0.06691856 0.053519815
0003f0 a5 9f 6d 3e ad c7 2e 3d ee b0 1a 3d 88 2d 2d be
       0.23205431 0.042670894 0.03776639 -0.169119

deconv2.bias f4 [32]
000000 57 75 17 3e 02 65 34 3e 81 6c ef 3d 83 c4 2c be
       0.14790855 0.17616656 0.11690617 -0.16871838
000010 bd b8 37 be 16 4f 12 3d e5 47 f1 3c 90 97 28 3e
       -0.17941566 0.035719953 0.029453227 0.16464067
000020 0f 53 8b bc 64 b1 bf 3d 65 86 13 3e e4 f9 33 3e
       -0.017007379 0.093600065 0.14406736 0.17575794
000030 95 c6 99 bd f3 4c 41 bd a8 01 91 bc e4 c8 33 3d
       -0.0750858 -0.047192525 -0.017700985 0.043892756
000040 5d 6e 94 3d 07 24 57 3e 06 83 8f 3d ae 35 84 3d
       0.072476126 0.21009837 0.070074126 0.06455551
000050 d8 93 83 3d 49 08 0d 3e d4 f2 36 3e b8 7c 83 3e
       0.06424683 0.13772692 0.17866069 0.2568109
000060 ee 5d 02 3e b4 e7 b7 3d 83 3f 38 3d ed 49 0d 3d
       0.12731144 0.08979741 0.044982444 0.03449433
000070 da 91 8e bd 5f 03 81 bd a2 5d 80 3d e6 17 8e 3d
       -0.06961413 -0.06299471 0.06267859 0.06938152

deconv3.weight f4 [32, 1, 5]
000000 9a 09 01 bf e2 9c 93 3e 75 4f 45 3e f8 6a dd 3d
       -0.50405276 0.2883063 0.19268592 0.10811418
000010 e8 1b 81 bd 8c fb 76 3d 48 0f 2e 3e d4 14 68 3f
       -0.06304151 0.060298488 0.16998017 0.9065678
000020 84 08 28 3f 2b 34 9c bd b3 dc 7b 3e 46 e6 b7 3d
       0.65637994 -0.07627138 0.24595909 0.08979468
000030 d3 ac 10 bd 10 c6 f0 be 8f 22 ff be 73 1c 10 3f
       -0.035321068 -0.4702611 -0.49831054 0.5629341
000040 64 e4 c4 3e b4 b6 a9 3e e5 5a c4 3d 56 78 dc be
       0.38455498 0.33147204 0.09587649 -0.4306056
000050 9d 77 ac 3d 1b 43 0c 3f 89 5c 58 3e 54 ea 07 bd
       0.08421252 0.54789895 0.2112905 -0.033182457
000060 da a3 d5 be de 00 89 be c2 4f 1a 3d 7f 1e ff be
       -0.4172657 -0.26758474 0.03767372 -0.49827954
000070 47 6e 4a 3e fd a5 b7 3d c5 5c 7b 3e e4 d2 f3 3d
       0.1976863 0.089672066 0.24547108 0.119054586
000080 22 63 d9 3d 78 6a 4b be 67 7f a0 3d d6 68 55 be
       0.10614611 -0.19864833 0.078368 -0.20840773
000090 64 aa c2 be eb ec 79 3f 7c d9 72 3e 5c a5 6d bc
       -0.38020623 0.97627133 0.23715776 -0.014504757
0000a0 f0 38 be 3e f4 7a 24 3f 0f 76 48 3d 9a b7 2e be
       0.37152815 0.6425011 0.048940714 -0.17062226
0000b0 70 97 99 be d8 57 32 3e 78 93 96 3d cf 03 96 3d
       -0.2999835 0.17416322 0.07352346 0.07324945
0000c0 f5 4e 94 3e 90 3c 74 be bc 29 06 be f1 5d 30 bf
       0.2896649 -0.23851228 -0.13101858 -0.68893343
0000d0 ae 2b 21 bf 7f 51 45 be 8f f8 cb ba a2 c3 31 3e
       -0.62957275 -0.1926937 -0.0015561747 0.17359784
0000e0 48 22 d8 3e c1 e3 df 3e 4b d8 80 3e ae 18 e6 3d
       0.42213655 0.4372845 0.25165018 0.11235176
0000f0 f7 0b 2a be 01 68 ae 3e 30 2f e9 3e 74 67 5a 3e
       -0.16606127 0.34063724 0.45543814 0.21328527
000100 b5 89 69 3e ce bc c9 be 6b 8f 3e bf 1d 3d 22 3f
       0.22806437 -0.3940186 -0.7443759 0.633745
000110 ce 8c 5c 3d f0 f2 15 bd f6 ce de bc 9b c0 27 bf
       0.05384522 -0.036608636 -0.027198296 -0.6552827
000120 95 bf dd be 70 76 be 3e 23 f1 c5 3e 6e f8 97 3d
       -0.43310228 0.37199736 0.38660535 0.07420431
000130 3f ef bf be 48 ac 6a 3e 9b 16 d0 3e 29 47 04 be
       -0.37487218 0.22917283 0.40642247 -0.1291777
000140 c1 fa 0a be 94 bc 58 3d 73 1f 94 3e a0 00 0b 3f
       -0.13572218 0.052914217 0.28930244 0.5429783
000150 77 9a 2b 3e 56 76 25 3e ad 6b 38 be d0 db c6 3d
       0.16758142 0.16158423 -0.18009825 0.09709895
000160 cf 5f 29 3f 23 39 35 3f 38 24 01 bd 72 2b 02 be
       0.6616182 0.7079031 -0.03152868 -0.12711886
000170 ac 45 fe be 6e d6 07 bf da 66 5b be d8 b3 11 bd
       -0.4966253 -0.5306157 -0.21425954 -0.035571903
000180 c9 13 c8 3b 4f 75 14 be 45 f4 05 bf ed 8d 16 be
       0.006105874 -0.14497875 -0.5232585 -0.14702578
000190 30 8f 63 3e 92 a0 ac be fb 65 aa 3e 64 6d 49 3e
       0.2222259 -0.33716255 0.3328093 0.19670635
0001a0 7b 5f d8 3e da 4a 4a 3d e6 5b b3 bd 29 10 64 3e
       0.42260346 0.04938779 -0.087577626 0.2227179
0001b0 92 4c 9f 3e fe 73 93 3d 26 f2 46 bc 22 1b 52 3e
       0.31113106 0.07199858 -0.012142694 0.20518163
0001c0 e4 7f a1 3e 31 30 a2 3d 31 94 50 bd 5e e4 e4 3e
       0.31542885 0.07919348 -0.050922576 0.4470548
0001d0 84 d9 31 3e d4 7d 49 3e 98 51 79 bd 70 70 27 be
       0.17368132 0.19676906 -0.06086883 -0.16351485
0001e0 77 86 c5 bb 0f 17 a7 3e 47 8c 71 bd 15 ae 38 3d
       -0.0060279923 0.3263478 -0.05897167 0.045087893
0001f0 6a e5 7b 3e 88 23 26 bc 3c 1b ad 3e a8 44 2c be
       0.24599233 -0.010140307 0.3380984 -0.16823065
000200 f7 c2 dd 3e 22 be 44 be b9 30 10 3e 87 00 9e 3e
       0.4331281 -0.19213155 0.14081086 0.30859777
000210 7e 21 cf 3e fe 7a 2a be 54 18 56 3e 7e 9d 81 3e
       0.4045524 -0.1664848 0.20907718 0.2531547
000220 03 f7 e4 3e 3d 0f 0e bd a5 35 87 bd 9b 5a 8c bd
       0.44719705 -0.0346825 -0.06602029 -0.06853219
000230 b5 a8 89 3e a9 09 9e be ba 96 4a bd 96 a1 83 3e
       0.26886526 -0.30866745 -0.04946015 0.25709218
000240 b3 30 91 3d 2c 69 4a be 47 dc 1b be 26 34 37 bd
       0.07089367 -0.19766682 -0.15220748 -0.044727467
000250 71 fb 99 be 45 f1 ba be af 85 1b 3e d0 2d 88 3e
       -0.30074647 -0.365122 0.15187715 0.26597452
000260 64 3a ab bc 0b 5b 3a 3e 3c 5f 79 3e df d5 b9 3e
       -0.020901866 0.18198793 0.24352735 0.36295983
000270 eb 84 58 3d dc 1c 9c bd c8 25 d1 3d 84 ea 94 3e
       0.052861135 -0.07622692 0.10212284 0.2908517
