models/multi_resolution/SNN_Autoencoder_tsri_320s.pth (torch, 37171 bytes, 11 tensors)

encoder_conv1.weight f4 [32, 1, 5]
000000 56 be f4 3e 66 74 e2 bc b2 85 8a 3d f8 a4 e6 3d
       0.47801465 -0.027643394 0.067637816 0.11261934
000010 22 71 a5 3e c0 64 44 3d e8 50 3b be e9 c3 bd bc
       0.32312876 0.047947645 -0.18292582 -0.023164706
000020 f4 b3 51 3f 15 5a a6 bd 4b ed 10 bf 8c 5e 10 be
       0.8191521 -0.081226505 -0.5661208 -0.14098567
000030 cd 75 84 3e ff 53 f0 3e e0 32 89 3e 35 82 ae 3e
       0.25871125 0.46939084 0.26796627 0.34083715
000040 84 b4 c1 3e a0 50 a6 3e 86 ed a0 3e 13 57 c8 3c
       0.37833035 0.32483387 0.31431216 0.024455583
000050 5f 43 a4 3e cf 66 ad 3e 0e e0 03 bd 3c fd 9a be
       0.3208265 0.338675 -0.032196097 -0.30271327
000060 2d da 88 bc 89 63 5d 3d e9 32 e3 3c 50 67 ce 3e
       -0.016705597 0.054050002 0.027734237 0.40313196
000070 e9 86 01 3f 9c 5b a6 3d ce 34 0d bd ec f2 4b be
       0.5059648 0.08122942 -0.034474187 -0.19916886
000080 eb 31 66 bf ae d9 05 bf aa 91 b7 be 86 24 92 ba
       -0.8991992 -0.5228528 -0.3585332 -0.0011149801
000090 db 15 ac 3c c3 01 e6 3d 94 b8 10 be c2 bc f7 bd
       0.021006515 0.11230805 -0.14132911 -0.120965496
0000a0 9d b8 fb 3e da 0b 3c be 82 75 2e bd dc fb eb bd
       0.49164286 -0.18363896 -0.042592533 -0.11522648
0000b0 68 7f 9d 3d 9c df d1 bc c6 0a c8 3d 49 96 82 be
       0.076903164 -0.02561932 0.0976768 -0.25505283
0000c0 77 45 8a be 9b 97 a7 be 6c 43 b8 3c 8b 17 c5 3d
       -0.27006122 -0.32732853 0.022493087 0.09623631
0000d0 55 df 53 be c0 c6 a5 be 27 e2 eb 3c 07 8d b3 bc
       -0.20690663 -0.32378197 0.028794361 -0.021917833
0000e0 67 df 12 3e 92 cd 86 3e eb 46 a8 3d 8a 1c eb 3d
       0.14343034 0.26328713 0.082166515 0.11480053
0000f0 2c 8f 6f 3e cc 66 23 3e 3a 9c ae 3e fa d8 bc 3d
       0.2339446 0.15957183 0.34103566 0.092210725
000100 9d ec bb 3d 4a 5a 99 bd 6f b0 79 bd 20 fe 08 bd
       0.0917599 -0.074879244 -0.060959276 -0.033445477
000110 86 c9 ac bd 58 41 69 3f 80 c8 96 be 14 c8 2a 3f
       -0.08436875 0.9111533 -0.29449844 0.66711545
000120 84 24 90 3e 6b 8c 0d be bf de df 3d 89 ad ae 3d
       0.2815286 -0.13823096 0.10931157 0.08529193
000130 78 11 02 3f 60 4a cb 3d 45 78 51 be 7f f9 dd 3e
       0.50807905 0.09926295 -0.20456035 0.43354413
000140 ce bf c9 3e 0c ec 3a 3e d2 a2 15 3e 03 8c be be
       0.39404148 0.18254107 0.14612892 -0.37216195
000150 c7 d7 a1 be d1 55 14 3f 9c 66 d4 3e 6c 4e be 3e
       -0.31609938 0.57943445 0.41484535 0.37169206
000160 e0 41 27 be d7 96 49 be d5 6b 29 be c0 e9 1e bd
       -0.16333723 -0.19686447 -0.16545041 -0.03879714
000170 35 7b 55 3f e2 83 d9 3d 4d 9c 3b 3d c6 dc a6 bd
       0.83391124 0.10620858 0.045803357 -0.08147578
000180 fa a5 57 3f 97 73 c7 bc 84 da a9 3d 7c f5 37 be
       0.84237635 -0.02434711 0.08293632 -0.17964739
000190 25 d3 e5 3e 6f b2 0a 3f 5b 2b e2 3e 50 39 b6 3c
       0.44887653 0.5417852 0.44173703 0.022244126
0001a0 f2 64 25 bc 88 d4 c5 3e 50 c3 f0 3e c9 7b 3a 3e
       -0.010094868 0.3863871 0.47024012 0.18211283
0001b0 9e e5 22 be 4c dc 3a bd 20 f5 e2 3e d4 b8 bb 3e
       -0.15907905 -0.045620248 0.4432764 0.3666445
0001c0 e6 b1 da be 4e e0 08 bf 57 5d d2 3a fa fe 50 3b
       -0.4271385 -0.5346726 0.0016049546 0.003189026
0001d0 3e 86 1f bc 0b 24 ef 3e 9b 9a 0c 3f 08 3c 80 3c
       -0.009736596 0.46707186 0.5492341 0.015653625
0001e0 76 ce 1c bd 4d 59 a7 be 4c 91 e8 be 37 2b ae 3d
       -0.038282834 -0.3268532 -0.45423353 0.08504336
0001f0 dd d8 c6 3e 92 bb c2 3e b7 5f 01 3f d5 89 67 be
       0.3883733 0.3803373 0.50536674 -0.22611172
000200 57 7b 38 3e 38 5c f9 bd d4 12 74 be 1c 82 6c bd
       0.180158 -0.121757925 -0.23835307 -0.05774127
000210 06 a6 e1 3e 75 04 3c 3c 4c cf 13 3c f0 b3 05 3e
       0.44071978 0.011475672 0.009021591 0.13056922
000220 6a c3 f1 3d 99 de a3 3e 94 ae fc 3e 4c db d4 3d
       0.118048504 0.32005766 0.49351943 0.1039339
000230 5d d0 6f bd b3 07 a1 3e 91 b5 8f be f7 27 0f 3e
       -0.05854832 0.31451187 -0.28068212 0.13980089
000240 cb 2c aa bd cd 80 d2 3e aa 4b b7 3e 58 2b f0 be
       -0.08309325 0.41113892 0.35799915 -0.4690807
000250 b2 4c 17 3e 5c 00 5c 3b 18 3e fa be cf 2b 00 3f
       0.1477535 0.003356955 -0.488755 0.50066847
000260 a5 d3 9e 3e b8 3b 37 bd a4 51 75 3e 3d 54 95 3d
       0.31020847 -0.044734687 0.23956925 0.07291458
000270 ae bf 9b 3e 1c c9 64 be b6 d5 ce 3e 78 ba b9 3e
       0.30419677 -0.22342342 0.40397424 0.36275077

encoder_conv1.bias f4 [32]
000000 7f aa 82 be aa 4d f4 3e 41 03 f9 3d 05 b3 5a bd
       -0.25520703 0.47715503 0.12158824 -0.053393383
000010 13 ca 00 3e 5a 0e 5d bd ba 69 8a 3f d3 5a c4 3e
       0.12577085 -0.053968765 1.0813515 0.38350543
000020 87 d4 fd 3e f9 bd 3a be ea 17 d2 be a2 65 c9 3d
       0.49576208 -0.18236531 -0.4103387 0.09833838
000030 e8 1a 39 be de 58 d4 3e 48 c8 05 3f 0a d3 94 be
       -0.1807667 0.4147405 0.5225873 -0.2906726
000040 e4 75 36 3f e3 63 e8 3e f6 63 50 3e cf b7 b1 3e
       0.71273637 0.45388708 0.20350632 0.34710547
000050 e1 52 bb be c5 aa 58 3e 1b ca a5 3e 9c 47 89 3d
       -0.3658667 0.21158893 0.32380757 0.067031115
000060 e5 78 1f 3f 41 e0 64 3d 08 ea 61 3f 91 39 6e be
       0.62293845 0.055877928 0.8824773 -0.23264147
000070 b6 be 08 bf 7a e7 b4 3d 44 18 fb 3c 7a 91 75 be
       -0.53416 0.08833213 0.03065122 -0.23981276

encoder_conv2.weight f4 [16, 32, 5]
000000 38 c4 ab bc d8 f6 93 bd c6 45 0a 3e 1c 0d 76 3c
       -0.020967588 -0.07224816 0.13503179 0.015017774
000010 75 c8 e9 bb 15 5c 0a 3d fb 64 4e 3a 64 a4 f8 3d
       -0.007134492 0.033779223 0.00078733236 0.1214073
000020 6d 95 a9 3d bb 18 2f bd fc 1e 75 bc e2 09 a1 bb
       0.08280454 -0.042748194 -0.0149610005 -0.004914508
000030 52 4d 0a 3e 60 5a 0b bd c3 98 fb bc 89 48 29 3c
       0.13506058 -0.034021735 -0.03071249 0.010332235
000040 9c 05 2c 3d 4a cd 13 3e ec a5 b6 3d 7c 0d 86 bc
       0.041997537 0.1443378 0.08918366 -0.016363852
000050 3f 2f 03 bd 5f d6 95 bc a5 7a 47 bd a1 70 0e 3d
       -0.03202748 -0.018290697 -0.048700947 0.03477538
000060 9b 8c 87 bc a8 b6 c7 bc c9 f9 83 bd a6 e0 83 3e
       -0.016546538 -0.02437909 -0.06444127 0.2575733
000070 9c cb 47 bd 3a a8 38 bd 3e 9c 88 bb 5c 68 64 bc
       -0.04877816 -0.04508231 -0.004169016 -0.013940897
000080 d4 df 30 bd 40 5b 4f bd 75 c8 c4 bb de 06 69 bd
       -0.04318221 -0.050624132 -0.0060053417 -0.056891315
000090 b1 0a 64 bd 57 41 39 be a1 f9 0d be e7 93 88 bd
       -0.05567426 -0.18091331 -0.13864757 -0.06668835
0000a0 fa 98 60 bd 6f 80 12 bd 2d 35 a2 bd 9d 50 42 3d
       -0.05483339 -0.035767015 -0.07920299 0.04744016
0000b0 73 97 1c bd 68 b0 63 bd 3a 62 6b 3d 28 9b f2 3c
       -0.03823037 -0.055588156 0.057466723 0.029615
0000c0 60 3e 07 3b 94 d2 fa bc d0 66 50 bc 01 09 2c 3d
       0.0020636544 -0.03061799 -0.012719825 0.042000774
0000d0 e2 4d 6e 3d 54 43 4d bd 00 23 47 3c 5c 8b 39 bd
       0.058179744 -0.050113037 0.012154341 -0.04529892
0000e0 39 92 c4 bc fd 2d fc 3d 83 8f 68 3c d9 f9 51 bd
       -0.023995506 0.12313459 0.014194372 -0.051263664
0000f0 fa cd 29 bd dd 59 74 bd f5 9b c6 3d dd 57 42 bd
       -0.0414562 -0.059656013 0.09697715 -0.047447074
000100 b2 5a 31 bd dd a1 a4 3d 04 c2 df 3d 13 44 9a 3e
       -0.043299384 0.080386855 0.109256774 0.30130062
000110 e0 d7 8a 3d 70 9d cc 3c 84 eb 18 3c f6 0f 11 3d
       0.06779456 0.024977416 0.009333495 0.035415612
000120 b0 9f e3 bc c1 84 be bd 99 2b ce bc 2f ac 22 bd
       -0.027786106 -0.093026645 -0.025167273 -0.03971499
000130 4c 25 20 bd 3c a2 20 3e 8d d5 75 bb 4e d3 b9 bb
       -0.03909807 0.15686888 -0.003751132 -0.0056709414
000140 97 60 4c bd df 4a 86 3c 5a 93 64 be d2 5b ce 3b
       -0.049896803 0.016393123 -0.22321835 0.006297567
000150 56 99 a2 ba de 19 8a 3c 77 0d cf 3c 67 63 b4 3c
       -0.0012405317 0.016858038 0.025274975 0.022020055
000160 c3 b6 25 3d b2 5b 66 3c ec 31 23 bd 30 ef 6e bc
       0.0404575 0.014059948 -0.03984253 -0.014583394
000170 22 df 47 3e 2b 1f a9 bc 3a dc 10 bc 22 de 69 3c
       0.19518712 -0.020644745 -0.008841569 0.014274152
000180 2c 46 1c 3d 02 68 9e bd 48 fe b5 bc da a5 ac bb
       0.03815286 -0.07734682 -0.022215977 -0.0052687945
000190 29 8c ac bc 53 23 5f 3d 87 b9 88 3d 0d 1b 0a bd
       -0.021062927 0.054477047 0.066760115 -0.033717204
0001a0 86 2c 29 3d b2 fc ae 3b 33 12 44 3d 44 df 38 bd
       0.041302226 0.005340182 0.04786892 -0.045134798
0001b0 d8 91 ee bb db 6c 04 3c 59 53 98 38 93 54 38 3d
       -0.0072805695 0.008082594 7.2634495e-05 0.04500253
0001c0 4d 81 84 bd 14 bb 1c bd b2 d7 3c 3c b3 60 0a 3d
       -0.06469975 -0.03826435 0.011526035 0.033783626
0001d0 60 9b 6e bc 3f 30 a8 3e aa 24 dc 3d 0b ab 3c 3d
       -0.0145634115 0.3284931 0.107491806 0.046061557
0001e0 85 b9 b7 bc 86 6a cf bc 78 b6 e9 bd 49 8d 21 bd
       -0.02242733 -0.025319349 -0.11411756 -0.03944138
0001f0 05 1f 1a bd c2 f9 7d bc d2 1e 99 3c e3 f9 8b bc
       -0.03762724 -0.015501441 0.018691454 -0.017086929
000200 37 48 a7 3c 71 b0 1c bd 2b 27 92 bb 38 2a d1 3b
       0.020420177 -0.038254205 -0.0044602356 0.0063832067
000210 67 5b 84 3d fa 16 77 bd b0 d9 ce bb 5c fe 88 bd
       0.06462746 -0.060324647 -0.0063125715 -0.0668914
000220 d8 a0 4a bd f8 66 0d 3e 52 13 38 bd f2 ac 43 bd
       -0.0494698 0.1380881 -0.0449403 -0.047772355
000230 c0 8e 17 3b 87 22 81 3d ec 7f e3 3c 7f d2 9f bd
       0.0023125857 0.06305414 0.027770959 -0.07803821
000240 6c c7 c4 bc 17 15 69 bd b0 b7 05 3c c5 fa e0 3c
       -0.024020873 -0.05690488 0.00816147 0.027463326
000250 87 d2 d8 bb cd ad 91 3c 8b 2f 78 bc 1b 79 1d bc
       -0.0066168937 0.01778307 -0.015148054 -0.009611393
000260 e0 5c eb 3d fe e1 99 3c a0 3b 3e bd 42 c2 07 bd
       0.11492324 0.01878452 -0.04644358 -0.033144243
000270 96 6f 8e bd e1 79 96 3d cf 4d 04 bd ef 3c 5a 3c
       -0.06954877 0.07347465 -0.032300767 0.013320192
000280 00 20 02 be ef 7b 0a be ff 53 4c bd 2c a3 9b bd
       -0.1270752 -0.1352384 -0.049884792 -0.07599482
000290 17 f1 06 bb 1e 70 54 bd 66 b5 b6 3b 7f e3 e5 3d
       -0.0020590478 -0.051864736 0.0055758236 0.11225032
0002a0 8d 7a 02 3e 1f 79 d0 3d 29 66 df 3d 4c c9 49 3e
       0.12742062 0.10179352 0.109081574 0.19705695
0002b0 60 c9 88 3d 91 64 be 3d 6e 25 cd 3d df 0f 43 be
       0.06679034 0.09296525 0.10016905 -0.19049023
0002c0 6d bc fd bc e8 f1 18 bd e1 0f 45 3e 5a cb 64 3e
       -0.030973637 -0.037340075 0.19244339 0.22343197
0002d0 08 f3 18 be 6e e4 05 bd ed ef 75 3c c5 b2 89 bc
       -0.14936459 -0.03268855 0.015010816 -0.016808877
0002e0 2e c1 46 bd 8b 47 b4 be db ac 20 bd ae 18 dd bd
       -0.048524074 -0.35210833 -0.039227348 -0.10795723
0002f0 f5 8d a0 bc 59 81 c7 3b 9e 11 b6 3e e4 c9 87 bd
       -0.01959894 0.0060884175 0.35560316 -0.066303045
000300 35 08 8e bd 84 96 6a bd f5 48 63 bd 73 85 16 3e
       -0.06935159 -0.05727245 -0.0554895 0.14699344
000310 d0 76 de 3d 4b 40 c8 3d cd 8a 20 3e b8 67 4d 3e
       0.108625054 0.09777888 0.15677948 0.20059097
000320 f5 58 2b be 1c e3 7b bd 29 ae 6b 3d a0 23 c6 3c
       -0.16733153 -0.061495885 0.05753914 0.02418691
000330 4c 22 1d 3c 98 9c 0e 3d aa d0 03 bd ce a4 13 3d
       0.009590697 0.03481731 -0.03218142 0.036045842
000340 52 6d 91 bc 00 82 9b 3c f2 ed 42 3d 39 66 06 bd
       -0.017752323 0.018982887 0.047590204 -0.03281233
000350 58 09 3e 3c 78 c7 38 3c 40 64 a3 3c 08 8d cd bc
       0.011598907 0.011278026 0.019945264 -0.025091663
000360 4b 57 78 3d 25 88 ee 3d 8f a1 1b bc ac 4c 31 3b
       0.060630124 0.11647061 -0.009498968 0.0027053757
000370 d7 32 86 be 51 25 c1 3d 91 b9 46 bd 1b 76 a3 bd
       -0.26210663 0.09430946 -0.048516814 -0.07981511
000380 b4 78 06 bc a5 12 14 bd f6 fc c4 ba 4c 38 86 3d
       -0.008207489 -0.036150593 -0.0015029002 0.065537065
000390 d9 47 ec 3d b0 ca 31 3e e9 28 36 bd 09 1d b9 3c
       0.11537141 0.17362475 -0.04447261 0.022596853
0003a0 6a 7c 8c 3c 98 05 da 3d 13 4b 72 3d ea 8e eb bd
       0.017149169 0.10645598 0.059153628 -0.11501868
0003b0 cd 87 cf bd f1 2f 2d bd f0 a1 e4 bd cb c8 0b bd
       -0.10133324 -0.04228205 -0.111636996 -0.034127038
0003c0 11 7a 90 3d e1 b0 eb 3b 18 87 19 3e 98 4f bc 3d
       0.07054532 0.0071927165 0.1499294 0.09194869
0003d0 40 77 86 bd 57 6b b2 bd 09 82 06 bc b0 df 52 3d
       -0.06565714 -0.0871188 -0.008209714 0.051482856
0003e0 13 ee 48 3c cb 00 d3 3d 68 23 0d be 24 d9 8b 3d
       0.012263793 0.103028856 -0.13783038 0.06828526
0003f0 af 9f 82 3c eb 1f 62 3d 8f e9 e4 3c 30 47 1a be
       0.015945284 0.05520622 0.0279434 -0.15066218

encoder_conv2.bias f4 [16]
000000 1c 26 a1 3d 2e ff 38 3e 6b 4c 07 3e 10 03 a1 3e
       0.07868597 0.18066093 0.13212745 0.3144765
000010 7b e3 04 be 73 22 75 3d 94 ca e0 3d 8d 7a 1a 3b
       -0.12977402 0.059847306 0.10976139 0.002357158
000020 1c 0d dd 3d 94 59 22 be e8 42 b5 3c f2 77 2e 3e
       0.10793516 -0.15854484 0.02212663 0.17037943
000030 68 24 4d 3e 34 8b ef 3d 47 42 03 3f 9b a1 25 3e
       0.20033419 0.11696473 0.51273006 0.16174929

encoder_conv3.weight f4 [8, 16, 5]
000000 db ae d1 3a 43 f3 b2 bc 21 0c 99 3b 83 d7 52 3e
       0.0015997546 -0.021844512 0.0046706353 0.20590024
000010 91 01 cc bc 3e f7 d2 bb f0 60 08 bb 79 29 3b 3b
       -0.02490309 -0.006438165 -0.0020809732 0.0028558655
000020 80 8b 37 3d bb 72 86 bc 76 21 38 3b 75 a5 b3 3a
       0.044810772 -0.01641213 0.0028096116 0.0013705926
000030 ea cb b7 3b 0b 4a 54 3c 7b 14 84 bb b2 5b 95 3c
       0.0056090252 0.012957106 -0.004030762 0.0182322
000040 d1 fe 36 3c a4 06 af 3c 6b 44 93 3e ca c6 e4 3c
       0.011169151 0.021365471 0.28763136 0.027926821
000050 2c da e6 3b 02 64 aa 3c 7f f5 52 3b c9 69 87 3e
       0.007045051 0.02079964 0.0032189784 0.26447895
000060 80 12 69 3b f8 92 c6 3a 3e c5 c9 3b 42 db ae bc
       0.0035564005 0.0015150001 0.0061575463 -0.021344785
000070 60 64 34 3e a8 02 17 3c 97 b9 49 3a 0f 42 e9 bb
       0.17616415 0.009216942 0.00076951965 -0.0071184705
000080 41 f7 b4 bb 18 bb 1e bd f3 ec 0e bb ae de b7 bc
       -0.005522639 -0.038752645 -0.0021808713 -0.02244505
000090 c7 bf 6a bd ce de e3 bc 12 85 51 be d3 94 cb bc
       -0.0573118 -0.027816202 -0.20460919 -0.024851238
0000a0 45 7a 64 3b e7 77 57 3c 9d 76 f3 3c 9f 50 21 3c
       0.0034862917 0.013151146 0.029719645 0.009845882
0000b0 c3 70 cb bc 95 40 e3 3a da 9b 69 ba fb 03 98 bb
       -0.024834042 0.0017337973 -0.00089114683 -0.0046391464
0000c0 08 70 43 3d db 71 4b 3b cb c0 b2 bb fa 55 42 3b
       0.047714263 0.0031043205 -0.0054551116 0.0029653297
0000d0 86 5e 7a bb bf c7 4f bc 14 93 02 bd b2 80 32 3a
       -0.0038203313 -0.0126819005 -0.031878546 0.0006809338
0000e0 32 af c5 bb ff 41 1f 3c a0 d4 c2 3b e9 1e 04 39
       -0.006032848 0.009720325 0.005945757 0.00012600016
0000f0 9e b3 dd 3b 30 34 be ba bb 78 10 bc c3 3f 1e 3e
       0.006765797 -0.0014511403 -0.008817847 0.1545401
000100 44 04 c3 3c 8e 3a 28 3c ee b3 b6 ba 1b 2a ad bc
       0.023805745 0.010267867 -0.0013939121 -0.021138242
000110 3a 17 19 bd 91 b6 de 3c 14 35 8d 3c 56 8f 7e 3c
       -0.037375666 0.027186664 0.017237224 0.015537104
000120 a0 8f 04 3b e4 6c 54 bd d0 74 42 bb 64 0e 2b 3d
       0.0020227209 -0.05186166 -0.0029671676 0.04176177
000130 32 4b 57 3b 6f 48 4f bc 22 1e 58 bb e4 23 43 3d
       0.0032851216 -0.012651547 -0.0032976945 0.04764165
000140 07 51 ae ba 79 4d c1 3d 20 65 ea 3c fe 94 73 bd
       -0.0013299295 0.09438605 0.028612673 -0.059468262
000150 44 2a 49 3b d0 c7 02 3d aa 91 b2 bb 7e c3 fd 3b
       0.0030695358 0.031928837 -0.0054494934 0.0077442518
000160 76 53 ca bc af 29 ed 3c 8f 5f 8c 3a e4 16 08 3c
       -0.024698 0.02895054 0.0010709631 0.008306239
000170 0c 48 10 3e 67 59 db bb 7a 0a 57 3c 14 f0 82 3c
       0.14089984 -0.006694007 0.013125056 0.015983619
000180 47 af 98 3c 0e 21 6f 3d 8e 32 31 3d 4f 06 c9 3c
       0.018638266 0.058381133 0.043261103 0.024539141
000190 0c b6 68 3b e0 27 d3 3c 22 e8 32 3d 44 69 2e 3d
       0.00355089 0.02577585 0.04367841 0.042580858
0001a0 a3 d1 cd 3b 27 77 3a bc 08 de f4 bb 31 a9 2e 3d
       0.006281094 -0.011380947 -0.0074727573 0.042641822
0001b0 a0 ff 28 3d cd 79 1d bc d9 c7 02 bb 2f 84 f4 38
       0.041259408 -0.009611559 -0.0019955544 0.00011659448
0001c0 16 bf 04 3d 2d c4 a4 3c 06 d2 e8 ba fb f4 d9 3c
       0.032408796 0.020113075 -0.0017762787 0.026606074
0001d0 e7 84 a1 bd 10 97 df ba f2 66 e0 bd 08 ad de bc
       -0.07886677 -0.001705857 -0.10957135 -0.027182117
0001e0 20 46 36 bc 87 69 df bc 28 3e e2 3e 60 24 c8 3c
       -0.011125118 -0.027271999 0.44188046 0.024431407
0001f0 45 b8 f2 bb 3a ee a7 bc 86 0a c9 3c 69 22 35 bd
       -0.0074072205 -0.020499337 0.02454115 -0.04422227
000200 1b cc 99 bc 48 15 af bc d6 2f b2 3b fd f8 9b 3c
       -0.018774083 -0.021372452 0.0054378314 0.019039625
000210 cf b5 0b 3d 37 56 d1 3b ba 2d 88 3c d0 92 ad 3c
       0.034108933 0.0063884514 0.016623367 0.02118817
000220 4c 4a 04 3c 5a 74 90 3d 31 a0 a3 3c e4 c3 7f 3c
       0.008074354 0.07053442 0.019973846 0.015610669
000230 a8 0d 37 bc bd f8 0f 3d 52 8c cd bd ce 6e 88 bb
       -0.0111726895 0.035149325 -0.100365296 -0.0041635996
000240 56 e2 6d bc a7 88 92 bc 00 79 29 bd 75 2c ae be
       -0.014519295 -0.017887427 -0.04137516 -0.34018293
000250 70 ff fe bb ab f1 73 bc 6d 9e c8 bc 6e f2 0b bc
       -0.0077819154 -0.014889161 -0.024489606 -0.008541686
000260 97 8d 51 3e 35 a0 13 3d d9 18 d5 bc 61 e9 05 bd
       0.20464168 0.036041457 -0.026012825 -0.03269327
000270 53 71 12 3c c7 0d 59 3d 1f 37 7d 3b 2e a1 97 bc
       0.008938151 0.052991655 0.003863759 -0.018509474
000280 0b 61 88 3b aa 9e 27 3c 2f bc 72 3f 2d 3f d5 bb
       0.004161959 0.0102307 0.94818395 -0.0065077753
000290 82 f1 bd 3b 03 1d 9c bb e2 5d 0b 3c a3 4c 80 bd
       0.0057966122 -0.0047642007 0.00850627 -0.06264617
0002a0 c8 c5 72 bd ca 5e 7d bc 4c ef 18 3b c0 d6 08 bc
       -0.05927065 -0.015464494 0.0023335991 -0.008351982
0002b0 3d 42 12 be 2a 1b 8b 3b f9 66 37 3c c1 9f d6 3c
       -0.1428308 0.0042451816 0.011193984 0.026199223
0002c0 8d f6 bd 3a e9 a5 4a 3d 14 d6 21 3c 9e 24 02 3c
       0.0014493034 0.04947463 0.0098777 0.0079433005
0002d0 f9 6a 8b 3c ac de e3 bb 3a 54 16 3e bc 3b 32 3c
       0.017018782 -0.006954035 0.14680567 0.0108785
0002e0 31 cf a8 ba 0b 0f aa bb b2 57 96 ba af e8 1e be
       -0.0012879131 -0.0051897815 -0.0011470227 -0.15518449
0002f0 59 5d 75 3c ef 71 65 3c a0 62 0e 3c b5 14 80 3c
       0.014975869 0.014004215 0.008690506 0.015634874
000300 1c 98 34 3d 23 04 13 3c 0d 05 0e 3b 5c 63 97 3c
       0.044090375 0.008973154 0.002167049 0.018479995
000310 ff 88 58 3d 52 68 95 3d 8c b3 fc bd 2f ae 88 bb
       0.052865025 0.07295288 -0.12338933 -0.004171155
000320 43 72 97 bc e0 e7 6a bc c6 7f bf 3c 83 e2 1e bc
       -0.018487101 -0.01433751 0.023376357 -0.009697559
000330 61 71 81 bb 5d be 35 b9 ff bc 3c 3c 4b e0 c1 bd
       -0.0039502834 -0.00017332421 0.01151967 -0.094666086
000340 2f f0 43 bb 0e 78 54 ba 4d e4 cc ba 47 44 ad ba
       -0.00298978 -0.0008105048 -0.0015632004 -0.0013219201
000350 18 ba ed 3c 4b 34 08 3c cd a7 51 3b 27 ce c1 bb
       0.0290194 0.008313249 0.0031990886 -0.005914468
000360 b7 15 07 3b 16 d1 6b bc 41 6c 86 bc c7 23 05 b8
       0.0020612308 -0.014393112 -0.016409041 -3.174299e-05
000370 ce be 9b bc f4 e2 7c bb 17 ca e2 3d e6 5e c8 bc
       -0.019011881 -0.0038587423 0.11073702 -0.024459314
000380 e7 ec 22 bb 4c bd 96 ba 64 5b 85 bc 63 7b 00 be
       -0.0024860443 -0.0011500507 -0.01627893 -0.12547068
000390 be f5 ba 3a 16 12 99 bb 59 2c d9 bb c8 fc 64 3c
       0.0014263911 -0.0046713455 -0.006627601 0.013976283
0003a0 0a 66 90 bd f5 44 5a bb 74 e7 0e 3c 90 8d 3b bc
       -0.070507124 -0.0033305262 0.008722175 -0.011447325
0003b0 9f 53 26 bc e8 6a 6f bd e8 5d 83 3c e9 46 41 3b
       -0.010151773 -0.058451563 0.016035989 0.0029491729
0003c0 d1 dd b0 bb 6f ae 31 3d de b0 50 bc 4c d9 ee 3b
       -0.0053975363 0.043379243 -0.012737481 0.0072890874
0003d0 c2 91 68 3c 87 e9 1f 3d 01 6c 81 3c 77 24 86 3c
       0.014194908 0.03904107 0.01579857 0.01637481
0003e0 d9 21 34 3d af 0d 8f bc 06 78 8c bc cf 4e 9f 3c
       0.043977592 -0.01746258 -0.017147075 0.019446759
0003f0 2e be de 3b a9 74 82 be c9 25 1b 3c e0 33 23 3d
       0.0067975735 -0.2547963 0.009469458 0.039844394

encoder_conv3.bias f4 [8]
000000 7c 20 a8 3e b8 d1 9a 3e 90 b9 b0 3e b0 dc bc 3e
       0.32837284 0.30238128 0.34516573 0.3688712
000010 df 8c a0 3e 25 c2 1e 3e a6 5a 91 3e 51 c2 df 3e
       0.31357476 0.15503748 0.28389472 0.4370294

deconv1.weight f4 [8, 16, 5]
000000 36 eb 6a bc f5 9e 05 bb 74 db 5a 3d 93 5e ff bc
       -0.014338305 -0.0020388935 0.053431943 -0.031173026
000010 14 8c 07 bc 0f b7 9d b8 6f 96 90 3c ba 3c 94 3d
       -0.008273143 -7.520441e-05 0.017649857 0.07238145
000020 e0 41 ef 3e 5e 6f 82 3d 8b 50 18 3e 64 a2 6d 3b
       0.46729946 0.06368898 0.14874475 0.0036260122
000030 3c 37 6d be 18 21 9a 3d 40 4b 68 3e 1d b5 0f ba
       -0.23165601 0.075258434 0.22684956 -0.0005482005
000040 da 8b c0 3a 0d 5d d5 3a 8c fc 3c bd 37 ab fa bc
       0.0014690117 0.0016278342 -0.046139285 -0.03059922
000050 ae 71 c7 bb 8c f0 ba 3b c7 62 44 3d d7 df 19 3e
       -0.0060865497 0.005704945 0.047945764 0.15026794
000060 28 ff 5d 3d a9 df 6b 3c d2 4f bd bd 3b 78 30 bd
       0.054198414 0.014396586 -0.0924374 -0.04308341
000070 50 94 25 3d 41 28 d9 bc 69 d1 93 bc 57 39 1b 3c
       0.040424645 -0.026508452 -0.01804419 0.00947412
000080 77 0d c5 bb e9 c4 29 3d b8 8c ac bd d7 ac ad 3c
       -0.006013568 0.041447554 -0.084252775 0.02120058
000090 39 34 b3 bc f0 3b 9e bb 18 ab 8a 3e 55 88 72 bc
       -0.021875488 -0.0048289225 0.2708366 -0.014803012
0000a0 86 57 6c be 85 5f 83 3c 08 c8 39 3e bd 8d 59 3e
       -0.23080263 0.016036758 0.18142712 0.21245475
0000b0 35 da 80 be 65 22 a0 ba fe e7 e3 3d 09 04 13 3c
       -0.2516648 -0.0012217282 0.111282334 0.00897313
0000c0 c7 90 0e bd 6b 07 68 bd 24 ee ef bc 43 70 78 bc
       -0.03480604 -0.0566477 -0.029288359 -0.015163484
0000d0 68 5a 70 3d df 41 76 3e f2 8d 32 bd 8f e9 91 be
       0.058679968 0.24048565 -0.0435924 -0.28498504
0000e0 c4 47 a8 3c 31 5c e6 be 6c 0e cb 3e f9 c2 a8 be
       0.020542033 -0.4499221 0.3965944 -0.32961252
0000f0 85 54 22 3d 92 4c b8 3c db dc 84 bd d8 f6 1e 3f
       0.039631385 0.02249745 -0.06487437 0.62095404
000100 de c4 26 3d f6 44 ee bc 46 5c ca bc 6b df 3f bb
       0.04071509 -0.029085618 -0.024702203 -0.0029277455
000110 22 0e f0 3e a0 39 2d bf f9 03 ba bb 7c d2 1c be
       0.46885782 -0.67666054 -0.005676743 -0.15314668
000120 22 ba 54 3b ba 9a a2 3e db a6 8e 3c e0 8e 06 bd
       0.0032459577 0.31758672 0.017413547 -0.0328511
000130 0e 91 ad be b7 e9 0b bd d8 54 c4 be 02 c0 94 bd
       -0.3389973 -0.034158435 -0.3834598 -0.07263185
000140 36 2f 66 bc 93 d8 a6 bb 67 ca 53 3e 48 96 63 ba
       -0.014049342 -0.0050917356 0.20682679 -0.00086817564
000150 44 d3 69 3c 6b b6 a3 3c 11 71 24 bc e0 83 a8 3b
       0.014271561 0.019984445 -0.010036723 0.005142674
000160 47 59 f9 bb 13 29 7d 3b 10 1b 21 be 06 91 55 3b
       -0.0076095196 0.0038629218 -0.1573298 0.0032587661
000170 8c 89 8b 3d c6 15 27 bc 69 0f 06 be a4 f8 34 3c
       0.06813344 -0.010198062 -0.13091816 0.011045609
000180 c4 c8 4a 3d 2c 25 ff 3e 9e 66 9b 3c ce 93 2c 3c
       0.04950787 0.49833047 0.01896983 0.010533286
000190 c0 91 1e bb 97 1b e7 bc 44 b6 95 3b a7 8b ad 3c
       -0.002419576 -0.028211398 0.004568847 0.021184755
0001a0 49 9e 34 3b c8 36 bf bb f6 2d 89 3d b7 a3 75 3d
       0.0027560166 -0.005835388 0.066982195 0.059970584
0001b0 87 53 77 bd 1e 97 1b 3c 8b b9 09 3b d9 d0 26 3d
       -0.060382392 0.009496478 0.0021015133 0.040726516
0001c0 52 0a eb 3e e7 44 b5 b8 52 36 9b 3b 77 96 ee bb
       0.4590631 -8.6435866e-05 0.0047367 -0.0072811204
0001d0 c5 98 5b 3d 8e 21 39 3e dc 84 85 bc d1 ff af ba
       0.05361249 0.18079206 -0.016298704 -0.001342768
0001e0 34 28 fe 3d 73 86 49 bc 6e f9 27 be c9 06 16 3d
       0.12410012 -0.012300122 -0.16403744 0.036627565
0001f0 13 bb c9 3d e4 67 d7 3b 99 7b 1a bd e6 75 cb bc
       0.09850135 0.006573664 -0.03771553 -0.024836492
000200 6e 60 81 3d 02 2d 49 bc 47 40 0c 3c 9a b2 af 3c
       0.06317221 -0.012278797 0.008560247 0.021447469
000210 ff 28 1d be 34 a2 27 bd b2 e7 3e 3c 28 79 90 be
       -0.1534767 -0.040926173 0.01165192 -0.28217435
000220 c0 29 5a bd df 76 90 be 13 3b 92 3c 95 1b 92 be
       -0.053262472 -0.2821569 0.017850434 -0.28536668
000230 51 8b 04 bd 14 b0 2d 3d 20 7e 18 3e 96 19 93 3b
       -0.032359425 0.04240425 0.14891863 0.004489134
000240 8f b9 ed bc fa 02 66 3c c9 11 2e 3d 61 39 52 bc
       -0.029019145 0.014038796 0.04249743 -0.012831063
000250 07 39 43 bc cc 94 23 bf 9f 3a c8 3c 85 3d 02 3e
       -0.011915452 -0.6389892 0.024442015 0.1271878
000260 6b 84 29 bd a4 65 19 be 6e 67 b4 3b a0 d7 c8 3c
       -0.04138605 -0.14980179 0.005505494 0.02451688
000270 2a a9 68 bd da 9d 50 3d bd 2c 78 bd 6a ba 45 3b
       -0.056801952 0.05093179 -0.06058954 0.0030170926
000280 0f cd 35 3c c5 59 a0 3c 0f 67 73 be 73 39 fd 3b
       0.011096253 0.019574055 -0.23769782 0.0077277957
000290 82 0b 23 3c 32 80 c5 39 6a 15 73 3b dc 39 8f bd
       0.009951474 0.0003767028 0.0037091621 -0.06993458
0002a0 76 ec f2 bb 90 69 8b b9 b4 27 4e bd d5 8a 72 ba
       -0.0074134422 -0.00026590796 -0.050330833 -0.0009252255
0002b0 e0 d5 31 bc bf d5 74 bc d4 ec 00 3c 59 54 a1 bb
       -0.010854214 -0.014943539 0.007868964 -0.004923385
0002c0 08 f6 16 3c 61 66 21 be 15 95 64 3c 0c 6b 9b bb
       0.009213932 -0.1576171 0.01395156 -0.0047429856
0002d0 9f 52 8c bb 62 47 4f bc 4e 45 31 3e b8 29 e3 3a
       -0.00428231 -0.012651296 0.17311594 0.0017331159
0002e0 be 7b 1c bb 13 48 18 bc 09 dc 14 3c 36 95 12 3d
       -0.0023877467 -0.009294528 0.009085664 0.03578683
0002f0 03 db a5 3b e0 8d f4 ba 5c ff 6e 3b 8d 23 d9 b9
       0.0050615086 -0.0018658005 0.0036468124 -0.00041415953
000300 0a 91 33 3e ce f1 d5 3b ef f2 64 bb 16 55 e8 ba
       0.17535797 0.0065290695 -0.0034934839 -0.0017725553
000310 6d 23 a2 3b f1 a6 00 3d 79 f7 a3 bb 6e 4c bb 3a
       0.0049480707 0.031409208 -0.0050038663 0.0014289746
000320 b1 eb 1b 3d d6 31 3e bb 84 e7 8b bd 7d 7c 1c 3c
       0.03806657 -0.0029021404 -0.068312675 0.009551165
000330 18 9d 8e bb 7f b5 36 3c ad 81 ba bc d2 d9 b5 bd
       -0.004352223 0.0111516705 -0.022766912 -0.088794366
000340 14 f7 ba 3b 8c 08 98 3a 4a 6a f2 3b be ec c7 3b
       0.0057057235 0.0011599227 0.0073979245 0.00610122
000350 17 24 dd 3e 06 98 27 bb 61 f0 96 ba de ac 8b be
       0.43191597 -0.002557279 -0.001151573 -0.27280325
000360 56 82 41 bc 99 e5 80 be fd 7d c1 bb 34 25 95 be
       -0.01181086 -0.2517517 -0.0059049116 -0.29129946
000370 06 f0 e9 bb 3a ab a3 3b 81 29 4f 3e 83 a5 2f 3c
       -0.0071392087 0.004994777 0.20230676 0.010720613
000380 ee a7 6d 3b 21 f9 2e b9 8d b3 8e 3c 61 ff 65 bc
       0.0036263424 -0.00016686741 0.0174196 -0.014037938
000390 c9 d5 47 bb 0f ab 35 bf 01 23 3f 3c 6f 57 e9 3c
       -0.0030492416 -0.7096414 0.01166606 0.028484074
0003a0 d8 66 ca 3e 4e df b2 bc 78 da 39 3a a8 af 07 3c
       0.3953159 -0.021834996 0.00070897443 0.008281626
0003b0 3b 96 5f bd 13 ea 0e be 80 0a 0e bd 5e 36 9f ba
       -0.05458663 -0.1395648 -0.034677982 -0.001214694
0003c0 19 f2 ed bb 4f 52 9b 3c 0c c3 04 3c f8 df a5 3c
       -0.0072615263 0.018960146 0.008103143 0.020248398
0003d0 3e b1 43 3c fb 48 8c 3c d7 c8 03 bc 06 af c2 3b
       0.011944113 0.017124644 -0.008043489 0.0059412746
0003e0 d9 9a cb bc e0 c3 16 bc e2 d4 fd bd 21 3b 37 bc
       -0.02485411 -0.009201974 -0.1239412 -0.011183531
0003f0 dd 5a 0d 3e 8f f8 1b bd 39 67 a8 bd e5 db 2f bb
       0.13804193 -0.03807884 -0.08222813 -0.0026833948

deconv1.bias f4 [16]
000000 47 80 5f 3e 98 81 a5 3d ac 49 83 3e dc 76 20 3e
       0.21826278 0.08081359 0.25642145 0.15670341
000010 62 6f 29 3e 06 65 1f 3e 35 ca 8c 3e 18 9d b2 bc
       0.16546395 0.15565881 0.27498022 -0.021803424
000020 ae 26 7a 3e 2e 84 96 3e ae ad f5 3d 4c 22 8f 3e
       0.24428818 0.2939772 0.119960174 0.27955854
000030 11 19 7d bd e9 fd e0 bc ad b0 b4 3d bc 3a 8f 3e
       -0.061791483 -0.027464824 0.08822761 0.27974498

deconv2.weight f4 [16, 32, 5]
000000 86 f4 87 3d ea 07 2f 3e d3 2c 49 bd 7e 76 e0 3d
       0.06638436 0.17092863 -0.049115013 0.109601006
000010 b4 7e ad 3d b8 33 89 bd c2 ec c6 bd 1d f4 d3 3b
       0.08471432 -0.06699318 -0.09713127 0.0064683096
000020 7e 4e 51 bd 6d ce ae 3c 99 25 71 bd 0c 33 0c bd
       -0.051100247 0.021338666 -0.058873747 -0.03422837
000030 49 40 f8 3c c6 8c 90 3c 17 b0 57 bb 82 24 6f bd
       0.030304091 0.017645251 -0.0032911354 -0.058384426
000040 30 eb a8 3d cd 69 92 be e2 44 89 3d a4 6d 80 3d
       0.082479835 -0.28596345 0.067025915 0.06270912
000050 79 99 24 3c b9 26 87 3c 6a 1e 66 3d 06 0e 29 3d
       0.010046356 0.016497957 0.05618135 0.04127314
000060 69 fb 02 3e d5 f1 5e 3d 1b 11 ab 3d af 7c d6 3d
       0.12791218 0.054429848 0.08352872 0.10473
000070 90 56 7b 3c fb 47 4e 3d 9a c4 9f bd ae b3 87 3d
       0.015340462 0.050361615 -0.07801171 0.06626068
000080 d6 47 49 bd 87 62 42 bd 63 39 9e bc 6f b6 81 3d
       -0.049140774 -0.047457244 -0.019314473 0.063336246
000090 92 6c de 3d f1 4c b7 bd 30 a5 75 3d 12 4a ca 3d
       0.10860552 -0.08950222 0.05997199 0.09877409
0000a0 66 c5 58 bc ce cb 0b be 63 92 27 3e 54 1a f8 3c
       -0.013230657 -0.13651964 0.16364436 0.030285992
0000b0 cc 2e d4 bd 21 03 6c bd d1 4b 83 3d b5 65 a4 bd
       -0.10360488 -0.05762017 0.06410945 -0.080272116
0000c0 03 68 c0 bc 5c e2 af bd f7 82 2a bc 44 88 d4 3d
       -0.023487097 -0.085880965 -0.010407201 0.10377553
0000d0 68 0a 57 3e 82 94 86 be 40 5c b3 bd 99 a2 05 bc
       0.21000063 -0.26285177 -0.0875783 -0.008156442
0000e0 9b 69 31 bc 44 27 40 3d 16 ad b6 bc 68 3a 65 3e
       -0.010828401 0.046912447 -0.02229933 0.22385561
0000f0 9b 36 96 bd fc 84 5a bd 51 99 2d bd 35 2a e9 3d
       -0.07334634 -0.05334948 -0.042382542 0.113850035
000100 07 20 77 be a2 8d a4 3c c4 cf 28 3e e6 84 8e bb
       -0.24133311 0.020087067 0.16485506 -0.004349339
000110 ea 3c bb 3d 09 66 1a 3e c4 73 d4 3d 82 86 67 3d
       0.09142478 0.15077986 0.10373643 0.05652476
000120 76 46 cc 3c 09 6c 47 bd 24 49 20 3d 2b cb 48 3b
       0.024935942 -0.048687015 0.039132252 0.0030638676
000130 09 cc 48 3e 2a 8a 93 3d 3a 65 05 bd b9 75 35 3d
       0.19609083 0.07204087 -0.03256724 0.044301722
000140 05 6b de bc 1e 8f 96 bd b8 94 57 3d 5b b5 87 bd
       -0.02715064 -0.07351516 0.052632064 -0.06626388
000150 f0 8c 81 bd 8a fe b2 3c 09 6a 53 3d 80 c6 65 bb
       -0.0632571 0.02184989 0.051614795 -0.0035060942
000160 e0 26 e2 3c e7 b9 ca bd a6 4d 8e be 5b 8a 8c bd
       0.027606428 -0.09898739 -0.27793616 -0.06862327
000170 14 e5 73 be 1a e7 d8 bc 5f 66 9d 3d cf e2 fc 3b
       -0.23817855 -0.026477385 0.07685541 0.0077174674
000180 ca d3 a1 bc 2c 47 89 3c c0 13 93 bd 6e 49 a0 3c
       -0.01975431 0.01675757 -0.071815014 0.019566264
000190 89 3c 52 bc 95 a1 32 3e 41 6b 38 bd 0c 31 33 3d
       -0.0128318155 0.17444451 -0.04502416 0.043747947
0001a0 c0 cc a4 3d 7d 67 0b be 7f 95 07 be 87 0a 07 be
       0.080468655 -0.13613696 -0.13240622 -0.1318761
0001b0 a0 2b c8 bd 1a 1f 16 be 7f 05 de bd c5 f6 04 be
       -0.09773946 -0.14660302 -0.10840892 -0.1298476
0001c0 22 93 eb bd 07 c1 b8 bb c7 7f 91 bc 25 f2 b7 bd
       -0.11502673 -0.005638245 -0.017761124 -0.08981732
0001d0 f2 62 b4 bd f5 0d ff 3c de cf 88 bd 33 d9 4d 3d
       -0.08807935 0.031134585 -0.066802725 0.050255965
0001e0 f1 b1 d4 3d c3 f7 cb 3d af fd 04 3d 77 24 2a bd
       0.10385502 0.09959366 0.032468494 -0.04153868
0001f0 43 55 3b 3e 6f 28 b7 3a e3 27 56 3e a7 c7 9f bc
       0.18294244 0.0013973842 0.20913653 -0.019504381
000200 80 ac 54 bd 3d a2 41 bd cd 54 22 bd 59 92 67 3d
       -0.05192232 -0.047273863 -0.039631654 0.056536052
000210 b4 e2 6a 3d b8 ed 44 bc 66 b0 62 bd 39 df 8f bd
       0.057345107 -0.012019567 -0.055344008 -0.07024998
000220 d0 59 fd bd c7 19 c4 3c 3c af 5a 3c ca 75 e9 3b
       -0.12370646 0.023938073 0.013347443 0.0071246373
000230 98 56 75 bc 40 b7 dc bc 38 a8 82 3d f8 e2 3f 3e
       -0.014974259 -0.02694285 0.063797414 0.18738925
000240 06 99 58 3e b5 2e 93 bc 9d ec 0a 3d a0 71 7b bd
       0.21152124 -0.017966608 0.03391706 -0.061387658
000250 88 88 ac bc 24 d1 f9 3d b3 67 08 3e 4b cc 15 be
       -0.021061197 0.121980935 0.13320808 -0.14628713
000260 25 e3 02 be ed 69 be 3d f5 fe d3 3d 0d b2 c9 3d
       -0.12781961 0.092975475 0.103513636 0.098484136
000270 49 66 1d 3e 06 d0 09 bd c9 55 bc bd 61 81 15 3e
       0.1537105 -0.033645652 -0.0919605 0.14600135
000280 74 0c 1a 3d 45 be db bc 3e 31 a1 3d aa e9 65 bd
       0.037609532 -0.026824126 0.0787072 -0.056131043
000290 a4 e7 8a 3d de 0c ae bd 99 d6 ff bb 87 69 89 bd
       0.06782463 -0.08498548 -0.0078075645 -0.06709581
0002a0 c7 69 7f 3d a0 db 7e 3c a3 49 63 bd 42 35 da 3c
       0.062356737 0.015555292 -0.055490147 0.026636723
0002b0 6b 88 e0 bc 11 c9 98 bc 91 f8 71 bd ca 02 bc bd
       -0.0274088 -0.018650563 -0.059074942 -0.091802195
0002c0 f9 95 af bd bb e7 05 be a8 08 c0 3d 2b db 15 bd
       -0.08573527 -0.1307668 0.09376651 -0.036585968
0002d0 11 a1 a3 bd 16 26 18 be 49 a5 8f bc ff 52 43 3e
       -0.07989705 -0.14858279 -0.017534869 0.19074629
0002e0 11 50 5b 3d 5d 84 3a bc db d5 f3 bc 40 9f bf bd
       0.053543154 -0.011384097 -0.02976506 -0.093565464
0002f0 3d 6d de 3c cb f0 3a 3d d8 b4 13 bc bd ca 58 3d
       0.027151698 0.045639794 -0.0090152845 0.05292772
000300 91 62 1b 3e a4 5f cb bd ce f8 a6 bd 96 8b 98 3c
       0.15174319 -0.099303514 -0.081529245 0.018621247
000310 03 d3 fc 3c 9a 14 92 bd 3f 15 2c 3e 8a 9d ca 3d
       0.030862337 -0.07132836 0.1680498 0.098933294
000320 2d fe dd bd 91 2b d3 bc 8d 37 2e 3e 76 00 49 be
       -0.10839496 -0.02577761 0.17013378 -0.19629082
000330 0e af 9c bd e1 b9 69 3d 2e a0 25 bd 73 6a f2 3c
       -0.076505765 0.057062034 -0.040435962 0.029591775
000340 a2 0c 99 bc f0 95 47 3c a0 3b b7 bd d7 e4 27 3a
       -0.018682782 0.012181744 -0.089469194 0.0006404644
000350 f1 5b 38 bd da 0b b7 3d 84 9d 4e bd 1d 59 af 3d
       -0.045009557 0.089378074 -0.050443187 0.08561919
000360 86 4c d8 ba 30 12 b4 bb ce c4 3e bd 2c 75 fa 3d
       -0.0016502298 -0.005495332 -0.046574406 0.1222938
000370 05 50 30 3d bf 69 5a bd 4f 0c 9b bc 68 4e da 3c
       0.043045063 -0.053323504 -0.018926768 0.026648715
000380 f4 77 88 bd 1d 69 25 3d c9 5d 6b bd 79 04 87 bc
       -0.06663504 0.040383447 -0.057462487 -0.016481625
000390 d0 11 07 3e e8 64 d6 bc cb 01 fa bd 42 23 ee 3d
       0.13190389 -0.026171163 -0.12207373 0.11627819
0003a0 d5 39 bb 3d ee 45 5c 3e 91 24 05 bc e0 13 c4 3c
       0.0914189 0.21511051 -0.008126394 0.023935258
0003b0 a6 90 93 3c 35 0a e8 3d c3 14 b8 3d b2 b9 ef 3c
       0.01801331 0.11330072 0.08988335 0.029263351
0003c0 7b c6 1c 3d 83 cb 99 b8 af 02 e6 be 71 ae ea 3c
       0.038275223 -7.3335155e-05 -0.44923922 0.028647633
0003d0 26 c9 51 3d b8 0b dd bc d1 00 22 bd 5a c1 27 3d
       0.05121722 -0.026983127 -0.03955156 0.04095588
0003e0 be 41 7d 3a 6e 0f 91 bd 37 8b 70 be 95 7a 49 bc
       0.00096609804 -0.07083021 -0.23490606 -0.012297292
0003f0 4f 31 0b be bb 7a 95 3d f2 f9 ee 3d b3 54 fc bc
       -0.13593028 0.072987996 0.11668767 -0.030802106

deconv2.bias f4 [32]
000000 1b c0 70 3d 7c f3 ac 3c 3c c0 22 bd 59 55 ad 3c
       0.058776956 0.021112196 -0.03973411 0.021158861
000010 74 9d c3 3d b5 25 48 3d ab ba eb 3d 34 f2 cd 3d
       0.09551516 0.048864085 0.115102135 0.10055962
000020 e5 de c2 3d 0b 69 b2 3c 99 30 59 3d 9e e4 ce 3c
       0.0951517 0.021778604 0.053024862 0.025255498
000030 06 58 94 bd 09 21 13 bd 6e 2f 85 3d a5 03 2a 3c
       -0.07243352 -0.035920177 0.06503187 0.0103768455
000040 af c6 aa 3c 19 2d b7 bd 90 bd b0 3d 82 ea ae bd
       0.020846693 -0.089441486 0.08629906 -0.085408226
000050 88 30 e0 3c 41 b2 b2 bb 5c fb 14 3e 6e 09 bc bc
       0.027366892 -0.0054533784 0.14549011 -0.022953715
000060 83 ea bf 3d 76 64 39 bd 00 63 42 bc 67 92 23 3e
       0.093709014 -0.045261823 -0.011864424 0.15973817
000070 21 f7 ee 3d 74 42 26 3e 94 9e f9 3d f8 6d d4 3c
       0.1166823 0.16236287 0.121884495 0.025931343

deconv3.weight f4 [32, 1, 5]
000000 b9 50 0c bd bc 85 bd bd 43 63 fb bd 3f 3e f2 3e
       -0.03425667 -0.092540234 -0.12274792 0.47313115
000010 1d 2d c0 3e c0 35 7b 3c 67 46 0b bf 79 f1 2a bf
       0.3753442 0.015332639 -0.544043 -0.6677471
000020 ff 0f f4 be 39 bf 99 bd 31 b5 65 be c4 a8 a8 3d
       -0.47668454 -0.07507176 -0.224324 0.082353145
000030 ec 94 b7 be a2 7c 77 3e ee 96 c1 be fc 7d a9 be
       -0.35855806 0.24168637 -0.37810463 -0.3310393
000040 ee fe 49 bd 76 14 2a 3f 87 8b b9 bd f6 d6 b1 3c
       -0.049315386 0.6643747 -0.09059816 0.021708947
000050 43 de fd 3e 35 17 9e 3e 06 bb 18 bd 05 eb 24 bd
       0.49583635 0.3087708 -0.037287734 -0.040263195
000060 b2 7c 1d be d0 17 c5 3e 1e 39 7a bd 12 25 2f be
       -0.15379599 0.3849473 -0.061089627 -0.17103985
000070 41 e5 07 3e f3 64 3a 3e f3 2b 83 3e eb 35 28 3f
       0.13271047 0.18202572 0.25619468 0.6570727
000080 7c 8b 92 be 39 a3 8f bd 38 68 94 bd d4 54 c1 3e
       -0.28622043 -0.07013554 -0.07246441 0.3776003
000090 81 6a c3 3d fd 1b f9 3e fe e3 8e 3e 6a 69 f4 bc
       0.095417984 0.48654166 0.2790832 -0.029835422
0000a0 2c cf 19 be 7f c0 d6 be 5f 17 51 bf c9 b7 58 bf
       -0.15020436 -0.41943738 -0.81676286 -0.84655434
0000b0 7e 13 ba be b6 4d 77 3c fd 98 36 be d0 2f b4 3e
       -0.36342996 0.015094211 -0.17831798 0.35192728
0000c0 bc db b8 3e 5c 7c e1 bc da 43 29 3f 17 e2 d1 3e
       0.36105144 -0.02752512 0.6611916 0.40992805
0000d0 42 f0 e2 3d d5 29 92 be 4b b0 61 bd 9f a8 40 bb
       0.11080982 -0.2854754 -0.055099767 -0.002939738
0000e0 09 2e 8b 3e 14 e3 9a 3e 6a 8b 0f 3e de 10 c6 3e
       0.2718356 0.30251372 0.14018026 0.38684744
0000f0 0d be d3 be 4c 6e 89 be f7 34 75 3d eb 81 ff 3d
       -0.41355935 -0.26841962 0.059864964 0.12475952
000100 9c 90 fd 3e 8e 7d 32 3b 1c 86 22 3e 9d ce 25 be
       0.4952439 0.002723548 0.15871471 -0.16192098
000110 e9 0c e9 3e e7 9c 0c 3d 70 30 d3 3b de eb 85 3e
       0.45517662 0.03432932 0.006444983 0.26156515
000120 06 e8 b5 3e 07 96 00 3d 39 10 47 3d ae 85 7b be
       0.35528582 0.031393077 0.048599456 -0.24562714
000130 4b 84 c7 3e 66 f1 72 bc 42 29 22 bc 3d 51 98 be
       0.3896812 -0.014828062 -0.009897532 -0.2974948
000140 26 08 1e bf d1 53 03 bf bc 57 6e be 44 d3 8e 3d
       -0.61731184 -0.5129977 -0.23275656 0.069738895
000150 ac 28 99 3d a9 a5 5e be c2 b3 8e be d1 8f 8a 3e
       0.07478461 -0.21742882 -0.2787152 0.27062848
000160 e1 41 45 be 2e c8 3c be d0 d3 f7 be 94 1f f0 be
       -0.19263412 -0.18435737 -0.48403788 -0.46899092
000170 7a a9 e5 3e 6b 28 c8 3e 73 3d ec be c1 82 09 3e
       0.44855863 0.39093336 -0.46140632 0.13428785
000180 3b 3a 18 be ec 69 87 be 1a 21 10 be b9 7c 25 be
       -0.14865963 -0.26448 -0.14075127 -0.16160859
000190 04 5d b0 be a4 dd 36 3e d2 96 ea 3e 30 34 e0 3e
       -0.34445965 0.17857987 0.45818192 0.43789816
0001a0 ed aa b7 3d 9f 35 b8 bd 95 1f a8 be 1c b1 25 bf
       0.089681484 -0.089946024 -0.32836595 -0.6472337
0001b0 98 e9 d7 be 39 43 c3 bd c9 89 28 be 08 2e ef be
       -0.42170405 -0.09534306 -0.16458811 -0.46714807
0001c0 e5 1f 99 be ed 98 e7 be 0d f8 f0 be 80 f0 df 3e
       -0.29907146 -0.4523386 -0.47064248 0.43738174
0001d0 b6 22 d5 3e c4 a0 b5 3e 76 53 e6 3d 04 fa 0c bd
       0.41628045 0.35474217 0.11246388 -0.03441812
0001e0 1f 0c c4 3e 06 ea cf 3e 8b ac 82 3e 7c 70 ff bc
       0.38290498 0.40608233 0.25522265 -0.031181566
0001f0 43 71 f0 3d b8 cd 2c be 29 f2 86 3e 91 87 83 bd
       0.11740353 -0.1687535 0.2635663 -0.064223416
000200 2c 2b 77 3d cc 67 18 3e 0c f4 af 3d 97 bf a1 3e
       0.060343906 0.14883345 0.0859147 0.31591484
000210 f5 5a 02 3e b5 e8 d1 be 6c 0d e9 be ab b0 50 be
       0.1273001 -0.40997854 -0.45518053 -0.20379893
000220 e4 69 d0 be d8 a8 d3 be 9d 54 06 3f ae 54 d9 3e
       -0.40705788 -0.41339755 0.5247286 0.42447418
000230 f7 69 ab be 24 cb a5 be 92 c7 55 bf 52 c8 3b bf
       -0.33479282 -0.32381546 -0.83507645 -0.7335254
000240 ba 0d 6e be 1a 7b 52 be 0b 8b e8 3b 4c b4 95 3e
       -0.23247424 -0.20554772 0.0070966533 0.29239118
000250 33 00 cf 3d 86 9d d1 3e 66 b1 5f bd b7 dc e5 3d
       0.1010746 0.40940493 -0.05461254 0.11223739
000260 41 4c eb be 2c 68 93 bd ee a9 fc bc fa af 43 3e
       -0.45956615 -0.071976036 -0.030842748 0.19110098
000270 44 34 af 3e 22 06 22 3e ec 22 1f 3e 9e 79 96 bd
       0.34219563 0.15822652 0.15540665 -0.073474154
