models/multi_resolution/SNN_Autoencoder_tsri_320s_240g.pth (torch, 37341 bytes, 11 tensors)

encoder_conv1.weight f4 [32, 1, 5]
0	0xbbc98777	-0.006150182
1	0x3d621be1	0.05520237
2	0x3ef6afd1	0.48181012
3	0x3e39accc	0.18132323
4	0x3db27a77	0.087147646
5	0x3bc25f85	0.005931797
6	0x3e9b5b79	0.30343226
7	0x3eda0077	0.4257848
8	0x3ec8baac	0.3920492
9	0xbc853ff5	-0.016265849
10	0xbca9db15	-0.02073435
11	0xbccd55dd	-0.025065357
12	0x3f066a11	0.52505594
13	0x3e1f392a	0.1554915
14	0x3e21cfde	0.15801951
15	0x3efd40e2	0.49463564
16	0x3ef4254b	0.47684702
17	0x3c8ce10e	0.017197158
18	0xbc794665	-0.015214537
19	0xbc96f765	-0.018428514
20	0x3f00bf95	0.5029233
21	0x3f068822	0.5255147
22	0x3f1f01f0	0.6211233
23	0xbf04e3b2	-0.51909935
24	0xbccba152	-0.024857197
25	0x3cae08ca	0.021244425
26	0x3c3c3ee4	0.011489604
27	0xbd9bf038	-0.076141775
28	0x3f7569b8	0.9586444
29	0xba9d4c99	-0.0012000977
30	0x3ef30346	0.47463435
31	0x3eb23aea	0.34810573
32	0xbc68c01c	-0.014205959
33	0xbc7fd3da	-0.015614474
34	0x3bf18b6d	0.007371357
35	0x3f0b6239	0.5444675
36	0x3f0855b2	0.5325576
37	0xbca5b0d1	-0.020225914
38	0xbcf7ac97	-0.030233664
39	0xbd01e5bc	-0.031713232
40	0xbd710f66	-0.058852576
41	0x3e88704c	0.26648176
42	0xbdf790e1	-0.1208818
43	0xbe9b716c	-0.30359972
44	0xbea535f9	-0.3226774
45	0x3ec70c85	0.3887674
46	0x3eb7f997	0.3593261
47	0xbf16dedd	-0.5893381
48	0xbd93c761	-0.07215763
49	0x3f28d85f	0.65955156
50	0x3b162e52	0.0022915793
51	0x3c3c4270	0.011490449
52	0x3c8ca400	0.017168045
53	0x3c8de6f8	0.017322049
54	0x3c305bce	0.010764075
55	0xbdcd19f2	-0.10014714
56	0x3df85e08	0.1212731
57	0x3e688601	0.22707368
58	0x3dbefeb8	0.093259275
59	0xbe728142	-0.2368212
60	0xbdbfbd3d	-0.09362266
61	0xbe510c50	-0.20414853
62	0xbd8b750c	-0.06809434
63	0x3e9d2576	0.30692643
64	0x3f07a129	0.52980286
65	0xbf20a213	-0.62747306
66	0xbf287457	-0.6580252
67	0x3ef23774	0.47307932
68	0x3eea2a7b	0.45735535
69	0x3e53af6f	0.20672391
70	0xbf2131f0	-0.62966824
71	0xbf3362ef	-0.70072836
72	0x3f1a0df7	0.6017756
73	0x3b566819	0.0032715856
74	0xbf3b1291	-0.73075205
75	0xbebfc31c	-0.37453544
76	0x3e0ba0e7	0.13635598
77	0xbeccd6f8	-0.40007758
78	0x3e4df87f	0.20114325
79	0xbeacb0cc	-0.33728635
80	0x3ea6232f	0.32448718
81	0x3e292e59	0.16521586
82	0x3e8eb127	0.27869532
83	0x3cf72950	0.030171067
84	0x3db566a5	0.088574685
85	0xbc81808a	-0.015808363
86	0x3f85188c	1.0398116
87	0x3ced9af6	0.029004555
88	0x3d3b65f3	0.045751523
89	0xbe0500e1	-0.12988617
90	0x3a02b33c	0.00049858144
91	0xbc24c4d1	-0.01005669
92	0x3f19d03c	0.60083365
93	0xbc01319c	-0.007885363
94	0x3f1ea3cb	0.6196868
95	0xbd36f1ca	-0.04466418
96	0xbc713db8	-0.014724188
97	0x3f38d190	0.72194767
98	0x3e56673a	0.20937815
99	0x3e4c9b03	0.19981007
100	0x3f076f80	0.5290451
101	0x3c9a8214	0.018860854
102	0x3ef2c479	0.47415522
103	0xbcc554c5	-0.024088273
104	0x3f1d0881	0.613411
105	0x3e080123	0.13281684
106	0xbd101e3d	-0.035185087
107	0x3f1f8cc7	0.62324184
108	0x3f307301	0.6892548
109	0xbe47e939	-0.19522561
110	0xbdfb1c5c	-0.122612685
111	0xbc4c2059	-0.012458884
112	0x3e66cc99	0.22538985
113	0xbe97e094	-0.29663527
114	0xbe381a8f	-0.17978881
115	0x3beaf521	0.007170335
116	0xbc75f380	-0.015011668
117	0x3f016c14	0.5055554
118	0x3f02b98e	0.51064384
119	0x38efceb9	0.00011434913
120	0x3d8ec824	0.069717675
121	0x3f1dd4e2	0.6165296
122	0x3f0d6eca	0.55247176
123	0x3ef0b40e	0.4701237
124	0xbd206d8c	-0.039166972
125	0x3f16a097	0.5883879
126	0x3f0f8b0e	0.56071556
127	0xbd9194da	-0.07108469
128	0xbd327971	-0.043572847
129	0xbd2dd2e8	-0.042437464
130	0xbd573ec9	-0.05255011
131	0x3e848f73	0.25890693
132	0xbcd8997b	-0.026440373
133	0xbd459b89	-0.048244033
134	0x3f340038	0.70312834
135	0xbbd43474	-0.0064759795
136	0xba0506d6	-0.0005074566
137	0xbd4d9b23	-0.050196778
138	0x3f5ebf27	0.87010425
139	0x3f6bbe30	0.9208708
140	0xbd1ffb62	-0.039058097
141	0x3f7de705	0.9918063
142	0x3de55eaa	0.11199696
143	0x3e606d1d	0.21916623
144	0xbdf114d2	-0.11771549
145	0xbcfff7cb	-0.031246087
146	0x3c6d0ae6	0.01446793
147	0x3e3e0cfc	0.1855964
148	0x3e569194	0.20953971
149	0xbd0bd18f	-0.034135398
150	0xbc3489fc	-0.011019226
151	0x38971e7e	7.205921e-05
152	0xbe38068b	-0.17971246
153	0xbeda0611	-0.42582753
154	0xbda15c30	-0.078789115
155	0xbd39eb5c	-0.04539047
156	0x3d16356b	0.036672037
157	0xbe467076	-0.19378838
158	0x3f76c951	0.96400934
159	0x3c971825	0.01844413

encoder_conv1.bias f4 [32]
0	0x3d0398d0	0.032128155
1	0x3eaf32fe	0.3421859
2	0x3df133f5	0.11777488
3	0x3f195c24	0.5990622
4	0xbaad19db	-0.0013206558
5	0x3e3883a2	0.18018964
6	0x3f810ac4	1.008141
7	0x3d436906	0.04770758
8	0xbddd6209	-0.10809714
9	0x3de73db9	0.112910695
10	0x3f6f0d1d	0.93379384
11	0xbea2b55f	-0.31779
12	0x3f43d1d4	0.7649205
13	0xbe8c93fd	-0.27456656
14	0x3e1a5797	0.15072475
15	0xbed4e1f0	-0.41578627
16	0x3f00af59	0.5026756
17	0x3e594ef2	0.21221521
18	0x3ef4600a	0.47729522
19	0x3e247480	0.16060066
20	0xbf0a433b	-0.54008836
21	0xbe9f4014	-0.31103575
22	0xbeb519b5	-0.35371175
23	0x3d8f77a6	0.07005243
24	0xbf0d5405	-0.5520633
25	0xbda87711	-0.08225835
26	0x3e179176	0.14801583
27	0xbf2b934a	-0.6702162
28	0x3bd9ea7e	0.006650268
29	0x3f87a8ac	1.059835
30	0xbecf8bee	-0.40536445
31	0x3e01802d	0.12646551

encoder_conv2.weight f4 [16, 32, 5]
0	0xbd9dfece	-0.07714616
1	0xbd8308eb	-0.06398185
2	0xbd98aea8	-0.07455188
3	0xbe826317	-0.25466225
4	0xbeb8099b	-0.35944828
5	0x3cacfdbc	0.021117084
6	0x3ceab889	0.028652446
7	0x3c928f47	0.017890586
8	0x3ca21074	0.019783236
9	0x3cf29eb4	0.029616691
10	0x3d0756c5	0.033041734
11	0x3d4785c2	0.048711546
12	0x3c29e81d	0.0103702815
13	0x3ccc81a0	0.024964154
14	0x3bfde662	0.007748411
15	0x3a1de7a1	0.000602359
16	0x3c464d96	0.012103459
17	0x3d1b637c	0.037936673
18	0x3d4368c3	0.04770733
19	0x3d8e4bd6	0.06948058
20	0x3beeaee8	0.007284034
21	0xbc8a1e35	-0.016860107
22	0xbd1d378e	-0.03838306
23	0x3ba3341d	0.0049805776
24	0x3c19c543	0.00938541
25	0x3ac46308	0.0014983127
26	0x3d1ea1e7	0.03872862
27	0x3d110381	0.035403732
28	0x3e38b622	0.18038228
29	0x3e514962	0.2043815
30	0x3c5b135e	0.013371317
31	0x3c93f553	0.018061316
32	0xbcba0225	-0.0227061
33	0xbc67d64e	-0.014150215
34	0x3c95d346	0.01828922
35	0x3cf3e61c	0.02977281
36	0x3d1eb67d	0.038748253
37	0x3d9ebe6e	0.07751165
38	0x3d2bacca	0.04191283
39	0x3dba3f5a	0.090941146
40	0x3d74e2ac	0.059786484
41	0xbb5addcf	-0.0033396368
42	0x3aa0fb97	0.0012282011
43	0x3d2aa20b	0.041658442
44	0x3d7b7d00	0.061398506
45	0xbc250fcf	-0.01007457
46	0xbc709a80	-0.014685273
47	0xbd15e15c	-0.036591873
48	0xbdb1d316	-0.086828396
49	0xbdb42fa6	-0.08798151
50	0xbc51d8a7	-0.012808002
51	0xbe37cdf7	-0.17949663
52	0xbe1ada67	-0.15122376
53	0xbea6aca1	-0.3255358
54	0xbea759f6	-0.32685822
55	0xbcd6261b	-0.026141217
56	0xbd88d12f	-0.066805236
57	0x3da73b0a	0.08165558
58	0xbd8b9986	-0.06816392
59	0x3d4c995d	0.049950946
60	0xbbf78f1e	-0.0075549027
61	0x3b296411	0.0025846998
62	0xbc899d8e	-0.01679876
63	0xbbe83634	-0.0070865396
64	0x3d640ded	0.055677343
65	0xbc264738	-0.010148816
66	0xbb4dbc14	-0.003139262
67	0x3d30e4f7	0.043187108
68	0x3c1cf3b9	0.009579592
69	0xbd056a48	-0.03257206
70	0xbd1c0e7c	-0.03809975
71	0x3d3137a7	0.043265965
72	0x3d2728d7	0.040810432
73	0x3ccbfabe	0.024899837
74	0x3ca10569	0.0196559
75	0x3d942051	0.07232726
76	0xbd1f658b	-0.0389152
77	0xbba1abd6	-0.0049338145
78	0xbd90aa00	-0.07063675
79	0x3a55338c	0.0008132986
80	0x3c809d7e	0.015700098
81	0x3bdcfdcb	0.0067441217
82	0xbc9f3387	-0.01943375
83	0xbcc434c3	-0.02395094
84	0xbca376c1	-0.019954087
85	0xbd04590f	-0.032311495
86	0xbc667e49	-0.014068195
87	0x3d037ef6	0.0321035
88	0x3d6e7c74	0.058224156
89	0x3cf4c1ee	0.02987763
90	0x3c1ff3d3	0.009762722
91	0x3c740c24	0.014895473
92	0x3dd4a962	0.1038387
93	0x3ddb92e3	0.10721376
94	0x3e13e86d	0.14444132
95	0x3cd9a78e	0.026569154
96	0x3d46c24d	0.048525143
97	0x3d90c335	0.07068483
98	0x3d651313	0.055926394
99	0x3dadd77e	0.084883675
100	0x3ca94653	0.020663416
101	0xbce12b63	-0.027486509
102	0xbccbd95c	-0.024883918
103	0xbca66924	-0.020313807
104	0xbd85a038	-0.065247
105	0x3b834156	0.0040055914
106	0xbd0ecf7e	-0.03486585
107	0xbd2bd428	-0.041950375
108	0xbdd0f576	-0.10203068
109	0xbde63187	-0.11239915
110	0x3c6e6f70	0.014552936
111	0x3c6b36c8	0.014356323
112	0x3cacd0e4	0.0210957
113	0x3cba5f50	0.022750527
114	0x3cc15858	0.023601696
115	0x3cae5cd0	0.02128449
116	0xbc6ad4e7	-0.014332986
117	0xbc973e4f	-0.018462328
118	0xbce4911e	-0.027901229
119	0xbd0a8dd9	-0.033826683
120	0xbbad24bf	-0.0052839215
121	0xbd37b2c0	-0.044848204
122	0xbd952c2d	-0.072838165
123	0xbb9390ea	-0.004503359
124	0x3a433b84	0.0007447528
125	0x3b110b5a	0.002213201
126	0xbc9731ec	-0.018456422
127	0xbc8e77b7	-0.017391069
128	0xbd3404ed	-0.04395001
129	0xbc1c971d	-0.009557513
130	0x3c727566	0.014798498
131	0x3c5cedee	0.013484461
132	0x3c76ba0f	0.015059008
133	0x3ca8dca8	0.02061303
134	0x3d48e828	0.049049526
135	0xbcd4f4e4	-0.02599568
136	0x3b35ec67	0.0027759315
137	0x3c11632e	0.008873744
138	0xbc3ba413	-0.011452693
139	0xbd992f41	-0.07479716
140	0x3cbfd80e	0.023418453
141	0xbb546959	-0.0032411425
142	0xbb62dcf3	-0.003461656
143	0xbcb041ee	-0.021515813
144	0xbc26f190	-0.010189429
145	0x3c807fb6	0.015685897
146	0xbb6e1250	-0.0036326833
147	0x3c1c351b	0.009534146
148	0x3c053075	0.008129229
149	0xbd362b54	-0.044474915
150	0xbd443e5a	-0.047911026
151	0x3d49d4c2	0.049275167
152	0x3c4029c0	0.011728704
153	0xbd3cb058	-0.046066612
154	0x3d81f3a5	0.063453
155	0xbd38c17a	-0.04510639
156	0xbcb06419	-0.021532105
157	0xbcd757b1	-0.026286932
158	0xbd7bf9bc	-0.061517462
159	0xbdd108df	-0.1020677
160	0xbc879542	-0.016550664
161	0xbde97d36	-0.11400835
162	0xbd88bc81	-0.06676579
163	0x3b1b1c0a	0.0023667836
164	0x3e0827c1	0.13296415
165	0x3cdbb8b5	0.026821474
166	0x3c677797	0.014127634
167	0x3c1a457f	0.009415983
168	0xbc135730	-0.008992955
169	0x3dadaa4a	0.08479746
170	0xbac73417	-0.0015198019
171	0xbdb38054	-0.08764711
172	0xbc67f629	-0.01415781
173	0x3d5d8e13	0.05409057
174	0x3dcfd9d8	0.10148972
175	0x3d3fa358	0.046786636
176	0x3d043a6c	0.032282278
177	0x3c731e68	0.014838792
178	0x3ade2261	0.0016947502
179	0x3db9d2fb	0.090734445
180	0xbc1fb2e4	-0.009747241
181	0xba3d5102	-0.0007221849
182	0x3d096d5b	0.033551555
183	0xbcc8dd69	-0.02451964
184	0x3e1633ab	0.14668147
185	0x3da5b01e	0.08090232
186	0x3ced6a54	0.028981365
187	0x3d86594a	0.06559999
188	0x3e1c860f	0.15285514
189	0x3dfc7ff2	0.12329091
190	0x3cf615cc	0.03003969
191	0x3d6cd38c	0.057818934
192	0x3ca3153e	0.01990759
193	0x3c3aa0f5	0.011390914
194	0x3d7a4a35	0.061105926
195	0x3d2b6b0f	0.041850146
196	0x3cfd1456	0.030893486
197	0x3d36eacd	0.044657517
198	0xbc7b66cb	-0.015344332
199	0x3e1a094e	0.15042612
200	0xbd16caf6	-0.036814652
201	0x3c68d455	0.01421078
202	0xbd2f7ed9	-0.04284558
203	0x3cc95a54	0.024579205
204	0xbd6c7631	-0.057729904
205	0xbcf4424a	-0.029816765
206	0x3c48960d	0.012242806
207	0xbbd106b5	-0.0063789734
208	0x3cba61d0	0.022751719
209	0xbcb611f3	-0.022225356
210	0xbd603dd3	-0.05474646
211	0xbe1f5c82	-0.15562633
212	0xbe5fc120	-0.21851015
213	0xbe82b338	-0.25527358
214	0xbe9974fb	-0.29972062
215	0x3d9c1d33	0.07622757
216	0x3d587809	0.05284885
217	0xbd5d80d5	-0.054077942
218	0x3d0bc90a	0.034127273
219	0xbda0c93c	-0.078508824
220	0x3c2aae9a	0.010417605
221	0x3c897cc7	0.016783131
222	0x3c4c8ee7	0.012485242
223	0x3d95b4c5	0.0730987
224	0xbbddc4be	-0.0067678383
225	0x3ca50948	0.020146027
226	0xbd148ab1	-0.03626508
227	0x3dbc1b5f	0.09184908
228	0x3d9bb4a8	0.07602817
229	0x39f8cf90	0.00047456892
230	0xbd115974	-0.0354857
231	0x3cefb09a	0.029259015
232	0x3d6cf023	0.0578462
233	0xbd736a47	-0.059427526
234	0xbc05397d	-0.008131382
235	0xbd49b6c7	-0.049246576
236	0x3d6f2058	0.058380455
237	0x3d362d4e	0.0444768
238	0x3d5530fb	0.052048665
239	0xbc6bc533	-0.014390278
240	0x3c31920c	0.010838043
241	0xbbff7058	-0.007795375
242	0xbc3317dd	-0.010930982
243	0x3c919cc2	0.017774943
244	0x3ddcaf19	0.10775585
245	0x3c9929c6	0.018696677
246	0x3ba22621	0.004948393
247	0x3d65fbb6	0.056148253
248	0xbd977732	-0.073957816
249	0x3e5cb0ed	0.21551867
250	0x3ced2cab	0.028951963
251	0x3d179b98	0.03701362
252	0x3cc41522	0.023935858
253	0x3db06738	0.086134374
254	0x3d7ee35d	0.06222855
255	0x3cc50b2f	0.024053184

encoder_conv2.bias f4 [16]
0	0x3f1255a0	0.57161903
1	0x3cba04ad	0.022707308
2	0x3f002746	0.50059927
3	0x3f12e1a9	0.5737558
4	0x3ecb817f	0.39747235
5	0x3e8b2a8e	0.27180904
6	0x3e9ecf77	0.31017658
7	0x3ee285ef	0.44242808
8	0x3e9b8601	0.30375674
9	0x3ee6e8b3	0.4509941
10	0x3e0c4417	0.13697849
11	0xbe3224cb	-0.17396848
12	0x3f219aa6	0.631266
13	0x3f0355db	0.5130288
14	0x3f045874	0.5169747
15	0x3db88a34	0.09010735

encoder_conv3.weight f4 [8, 16, 5]
0	0x3db4b1e8	0.088229954
1	0xbc83ff51	-0.016112955
2	0x3e615590	0.22005296
3	0x3c1384b9	0.0090038115
4	0x3dd9dfcb	0.10638388
5	0x3c2df8c3	0.010618391
6	0x3d9dda14	0.07707611
7	0xbdfee926	-0.12446813
8	0x3ca5a247	0.020218981
9	0xbce81ffa	-0.02833556
10	0x3c0bdb12	0.008536117
11	0xbcbba93b	-0.022907844
12	0xbe52263d	-0.20522399
13	0xbc8080b5	-0.015686372
14	0xbc761c9b	-0.0150214685
15	0x3b174532	0.0023082015
16	0x3c398a00	0.011324406
17	0x3d7ad511	0.061238352
18	0xbc56a995	-0.013101955
19	0x3c688d25	0.014193808
20	0xbbf1f853	-0.007384339
21	0x3cc45ee3	0.023971027
22	0x3df39a55	0.11894671
23	0xbc8f4ce3	-0.017492717
24	0xbb198b79	-0.002342908
25	0x3ba9007b	0.005157528
26	0x3c3c20bc	0.011482414
27	0x3f336c95	0.7008756
28	0x3cabef6d	0.02098819
29	0xbac5e331	-0.0015097616
30	0xbc23a1fd	-0.0099873515
31	0x3c547173	0.0129665015
32	0xbbe3a875	-0.006947572
33	0xbc4e9449	-0.012608596
34	0xbc468485	-0.012116556
35	0x3bda0e66	0.0066545485
36	0x3b9d2996	0.004796217
37	0x3d2167ec	0.03940575
38	0xbcea9ea2	-0.028640095
39	0xbb9da3e5	-0.0048107975
40	0x3bcde6a0	0.006283596
41	0xbcc1e9ba	-0.02367102
42	0xbd56363f	-0.052297827
43	0x3a38f42e	0.00070554286
44	0x3b20f083	0.0024557419
45	0x3ca70451	0.0203878
46	0xbc96307e	-0.01833367
47	0xbdc31055	-0.095245995
48	0xbaf54a9f	-0.0018714255
49	0x3cd8a036	0.026443582
50	0x3c8ce514	0.017199077
51	0x3c8445c1	0.016146543
52	0xbd0e7d4d	-0.034787465
53	0x3c92f4ba	0.01793896
54	0xbd041bea	-0.032253183
55	0x3b9c0562	0.004761384
56	0xbcb387bd	-0.021915311
57	0x3e21fb51	0.15818526
58	0xbcc50064	-0.024048038
59	0xbc0e9ce5	-0.008704399
60	0x3c67a984	0.014139537
61	0x3c6320fb	0.013862844
62	0x3d603ada	0.054743625
63	0x3ce15967	0.02750845
64	0x3a342e52	0.00068733573
65	0xba5ce889	-0.00084269844
66	0xbc075b16	-0.008261463
67	0x3e4ed819	0.20199622
68	0xbcb3dac3	-0.0219549
69	0xbc1fe514	-0.009759206
70	0x3bd2b81e	0.00643064
71	0xbc8863c3	-0.016649133
72	0xbd7bf3af	-0.06151169
73	0xbc39158d	-0.011296642
74	0x3bd4b5c6	0.0064913956
75	0x3bc239b9	0.0059272912
76	0x3d130c61	0.035900477
77	0x3d7fcdbd	0.062452067
78	0xbc3ddd35	-0.011588384
79	0x3c24fc7f	0.010069965
80	0x3d533974	0.051568463
81	0x3dd09a4e	0.10185681
82	0x3d6ccc2d	0.057811905
83	0xbbef59ba	-0.0073043974
84	0x3daeb658	0.08530873
85	0xbd715372	-0.05891747
86	0xbce10f18	-0.027473018
87	0xbcc50127	-0.024048401
88	0x3b966342	0.004589469
89	0x3c68c217	0.014206431
90	0x3c4356d9	0.011922562
91	0xbd6a571c	-0.05721198
92	0xbca3dacb	-0.02000179
93	0xbba98203	-0.0051729693
94	0x3ca421a5	0.020035574
95	0xbc100eaa	-0.008792559
96	0x3ccb086a	0.024784286
97	0xbbe994c2	-0.007128329
98	0x3c5821ef	0.013191684
99	0x3b845324	0.0040382314
100	0xbca3fc19	-0.02001767
101	0x3d32aeb9	0.04362366
102	0xbcbb9520	-0.022898257
103	0x3c37a082	0.011207702
104	0x3c0ab4eb	0.008465986
105	0xbe05cf7f	-0.13067435
106	0x3e042d26	0.12907848
107	0x3cef8d7a	0.029242266
108	0xbc1d5fa3	-0.009605321
109	0x3cb03d22	0.021513525
110	0xbc7fb81b	-0.015607859
111	0x3ea83b16	0.3285758
112	0xbca43d8c	-0.02004888
113	0x3c4bf4f5	0.012448539
114	0xbbcebf5a	-0.006309432
115	0x3bc3a0ab	0.005970081
116	0xbec818a3	-0.39081296
117	0xbd49a8dd	-0.049233306
118	0x3b204863	0.0024457208
119	0x3c8c61cd	0.017136479
120	0x3b8c7b85	0.0042871856
121	0xbd26c653	-0.04071648
122	0xbc216e17	-0.009852908
123	0xbb3587fe	-0.0027699466
124	0xba87915d	-0.0010343004
125	0xbc0bf689	-0.008542665
126	0x3ee7bcf6	0.45261353
127	0x3cda9954	0.02668444
128	0x3c405c34	0.011740733
129	0xbd0739d2	-0.033014126
130	0xbcf90492	-0.030397687
131	0xbca58f3c	-0.020209901
132	0xbd71f7c8	-0.059074193
133	0x3bf5b88d	0.007498807
134	0x3ab514f7	0.0013815452
135	0xbcdcbfa3	-0.026946848
136	0x3e28906f	0.16461347
137	0xbd0f5b0f	-0.03499895
138	0x3ba447b3	0.00501343
139	0x3c997631	0.018733116
140	0xbbc69f5a	-0.0060614767
141	0x3eba5976	0.36396378
142	0x3a9ef4a0	0.0012127347
143	0xbc8f087e	-0.017460104
144	0xbc55f1bc	-0.013058122
145	0xbc96c016	-0.01840214
146	0xbd19dbf6	-0.037563287
147	0x3b9a1fe8	0.0047035106
148	0xbb9ad697	-0.004725288
149	0xbc85accf	-0.016317753
150	0x3bdbde55	0.0067098537
151	0xbce4c561	-0.027926149
152	0x3ca84291	0.020539554
153	0xbd5eb33c	-0.05437015
154	0xbe0fa9ab	-0.14029567
155	0xbc7dd1d9	-0.015491926
156	0xbc0a02ca	-0.0084235165
157	0x3bfb3ab7	0.0076669115
158	0x3d4867d6	0.04892715
159	0x3c137843	0.009000841
160	0x3b5706ca	0.0032810443
161	0xbc0f12f5	-0.008732547
162	0x3d36d71c	0.044638738
163	0xbd36c0e1	-0.044617537
164	0xbc428d44	-0.011874501
165	0xb9ad8ea7	-0.00033103416
166	0x3cd46b3f	0.025930045
167	0xb949937a	-0.00019223793
168	0x3c7f488a	0.0155812595
169	0x3b8cc996	0.004296492
170	0x3c4048d4	0.011736114
171	0x3be0caf6	0.0068601323
172	0xbd1397fc	-0.036033615
173	0x3b4f8e16	0.0031670383
174	0x3b986d3b	0.004651693
175	0xbbf3cc80	-0.00744015
176	0x3c418d7a	0.011813516
177	0x3e4a9b70	0.19785857
178	0x3b9af606	0.0047290353
179	0xbb513a97	-0.0031925791
180	0x3bff4531	0.0077902307
181	0x3c26b3d3	0.010174709
182	0x3dc75528	0.09733039
183	0xbb97210c	-0.004612094
184	0x3cbbfb93	0.022947108
185	0xbb3187b1	-0.0027088935
186	0x3c1538db	0.009107794
187	0xbd39e8ee	-0.045388155
188	0x3b4bd880	0.0031104386
189	0x3ba093d3	0.0049004345
190	0xbb9ef759	-0.0048512635
191	0xbb4dc61a	-0.0031398595
192	0x3c92a02b	0.01789864
193	0xbaef09d2	-0.001823718
194	0x3ba082b5	0.004898394
195	0x3b710610	0.0036777295
196	0xbb00fb40	-0.0019681007
197	0x3d688688	0.056768924
198	0xbcaad4c5	-0.02085341
199	0x3c210f05	0.009830241
200	0x3b5aab76	0.003336636
201	0xbc84dff5	-0.016220072
202	0x3d958ef7	0.07302659
203	0x3bf7bacc	0.0075601097
204	0x3b60cf3c	0.0034303209
205	0x3b4bf573	0.003112164
206	0xbc00207f	-0.007820248
207	0x3cb3dea5	0.021956751
208	0x3bc8d503	0.0061289086
209	0xb94cce6a	-0.00019531851
210	0x3b97074a	0.004609023
211	0x3c3a97e1	0.01138875
212	0x3f2a24f1	0.6646262
213	0x3b551f3a	0.0032519833
214	0x3a78eccb	0.0009495734
215	0x3bb45f6a	0.0055045383
216	0x3c65ca36	0.014025262
217	0x3cdbd2ff	0.02683401
218	0xbbf9860c	-0.0076148566
219	0xbb9cbd45	-0.004783305
220	0x3b154eca	0.0022782558
221	0x3c31ae08	0.010844715
222	0xbd76ca74	-0.060251668
223	0xbb16d3b7	-0.0023014375
224	0x3b3624b0	0.0027792864
225	0x3bbf8291	0.005844422
226	0xbb2ec8de	-0.002667002
227	0xbca4bfca	-0.020110983
228	0x3ae3f7e5	0.0017392604
229	0x3b02373c	0.0019869348
230	0x3bef821a	0.0073092105
231	0x3b8a9b36	0.0042299284
232	0x3c8d8799	0.017276572
233	0xbc671021	-0.0141029665
234	0xbb99322c	-0.0046751704
235	0xbb0a88d8	-0.0021138694
236	0x3cd31669	0.025767522
237	0xbd399f00	-0.04531765
238	0xbbbf24a3	-0.005833225
239	0xbb44648e	-0.0029967162
240	0x3e52a7d8	0.2057184
241	0xbc7a9083	-0.015293243
242	0x3e87df80	0.26537704
243	0x3ccda411	0.025102647
244	0x3e5f747b	0.21821778
245	0xbca7efab	-0.020500025
246	0x3d7916e5	0.06081285
247	0x3f04a155	0.51808673
248	0x3d555741	0.052085165
249	0xbd809360	-0.062781096
250	0xbc3a39cc	-0.011366319
251	0x3c03e599	0.008050346
252	0xb9985e9b	-0.00029062186
253	0x3d97c899	0.07411308
254	0xbc256555	-0.01009496
255	0xbc5f3e87	-0.0136257475

encoder_conv3.bias f4 [8]
0	0x3e5fc0be	0.21850869
1	0x3ecf3a07	0.4047396
2	0x3e135285	0.14386947
3	0x3ea3af2a	0.31969577
4	0x3e8cbc6c	0.27487504
5	0x3ecff955	0.40619913
6	0x3f43cc10	0.7648325
7	0x3e99b76a	0.30022746

deconv1.weight f4 [8, 16, 5]
0	0xbcd8e603	-0.026476866
1	0x3d458345	0.04822089
2	0x3e841f67	0.25805208
3	0x3da88014	0.08227554
4	0x3ad6573b	0.0016352901
5	0xbcbe6057	-0.023239298
6	0xbc8c78bc	-0.017147414
7	0x3de09c42	0.10967304
8	0xbc30a4f7	-0.010781518
9	0xbeb8e906	-0.36115283
10	0x3cfee12c	0.03111323
11	0xbc81c633	-0.015841579
12	0x3c142490	0.00904192
13	0x3d3d28a5	0.04618134
14	0x3b83ff27	0.0040282193
15	0xbc721acb	-0.014776896
16	0xbb430bd0	-0.002976168
17	0xbe11f35f	-0.14252995
18	0xbd57bfa7	-0.05267301
19	0x3d5a2a5f	0.053263064
20	0x3d160ff0	0.036636293
21	0x3ca91b36	0.020642858
22	0xbc66e95a	-0.014093721
23	0x3cccd0e0	0.025001943
24	0x3cd7ee9e	0.026358899
25	0x3c2533e6	0.010083174
26	0x39a9880f	0.00032335563
27	0xbdb09bbb	-0.08623453
28	0x3c6c51ac	0.014423769
29	0xbc9fda99	-0.019513415
30	0xbe81a34c	-0.25319898
31	0x3c1e0d33	0.009646702
32	0x3da54466	0.080696866
33	0xbf09277f	-0.5357589
34	0xbd1b6405	-0.037937183
35	0xbd47dc5a	-0.048794128
36	0xbc97cd2f	-0.018530456
37	0x3e0979ec	0.13425416
38	0x3d4f815c	0.050660476
39	0xbdac2c51	-0.0840689
40	0x3d046ef5	0.03233238
41	0x3c7328bf	0.014841258
42	0xbdc62b0b	-0.096761785
43	0x3cb2d699	0.021830844
44	0xbceab6b4	-0.028651573
45	0x3d09b218	0.03361711
46	0xbcbdaada	-0.023152757
47	0x3e3cdeb6	0.18444332
48	0x3de423a4	0.111396104
49	0x3db64aa3	0.089009546
50	0x3cc502a4	0.02404911
51	0xbd795f86	-0.060882114
52	0x3e859107	0.2608721
53	0x3cebf94a	0.028805394
54	0xbc4a24d0	-0.012337878
55	0xbbd79607	-0.006579164
56	0xbbba52e6	-0.005686152
57	0x3e827544	0.25480092
58	0xbd353666	-0.04424133
59	0x3cf1879b	0.029483607
60	0x3d3cebc3	0.046123277
61	0xbd12df1e	-0.035857312
62	0x3e81ed87	0.2537653
63	0x3d2dfe2e	0.042478733
64	0xbd39d422	-0.04536832
65	0xbaa77167	-0.0012774885
66	0x3d11a6c4	0.03555943
67	0x3eec1ce1	0.46115783
68	0x3d0bedd3	0.034162354
69	0xbb8e7cec	-0.004348388
70	0x3c108608	0.008821018
71	0x3ae1ec95	0.0017236645
72	0x3e203b67	0.1564766
73	0x3d5ae68a	0.053442515
74	0xbd1f56e0	-0.03890121
75	0x3d953450	0.072853684
76	0x3cd99e7c	0.026564829
77	0x3db0350f	0.0860387
78	0x3d68bdc1	0.05682159
79	0x3c3c62a9	0.011498132
80	0xbc9fee45	-0.019522795
81	0x3da71158	0.08157605
82	0x3b1be942	0.0023790156
83	0xbc5e3f18	-0.013564847
84	0xbce68439	-0.02813922
85	0x3d891dd1	0.0669514
86	0xbc9029a8	-0.017597988
87	0xbe3c81cf	-0.18408893
88	0xbb67639f	-0.0035307182
89	0xbea18ecd	-0.3155426
90	0x3cb34445	0.02188314
91	0x3c16986f	0.009191616
92	0x3cb78223	0.022400921
93	0x3beab12d	0.0071622343
94	0xbc927f82	-0.017883066
95	0x3ceaf7e6	0.02868266
96	0xbe015c19	-0.12632789
97	0x3d04de7c	0.03243874
98	0x3ca2af04	0.019858845
99	0xbc858ffd	-0.01630401
100	0x3baae036	0.0052147163
101	0x3e53a340	0.20667744
102	0x3c7e9e87	0.015540726
103	0x3cafac78	0.021444544
104	0x3c9763db	0.018480232
105	0x3b42fc34	0.0029752376
106	0xbc90ce31	-0.017676445
107	0xbcf4f1fd	-0.029900545
108	0x3b8a05e1	0.0042121266
109	0x3c7c58ed	0.015402061
110	0x3d2ac449	0.0416911
111	0xbe059b8c	-0.13047618
112	0xbdd40b6f	-0.10353743
113	0x3da363ef	0.07978045
114	0xbe0c8ab2	-0.13724783
115	0x3d5f06f9	0.05445001
116	0x3d117229	0.035509262
117	0xbd8525f7	-0.06501382
118	0xbcc600ec	-0.024170361
119	0x3c8da1cd	0.017289067
120	0x3ba80c2b	0.0051284037
121	0x3e396771	0.18105866
122	0xbbdcda15	-0.0067398646
123	0xbca4e81b	-0.020130208
124	0xbd91927b	-0.07108017
125	0xbcc42bf6	-0.023946743
126	0x3f0107f8	0.50402784
127	0x3d8c7f19	0.068601795
128	0xbc936014	-0.01799015
129	0xbcdb08a3	-0.026737517
130	0xbbc4e261	-0.006008432
131	0x3d7b1e22	0.061308034
132	0xba018778	-0.0004941146
133	0xbc0867cc	-0.008325528
134	0x3ba798ed	0.0051146657
135	0xbc442d71	-0.011973725
136	0xba0a6879	-0.000527985
137	0x3c8c701e	0.017143305
138	0x3c2524dc	0.010079589
139	0xbb842e8e	-0.00403387
140	0xbaa85ee4	-0.0012845662
141	0x3e9bd419	0.30435255
142	0xbd2600b3	-0.04052801
143	0xbcf24493	-0.029573714
144	0xbc7ed67d	-0.015554068
145	0x3d44e388	0.048068553
146	0xbe18b9f6	-0.14914688
147	0xbc4a394b	-0.012342761
148	0xbbec6cba	-0.0072151097
149	0x3ba3f5fd	0.0050036893
150	0x3b377b75	0.002799717
151	0x3edf2984	0.4358636
152	0xbd20e69f	-0.039282437
153	0x3d2ada19	0.0417119
154	0x3d793dcb	0.060849946
155	0x3cdc60aa	0.026901562
156	0x3d5ed146	0.054398797
157	0x3cb89e2e	0.022536363
158	0xbd328f4b	-0.043593686
159	0x3c98c100	0.018646717
160	0xbcbb9046	-0.022895943
161	0x3d54c377	0.051944222
162	0x3e1ec256	0.15503821
163	0x3cb5f9ad	0.022213781
164	0x3d0c36e5	0.03423204
165	0xbc5d7d65	-0.013518666
166	0xbc3612f7	-0.01111292
167	0xbd553b8a	-0.052058734
168	0xbc6a9822	-0.014318498
169	0xbec09825	-0.37616077
170	0x3d15a51a	0.036534406
171	0x3c340d74	0.010989536
172	0x3df9ca3a	0.12196775
173	0x3cf1bb20	0.029508173
174	0xbc8f8084	-0.017517336
175	0xbc7fb7ed	-0.015607816
176	0xbc606a3e	-0.013697205
177	0x3e9cdd3f	0.30637547
178	0xbc9fc546	-0.019503247
179	0x3d1825eb	0.037145536
180	0x3d010dc0	0.031507254
181	0x3d252683	0.04031993
182	0xbdd48abd	-0.10378025
183	0x3bce9cbb	0.006305305
184	0x3cc52d83	0.024069553
185	0x3c83a69a	0.016070653
186	0x3cf5aa64	0.029988475
187	0x3f46638c	0.77495646
188	0xbb6d9ed0	-0.003625799
189	0xbc29d892	-0.010366576
190	0xbe0d5d41	-0.13805105
191	0xbda9a654	-0.08283678
192	0x3ddd3b14	0.10802284
193	0xbe837c37	-0.25680706
194	0xbe13eeb3	-0.14446525
195	0x3c4bba28	0.01243452
196	0x3d15f7a5	0.036613125
197	0x3d69c06b	0.05706827
198	0xbcf0626e	-0.02934381
199	0xbd8486ad	-0.06471
200	0x3d372c3d	0.044719923
201	0x3cfaba4b	0.03060641
202	0xbccf41b2	-0.02529988
203	0xbca1ffa1	-0.019775214
204	0xbc5b1831	-0.013372467
205	0x3c257732	0.010099219
206	0x3d8602be	0.06543492
207	0x3e44deac	0.19225568
208	0x3c9c1230	0.019051641
209	0x3d4677aa	0.048453964
210	0x3c9997fa	0.018749226
211	0xbcd45e48	-0.025923863
212	0x3e9409b1	0.28913644
213	0x3d2b1bc8	0.04177454
214	0xbd868a46	-0.06569342
215	0xbbbe2225	-0.00580241
216	0xbd2b8b8a	-0.04188112
217	0x3da9bbe2	0.08287789
218	0xbcc536f4	-0.024074055
219	0x3d11030a	0.03540329
220	0x3d4144bf	0.047184702
221	0xbb78f7b2	-0.0037989435
222	0x3e8380da	0.25684243
223	0xbc692f14	-0.014232416
224	0xbd1bba76	-0.03801962
225	0x3c93320f	0.017968206
226	0x3d26ea4f	0.040750798
227	0x3d23498c	0.03986506
228	0x3a656fae	0.00087522983
229	0xbce3e7bc	-0.02782046
230	0x3cbc1f86	0.02296425
231	0x3cb1531e	0.021646079
232	0xbd299e70	-0.041410863
233	0x3d6865bf	0.056737658
234	0x3bebfb63	0.0072015985
235	0x3d8f453d	0.06995628
236	0x3ccbebbb	0.024892678
237	0xbce8f5e2	-0.028437559
238	0xbd3ec6de	-0.046576373
239	0xbb903312	-0.0044006193
240	0xbd6ca6aa	-0.05777613
241	0x3dd9e7e2	0.10639931
242	0x3e0ea8b3	0.13931541
243	0x3dd29d9e	0.10283969
244	0x3b36b20f	0.0027877127
245	0x3ca3ea01	0.020009043
246	0xbc7bfec9	-0.01538057
247	0x3e3b893f	0.18314074
248	0xbd22dade	-0.03975951
249	0xbed528d5	-0.41632715
250	0x3d36a203	0.0445881
251	0x3c02674b	0.007959197
252	0x3f0afd5e	0.5429286
253	0x3d15f571	0.036611024
254	0x3bc892d5	0.0061210194
255	0xbcc75615	-0.02433304

deconv1.bias f4 [16]
0	0x3dea1c87	0.114312224
1	0x3e33c1dd	0.17554422
2	0x3dcf55e7	0.101238064
3	0x3a854b15	0.0010169471
4	0x3e8df0c1	0.27722743
5	0x3e51349f	0.2043023
6	0x3e95b088	0.29236245
7	0x3e1cae5c	0.15300888
8	0x3dcbe249	0.0995527
9	0x3d7dfebc	0.06201051
10	0x3dba4b84	0.09096435
11	0x3e68c08b	0.227297
12	0x3e2b6efa	0.16741553
13	0x3e3bb233	0.18329696
14	0x3d7f43ff	0.062320706
15	0xbe55709e	-0.20843741

deconv2.weight f4 [16, 32, 5]
0	0xbcc73e1c	-0.024321608
1	0xbd05850d	-0.03259759
2	0xbdf88196	-0.121340916
3	0x3bc4ffc3	0.0060119345
4	0xbd725b8e	-0.059169345
5	0xbdc8be07	-0.0980187
6	0xbe0ad4df	-0.13557766
7	0x3daa2359	0.08307523
8	0xbe2637e1	-0.16232254
9	0x3e0d775e	0.13815066
10	0x3d1e62dd	0.038668502
11	0xbcd453f2	-0.025918934
12	0xbe05e0d0	-0.1307404
13	0xbbe20df4	-0.006898636
14	0x3b52ed8a	0.0032185041
15	0x3e12af12	0.14324597
16	0x3e1b1266	0.15143737
17	0xbd262978	-0.04056689
18	0x3e2600f3	0.162113
19	0xbae53eb6	-0.0017490003
20	0x3de5505d	0.11196969
21	0x3ddecba1	0.10878683
22	0x3d27471f	0.04083931
23	0x3c4f0f2a	0.012637893
24	0xbd8de92e	-0.06929241
25	0x3d1257ae	0.03572815
26	0x3e2c357c	0.16817278
27	0xbdaf35bb	-0.0855517
28	0x3e125495	0.14290078
29	0x3e09ca0c	0.13455981
30	0xbdafd8fa	-0.08586307
31	0xbb184374	-0.0023233565
32	0xbc1a421a	-0.009415174
33	0x3d4b3b8b	0.04961733
34	0xbd4aa423	-0.04947294
35	0x3dda1e86	0.10650353
36	0xbaf9d8bc	-0.0019061784
37	0x3f204fc0	0.6262169
38	0x3ce59b5e	0.028028186
39	0xbd1bf5fb	-0.038076382
40	0x3dd2602d	0.1027225
41	0x3e4cd098	0.20001447
42	0xbc27d80b	-0.01024438
43	0x3dc6add1	0.097011216
44	0xbcc1f5f8	-0.023676857
45	0x3bc30be2	0.0059523443
46	0x3e13bbd6	0.14427122
47	0xbe0521c4	-0.13001162
48	0x3e38a815	0.18032868
49	0x3d004d3d	0.03132366
50	0x3ca8067e	0.020510908
51	0xbce306eb	-0.02771326
52	0x3c93e6d0	0.018054396
53	0xbd839139	-0.064241834
54	0xbd6195a0	-0.055074334
55	0x3c379f18	0.0112073645
56	0x3e2c3c78	0.16819942
57	0xbd937832	-0.0720066
58	0x3c9327fe	0.017963406
59	0x3dd90fc6	0.10598712
60	0x3e2826ee	0.164211
61	0x3e0989ab	0.13431422
62	0x3ca402ed	0.020020926
63	0x3e12f636	0.14351735
64	0xbd901a66	-0.07036285
65	0x3d0a4679	0.033758614
66	0x3e9bc946	0.30426997
67	0x3dc1bf41	0.09460307
68	0x3d4c489f	0.049873944
69	0xbe1517f5	-0.1455992
70	0xbd56860e	-0.05237394
71	0xbd2470ef	-0.040146764
72	0xbca41646	-0.020030152
73	0xbe706043	-0.23474221
74	0xbd6f4150	-0.058411896
75	0x3dfdcb2b	0.12392267
76	0xbe484523	-0.19557624
77	0x3d005864	0.031334296
78	0xbc5c67a6	-0.013452446
79	0xbda315ef	-0.07963168
80	0x3d2197bb	0.039451342
81	0xbe1603a9	-0.14649834
82	0xbe55f264	-0.20893246
83	0xbe8815db	-0.26579174
84	0xbdbb0ab5	-0.091329016
85	0xbd85437d	-0.06507013
86	0x3d72a4b4	0.059239104
87	0x3d812f89	0.06307895
88	0xbdbcc7a3	-0.09217765
89	0x3d89fd3c	0.06737754
90	0xbd9edb3c	-0.077566594
91	0x3e332baa	0.17497125
92	0xbdd1d529	-0.10245735
93	0x3c74eee2	0.014949532
94	0x3d145c89	0.03622106
95	0x3d2e50b9	0.042557452
96	0x3e7dac3a	0.2477273
97	0x3e16bd51	0.14720656
98	0x3c8054d7	0.015665455
99	0xbc26ebab	-0.010188024
100	0x3db28f28	0.08718711
101	0xbd725c03	-0.05916978
102	0xbe2c5cd7	-0.1683229
103	0x3d619247	0.05507114
104	0x3d5b86a5	0.053595204
105	0xbd36dad7	-0.044642296
106	0x3ea43608	0.32072473
107	0xbdf0e810	-0.117630124
108	0x3dd4b717	0.10386484
109	0x3dc27568	0.0949505
110	0xbdbf5b5a	-0.09343596
111	0x3d264b6d	0.040599275
112	0x3a4ab481	0.00077325857
113	0xbe0e2585	-0.138815
114	0x3c84236d	0.016130174
115	0x3e5f0081	0.21777536
116	0xbd66d805	-0.056358356
117	0xbe28a262	-0.16468194
118	0x3d8272a6	0.06369524
119	0xbe336b96	-0.1752151
120	0xbdd9911f	-0.10623383
121	0x3e514bf2	0.20439127
122	0xbe46b240	-0.19403934
123	0xbd6b9e0d	-0.057523776
124	0x3ddb8c0a	0.1072007
125	0x3acf840c	0.00158322
126	0xbe1e3294	-0.15448982
127	0xbea93c76	-0.3305394
128	0xbd898836	-0.06715433
129	0xbd9a25da	-0.07526751
130	0x3dbabbb6	0.09117834
131	0xbe0a4ab5	-0.13505061
132	0xbe57e77c	-0.21084398
133	0xbe251777	-0.16122232
134	0xbcf4b04d	-0.029869223
135	0xbd18b568	-0.037282377
136	0xbd96c3be	-0.073615536
137	0x3e4257f4	0.18978864
138	0xbd164e25	-0.03669562
139	0xbdacbf8b	-0.084349714
140	0xbcceab8d	-0.025228286
141	0x3e128941	0.1431017
142	0xbd20405c	-0.039123878
143	0x3e0e5148	0.13898194
144	0x3c21a006	0.009864813
145	0x3cc9fc1a	0.024656344
146	0x3ca7a913	0.020466363
147	0xbd7ab747	-0.061209943
148	0x39fdf065	0.00048435028
149	0xbd7cd21c	-0.061723813
150	0x3e0449f0	0.1291883
151	0xbd25b758	-0.040458053
152	0x3cd03093	0.025413787
153	0xbda612e0	-0.08109069
154	0xbd97a5fb	-0.07404705
155	0x3cd83875	0.026394108
156	0xbd020acd	-0.03174858
157	0x3de699f4	0.11259833
158	0x3d831d8a	0.064021185
159	0x3db0dc0e	0.08635722
160	0xbdf37923	-0.11888339
161	0xbd5eba72	-0.054377027
162	0xbced955a	-0.02900188
163	0xbdc84916	-0.09779565
164	0xbdcfe244	-0.101505786
165	0xbe9895fa	-0.29801923
166	0xbdd1bacc	-0.10240707
167	0x3cfe66a0	0.031054795
168	0x3e533dbf	0.20629023
169	0x3f3150a2	0.6926366
170	0xbc657a36	-0.014006188
171	0xbd983921	-0.074327715
172	0x3e448229	0.19190277
173	0x3d1d5215	0.038408358
174	0x3ce004e9	0.027346091
175	0xbbe79526	-0.0070673404
176	0xbc940bcc	-0.018072031
177	0xbd7e3c8e	-0.06206947
178	0x3e257e01	0.16161348
179	0x3e173ef3	0.14770107
180	0x3e1c1719	0.15243186
181	0xbced7eb3	-0.028991079
182	0xbdef4c85	-0.11684517
183	0x3d61f1d8	0.05516228
184	0x3d8b06e3	0.06788423
185	0xbe0ef70e	-0.13961431
186	0x3e86d901	0.26337436
187	0xbd43742a	-0.047718205
188	0x3dcd1ff0	0.10015857
189	0xbf0e95cc	-0.5569732
190	0xbe3a0a8d	-0.18168087
191	0xbdaaf6eb	-0.08347877
192	0x3eb8da58	0.36104083
193	0x3e3ad664	0.18245846
194	0x3d22c7d6	0.03974136
195	0x3e1fa127	0.15588818
196	0x3d8e320c	0.069431394
197	0xbd2284af	-0.03967732
198	0xbcaad266	-0.020852279
199	0x3d0daf57	0.034591045
200	0x3dd81b7a	0.10552116
201	0xbdb5a88a	-0.08870037
202	0xbd036b86	-0.032084964
203	0x3e1657d7	0.14681946
204	0xbd099df9	-0.03359792
205	0x3ca17749	0.0197102
206	0xbe40081a	-0.1875309
207	0x3d836c68	0.06417161
208	0x3b947a9d	0.004531218
209	0xbd80c2c1	-0.06287146
210	0xbd89683d	-0.06709335
211	0xbd278d8d	-0.040906478
212	0xbd6ccf20	-0.057814717
213	0x3d389ca0	0.045071244
214	0xbd96ea90	-0.07368958
215	0xbd30718f	-0.043077048
216	0xbc163f9b	-0.009170438
217	0x3e83a02d	0.25708142
218	0x3e428807	0.18997203
219	0x3de06e32	0.10958518
220	0x3d07b1ac	0.033128425
221	0x3dec96ab	0.11552175
222	0xbd000dc5	-0.03126313
223	0x3e0308fc	0.12796396
224	0x3e3c8e4f	0.18413661
225	0x3c45d15e	0.012073843
226	0x3d9cf3dd	0.07663701
227	0x3dd97e82	0.106198326
228	0xbcf85bda	-0.030317236
229	0x3e481acb	0.1954147
230	0xbd46a31c	-0.048495397
231	0xbd1f893f	-0.038949247
232	0x3cb96e13	0.022635495
233	0x3ea87057	0.32898208
234	0xbd4f6ac9	-0.050638948
235	0xbebbd846	-0.3668844
236	0xbe18161a	-0.14852181
237	0x3dcfe290	0.10150635
238	0xbd33afed	-0.043868948
239	0x3e1c70ca	0.152774
240	0xbb873a7c	-0.004126845
241	0x3e26e2ae	0.16297409
242	0xbdb4d7c2	-0.08830215
243	0x3eabe2bb	0.3357142
244	0xbdd9cf5b	-0.10635253
245	0x3cf1548b	0.029459259
246	0x3e1e3024	0.15448052
247	0x3e49d214	0.19709045
248	0x3ca17c2c	0.01971253
249	0xbbf81ad2	-0.0075715566
250	0x3b7b2105	0.0038319242
251	0xbd824c67	-0.06362229
252	0xbe3d4b90	-0.18485856
253	0x3d07a112	0.033112593
254	0x3dbe1eaa	0.092831925
255	0xbccdbbae	-0.025113907

deconv2.bias f4 [32]
0	0xbbf528e7	-0.0074816826
1	0x3dcc71e2	0.09982659
2	0xbea3f98d	-0.3202633
3	0x3e06bba7	0.13157521
4	0x3d4607e0	0.048347354
5	0x3d14ca91	0.036325995
6	0x3d1a5040	0.03767419
7	0x3c0b078c	0.008485686
8	0xbd16dee7	-0.03683367
9	0xbd72c9fa	-0.05927465
10	0xbe74adfe	-0.23894498
11	0x3db43788	0.08799654
12	0x3d7cfd03	0.06176473
13	0xbbc880b4	-0.0061188582
14	0xbe9941b6	-0.29932946
15	0x3e751775	0.2393473
16	0xbe1da2fb	-0.15394203
17	0x3e246539	0.16054238
18	0x3df196be	0.1179633
19	0x3d4a2fcd	0.049361993
20	0x3d7db05d	0.06193577
21	0xbcd998df	-0.026562152
22	0x3e539d29	0.2066542
23	0xbe0a0db1	-0.13481785
24	0x3e1934aa	0.14961496
25	0x3e112e97	0.14177929
26	0x3cfb224f	0.030656008
27	0x3e08eb83	0.1337109
28	0x3dc08374	0.09400073
29	0xbd9777d1	-0.073959
30	0xbd52aeca	-0.051436223
31	0x3e22d3f2	0.15901163

deconv3.weight f4 [32, 1, 5]
0	0xbd10d3ea	-0.035358347
1	0xbd6675c5	-0.056264658
2	0xbec78b2d	-0.3897337
3	0xbe975d37	-0.29563305
4	0xbe97d51e	-0.29654783
5	0xbeab82ce	-0.33498234
6	0xbef4d7b5	-0.4782082
7	0xbebbe29e	-0.36696333
8	0xbdb71fe4	-0.089416295
9	0x3e128303	0.1430779
10	0x3e0e8d9d	0.13921209
11	0x3ea3941c	0.31948936
12	0xbf25ddfe	-0.6479186
13	0x3e82734d	0.25478593
14	0x3e0354ea	0.12825361
15	0x3e71e92f	0.23624109
16	0x3e5470c0	0.20746136
17	0x3ea6e18d	0.32593957
18	0x3f0154e7	0.50520176
19	0x3e8a00e2	0.269538
20	0x3d4448d9	0.047921035
21	0xbcb6e703	-0.022326952
22	0x3d7d602b	0.06185929
23	0x3e2f3488	0.17109883
24	0x3ead3092	0.3382612
25	0x3e3eb2dd	0.18622918
26	0x3f1b7ca1	0.60737044
27	0xbd5d9179	-0.05409381
28	0xbd1c4771	-0.03815407
29	0xbdc7c3d7	-0.0975415
30	0x3eed2621	0.46318153
31	0x3ebbf758	0.36712146
32	0xbc77472d	-0.015092653
33	0xbdfadf00	-0.12249565
34	0x3c72968b	0.0148064
35	0x3cdb5c3a	0.026777375
36	0xbd013a39	-0.031549666
37	0x3f6b0913	0.9181072
38	0xbd71ca35	-0.05903073
39	0xbe524124	-0.20532662
40	0x3e522c53	0.20524721
41	0x3e363c7e	0.17796513
42	0x3e1e375d	0.15450807
43	0x3eb8b3e4	0.36074746
44	0xbc6e23aa	-0.01453487
45	0x3e1cc656	0.15310034
46	0x3e7f9cb2	0.24962118
47	0x3e9c2728	0.30498624
48	0xbce97ba8	-0.028501347
49	0xbd49a72b	-0.04923169
50	0xbdbff78a	-0.09373386
51	0xbeb4d23c	-0.35316646
52	0xbf515e89	-0.81784874
53	0xbf2e51c9	-0.68093544
54	0xbe4a4095	-0.19751199
55	0xbdc4a789	-0.09602267
56	0x3f10515b	0.5637414
57	0x3ea1d4a4	0.31607544
58	0xbd4a55c1	-0.049398188
59	0x3d8033a4	0.0625985
60	0xbe1325d1	-0.14369895
61	0x3e525a95	0.20542367
62	0xbe092c60	-0.13395834
63	0x3ebe10c0	0.37122154
64	0x3e593f39	0.21215524
65	0x3da9d3e9	0.08292372
66	0xbd981f44	-0.074278384
67	0x3ef228d3	0.4729677
68	0x3ec1caa2	0.3784991
69	0x3c89a446	0.016801964
70	0x3f491537	0.78547996
71	0x3e975a71	0.2956119
72	0xbf4ebed2	-0.8075992
73	0xbf398ea2	-0.72483265
74	0x3b1ddb07	0.002408685
75	0xbea65810	-0.3248906
76	0xbf2c83d3	-0.6738865
77	0xbefd77a1	-0.49505332
78	0xbeb99014	-0.36242735
79	0xbd34e0af	-0.044159587
80	0xbf19c4c4	-0.60065866
81	0xbf5da1cc	-0.8657501
82	0x3e7d46c7	0.2473403
83	0x3f07dc46	0.53070486
84	0x3de19250	0.11014235
85	0x3e4c1af7	0.19932161
86	0x3e5f8f85	0.21832092
87	0x3f121894	0.57068753
88	0x3e679d8f	0.22618698
89	0x3c18561f	0.009297877
90	0x3e11fccc	0.1425659
91	0x3de49de6	0.11162929
92	0x3dc0167f	0.09379291
93	0x3d83bc7f	0.06432437
94	0xbdba32b5	-0.09091703
95	0x3e1bb936	0.15207371
96	0x3e44ff9e	0.19238135
97	0x3e8922e2	0.26784426
98	0x3ed73972	0.42036015
99	0x3ceb4c97	0.028723044
100	0xbd64f76c	-0.055900022
101	0xbe973aa0	-0.29536915
102	0x3de153ee	0.110023364
103	0x3e8179a4	0.25288117
104	0xbe1df025	-0.15423639
105	0x3e2e5926	0.17026195
106	0x3ee94500	0.45560455
107	0x3d18976e	0.03725379
108	0xbcb87751	-0.022517832
109	0xbdff47e5	-0.12464885
110	0x3dbd4687	0.09241968
111	0xbc138a8c	-0.0090052
112	0xbec3829e	-0.3818559
113	0xbf163d7c	-0.5868757
114	0xbec43b01	-0.38326266
115	0xbdb94e3f	-0.090481274
116	0xbe50cf35	-0.20391543
117	0xbe046d58	-0.12932336
118	0x3e9826c3	0.29717073
119	0x3ee76900	0.45197296
120	0x3e18c668	0.14919436
121	0x3c933be7	0.0179729
122	0xbe9a8b45	-0.3018438
123	0xbefb4d0a	-0.49082214
124	0xbe99b008	-0.30017114
125	0x3dc726be	0.09724186
126	0x3eb30bb6	0.34969872
127	0x3efcef6a	0.49401408
128	0x3f0ef8ff	0.5584869
129	0xbe87e23d	-0.26539794
130	0xbe8650c9	-0.2623351
131	0xbf06208d	-0.5239342
132	0xbe8c03d2	-0.27346665
133	0xbdc5899f	-0.0964539
134	0x3e2ea3dd	0.17054696
135	0xbd266b06	-0.04062941
136	0x3e74da4d	0.239114
137	0xbf28d8ae	-0.65955627
138	0x3d8f3127	0.06991797
139	0x3ebdae44	0.37047017
140	0x3e02726f	0.12738965
141	0x3ec15cb1	0.3776603
142	0x3ececde4	0.40391457
143	0xbe203c37	-0.1564797
144	0x3eb42fe6	0.35192794
145	0x3b1236e6	0.0022310554
146	0x3dac0a2e	0.08400379
147	0xbdc56d6c	-0.09640011
148	0xbe4a291a	-0.19742242
149	0xbbb58fe5	-0.005540835
150	0xbe235d2f	-0.15953515
151	0xbe41e456	-0.1893476
152	0xbedbdb53	-0.4294077
153	0xbf0842e4	-0.53227067
154	0xbd81fcd7	-0.063470535
155	0xbeae1641	-0.34001353
156	0x3cf5072d	0.029910648
157	0x3f1dae1e	0.61593807
158	0x3ea10938	0.31452346
159	0xbe765400	-0.24055481
