models/multi_resolution/SNN_Autoencoder_tsri_320g.pth (torch, 37171 bytes, 11 tensors)

encoder_conv1.weight f4 [32, 1, 5]
000000 64 c2 74 3b b3 15 28 bd dd ff 7f 3f ac 47 69 3e
       0.003734731 -0.04103632 0.9999979 0.22781247
000010 1b 82 77 bd 9e 8d 87 3b 69 ed e1 3d 7e 13 9c 3d
       -0.060426813 0.004136755 0.110316105 0.07620905
000020 99 0a c3 3d 40 09 31 3f 76 ab 92 3f 40 4f 9d 3d
       0.09523506 0.6915474 1.1458576 0.07681131
000030 4f 10 07 3d 9b 79 f4 3c 29 b9 ac be c7 a5 ef bd
       0.032974537 0.029843142 -0.33735016 -0.117015414
000040 b7 84 2a 3e d0 3c a9 3e 93 1e 8b 3f ea 91 6c 3d
       0.16652189 0.3305421 1.0868706 0.057756342
000050 fa 13 69 bd a5 2b a3 bd 26 86 de bd a1 a5 0f be
       -0.056903817 -0.07967309 -0.108654305 -0.14028026
000060 50 fa d6 3e 81 80 b5 be d4 c3 bf be 87 a5 5a 3e
       0.41987848 -0.35449603 -0.37454093 0.21352206
000070 f9 49 50 be ea 3c 94 3d 5c 65 00 bf 1b 89 f7 bd
       -0.20340718 0.07238181 -0.5015466 -0.12086698
000080 aa 50 b7 be fb 0c bb be 21 df 37 be 51 ba 16 3d
       -0.3580373 -0.3653334 -0.1795621 0.03679878
000090 fa e1 8c 3f 5d 8d f8 be 78 e1 50 3e 3c 33 3d bb
       1.1006463 -0.48545352 0.2039851 -0.002886965
0000a0 f0 e8 e6 bd 25 62 04 3d 24 6c 1a be 31 21 1d be
       -0.11274898 0.03232016 -0.15080315 -0.15344693
0000b0 9f c3 47 bd 04 e4 88 3e cb 31 28 3d e7 33 e5 3e
       -0.048770543 0.26736462 0.04106311 0.4476616
0000c0 60 3e 2b bf b3 ce b3 3e c6 29 35 be bc 95 7a 3f
       -0.6689205 0.35118636 -0.17691717 0.97884727
0000d0 18 c0 43 3e 2a fa 6c 3e 45 79 e7 3d 18 c7 b0 be
       0.19116247 0.23142305 0.11302427 -0.34526896
0000e0 18 f1 92 3d d4 a1 c2 be fd b7 fb 3d e2 87 85 bd
       0.07174891 -0.3801409 0.12290952 -0.06520058
0000f0 0d 78 84 3d 3d 81 4f be 49 96 79 3f 6a 86 89 3e
       0.0646821 -0.20264144 0.9749494 0.26860362
000100 2d 9c 66 3e b7 d6 66 bd b7 53 cd 3e 42 79 49 3f
       0.22520514 -0.05635711 0.40102932 0.7870065
000110 ab 27 9a 3e 50 b9 f8 3e 6a 03 23 bd 02 fa b4 bc
       0.3010839 0.48578882 -0.039798178 -0.02209187
000120 38 91 04 bc 5a 4b 8b 3f d1 84 c3 bd ae 50 cb bb
       -0.0080912635 1.088237 -0.09546817 -0.006204686
000130 88 ae 27 bb eb 4c 72 3f 43 5d 0b bf eb e4 a3 ba
       -0.0025586206 0.9464862 -0.5443918 -0.0012504136
000140 25 c9 da 3b db 41 90 3f b3 f0 65 3d 6f ff 9d bc
       0.0066768103 1.1270097 0.05613775 -0.01928684
000150 22 a2 b1 3b c6 82 f2 bd 19 ce af be 50 73 58 be
       0.005420939 -0.11841349 -0.34336928 -0.21137738
000160 3c ad a7 3d 0e 39 6d 3e 47 6e 2b bf 6f 8c 38 bf
       0.08187339 0.23166296 -0.66965145 -0.72089285
000170 e3 4b 1c 3f e6 d3 83 be 33 ab 01 bf 15 d7 20 bd
       0.61053294 -0.25747603 -0.50651854 -0.03926762
000180 49 d4 04 bc 6d d7 28 3f 3a d8 6c bd d9 5b 36 bd
       -0.008107253 0.65953714 -0.057823397 -0.044521187
000190 d5 67 54 bf 85 cd ef bd cc 2b 99 3d c9 da b9 3e
       -0.82970935 -0.117091216 0.07479057 0.36299732
0001a0 69 1d 0e 3f 54 50 0b bf 96 62 c1 bf 6d 84 e4 3e
       0.55513626 -0.54419446 -1.5108211 0.44632283
0001b0 15 74 a9 3e 85 f9 bc 3e 37 9d 8e 3e 94 71 69 be
       0.33096376 0.36909118 0.2785432 -0.22797233
0001c0 fc 81 c1 be 79 6a c4 bd 6d e3 0a be 6b 02 3f bb
       -0.37794483 -0.095906205 -0.13563319 -0.0029145728
0001d0 3b 59 85 bd f4 71 84 bd cc 3e ff bc f7 89 d9 bc
       -0.0651116 -0.06467047 -0.031157874 -0.026555045
0001e0 d3 42 31 3d 24 99 cb bb 87 29 fd bd 5d e0 df 3e
       0.04327662 -0.006213324 -0.12361436 0.43725863
0001f0 4b b5 58 3d b1 91 9f 3d 3a 9f 48 3f b6 7f 2e 3f
       0.05290727 0.0779146 0.7836796 0.6816362
000200 ea 6d a8 be 88 e2 89 be 38 73 8c 3f 76 3e 27 bd
       -0.32896358 -0.26930642 1.0972662 -0.04083105
000210 fd 12 b0 3b 4f 33 4e 3d c5 b4 a6 3e ca c8 a5 3e
       0.0053733573 0.0503419 0.3255979 0.32379752
000220 6b 39 a0 3e 88 89 74 3d ca 7d 81 be 42 5f 02 3b
       0.31293806 0.059701473 -0.25291282 0.0019893204
000230 68 85 88 3f 46 b3 32 3d d9 72 e0 3d ad c1 f8 3d
       1.0665712 0.043628 0.109594055 0.12146316
000240 fa cd 1a 3e 75 60 cb 3e 57 2a af bc 09 d6 39 bc
       0.15117636 0.39722028 -0.021382494 -0.011342534
000250 d4 27 3f b9 dc 58 94 3e 05 e5 1a 3e 7b b9 25 3f
       -0.00018230017 0.28974044 0.15126427 0.64736146
000260 df b1 1f 3f b7 8d 01 3f d8 cc e6 bd 3d 96 91 3e
       0.62380785 0.50606865 -0.112695396 0.28434935
000270 19 30 e5 bc 8a 83 18 3d 6d 66 81 3f a6 79 9a 3e
       -0.027977036 0.03723482 1.0109383 0.30170935

encoder_conv1.bias f4 [32]
000000 e3 b7 fc 3b ca f7 5c 3d 73 e3 4c 3d c4 9c b1 be
       0.0077123507 0.053947248 0.0500216 -0.34689915
000010 63 25 b9 be fc 1a bf be 09 c8 2f 3f 92 8b 3c bd
       -0.36161336 -0.37325275 0.68664604 -0.046031542
000020 80 82 ba 3e 83 cd 7c 3e c0 58 05 bd 9e fa 9c be
       0.3642769 0.24687771 -0.03255534 -0.30659956
000030 52 39 f3 bd ec c1 ea be 58 09 5f 3e 2d db 20 3e
       -0.11876167 -0.45851076 0.21780908 0.15708609
000040 79 09 ee bc 48 58 5e be de d0 49 3e 44 f5 65 3e
       -0.029057251 -0.21713364 0.19708583 0.22456843
000050 19 75 f3 3d 82 89 7d be d0 be 4f be 6a ce c5 3e
       0.11887569 -0.24759486 -0.20287633 0.38634044
000060 6f 60 44 3e 5b d6 47 3d b3 33 4f be 40 eb f0 3d
       0.19177411 0.04878841 -0.20234565 0.117636204
000070 40 14 d5 bc 81 8f 1c 3f e7 91 43 be f8 5e 3b be
       -0.026010633 0.6115647 -0.19098626 -0.18297946

encoder_conv2.weight f4 [16, 32, 5]
000000 a8 4c 8c 3c a4 40 67 3d 5f 7d 44 bd 8e 1b 9c 3b
       0.017126396 0.05645813 -0.047971126 0.004764027
000010 fa d1 0f bc dd 28 cb 3c 81 70 17 bc 26 f3 b3 bc
       -0.00877809 0.024799759 -0.009243132 -0.021966528
000020 6c e3 46 bc b2 35 da ba 51 7c 51 bd 67 86 dd 3d
       -0.012139183 -0.0016648083 -0.051143948 0.10816651
000030 6e c7 24 bc 61 0f 3d 3b ad 62 39 bc 2d d6 85 bc
       -0.010057313 0.0028848278 -0.01131503 -0.016337479
000040 b2 98 b5 3d 1e fa 31 bd 7e 71 ec 3c 1f 9e 48 bb
       0.08867015 -0.04345142 0.028862711 -0.0030611826
000050 22 b4 3f 3d c9 05 9a 3d 63 82 91 bd b0 a1 d7 3b
       0.046802647 0.07520635 -0.071049474 0.006580554
000060 d0 91 bd 3c 4d d7 95 3d 5d f9 81 3d c8 90 d3 bc
       0.023140818 0.07316456 0.063463904 -0.025825873
000070 00 cf e5 3b 56 32 2d bd eb 6b 50 bd df d9 25 be
       0.0070132017 -0.042284332 -0.05088417 -0.16196392
000080 8c ab 82 bc 09 52 e8 bd d6 8b 6d bd 35 6f 1a bd
       -0.01595094 -0.11343772 -0.057994686 -0.03770371
000090 5c 3b 0e 3e 5d 1d 22 3d 57 c1 ce bc d4 b6 04 bb
       0.13889831 0.039578784 -0.025238676 -0.0020250576
0000a0 c9 c1 4c 3d 5e d9 d6 bd ea 9d 3e bd bb 73 6d bd
       0.049989495 -0.10490678 -0.046537317 -0.057971697
0000b0 de 26 15 bd 99 e3 96 bc c5 8d b3 bc d9 bf c7 bb
       -0.03641402 -0.018419074 -0.021918187 -0.006095868
0000c0 06 8b 7e bc fc 64 88 bb 00 05 0c bc a1 31 cb 3d
       -0.015536075 -0.004162429 -0.008546114 0.09921575
0000d0 88 71 96 3b 68 c6 df 3a ee ae c4 3b 6b 36 88 3d
       0.0045911707 0.001707268 0.0060022986 0.066510044
0000e0 c0 ef 4c bb 3c 9c 1f 3d 3b 5b 83 bd 74 ff b8 3c
       -0.0031270832 0.038967356 -0.06413885 0.022582747
0000f0 d2 60 1c 3d 9d f6 37 3d 67 64 9a bd 34 0b 9e b9
       0.038178273 0.044912923 -0.075386815 -0.00030144455
000100 2e 12 10 3c 75 ac 6a bc b2 97 bf 3d fa 83 90 bd
       0.008793397 -0.0143233435 0.093551055 -0.070564225
000110 79 45 bc bc ea e0 1f 3d 07 2a b2 3d e1 bd 96 3e
       -0.022982346 0.039032854 0.08699422 0.2944174
000120 4b cc e5 3b 1b 25 16 3d 7a 0b c7 bc db 78 b9 3a
       0.007012879 0.03665648 -0.024297465 0.0014150398
000130 64 9d 0d 3e 96 da d9 3c f8 78 07 3d 31 2d f8 ba
       0.13829571 0.026593488 0.03307435 -0.0018934367
000140 87 06 44 3c ae 70 a8 3e 39 e5 14 3b 3a 99 9b ba
       0.011964447 0.32898468 0.0022719635 -0.0011871227
000150 8c 7f b3 bb 9b 46 4c bd 37 00 8a bd 25 70 7d 3c
       -0.0054778513 -0.049872022 -0.06738322 0.015468632
000160 72 57 07 bc a6 dd d0 bc 77 b5 d8 3c e3 2b c5 3d
       -0.008260595 -0.025496315 0.026453717 0.09627511
000170 fc b7 09 3e 87 a2 96 bd 00 e3 c7 bc ae 45 bb 3a
       0.1344909 -0.073552184 -0.024400234 0.0014287734
000180 05 ca d9 3c a2 8f 3d bd dc 2e 80 bc 6f ca ba bc
       0.026585588 -0.046279557 -0.015647344 -0.022801606
000190 ac ec aa bc 27 22 23 bd c7 4a 9a bd cc f7 f3 3b
       -0.020864807 -0.039827492 -0.07533794 0.007445311
0001a0 49 ca 92 bc 52 99 c0 3d 32 83 c9 3c 3c 98 ff bd
       -0.017918723 0.094042435 0.024598692 -0.12480208
0001b0 d3 5b 47 3b a7 3e f4 bc 90 40 c5 3b 3a 59 68 3d
       0.0030419722 -0.029815031 0.0060196593 0.056725718
0001c0 a4 32 81 bd 75 1b 35 bd b6 85 6f bd 25 88 f1 bc
       -0.06308487 -0.04421564 -0.058477126 -0.029483864
0001d0 43 a9 1e bd 44 fd 85 3c e7 85 36 bd 3c 5c bc bb
       -0.03873564 0.016356118 -0.044561293 -0.0057483
0001e0 70 97 25 3c ff 49 a6 bb 23 bb 88 3c ba f3 1c 3d
       0.010106906 -0.005074739 0.016690796 0.038318373
0001f0 2b 29 51 bd 2b 8a cf ba df 34 b0 3d 7a e2 b0 3c
       -0.05106465 -0.0015834024 0.08603834 0.021592367
000200 b0 99 0c 3d 29 b7 4a bc 7b 2d 47 3d b8 87 06 3e
       0.034326255 -0.01237277 0.048627358 0.1313771
000210 8a f9 5b 3d b6 da 89 bd d0 8d 37 3a 09 ea 5b bd
       0.053704776 -0.06731169 0.00070020277 -0.05368999
000220 7e c2 72 3d 1f 17 19 bd 55 85 3a bc 49 76 e4 bb
       0.059267513 -0.037375566 -0.011384328 -0.0069721085
000230 7b 7a 73 bb 3b b4 86 3e 12 9f 27 3d 61 45 bd bc
       -0.0037151861 0.2630938 0.040923186 -0.023104372
000240 38 e4 f5 3c fa 6f 53 bd 4f 4b 6f bd 85 c2 88 bd
       0.03001605 -0.05162046 -0.05842143 -0.06677727
000250 aa e0 92 bd 10 c9 8e bd 7b 51 22 3c 52 35 4f 3e
       -0.071717575 -0.069719434 0.009907122 0.20235184
000260 ed 07 66 3c 2f 6e 62 bc 6e 21 60 3b 2d df f7 3c
       0.014039976 -0.013820215 0.0034199613 0.030257786
000270 a8 a3 15 3d 29 a5 58 bc 3a 1d 6c bc 0f 06 70 3c
       0.036533028 -0.013222971 -0.014411265 0.014649882
000280 bb 1b ac 3c 62 0b 9b bd e1 c5 e4 3d 31 65 26 3d
       0.021009317 -0.075705305 0.11170555 0.040623847
000290 ba 15 d2 3b b0 29 1b bd 62 a8 43 3e 42 7b f6 bd
       0.0064112814 -0.037881553 0.19107202 -0.12035228
0002a0 21 7c d4 bd 37 23 40 bd 58 08 88 3d cc 1d 8d bd
       -0.10375238 -0.046908583 0.066422164 -0.06890449
0002b0 b4 f9 6f 3e a6 4a ad 3d 4d 52 ce 3c 70 d4 5e bc
       0.23435098 0.08461504 0.025185728 -0.013600454
0002c0 d7 da 2e bd 41 17 1e 3e 3d 9d e0 bc 03 92 58 bc
       -0.04268917 0.15438558 -0.027418727 -0.013218406
0002d0 91 18 a1 bd 1b 41 87 bd e1 b3 7f bd b5 ae 85 3d
       -0.07866014 -0.06604215 -0.062427405 0.06527463
0002e0 c0 f3 a2 3a f0 4c 2a bd 26 89 64 3d 6c 8b 0b bd
       0.0012432262 -0.04157728 0.055794857 -0.03406851
0002f0 ee 70 04 3d 32 cd 38 3d ae 7a a6 bd fa 18 49 bd
       0.03233426 0.045117564 -0.08128868 -0.049096085
000300 68 48 b7 ba 7d 85 1a be dd d4 36 be 6d 7e 26 3b
       -0.0013983371 -0.15089984 -0.17854638 0.0025404945
000310 1f 8b 42 3c 08 3c 0c bd 5d 63 b6 bc 6c 68 41 3c
       0.011873989 -0.034236938 -0.022264177 0.011804681
000320 4e f5 9e 3c 88 29 c8 bd df ca 0c be 76 74 b8 bd
       0.01940408 -0.097735465 -0.13749264 -0.09006588
000330 e5 68 dd bc 53 08 65 b9 52 81 1d bd a1 1b 7e bd
       -0.027027557 -0.00021842243 -0.038453408 -0.062038068
000340 04 b1 8d 3d 83 3e 92 3d 10 8e 9d 3b 32 8f ef bb
       0.06918529 0.071408294 0.004808195 -0.0073107714
000350 bc fb b3 bc 6d 0f 09 3d db b1 fb 3c 52 6a 77 3d
       -0.021970622 0.033461977 0.030724457 0.06040413
000360 00 ba 37 b9 50 a4 38 3d d0 b4 44 bd c3 85 24 bd
       -0.0001752153 0.045078576 -0.048024 -0.040166628
000370 cf 29 c0 3b 79 69 05 3d 47 09 24 3e 9c 41 54 3d
       0.005864359 0.03257129 0.16019164 0.051820382
000380 9c 46 db bb bd 17 0b 3c ba e8 db 3d 49 cc ed 3c
       -0.006691767 0.008489546 0.107377484 0.029028075
000390 87 2d 30 bc 0c f1 7c bd 5a 67 c8 bc 21 ac ab 3c
       -0.010753042 -0.061753318 -0.024463344 0.0209561
0003a0 0b 9f 6b 3e f7 cf 02 3e a5 2e db 3d 1c 0e f7 3c
       0.23009889 0.12774645 0.10702256 0.030158095
0003b0 60 38 f6 3b 03 27 bf 3c a3 a4 33 3d 45 8a 82 3d
       0.0075140446 0.023334032 0.04385818 0.06374029
0003c0 fa 3b a2 3d 49 02 86 3d 93 fd 92 3d 00 d4 e9 3d
       0.07921596 0.065434046 0.07177272 0.11417389
0003d0 cc f6 a4 3d 2b 0b 34 bd 80 99 07 bd b1 43 7f 3c
       0.08054885 -0.043955963 -0.033105373 0.015580104
0003e0 99 bb 0a 3d 17 22 48 bd 07 bb b1 bd 02 d7 71 bd
       0.033870313 -0.048860636 -0.08678251 -0.059042938
0003f0 1c f1 da be aa c2 04 bd 1b 43 e4 bc 62 d6 29 bc
       -0.42762077 -0.03241221 -0.02786403 -0.010366054

encoder_conv2.bias f4 [16]
000000 74 41 91 3e 00 18 30 be 62 e9 8b 3d aa c9 9b bb
       0.2837025 -0.17196655 0.068316236 -0.004754265
000010 42 62 72 3e 48 84 e0 3e 7b 59 f9 3c 76 ae 84 bc
       0.23670295 0.43850923 0.030438175 -0.01619647
000020 2d fe 73 3e 42 3a f7 3e 68 06 0b 3d 7c 9c a6 3d
       0.23827429 0.48286635 0.033941656 0.08135316
000030 80 33 ad 3e a3 22 25 3f 53 4e 86 bc 5b 90 83 3e
       0.33828354 0.64505976 -0.01639477 0.25696072

encoder_conv3.weight f4 [8, 16, 5]
000000 ca 7b ba bc 17 dd 92 bd ff ad f8 bd 14 01 95 bc
       -0.022764105 -0.07171076 -0.12142562 -0.01818899
000010 37 64 c6 3c 3f f5 e1 bc 0e 89 61 3b 40 c5 b7 3d
       0.024217708 -0.027582763 0.0034413966 0.08973169
000020 b3 dc 60 bf 69 82 71 bb 4c d4 ec bc d0 ef 33 be
       -0.8783676 -0.0036851412 -0.028909825 -0.1757195
000030 9c 82 ad 3d 8d 52 25 3d 50 2d 94 3b 91 71 e8 3b
       0.084721774 0.04036193 0.0045220032 0.0070936163
000040 6d a8 58 39 f4 42 c2 3d 6a 1c 1a 3e a4 7f ea 3b
       0.00020662109 0.094854265 0.15049902 0.007156329
000050 ba 81 d5 3c 72 1c 75 be 11 ab d9 bd 1d 76 31 bc
       0.026062835 -0.23936632 -0.106283315 -0.010831383
000060 10 89 64 3d de 2e 32 3c 23 d8 81 3d f8 33 a6 bc
       0.055794775 0.010875432 0.06340053 -0.020288453
000070 fe 4f 05 3d b2 b1 14 3a fa 67 2f b8 2a 54 46 3f
       0.03254699 0.00056722306 -4.1820087e-05 0.77472174
000080 45 c6 35 3d a9 73 82 3c fb ce 80 3c 0d 49 40 bc
       0.044378538 0.015924292 0.015723696 -0.011736167
000090 97 fe 66 bd 5a 12 05 3d fd 8d 8a 3e dc fe 2a bc
       -0.05639514 0.032488205 0.27061453 -0.01043674
0000a0 ef 97 2a 3c f3 18 d0 bc 27 78 94 bd d7 99 83 bd
       0.0104122 -0.025402522 -0.0724948 -0.06425827
0000b0 6b 99 5c bd 53 11 52 3d ce f9 c5 3e 77 27 50 3d
       -0.05385725 0.051286053 0.38667148 0.050818887
0000c0 8b 0e 80 3d f6 7a 3d 3d 47 3e 3a bd e9 51 af bd
       0.06252774 0.046259843 -0.04546955 -0.08560545
0000d0 8c 46 06 3e 81 c4 ab 3c 7e f7 35 3c 81 b4 42 3c
       0.13112849 0.020967724 0.01110637 0.011883856
0000e0 99 0d 0d be 9e a3 31 3d 4e 3a be 3c eb 2f 5b 3b
       -0.13774718 0.043368928 0.023221161 0.003344531
0000f0 44 ec 47 bb 65 21 9b bd 26 5f 0d 3c a6 ff 81 bd
       -0.0030505816 -0.07574729 0.008628642 -0.06347589
000100 56 c3 95 3c 5a 87 97 3d 03 65 0a be bf 03 2b bd
       0.01828162 0.07398863 -0.13515095 -0.04175162
000110 14 97 13 3d a1 bc a4 3d 81 7b 8b bc 09 9a 82 3c
       0.03603275 0.080437906 -0.017026665 0.01594259
000120 50 bd a7 3d 4f b9 b7 3c b3 d8 2e 3c 34 7a 51 3d
       0.08190405 0.02242723 0.010671782 0.051141933
000130 0b 30 e9 3c 2c d1 79 3d bb 5a d6 3c 45 69 6a 3d
       0.028465291 0.060990497 0.02616631 0.0572293
000140 18 6e 51 3d dd ee 80 bc 37 53 44 3f a0 66 2f bb
       0.051130384 -0.015738899 0.76689476 -0.002676405
000150 ce 0d 90 3c 24 69 9b bd 22 ef 75 bd 5a 5e 3a 3d
       0.017584708 -0.07588413 -0.060042508 0.045500137
000160 f5 fe 91 3d a9 88 2e bc 69 e7 66 bd 7f 09 59 bd
       0.07128707 -0.0106526995 -0.056373034 -0.05298757
000170 32 ed 11 3e 4f dd aa 3b 79 1d eb bb 77 31 c8 bd
       0.14250639 0.0052143703 -0.0071751443 -0.0977506
000180 12 2d 07 be 1e 78 d5 3e fd 3f 35 bf f6 5e 3b 3c
       -0.13200787 0.41693205 -0.70800763 0.011436215
000190 2c cb 66 3d e4 7f 06 bd d7 61 46 bc 7a 4a 9a be
       0.056346104 -0.03283681 -0.012108288 -0.30134946
0001a0 80 e4 a7 3d 1c 18 29 3c 8e ab f9 3b 55 bf b5 bc
       0.0819788 0.0103206895 0.007619328 -0.02218596
0001b0 d3 db 4c 3d eb 5d 9e bc 57 b0 08 bd ca 09 3f bd
       0.05001433 -0.019331893 -0.033371296 -0.046640195
0001c0 11 5f 8a 3e 9f 9c e2 3c 81 5e c1 3b 4e 9e 2f bd
       0.27025655 0.027662573 0.0059011583 -0.04287558
0001d0 cd fc 3c bb da 1c 03 be 5c 27 ba bc 22 4f 69 3b
       -0.0028837204 -0.12803975 -0.022723846 0.0035600145
0001e0 fd 33 85 bc f4 2d 90 3b d8 bd c4 bd 08 f9 13 be
       -0.016260142 0.0044000093 -0.09606522 -0.14450467
0001f0 ea f7 a8 bc c5 da 6a 3d a1 98 94 bd e2 18 f2 3e
       -0.020626027 0.05733754 -0.07255674 0.4728461
000200 55 b2 98 bc 5a fb 48 3d 0c b4 c8 bd 4e 41 55 3c
       -0.018639723 0.049067833 -0.09799966 0.013016058
000210 9d d4 47 3e 2d 8c df 3c f3 58 72 3b 62 85 73 bb
       0.195147 0.02728852 0.0036979287 -0.003715836
000220 22 33 b3 bc d5 57 93 3e 7e ad c8 bd 88 36 95 bc
       -0.021874968 0.28777948 -0.09798716 -0.01821448
000230 a1 06 37 3d 97 39 2d 3b 43 45 96 bd 8e b1 84 bc
       0.044684056 0.0026432031 -0.073374294 -0.016197946
000240 c6 13 9a 3c f6 95 a8 3d 63 a0 a7 3d fd fe 40 bd
       0.018808257 0.08231728 0.08184888 -0.047118176
000250 13 29 2d 3e 6c 0a 3c 3d 0c ad 6b bd f4 15 f1 3b
       0.169102 0.045908377 -0.057538077 0.0073573533
000260 78 e4 a6 3d 22 bf d2 bc 51 00 b2 3c e2 83 16 3b
       0.08149046 -0.025725905 0.021728666 0.0022966792
000270 53 60 3b bd b8 a8 5b bd 19 a3 05 3e 55 d2 2c 3c
       -0.04574616 -0.0536277 0.13050498 0.010548194
000280 49 27 dc bc f8 5b c1 3b e0 43 ef 3c f2 c0 0c 3f
       -0.026874201 0.005900856 0.02920717 0.5498191
000290 28 a3 ea 3b e5 b3 fb 3b 2c b8 4c 3c 3a b9 9b 3c
       0.007160563 0.007681357 0.012495082 0.019009221
0002a0 6e f8 08 3d 98 b9 08 bb 37 6a ce 38 ec f5 c9 bb
       0.033440046 -0.0020862576 9.8426295e-05 -0.0061633494
0002b0 4a 07 19 bc cc 6a 9e 3c 50 5c 57 3b a2 79 96 3b
       -0.009340117 0.019338034 0.003286142 0.0045921365
0002c0 f1 75 f7 3c 7b 08 10 bc 05 50 07 bc 68 6e a7 3a
       0.030207606 -0.008791084 -0.008258824 0.0012773992
0002d0 5f 6d ee 3a 54 a2 9c bc c7 5d c6 bc 0e ef 5a 3d
       0.0018190554 -0.019120373 -0.024214638 0.053450637
0002e0 e9 a4 1e 3d 28 b0 6b 3c 36 54 d0 bb b4 61 69 bd
       0.03873149 0.014385261 -0.006357695 -0.056977943
0002f0 40 08 d1 3d 1a 57 bf 3b ba 3f 88 bc 3c fd 13 ba
       0.10206652 0.0058392407 -0.01663195 -0.000564534
000300 9b 86 8f bb f0 51 69 bd ab 1d 4f 3b e4 3e 31 bb
       -0.00438006 -0.056962907 0.0031603377 -0.0027045542
000310 9b a6 d6 3b 04 11 11 3d 49 4b c1 3b 62 19 47 b9
       0.0065506226 0.035416618 0.0058988673 -0.00018987575
000320 79 6a 08 bd b4 02 e7 3b 2f d6 a7 bd 64 7a fb bd
       -0.033304665 0.007049883 -0.08195149 -0.122792035
000330 25 6a 82 bd a4 7a 04 3d 23 72 80 bc 8b d7 ad bd
       -0.06367902 0.03234352 -0.015679425 -0.08488377
000340 76 0e 89 3e dc 9e a5 3c 42 e6 24 3c 14 25 86 3c
       0.26768845 0.020217352 0.010064663 0.016375102
000350 ea 4c 8c bc 40 25 99 3e d8 04 20 bc ab 06 11 bc
       -0.01712652 0.29911232 -0.00976678 -0.008851687
000360 06 80 39 3c 2e 4e 67 3c b6 1e 23 3d 35 4c 15 3b
       0.011322027 0.014117761 0.03982421 0.0022781019
000370 d6 af 0c 3b e5 38 6d 3c d1 c0 24 bd 43 2c 21 3c
       0.002146711 0.014478897 -0.040222947 0.009837213
000380 f2 eb 8f b8 87 1b 5e 3c 0a 4f 49 ba 26 e0 14 bc
       -6.8627196e-05 0.013556368 -0.0007679319 -0.009086644
000390 96 1b 41 3e c5 ca 11 3d 2d b9 8c 3c 80 b4 25 3b
       0.1885818 0.035593767 0.017178142 0.0025284588
0003a0 87 ab 66 bb a3 1f a4 3c 90 8a 69 3d 92 71 11 3c
       -0.0035197453 0.020034617 0.05701691 0.008877175
0003b0 3b 64 1e 3c 25 d6 93 bd a2 6c 56 3d f4 fe aa bc
       0.0096674515 -0.07218579 0.052349694 -0.020873524
0003c0 e0 ad 09 bd 24 ca af 3c 7e 23 ba bc fa 8e 27 bd
       -0.033613086 0.021458693 -0.022722002 -0.040907837
0003d0 fa f4 0b bd fd 39 7a 3b 70 cc cf 3c 7d 44 6e bb
       -0.034169175 0.0038181536 0.025366038 -0.003635674
0003e0 20 aa 26 bc d2 e2 67 bb 73 7f 68 3b 8a a8 fd bb
       -0.010172397 -0.0035382998 0.0035476356 -0.0077410387
0003f0 09 75 49 3e 1b e9 fe 3c ff 98 16 3c 3b 22 cb 3c
       0.19673552 0.031117013 0.009191751 0.024796596

encoder_conv3.bias f4 [8]
000000 a4 53 12 3f e2 2a e6 3e 2e 99 68 3e 63 63 cd 3e
       0.57158875 0.44954592 0.22714683 0.4011489
000010 93 9c af 3e a4 1e e1 3e 10 cb c6 3e 5c 06 15 3f
       0.34299144 0.4396869 0.388268 0.5821283

deconv1.weight f4 [8, 16, 5]
000000 d7 f5 47 3b 21 7b 0b be ec 8b 91 bb 4c da 3e ba
       0.0030511522 -0.13621189 -0.004441729 -0.00072804536
000010 c4 ab 96 3a f5 cb 8c 3c 4a 13 01 3d a9 aa 5b 3c
       0.0011495282 0.017187098 0.031512536 0.013407388
000020 5e 64 9d 3d 29 32 02 bc 06 20 83 bc 5f dd 4b 3d
       0.07685159 -0.007946529 -0.01600648 0.049771663
000030 28 5a 8f 3d 02 74 b3 be c0 7c ae bc 96 ca 99 bc
       0.06999618 -0.35049444 -0.02129972 -0.018773358
000040 3b 35 11 bd f1 3c 36 3c 2e 47 20 3b ef 6f 01 3b
       -0.035451155 0.011122928 0.002445649 0.0019750556
000050 a6 2a 0d bc 2a 51 68 3e 20 ab 07 3d b0 18 ac 3c
       -0.008616125 0.22687212 0.033122182 0.021007866
000060 e2 21 98 3c ab 30 ba 3c 19 60 00 3e ba 31 46 bd
       0.018570844 0.022728285 0.12536658 -0.048387267
000070 dc 1d 29 3c 16 dc 00 bd 8f 14 9a bb 0f 7d 80 bb
       0.01032206 -0.03145989 -0.004702158 -0.003921158
000080 15 00 80 bc de a8 e7 3c 9c 78 d3 bc 99 bd 16 3b
       -0.01562504 0.028278764 -0.025814347 0.0023001193
000090 0d d2 c1 bd 51 12 e0 bc 4c d8 1b 3a 59 d5 84 bc
       -0.09463892 -0.027352484 0.00059450115 -0.016215013
0000a0 bb 4e 03 3c 88 e9 89 3d 6d af 3c 3a 12 cd 65 3c
       0.008014376 0.06733996 0.00071977713 0.014025943
0000b0 61 64 58 3c 74 9f f5 3c f5 49 18 3d a0 46 bf bc
       0.013207526 0.02998326 0.037179906 -0.023349106
0000c0 6b 67 94 3c 9c fe 4f 3c 93 36 ed 3b d1 0e ad be
       0.01811572 0.012694981 0.007239172 -0.33800367
0000d0 4f 1c 07 bc a1 ab e1 be c6 f5 2d bc 8e 02 ab bc
       -0.008246495 -0.44076255 -0.010617679 -0.020875242
0000e0 1a 1c dc bc 6e db 1e 3d 86 08 19 bc 17 9c 33 3b
       -0.026868869 0.038783483 -0.009340411 0.002740627
0000f0 c4 12 62 3b 15 b3 2a bd 21 51 aa 39 00 2e f2 bb
       0.0034496048 -0.041674692 0.00032485373 -0.0073907375
000100 a6 7b 03 3d 1d b6 a5 3b 66 e7 0f be fe 54 d2 bb
       0.032100342 0.00505711 -0.14053115 -0.0064188233
000110 16 a4 5e bc df ee 20 bb 98 23 b1 3b 10 44 cc bd
       -0.013588926 -0.002455644 0.0054058544 -0.099739194
000120 8a 61 5b bc 1b 73 0f 3c 5f b7 d7 3b dc 60 38 3c
       -0.013389954 0.008755471 0.006583139 0.011253562
000130 01 14 61 bd fd af ce bc ed 82 1a b9 47 85 76 bb
       -0.054950718 -0.025230402 -0.00014735358 -0.003761606
000140 c3 53 a6 3b c4 70 33 3b 82 c6 32 bc 03 4e 20 bb
       0.005075903 0.0027380446 -0.010911586 -0.002446056
000150 b4 c4 1c 3c e4 d6 92 bc 98 b3 13 bd ab e4 d1 3d
       0.009568382 -0.017924733 -0.036059946 0.10248693
000160 a4 eb c0 be 66 44 b5 bb 55 8d 29 bd 1a a5 ec bb
       -0.3767978 -0.0055318354 -0.04139455 -0.00722183
000170 ed e5 8b 3d 80 9c 06 3d 95 95 e2 bc f8 79 18 bd
       0.06830964 0.032864094 -0.027659217 -0.037225693
000180 1d 35 d0 bb d7 57 13 3e e4 06 82 3a 15 e8 7d ba
       -0.006353988 0.14388977 0.0009920266 -0.0009685767
000190 50 92 ef bc 82 57 19 ba 82 0f 1d bd 68 32 1e 3d
       -0.029244572 -0.00058495265 -0.038344868 0.03862229
0001a0 7a 87 7b 3c 07 84 1e 3d 34 f8 02 bc 84 05 e6 bd
       0.015352124 0.03870013 -0.007993747 -0.11231521
0001b0 ab f0 8b bb 51 a2 01 bd ac 73 16 bc 58 70 22 3a
       -0.004270633 -0.031648938 -0.009182852 0.000619655
0001c0 78 f5 7e bd 5c 98 44 ba 6a 92 17 bd 8a 2e 86 3c
       -0.062245816 -0.000749951 -0.037004866 0.016379613
0001d0 bb c9 1f bd 86 0a 63 bd a6 d8 bc bd 83 3a a9 3c
       -0.039010745 -0.055429958 -0.0922101 0.020657783
0001e0 8c 96 c1 3c df c0 f6 bb 44 9f 97 3e 1f 90 a6 3c
       0.023631357 -0.0075303162 0.29613698 0.020332394
0001f0 07 7b 29 3b 32 93 e4 3c cb 80 0b bd 40 c2 32 3d
       0.0025860684 0.02790222 -0.034058373 0.043642282
000200 e0 8c 37 3b 9a 0d 86 bb bc bc 3f 3c 86 a2 de be
       0.0028007552 -0.004090977 0.011702713 -0.4348337
000210 de 50 63 3c ab d6 e3 be 6d c1 19 bc 0b 3e 28 bd
       0.013874261 -0.44499716 -0.009384495 -0.041074794
000220 79 7f 0b 3a c7 be c0 3d 70 9f 9f bd b7 81 d9 ba
       0.0005321424 0.09411388 -0.07794082 -0.0016594444
000230 07 ae 3c 3d 1f 94 56 3c ba da e4 bd 73 b4 21 b9
       0.046064403 0.013096838 -0.11174531 -0.00015421379
000240 21 f4 dd 3c 3a 42 fd 3b f0 c7 ea 3c ae 7a 8b bc
       0.027093949 0.007728842 0.02865979 -0.017026272
000250 0f 17 69 3b d3 81 28 bb 60 0d b1 3c 06 10 b0 3c
       0.0035566723 -0.0025712147 0.021612823 0.021492016
000260 f2 6c 1a be 30 ae a2 3d a9 fa ec 3a 65 f9 12 3d
       -0.15080622 0.0794338 0.0018080074 0.035882372
000270 63 01 c9 bc 3e 1c 01 be df e9 c0 3b fc 05 fc ba
       -0.024536794 -0.1260843 0.0058872546 -0.0019227858
000280 98 12 45 bb d9 ba 8f 3c 9c d3 f4 3c 4a 2d 0d bb
       -0.0030070897 0.01754515 0.02988606 -0.0021541887
000290 3e 66 42 3c 3a e3 d8 ba ea 2b e3 3b a5 35 73 3b
       0.011865197 -0.0016547211 0.006932725 0.0037110832
0002a0 d2 09 ad 3c 91 18 6d bc 6a 35 cf bc af fc b1 bb
       0.021122847 -0.014471189 -0.025294024 -0.0054317336
0002b0 47 fb 5f 3d 86 40 97 3d 25 5d 87 bd 80 92 91 bc
       0.054682996 0.07385354 -0.06609563 -0.017770052
0002c0 d0 95 76 bb 97 18 9b bb ee 43 d7 3d ea ad 4c 3b
       -0.0037625916 -0.004733156 0.105110034 0.003123159
0002d0 00 67 fb 3c 31 9c 4f bc b2 87 bb bc c7 e8 d8 bd
       0.030688763 -0.012671516 -0.022891853 -0.10591274
0002e0 79 41 63 3d 57 10 41 bd 46 2d ce bb 45 93 a3 3d
       0.05548236 -0.047134724 -0.006292018 0.07987074
0002f0 9d 40 8d bd 44 88 ca bd bb 66 54 bd e1 87 25 bb
       -0.0689709 -0.09889272 -0.051855784 -0.0025257992
000300 68 56 a1 3d fc d1 94 3c 7a 9c be bd 94 6a ec 3c
       0.07877809 0.018166535 -0.09307189 0.028859414
000310 2e ee a9 bc 62 7b 94 bc a5 37 c2 3c 24 af 4e 3d
       -0.020743456 -0.01812524 0.023708174 0.050459996
000320 8b 55 c0 3c a2 17 30 bb 0f 97 0e bd 02 d5 04 3f
       0.02347829 -0.0026869555 -0.03481203 0.51887524
000330 3a 43 ed 3c 04 f8 7f 3b b8 56 07 bb 3d 8d 63 bd
       0.02896272 0.003905774 -0.0020651054 -0.055554617
000340 5b c7 f9 3d 19 06 94 3b 91 57 0c bc c0 62 dd be
       0.12196227 0.0045173285 -0.008565799 -0.43239403
000350 7a 55 17 3c 30 20 ac be 6d fb bb bc ba 0b ad 3b
       0.009236688 -0.33618307 -0.022947038 0.005280939
000360 ad 66 fc 3b 60 be 96 3b 70 3b 63 bc 9e 3f 78 3c
       0.0077026696 0.004600331 -0.0138691515 0.015151886
000370 ce 47 a4 3d 00 da c5 3b d1 10 1b bd 9e eb 7e bd
       0.08021508 0.0060379505 -0.037857834 -0.06223642
000380 1d b3 94 3d e2 3a 72 ba 75 a8 27 3c a4 01 3a bb
       0.07260726 -0.00092403416 0.010233034 -0.0028382326
000390 15 a4 17 3e a2 33 16 bb 32 de 7c 3c 6a 4d 17 3c
       0.14808686 -0.002291896 0.015433835 0.009234766
0003a0 6e 3e 89 bc bc 3d 96 3d 6d 18 84 bb 3f 3f d5 3c
       -0.016753402 0.07335994 -0.004031232 0.026031135
0003b0 e1 fd 96 bb e2 7b 1a bd a9 0c aa bb 79 f6 9b 3b
       -0.0046079014 -0.0377158 -0.0051894975 0.0047596064
0003c0 06 f2 af bb 83 a6 3e 3c b4 4c 64 be 9d 04 27 bb
       -0.0053694276 0.011636379 -0.22294885 -0.0025484927
0003d0 27 b6 db 3b 16 ef c3 3a 61 8c 04 bc cd 61 4d bc
       0.006705064 0.0014948572 -0.00809011 -0.012535525
0003e0 35 5a 5a 3c f9 9c 71 bc 0b 37 1d bd 60 22 41 bc
       0.013327171 -0.014746898 -0.03838257 -0.011787981
0003f0 64 65 54 3d 7f 2d 1f 3d 1d 5b a3 bd 9e 6b 78 bc
       0.051854506 0.038861748 -0.07976363 -0.015162377

deconv1.bias f4 [16]
000000 47 55 17 3e 73 14 42 be f2 50 c7 bd cb 59 cf 3d
       0.14778624 -0.18953113 -0.09732236 0.101245485
000010 94 c9 c4 3d 19 df dd 3d 7f 7e 4e bd 04 03 9b 3d
       0.096087605 0.10833568 -0.050413605 0.075689346
000020 73 1b 63 bd 32 c2 15 3d d5 89 ab 3e 2c 2e 97 bd
       -0.0554461 0.036562152 0.33503595 -0.073818535
000030 03 7c 12 3e da 44 4f 3e aa 56 ef 3d 06 f8 fe 3d
       0.14305119 0.20241109 0.11686452 0.124496505

deconv2.weight f4 [16, 32, 5]
000000 67 9b 7a 3d 81 c1 43 bd 2f 2e e8 3c a5 90 ec 3d
       0.06118336 -0.04779196 0.028342335 0.11551026
000010 b1 39 79 bd 7a f8 1a bc d4 de 68 3d 85 cf 9c 3d
       -0.060846034 -0.0094586555 0.05685313 0.07656769
000020 b5 fb f3 bc 0d 7a 17 3d 30 89 96 bd e1 92 9c bd
       -0.02978311 0.03698163 -0.07350385 -0.076452024
000030 aa f9 e4 bc 9a f4 84 3d c8 21 29 be ff 0c a1 bc
       -0.02795108 0.064919665 -0.16516793 -0.019659517
000040 26 ab eb bd ab e1 77 bc 43 8b 75 be 80 5b 32 3e
       -0.11507253 -0.015129487 -0.23978905 0.17417717
000050 af f7 c5 3b 76 ae 24 be f1 6e 66 bd 89 16 40 3e
       0.006041489 -0.16082177 -0.056258146 0.18758596
000060 8d ae 7a bd 96 c6 ff bd f6 05 86 be a8 98 3d be
       -0.06120162 -0.12489049 -0.26176423 -0.18515265
000070 8f 24 0d be 23 71 17 3e 73 62 db bb 72 8d 1c 3d
       -0.13783477 0.14789252 -0.0066950857 0.03822083
000080 f1 41 ce 3d 63 59 28 3e 87 ac 9f 3a 0e 55 d5 bc
       0.10071171 0.16440348 0.0012182154 -0.026041534
000090 71 83 01 3c d5 7b a7 3e ca c1 25 3d 48 5a 42 3e
       0.007904873 0.32711664 0.040468015 0.18979752
0000a0 3a 93 81 3d ea 68 b0 bc 20 26 c8 bd d8 06 b4 bb
       0.06326909 -0.021534402 -0.09772897 -0.00549398
0000b0 3b c8 0f 3e b4 b2 18 3d bc 6f 8d 3c c7 71 c7 bd
       0.14041226 0.0372798 0.017265193 -0.09738498
0000c0 42 8a 6a be 46 70 03 3e dd ff a2 bc cd ad aa 3d
       -0.22904304 0.12835798 -0.019897396 0.08333931
0000d0 0d 09 3e 3d b5 1a ba 3d c4 cb 15 3e 85 95 94 bd
       0.04639535 0.09087125 0.14628512 -0.07255081
0000e0 bd 00 d7 bc 9f fb ad 3b 56 b0 af 3c c5 a7 96 3c
       -0.02624547 0.0053095366 0.021446388 0.018390546
0000f0 be 34 e6 3d 3c ae 33 3d ad 98 42 3e 4f 07 21 bd
       0.112405285 0.043867335 0.19003554 -0.03931361
000100 7c b8 ff 3c db 2a 1e 3e 7c 18 88 3d 11 51 27 3e
       0.031215899 0.15446036 0.06645295 0.16339518
000110 49 e3 6d 3e 8d 9f 71 bd e2 5d d2 3c 45 80 16 bd
       0.23231234 -0.05899005 0.025679532 -0.03674342
000120 28 1a f4 3d 87 1e 09 3d 61 36 d3 3d 72 e9 d6 bc
       0.119190514 0.03347638 0.10313106 -0.026234362
000130 ea 21 02 bc f2 4f 47 bd 4a 61 76 3d dd fa a9 bd
       -0.007942656 -0.048660226 0.060151376 -0.082998015
000140 4a 3c 12 bc 23 2d 0f bc 95 f5 95 bd 8e 04 37 bb
       -0.008925507 -0.008738789 -0.07322232 -0.0027926299
000150 5d cd 22 bd 01 5b 47 3d 74 c3 a1 3d 17 7a a2 3d
       -0.03974663 0.048670772 0.07898608 0.07933443
000160 26 e3 e8 bc 21 c4 1a 3c d5 d3 7e bd d4 2c ce 3d
       -0.028428625 0.009446175 -0.062213738 0.10067144
000170 13 99 89 3d 68 e1 d6 3d a7 eb b6 bc 4a 0f 64 3d
       0.0671865 0.104922116 -0.022329165 0.055678643
000180 cd 0d 70 b9 df 22 6c 3e 2a 1a 0a 3d 25 fc c8 bd
       -0.00022893325 0.23060177 0.03371636 -0.09813718
000190 eb 85 66 3c 7f 84 0a 3d c4 51 e2 bc e2 7d d3 bc
       0.0140700145 0.033817764 -0.02762688 -0.025816862
0001a0 25 fd 4b bd f7 c4 1f be 56 6d bd be c8 c6 9d 3c
       -0.049801964 -0.1560248 -0.3699748 0.019259825
0001b0 9f c7 20 3d 77 4e ac bd 3c 26 29 bd 9a 62 94 bc
       0.039252874 -0.084134035 -0.04129623 -0.018113423
0001c0 ca d1 9a bd 91 6b a4 3e 2f 27 d6 3c 7c e3 9f bd
       -0.07559545 0.32113317 0.026141731 -0.07807061
0001d0 a6 60 50 be 5b 0d af bb 82 c2 16 be f4 a9 ec 3c
       -0.20349368 -0.0053421683 -0.14722636 0.028889634
0001e0 30 ea 53 bc 71 de d3 bd 49 5d cd 3c d8 db 46 bd
       -0.012934253 -0.10345162 0.025068896 -0.048549503
0001f0 af b9 c3 3d 6d 27 68 be 5f 38 6c 3c 2b e7 35 be
       0.09556901 -0.2267129 0.014417737 -0.17763965
000200 b7 cf 61 3e 9c b6 90 3e bd 38 b4 3d 70 31 17 bd
       0.22051893 0.2826432 0.087998845 -0.03691238
000210 e2 c1 78 bc 80 4d 46 3c 40 95 60 3d 01 09 f7 bc
       -0.015182944 0.012103438 0.054829836 -0.03015566
000220 8e c6 c6 3c db b6 9f 3e 49 51 2d 3e 0a ea 2f 3e
       0.0242646 0.31194195 0.16925539 0.17179123
000230 04 c1 27 bf 9b 66 88 bd f2 bb 1c 3b 9c 22 a3 3c
       -0.65528893 -0.066601954 0.0023915735 0.019913964
000240 0e ed 33 be ee 4f 27 3d 68 64 c2 bc 28 ec 52 3d
       -0.17570898 0.04084771 -0.023729518 0.051494747
000250 7c fd 91 bd bf 1f 7d bc e9 7a 23 3e 03 ac ca 3c
       -0.071284264 -0.015449463 0.15964855 0.024740225
000260 52 6c 6b 3e 05 79 b9 3c 73 61 bd bd c7 05 e9 3c
       0.2299054 0.022640714 -0.092471026 0.028445138
000270 e5 a6 05 be 75 b9 e4 bd c3 a9 e7 3d 7e 27 8f 3d
       -0.13051946 -0.111681856 0.11311676 0.069899544
000280 22 c2 ac 3d 77 45 b3 3c b4 97 2d bd 40 7f 69 be
       0.084354654 0.02188371 -0.042381003 -0.22802448
000290 e9 98 0d bd ca 14 da bd a3 91 ce ba 5a 85 ae bd
       -0.034569655 -0.106484964 -0.0015759956 -0.085215285
0002a0 e6 18 9d be 7b ac 69 3d 9d f9 93 bd 10 bb 9a 3d
       -0.30683059 0.057049256 -0.07225344 0.075552106
0002b0 81 c6 f3 3d ad e2 8e bd 81 81 4e bd 7a 5a 0c 3d
       0.11903096 -0.06976829 -0.050416473 0.034265973
0002c0 55 68 99 3d 34 e5 dd bc e3 14 99 3e 4e 8e e5 bc
       0.07490603 -0.027086832 0.29898748 -0.028021958
0002d0 2a 54 31 3d af dd 55 bd 5f 4a 96 bd 0a 52 26 3f
       0.043293156 -0.052213367 -0.07338404 0.6496893
0002e0 38 93 5d 3c da ed ac bd bd 0c 2e 3e 84 93 f1 3d
       0.013523869 -0.08443804 0.16997047 0.117957145
0002f0 b3 80 da bc 7d 42 83 3d 05 f3 fd 3c 77 77 75 bd
       -0.026672697 0.06409166 0.03099967 -0.059928384
000300 37 a2 02 3e b9 9d 09 3d 9b 3c 11 3d 19 b8 00 3e
       0.12757193 0.03359768 0.03545819 0.12570228
000310 2d 31 d7 bd 0e 81 57 3d 36 94 a3 bd 4c 88 0b 3e
       -0.105074264 0.05261331 -0.07987253 0.13626212
000320 dd fd db 3b 96 e4 95 3b 56 01 2b 3d 34 37 73 3e
       0.0067136125 0.0045743687 0.04174932 0.23751527
000330 c0 3b 65 3c 7f 50 92 bc ce cc ba bc 9c 79 42 3e
       0.013991296 -0.01786065 -0.022802737 0.18991703
000340 07 ff 04 be e9 25 55 bc 6e 6a 98 3d 1d 12 83 bc
       -0.1298791 -0.013009527 0.07442175 -0.015999848
000350 e4 64 75 3e 15 06 5a 3d f5 c7 2e 3b 1e 4f 2f bd
       0.23964268 0.053228457 0.0026669477 -0.04280006
000360 57 0e e7 3c 6d 7e 10 3e 68 0d 01 3f e1 33 07 3e
       0.02820508 0.14110728 0.5041108 0.13203384
000370 5a f8 64 3e 44 f6 8d ba 71 2d b3 3c 37 0a 62 bc
       0.22360364 -0.0010830839 0.021872254 -0.013796381
000380 91 a3 50 3e 31 e4 45 3c 41 e0 9f bd 1f 1f 29 3e
       0.20374896 0.012078331 -0.07806445 0.16515778
000390 95 88 e4 be 85 41 65 3b f8 ed e9 3d ba 83 94 bc
       -0.44635454 0.003498168 0.11422342 -0.018129218
0003a0 ff 65 51 3e 22 5e 0b 3d 59 ce 81 bd 8c 72 31 bd
       0.20449065 0.03402532 -0.06338186 -0.04332213
0003b0 c1 8c c0 bd bf b6 4d bc 16 b5 1a be 8a 93 05 bd
       -0.09401847 -0.012555777 -0.15108141 -0.032611407
0003c0 b5 3e 1a 3c 94 cb 10 3d 2c 49 e5 bc be 69 96 be
       0.009414365 0.035350397 -0.027988993 -0.2937755
0003d0 b3 d7 77 3d e4 65 60 bb 9a 43 4d bd 77 60 83 3e
       0.06050844 -0.003424042 -0.050113298 0.25659534
0003e0 04 da e8 be 4c a6 9b 3c 0a f9 d9 3c 55 46 9e bc
       -0.45478833 0.019000195 0.026608009 -0.019320646
0003f0 e9 cd 6f be d3 8c 23 3f 90 0d 91 bd 51 02 37 be
       -0.23418392 0.63886756 -0.07082665 -0.17871977

deconv2.bias f4 [32]
000000 6c 82 fb 3d 39 f8 06 3e 3a f5 d5 bc fb 04 2f bc
       0.122807354 0.13180627 -0.02611791 -0.01068234
000010 67 1f 16 3e 99 08 0b bd 54 9b 91 bc 07 4e 04 bd
       0.14660417 -0.033943746 -0.017774262 -0.032300975
000020 32 31 46 3e f8 56 d1 3d 30 b9 40 bc c0 d0 ec 3d
       0.19354704 0.10221666 -0.011762902 0.115632534
000030 9c d6 a7 bc 92 81 54 bd a8 55 16 bd 45 30 eb bc
       -0.020488076 -0.05188138 -0.036702782 -0.02870954
000040 c3 3e 91 bd 50 c9 a0 3d 74 f6 24 3e 14 4b 52 bc
       -0.07092049 0.07850897 0.1610964 -0.012835283
000050 3e d1 37 3e 45 8d af 3c 84 9a 0d bd 53 ed 16 3e
       0.17950913 0.021429667 -0.034571186 0.1473897
000060 e8 d1 e6 3d 41 75 09 bd 08 65 39 bd ed 68 ef bc
       0.11270505 -0.033559088 -0.045262367 -0.029224837
000070 c2 d3 32 bc f9 9f 2f 3d 98 b6 ea bd 9d e9 6c 3c
       -0.010914745 0.04287717 -0.11460608 0.014459995

deconv3.weight f4 [32, 1, 5]
000000 3e 02 55 bd d7 73 c6 3e 6b a1 60 3e 51 77 85 bc
       -0.05200409 0.38760254 0.21936576 -0.016292246
000010 04 f7 e3 bc 1a 12 b1 be 7b 84 e1 3e 24 64 da 3e
       -0.027827747 -0.34584123 0.44046387 0.42654526
000020 69 af 7f be de 01 ca 3e cb f6 9d 3e 9a 4d 26 3e
       -0.24969257 0.3945455 0.3085235 0.1624054
000030 db c1 0e bf b9 08 08 3c 96 06 c6 bd 3b ba 12 3f
       -0.5576455 0.008302861 -0.09669225 0.57315415
000040 02 ef 90 be 06 74 70 be ae 21 d7 3c 4e 80 31 3e
       -0.28307348 -0.2348176 0.026261177 0.173341
000050 27 ab 4e 3e 50 25 c7 3e a5 ee b8 bc f9 9d f8 3e
       0.20182477 0.38895655 -0.022574732 0.48558024
000060 03 9f a7 3d 18 cc d2 bb 40 87 0e bf 86 7a ed be
       0.08184626 -0.0064330213 -0.55675125 -0.4638254
000070 76 d9 e2 bc 42 29 cf be 2b 7e da bd 19 35 58 3e
       -0.027691584 -0.40461165 -0.10668596 0.21114005
000080 7c d3 1e 3f 7e fc 06 3f 87 48 ec bd f0 56 4f be
       0.6204145 0.5272902 -0.11537271 -0.20248008
000090 29 e2 90 be fc 1d 6a 3f 81 c4 63 be 26 ae 23 3e
       -0.28297547 0.91452 -0.22242929 0.15984401
0000a0 ad d8 5c 3e a8 f6 e0 ba de ed 83 3e eb 21 6e 3e
       0.2156703 -0.0017163353 0.25767416 0.23255126
0000b0 1b d6 79 3e a0 28 a8 be 81 b4 45 3f 58 f8 e8 3d
       0.24398081 -0.32843494 0.7722855 0.11375493
0000c0 76 be a2 3e f6 11 56 3e c5 3f ad be 1b d4 14 3e
       0.31785935 0.20905289 -0.33837715 0.14534037
0000d0 3e f0 63 bc a4 6f cf bd be ce ca be e6 be 3b 3e
       -0.013912259 -0.10128716 -0.39610857 0.1833454
0000e0 af 38 76 be 71 09 dd 3e 69 81 e7 3e 6c 85 43 bd
       -0.2404506 0.43171266 0.4521592 -0.047734663
0000f0 df f3 50 3f 95 04 20 be 64 8e ee bc 2f 14 96 3e
       0.8162212 -0.15626748 -0.029120632 0.29312274
000100 a7 40 14 be d8 e1 a7 3d 82 1b 13 3f 59 3d 2b 3f
       -0.14477788 0.08197373 0.5746385 0.66890484
000110 a2 d7 7c be c1 8e ac bc 0b 63 c8 3d b0 9d b0 be
       -0.24691632 -0.021064164 0.09784516 -0.34495306
000120 0c aa a9 be f2 d1 c3 3d f8 bc cc be 36 78 d1 be
       -0.33137548 0.09561528 -0.39987922 -0.40912026
000130 e5 50 a8 be 5d 45 04 be 92 09 9f be 5b 57 3f 3c
       -0.32874218 -0.12917085 -0.3106199 0.011678542
000140 2f 89 ed 3e f9 0f 81 3d 56 c0 ab be 9d d9 a7 be
       0.46393725 0.06301875 -0.33545178 -0.32783213
000150 15 df 22 be 5e 09 9a 3e 87 47 bb 3d f0 e9 4e 3e
       -0.15905412 0.30085272 0.09144502 0.20206428
000160 b4 31 ae bd 2a 38 98 bd 36 8f e0 3c 03 90 d4 3e
       -0.08505574 -0.074325874 0.027412038 0.41516122
000170 73 44 a8 bd 70 61 a1 3e e1 44 04 3e af ed 7d 3c
       -0.08216181 0.3151965 0.129169 0.015498563
000180 f2 1c 30 3f 3b ff bd bd 85 d0 37 3e 96 f3 83 3e
       0.6879417 -0.09277197 0.17950638 0.2577178
000190 56 96 9e 3e b8 66 46 3e f5 15 06 3e 0a 56 70 3e
       0.30974072 0.19375122 0.13094313 0.23470321
0001a0 ca 7a 9b bd ef bf 3b 3f 24 dc fb be da ae 34 be
       -0.075917795 0.7333974 -0.4919139 -0.17644826
0001b0 7c 86 04 be 57 8b 02 bd fb 70 42 3e ff f6 53 3e
       -0.12941927 -0.031871166 0.18988411 0.2069969
0001c0 77 ed d2 bc 86 88 a3 bd 93 af ce be 5c 4b 9b be
       -0.025747998 -0.07985024 -0.40368327 -0.30330932
0001d0 09 ce d0 be 67 6f 44 be 03 5b fd bd 14 64 8a 3e
       -0.40782192 -0.19183122 -0.12370875 0.2702948
0001e0 7d 31 64 3e 97 99 fd bb 05 b6 ae 3e 38 56 71 3c
       0.22284503 -0.0077392566 0.34123245 0.014730029
0001f0 e4 d0 95 3e 5f e3 62 be 83 d1 bb be e4 10 c6 be
       0.29260933 -0.22157048 -0.36683282 -0.38684762
000200 4a 7a 8e be 30 fa ef bc d4 bc 42 bf 49 eb 03 3f
       -0.27827674 -0.029294103 -0.7606938 0.5153089
000210 08 46 f0 be 8c 57 a7 bd 95 a0 2f be 03 72 19 3f
       -0.4692843 -0.08170995 -0.17151101 0.59939593
000220 fa 4a b9 3e c5 19 a7 bd 30 70 66 3b cd 04 d7 bd
       0.36190015 -0.08159212 0.0035162084 -0.104989626
000230 72 fc e0 bd b7 0f 90 be 6d 03 28 3e da 13 82 3f
       -0.1098565 -0.2813699 0.16407557 1.0162308
000240 28 8c 87 3d e9 a2 eb bd 77 a0 9c be 84 c6 8f 3d
       0.066185296 -0.11505682 -0.30591175 0.07020286
000250 a2 05 cb 3e bf 4a 83 be 61 26 a0 3b e4 61 7f 3e
       0.39652735 -0.25642964 0.0048873876 0.24939686
000260 2b 3c 7a be e1 91 28 bf fa c3 16 bf 6f 7e c0 be
       -0.24437015 -0.65847594 -0.58892787 -0.3759646
000270 63 99 57 be ba 1a 9c 3e 9e 63 e9 be 1a af 06 3e
       -0.21054606 0.3048914 -0.45583814 0.13152733
