models/multi_resolutionv2/SNN_Autoencoder_tsri_320s_320g.pth (torch, 25565 bytes, 11 tensors)

encoder_conv1.weight f4 [24, 1, 5]
00000000: 0b49 ef3c 5b5a 183f dc8a f33e 0c15 133f
00000010: 7e59 013c 48e3 d13e 5a96 dbbd 9869 c7be
00000020: a9cc 33be 029b e7bd bfff 293e 8351 033e
00000030: c8a8 e83e 3b6f 943e bf9b 583e 7266 063f
00000040: 72e5 053f a072 dcbc 3a9f 7c3b fefd d73a
00000050: 685c 6e3a b4aa a93c f392 0e3e d5d4 d33d
00000060: c311 b53d aba7 333d 729a db3d 29db 7a3f
00000070: 51b5 d63c 8917 b83c d7b5 4f3f ba00 d73e
00000080: 3b78 9f3e a69e e1be 3337 58bc 55b1 c7be
00000090: 9a5a ff3c a6b4 88be a25c 85be bcd7 77be
000000a0: f4c8 ea3c f418 3a3e bed6 04be 8cca a23d
000000b0: ca60 6ebe df30 e43c 150f bcbe 7bf4 88bc
000000c0: b1ee 92b9 b902 483f 67db b6bc 2cc0 3d3f
000000d0: 54a7 0dbe 14ce 173e 1525 b1be c5ff eb3c
000000e0: 25b1 bd3a b7d5 7c3e b472 3b3e dc22 503e
000000f0: 8251 b0bc f942 18bd 0241 893c d6a3 1abc
00000100: 8c83 1cb7 a330 2a3e 1397 aebe 280a bebe
00000110: 8514 e83e 024c 283f 32da 5b3e a387 513d
00000120: a30f c73e df6c 1d3f 3c0a 863e 8b66 d6bb
00000130: 6e12 ebbc bfde c13d cf8b 413f 8277 503f
00000140: dfd6 b2b9 0100 293a 834f ff3e af53 0b3f
00000150: 362d 4a3b 9587 81bb 61ba 563f 9db5 1d3e
00000160: 2965 073e 5265 26bd 7df4 c23e bffa 393f
00000170: dc7c 923e 1a8f 973e e088 bcbd 5abd 0cbd
00000180: 5106 5e3e 31b4 323c 655f 243e 44b0 14be
00000190: 0977 bbbe af3d fd3d 4e54 e8bc 01a5 7e3e
000001a0: 25d0 3d3f b174 fcbd b90f 493e 38f6 093d
000001b0: eed9 ff3e 8e47 bf3e b981 6abc d6dd 583d
000001c0: bb48 ea3e 5fdb 0c3f 210e 40bc c437 21bf
000001d0: 0835 493f cac3 d33d ff3f 903b aa59 8f3e
0.029209634 0.5951287 0.4756688 0.5745399 0.007894872 0.40993714 -0.10722037 -0.3894775
-0.1755854 -0.11308862 0.16601466 0.12824063 0.4544127 0.28991112 0.21153162 0.5250007
0.5230323 -0.026910126 0.0038547055 0.0016478894 0.0009092749 0.02071128 0.13923244 0.10343329
0.088412784 0.043861073 0.107228175 0.9799066 0.026209505 0.02247216 0.8113684 0.41992742
0.31146416 -0.44066352 -0.013196754 -0.3900248 0.031171132 -0.26700324 -0.26047236 -0.2420339
0.028660275 0.18173581 -0.12972543 0.07948789 -0.2327911 0.027855335 -0.36730257 -0.01671814
-0.0002802513 0.78129154 -0.022321416 0.74121356 -0.13833362 0.14824706 -0.34598604 0.028808484
0.0014472349 0.246909 0.18305475 0.20325798 -0.021523241 -0.037173245 0.016754631 -0.009438476
-9.328953e-06 0.16620116 -0.34099635 -0.37117124 0.45328155 0.6574098 0.21469954 0.051154744
0.38879117 0.6149425 0.26179683 -0.006542986 -0.028695311 0.094663136 0.75603956 0.81432354
-0.00034110897 0.0006446839 0.4986535 0.54424566 0.0030849702 -0.00395293 0.8387814 0.15401311
0.13222183 -0.04062397 0.38077155 0.72648233 0.28610885 0.29601365 -0.09205794 -0.034360267
0.21682097 0.010907219 0.16052015 -0.14520365 -0.36614254 0.12365281 -0.028360512 0.24867631
0.7414573 -0.123269446 0.19634904 0.033682078 0.49970955 0.3735928 -0.014313155 0.052945934
0.45758614 0.55022234 -0.011722119 -0.62975717 0.78596544 0.10340078 0.00440216 0.27998096

encoder_conv1.bias f4 [24]
00000000: 214c a5bc 9fca afbe c380 82be a793 2c3d
00000010: bb8a 4b3f 3756 823d 054a 863d 830c ccbd
00000020: 298e b8be 7eb9 a73e d620 f83e caf1 2a3f
00000030: dfc4 803f 5aab ee3c 7647 3d3f 2f1d 18bf
00000040: e335 2a3d b9b8 9c3d eee9 c7be c14d dabe
00000050: b27b d53e 164e 743d be7e 87bd 2cd8 0a3d
-0.020177903 -0.34334275 -0.25488862 0.042133 0.7950856 0.063641004 0.06557087 -0.09963324
-0.3604596 0.32758707 0.48462552 0.6677519 1.006008 0.029134441 0.73937166 -0.5941953
0.041555297 0.076524206 -0.39045662 -0.42637447 0.41695935 0.05964478 -0.06615971 0.033897564

encoder_conv2.weight f4 [12, 24, 5]
00000000: 815c 37bd 026e 953e 2bfb 793d 4491 543b
00000010: 1963 173d 5556 783d 95b6 49bd 2998 b1bc
00000020: 1f81 46bd 9ec8 4b3d 9ac4 a5bd c0ce 363e
00000030: 5c73 b4bd f621 eebc 1215 05be 8451 89bc
00000040: 6d00 423e afd6 c1b9 3f6c e13c eeab bbbb
00000050: d48a 62bb 921a c0bd f4b4 173d acda ae3c
00000060: aad9 1a3c 34d1 d5bc 8170 d33e fd68 b03d
00000070: 9bd2 89bc e59c c0bb 4fa8 3fbc ab05 843d
00000080: 9c40 22bd b5aa 063c dca2 bc39 f0d8 75bd
00000090: 108b 7f3d 3cc8 8abc 8cd4 8e3c d01f b9bb
000000a0: 802e 7e3c 45ca 84bd d053 90bc 700c 813b
000000b0: 248b 86bd 064a f63c 7791 94bd a439 33bc
000000c0: 15f7 a53b 8ba7 28bb 8db3 3b3c 086c 7c3e
000000d0: 33b2 43bc c22f eaba cf64 863b b440 413a
000000e0: 2627 bb37 5e6a e13c 5421 823c 05de be3c
000000f0: 676e 5ebe 6dfc b7be cef9 2abe ee2d 1abe
00000100: f4b3 2ebe 24a3 dfbc e232 343d b377 0c3d
00000110: 0f23 013c 081e a9bc 7371 753c 43eb 7d3d
00000120: 38e8 183d 3b15 153d fd76 dc3c d2f7 82bd
00000130: 5b4d debd 4162 f6bc e70f 39bd 6333 083d
00000140: 4c72 f93c 34ce e03d 99b5 8cbc 2fb4 e2bb
00000150: 52dc 923c 92ba c73b 28b5 8d3e 6fdb e43c
00000160: dde4 f1bc 228b 62bc 17cf aabd d4b8 f53d
00000170: 84ba a1bd 94e7 7c3d f075 eebd 52b6 a23d
00000180: a453 6a3d 548d 403d 9e3d 73bd 27c9 abbd
00000190: 8ee9 863d e8fc 903d aa2c dd3c e6e7 40bb
000001a0: 87a5 ec3c 9c40 af3c e022 7f3b d939 43bc
000001b0: 6e6d 9ebc 54c5 6abc 2602 4cba c23b bd3e
000001c0: 8d24 5bbd e432 efbc d687 75bd 901e 8abb
000001d0: 94ef 4d3e b9e4 563c 9319 9c3a aa4a 18bb
000001e0: 4c06 1b3d e68d a53e f480 bbbd 7165 97bd
000001f0: a0a1 413c afdc 0cbc a35b 2ebc 20aa 0f3c
00000200: aa3e 8c3b 5eb9 3abd a469 98bd 6624 073e
00000210: aa5f 56bd 5d5d 7bbd c302 23bd 2211 1e3c
00000220: a3e1 92bd aa96 c8bc 4702 1b3d a023 a33c
00000230: b87f 47bc 6732 97bd 9a59 b0bb 6a61 bc3b
00000240: 1d0c c13c a11b 6dbc 71ec e23e a6c4 79bd
00000250: fe2e 0a3d bcde 0b3d ad30 85bd 6926 473e
00000260: 328e 19bd a61d e33a 7098 38bc 802c 803d
00000270: 085c 963d aca0 67bd 10a2 44bd f29c b6bd
00000280: 2064 a0bb 6056 8abb b0a2 423c 24bc b6bc
00000290: 8c03 8f3d 2eeb 1abc f5e6 e3bd 915e 473d
000002a0: 5116 95bc 6edf 2fbc d32c b6bc dbc7 2e3e
000002b0: 8080 643c d608 3e3d e25d 02bd 6037 e2bc
000002c0: d987 eb3c 8066 4cbd 4550 51bc 0189 1d3d
000002d0: f1ae 15be a156 74be 55cb 63bd b1b6 93be
000002e0: 5bf0 c2bd f479 06bc 1a1f 863c 0e71 fb3c
000002f0: e7c7 9f3c ef93 c83b a73b 6e3b 1da7 323d
00000300: a022 1e3d 671a 6a3d dd6a b23d a2c0 6b3c
00000310: fda1 ae3d 2933 06bb 87db 36bd 7051 ec3c
00000320: 71c8 953b 7ee9 8b3e 06bb 36bd 0030 a43c
00000330: d09e 2abd f15f 32bd 1469 6e3e a6b4 d5bc
00000340: ee68 8b3d d7fc b0bc a862 063c bfcf 553e
00000350: 21e9 9dbd 6ba9 333d 2fb7 a0bd 10b2 583c
00000360: f8ef 4f3d 90df 7b3d 9995 6cbd 392f 20bd
00000370: 0263 51bc bfd6 bf3c ac3e 843c 00e7 263d
00000380: ebd0 d33c bdbf c63b 3dc1 353e 0c0a a2bc
00000390: e29f 4a3b 1592 e73c 9cda d2bc a988 3f3e
000003a0: e9d3 43bd ecea 1abd 79af 43bc a1ec f93c
000003b0: 3d9b 883d cc82 34bd fc13 8abc f1a9 0d3d
000003c0: 5227 c5bc 748d ae3c 321b 083c 5600 33be
000003d0: 8ca2 e33d 8822 72bd 7442 dfba c63c c9bc
000003e0: 02f6 5bbd 64fa b03d a625 0d3e e268 65be
000003f0: c153 313c 0d8d 1e3e 2909 013d 1294 d63d
-0.044765953 0.29185492 0.061030548 0.0032435218 0.03695974 0.060629208 -0.04924639 -0.021679
-0.048462983 0.04975187 -0.080941394 0.17852306 -0.088110656 -0.029068928 -0.12996319 -0.016762502
0.18945475 -0.0003697178 0.027517436 -0.0057272827 -0.0034567611 -0.09380068 0.037037805 0.021344505
0.009451309 -0.026100732 0.4129677 0.08613775 -0.016824057 -0.0058780783 -0.011697843 0.064463936
-0.039612398 0.008219411 0.00035979494 -0.06002134 0.06238848 -0.016941182 0.017435335 -0.0056495443
0.015514016 -0.06483892 -0.01761809 0.0039382502 -0.06569508 0.030064594 -0.07254308 -0.010939036
0.005064855 -0.002573463 0.011456382 0.24650586 -0.0119443415 -0.0017867016 0.004101373 0.0007372007
2.2310367e-05 0.02751654 0.015885033 0.023299227 -0.21721803 -0.35934773 -0.16696855 -0.15056583
-0.17060834 -0.027299471 0.043993838 0.03429384 0.007881894 -0.020644203 0.014980662 0.06199194
0.037330836 0.0363972 0.026912207 -0.06394924 -0.10854598 -0.030076148 -0.04518118 0.03325213
0.030450009 0.1097683 -0.017176436 -0.006918452 0.017927323 0.006095239 0.27677274 0.027936665
-0.029528076 -0.013827117 -0.083402805 0.11998144 -0.07896903 0.061744288 -0.116435885 0.07944931
0.057208672 0.04700978 -0.059384935 -0.08387976 0.06587516 0.07079488 0.026998837 -0.0029435097
0.028887523 0.021393113 0.00389307 -0.011915647 -0.01933929 -0.014329273 -0.00077823026 0.36959654
-0.053501654 -0.029199071 -0.059943996 -0.004215069 0.20110923 0.013116055 0.0011909477 -0.0023237863
0.037847802 0.32334822 -0.09155455 -0.07392395 0.01181832 -0.008597537 -0.010641965 0.008768588
0.004279931 -0.045586936 -0.07442024 0.13197479 -0.052337326 -0.061368335 -0.039797556 0.0096476395
-0.07171943 -0.024485905 0.03784397 0.019914448 -0.012176447 -0.0738266 -0.005381775 0.0057489173
0.023565346 -0.014471919 0.44321015 -0.060978554 0.03373622 0.034147963 -0.06503425 0.19448246
-0.037489124 0.0017327562 -0.011266813 0.06258488 0.07341772 -0.056549713 -0.048006117 -0.08916654
-0.0048947483 -0.0042217225 0.011879608 -0.02230651 0.069830984 -0.009455485 -0.11128036 0.04867417
-0.018199118 -0.010734422 -0.02223817 0.17068426 0.013946652 0.046395145 -0.031827815 -0.027614295
0.0287513 -0.04990244 -0.012775485 0.038460735 -0.14617516 -0.23861171 -0.055613834 -0.2885032
-0.095185004 -0.008207787 0.016372252 0.030693557 0.0195045 0.0061211507 0.0036351474 0.043616403
0.03860724 0.057154085 0.08711789 0.014389189 0.085269906 -0.0020477271 -0.04464295 0.028847426
0.0045710136 0.27326578 -0.044611953 0.02004242 -0.04165536 -0.043548528 0.23282272 -0.026087116
0.06807123 -0.021604938 0.008202232 0.2088003 -0.077104814 0.04386274 -0.078474395 0.013226047
0.05076596 0.061492503 -0.057759855 -0.039107535 -0.012779953 0.023417829 0.016143166 0.040747643
0.025856456 0.0060653375 0.17749496 -0.019780181 0.0030918051 0.0282679 -0.025739007 0.18704475
-0.047809515 -0.037821695 -0.011943691 0.030508341 0.06670234 -0.04407005 -0.016855232 0.034585897
-0.024066601 0.021307684 0.008307265 -0.17480597 0.11114988 -0.059114963 -0.0017033354 -0.024565112
-0.05370141 0.08641508 0.13783893 -0.22403291 0.010823191 0.15483494 0.031502876 0.10477461

encoder_conv2.bias f4 [12]
00000000: 436f 1a3f 7045 093f 1911 303e 8c2d 9d3d
00000010: 1cfb 053f 803b 153f 3332 013f 8cc4 f33e
00000020: 307a 563e 0987 ca3e e9ef 2a3e e301 193e
0.6032602 0.5362158 0.17194022 0.07674703 0.5233629 0.58293915 0.5046722 0.4761089
0.20945048 0.3955615 0.16693081 0.14942126

encoder_conv3.weight f4 [6, 12, 5]
00000000: aa8f 773d da9d d7bb 377f 133f 8942 3e3d
00000010: 8988 78bc dcb2 a3bd 9a40 7dbb 145e 003f
00000020: 12d7 353d ace1 04bd 318d 07bd e3e7 54bd
00000030: d29e 3b3d eb27 e63c 89ec 80ba 2984 9c3b
00000040: d18a c8bd 5f20 abbe 0970 b6bd 6497 68bc
00000050: 81e9 18be 0eb9 2d3c 241a a2bd 3331 34bb
00000060: 5433 25ba 6b09 a13c 894e 8abd 980e a8bb
00000070: f084 263d a83e dfbc 6d59 d7bd 0cbd 2fbd
00000080: eb77 c43d 3899 d7bc 8246 aebb 849a 2f3f
00000090: 42b9 cbbd bf60 163d 43e3 7abc ce1c 623d
000000a0: 288b 4abd 296e 7bbd 5da6 213b 10d8 e9bc
000000b0: a04b cebb 51d4 b33b 5860 463d f2be 3fbd
000000c0: f288 883d 92a0 d43c a6fa 37bd a1e9 adbd
000000d0: 79ac 6cbe d267 343d 20cb 243c b73a d1bc
000000e0: 3ed2 24bd d27f ba3c 5eab 05bd 89a1 f8bb
000000f0: 04ec bc3c 86af 163c 5efe ce3a 42e5 9d3b
00000100: 8999 503c 3ecf 9dbd 7392 4cbd 7a19 18bc
00000110: 2a43 c13c 9dc5 10bc 5fdb d9bd aab8 4fbb
00000120: eed3 383c 1db2 28bd 3b1c 65bc f493 35be
00000130: 223f 0fbd 9341 8cbb d655 96bc 3fa2 adbb
00000140: f2b0 5bbe 2da4 27bd 4519 293c 55d2 bb3b
00000150: 382a a5bc e289 cc3d 34a0 8cbc 7cf1 243c
00000160: 77a1 f33c 60a7 e2bc e6b2 58be f9e6 25bd
00000170: 458e 403d 58cb f4bb 5703 33bc 5595 80bd
00000180: de09 76bd e3dc a939 fba8 eb3c 976d e7ba
00000190: 7c48 ad3e 6f90 c9bc 7328 f13c 2c2a ae3b
000001a0: 555c 2f3b aa37 10bb 255b b63c 28d5 0c3c
000001b0: f9f3 ddba b10e 62bc c537 b63d 4deb a23c
000001c0: 8989 1abc d440 d1bc 0c06 333d 2f2e 583f
000001d0: 19d2 95bc ebcb d0bb 4e86 a13b 7bb8 f93c
000001e0: 75bc 04bd c171 2b3c effa 243d 88a6 49bd
000001f0: e64a 5fbd 7843 efbb 7f86 f0b9 9b6a c1bc
00000200: ce2f a33c df3a 77bd 2802 0bbc c9c3 093e
00000210: 6930 7d3c 4e11 f2bd 1e8d ad3a b50f 8fbd
00000220: c505 52be 5319 e8bd d3bd e2bd 1206 0ebd
00000230: 9928 8d3c 2579 2a3c 5b12 003c 84aa f53c
00000240: 32e5 32bd 953d 453e d303 553e 1123 0abe
00000250: 0891 02be c9b2 683d e637 51bc 0668 313e
00000260: beb6 7e3c f4e2 d9bd c59e 9dbc 1e4e b4bd
00000270: 478a c2bd 5a1b ae3d 05e0 02be 61ec b5bd
00000280: a695 733c 41f4 373d 674c 033d cff8 afbd
00000290: 1dc6 1bbd 330f 9c3b 112e 563e 4643 c23d
000002a0: a957 703c 0129 c4bd 2118 013e 478b 8c3d
000002b0: 3b54 19bd 6982 05be 8b0f bc3d 1232 43bd
000002c0: d5d7 893e 731b 0bbc 0caf 7abd 3195 a9bc
000002d0: fda5 bebc 41d7 223c 0ce7 bfbb b3d3 3db8
000002e0: 8d4e 7d3d 02ce 253c 1d1e ecbc aec3 413d
000002f0: a2b9 67bc 5ea4 2d3d bb2a 403c e95a 1a3e
00000300: fd6d 0e3d 5781 5b3e a2e5 753d 02d0 8cbd
00000310: e92a 45be b60c 29bc 8804 153d 65c2 24be
00000320: a2db 973c 780f 04bc d3ef a53d 8155 f0bd
00000330: 219d 643d 6e04 da3d 8926 bc3d 4c0d 4f3e
00000340: 0521 2c3e a2a3 0a3e 527e e4bb 4ba7 a53d
00000350: a920 373d d85a 433e e9bc 3e3c 8f19 d13c
00000360: 8e34 2fbd 262a d73c 2789 923e b16e c43d
00000370: 25a8 c13d f2f3 453e e530 393e 0009 3e3e
00000380: 44bd 1d3e e2d5 e33c 303d 833d ba7c a23d
00000390: 522c d0bd e31b e03d 05ef 62bd 90ec 853d
000003a0: 40bc 143d c015 e43c 856f e8bd a9fa bfbd
000003b0: 0f4b ad3e b68e cbbd 1043 42bd 6f61 1abd
000003c0: d56c a739 6475 76bb c14a 5ebd 0b4f 32bd
000003d0: 364e 1cbc 5c0e 6b3c 9749 c33b d72c 8c3d
000003e0: 940b 6638 29c7 f2bc 864f 313b 5fef e23a
000003f0: c7e0 023e f3f7 a5bc b980 38ba 97de f6bb
0.060439743 -0.0065800967 0.5761599 0.04645017 -0.015169271 -0.07993099 -0.0038643242 0.5014355
0.04439456 -0.03244178 -0.033093635 -0.051978957 0.04580576 0.028095206 -0.0009836118 0.004776497
-0.09792102 -0.33423135 -0.08908088 -0.014196251 -0.14932825 0.0106032025 -0.07915142 -0.0027495145
-0.0006301899 0.019657811 -0.06753261 -0.005128693 0.040654123 -0.027251557 -0.105151035 -0.0429049
0.09593185 -0.026318178 -0.005318464 0.6859515 -0.099474445 0.036713358 -0.0153129725 0.05520325
-0.049449116 -0.061384354 0.002466581 -0.02854541 -0.0062956363 0.0054879566 0.048431724 -0.04681296
0.06666745 0.025955472 -0.04491677 -0.08491827 -0.23112668 0.044044323 0.010058194 -0.025540693
-0.040239565 0.022766028 -0.03263413 -0.007587616 0.02306176 0.0091971215 0.001579236 0.0048185894
0.012731918 -0.07705544 -0.049944352 -0.009283418 0.023591597 -0.008836177 -0.10637545 -0.0031695762
0.011280997 -0.041185487 -0.013983781 -0.17732221 -0.034972318 -0.004280278 -0.018351477 -0.0052988823
-0.21454218 -0.040928055 0.010320966 0.0057318606 -0.020161733 0.099872366 -0.017166235 0.01006734
0.029740078 -0.027667701 -0.21161994 -0.040503476 0.04701068 -0.0074705295 -0.010926089 -0.06278483
-0.060068004 0.00032398765 0.0287671 -0.0017656562 0.33844364 -0.024605004 0.029438233 0.005315086
0.0026757915 -0.0022005835 0.022260258 0.008595742 -0.0016933671 -0.013797448 0.08897356 0.01988759
-0.009432205 -0.025543608 0.04370694 0.8444547 -0.018288659 -0.006371965 0.0049293404 0.030483475
-0.03240629 0.010464133 0.04027837 -0.049231082 -0.054514788 -0.007301744 -0.00045876575 -0.023610404
0.019920256 -0.06035888 -0.008484401 0.13453592 0.015453436 -0.11819707 0.0013240909 -0.06985418
-0.20510013 -0.11332955 -0.11071362 -0.034673758 0.017231273 0.01040486 0.007816876 0.029988535
-0.04367561 0.19261773 0.2080224 -0.1348994 -0.12750638 0.056811128 -0.012769675 0.17324838
0.015546499 -0.10638991 -0.019240746 -0.08803962 -0.094990306 0.08501311 -0.12780769 -0.08882976
0.014867222 0.044910673 0.032055285 -0.08592378 -0.038030732 0.004762554 0.2091601 0.09485488
0.014669337 -0.095781334 0.1260686 0.068625025 -0.037433844 -0.13038029 0.09182652 -0.047655173
0.2692248 -0.008490431 -0.061202094 -0.020701023 -0.023272509 0.009939016 -0.0058564004 -4.525827e-05
0.06184249 0.010119917 -0.028822953 0.047305755 -0.014143379 0.04239308 0.011728938 0.15073742
0.03477286 0.21436058 0.060033448 -0.06875612 -0.1925465 -0.010317972 0.036381274 -0.1608978
0.018537346 -0.008060329 0.081023835 -0.117350586 0.055813912 0.10645376 0.091870375 0.20219916
0.16809471 0.13538983 -0.0069730664 0.08088549 0.04470888 0.19077623 0.011641719 0.025524883
-0.04277473 0.026265215 0.28620264 0.09591425 0.09455899 0.19331339 0.18085058 0.1855812
0.1540423 0.027811948 0.06408155 0.07933946 -0.101647034 0.10942819 -0.055403728 0.06539261
0.03631234 0.027842402 -0.11349396 -0.093739815 0.33846328 -0.09939329 -0.047427237 -0.037690576
0.00031933808 -0.0037606591 -0.05427051 -0.043532412 -0.009540131 0.014346685 0.0059597003 0.0684449
5.4847056e-05 -0.029635983 0.0027055456 0.001731377 0.12781058 -0.020259833 -0.0007038224 -0.007533859

encoder_conv3.bias f4 [6]
00000000: f144 393f 7634 fd3e e6d9 543f 517a 3cbd
00000010: 7c94 cc3e bf13 d13e
0.7237082 0.49454087 0.83144987 -0.046015088 0.39957035 0.40835378

deconv1.weight f4 [6, 12, 5]
00000000: 2b75 6c3d 9754 87ba 8e72 193d 7bf0 91bb
00000010: 2b0e c03c 44af 8f3e d94b ea39 e879 46bd
00000020: a22c 123d e252 213d 038a 8abe 9029 293d
00000030: 0b19 f83d d2d1 303c 5993 e53b 05d6 553e
00000040: 6410 25ba 269a a63c 116f 333b d47b 393c
00000050: 854e 98bd 1106 f73b 186f 853d a724 733b
00000060: 3c1c f8bb 246b 053e b0ef 1abc f9ae d43c
00000070: d865 133d d5cb af3b 33fb 873c ff54 a63c
00000080: 8a3c d73d 42e9 6e3b 655f 2b3d 75cf b43b
00000090: 9dd5 8b3a b41d 93be 882a 2e3d a77e 823c
000000a0: f1ab 03bb c278 7f3c b864 853e 3a63 c93b
000000b0: ed5e 7c3c 4dfa 713d 42b6 dabb 40d3 94be
000000c0: 93cc 44bb ca7e 2b3c d83b 0bbe 57a0 59bc
000000d0: bae2 403e d24f d6bc 7c4e fe3b 6c32 363e
000000e0: c688 1cbc 2dcf 8f3e d840 da39 0b64 0f3c
000000f0: c689 ecbd 893f 1c3d 9ef5 f63c 1009 1bbc
00000100: fda3 923d 44b6 9a3d 8373 833d 6284 cb3c
00000110: d734 d23c 23e9 013d c8af a63b 358a b83c
00000120: a74f 5b3d 7e74 0abc bfe6 513c 712d 133f
00000130: c9be 303d 9f29 acbd 3ad1 c6ba 2fba 103e
00000140: deae 9d3e c56e 4c3c a048 653d 5506 9dba
00000150: f451 3c3c 37aa 3e3e eb64 ebbd 17af ac3a
00000160: 24f3 01be 2e7d f83c de73 d73e 7643 ae3c
00000170: 6202 a93d 00c4 10bc faf6 233d 446e 683c
00000180: 734d 003d 4bb3 e23d 38d3 233d fdee ea3c
00000190: 46b9 d53a 3920 403c 03bf cc3c 647d 343b
000001a0: dd3c 913d 30ac 873d 832d de3a 956f a33b
000001b0: 1d63 94ba 57e9 a43c 23ec c73e 9567 83bc
000001c0: 1a07 443d cefc a8bc 72ed ae3c 413a e3bd
000001d0: ab7e 9fbc b7f4 b83c 8e09 d33b c7e2 8ebc
000001e0: 3d7b fc3e fa58 ee3e 5560 9d3d dee4 1abf
000001f0: f540 a33e f372 0abe 7003 bb3e c9cf 5f3e
00000200: 0dec 1dbe 6dee a8bd ffdc 993e 7786 0b3f
00000210: 2ec7 3b3e 5220 ff3d 8aba 043e 1153 073f
00000220: dc85 223f 8822 e9bd e131 f6be de36 af3e
00000230: aaa3 6f3d bfe8 903e c388 dc3b c5b2 98be
00000240: 3880 dbbd dd90 c03e 32d0 1b3c 9f58 b2be
00000250: a3af 253c 83f9 443e 7067 b63d 626f 963e
00000260: 2a1c 013f 410b 22bb 56c5 fa3d 8c9d e13d
00000270: 7ee9 343e d53b 47be 5414 5b3c c6d9 fd3d
00000280: 7ce2 c4bd eb87 5fbd de04 ae3e 6699 3a3e
00000290: c892 383d 56c5 223e 7c9f a9bc bb03 f1bc
000002a0: cc32 c23b fc73 9e3e b4c3 473e 4a40 8e3e
000002b0: bfd7 4c3e 23d6 8cbe 5b02 cd3e 7320 f63c
000002c0: 07e2 fb3b 8f92 6ebd ffc9 fdbd c099 3bbd
000002d0: 56e2 e03d 6d95 b3be a750 e33e 6737 883e
000002e0: f6c7 573e c6af cc3d 2f53 503e b898 66bd
000002f0: 10fd ff3e 68a1 023d 138c 6e3b 7b9e 833e
00000300: 8f3f 243e beaa a5bd c385 603e 7fd6 853d
00000310: 1081 493d eede 183e afcf bcbd 4860 09bc
00000320: 486a 623e 67e4 dd3d 1c87 e23e 46c8 943e
00000330: e9b0 3b3d 2d6f 983e 85b8 82bd 015c d73e
00000340: d30f c33a 6d69 803e bec0 9a3d 5d60 163e
00000350: 085e 473e 109b 9dbb 2c0d b03e a652 933c
00000360: 5805 e63d 935f bd3d cf85 b73e 4f06 9fbd
00000370: a7bc 7ebc afaf 56bd 36ae 3dbe 6826 22be
00000380: c33f 24bd aa04 6e3c 24eb ad3a a13e 843d
00000390: 0737 043e ea0c 69bd 2120 33be 4039 633e
000003a0: 7fc6 14bd 6d2a a53e 5200 dd3d 713b 2bbc
000003b0: a8bb 24bc e274 643e d142 523d 69e7 a03e
000003c0: ae96 383e 9343 13bd 5a07 d13d a46d a13c
000003d0: 1bda 493d cb5d ad3c 744a a13d 7389 eb3e
000003e0: bf01 0a3d 36f2 5f3c a6d4 c63d 5f4f df3a
000003f0: e8ac eb3e 46c0 023d cf91 b83c aa30 d53d
0.057728928 -0.0010324892 0.037462763 -0.0044537163 0.023444256 0.28063405 0.0004468847 -0.048456103
0.035687096 0.039385684 -0.2705842 0.041299403 0.121141516 0.010792213 0.0070060906 0.20882423
-0.0006296693 0.020337176 0.0027379433 0.011321027 -0.074368514 0.007538565 0.0651533 0.0037100704
-0.007571725 0.13029152 -0.00945656 0.02596234 0.035985798 0.005364875 0.016599273 0.020304201
0.10509594 0.003645495 0.041839022 0.005517895 0.001066852 -0.287336 0.04252103 0.015929533
-0.0020091499 0.015592756 0.26053405 0.006145862 0.015403491 0.059076596 -0.006674559 -0.2906742
-0.0030029162 0.010467241 -0.13597047 -0.013282857 0.1883649 -0.026161108 0.007760821 0.17792672
-0.009554094 0.2808775 0.00041628513 0.008751879 -0.11549716 0.03814653 0.030146416 -0.00946261
0.071601845 0.07554296 0.064185165 0.024843398 0.025659962 0.031716477 0.0050868727 0.02252684
0.05354276 -0.008450625 0.012811362 0.57491213 0.043150697 -0.08406376 -0.0015168556 0.14133523
0.30797476 0.012477581 0.055977464 -0.0011980037 0.0114941485 0.1861962 -0.11493858 0.001317474
-0.12690407 0.030333128 0.42080587 0.021272402 0.082524076 -0.008835793 0.040030457 0.014186446
0.03132386 0.11069354 0.039996356 0.028678412 0.0016305826 0.0117264325 0.024993425 0.002754056
0.07091687 0.06624639 0.0016950819 0.004987667 -0.0011321042 0.020130796 0.39047346 -0.016040603
0.047858335 -0.02062836 0.021353457 -0.110950954 -0.01946958 0.022577627 0.006440348 -0.01744212
0.49312773 0.4655226 0.076843895 -0.60505474 0.31885496 -0.13520412 0.3652606 0.21856607
-0.15422077 -0.08248601 0.3005142 0.5450205 0.183377 0.124573365 0.12961784 0.52861124
0.63485503 -0.113835394 -0.4808493 0.34221548 0.05850569 0.2830257 0.0067301705 -0.2982389
-0.10717815 0.37610522 0.009510087 -0.34833238 0.010112676 0.19235806 0.08906448 0.29381853
0.504336 -0.0024725946 0.1224467 0.11016378 0.17667195 -0.19456418 0.013371546 0.123950526
-0.09613511 -0.05457298 0.33988088 0.1822258 0.045061857 0.1589559 -0.02070593 -0.029420724
0.0059264656 0.30947864 0.19508249 0.27783424 0.20004176 -0.27507123 0.4004086 0.03004477
0.0076868567 -0.058245238 -0.12392043 -0.045800924 0.1098067 -0.3507494 0.4439747 0.2660477
0.21072373 0.099944636 0.20344232 -0.056297988 0.4999776 0.03189221 0.0036399409 0.25706849
0.1603987 -0.08089207 0.21926026 0.065350525 0.04919535 0.14928791 -0.092193 -0.008384772
0.22110856 0.1083458 0.44243705 0.29059047 0.04582301 0.2977232 -0.063828506 0.4206238
0.0014882035 0.25080433 0.07556294 0.14685197 0.19469464 -0.0048097447 0.3438505 0.017983746
0.11231488 0.09246745 0.35844275 -0.07764875 -0.015547908 -0.05241364 -0.18523487 -0.15834963
-0.04009987 0.014527479 0.001326893 0.06457258 0.12911616 -0.05689708 -0.17492725 0.22189808
-0.036322113 0.3225893 0.10791077 -0.010451184 -0.010054506 0.22310212 0.051333252 0.31426552
0.1802623 -0.035953116 0.1020648 0.019705601 0.049280267 0.021162888 0.07875529 0.46003303
0.03369307 0.013668587 0.09708528 0.0017037204 0.46030354 0.031921647 0.022530464 0.104096726

deconv1.bias f4 [12]
00000000: 6895 8fbd 9ff9 173e ad4e dbbb a106 46bd
00000010: 9ab7 673c 1cb2 21bf d3a0 8a3d 285c b4bb
00000020: e57e 823e 5811 9b3e b15e 8c3c a71f 843e
-0.07010919 0.14841317 -0.0066927285 -0.048346166 0.014142895 -0.631624 0.06768956 -0.00550415
0.25487438 0.3028667 0.017134996 0.258054

deconv2.weight f4 [12, 24, 5]
00000000: 73bd 54be d0ed a3bb 7342 13bf 89de 193e
00000010: ab59 fd3d 344f b53c 74ca 85be b128 1abe
00000020: 5d76 5b3d ef60 8c3b d101 993d 88a3 393d
00000030: cc0b 2abe fe15 bfbd 7863 18bf 95e0 bf3c
00000040: 948f 06be a623 87be 2038 b6bd 95e9 7d3e
00000050: 5790 97be 8e95 0cbe 2392 cebd cc29 8fbd
00000060: b42e f73b 6780 ae3d 3e06 3f3e e538 a73e
00000070: ab0b c63c c1de 853d 82ec d63c 3910 48bd
00000080: ea18 c93e 1110 e0bc 1346 98bb 73c0 25bd
00000090: e7cc b9bd f444 a53b 2715 a6bd 3263 fdbd
000000a0: e31e 163d 5bba 863d cf6f 5dbd f804 2f3d
000000b0: 52ab 13bd 0d60 9c3c 122f 213e caee 36bd
000000c0: b66d 0a3e a089 8a3d b640 9f3c 305b 223c
000000d0: 14e2 9b3c 422e 273c 7fcd f63d f8f7 1b3d
000000e0: 431c 21bd cf95 abbe ab97 6dbc fdf0 acbc
000000f0: b47a acbc ca1d a1bd e1ea acbc 5322 a4be
00000100: 5fdf 4abb 8593 523d 7c84 c33d 3c20 3cbe
00000110: fad8 7fbd 153a 1e3d ff91 b3bd b841 7f3d
00000120: 0972 4f3e 083d f6bf 8271 763e aa9b b53d
00000130: dc7d f3bd 39b0 113d ebc0 fd3d b063 ebbc
00000140: f257 33be d073 4f3c 5dd9 473e a9e8 593d
00000150: 19f0 4a3e 8eed 7cbd 4cbe 5bbf 24bd 703e
00000160: 6122 67be b139 6cbc dd62 953c e07c 253e
00000170: 8598 263d 07c5 233e 6637 093e ba93 483d
00000180: 1084 91bd 42c2 03be 2c20 063d e757 3a3e
00000190: 2596 dd3d 758e 0bbd 3f85 acbd d083 7a3d
000001a0: 1440 363d 1787 f1bd 1974 783e eb40 653e
000001b0: eddf 193e 28da 173e eb69 3c3e 8bb3 a93d
000001c0: 8b7c 3e3f 326c 853d e562 19bd d279 023e
000001d0: 8103 f5bd e8ae 1bbe 80ad bf3d 79be 483d
000001e0: 73a2 473e 4dc6 553c c5aa c0bd 32d1 183e
000001f0: b00a f6bd 64d0 013d a42f 4ebe fe05 c1bc
00000200: 7594 933d fa7d acbd e83b 993e c113 433d
00000210: 0755 183e 9210 a63d 67c9 1a3d a17e 853e
00000220: 75dc f03d 8431 0c3d 67d8 323e dd47 1bbe
00000230: e0ca 463e 7544 963e 12a5 2e3c c32b ccbd
00000240: e6dd eabd 6a59 bdbd 8816 d23d 27cd 7abc
00000250: aefa 0e3b f91e 9bbd c984 a1bd 285a 44bc
00000260: c402 9d3e c36b 09bd 01fd b4bc 8887 253d
00000270: 8158 8f3b 0341 7abd c2c1 943c b7bc c1bd
00000280: 86ef 423d bb53 9abc 7735 433d aaa4 acbb
00000290: 0229 0fbd ddf8 633e 93fd 1b3e 86c2 e13d
000002a0: f867 893b 38b9 2cbd 2837 043e e410 a43e
000002b0: 3fd8 613e 847b e13b 2db0 3fbd 2e05 81bd
000002c0: fab5 513d 0127 3a3d c7ae 3b3e 25db d439
000002d0: 9a2b 20bd 24bb 763d 30eb 91bc 477e 093d
000002e0: 7556 adbc 1dd2 693b 57a6 ba3c 736a f43d
000002f0: 9c71 8f3d daf1 d53b cc95 c33d 73e2 0f3d
00000300: cf9d acbe c76b 853e 4925 8f3e d1bf 2b3d
00000310: a46c 1abe e100 80be bedb 233d 7503 253d
00000320: 5370 93bd 2fed cd3d 3f3f ec3c 61a6 a23e
00000330: d848 3f3d 4fa2 77bd 7c2d 473d 0859 37bf
00000340: f753 0c3d 9853 22bd 7fa2 f93d 72a5 3cbe
00000350: f2ee bdbd ef04 493e 6ab9 14bd 6b9f ea3d
00000360: 1261 82bd b5f8 993d 0bfd c7bc 11c1 3bbd
00000370: e974 823c 5fb5 083d f080 473e a3f4 9f3e
00000380: 74ce f8bd dd98 a3bd 3601 9b3e f2de f73d
00000390: f359 5dbb ee01 033d e94b aebd 333c 4c3e
000003a0: e56f 0b3d 329e ecbd 1085 203e 0d38 093d
000003b0: e5bd 403c ca72 2abd f598 8abd 1425 6ebd
000003c0: 976b 9dbe 806d 103b 8823 03bd 25a4 a43d
000003d0: 3951 f9bc b28a f4be cfe0 803e 4178 c7bc
000003e0: 919a ee3d 9b93 0f3d 1dbb eb3c 1bd9 42bd
000003f0: b0c8 033c 27ec 903d 98ac 963d a7b1 93be
-0.20775394 -0.0050027147 -0.5752327 0.15026297 0.123706184 0.022132494 -0.26131022 -0.15054585
0.053579677 0.0042840163 0.074710496 0.04532197 -0.16606063 -0.093303666 -0.5952678 0.023422519
-0.13140708 -0.26394385 -0.08897424 0.24796136 -0.2960231 -0.13728926 -0.10086467 -0.06990394
0.0075434092 0.085205846 0.18654725 0.32660595 0.024175486 0.065366276 0.026235823 -0.048843596
0.3927682 -0.027351411 -0.0046470254 -0.040466737 -0.09072285 0.0050436202 -0.08109503 -0.12372436
0.03665055 0.06578513 -0.054061707 0.042729348 -0.036052056 0.01908877 0.15740612 -0.04466132
0.13518414 0.06764531 0.019440036 0.009909436 0.0190287 0.0102039 0.12050914 0.03807828
-0.039333593 -0.33512732 -0.0145014925 -0.021111006 -0.021054603 -0.0786701 -0.021108093 -0.32057437
-0.0030955893 0.051410217 0.09546754 -0.18371671 -0.062462784 0.03862961 -0.08768081 0.062318534
0.20258345 -1.9237375 0.24066737 0.08867581 -0.1188924 0.03556845 0.12390312 -0.028734058
-0.17514017 0.012661889 0.19516511 0.053200398 0.19818152 -0.061749987 -0.85837245 0.23509651
-0.22571708 -0.014418052 0.018235618 0.16160917 0.040672798 0.15993129 0.13400039 0.048969008
-0.07105267 -0.12867072 0.032745525 0.18197595 0.108196534 -0.034071404 -0.08423852 0.061160862
0.044494703 -0.117933445 0.24263038 0.22388045 0.15026827 0.14829314 0.1839978 0.08286198
0.7440879 0.06514777 -0.03744783 0.12741783 -0.11963559 -0.1520344 0.093592644 0.049009774
0.19495563 0.013047767 -0.09407572 0.14923552 -0.12013757 0.031692877 -0.20135361 -0.023562428
0.0720605 -0.084224656 0.29928517 0.04762626 0.14876185 0.08108629 0.03778973 0.26073173
0.11760799 0.03422691 0.17465363 -0.15164132 0.19413328 0.29349104 0.010659473 -0.099692844
-0.11468105 -0.0924557 0.10258204 -0.015307701 0.0021816897 -0.07574267 -0.07886655 -0.011984386
0.30666173 -0.033550035 -0.022093298 0.040412456 0.004374564 -0.061097156 0.018158797 -0.094598226
0.04759171 -0.018838754 0.04765841 -0.005268653 -0.034951217 0.22262903 0.1523345 0.110234305
0.0041933022 -0.042168826 0.12911665 0.32044137 0.22055148 0.0068811793 -0.046798874 -0.06299816
0.051198937 0.045447353 0.18328391 0.00040599066 -0.03910408 0.060237065 -0.017812341 0.033567693
-0.02115939 0.0035678216 0.022784395 0.11934366 0.07004091 0.006529075 0.09550056 0.03512807
-0.33714148 0.2605879 0.27958134 0.041930977 -0.15080506 -0.2500067 0.040004484 0.0402865
-0.071991585 0.10055005 0.028838752 0.31767562 0.04670033 -0.060457524 0.04862736 -0.71620226
0.034259763 -0.039630502 0.12189197 -0.18422487 -0.09274091 0.19630788 -0.036309637 0.11456188
-0.06366171 0.0751814 -0.024412652 -0.04583842 0.015924888 0.033376094 0.1948278 0.3124133
-0.12148753 -0.07988141 0.3027436 0.1210307 -0.0033775538 0.031984262 -0.085105725 0.19944839
0.034042258 -0.11553611 0.1567576 0.03350072 0.011764024 -0.041613378 -0.067674555 -0.05814083
-0.30746147 0.0022037923 -0.032016307 0.080391206 -0.030434238 -0.47762066 0.25171515 -0.024349334
0.11650575 0.035052877 0.028775746 -0.04757033 0.008043453 0.070762925 0.073571384 -0.28846475

deconv2.bias f4 [24]
00000000: 775a 65bd ebb8 973d 33ed 82bd 797b 053d
00000010: 65f9 0d3d d8b3 8c3d b86a 93bc b5ab 193c
00000020: 1c37 25be c9af 89bd 6034 b8bb eb6a 8cbd
00000030: 6eaa 2ebe 5d70 d03c f673 403b 9090 903b
00000040: 2133 f83c a828 63bc 472c 90bc 4635 34be
00000050: ad9f 03be af50 253d 0e08 fa3c 6f39 483c
-0.055994477 0.07408317 -0.063928984 0.032588456 0.03466167 0.0687024 -0.017995223 0.009379317
-0.16134304 -0.067229815 -0.005621478 -0.068563305 -0.17057201 0.025444204 0.0029365993 0.0044117644
0.030297818 -0.013864674 -0.017599238 -0.17598447 -0.1285388 0.04036015 0.030521419 0.0122207245

deconv3.weight f4 [24, 1, 5]
00000000: a392 b3be 8f6c 8b3e ec2c 0a3f 52f3 d53e
00000010: 4fff dd3e eccc fabd 1134 48bd 311f 043e
00000020: d095 b63e 28df 0b3d 4f92 aa3e 76db e63e
00000030: 4699 cc3e 3b5a 943e fae8 c83b 4ae6 f23d
00000040: 3f0c 803e f661 46bd a796 f63e 69bb 823d
00000050: d43c 213f ba3e 493e 60a8 fd3d 4ff3 f63a
00000060: f9ec 46be b2f8 fb3d 30ea c8be 2e7a c4be
00000070: f418 14be ad22 9dbe d304 a2bd 9af5 f9bd
00000080: ffc8 14bf 3989 c5be a909 0b3e ac61 a73e
00000090: 320f b6be 49e4 cb3d bf5f b6be cf05 a73e
000000a0: 52e3 b63d b8ef ca3e c872 b0bd 6dd3 33be
000000b0: c5d8 2d3e b3c7 b4be 3bc0 a8bd d404 ab3e
000000c0: 32e1 e93d c2c5 f83e ab9b 133f d52b 6d3e
000000d0: a426 01be e518 85be a585 763e 127e c53e
000000e0: a24a 1fbe 3c84 673e 860c 0a3f b3bb 0c3e
000000f0: d492 b43e 8c71 dc3e 6d9e 183f 7bb8 26be
00000100: ea36 c83d 9417 923e 4e08 9c3d 6303 d43e
00000110: a99c 173d f32a 393e 2f3f 84be c681 2abf
00000120: 2efe 56be c4f9 e5be 7bd4 1f39 6df8 b4be
00000130: 38a5 abbe acc0 ac3e ea80 ac3e c369 643b
00000140: ee3f cebd fd1c b93e ff4e 83be 33f5 01be
00000150: bbeb b4be 08c1 ff3d c173 8a3e a524 a63f
00000160: ac3a a73d 0854 e6bc d1cb 7dbe b1ea 893e
00000170: 6f67 7b3e 0db1 6b3c 8916 04be 4ed3 043f
00000180: 7430 bb3d b2e2 623d e5d1 983e aff0 45be
00000190: 9158 94bb e7f9 1a3f 5f3f d53e 2c48 8c3e
000001a0: 2907 87bd 8889 4c3e 4072 663e 103e 1abe
000001b0: 5c86 b2be bd92 1fbe c78c 34be 1704 c2be
000001c0: ea7a 27bf 5f7b 6ebc 9ea4 b0bd 2609 493e
000001d0: 4c73 3c3e 29c7 943e 7bb0 30be 082d ae3e
-0.35072812 0.2723126 0.53974795 0.417872 0.43358847 -0.12246117 -0.04887778 0.12902524
0.35661173 0.034148365 0.3331475 0.4508931 0.39960688 0.2897509 0.0061312886 0.118603304
0.25009343 -0.048433267 0.48161814 0.06383402 0.6298344 0.19652835 0.123856306 0.0018840822
-0.19426335 0.12303294 -0.3924117 -0.38374466 -0.14462644 -0.30690518 -0.079110764 -0.12205048
-0.58119196 -0.38581255 0.13577904 0.32691705 -0.35558468 0.09955651 -0.35619923 0.3262162
0.08930077 0.39636016 -0.08615643 -0.17561121 0.16977222 -0.35308608 -0.0823979 0.3340212
0.11419906 0.48588377 0.57659405 0.23161252 -0.12612396 -0.25995556 0.24074419 0.38572747
-0.15555814 0.22609037 0.5392536 0.13743477 0.3526827 0.4305538 0.5961674 -0.16281311
0.09776099 0.28533614 0.076187715 0.41408834 0.037014637 0.1808279 -0.25829455 -0.6660427
-0.209954 -0.4491712 0.00015242577 -0.35345784 -0.3352449 0.33740747 0.33692104 0.0034853078
-0.10070787 0.3615493 -0.25646207 -0.12691192 -0.35336098 0.1248799 0.27041438 1.2979933
0.08165488 -0.028116241 -0.24784781 0.26936868 0.24551176 0.014385474 -0.12899221 0.51884925
0.09140101 0.055391975 0.29847637 -0.19330095 -0.0045271595 0.6053757 0.4164991 0.27398813
-0.065931626 0.19974339 0.2250452 -0.15062737 -0.34868133 -0.1558332 -0.17631827 -0.37893745
-0.65421927 -0.014555781 -0.08625148 0.19632396 0.18403357 0.29058197 -0.17254822 0.3401873
