models/multi_resolutionv2/SNN_Autoencoder_tsri_320s_240g.pth (torch, 25565 bytes, 11 tensors)

encoder_conv1.weight f4 [24, 1, 5]
0	0x3f0bfca1	0.54682356
1	0x3ef85c29	0.48507813
2	0x3b6d55b7	0.003621442
3	0x3b434703	0.0029796965
4	0x3a0a8c3a	0.00052851776
5	0x3e1d8a2a	0.15384737
6	0x3e91a9a9	0.28449753
7	0x3e3c92dc	0.18415397
8	0x3da1cdc3	0.07900574
9	0x3e37a42f	0.17933725
10	0xbf2de004	-0.67919946
11	0xbf6f7671	-0.935401
12	0x3ef1f9bb	0.47260842
13	0x3e62215e	0.22083041
14	0x3ed86a24	0.4226848
15	0xbf0e1966	-0.55507505
16	0xbf0ad4bc	-0.54230857
17	0x3f396579	0.7242046
18	0xbe9aab69	-0.302089
19	0xbe1237e1	-0.14279129
20	0xbb6c18d5	-0.0036025543
21	0xbf427587	-0.7596058
22	0xbdec8a6a	-0.11549838
23	0x3f06bec9	0.52634865
24	0x3f0488a4	0.51771
25	0xbdcef2d2	-0.10104908
26	0xbc209282	-0.009800555
27	0x3f075779	0.5286785
28	0x3ecb03d6	0.39651364
29	0x3ec73719	0.38909224
30	0x3f204951	0.6261187
31	0x3d683e31	0.056699935
32	0x3ba3a3a0	0.004993871
33	0x3ec95a3f	0.39326665
34	0xbe8ed515	-0.27896944
35	0x3c82a9c7	0.015950097
36	0x3f0530cc	0.52027583
37	0x3f071550	0.52766895
38	0x3d0b2036	0.033966266
39	0x3ef063ca	0.46951133
40	0xbd96e4af	-0.07367837
41	0xbcd4d7de	-0.02598184
42	0x3f08928d	0.5334862
43	0x3ee3bbc6	0.44479197
44	0x3c5b4182	0.0133823175
45	0x3e0e4b3f	0.13895892
46	0x3e8a15c5	0.26969734
47	0x3f636ef0	0.8884115
48	0x3e0720b8	0.13196075
49	0xbe59c167	-0.21265183
50	0x3c071361	0.008244366
51	0xbb37829a	-0.0028001429
52	0x3f08e45a	0.53473437
53	0x3f133e50	0.57516956
54	0x3c2da942	0.010599436
55	0x3c07fbc4	0.008299772
56	0xbbb0cb4b	-0.005395328
57	0xbc06affe	-0.008220671
58	0x3ebecca1	0.37265494
59	0x3ebecc25	0.37265125
60	0x3ead206b	0.33813795
61	0x3f024d05	0.5089877
62	0x3ec7def5	0.3903729
63	0x3ebfc0fa	0.37451917
64	0xbe99c745	-0.30034843
65	0xbc33a756	-0.010965189
66	0xbc5e309b	-0.013561393
67	0x3d0d1693	0.034445357
68	0xbb8f7b60	-0.004378721
69	0xbb9c8a38	-0.004777219
70	0xbeaf2e76	-0.34215134
71	0x3d7da884	0.061928287
72	0x3d4ba55b	0.049718242
73	0x3ed889b8	0.4229257
74	0x3ee1aa8b	0.44075426
75	0x3d49be75	0.0492539
76	0x3ef40c63	0.476657
77	0x3ede8932	0.43464047
78	0x3d6a924c	0.057268426
79	0xbd1adf02	-0.037810333
80	0xbce7bc86	-0.028288137
81	0x3f725b30	0.9467039
82	0x3cb2ae4c	0.021811627
83	0xbd30d23b	-0.04316924
84	0xbd77ea96	-0.060526453
85	0x3ecc94c1	0.3995724
86	0xbe17389c	-0.14767689
87	0xbeddf388	-0.43349862
88	0xbe512c8c	-0.2042715
89	0xbca13530	-0.019678682
90	0x3d739e49	0.059477124
91	0xbe5d7166	-0.2162529
92	0xbe845501	-0.25846103
93	0x3f25a407	0.6470341
94	0x3e9295a8	0.28629804
95	0x3bc66853	0.006054917
96	0xba04fcb6	-0.0005073057
97	0x3f5ca99f	0.8619632
98	0x3c0ca9ee	0.008585436
99	0x3bc82e7d	0.0061090575
100	0x3e0273ba	0.12739459
101	0x3daa7378	0.08322805
102	0xbf6604f1	-0.8985129
103	0x3f030140	0.5117378
104	0x3f1aca7a	0.60465205
105	0xbc8ddab2	-0.017316196
106	0x3e4d9a56	0.20078406
107	0x3ebe11d9	0.37122992
108	0x3d839379	0.064246126
109	0x3e06b08f	0.1315329
110	0x3c17740f	0.009243979
111	0x3f047b1d	0.51750356
112	0xbb9ab35a	-0.0047210874
113	0x3f0d34be	0.55158603
114	0x3c05d1de	0.008167712
115	0x3cf7694f	0.030201582
116	0x3ead8ecb	0.33898005
117	0x3cc0d1f0	0.023537606
118	0x3d0b941d	0.0340768
119	0x3ec2f22e	0.38075393

encoder_conv1.bias f4 [24]
0	0x3d11c1a4	0.03558506
1	0x3f4001a1	0.75002486
2	0xbebee634	-0.37285006
3	0xbd336c13	-0.04380424
4	0x3db3d529	0.087808914
5	0x3e395a4f	0.18100856
6	0x3dd3a0ec	0.10333428
7	0xbeef2081	-0.46704486
8	0x3f109749	0.5648084
9	0x3e2457c1	0.160491
10	0xbcd911ab	-0.026497683
11	0x3f3725f1	0.7154227
12	0x3e9c3d5f	0.30515572
13	0x3f780cc3	0.9689447
14	0x3e842c3f	0.25815007
15	0x3deb6e39	0.11495633
16	0x3e8fae3b	0.28062615
17	0xbed2d3c7	-0.41177198
18	0x3eba63a5	0.36404148
19	0x3e58a9e3	0.21158557
20	0xbe50a644	-0.20375925
21	0x3f0fa132	0.5610534
22	0xb9fb34d1	-0.00047913802
23	0x3ea44fd3	0.3209215

encoder_conv2.weight f4 [12, 24, 5]
0	0x3d892c34	0.06697884
1	0xbc4c2443	-0.012459817
2	0xbe793ec9	-0.24340357
3	0x3cc065a3	0.023485964
4	0xbb2a9d7d	-0.0026033812
5	0x3d5c8de7	0.053846266
6	0xbd16a4de	-0.036778323
7	0xbbf4448c	-0.0074544605
8	0x3dabc2b6	0.083867475
9	0x3d06d9fc	0.03292273
10	0x3c83b0d3	0.016075527
11	0x3ce37e23	0.027770108
12	0x3d8fe83f	0.07026719
13	0xbd4e2d42	-0.05033613
14	0xbbbcf62e	-0.0057666516
15	0xbd56ee17	-0.052473154
16	0x3ca9349d	0.02065497
17	0xbd81e7ac	-0.06343016
18	0xbd31afd4	-0.043380573
19	0xbc0999b6	-0.008398464
20	0x3d3225a9	0.043492947
21	0xbd24ad9f	-0.04020464
22	0x3daabfb2	0.08337344
23	0xbcb958e4	-0.022625394
24	0xbcbe29cb	-0.023213288
25	0xbd817c9e	-0.06322597
26	0xbe795409	-0.24348463
27	0x3c89a4b8	0.016802177
28	0xbd957fca	-0.072997645
29	0xbe03fda7	-0.1288973
30	0x3dd39d5b	0.103327475
31	0xbda8dbbb	-0.08245035
32	0xbdb43b52	-0.08800377
33	0x3d38db7f	0.045131203
34	0xbd2d54e1	-0.042317275
35	0x3dc46a4d	0.09590588
36	0xbd870d90	-0.06594384
37	0x3d9dec14	0.07711044
38	0x3d215b2f	0.0393936
39	0xbda9385b	-0.08262702
40	0x3d1541fd	0.036439884
41	0xbce808ff	-0.028324602
42	0x3e95e3df	0.29275414
43	0x3ccc7545	0.024958262
44	0x3d637507	0.055531528
45	0x3dc18151	0.09448493
46	0xbc847a9f	-0.016171752
47	0xbe38c598	-0.18044126
48	0xbd172dea	-0.03690902
49	0xbd40d3db	-0.04707704
50	0x3daf060b	0.085460745
51	0xbe840dfb	-0.25791916
52	0x3e8190d7	0.25305817
53	0x3dd8fa34	0.105945975
54	0x3cd36a76	0.0258076
55	0x3d708e70	0.05872959
56	0xbcaec305	-0.021333227
57	0x3dc63efb	0.09679981
58	0x3d85ae1c	0.06527349
59	0x3d7fcffc	0.06245421
60	0x3c864a40	0.016392827
61	0xbca954b4	-0.020670272
62	0xbd431b45	-0.047633428
63	0x3d3ec255	0.04657205
64	0x3cb92c8c	0.02260425
65	0xbcabd2fa	-0.020974625
66	0x3df98e6d	0.12185369
67	0x3ea1d323	0.31606397
68	0x3e6a7163	0.22894816
69	0x3e343597	0.17598568
70	0xbcc62353	-0.024186766
71	0xbe506c38	-0.20353782
72	0x3d67cea2	0.056593545
73	0x3d0addfd	0.03390311
74	0xba799421	-0.0009520669
75	0xbbf3d9f1	-0.007441752
76	0xbd33fe1d	-0.043943513
77	0xbe427ec6	-0.18993673
78	0xbd02ae66	-0.0319046
79	0xbdb92e6d	-0.09042058
80	0x3cae1a45	0.02125276
81	0xbb5f5331	-0.0034076686
82	0xbe3395aa	-0.17537561
83	0x3d298edd	0.04139601
84	0x3d2b20f0	0.04177946
85	0xbd530ce2	-0.051525958
86	0x3d62d934	0.055382922
87	0x3d5de354	0.054171875
88	0xbd5f9f7b	-0.05459545
89	0x3d990ed8	0.07473534
90	0xbd5b4964	-0.053536788
91	0xbe5333bb	-0.20625202
92	0xbb46ae0b	-0.003031614
93	0x3b975e5a	0.004619402
94	0xbdb06122	-0.086122766
95	0x3ce08a46	0.027409684
96	0xbe8e6482	-0.27811056
97	0x3e9e91a9	0.30970505
98	0x3d6c12a6	0.057634972
99	0x3d8d82f6	0.069097444
100	0x3d42b2ab	0.047533672
101	0xbc1db382	-0.0096253175
102	0x3ccfb777	0.025356038
103	0xbc9d978f	-0.019237308
104	0xbb78f544	-0.0037987987
105	0xbc050fca	-0.00812144
106	0xbda257ee	-0.079269275
107	0xbd9f8e4a	-0.07790811
108	0x3c918810	0.017765075
109	0x3c607c99	0.013701581
110	0x3dc5e704	0.09663203
111	0xbe178f6f	-0.1480081
112	0xba9172b2	-0.0011096804
113	0x3da3a77d	0.0799093
114	0x3d539cc5	0.05166318
115	0xbe1e726b	-0.15473334
116	0xbe282561	-0.16420509
117	0xbe0e3cab	-0.1389033
118	0xbd272aa7	-0.04081216
119	0xbdc32915	-0.0952932
120	0x3c385cbb	0.011252577
121	0x3ec136f0	0.37737226
122	0x3cda2d3d	0.0266329
123	0x3daefa17	0.085437946
124	0x3d35578b	0.04427294
125	0xbd7444c6	-0.0596359
126	0x3da4c509	0.08045394
127	0xbd6d57ee	-0.057945184
128	0x3d25436e	0.04034751
129	0xbd1cbb5d	-0.03826462
130	0x3cfd9986	0.030956995
131	0x3c82ddc9	0.015974896
132	0x3d26dc05	0.04073717
133	0x3d37b2e8	0.044848353
134	0xbb6e0f08	-0.0036324877
135	0xbc9b5e70	-0.01896593
136	0xbd800e23	-0.06252696
137	0x3e6c416c	0.23071831
138	0x3cf8a74e	0.030353215
139	0xbd18c638	-0.03729841
140	0x3d1a69ca	0.037698545
141	0xbcc04575	-0.02347062
142	0x3d04b8fb	0.032402974
143	0xbd4e4744	-0.050360933
144	0xbc064bde	-0.008196799
145	0xbd1e005e	-0.03857457
146	0x3d71f552	0.059071846
147	0xbd143682	-0.036184795
148	0xbc3fe01f	-0.0117111495
149	0xbbf1338e	-0.007360882
150	0xbdccbdf6	-0.0999717
151	0x3ddda2cf	0.10822069
152	0x3cae294a	0.021259923
153	0xbcce8a29	-0.025212364
154	0x3d043b8a	0.032283343
155	0x3b758063	0.0037460558
156	0x3dba7d15	0.09105889
157	0xbd625350	-0.055255234
158	0x3d92af7a	0.07162376
159	0xbd19f85e	-0.037590377
160	0xbc064c12	-0.0081968475
161	0xbda0acbc	-0.078454465
162	0x3d55e9fe	0.052225105
163	0xbca5381f	-0.020168362
164	0x3c18f350	0.009335354
165	0xbdaa9c3d	-0.08330581
166	0x3d698410	0.05701071
167	0xbd99eab9	-0.07515473
168	0x3bd1a5c9	0.006397937
169	0xbc89d5ab	-0.016825518
170	0xbbda0ce2	-0.006654368
171	0x3d79effe	0.06101989
172	0x3c8ec682	0.01742864
173	0xbcc2cb4f	-0.023778586
174	0xbc7b8365	-0.015351151
175	0x3d949675	0.0725526
176	0x3c9fb696	0.019496243
177	0x3d0b1497	0.033955183
178	0x3c050a41	0.0081201205
179	0xbc5938ae	-0.013258142
180	0xbd25d12d	-0.04048269
181	0x3e30e2c0	0.17273998
182	0xbce76915	-0.02824835
183	0x3d1cc874	0.038277104
184	0x3bee9206	0.007280591
185	0xbd9a9b02	-0.07549097
186	0xbe36b036	-0.17840657
187	0xbdd9cd97	-0.10634916
188	0xbe1647f3	-0.14675884
189	0xbdb87757	-0.09007137
190	0x3d8f43c6	0.06995349
191	0x3da20443	0.07910969
192	0xbc9d38f7	-0.019192202
193	0x3d51f740	0.051261187
194	0x3cc7e19d	0.024399573
195	0xbdc4577b	-0.09586998
196	0x3e5a355c	0.21309417
197	0xbddd0cab	-0.10793432
198	0x3de56d97	0.11202543
199	0xbd1f22f5	-0.038851697
200	0xbd509f69	-0.050933275
201	0x3ed9ad78	0.4251516
202	0xbd05dacd	-0.032679368
203	0x3e3c15c0	0.18367672
204	0x3d7c7df4	0.061643556
205	0xbd305af5	-0.043055493
206	0x3d1a5c80	0.03768587
207	0xbd9c5bd5	-0.07634703
208	0x3d5e8958	0.0543302
209	0xbd491476	-0.04909178
210	0x3d252529	0.04031864
211	0x3caaf236	0.020867448
212	0xbd174553	-0.036931347
213	0xbd359743	-0.044333708
214	0xbcec6ce8	-0.028860524
215	0x3c9379c3	0.018002396
216	0x3e8632e2	0.26210696
217	0xbc4d0503	-0.012513402
218	0x3da0081c	0.07814047
219	0x3e0f86e1	0.14016296
220	0xbc236888	-0.009973653
221	0x3c637f5f	0.013885348
222	0xbd93e326	-0.072210595
223	0xbcbb4a58	-0.022862598
224	0xbcdf9fa8	-0.02729781
225	0xbce48275	-0.027894238
226	0x3d328fe4	0.043594256
227	0xbdb9e08a	-0.090760306
228	0xbcf34eb3	-0.029700613
229	0xbd45fced	-0.048336912
230	0x3d2d78f5	0.04235168
231	0x3e35c3d3	0.17750482
232	0xbce963e5	-0.028490016
233	0x3d38f04f	0.04515105
234	0x3c420067	0.011840916
235	0xbc3270af	-0.010891124
236	0x3e0c640d	0.13710041
237	0xbd7dd685	-0.06197216
238	0x3d93968c	0.07206449
239	0x3cd88e9d	0.02643519
240	0xbc48068c	-0.012208592
241	0x3e3f7bad	0.18699522
242	0x3d4cd4d6	0.050007664
243	0x3d29b8fa	0.041436173
244	0x3de3f33e	0.11130379
245	0xbcb22a50	-0.021748692
246	0xbc895530	-0.016764253
247	0x3dc81c9d	0.097710826
248	0x3dcf860a	0.10132988
249	0x3e13f8a1	0.14450313
250	0xbc02ea1a	-0.0079903845
251	0xbdb9ecec	-0.090783924
252	0xbea8abb9	-0.32943514
253	0x3d8f0115	0.06982628
254	0x3df218e6	0.11821155
255	0x3dc62b6b	0.0967625

encoder_conv2.bias f4 [12]
0	0x3ea911e9	0.33021477
1	0x3ea86176	0.32886857
2	0x3f1a9607	0.60385174
3	0x3e2c29e6	0.16812858
4	0x3eda64f8	0.42655158
5	0x3d819d9e	0.06328891
6	0xbd3d4fd9	-0.046218727
7	0x3ebbc747	0.36675474
8	0x3eae83e6	0.34085006
9	0x3d402d7a	0.04691837
10	0x3f290596	0.6602415
11	0x3ee33d89	0.44382885

encoder_conv3.weight f4 [6, 12, 5]
0	0xbca15fd3	-0.019699013
1	0xbc578eda	-0.013156617
2	0xba799d7c	-0.0009522063
3	0xbcbc8868	-0.023014262
4	0xbc72c354	-0.014817078
5	0x3c8cb457	0.017175836
6	0x3bdd5df6	0.006755586
7	0x3e8b3cda	0.27194864
8	0xbd013644	-0.031545892
9	0x3c84750d	0.016169095
10	0xbc42ca5a	-0.011889065
11	0x3ca0498c	0.01956632
12	0x3d357de1	0.0443095
13	0x3b9af15c	0.0047284793
14	0xbbdce1d9	-0.0067407903
15	0x3cbf1f66	0.023330402
16	0x3bb41080	0.005495131
17	0xbd5f638d	-0.0545383
18	0x3c952a7a	0.018208731
19	0xbc7fe45d	-0.015618411
20	0xbc595d67	-0.013266898
21	0xbc301b27	-0.010748661
22	0xbde1eee1	-0.11031891
23	0x3c5059b8	0.012716703
24	0x3bd42bff	0.0064749713
25	0xbba67956	-0.0050803823
26	0xbd3d534c	-0.046222016
27	0xbc3bd13a	-0.011463458
28	0xbc7629f4	-0.015024651
29	0xbd263952	-0.04058201
30	0xbd263e0a	-0.04058651
31	0xbd1651ca	-0.036699094
32	0xbbb3a46b	-0.0054822466
33	0xbc1d0be6	-0.009585356
34	0xbc916490	-0.017748147
35	0xbb885b27	-0.004161257
36	0xbcabccde	-0.020971712
37	0x3f57ad8c	0.84249187
38	0x3b5084aa	0.0031817355
39	0xbc3b169d	-0.011418966
40	0xbc6e251b	-0.014535214
41	0xbccbba8c	-0.024869226
42	0x3d81caec	0.063375324
43	0x3c21ba2c	0.009871047
44	0xbc88390d	-0.016628766
45	0xbc1677d2	-0.009183841
46	0x3ce36cda	0.027761865
47	0x3cbe045d	0.02319544
48	0xbd57627c	-0.052584156
49	0xbc7736b4	-0.015088726
50	0xbca49e1c	-0.020094924
51	0xbcd98d0c	-0.026556514
52	0xbda0b751	-0.07847465
53	0xbd9dd4a4	-0.077065736
54	0xbc474039	-0.012161308
55	0x3abde723	0.001448844
56	0xbb97e9d3	-0.0046360283
57	0xbd10a3a2	-0.035312302
58	0xbdfef810	-0.12449658
59	0x3c45ac52	0.01206501
60	0xbc83f603	-0.016108518
61	0x3ba3fbda	0.0050043883
62	0xbda54067	-0.080689244
63	0xbde01bbe	-0.109427914
64	0xbcc2aa54	-0.02376286
65	0xbc9432cd	-0.01809063
66	0xbc1ace91	-0.009448663
67	0x3c03aa12	0.008036153
68	0x3f0528ee	0.5201558
69	0x3b7994cf	0.0038083082
70	0x3a5a39e5	0.0008324667
71	0x3ca6ee92	0.020377431
72	0x3d1b47ef	0.037910398
73	0x3e2bac0d	0.16764851
74	0x3c25d95d	0.010122624
75	0xbcd44278	-0.025910601
76	0xbb979622	-0.0046260515
77	0xbe02ba1a	-0.12766305
78	0xbdcb351b	-0.099222384
79	0xbdba8b48	-0.09108597
80	0xbc7d117c	-0.015446063
81	0xbd7c8e2b	-0.06165902
82	0xbe0e3c6a	-0.13890234
83	0x3cb97a3b	0.022641292
84	0xbc087f73	-0.0083311675
85	0x3b285c52	0.0025689793
86	0xbd63c352	-0.055606194
87	0xb6b6f8c7	-5.452984e-06
88	0x3cfef2c3	0.031121617
89	0xbce7692e	-0.028248396
90	0x3c68e729	0.014215269
91	0xbc176eea	-0.009242753
92	0xbc0046d9	-0.007829391
93	0x3d2feccf	0.042950448
94	0x3a90fa55	0.0011060933
95	0x3b9fcdf9	0.004876849
96	0xbc12dae9	-0.008963325
97	0xbd8cc568	-0.0687359
98	0x3ec6f802	0.3886109
99	0xba4f13ab	-0.0007899354
100	0x3cb86b66	0.022512149
101	0xbab23c53	-0.00135983
102	0x3c9010d2	0.017586146
103	0x3ceff4ca	0.02929153
104	0x3d03a4af	0.032139476
105	0x3bb7f2c0	0.005613655
106	0xbbf115bd	-0.0073573277
107	0x3bfb936f	0.0076774876
108	0x3d3f20a3	0.046661984
109	0xbc95b0b1	-0.01827273
110	0x3c3da32c	0.011574548
111	0xbbed2bc3	-0.007237883
112	0xbd669966	-0.056298636
113	0x3e1f2a93	0.15543585
114	0x3b151907	0.0022750513
115	0x3c259b98	0.010107897
116	0xbd0da299	-0.034578893
117	0x3b6f9c10	0.0036561526
118	0xbdb188af	-0.086686485
119	0x3bfde29a	0.0077479603
120	0x3c2a4989	0.010393509
121	0x3d6cf12a	0.05784718
122	0x3cac8123	0.021057671
123	0xbccbafd3	-0.024864113
124	0x3e209948	0.15683472
125	0xbd2c0864	-0.04200019
126	0x3cf458a5	0.029827425
127	0xbc2f31be	-0.010693012
128	0x3ccdd5fd	0.025126452
129	0xbdecf294	-0.115697056
130	0xbd326e4a	-0.04356221
131	0x3e4d6921	0.20059635
132	0x3a9741d3	0.0011540003
133	0xbcb5f2ca	-0.022210497
134	0x3dbf533d	0.09342048
135	0x3b16de72	0.0023020771
136	0x3e2249bc	0.1584844
137	0xbd824f97	-0.06362837
138	0x3d3dd6e9	0.046347532
139	0x3b42a586	0.002970071
140	0xbb86ec2c	-0.0041175094
141	0xbe6969c5	-0.22794254
142	0xbd189eed	-0.03726094
143	0x3d80352c	0.06260142
144	0xbd65adec	-0.056074068
145	0xbdb69b85	-0.08916382
146	0x3e8cb664	0.27482903
147	0xbde09345	-0.109655894
148	0xbdeac16e	-0.11462675
149	0x3e501f4b	0.20324437
150	0xbd8a8118	-0.06762904
151	0x3dfecbc4	0.12441209
152	0x3d6a6729	0.057227287
153	0xbcdef870	-0.027218074
154	0xbacdcb30	-0.0015700813
155	0xbbbf26c7	-0.00583348
156	0x3d1c441a	0.038150884
157	0x3d2e4019	0.042541597
158	0xbcdb866b	-0.026797494
159	0x3d6a98d8	0.05727467
160	0xbd82f26e	-0.06393896
161	0x3e49d930	0.19711757
162	0x3dd10b71	0.102072604
163	0xbd29a4dd	-0.04141699
164	0x3d23585f	0.0398792
165	0x3d38e6c0	0.045141935
166	0x3e5a3d1e	0.21312377
167	0xbcc9b66b	-0.024623116
168	0xbd487015	-0.048935015
169	0x3d5112e9	0.051043425
170	0x3b5f5889	0.003407987
171	0xbe3de396	-0.18543848
172	0xbc561351	-0.013066129
173	0x3d3aa6d8	0.04556927
174	0xbe0e8155	-0.13916524
175	0xbc4dfa57	-0.012571893
176	0x3c525772	0.012838231
177	0x3e113c12	0.14183071
178	0x3ba31e69	0.0049779904
179	0xb93c8fbe	-0.00017982625
180	0xbcd8142c	-0.026376806
181	0xbcd092b2	-0.025460575
182	0x3d65f0f0	0.05613798
183	0xbcd737ce	-0.026271727
184	0xbca91010	-0.020637542
185	0xbc80a119	-0.015701817
186	0xbc87eca0	-0.016592324
187	0x3d6207d5	0.05518325
188	0xbd875c4d	-0.06609402
189	0x3bd866a1	0.006604031
190	0xbcddab5f	-0.027059255
191	0x3bc94530	0.006142281
192	0xbdd214dd	-0.102578856
193	0x3b1ce490	0.0023939945
194	0xbc7da51b	-0.015481259
195	0xba392037	-0.00070619903
196	0x3c3cc8cb	0.011522482
197	0x3f305b5b	0.688894
198	0x3c3aa8f6	0.0113928225
199	0xbc59569f	-0.013265281
200	0xbc6053e1	-0.013691873
201	0xbc3bd6a3	-0.011464748
202	0xbdd4835b	-0.103766166
203	0xbbb1d9a9	-0.0054275584
204	0xbc0dfe90	-0.008666649
205	0x3c32578d	0.010885132
206	0xbdcc7dad	-0.09984908
207	0x3d39e616	0.045385443
208	0x3c79e891	0.015253202
209	0xbd20078c	-0.039069697
210	0xbc8d07ea	-0.017215688
211	0xbb2d5872	-0.0026450423
212	0x3e4bae69	0.19890751
213	0x3d05e9b4	0.03269358
214	0xbbfb494c	-0.00766865
215	0xbaf4faa4	-0.0018690419
216	0x3bf893a1	0.007585958
217	0xbda68ed5	-0.08132712
218	0x3d0b3422	0.033985265
219	0xbbde92cd	-0.0067924024
220	0x3ba5397a	0.005042252
221	0xbb87f0ef	-0.0041485946
222	0x3ecfc5cc	0.40580595
223	0x3d457a70	0.04821247
224	0xbc566d7f	-0.013087629
225	0x3c80b4ba	0.015711177
226	0xbc82ed50	-0.0159823
227	0xbd1b999a	-0.037988283
228	0xbc620dcd	-0.013797236
229	0x39409def	0.00018369382
230	0xbcf3e44b	-0.029771945
231	0xbccc6ee1	-0.024955215
232	0xbd97c84a	-0.07411249
233	0xbd484adf	-0.048899528
234	0xb9f93970	-0.00047535775
235	0xbc338c17	-0.010958693
236	0xbd134a22	-0.03595937
237	0xbd9c033a	-0.07617803
238	0x3c0a35a1	0.008435638
239	0x3bb2168e	0.0054348176
240	0xbdd01c33	-0.101616286
241	0xbccfbc09	-0.025358217
242	0xbcb985ed	-0.022646869
243	0xbbbba3b1	-0.0057263006
244	0xbc5f7477	-0.013638607
245	0x3d6c40e3	0.05767907
246	0xbd1ffc6e	-0.039059095
247	0x3c85b4fd	0.016321654
248	0xbd56d633	-0.05245037
249	0x3b317bb1	0.0027081782
250	0x3eaf706f	0.34265468
251	0x3cf37e03	0.029723173
252	0xbb0b9e6d	-0.0021304146
253	0x3cbdb106	0.0231557
254	0x3c068ea5	0.00821272
255	0xbd85204c	-0.06500301

encoder_conv3.bias f4 [6]
0	0x3ec82905	0.39093795
1	0x3f058f1d	0.521715
2	0x3e734f6e	0.23760769
3	0x3ea5444c	0.3227867
4	0x3ef7cd6a	0.48398906
5	0x3f4e6e73	0.8063728

deconv1.weight f4 [6, 12, 5]
0	0xbb64a438	-0.003488792
1	0xbb095563	-0.0020955435
2	0x3c0ae701	0.008477927
3	0x3d165db6	0.036710463
4	0x3c2c9132	0.010532664
5	0x3ce9f41b	0.028558781
6	0x3b2d8de6	0.0026482283
7	0x3d007ff8	0.03137204
8	0x3cae56aa	0.021281559
9	0xbd5802d3	-0.05273707
10	0xbeb7beca	-0.35887748
11	0xbb24d87c	-0.0025153449
12	0x3df710b0	0.1206373
13	0x3d7c9c0d	0.06167226
14	0x3d928ccb	0.071557604
15	0x3c3c059d	0.011475948
16	0x3baad2fa	0.0052131386
17	0x3e0432dc	0.12910026
18	0x3d8b5c6a	0.06804736
19	0x3d001aed	0.03127568
20	0xbb2cd862	-0.0026374091
21	0xba281bdc	-0.0006412843
22	0x3e240462	0.16017297
23	0x3b4e4451	0.0031473825
24	0xbcbd0e5e	-0.02307814
25	0x3ca012c7	0.019540204
26	0xba02c2df	-0.00049881445
27	0xbe84cf4a	-0.259394
28	0x3ced8e08	0.02899839
29	0x3c76d5df	0.015065639
30	0x3b8490e6	0.0040455936
31	0x3b87790a	0.004134302
32	0x3b7db29c	0.0038711196
33	0xbc2db466	-0.010602092
34	0xbcce189c	-0.025158219
35	0xbba6348a	-0.005072181
36	0xbc2d601b	-0.010581995
37	0x3daf61f2	0.085636035
38	0xbc917c36	-0.017759424
39	0x3c94c6cc	0.0181612
40	0x3c04bfa0	0.008102328
41	0x3a9a1ba2	0.0011757503
42	0x3ee0b6c5	0.43889442
43	0x3d450fb4	0.04811068
44	0x3beecea2	0.007287816
45	0x3b80f32f	0.0039352397
46	0xbb1b647a	-0.0023711012
47	0x3e9dca2f	0.30818316
48	0x3cc8ac53	0.024496233
49	0x3ce361b7	0.027756555
50	0xbb09d6d8	-0.0021032598
51	0x3b8ac3d5	0.004234771
52	0x3e9b3a11	0.3031774
53	0xbbde0490	-0.0067754462
54	0xbc9e792a	-0.019344885
55	0xbd5ba35f	-0.0536226
56	0x3d0610d7	0.032730903
57	0x3b99fe71	0.004699521
58	0xbd9a3fac	-0.07531676
59	0xbced44d4	-0.028963484
60	0xbb6223d4	-0.0034506219
61	0x3d0819d9	0.033227775
62	0x3cd5dd1d	0.026106412
63	0xbe10eb82	-0.14152339
64	0xbaa0e28e	-0.001227455
65	0x3dbc6acf	0.092000596
66	0x3d73e96b	0.059548777
67	0x3dd5cd91	0.10439599
68	0xbc2268a6	-0.009912645
69	0xbd4b05e8	-0.04956618
70	0xbf6aa557	-0.9165854
71	0x3d319ad7	0.043360557
72	0xbecf4f94	-0.404904
73	0x3e11f003	0.14251713
74	0x3e00476a	0.12527242
75	0x3c802915	0.01564459
76	0x3d233b94	0.03985174
77	0x3de2c2b4	0.11072293
78	0x3f0edbc4	0.55804086
79	0x3ddcabd1	0.10774959
80	0x3c731ba7	0.014838136
81	0xbc7713df	-0.015080421
82	0x3c427936	0.011869719
83	0x3dea4550	0.114390016
84	0xbcf814b7	-0.030283315
85	0x3cb7aade	0.022420343
86	0x3c8c19f0	0.017102212
87	0x3d9f4aad	0.07777915
88	0xbc803cda	-0.015654016
89	0x3d6f4fb9	0.05842564
90	0x3d27e65f	0.040991183
91	0xbd22637c	-0.039645657
92	0x3d637e75	0.05554052
93	0xbd846c6f	-0.064659946
94	0xbc43c6bb	-0.0119492365
95	0x3ca01fc1	0.019546391
96	0xbc6cc423	-0.0144510595
97	0x3c290dc7	0.010318226
98	0x3d944c2b	0.072410904
99	0x3ba63469	0.0050721657
100	0x3c1babb0	0.009501383
101	0xbae58dce	-0.0017513575
102	0x3ce5266f	0.027972428
103	0x3edf45f5	0.4360806
104	0x3cff6ec1	0.031180741
105	0x3d2975bc	0.041372046
106	0x3b5e1c82	0.0033891504
107	0x3da90c71	0.08254326
108	0x3e535586	0.20638093
109	0x3c6b1740	0.014348805
110	0xbc2574e0	-0.010098666
111	0x3ce29cd0	0.027662665
112	0xbd5ab831	-0.053398315
113	0x3ec3c937	0.38239452
114	0xbd8ddef1	-0.06927288
115	0xbdd4df6a	-0.10394175
116	0xbdc5ced6	-0.096585914
117	0x3db2e5d2	0.08735241
118	0xbe7d800f	-0.24755882
119	0xbe6004f2	-0.21876886
120	0xbdc0469d	-0.093884684
121	0x3f04e67f	0.5191421
122	0x3d56b246	0.05241611
123	0xbe7ca1de	-0.24671122
124	0x3e87a16f	0.26490352
125	0x3ed20ebf	0.41026875
126	0x3e83b65e	0.25725073
127	0xbe81116d	-0.25208607
128	0x3e429b1e	0.19004485
129	0x3dece53b	0.1156716
130	0xbeff8b90	-0.49911165
131	0x3e52f922	0.20602849
132	0xbeb64918	-0.3560264
133	0xbeeea7c7	-0.4661238
134	0xbf0deeff	-0.55442804
135	0xbdfb21e3	-0.12262323
136	0x3dc36b1b	0.09541913
137	0xbded0353	-0.115729
138	0xbd2e1b07	-0.042506244
139	0xbd354ecf	-0.04426461
140	0xbd1ca72a	-0.038245358
141	0x3ec98e21	0.39366248
142	0xbe8dec49	-0.27719334
143	0xbc8af471	-0.016962262
144	0x3e4c8c5d	0.1997542
145	0x3dba5521	0.09098268
146	0x3e951dcb	0.29124293
147	0x3c09db42	0.008414092
148	0x3e87d2b6	0.26527947
149	0x3c21ce3b	0.009875829
150	0xbdfe0e15	-0.1240503
151	0xbdf4186d	-0.11918721
152	0x3ead2f29	0.33825043
153	0x3cf61008	0.030036941
154	0xbf016dfd	-0.50558454
155	0xbe0138d1	-0.1261933
156	0x3d9d2d3d	0.07674644
157	0x3e2d45bb	0.16921131
158	0xbe093664	-0.13399655
159	0xbe8de906	-0.27716845
160	0x3ba03f6b	0.0048903725
161	0x3e48a314	0.1959346
162	0x3d77766d	0.060415674
163	0x3d4f67b4	0.05063601
164	0xbdfb6a66	-0.12276153
165	0x3cd29325	0.02570493
166	0x3ec2b004	0.38024914
167	0x3db8d40f	0.09024822
168	0xbdc44e1a	-0.09585209
169	0x3eda436e	0.4262957
170	0x3d8f538e	0.06998359
171	0x3dd5c9b9	0.10438866
172	0x3e704497	0.23463665
173	0xbccdfac8	-0.025143996
174	0x3becfb37	0.0072320956
175	0xbd512270	-0.051058233
176	0x3f6ce653	0.92538947
177	0xbeb47bfc	-0.35250843
178	0xbe276858	-0.16348398
179	0x3eb540c5	0.35400978
180	0xbb098551	-0.0020984004
181	0x3d5281b8	0.05139324
182	0x3ed02178	0.40650535
183	0x3d8a4f31	0.06753386
184	0xbb9cd37b	-0.0047859526
185	0x3e095c6e	0.13414165
186	0x3da74a40	0.08168459
187	0xbd061f0f	-0.032744464
188	0x3d5b7c60	0.05358541
189	0xbc9f5bfe	-0.019453045
190	0xbf21a204	-0.6313784
191	0x3d1edb88	0.03878358
192	0x3df822f1	0.121160395
193	0x3d5e8370	0.054324567
194	0x3e216e2d	0.15764685
195	0x3c4c32ca	0.012463281
196	0x3d8e2d81	0.06942273
197	0xbe34bed8	-0.17650926
198	0x3db5a37c	0.08869073
199	0x3d73b769	0.059501085
200	0x3c9d7da0	0.019224942
201	0xbbdce77c	-0.0067414623
202	0x3e3e23d6	0.18568358
203	0xbc8e526e	-0.01737329
204	0x3b773e1a	0.0037726224
205	0x3ca58aae	0.02020773
206	0x3d688bd3	0.05677397
207	0x3ee84ad9	0.45369604
208	0x3aa4378d	0.0012528762
209	0x3c1a35ba	0.0094122235
210	0x3d105c6e	0.035244398
211	0xbd1eaad5	-0.038737137
212	0xbb6bfb14	-0.0036007809
213	0x3aa22073	0.001236929
214	0xbd83d4ff	-0.0643711
215	0x3c285e32	0.010276364
216	0x3ced2cf9	0.028952109
217	0x3e39c595	0.18141778
218	0xbc3ab90a	-0.011396656
219	0x3d2c4571	0.042058412
220	0x3c615179	0.013752335
221	0x3d8b4684	0.06800559
222	0x3ec84e4a	0.3912223
223	0x3d8a4c2c	0.0675281
224	0xbba32f29	-0.004979987
225	0x3cefa089	0.029251354
226	0x3d0cf71c	0.03441535
227	0xbcb2c7fb	-0.021823874
228	0xbba40e28	-0.0050065704
229	0x3b97d8be	0.004633992
230	0xba88de84	-0.0010442291
231	0x3c4f7f23	0.012664589
232	0xbd9ba1f6	-0.07599251
233	0x3a24dca9	0.00062889844
234	0xbd05f68d	-0.032705832
235	0xbb9bfbc3	-0.004760237
236	0xbd86961c	-0.065716
237	0x3d44bb2f	0.048030075
238	0xbdbbc6ca	-0.091687754
239	0xbe33707f	-0.17523383
240	0xbb8a0114	-0.0042115543
241	0x3e00c477	0.12574945
242	0xbb3fb2e9	-0.0029250926
243	0x3cb12966	0.021626186
244	0xbc7b902c	-0.0153541975
245	0x3e6924eb	0.2276799
246	0x3ef1fd20	0.47263432
247	0xbda82d6d	-0.08211789
248	0x3cf01609	0.029307382
249	0x3d0a0a43	0.033701193
250	0xbf6142a5	-0.87992316
251	0x3e3984cb	0.18117063
252	0x3e9e382c	0.3090223
253	0x3be95d41	0.0071217124
254	0xbcdb00a1	-0.026733698
255	0x3e6bf262	0.2304168

deconv1.bias f4 [12]
0	0x3e9a1d4d	0.3010048
1	0xbe7174b8	-0.23579681
2	0xbe5eaa8e	-0.21744749
3	0x3e0c9b65	0.13731153
4	0x3e94ffa2	0.29101282
5	0x3e477b2d	0.19480582
6	0x3e896656	0.2683589
7	0x3e38940e	0.18025228
8	0x3e0e9a19	0.13925971
9	0xbd9db554	-0.07700601
10	0x3ea1bcc3	0.31589326
11	0x3e53e853	0.20694093

deconv2.weight f4 [12, 24, 5]
0	0xbd450d57	-0.048108425
1	0xba31e427	-0.00067860115
2	0xbee36f0f	-0.44420668
3	0xbc81e373	-0.015855527
4	0x3d27cc94	0.040966585
5	0xbc545149	-0.012958833
6	0xbd814aea	-0.06313117
7	0x3e8790a4	0.2647754
8	0x3c3f2558	0.011666618
9	0x3e4c7ab9	0.1996869
10	0x3dbcb3e3	0.09213998
11	0xbe38f215	-0.18061097
12	0x3eed0eb3	0.46300277
13	0xbc806acb	-0.015675923
14	0xbcef2801	-0.02919388
15	0x3e1a195c	0.15048736
16	0xbced8fda	-0.028999258
17	0x3d2794c1	0.040913347
18	0x3d0420fc	0.03225802
19	0xbc03f3f8	-0.008053772
20	0xbcc9e035	-0.024643043
21	0xbe638c93	-0.22221594
22	0x3c97e1c8	0.018540278
23	0xbd82216d	-0.06354032
24	0x3c7affcb	0.015319775
25	0x3c9ba9d7	0.019001884
26	0xbe229d30	-0.15880275
27	0x3e4f81dd	0.20264383
28	0x3e09ffd1	0.13476492
29	0xbbcaded6	-0.006191115
30	0x3ddfde9c	0.10931131
31	0xbd57a1f3	-0.05264468
32	0xbd4b6757	-0.0496591
33	0xbd813543	-0.06308987
34	0x3d395413	0.045246195
35	0xbd6dbe95	-0.05804308
36	0xbd4640c4	-0.04840161
37	0x3c3692b8	0.011143379
38	0xbdb95ee3	-0.09051301
39	0x3dce0370	0.100592494
40	0xbdad04b1	-0.084481604
41	0xbd08d867	-0.033409502
42	0x3c9a3f83	0.018829113
43	0xbbef8a87	-0.007310215
44	0xbde7f6cb	-0.11326369
45	0x3e061ea6	0.13097629
46	0x3d51ab5a	0.051188804
47	0x3e32881a	0.17434731
48	0x3e0d8a01	0.13822176
49	0x3bfa8444	0.007645162
50	0x3d11326c	0.035448477
51	0xbe1b5b70	-0.151716
52	0x3e8219cf	0.25410315
53	0x3dc832d1	0.097753175
54	0x3dd40455	0.10352389
55	0xbe2ad418	-0.1668247
56	0xbe6a00b5	-0.22851832
57	0xbe2da3bb	-0.1695699
58	0xbe36343d	-0.17793365
59	0xbd65ccfd	-0.056103695
60	0xbd30ee57	-0.04319605
61	0xbd7e621b	-0.06210528
62	0x3ea13934	0.31488955
63	0x3dc26414	0.09491745
64	0x3bcac7f6	0.006188388
65	0x3cda1ebf	0.026625989
66	0xbdf04b40	-0.11733103
67	0x3e8b9e6a	0.27269298
68	0x3d066431	0.032810394
69	0xbb296a8e	-0.0025850865
70	0xbd01e6bd	-0.03171419
71	0x3ebc8249	0.3681815
72	0x3c948e13	0.018134153
73	0xbdb8800f	-0.090088
74	0x3c91fad5	0.017819801
75	0xbc2a673d	-0.0104005905
76	0xbdb13726	-0.08653097
77	0x3eae1a33	0.34004363
78	0x3ced65ba	0.028979171
79	0x3dda4e1a	0.10659428
80	0xbdbb1224	-0.091343194
81	0x3e0c3284	0.13691145
82	0xbd424da1	-0.047437314
83	0x3e1395ab	0.14412563
84	0xbd20e076	-0.039276563
85	0xbc07ba3a	-0.008284146
86	0xbe0dd6dc	-0.13851494
87	0x3cffa90e	0.031208541
88	0xbe7746ee	-0.24148151
89	0xbcf4e0e9	-0.029892402
90	0x3e38fb46	0.18064603
91	0x3e85c192	0.26124245
92	0x3d59f254	0.053209618
93	0xbcc3b77a	-0.0238912
94	0x3ca98fd1	0.02069846
95	0xbd607285	-0.054796714
96	0xbdcd7929	-0.10032875
97	0x3e38ca8a	0.18046013
98	0xbbc8e816	-0.0061311824
99	0x3de0befb	0.10973927
100	0xbd8b2023	-0.06793239
101	0x3c0495dc	0.00809237
102	0x3dc80465	0.09766463
103	0x3e4189d6	0.18900236
104	0x3cc84c8e	0.024450567
105	0xbd29fa25	-0.041498322
106	0x3db38cff	0.08767127
107	0x3e4e1418	0.20124853
108	0x3dd084bc	0.10181567
109	0x3d4dc954	0.05024083
110	0x3da10ace	0.07863389
111	0xbdb266f2	-0.087110415
112	0x3e8c0932	0.27350765
113	0x3e275950	0.16342664
114	0xbd1db5c2	-0.038503416
115	0x3d9f1d82	0.077693
116	0xbd38f0ad	-0.0451514
117	0x3ea5346f	0.32266566
118	0x3e2cde34	0.16881639
119	0xbcfb3f2e	-0.030669775
120	0xbc4f5193	-0.012653726
121	0xbe46265e	-0.19350573
122	0x3e8a6fb6	0.27038354
123	0xbdcf18a9	-0.101121254
124	0xbdbbf6a4	-0.09177902
125	0x3db022cc	0.08600387
126	0xbdb8afc3	-0.09017899
127	0x3da758bc	0.081712216
128	0xbebb43b9	-0.36575106
129	0xbee0af71	-0.4388385
130	0xbee0ff50	-0.43944788
131	0xbe29e723	-0.16592078
132	0xbe141400	-0.14460754
133	0x3dc0c193	0.09411921
134	0x3df1ff1d	0.11816237
135	0x3df34a4d	0.11879406
136	0xbcaf94ef	-0.021433322
137	0x3dbfb753	0.09361138
138	0x3e2ca948	0.1686145
139	0x3c975f4d	0.01847806
140	0x3d6fecdc	0.058575496
141	0xbe4800b2	-0.19531515
142	0xbd96c0b2	-0.073609725
143	0x3c053b7d	0.008131859
144	0x3d916d7d	0.07100961
145	0x3d01cdab	0.03169028
146	0x3d87677c	0.06611535
147	0xbd5ef6d6	-0.05443462
148	0x3e7a9b64	0.2447334
149	0x3e0880cc	0.13330382
150	0xbdaa640c	-0.08319864
151	0x3e78a5d0	0.24282002
152	0xbda28b72	-0.07936753
153	0x3d421ad0	0.04738885
154	0xbeaf99f9	-0.3429716
155	0x3e79ab26	0.24381694
156	0x3c848895	0.016178409
157	0xbd7ae940	-0.0612576
158	0xbd53c987	-0.051705863
159	0x3c3fea50	0.011713579
160	0xbd56b3a6	-0.05241742
161	0xbd82d8a4	-0.06388977
162	0xbd81b750	-0.06333792
163	0xbd01b1a1	-0.03166354
164	0xbe06043f	-0.13087557
165	0x3d805828	0.062668145
166	0x3e4ffd21	0.20311405
167	0xbf8d91b8	-1.1060095
168	0xbe9b4c3a	-0.30331594
169	0xbe307fe3	-0.17236285
170	0x3d0848bf	0.0332725
171	0x3dfdc1cd	0.1239048
172	0xbb438bd6	-0.0029837987
173	0x3e2303d2	0.15919426
174	0x3dc3ea1c	0.09566137
175	0xbddba7f6	-0.107253954
176	0xbda58a10	-0.08082974
177	0x3d5a4c63	0.053295504
178	0x3e5a83cc	0.21339339
179	0xbca9529f	-0.02066928
180	0x3d10ed84	0.035382763
181	0x3def0881	0.11671544
182	0xbd7e911a	-0.0621501
183	0x3e853cfb	0.26023087
184	0x3e8a6592	0.27030617
185	0x3bfa8894	0.007645676
186	0x3d181cd2	0.03713686
187	0xbd40c32a	-0.047061123
188	0x3d1a5fe2	0.037689097
189	0x3cea3209	0.028588312
190	0xbd9ade80	-0.0756197
191	0xbd24e725	-0.0402595
192	0xbf4e6c41	-0.8063393
193	0x3d3f8702	0.046759613
194	0xbdfdc0e0	-0.123903036
195	0xbc2d0060	-0.010559171
196	0x3dca6de9	0.09884245
197	0xbe253bfa	-0.1613616
198	0x3e0d4f9d	0.13799901
199	0x3d9dd6b5	0.07706968
200	0xbdccec32	-0.10005988
201	0x3c06e286	0.008232718
202	0x3d9c975f	0.07646059
203	0x3d4a35b8	0.049367636
204	0x3cd84822	0.026401583
205	0xbeb2289d	-0.3479661
206	0xbd1526ea	-0.036414064
207	0xbd5cc094	-0.053894594
208	0xbd7a0ec9	-0.061049256
209	0x3dcda051	0.100403436
210	0x3d6b6c1f	0.05747616
211	0xbe6d0de6	-0.23149833
212	0xbd805a32	-0.062672034
213	0xbdf78175	-0.12085239
214	0xbdde3250	-0.1084944
215	0xbd9abe3c	-0.075558156
216	0x3dc5ea2a	0.09663804
217	0xbd48697e	-0.04892873
218	0x3e080745	0.13284023
219	0x3b08e70b	0.0020889665
220	0xbce84d17	-0.028357072
221	0x3e62ef0e	0.22161505
222	0xbcb38b0d	-0.02191689
223	0x3e22db7e	0.15904042
224	0x3e022848	0.12710679
225	0xbd0cc089	-0.034363303
226	0xbd8ecd8d	-0.069727995
227	0xbed389bd	-0.41316023
228	0x3d474c3f	0.0486567
229	0x3dca417a	0.0987577
230	0xbd6a271e	-0.05716621
231	0x3e123941	0.14279653
232	0xbd7ae656	-0.06125482
233	0x3da7ddae	0.08196579
234	0x3c8bfdee	0.017088857
235	0x3dbc4c32	0.091942206
236	0xbd9875e8	-0.07444364
237	0xc01d0d51	-2.4539378
238	0x3e2bc606	0.16774759
239	0x3ca577b6	0.020198684
240	0x3dc21505	0.094766654
241	0xbd116c66	-0.035503767
242	0xbdec3230	-0.1153301
243	0x3e46e36e	0.19422695
244	0x3e6b2953	0.22964983
245	0x3ebe1f79	0.37133387
246	0xbd95abcb	-0.073081575
247	0xbd4a504c	-0.049392983
248	0xbc4d5ac5	-0.012533848
249	0xbea38633	-0.31938323
250	0xbe99b95e	-0.30024236
251	0x3e736f0a	0.23772827
252	0xbdcaec26	-0.09908323
253	0x3decf8b1	0.115708716
254	0xbb857a62	-0.004073427
255	0xbd8a91fe	-0.06766127

deconv2.bias f4 [24]
0	0x3dcbf6df	0.09959196
1	0x3e1c7df5	0.15282424
2	0xbc0fd17d	-0.008777973
3	0x3d4e4082	0.05035449
4	0xbe59804a	-0.21240345
5	0x3bb8cd12	0.0056396807
6	0x3e299b1f	0.1656308
7	0xbdc633ea	-0.096778706
8	0xbdedcf29	-0.11611778
9	0x3e17493d	0.14774032
10	0x3d9c3fd1	0.076293595
11	0x3e4cb4d1	0.19990851
12	0xbbfed370	-0.00777667
13	0x3de670b5	0.11251966
14	0x3d57a3fc	0.052646622
15	0x3cf519be	0.029919501
16	0x3dacee97	0.08443945
17	0x3daa99c3	0.08330109
18	0xbb4e0ae0	-0.0031439587
19	0x3dd380ed	0.10327325
20	0x3e04d2bf	0.12971018
21	0xbe0ecf17	-0.13946186
22	0x3ca8facf	0.020627407
23	0xbd80c6d3	-0.06287923

deconv3.weight f4 [24, 1, 5]
0	0x3d9db772	0.07701005
1	0x3eea7971	0.45795777
2	0xbf0075b0	-0.50179577
3	0xbf109ca6	-0.56489027
4	0xbe46620e	-0.19373342
5	0x3e86851a	0.26273423
6	0x3e963cbd	0.29343215
7	0x3edf3803	0.4359742
8	0x3cc4616c	0.023972236
9	0xbd260588	-0.04053262
10	0x3e51dd03	0.20494466
11	0x3ea9f6cf	0.33196113
12	0x3eac6334	0.33669436
13	0x3d5f9947	0.054589536
14	0xbdc094e1	-0.094033964
15	0x3eb2e136	0.34937447
16	0x3efec258	0.49757648
17	0xbe409077	-0.18805109
18	0x3ea8668b	0.32890734
19	0x3ec86472	0.39139134
20	0x3f3774dd	0.71662694
21	0x3f70d42d	0.94073755
22	0x3e94f9ea	0.2909692
23	0x3d7da260	0.06192243
24	0x3e330ec2	0.17486098
25	0x3e913f1f	0.2836847
26	0x3e6dae7d	0.23211093
27	0x3e313a2c	0.17307347
28	0x3ea36fc2	0.31921202
29	0x3eaedb9f	0.34151933
30	0xbcaf41d2	-0.02139369
31	0xbeafa348	-0.3430426
32	0xbef157cb	-0.47137293
33	0xbf399c69	-0.7250429
34	0xbeb087fc	-0.34478748
35	0xbdff0d60	-0.12453723
36	0xbec1cd8f	-0.3785214
37	0xbeba3a0f	-0.3637242
38	0xbecd8273	-0.40138587
39	0xbedc494a	-0.43024665
40	0xbe84fc11	-0.2597356
41	0x3e04c0a5	0.12964113
42	0xbedb7897	-0.4286544
43	0x3db17bd2	0.08666195
44	0x3ecf549f	0.40494248
45	0xbde8b6fc	-0.113630265
46	0xba9ac106	-0.0011806793
47	0x3f04c0c6	0.5185665
48	0x3eea34c7	0.4574339
49	0x3f0067bd	0.5015829
50	0xbe80281e	-0.25030607
51	0x3f069600	0.5257263
52	0x3e474459	0.19459666
53	0x3eba3769	0.363704
54	0x3e113638	0.14180839
55	0xbe1600e8	-0.14648783
56	0xbea66ba4	-0.32503998
57	0xbf176467	-0.59137577
58	0xbf10f494	-0.56623197
59	0xbdcf8ed5	-0.10134665
60	0x3c670c0e	0.014101995
61	0x3e73e96d	0.23819514
62	0x3e971820	0.29510593
63	0x3eaf5ea8	0.34251904
64	0x3d661bee	0.05617898
65	0x3d64221e	0.0556966
66	0xbe09bccb	-0.13450925
67	0x3ed1cc0d	0.4097599
68	0xbe084b81	-0.13310052
69	0x3e9fb048	0.3118918
70	0xbebd3132	-0.36951596
71	0xbf3bb29b	-0.73319405
72	0x3e2c82e0	0.168468
73	0x3b81b1b5	0.003957952
74	0xbe013bb4	-0.12620431
75	0x3e6ca7b8	0.23110855
76	0xbe54de11	-0.20787837
77	0x3f05646a	0.52106345
78	0x3e3ad6ef	0.18246053
79	0x3e76d550	0.2410481
80	0x3d794cf2	0.060864396
81	0xbcdaea26	-0.026722979
82	0xbdd97d34	-0.10619584
83	0x3ed84855	0.42242685
84	0xbe5caf13	-0.2155116
85	0xbecd9f49	-0.40160587
86	0xbf1145ce	-0.5674714
87	0xbebc7858	-0.36810565
88	0xbebbddb5	-0.36692587
89	0xbda1754e	-0.07883702
90	0x3e9dfedc	0.30858505
91	0x3e9150f5	0.28382078
92	0x3d6fa864	0.0585102
93	0xbc4e9f19	-0.012611174
94	0xbecf4515	-0.40482393
95	0xbe5480f6	-0.2075232
96	0x3ee6fe72	0.45116
97	0x3dbaebd8	0.09127015
98	0x3e8146d5	0.25249353
99	0x3db23222	0.08700968
100	0xbd07d819	-0.03316507
101	0xbf2f1a21	-0.68399245
102	0xbda22c90	-0.07918656
103	0x3eaab058	0.33337665
104	0xbd6c8995	-0.057748396
105	0xbd5a7cbb	-0.05334161
106	0xbe8b488a	-0.2720378
107	0xbee1f530	-0.44132376
108	0x3e74f3c3	0.23921113
109	0x3f149b6d	0.5804966
110	0x3eb2ebf6	0.3494565
111	0x3d4039c1	0.04693008
112	0x3eb8facf	0.36128852
113	0x3dd22667	0.10261231
114	0x3d648883	0.05579425
115	0x3d913f9a	0.07092209
116	0xbde628fd	-0.11238287
117	0x3f371be5	0.7152694
118	0xbe4df94d	-0.20114632
119	0xbed4ea92	-0.41585213
