models/multi_resolutionv2/SNN_Autoencoder_tsri_320g.pth (torch, 25395 bytes, 11 tensors)

encoder_conv1.weight f4 [24, 1, 5]
0.37010312 0.4061316 0.5397497 -0.059925232 0.033518787 0.0043700575 -0.16115865 -0.104545176
-0.14058541 0.47396827 0.1494194 0.99504113 0.36215726 -0.21579695 -0.18147306 0.5258748
-0.025880031 0.35790008 0.6589694 0.15219676 -0.3740153 0.1139732 -0.017048657 0.14062867
-0.2285979 0.47596377 0.45586175 0.20390153 0.45625097 0.44063947 -0.13747127 -0.06935708
0.46017134 0.5199062 0.059476536 0.35635453 0.32566544 0.5611908 -0.23481034 0.2092204
0.12572978 0.41066822 0.4324808 0.012015241 0.6446442 -0.3460833 0.22525822 0.46019906
0.18446806 0.44670957 0.3729425 0.30845648 0.10401265 0.29340693 -0.18343353 -0.27323934
0.21556975 -0.41514143 -0.40814528 -0.020362375 0.4229878 0.01843209 -0.37287664 0.33620414
-0.039815437 -0.20275171 0.3516287 -0.17161839 0.07276853 0.46128014 -0.15171368 0.29766625
0.065199584 -0.14798744 0.11072288 -0.22593467 -0.049569603 0.05459885 -0.15738702 -0.15108722
0.84249073 -0.047706418 -0.14006865 0.49189496 0.11144479 -0.07059871 0.27199 0.348647
0.6729271 -0.12859306 0.34714487 0.46168706 0.26546392 0.2662857 0.3379024 0.008541347
0.8844031 0.09455313 -0.06557882 -0.020172095 0.053830925 0.036053248 0.63469684 0.006696532
-0.19268721 -0.12625894 0.6062298 0.25688955 0.45008203 0.44806108 0.28898126 0.15877283
-0.020560492 0.14137064 0.42578816 -0.3609985 -0.15261318 -0.16375373 0.12530163 -0.33923957
00000000: 287e bd3e 7bf0 cf3e 092d 0a3f 2974 75bd
00000010: ff4a 093d b332 8f3b c606 25be c81b d6bd
00000020: 9ff5 0fbe f8ab f23e 6601 193e 04bb 7e3f
00000030: ad6c b93e e0f9 5cbe 13d4 39be bb9f 063f
00000040: 5c02 d4bc ae3e b73e 38b2 283f 78d9 1b3e
00000050: ef7e bfbe c86a e93d a0a9 8bbc f600 103e
00000060: 9115 6abe 86b1 f33e b666 e93e 90cb 503e
00000070: ba99 e93e 7f9b e13e 45c5 0cbe 160b 8ebd
00000080: 949b eb3e 9318 053f ab9d 733d 1a74 b63e
00000090: 9fbd a63e 33aa 0f3f 1f72 70be df3d 563e
000000a0: 4fbf 003e 1b43 d23e 206e dd3e 93db 443c
000000b0: 6707 253f d531 b1be 17aa 663e 369f eb3e
000000c0: 32e5 3c3e 1eb7 e43e 52f2 be3e 02ee 9d3e
000000d0: 9604 d53d 6f39 963e 00d6 3bbe 07e6 8bbe
000000e0: 51be 5c3e 6b8d d4be 6bf8 d0be ffce a6bc
000000f0: db91 d83e e5fe 963c b0e9 bebe f322 ac3e
00000100: 8315 23bd 259e 4fbe ad08 b43e bbbc 2fbe
00000110: ab07 953d e92c ec3e d55a 1bbe b667 983e
00000120: 5c87 853d 058a 17be adc2 e23d 6b5b 67be
00000130: 7f09 4bbd 0ba3 5f3d 102a 21be 9cb6 1abe
00000140: 79ad 573f ce67 43bd 286e 0fbe a8d9 fb3e
00000150: 2b3d e43d 0e96 90bd 4642 8b3e dc81 b23e
00000160: f344 2c3f e6ad 03be f9bc b13e 3f62 ec3e
00000170: e3ea 873e 9956 883e 8b01 ad3e 02f1 0b3c
00000180: 3e68 623f 12a5 c13d 304e 86bd f33f a5bc
00000190: d17d 5c3d 92ac 133d 7e7b 223f 956e db3b
000001a0: cc4f 45be 064a 01be e031 1b3f 0787 833e
000001b0: 2771 e63e 4368 e53e 5af5 933e 5895 223e
000001c0: 7a6e a8bc 77c3 103e e800 da3e ccd4 b8be
000001d0: a146 1cbe 0faf 27be 124f 003e cfb0 adbe

encoder_conv1.bias f4 [24]
0.13520099 0.37415865 0.006436759 -0.14752369 -0.2364921 -0.3523806 0.1324428 -0.074493274
-0.14270487 -0.033349603 0.05799166 -0.20840798 0.2987515 0.30517706 0.37723207 0.3629098
-0.072977535 0.11940397 -0.044864595 0.23526005 0.36823082 -0.015765931 0.055840086 -0.35806873
00000000: 2172 0a3e b991 bf3e 73eb d23b 7310 17be
00000010: fc2a 72be 3b6b b4be 169f 073e ee8f 98bd
00000020: 3a21 12be 9899 08bd aa88 6d3d e768 55be
00000030: f5f5 983e 2b40 9c3e 9024 c13e 50cf b93e
00000040: 3f75 95bd 128a f43d f0c3 37bd 03e8 703e
00000050: c088 bc3e 8e27 81bc 93b8 643d c954 b7be

encoder_conv2.weight f4 [12, 24, 5]
0.081697494 -0.09995476 0.11446117 0.044318676 0.09751518 -0.15314396 0.06414441 0.12675416
0.36291972 0.26791888 -0.100771554 -0.31894502 -0.25057474 -0.036679722 0.10079335 -0.3247946
-0.21571477 -0.12525797 -0.13705206 -0.056520205 -0.080217384 0.0478213 0.018061414 0.049489096
-0.05153736 -0.3887147 -0.05159919 -0.10652617 -0.10687745 -0.14378193 -0.09533855 -0.008638063
0.11996612 0.23583257 0.12125143 -0.09554332 -0.06848533 -0.02808739 -0.14727409 0.020932084
-0.20100334 -0.038757727 -0.12050766 0.027405074 0.007759308 0.101088256 0.008099496 -0.1186604
-0.062356766 0.007915577 0.14707513 -0.086091876 0.18538064 0.08078218 -0.0023575083 -0.008771054
-0.0025243685 -0.06489754 -0.024433114 0.06839788 0.130516 -0.07950899 0.44388214 0.14364631
0.01521685 0.08372754 0.25396124 0.15971929 0.23612465 0.08621026 0.16796245 0.060605656
0.2058003 0.37683308 0.272256 0.19715475 0.25342315 0.42551488 0.5143546 0.4200637
-0.027438117 -0.107092254 0.12056437 -0.006893242 -0.13908465 0.072636314 -0.082430646 -0.04577097
0.011089818 0.015766801 -0.08309816 -0.14609383 -0.19242182 0.014818009 -0.114293516 -0.039657656
-0.02082741 0.2863487 0.17721735 -0.034924883 -0.01940999 0.063992694 0.12785672 0.26198635
0.17800236 -0.0925884 -0.14422376 -0.26561528 -0.17631428 -0.015610693 0.012528537 0.07534037
0.14247778 0.053319015 0.052822575 0.059972927 -0.077611454 -0.057461724 -0.040774863 -0.06577334
0.018180067 -0.0074114543 -0.05626534 0.084183775 0.08179839 0.04086652 -0.018248452 -0.333653
-0.34890664 -0.10697332 0.0518854 -0.094045304 -0.03298384 0.24756315 0.071942575 0.016324937
-0.1472686 -0.09170985 0.20540434 -0.09926844 0.021691509 -0.061014794 -0.045751344 -0.06598366
0.031999648 -0.019052502 -0.061675757 -0.12889753 0.10734124 -0.0023537928 -0.016087074 -0.1281762
-0.048056036 0.22003378 0.105975844 -0.02841272 0.00073952484 -0.1579578 0.07738164 0.09585393
-0.011072339 0.16002204 -0.12534262 0.16161479 -0.07397235 -0.10840779 -0.019387498 -0.11724101
0.21231626 0.088815145 0.092401624 -0.013778467 -0.10361949 0.18989222 0.041180365 0.079950616
0.00044052303 -0.05409785 -0.08782522 -0.052855477 0.05291366 -0.020382835 -0.018251903 -0.05060822
-0.17173001 0.012629701 0.07111949 0.026088884 -0.014258802 0.04796544 0.015297559 -0.009982479
-0.06623001 0.010289902 -0.013146565 0.011031617 -0.07504596 -0.08508944 -0.11415662 -0.03407445
0.20039499 -0.08223699 -0.085081175 -0.00065590354 -0.1954069 0.037008435 -0.029213004 -0.0075622383
0.3075192 -0.02595586 0.10807577 -0.055665165 -0.051244453 0.11876253 0.061558317 -0.0065175616
0.08215229 -0.017212499 0.20101205 0.053128812 0.07307556 0.101018004 -0.029703198 0.20349957
0.1035633 -0.045475855 0.0710954 0.11704102 0.29313266 -0.0018402307 -0.014499201 -0.11156036
-0.1146295 0.06519123 -0.048550945 0.0745901 -0.012843974 0.041922882 -0.017115317 0.012933731
0.1808283 0.1365185 -0.04596241 -0.03657578 0.08844592 -0.048172593 -0.38110495 -0.12693384
-0.08603566 -0.058262654 0.23486418 0.19945692 0.120778635 0.0058799386 0.024151765 -0.032747373
00000000: 0451 a73d 15b5 ccbd 9e6a ea3d 8087 353d
00000010: 0ab6 c73d c5d1 1cbe 255e 833d d8cb 013e
00000020: 9dd0 b93e aa2c 893e 5161 cebd c34c a3be
00000030: 554b 80be 7a3d 16bd be6c ce3d 7a4b a6be
00000040: 55e4 5cbe a043 00be 6057 0cbe bb81 67bd
00000050: 0349 a4bd 44e0 433d 88f5 933c 14b5 4a3d
00000060: d718 53bd 9d05 c7be ac59 53bd 652a dabd
00000070: 91e2 dabd 923b 13be dc40 c3bd aa86 0dbc
00000080: ccb0 f53d 187e 713e ab52 f83d 37ac c3bd
00000090: 0942 8cbd 8717 e6bc 05cf 16be c379 ab3c
000000a0: d2d3 4dbe 6cc0 1ebd b8cc f6bd 9b80 e03c
000000b0: cb41 fe3b 5c07 cf3d c0b3 043c 3904 f3bd
000000c0: cf69 7fbd 56b0 013c dd9a 163e f050 b0bd
000000d0: 6cd4 3d3e 2171 a53d 6d80 1abb 78b4 0fbc
000000e0: e06f 25bb 00e9 84bd f427 c8bc 3014 8c3d
000000f0: fca5 053e 9cd5 a2bd 8544 e33e 0518 133e
00000100: 1850 793c 5879 ab3d 3507 823e 748d 233e
00000110: a9ca 713e 018f b03d 59fe 2b3e a33d 783d
00000120: 50bd 523e 44f0 c03e 2365 8b3e efe2 493e
00000130: aec0 813e 16dd d93e beac 033f 9712 d73e
00000140: e7c5 e0bc 2f53 dbbd 74ea f63d b4e0 e1bb
00000150: 356c 0ebe 59c2 943d 66d1 a8bd 577a 3bbd
00000160: 11b2 353c 6129 813c 5e2f aabd 9f99 15be
00000170: 3a0a 45be 3cc7 723c b812 eabd 1170 22bd
00000180: 3f9e aabc 4c9c 923e 7778 353e 650d 0fbd
00000190: b301 9fbc 9a0e 833d dfec 023e 1323 863e
000001a0: 4046 363e fd9e bdbd 65af 13be bafe 87be
000001b0: bb8b 34be fec3 7fbc 7e44 4d3c 0d4c 9a3d
000001c0: b2e5 113e 0a65 5a3d 7c5c 583d 2ca6 753d
000001d0: c1f2 9ebd fc5c 6bbd 8b03 27bd 2cb4 86bd
000001e0: 5dee 943c c9db f2bb 7c76 66bd 8b68 ac3d
000001f0: ea85 a73d a763 273d c77d 95bc 91d4 aabe
00000200: e4a3 b2be d414 dbbd c985 543d d39a c0bd
00000210: 101a 07bd 3281 7d3e a156 933d e0bb 853c
00000220: 94cd 16be 60d2 bbbd 8455 523e 404d cbbd
00000230: 64b2 b13c a6ea 79bd c365 3bbd 7122 87bd
00000240: 1012 033d fe13 9cbc b89f 7cbd b7fd 03be
00000250: b9d5 db3d 1742 1abb 0ac9 83bc 9f40 03be
00000260: 68d6 44bd 8950 613e dd09 d93d cbc1 e8bc
00000270: acdc 413a b1bf 21be 447a 9e3d 114f c43d
00000280: c168 35bc d1dc 233e d159 00be 597e 253e
00000290: d17e 97bd e704 debd 88d2 9ebc 0e1c f0bd
000002a0: 6f69 593e b7e4 b53d 103d bd3d 14bf 61bc
000002b0: 7536 d4bd 1b73 423e beac 283d 26bd a33d
000002c0: 00f6 e639 b595 5dbd b5dd b3bd fc7e 58bd
000002d0: febb 583d e7f9 a6bc 0485 95bc 914a 4fbd
000002e0: fed9 2fbe ceec 4e3c 18a7 913d 5bb8 d53c
000002f0: c09d 69bc 6977 443d 9da2 7a3c 8d8d 23bc
00000300: 99a3 87bd fa96 283c b164 57bc f5bd 343c
00000310: b2b1 99bd 5f43 aebd f2ca e9bd a791 0bbd
00000320: 5834 4d3e de6b a8bd 0a3f aebd f1f0 2bba
00000330: bf18 48be 2896 173d 1c50 efbc a7cc f7bb
00000340: 2873 9d3e 62a1 d4bc d456 dd3d 2801 64bd
00000350: b4e5 51bd c539 f33d 9324 7c3d 4591 d5bb
00000360: 763f a83d 3a01 8dbc 1ad6 4d3e 999d 593d
00000370: a4a8 953d 87e2 ce3d 1f54 f3bc 3162 503e
00000380: ff18 d43d e444 3abd 779a 913d 34b3 ef3d
00000390: 7c15 963e e533 f1ba 0f8e 6dbc c279 e4bd
000003a0: dfc2 eabd fb82 853d 5bdd 46bd b2c2 983d
000003b0: 886f 52bc 54b7 2b3d 6c35 8cbc 00e8 533c
000003c0: 0e2b 393e 81cb 0b3e 1443 3cbd 7cd0 15bd
000003d0: 2223 b53d a050 45bd 3020 c3be f2fa 01be
000003e0: 7733 b0bd d2a4 6ebd 3c80 703e 6f3e 4c3e
000003f0: ca5a f73d 80ac c03b ecd9 c53c 1c22 06bd

encoder_conv2.bias f4 [12]
0.08140587 -0.027465291 0.111469574 0.020243151 0.19737934 0.036122154 -0.05594549 0.060575664
-0.02458773 0.0927791 -0.021494308 0.046376113
00000000: 1fb8 a63d e4fe e0bc 294a e43d f7d4 a53c
00000010: cf1d 4a3e d3f4 133d 1927 65bd 301e 783d
00000020: 356c c9bc f802 be3d d514 b0bc e1f4 3d3d

encoder_conv3.weight f4 [6, 12, 5]
-0.02220906 -0.0032563733 0.00030220146 0.122007236 -0.069964506 0.02343448 -0.09082966 0.1700692
-0.020951519 0.0371301 0.028849253 0.031525277 -0.22320785 -0.05034701 0.07766609 0.07320394
-0.0017375018 0.038312964 0.0037159575 0.074636996 -0.027407138 -0.055167265 0.20891593 -0.43819112
0.104265146 -0.02648837 0.062303755 0.24707064 0.03717558 0.14616406 0.10389777 -0.14878102
-0.06891848 -0.019126361 -0.0069236187 0.028139647 -0.017657248 0.0092853345 0.23469293 -0.0018655055
0.07862969 -0.23575625 -0.15999597 0.030802561 -0.009061291 0.045440827 -0.049432512 -0.46737555
-0.13115048 0.037679728 0.011736705 0.07833928 0.19132966 -0.022901138 0.076929286 0.022046234
0.3975891 0.2621094 -0.0004131092 0.057715334 0.03233998 -0.0149844205 0.12245401 0.16220573
0.20308019 0.018783165 -0.032490104 0.034781646 0.056992643 0.014548546 0.2989688 -0.018479042
-0.18920603 0.10853827 0.32328296 -0.15311298 -0.053253997 0.25294405 0.08758403 -0.0974088
0.19283275 -0.012860825 -0.21063823 0.15201731 0.362572 0.19657475 -0.043098293 -0.03464752
0.048090994 0.32335886 -0.0025756664 -0.22387046 0.093545616 0.25121137 -0.022936746 0.041910753
0.01977883 -0.11111836 0.094952345 0.18017986 0.02987927 -0.11792395 0.1404314 0.109461635
-0.012999538 0.02607592 -0.08893567 -0.041219752 0.11114577 0.08915466 -0.03344629 -0.060917113
0.15581085 0.04426852 -0.011394101 0.0018137698 -0.121255405 0.06848626 0.103065625 -0.010859583
-0.072954185 -0.024628978 -0.07834498 -0.03547526 -0.1386153 0.29006213 0.29918146 -0.13438623
0.04653449 0.0065789367 -0.018573796 0.13117993 -0.136831 0.13013904 0.3103822 0.03927561
0.014992443 0.073316455 -0.08255413 0.07380357 -0.015045799 -0.20254475 -0.064139366 0.10760353
0.13987368 -0.12168883 -0.16877483 -0.034931943 -0.029936075 0.3909083 0.31348476 -0.31791788
-0.0042252936 -0.3469628 0.06835493 0.036152884 -0.06877336 -0.22933225 0.1717778 0.21742332
0.3532288 0.2631826 0.13959283 -0.035367414 -0.012552723 0.0739814 0.074124426 0.16633695
-0.043303378 0.0032122808 0.043479342 0.061697207 0.05496386 -0.05135802 -0.1028678 0.04054467
0.0071578114 -0.025096405 -0.25882897 0.06079297 -0.047189713 -0.027644476 0.14394021 -0.08901407
-0.03869584 0.07660855 0.059507918 0.57565624 -0.10959911 -0.0038847185 -0.018944265 0.026931914
0.27444604 -0.082894415 0.068980716 0.03312387 0.031465672 0.111057796 -0.022825664 0.04481267
0.017740492 -0.08924179 -0.5338205 0.48993093 0.03182309 -0.07511226 0.022722082 0.24599747
0.06260346 0.018437512 0.0849267 0.113426834 0.17422919 0.046386044 0.038273476 0.02079147
-0.018273873 0.20828292 -0.20817704 0.08342493 0.08310493 0.011200137 0.013990461 -0.16386606
0.022571238 -0.0183105 0.025797226 -0.23350298 0.062114257 -0.004126143 0.01869399 0.07242194
-0.24273664 -0.043781135 -0.06728456 0.023458308 0.31481868 0.19048345 -0.21603876 -0.0013948409
-0.041462775 -0.05086976 -0.22951657 -0.09376803 -0.015476161 -0.056686424 -0.005393008 0.037359055
0.01689277 -0.00062966574 0.0075974683 0.028580181 -0.11656588 -0.08474345 -0.0502366 0.047887795
00000000: c6ef b5bc e168 55bb cb70 9e39 eede f93d
00000010: 8d49 8fbd abf9 bf3c e704 babd 9f26 2e3e
00000020: 85a2 abbc bb15 183d 4555 ec3c a620 013d
00000030: 9990 64be ab38 4ebd 660f 9f3d f3eb 953d
00000040: e3bc e3ba 0eee 1c3d 6c87 733b 48db 983d
00000050: ef84 e0bc 12f7 61bd 0fee 553e 965a e0be
00000060: f788 d53d 23fe d8bc 3932 7f3d 1600 7d3e
00000070: 6c45 183d 08ac 153e 5bc8 d43d 0d5a 18be
00000080: 2225 8dbd e3ae 9cbc 86df e2bb 1e85 e63c
00000090: efa5 90bc 8421 183c 5853 703e fa83 f4ba
000000a0: 9a08 a13d 166a 71be fcd5 23be a755 fc3c
000000b0: cf75 14bc 2920 3a3d bf79 4abd d94b efbe
000000c0: 504c 06be 0f56 1a3d 4f4b 403c 5870 a03d
000000d0: eceb 433e 2b9b bbbc 1a8d 9d3d 4e9a b43c
000000e0: cc90 cb3e 3433 863e 9496 d8b9 ea66 6c3d
000000f0: ed76 043d 3781 75bc 2bc9 fa3d 4219 263e
00000100: 41f4 4f3e 27df 993c 5814 05bd 3377 0e3d
00000110: 1e71 693d 065d 6e3c 7012 993e 5c61 97bc
00000120: 3abf 41be 5049 de3d 5885 a53e a6c9 1cbe
00000130: dd20 5abd e281 813e 425f b33d 447e c7bd
00000140: f375 453e 36b6 52bc 8cb1 57be 6daa 1b3e
00000150: 0aa3 b93e e44a 493e d687 30bd 8fea 0dbd
00000160: 10fb 443d 4b8f a53e 83cc 28bb 4c3e 65be
00000170: d894 bf3d c79e 803e d8e5 bbbc 9caa 2b3d
00000180: 3707 a23c 0692 e3bd 6076 c23d 1281 383e
00000190: 5fc5 f43c 1d82 f1bd 40cd 0f3e 6c2d e03d
000001a0: 04fc 54bc 2b9d d53c e823 b6bd 0bd6 28bd
000001b0: 65a0 e33d b896 b63d fafe 08bd 3984 79bd
000001c0: e18c 1f3e e852 353d 53ae 3abc 04bc ed3a
000001d0: c154 f8bd 8642 8c3d 1214 d33d 64ec 31bc
000001e0: 0169 95bd b6c2 c9bc 5573 a0bd 824e 11bd
000001f0: 2bf1 0dbe 0683 943e 502e 993e 8b9c 09be
00000200: f39a 3e3d 1f94 d73b 1328 98bc 0854 063e
00000210: 6d1d 0cbe 2b43 053e 6aea 9e3e 76df 203d
00000220: dda2 753c f026 963d 2412 a9bd 5326 973d
00000230: a882 76bc e467 4fbe 805b 83bd 3d5f dc3d
00000240: 0c3b 0f3e fe37 f9bd 4fd3 2cbe cc14 0fbd
00000250: 803c f5bc 2225 c83e 1381 a03e 22c6 a2be
00000260: 5574 8abb 1ca5 b1be abfd 8b3d 0c15 143d
00000270: 0cd9 8cbd 13d6 6abe 85e6 2f3e 38a4 5e3e
00000280: 68da b43e dfbf 863e 6cf1 0e3e 6cdd 10bd
00000290: f0a9 4dbc 8f83 973d 8cce 973d 3c54 2a3e
000002a0: e25e 31bd 2185 523b 6517 323d 36b6 7c3d
000002b0: c921 613d ca5c 52bd 5aac d2bd 2b12 263d
000002c0: 138c ea3b fa96 cdbc 3b85 84be 0d02 793d
000002d0: 004a 41bd ab76 e2bc 1065 133e 024d b6bd
000002e0: 877f 1ebd f2e4 9c3d 93be 733d 355e 133f
000002f0: 8075 e0bd c396 7ebb 0131 9bbc 51a0 dc3c
00000300: 3184 8c3e 8cc4 a9bd c345 8d3d e5ac 073d
00000310: 26e2 003d 4572 e33d e3fc babc 7e8d 373d
00000320: 8254 913c 66c4 b6bd 76a8 08bf 3ad8 fa3e
00000330: ee58 023d 75d4 99bd a923 ba3c c3e6 7b3e
00000340: 3e36 803d 440a 973c 0dee ad3d 544c e83d
00000350: 2369 323e 4bff 3d3d a6c4 1c3d df52 aa3c
00000360: 17b3 95bc 1e48 553e 5d2c 55be b1da aa3d
00000370: eb32 aa3d c880 373c 3f38 653c 81cc 27be
00000380: 51e7 b83c e7ff 95bc b454 d33c 681b 6fbe
00000390: 856b 7e3d 9934 87bb 2324 993c f451 943d
000003a0: f48f 78be d953 33bd 7dcc 89bd a32b c03c
000003b0: ea2f a13e 180e 433e 4439 5dbe 18d3 b6ba
000003c0: dfd4 29bd cf5c 50bd 6406 6bbe 7409 c0bd
000003d0: b98f 7dbc 0630 68bd d4b7 b0bb cf05 193d
000003e0: b562 8a3c 2710 25ba 2ff4 f83b fc20 ea3c
000003f0: 18ba eebd f98d adbd e5c4 4dbd fe25 443d

encoder_conv3.bias f4 [6]
0.50429994 0.31214347 0.16987593 0.14778902 0.2543723 0.17436267
00000000: cd19 013f 45d1 9f3e f5f3 2d3e 0156 173e
00000010: 163d 823e 218c 323e

deconv1.weight f4 [6, 12, 5]
-0.01840818 0.17895728 0.18689992 -0.023666944 0.055340398 0.03049421 0.14285015 0.23181957
-0.091098644 -0.004926631 0.028734883 -0.15332149 0.012665907 -0.13832797 0.0357023 0.072904974
0.19708563 0.028116852 -0.11562812 0.09312664 0.17252944 -0.119599506 0.056902956 -0.026152201
0.045546822 -0.059960958 0.19215274 -0.13180035 -0.079207495 -0.041310977 0.10256152 -0.15494236
-0.19956292 -0.13864589 0.05192213 -0.027790183 -0.028009795 0.18546835 0.4184149 -0.0008435113
-0.0443641 0.041656043 0.03299131 -0.10985578 -0.09272323 -0.031876035 -0.024712715 0.2934326
-0.21666366 0.06770028 0.031314116 -0.00869237 0.08355686 0.033834413 0.053799648 0.020735338
0.021498328 -0.23535874 -0.23948531 0.006415882 0.020600934 -0.37689796 0.37303373 0.2830653
-0.053562857 -0.13910136 -0.67025733 0.20759924 0.45326468 -0.035043925 0.041764714 -0.13640405
-0.08915361 -0.13795337 0.3389753 -0.1608344 -0.65036756 0.08930743 0.25934786 -0.13607918
-0.26196653 -0.43890816 0.57613033 0.15694043 -0.33093238 -0.056427 -0.4640006 -0.079945765
0.51882064 0.025959471 -0.18332542 -0.14396688 0.5805229 -0.09354472 -0.314919 0.0847553
0.0026143016 -0.7193936 0.12074868 0.30806985 0.16167302 -0.6607154 0.22967683 0.26265332
0.57089865 0.029580694 -0.03947624 -1.1333412 0.2529368 0.37001204 -0.08486024 0.0012685749
0.15003562 0.010620916 -0.26705536 0.068854 -0.043228608 -1.5808113 0.054366793 0.39686382
-0.058947213 0.013717917 0.006907759 -0.060207807 0.10225856 0.23422705 0.2953236 -0.09492203
-0.18053906 -0.055451486 0.031786267 -0.010210882 0.09736102 -0.114148825 0.09110476 0.182814
0.29710457 0.12135804 -0.12158192 -0.046181828 0.247496 -0.016407026 -0.07120295 -0.043181684
0.110630885 -0.10146772 -0.016403617 0.054863658 -0.2734249 -0.106579356 0.108668715 -0.109414235
0.045849208 -0.10273777 0.024363348 -0.034788232 -0.06562418 -0.09087936 0.017152034 0.109004796
-0.05326964 0.15244633 0.15778758 -0.10158145 -0.2858992 0.0072095254 -0.16878235 0.04470883
0.035506655 0.062808804 0.015824098 0.004295108 -0.01630143 -0.053052057 0.064958185 0.01263697
0.074769005 0.06326711 0.11519053 0.10046533 -0.038476963 0.063607745 0.13627444 -0.04957282
-0.0076201158 0.07692716 0.20015879 0.3747955 -0.18861437 0.0013490394 -0.011435707 -0.08402968
0.14705953 -0.118694134 -0.010913347 0.05278354 0.15633556 -0.12844117 -0.121481046 -0.026335113
0.095323116 0.02932827 0.15700634 -0.010502689 0.027671171 -0.053031374 0.16479477 -0.047428012
-0.036951393 0.013374509 0.05787881 -0.13856481 -0.25275543 -0.17871258 0.00887824 -0.015194913
-0.023155315 0.07525354 -0.07066808 0.013103317 -0.030110179 0.035779025 -0.2110524 -0.09649058
-0.048479903 0.009467918 -0.03771964 -0.27975962 0.3390215 -0.00059259863 0.004037288 -0.0047266134
0.0038212296 0.027361076 0.0023667503 -0.00013704442 0.013797789 0.04890379 -0.024071166 0.03696949
-0.024246966 0.023796536 0.3049003 -0.010706176 -0.046264425 -0.05374109 0.06360708 0.05309622
-0.0038980092 0.017382687 0.006809006 -0.11252976 0.26332325 -0.027360475 0.007962374 -0.0046418435
00000000: c0cc 96bc 9440 373e b162 3f3e 2ee1 c1bc
00000010: 9dac 623d fece f93c 4f47 123e 1c62 6d3e
00000020: ed91 babd 946f a1bb 6b65 eb3c 4f00 1dbe
00000030: aa84 4f3c d9a5 0dbe 933c 123d 344f 953d
00000040: d1d0 493e 5055 e63c 70ce ecbd 2eb9 be3d
00000050: 8fab 303e 96f0 f4bd 1313 693d 243d d6bc
00000060: 4e8f 3a3d 9f99 75bd b0c3 443e acf6 06be
00000070: 8a37 a2bd b335 29bd c60b d23d 36a9 1ebe
00000080: 395a 4cbe 30f9 0dbe 4dac 543d 3da8 e3bc
00000090: cc74 e5bc 6aeb 3d3e 7a3a d63e 161f 5dba
000000a0: 21b7 35bd 879f 2a3d e521 073d 11fc e0bd
000000b0: ade5 bdbd 7290 02bd 5272 cabc cc3c 963e
000000c0: 14dd 5dbe 72a6 8a3d 3b43 003d 716a 0ebc
000000d0: dc1f ab3d f495 0a3d 055d 5c3d 28dd a93c
000000e0: 431d b03c e201 71be a33b 75be 523c d23b
000000f0: 4ac3 a83c c5f8 c0be 47fe be3e efed 903e
00000100: ba64 5bbd 9670 0ebe fc95 2bbf e594 543e
00000110: 4f12 e83e 388a 0fbd 7a11 2b3d 81ad 0bbe
00000120: 2b96 b6bd a643 0dbe 2c8e ad3e c6b1 24be
00000130: 7d7e 26bf d0e6 b63d 3ec9 843e 5758 0bbe
00000140: 7a20 86be 92b8 e0be 477d 133f feb4 203e
00000150: f86f a9be ff1f 67bd 7d91 edbe 9bba a3bd
00000160: 6ed1 043f f5a8 d43c a9b9 3bbe 0e6c 13be
00000170: 269d 143f 6094 bfbd 103d a1be 3094 ad3d
00000180: b454 2b3b 2e2a 38bf 154b f73d 55bb 9d3e
00000190: 9d8d 253e a524 29bf 6730 6b3e 7f7a 863e
000001a0: 6a26 123f 3653 f23c d6b1 21bd 5311 91bf
000001b0: ef80 813e 3872 bd3e 35cb adbd 4f46 a63a
000001c0: f0a2 193e 5a03 2e3c 7bbb 88be 5303 8d3d
000001d0: 7b10 31bd 0658 cabf b7af 5e3d bc31 cb3e
000001e0: a272 71bd 1dc1 603c 7b5a e23b 769c 76bd
000001f0: f06c d13d 37d9 6f3e a834 973e 7b66 c2bd
00000200: 3bdf 38be 1921 63bd 5132 023d 8b4b 27bc
00000210: 3765 c73d dcc6 e9bd 2295 ba3d 9833 3b3e
00000220: 171e 983e 908a f83d f1ff f8bd 2829 3dbd
00000230: 976f 7d3e 0768 86bc dad2 91bd 47df 30bd
00000240: 7292 e23d 4fce cfbd e160 86bc b7b8 603d
00000250: 59fe 8bbe 4746 dabd b48d de3d 9214 e0bd
00000260: 61cc 3b3d 2e68 d2bd a595 c73c 1b7e 0ebd
00000270: f865 86bd f51e babd 6c82 8c3c e83d df3d
00000280: 4431 5abd e41a 1c3e 1193 213e ef09 d0bd
00000290: 6161 92be e23d ec3b 48d5 2cbe 9b20 373d
000002a0: 6d6f 113d e7a1 803d 8aa1 813c fabd 8c3b
000002b0: 948a 85bc 1d4d 59bd cc08 853d 4b0b 4f3c
000002c0: 7e20 993d 3092 813d 03e9 eb3d c4c0 cd3d
000002d0: 059a 1dbd c744 823d 878b 0b3e df0c 4bbd
000002e0: 2ab2 f9bb fd8b 9d3d 6df6 4c3e 32e5 bf3e
000002f0: 2024 41be 40d2 b03a d55c 3bbc c117 acbd
00000300: c696 163e e915 f3bd e5cd 32bc 8e33 583d
00000310: 6e16 203e 1586 03be 0ecb f8bd bcbc d7bc
00000320: c438 c33d d741 f03c 45c6 203e 7813 2cbc
00000330: a7ae e23c 6d37 59bd f6bf 283e e043 42bd
00000340: 585a 17bd c220 5b3c 5512 6d3d efe3 0dbe
00000350: 2969 81be 6e00 37be 0a76 113c 16f4 78bc
00000360: 37b0 bdbc 871e 9a3d 6dba 90bd 4baf 563c
00000370: 9fa9 f6bc 078d 123d 1f1e 58be da9c c5bd
00000380: dd92 46bd 541f 1b3c e97f 1abd a73c 8fbe
00000390: 3a94 ad3e 9f58 1bba 3a4b 843b b5e1 9abb
000003a0: 986d 7a3b 5624 e03c 7b1b 1b3b 95b3 0fb9
000003b0: 1f10 623c 574f 483d e530 c5bc 526d 173d
000003c0: 93a1 c6bc f4f0 c23c e41b 9c3e f568 2fbc
000003d0: c47f 3dbd 9e1f 5cbd 6e44 823d 6c7b 593d
000003e0: be75 7fbb 2366 8e3c 151e df3b 0176 e6bd
000003f0: 4ed2 863e 1323 e0bc 9e74 023c 9b1a 98bb

deconv1.bias f4 [12]
-0.083277 -0.16200285 0.10763811 0.0074341386 -0.047449335 -0.30058238 0.007381378 0.051980596
0.09179447 -0.06355535 0.2139609 0.308687
00000000: 228d aabd 13e4 25be 5f71 dc3d 139a f33b
00000010: 3c5a 42bd efe5 99be 7ddf f13b 9be9 543d
00000020: bdfe bb3d 4f29 82bd 9118 5b3e 390c 9e3e

deconv2.weight f4 [12, 24, 5]
-0.019878525 0.06959655 0.1031163 0.05989245 0.07413461 -0.03525073 0.006814152 0.5649645
0.02392354 -0.07975856 0.026123838 0.008289285 -0.2977359 -0.016865961 0.27882928 -0.0054657278
0.072303675 -0.04799567 -0.02376875 -0.044327773 0.075693205 -0.06004467 0.01407481 0.05613091
-0.038406108 -0.10474288 -0.03196818 -0.5690369 0.17871922 -0.027927818 -0.0034730618 -0.12784094
-0.094312295 0.028610844 -0.007562603 -0.30239254 -0.03816742 0.16869369 -0.07792113 -0.08519023
-0.042372596 0.04470212 0.14649536 0.19811386 -0.055737354 0.012290554 0.0963083 0.07321263
0.0006927739 -0.0068626134 0.0012473371 -0.14022364 -0.16413385 0.0019178838 -0.2565607 0.0371873
0.01867544 0.05627177 -0.049768273 0.022593906 -0.05685372 -0.20988385 0.047222525 -0.119012095
0.16286089 -0.04178491 -0.07896022 -0.086869895 -0.19222356 -0.22439781 -0.09798654 -0.08618166
0.15106632 -0.08237547 0.035838038 -0.009823525 0.022731487 -0.33971342 0.044938184 -0.3379815
0.00012689858 0.0016197357 0.16564867 0.03389009 0.09969816 -0.17980205 -0.0048470944 0.10532781
-0.0012228247 -0.1112162 -0.033932056 0.022387652 0.09554337 -0.10814141 0.03910887 0.023514388
-0.023434844 0.27693337 -0.090664886 0.00865947 0.07382925 -0.16614892 0.064847775 0.0015645082
0.13716906 0.0064436896 0.05825103 -0.11862723 -0.14536212 0.12496812 0.043147594 -0.088226564
-0.0649801 0.08984423 0.0117091285 0.007934305 0.049021076 0.17321837 0.060914762 -0.15953967
-0.0909259 -0.026627716 0.04054717 0.2752026 0.091971725 -0.08626896 -0.0060366914 -0.104246825
-0.06769829 -0.034800515 -0.13710912 0.037213676 -0.21080784 0.08023238 -0.027443333 -0.094086476
0.071794644 -0.033124566 -0.007405013 -0.0047694203 -0.090772845 -0.08124282 -0.068330795 0.28782684
0.07714716 0.10640884 0.046821173 0.022425974 -0.029590193 0.012799454 0.05450933 0.025231872
0.08099596 -0.097011864 -0.031958934 -0.06639535 -0.058252178 -0.18330835 0.3937634 0.16447644
0.034863465 0.087034345 -0.22477978 -0.042167604 -0.0012480367 0.03617167 -0.06736635 -0.052319337
0.46004304 0.083529584 -0.0029047765 0.06759424 0.0974279 -0.18698321 0.061005417 0.10208761
0.06896405 0.02732533 -0.032573413 0.08264445 0.1499891 -0.060675025 -0.08851048 -0.102007486
-0.10882022 0.020739483 -0.004745118 0.15784498 -0.22973013 0.14404589 -0.060437746 -0.00092176464
-0.10206336 0.052626997 0.047807686 0.104608685 -0.07956694 0.010091281 0.03732439 -0.059197154
0.013741105 -0.11723302 -0.05716607 0.067133375 -0.000827556 0.1522131 0.06755772 0.079399176
-0.08527264 -0.055875164 0.01311288 0.043688163 -0.011875172 0.1992988 -0.02511368 0.04544578
0.030698068 0.14266285 0.3443403 -0.05827745 -0.12262092 0.040022954 0.08428869 0.09486624
0.22073436 0.016661717 -0.048597004 -0.102758616 0.00042052215 -0.06984868 0.06541994 -0.4836416
-0.1727751 0.069094904 0.16924055 0.016509516 0.113555305 -0.054321814 0.23211403 0.13655268
0.09197925 -0.03958154 0.0050973953 0.039676707 0.0066726 0.058959123 -0.07007028 0.30640116
-0.037362605 -0.017500252 -0.10339999 0.05705787 -0.09200972 0.011445086 0.08809711 -0.06740198
00000000: 4ad8 a2bc a388 8e3d a42e d33d c951 753d
00000010: e3d3 973d 1263 10bd 4049 df3b 83a1 103f
00000020: 4dfb c33c 7558 a3bd a901 d63c c8cf 073c
00000030: d770 98be 7c2a 8abc b6c2 8e3e d919 b3bb
00000040: f313 943d 1c97 44bd aeb6 c2bc 0a91 35bd
00000050: 0a05 9b3d 66f1 75bd 089a 663c 86e9 653d
00000060: b94f 1dbd 6f83 d6bd 11f1 02bd 67ac 11bf
00000070: 2c02 373e e1c8 e4bc 4f9c 63bb bce8 02be
00000080: ce26 c1bd 4a61 ea3c b6cf f7bb 32d3 9abe
00000090: 7155 1cbd 0abe 2c3e 1d95 9fbd 3778 aebd
000000a0: e38e 2dbd 9219 373d e102 163e 5cde 4a3e
000000b0: da4c 64bd 525e 493c 493d c53d 81f0 953d
000000c0: 459b 353a c6df e0bb b07d a33a c996 0fbe
000000d0: b412 28be 8061 fb3a ed5b 83be b651 183d
000000e0: 3dfd 983c 3a7d 663d d1d9 4bbd db16 b93c
000000f0: 72df 68bd cbeb 56be 686c 413d 9dbc f3bd
00000100: 01c5 263e a726 2bbd e5b5 a1bd d8e8 b1bd
00000110: 41d6 44be 8ac8 65be 2bad c8bd 0380 b0bd
00000120: 21b1 1a3e 78b4 a8bd e8ca 123d daf2 20bc
00000130: 6237 ba3c ebee adbe 1a11 383d e90b adbe
00000140: 1410 0539 504d d43a ce9f 293e 56d0 0a3d
00000150: 8d2e cc3d 071e 38be 60d4 9ebb 1bb6 d73d
00000160: 3047 a0ba 52c5 e3bd 57fc 0abd 4f66 b73c
00000170: 3eac c33d 3e79 ddbd 9f30 203d 3fa1 c03c
00000180: 6efa bfbc 36ca 8d3e 83ae b9bd 73e0 0d3c
00000190: ca33 973d f122 2abe e9ce 843d 2f10 cd3a
000001a0: 0c76 0c3e 9625 d33b a298 6e3d d5f2 f2bd
000001b0: cfd9 14be 49ef ff3d 88bb 303d 21b0 b4bd
000001c0: 4914 85bd 4000 b83d a5d7 3f3c e3fe 013c
000001d0: 53ca 483d 2860 313e c281 793d 5e5e 23be
000001e0: 5c37 babd 5e22 dabc ca14 263d 5be7 8c3e
000001f0: ac5b bc3d c8ad b0bd 70cf c5bb 5c7f d5bd
00000200: 67a5 8abd fc8a 0ebd 5566 0cbe 5e6d 183d
00000210: 03de 57be e050 a43d d7d0 e0bc 69b0 c0bd
00000220: 1209 933d a0ad 07bd c0a5 f2bb cc48 9cbb
00000230: 1de7 b9bd a362 a6bd 04f1 8bbd 0a5e 933e
00000240: 55ff 9d3d e1ec d93d 8fc7 3f3d adb6 b73c
00000250: 2267 f2bc cdb4 513c 2d45 5f3d 12b3 ce3c
00000260: 36e1 a53d 28ae c6bd 5fe7 02bd 49fa 87bd
00000270: d699 6ebd 2fb5 3bbe 5b9b c93e 836c 283e
00000280: fecc 0e3d 103f b23d ac2c 66be f0b7 2cbd
00000290: 2a95 a3ba bf28 143d 5ef7 89bd cd4c 56bd
000002a0: c38a eb3e 8f11 ab3d 105e 3ebb d96e 8a3d
000002b0: 4788 c73d 8778 3fbe d1e0 793d 4f13 d13d
000002c0: 063d 8d3d 5fd9 df3c b36b 05bd 7e41 a93d
000002d0: be96 193e 6086 78bd fc44 b5bd 4de9 d0bd
000002e0: 23dd debd d9e5 a93c ef7c 9bbb 1da2 213e
000002f0: 603e 6bbe c480 133e 928d 77bd 94a2 71ba
00000300: 9806 d1bd 688f 573d fed1 433d 143d d63d
00000310: fef3 a2bd e655 253c 76e1 183d b778 72bd
00000320: 5f22 613c de17 f0bd f826 6abd 397d 893d
00000330: 58f0 58ba c0dd 1b3e b45b 8a3d 099c a23d
00000340: 6ca3 aebd 5bdd 64bd 68d7 563c 5cf2 323d
00000350: 1590 42bc fc14 4c3e 34bb cdbc 5b25 3a3d
00000360: 847a fb3c 3616 123e 5f4d b03e 56b4 6ebd
00000370: ad20 fbbd 1cef 233d 8c9f ac3d 3b49 c23d
00000380: 3008 623e 277e 883c a70d 47bd 1c73 d2bd
00000390: 8779 dc39 d30c 8fbd e4fa 853d df9f f7be
000003a0: f5eb 30be a181 8d3d 654d 2d3e f73e 873c
000003b0: af8f e83d 8d80 5ebd 4daf 6d3e 77d4 0b3e
000003c0: 9e5f bc3d 4120 22bd 0d08 a73b 0b84 223d
000003d0: d3a5 da3b 1f7f 713d 0281 8fbd 9de0 9c3e
000003e0: 8809 19bd b05c 8fbc 60c3 d3bd 83b5 693d
000003f0: 986f bcbd 2c84 3b3c 426c b43d 0d0a 8abd

deconv2.bias f4 [24]
0.1104928 -0.18156545 0.038544472 -0.13444497 -0.13832164 0.058371793 -0.0051289997 0.061030883
0.051192224 0.12317367 0.01433588 -0.0045098807 0.0020285042 -0.0107370205 -0.02238612 -0.0010576576
0.011534711 0.03288469 0.03755683 0.048319407 0.0642798 -0.0044039963 -1.2091099e-05 -0.0045854817
00000000: 0d4a e23d 4bec 39be cfe0 1d3d f1ab 09be
00000010: 30a4 0dbe 4317 6f3d 2b11 a8bb 85fb 793d
00000020: f0ae 513d 7a42 fc3d 0ae1 6a3c 9fc7 93bb
00000030: a7f0 043b 54ea 2fbc 1963 b7bc 1aa1 8aba
00000040: 16fc 3c3c 19b2 063d 31d5 193d 92ea 453d
00000050: 21a5 833d 664f 90bb e0da 4ab7 cf41 96bb

deconv3.weight f4 [24, 1, 5]
0.40159485 0.24969585 0.20952454 0.30426952 0.21738258 0.0011043937 1.3309174 0.18424079
-0.061852124 -0.3432455 -0.40989378 -0.020071235 -0.1503481 -0.14005452 0.09897949 -0.13581164
1.1703396 0.2260383 0.56677514 0.0023256892 -0.4835552 0.32858822 0.25277317 0.650084
0.19108643 0.28127813 0.60142356 0.13180201 0.1182776 0.5007015 0.2961042 -0.4479005
-0.20494375 -0.17748636 0.06899849 0.2256739 0.18641457 0.3576262 -0.03781001 0.038075246
-0.03505945 -0.14668292 0.33004016 -0.11038352 0.22486083 0.095787205 0.44017676 0.48594895
0.45562547 -0.037228666 -0.0010518751 -0.4520238 -0.18231541 -0.29349047 0.29855904 -0.38600713
0.81243104 0.27345094 -0.3756713 -0.389913 0.043512415 -0.46872014 -0.46321303 0.09282973
-0.40225235 -0.37584764 -0.09161904 -0.23972444 -0.14646508 -0.24430835 -0.17142852 -0.40190065
1.3533167 0.018436905 0.15862311 0.49613637 0.10589776 0.18452795 0.38179445 0.45012683
-0.18719202 -0.09314284 0.046250608 0.51296043 -0.29151285 0.6003871 -0.028424753 0.04953752
0.40128246 0.07722511 -0.25062904 0.0003876941 0.12840545 0.42623925 -0.1482697 -0.2703459
0.32914132 -0.13050154 -0.10520742 0.14224544 -0.1968158 -0.40791196 0.12218182 0.25083244
0.033752143 -0.03992328 -0.43658042 -0.14777033 0.33852285 0.5096508 -0.2352733 0.02047939
-0.017702565 -0.39072174 -0.03843023 0.15292965 0.4308461 0.41861278 -0.33595693 0.0073105665
00000000: d79d cd3e 45b0 7f3e 9a8d 563e 37c9 9b3e
00000010: 8a99 5e3e 4ec1 903a 805b aa3f 9ea9 3c3e
00000020: a758 7dbd e0bd afbe 99dd d1be 6e6c a4bc
00000030: daf4 19be 746a 0fbe c2b5 ca3d 3512 0bbe
00000040: b0cd 953f 9676 673e 2d18 113f 976a 183b
00000050: 8c94 f7be b73c a83e 7c6b 813e e86b 263f
00000060: 29ac 433e b003 903e e5f6 193f 1bf7 063e
00000070: 873b f23d f92d 003f f89a 973e 3753 e5be
00000080: c6dc 51be fcbe 35be 154f 8d3d 0f17 673e
00000090: 76e3 3e3e c81a b73e abde 1abd caf4 1b3d
000000a0: 7f9a 0fbd 0c34 16be 06fb a83e c110 e2bd
000000b0: eb41 663e 152c c43d d95e e13e 4dce f83e
000000c0: be47 e93e 167d 18bd 12df 89ba aa6f e7be
000000d0: e4b0 3abe 6244 96be bbdc 983e baa2 c5be
000000e0: 7bfb 4f3f c301 8c3e fd57 c0be ada2 c7be
000000f0: 133a 323d 16fc efbe 422a edbe 831d be3d
00000100: 05f4 cdbe 1a6f c0be c3a2 bbbd 537a 75be
00000110: f1fa 15be f82b 7abe f58a 2fbe ecc5 cdbe
00000120: 7b39 ad3f fe08 973c 196e 223e 9605 fe3e
00000130: ede0 d83d e5f4 3c3e 907a c33e 0677 e63e
00000140: 44af 3fbe acc1 bebd 4771 3d3d 6051 033f
00000150: 2c41 95be f8b2 193f 07db e8bc dbe7 4a3d
00000160: e574 cd3e 3328 9e3d 7352 80be 6c43 cb39
00000170: b87c 033e 083c da3e 03d4 17be c76a 8abe
00000180: 3685 a83e 32a2 05be fd76 d7bd caa8 113e
00000190: 158a 49be d6d9 d0be 763a fa3d 1c6d 803e
000001a0: b03f 0a3d 9886 23bd 7887 dfbe 1b51 17be
000001b0: de52 ad3e 7a78 023f 7ceb 70be 65c4 a73c
000001c0: f804 91bc ae0c c8be 0469 1dbd 9799 1c3e
000001d0: dc97 dc3e 6a54 d63e 8c02 acbe 7a8d ef3b
