models/multi_resolutionv2/SNN_Autoencoder_tsri_240s_320g.pth (torch, 25565 bytes, 11 tensors)

encoder_conv1.weight f4 [24, 1, 5]
0.78075516 -0.07532336 -0.045548256 0.6125916 -0.345714 0.6282444 0.025222478 0.03488223
-0.5387034 0.50326854 -0.15629908 0.05217568 0.015830932 0.0002496415 0.14397065 -0.45405248
0.48924056 0.49622726 -0.042012017 0.6214464 -0.0015056434 -0.068502866 -0.13139604 -0.4229793
0.1025241 -0.058026176 -0.10132981 0.9373284 -0.051463194 -0.01999037 0.29406774 0.53756464
0.5097137 0.6682189 0.12655258 -0.44370103 -0.3500479 0.9393611 -0.2935739 -0.40604842
-0.15107322 0.0988571 -0.26149046 -0.043201018 0.27932838 -0.070170015 0.32379156 0.60588443
-0.03251287 -0.46827984 0.03522969 -0.3198738 0.43122172 -0.25300524 0.63106686 -0.35227782
-0.14562337 -0.27993786 -0.21794432 -0.28693193 0.113087974 -0.26934588 0.36156788 0.7810349
0.655747 -0.39924213 -0.09703755 0.44931662 0.3601676 0.004268651 0.056184094 0.20412987
0.36491418 0.2967692 0.42303184 0.162368 0.087704286 0.6902818 0.291106 -0.43637466
0.045123745 0.13191155 0.862897 0.16188464 0.15344194 0.011801727 -0.009801316 0.023554051
0.3805755 0.52969205 -0.0045935106 1.0408567 0.0076856525 -0.03779112 -0.0350884 0.34957132
-0.17192836 -1.0572081 0.24721228 0.6628821 0.018727249 0.038437314 0.03082472 0.041952655
0.020655252 0.0012106865 -0.0047820588 -0.110937595 0.0019215546 -0.0034163198 0.0021339357 -0.022155942
0.015833288 1.0248626 -0.0016145415 0.14849381 -0.41923475 -0.39501473 -0.17633146 0.27592212
00000000: 92df 473f 2243 9abd cf90 3abd ced2 1c3f
00000010: 6d01 b1be a0d4 203f 5f9f ce3c abe0 0e3d
00000020: 77e8 09bf 35d6 003f de0c 20be 2ab6 553d
00000030: dfaf 813c 51e2 8239 0b6d 133e 9179 e8be
00000040: bd7d fa3e 8011 fe3e cb14 2cbd 1c17 1f3f
00000050: 0259 c5ba 3b4b 8cbd af8c 06be be90 d8be
00000060: 28f8 d13d dbac 6dbd 0186 cfbd c1f4 6f3f
00000070: 12cb 52bd d8c2 a3bc 0c90 963e d69d 093f
00000080: 997c 023f 6510 2b3f 0097 013e c82c e3be
00000090: 7a39 b3be f879 703f 514f 96be 94e5 cfbe
000000a0: f0b2 1abe 9775 ca3d 14e2 85be 8df3 30bd
000000b0: 2104 8f3e 4cb5 8fbd 02c8 a53e 3e1b 1b3f
000000c0: 372c 05bd 60c2 efbe 024d 103d 80c6 a3be
000000d0: 18c9 dc3e e789 81be 998d 213f c25d b4be
000000e0: 4b1e 15be 0454 8fbe cc2c 5fbe bee8 92be
000000f0: ab9a e73d b4e7 89be 6d1f b93e e7f1 473f
00000100: 09df 273f 7769 ccbe 9fbb c6bd d40c e63e
00000110: e367 b83e 0ae0 8b3b 4b21 663d 6c07 513e
00000120: 08d6 ba3e 22f2 973e a197 d83e cc43 263e
00000130: 4e9e b33d 4fb6 303f d80b 953e 806c dfbe
00000140: add3 383d d213 073e d1e6 5c3f 16c5 253e
00000150: e21f 1d3e 085c 413c b395 20bc 6df4 c03c
00000160: cbda c23e e699 073f 2985 96bb cb3a 853f
00000170: edd7 fb3b ddca 1abd dbb8 0fbd 03fb b23e
00000180: fd0d 30be 9852 87bf 3725 7d3e a4b2 293f
00000190: e369 993c 7270 1d3d 2084 fc3c 8cd6 2b3d
000001a0: 3435 a93c e6af 9e3a d1b2 9cbb 4033 e3bd
000001b0: acdc fb3a 56e4 5fbb 80d9 0b3b 6180 b5bc
000001c0: d0b4 813c b32e 833f 069f d3ba c30e 183e
000001d0: f0a5 d6be 5f3f cabe 3c90 34be aa45 8d3e

encoder_conv1.bias f4 [24]
0.099835895 -0.050163396 1.0858203 0.043741554 -0.1503527 0.3688579 -0.6276392 0.035746623
-0.31983298 0.57786673 0.07672903 -0.36110857 -0.5359524 0.5083598 0.04647128 0.07361412
-0.18874167 0.60667187 0.2385152 0.14279392 0.8862822 1.0878491 0.06455886 -0.4639578
00000000: c376 cc3d 2278 4dbd 29fc 8a3f 582a 333d
00000010: 0ff6 19be f1da bc3e f6ac 20bf 0d6b 123d
00000020: 26c1 a3be 13ef 133f 1c24 9d3d 39e3 b8be
00000030: 2d34 09bf de23 023f ab58 3e3d 00c3 963d
00000040: 7f45 41be d94e 1b3f 543d 743e 9238 123e
00000050: 64e3 623f a43e 8b3f 7037 843d e08b edbe

encoder_conv2.weight f4 [12, 24, 5]
-0.008920697 -0.16827667 -0.101454325 -0.045435444 -0.12241727 -0.07538224 -0.12851064 0.006708521
0.046347797 0.07619374 0.025262289 0.09066786 0.11421355 0.10905029 0.10762081 -0.06594443
0.14129196 0.04671643 -0.020119626 -0.010989783 -0.026836202 -0.034956027 0.06163749 -0.028709613
0.011695445 -0.029536247 0.100154966 0.16197963 0.05670169 -0.10397989 -0.034782227 -0.11248143
0.04631753 0.21769688 -0.34274894 0.054583553 0.084243655 -0.16624594 0.018720549 0.0008682427
-0.06575011 -0.052616585 -0.04035745 -0.0875289 0.016717166 0.023007449 0.0982596 0.06273987
0.022601927 -0.07360943 -0.122607544 0.051816095 -0.051361963 -0.08961655 0.034849554 0.000633806
-0.010254838 0.077070296 0.054937795 -0.034778014 -0.069493905 -0.06424564 0.079720534 0.064050205
-0.09186811 -0.06624073 -0.023863405 0.0027129163 -0.048305526 -0.20321459 -0.1734984 0.06584554
0.015028312 -0.023607794 -0.15523279 0.07389032 0.085090876 0.017281486 -0.06960814 -0.18516162
-0.01598421 0.14817482 0.031721625 0.08280616 -0.25906208 -0.11461656 -0.01571212 0.04873839
0.038843587 0.06623693 -0.15003084 0.5005714 -0.2402728 0.008774278 -0.1529375 -0.053413156
-0.08025031 -0.0017601467 -0.097530395 0.036821052 -0.012518191 -0.13758299 0.041058753 -0.040490784
-0.015097772 0.08485182 -0.1673663 -0.029216604 0.019303566 0.17356667 0.03308399 0.20697924
0.07352887 0.014377626 -0.46160972 0.040239215 -0.07246293 -0.052618526 0.056350514 -0.05932145
-0.030036647 -0.02314889 -0.016150862 0.06390318 0.0015526346 0.037502192 0.029052243 0.24305499
0.29167375 0.06852239 -0.09292037 -0.11396141 -0.021394568 -0.180596 -0.08658743 -0.053948548
-0.0007816008 0.046646338 -0.110978715 0.022579819 -0.07122864 -0.038716264 0.03356033 0.03099019
-0.02567885 0.044534378 0.07144986 -0.124069616 0.023396388 0.09785198 -0.055592477 -0.036893193
0.15790166 0.077039845 -0.041740347 0.016171306 0.07797122 -0.22455876 0.0047613927 0.097387634
-0.019179083 -0.040214967 -0.025117464 -0.07597429 -0.04587375 -0.04133839 -0.046128724 -0.042075124
-0.015127844 -0.0041967044 -0.03217698 0.11428331 0.18512584 0.08564874 0.052652113 0.0025617406
-0.010349333 6.2704086e-05 0.07663022 -0.078011766 -0.101839915 0.08366801 0.22274381 0.09355779
0.035517875 -0.011572425 0.049707998 -0.038918044 -0.07569036 -0.017017929 0.014190106 0.011497853
0.15898322 0.10157834 0.060159855 -0.0148167685 0.03692922 0.0367983 0.062040582 -0.01882994
0.074157484 0.10518779 0.28158808 0.09130336 -0.02550119 0.029960563 0.039209686 -0.017669974
-0.03189668 -0.004663375 0.06341362 0.21093738 0.1808598 0.3015981 0.32901496 0.086142026
0.0125400415 0.049712963 0.018142898 0.03523968 -0.08223006 -0.012840511 -0.27460447 -0.21786152
-0.05693199 -0.23509061 -0.30595174 -0.17628784 -0.10726915 -0.21498331 -0.0314143 0.23028675
0.42301258 0.110272884 0.107684515 0.05250132 0.04011859 -0.022372141 -0.054337412 -0.013089977
-0.0396525 -0.16293533 0.028115964 0.07882184 0.0995186 -0.15089306 -0.13606176 0.034102987
0.12464215 0.028174907 0.0058161593 0.051177785 0.015459232 -0.059073985 0.003978482 -0.11961852
00000000: 1d28 12bc b850 2cbe 49c7 cfbd 841a 3abd
00000010: e8b5 fabd 0162 9abd 4b98 03be 27d3 db3b
00000020: 30d7 3d3d 770b 9c3d dcf2 ce3c 12b0 b93d
00000030: cbe8 e93d c255 df3d 4d68 dc3d e00d 87bd
00000040: d7ae 103e ba59 3f3d ead1 a4bc 7e0e 34bc
00000050: 98d7 dbbc 0d2e 0fbd 9877 7c3d 6c30 ebbc
00000060: 409e 3f3c 00f6 f1bc 0c1e cd3d fddd 253e
00000070: 0840 683d 69f3 d4bd cf77 0ebd aa5c e6bd
00000080: 73b7 3d3d eeeb 5e3e ca7c afbe 0193 5f3d
00000090: f087 ac3d 603c 2abe d65b 993c c89a 633a
000000a0: fea7 86bd 7d84 57bd da4d 25bd 5a42 b3bd
000000b0: 70f2 883c 1e7a bc3c 543c c93d c37d 803d
000000c0: ad27 b93c 8ac0 96bd aa19 fbbd 1d3d 543d
000000d0: ec60 52bd e288 b7bd 68be 0e3d 0026 263a
000000e0: e803 28bc 08d7 9d3d 7406 613d 6473 0ebd
000000f0: d252 8ebd 3893 83bd 8544 a33d c12c 833d
00000100: 5925 bcbd 38a9 87bd 307d c3bc 2fcb 313b
00000110: 04dc 45bd 7c17 50be 91a9 31be 07da 863d
00000120: 4f39 763c 2265 c1bc 58f5 1ebe cf53 973d
00000130: 2044 ae3d e791 8d3c b68e 8ebd 029b 3dbe
00000140: 51f1 82bc 24bb 173e 89ee 013d 4796 a93d
00000150: c9a3 84be 16bc eabd b4b6 80bc e8a1 473d
00000160: 741a 1f3d 3aa7 873d afa1 19be 7325 003f
00000170: 130a 76be fdc1 0f3c a69b 1cbe c1c7 5abd
00000180: 465a a4bd b9b4 e6ba 04be c7bd acd1 163d
00000190: 1919 4dbc 8ee2 0cbe 392d 283d aad9 25bd
000001a0: a55c 77bc cac6 ad3d 1262 2bbe a957 efbc
000001b0: 8322 9e3c 76bb 313e 1483 073d 5ef2 533e
000001c0: 4e96 963d 2290 6b3c 1c58 ecbe e0d1 243d
000001d0: 7267 94bd 8686 57bd cccf 663d 0cfb 72bd
000001e0: 6a0f f6bc bea2 bdbc d04e 84bc acdf 823d
000001f0: c681 cb3a e69b 193d f8fe ed3c 68e3 783e
00000200: 4356 953e 7855 8c3d 094d bebd 9a64 e9bd
00000210: a943 afbc 28ee 38be c054 b1bd 27f9 5cbd
00000220: 57e4 4cba 3b10 3f3d cf48 e3bd 50f9 b83c
00000230: 52e0 91bd f294 1ebd 8e76 093d 24df fd3c
00000240: 745c d2bc ae69 363d 4e54 923d 3618 febd
00000250: c8a9 bf3c 9e66 c83d f0b4 63bd 511d 17bd
00000260: f9b0 213e 11c7 9d3d edf7 2abd b079 843c
00000270: 60af 9f3d bbf2 65be 7505 9c3b 2b73 c73d
00000280: 741d 9dbc 73b8 24bd 24c3 cdbc 6998 9bbd
00000290: 1de6 3bbd 7252 29bd 79f1 3cbd f756 2cbd
000002a0: c7da 77bc 8284 89bb 02cc 03bd 5e0d ea3d
000002b0: a191 3d3e 9b68 af3d bea9 573d e0e2 273b
000002c0: 4090 29bc 0080 8338 4ef0 9c3d a2c4 9fbd
000002d0: 7291 d0bd 225a ab3d f416 643e 3a9b bf3d
000002e0: 317b 113d 459a 3dbc 9d9a 4b3d 8768 1fbd
000002f0: 8c03 9bbd 2f69 8bbc 9e7d 683c 7e61 3c3c
00000300: 7fcc 223e 4e08 d03d 2e6a 763d 08c2 72bc
00000310: 1843 173d d0b9 163d 441e 7e3d 3f41 9abc
00000320: e1df 973d b26c d73d 502c 903e 42fd ba3d
00000330: dfe7 d0bc db6f f53c 569a 203d 9fc0 90bc
00000340: 18a6 02bd 3acf 98bb 00df 813d f8ff 573e
00000350: 5033 393e 116b 9a3e a674 a83e 3b6b b03d
00000360: bf74 4d3c d29f 4b3d 6aa0 943c 7c57 103d
00000370: 3c68 a8bd 0261 52bc f598 8cbe 1717 5fbe
00000380: 8531 69bd 98bb 70be b5a5 9cbe cd84 34be
00000390: eeaf dbbd 9624 5cbe 48ac 00bd 4ad0 6b3e
000003a0: 1b95 d83e c0d6 e13d b389 dc3d a00b 573d
000003b0: 6453 243d c845 b7bc e890 5ebd 5877 56bc
000003c0: a96a 22bd 85d8 26be 7353 e63c 586d a13d
000003d0: 68d0 cb3d b683 1abe c653 0bbe 93af 0b3d
000003e0: 6244 ff3d 10cf e63c 7b95 be3b cc9f 513d
000003f0: b848 7d3c 90f7 71bd ed5d 823b 8efa f4bd

encoder_conv2.bias f4 [12]
0.7387525 0.08580547 0.6357231 0.20129275 0.26587138 0.43096215 0.22877671 0.71037084
0.54026186 0.33389673 0.61795366 0.9062187
00000000: e21e 3d3f c7ba af3d c0be 223f b01f 4e3e
00000010: 4b20 883e 12a7 dc3e 7144 6a3e ddda 353f
00000020: 9a4e 0a3f 83f4 aa3e 3632 1e3f f3fd 673f

encoder_conv3.weight f4 [6, 12, 5]
-0.0052273124 0.002769657 0.16321537 -0.00028530136 0.008585287 0.051640876 -0.049205102 0.22663133
0.07198324 -0.018678552 -0.0044601006 -0.029074917 -0.02571074 0.027600603 0.0028692642 -0.007593583
-0.0063358885 -0.05854434 0.010037511 0.0042331684 -0.03480711 -0.039391793 -0.067032054 -0.035773948
-0.06320505 -0.0025773998 0.0037276144 0.48864785 -0.0081147 -0.012098213 -0.007279134 -0.014522596
0.1706338 0.014885473 0.007666117 0.0020426353 -0.0069326255 -0.02565436 0.0072355242 0.02557688
0.0076376675 0.04337357 0.4718853 0.00741639 0.0140904775 -0.03210798 -0.008948851 -0.16373564
0.0050200904 0.021080347 -0.01058859 0.023196617 -0.069924474 -0.004177565 0.009805716 -0.021628324
-0.017082006 0.038650014 0.006333496 -0.00090278004 0.02269822 0.19378608 -0.018798308 0.041085646
0.060189426 0.06725076 0.0344167 0.024666632 -0.009654163 0.018189592 0.029319093 0.12469348
0.014986516 0.030833315 0.06906742 -0.001130502 0.06474525 -0.021916587 0.0006898946 0.03492231
-0.044283573 0.0694675 -0.055609237 -0.07970324 -0.08633476 0.0030363053 0.1079227 0.0015312609
-0.021281233 0.0101883765 0.011909593 -0.03624052 0.009840322 -0.048653964 -0.018161358 0.0085210465
-0.0090564415 -0.0010614394 0.026072491 -0.04929998 0.0003237603 0.120749146 -0.03415021 -0.01746683
-0.04317567 0.010162833 0.35886326 0.026414188 0.048234336 0.11230377 0.03805636 -0.7455196
-0.015629994 0.041841205 -0.006219715 0.03784412 0.4445277 0.0040422813 0.048071038 0.048859835
0.035490803 -0.02050074 0.05959242 -0.025107676 -0.056156896 0.06404089 0.112045765 -0.11186624
0.36302865 -0.0039402414 0.13736013 -0.124921314 -0.0855556 0.15089881 -0.041569218 0.106485136
-0.20898822 0.021332156 0.28066447 -0.050503448 -0.08908181 -0.013612355 0.14754613 -0.35091913
-0.27274513 -0.04388988 0.059931632 -0.068765886 0.022819296 -0.025102923 0.0045335228 0.009512876
-0.030133966 0.24459712 0.031710383 -0.07713141 0.047943518 -0.02407955 -0.06317299 0.114613764
0.0028888271 0.08754296 -0.00021635435 -0.041421957 0.069367 0.18787178 -0.11313651 0.041848563
0.08777852 -0.11849699 -0.09607938 -0.016407201 -0.045837108 0.0136055695 0.017170304 0.0073834555
0.058620792 -0.035993323 -0.055248786 -0.025575045 0.0059875813 0.013478349 -0.023665808 -0.61703473
0.017987823 -0.02894073 -0.03353484 0.08524576 -0.0035411203 -0.014749844 -0.012223688 0.005303629
0.037413515 0.097434044 -0.016894324 -0.042981394 -0.002836547 0.0047938838 -0.23866698 0.004601189
0.040639706 -0.024886683 -0.046300203 0.058257032 0.01605368 -0.0055371975 -0.013692461 0.00789115
-0.13512972 -0.0836628 -0.034661092 -0.010318084 0.009190109 -0.030419739 0.054501295 0.00029381353
-0.02749249 0.0065374495 0.14116828 0.12114614 0.033223357 -0.01708928 0.003961785 -0.2606986
0.074330665 -0.060911216 0.0020655082 0.047336962 0.3904349 -0.022395017 0.012959072 0.023074206
-0.0065516387 0.05645626 -0.01350645 0.0053622043 0.01058038 0.016785024 0.23618287 0.03363028
-0.11286315 -0.026075246 -0.0072115553 0.00942883 0.019637464 0.2390437 0.18329011 -0.00535693
-0.018051645 0.013346261 0.19507712 0.03586057 0.026470872 0.011113792 0.016749471 0.004479186
00000000: e049 abbb 2283 353b ee21 273e 8094 95b9
00000010: 4ea9 0c3c 6285 533d 4a8b 49bd 0b12 683e
00000020: f36b 933d c303 99bc 0926 92bb 852e eebc
00000030: 549f d2bc a91a e23c 440a 3c3b 97d3 f8bb
00000040: 499d cfbb 31cc 6fbd 5f74 243c 64b6 8a3b
00000050: e691 0ebd 4a59 21bd 1a48 89bd b487 12bd
00000060: a671 81bd 98e9 28bb fe4a 743b 0d30 fa3e
00000070: 85f3 04bc 9537 46bc cd85 eebb 2ff0 6dbc
00000080: a0ba 2e3e 33e2 733c 0d34 fb3b bcdd 053b
00000090: 142b e3bb 1829 d2bc fa17 ed3b 9b86 d13c
000000a0: 6645 fa3b 7ca8 313d f39a f13e 3005 f33b
000000b0: bfdb 663c a883 03bd 349e 12bc 51aa 27be
000000c0: 927f a43b b1b0 ac3c c47b 2dbc d506 be3c
000000d0: 9034 8fbd f5e3 88bb 27a8 203c e22d b1bc
000000e0: 90ef 8bbc 7a4f 1e3d 3789 cf3b 8ba8 6cba
000000f0: 9ef1 b93c dc6f 463e e9fe 99bc 6c49 283d
00000100: 3089 763d c4ba 893d 87f8 0c3d ad11 ca3c
00000110: 7f2c 1ebc 5702 953c 982e f03c 4c5f ff3d
00000120: 018a 753c 2696 fc3c 3873 8d3d 5a2d 94ba
00000130: 2899 843d 6a8a b3bc 0bda 343a b20a 0f3d
00000140: b162 35bd fa44 8e3d 83c6 63bd 743b a3bd
00000150: 47d0 b0bd c0fc 463b 9406 dd3d 97b4 c83a
00000160: fb55 aebc 26ed 263c 7420 433c f170 14bd
00000170: 4d39 213c 6149 47bd 21c7 94bc dc9b 0b3c
00000180: 7861 14bc ff1f 8bba fa95 d53c c7ee 49bd
00000190: 5fbe a939 544b f73d 17e1 0bbd 9916 8fbc
000001a0: f9d8 30bd 0382 263c edbc b73e 9162 d83c
000001b0: 5e91 453d 85ff e53d fce0 1b3d 5fda 3ebf
000001c0: 790a 80bc af61 2b3d c0ce cbbb 7002 1b3d
000001d0: 2299 e33e 1d75 843b 23e6 443d 4021 483d
000001e0: ce5e 113d 2bf1 a7bc 2e17 743d 9dae cdbc
000001f0: c604 66bd df27 833d 4078 e53d 211a e5bd
00000200: e4de b93e 241d 81bb 22a8 0c3e bfd6 ffbd
00000210: c637 afbd 3885 1a3e 7c44 2abd e114 da3d
00000220: 0201 56be c6c0 ae3c 41b3 8f3e b4dc 4ebd
00000230: 8670 b6bd 5b06 5fbc 5516 173e acab b3be
00000240: 40a5 8bbe e0c5 33bd df7a 753d 21d5 8cbd
00000250: 88ef ba3c a5a4 cdbc f28d 943b e5db 1b3c
00000260: 82db f6bc ab77 7a3e bfe2 013d 13f7 9dbd
00000270: 6c60 443d 7a42 c5bc d760 81bd 9fba ea3d
00000280: 7a52 3d3b b949 b33d 2edd 62b9 12aa 29bd
00000290: 4910 8e3d 7661 403e 1db4 e7bd 6669 2b3d
000002a0: 3ac5 b33d 8dae f2bd 44c5 c4bd 6568 86bc
000002b0: b1bf 3bbd e5e9 5e3c bda8 8c3c eaf0 f13b
000002c0: 5b1c 703d bc6d 13bd 8d4c 62bd c282 d1bc
000002d0: 7933 c43b 4bd4 5c3c ccde c1bc fdf5 1dbf
000002e0: 335b 933c 1c15 edbc d45b 09bd 5495 ae3d
000002f0: 2412 68bb 54a9 71bc dd45 48bc 11ca ad3b
00000300: ea3e 193d 808b c73d f765 8abc 420d 30bd
00000310: 5de5 39bb 0316 9d3b 1e65 74be 92c5 963b
00000320: d275 263d 28df cbbc 48a5 3dbd ed9e 6e3d
00000330: 0283 833c 6171 b5bb 5856 60bc e249 013c
00000340: 725f 0abe 6757 abbd caf8 0dbd 2e0d 29bc
00000350: 1c92 163c d132 f9bc c03c 5f3d fc0a 9a39
00000360: ee37 e1bc 1a38 d63b 6b8e 103e 781b f83d
00000370: 3715 083d d1fe 8bbc ddd1 813b 497a 85be
00000380: ad3a 983d 0a7e 79bd 7a5d 073b 67e4 413d
00000390: 15e7 c73e c175 b7bc 4a52 543c 1e06 bd3c
000003a0: 21af d6bb ae3e 673d 284a 5dbc 6eb5 af3b
000003b0: 5559 2d3c bf80 893c ecd9 713e e8bf 093d
000003c0: cc24 e7bd c19b d5bc e94e ecbb 617b 1a3c
000003d0: bfde a03c dfc7 743e 67b0 3b3e 3089 afbb
000003e0: 0be1 93bc 47aa 5a3c 4cc2 473e 88e2 123d
000003f0: 71d9 d83c 9f16 363c 3036 893c 23c6 923b

encoder_conv3.bias f4 [6]
0.2855042 0.5683391 1.0298176 0.7036535 0.42097571 0.61211437
00000000: 9b2d 923e ac7e 113f 10d1 833f a322 343f
00000010: 218a d73e 87b3 1c3f

deconv1.weight f4 [6, 12, 5]
-0.002696119 0.00012562209 -0.100015566 -0.000210745 0.0015256987 0.0025508746 0.0027907407 0.33244026
0.014081864 -0.0010443047 -0.010688941 -0.0014901834 -0.04869335 0.013780869 -0.0024572958 -0.0010388985
-0.008391081 0.15749902 0.013443214 -0.0053322054 -0.004911711 0.02459324 0.40472838 -0.007162312
0.021183264 0.006462344 -0.004401242 -0.072686136 0.035615798 0.0006706387 0.008660733 0.005290902
-0.011794577 0.0024319363 0.0024274308 -0.0015910662 0.009870359 -0.0912976 0.01508722 0.007931318
-0.0022527257 -0.03165472 0.0018198641 -0.00067072187 -0.002860303 -0.0047294754 0.004632775 0.48155838
0.0063867806 -0.001503327 -0.0017406141 0.0006818845 -0.011741834 0.014410253 -0.002205681 0.0033304654
0.03219506 0.07580931 0.010284438 -0.00046681362 0.00022880963 0.1728642 -0.001660606 0.033751752
0.00062174414 -0.0015718115 0.36043972 0.009504039 -0.014907657 0.051281746 -0.011728694 0.018282874
-0.0031222135 -0.011296038 0.008699686 0.004345203 0.034621485 0.013806584 -0.027141219 0.046279483
-0.0071983784 0.3401386 0.010042747 -0.0012635024 -0.021744832 -0.0016412782 -0.25756 -0.010906723
0.01237177 -0.034739617 0.019324653 -0.046973918 0.032112718 0.0023653402 -0.0354841 0.0056396825
0.25467592 0.0036538974 -0.0073986016 0.0030869883 0.0066884113 -0.05176621 -0.014116983 -0.014588299
0.0069357944 0.010353367 -0.10070419 0.020879874 -0.014871293 -0.029521724 -0.0019417581 0.04722054
-0.00045790334 0.0064018136 -0.0018054795 -0.00069575006 0.66081536 -0.0017556164 -0.005323111 -0.013053451
0.14176217 -0.22021109 -0.17501228 0.05270993 -0.06897886 0.10294342 0.08743488 0.07981659
0.0467729 -0.33376035 -0.018727325 0.12361043 -0.5160208 -0.16722782 -0.29442692 0.15749572
0.25232217 -0.1733278 0.5779609 0.014310635 0.1245492 0.45168248 -0.01278458 -0.12110095
0.29912728 -0.02637428 0.12748602 0.20923251 0.002168477 0.202467 0.0005615846 0.39582926
-0.11352806 -0.08653972 0.6240669 -0.040436305 0.20444044 -0.006792882 0.072311774 -0.009977397
0.31631002 -0.78907824 0.2494705 1.2456467 -0.1857107 -0.21791828 0.022859382 -0.09477841
0.19131823 0.019860394 0.1697254 -0.21732277 -0.3666474 0.64969146 -0.21899441 0.28477624
-0.35507706 0.09115759 0.1077264 0.00990563 0.003529647 0.000506914 0.00010261892 0.32884857
-0.0012775318 -0.007338567 -0.0044564153 0.0127699645 -0.14309002 -0.0051626465 -0.010928042 -0.005157433
-0.020102778 -0.106858715 -0.0057512363 -0.0170001 -0.01075031 0.01319153 -0.19893879 -0.0059791547
0.014678255 0.011878779 -0.0046055014 0.027794037 0.027260639 0.0055615404 -0.0057636984 -0.0046011377
0.11320445 0.0067302166 -0.0019872128 0.0036619923 0.025134144 0.07220102 0.092044115 -0.002454556
-0.0057930085 0.010690195 0.40545171 -0.0009621516 0.007815284 0.004363722 0.007580491 -0.121052615
-0.023223305 -0.0070270183 -0.003421888 0.010999751 -0.11403358 0.023242049 -0.0015377592 0.0074469526
0.0003697136 -0.0064482875 -0.0014193999 0.0029791873 0.008694491 -0.0031075915 -0.010294112 0.0056375857
0.36008486 -0.08090078 -0.00506033 0.20403196 -0.0011840985 0.0077583836 0.23169912 0.0065855146
-0.009281234 0.0011431519 0.06084895 -0.14359795 -0.016340252 -0.0029982897 -0.013893739 0.33165476
00000000: 5fb1 30bb 6cb9 0339 f6d4 ccbd 6efb 5cb9
00000010: f4f9 c73a 932c 273b dce4 363b 9c35 aa3e
00000020: 9eb7 663c 0de1 88ba ab20 2fbc 4252 c3ba
00000030: ae72 47bd 27c9 613c 950a 21bb a62b 88ba
00000040: bf7a 09bc 6c47 213e ed40 5c3c c8b9 aebb
00000050: 6bf2 a0bb c377 c93c 8f38 cf3e d4b1 eabb
00000060: 8688 ad3c 12c2 d33b 4b38 90bb 78dc 94bd
00000070: dfe1 113d cdcd 2f3a bfe5 0d3c 4e5f ad3b
00000080: 0b3e 41bc 1f61 1f3b 8815 1f3b 538b d0ba
00000090: 49b7 213c 3cfa babd 6330 773c 5cf2 013c
000000a0: 77a2 13bb 61a8 01bd 8288 ee3a 62d3 2fba
000000b0: ec73 3bbb b7f9 9abb 89ce 973b d28e f63e
000000c0: 3348 d13b 490b c5ba 5125 e4ba 7fc0 323a
000000d0: d260 40bc fb18 6c3c 308d 10bb f043 5a3b
000000e0: f8de 033d e941 9b3d 0f80 283c aabe f4b9
000000f0: 9eec 6f39 5003 313e b1a8 d9ba 473f 0a3d
00000100: 8bfc 223a 3e05 ceba 8e8b b83e d4b6 1b3c
00000110: 3f3f 74bc cf0c 523d b529 40bc f7c5 953c
00000120: 0d9e 4cbb 0413 39bc 2189 0e3c 3462 8e3b
00000130: 42cf 0d3d 0335 623c 4357 debc 8e8f 3d3d
00000140: 60e0 ebbb a626 ae3e 558a 243c 1b9c a5ba
00000150: 3822 b2bc 2820 d7ba e8de 83be 1db2 32bc
00000160: f7b2 4a3c 214b 0ebd bc4e 9e3c b967 40bd
00000170: a088 033d d303 1b3b c757 11bd 16cd b83b
00000180: e264 823e 3a76 6f3b f86f f2bb 124f 4a3b
00000190: 762a db3b ce08 54bd eb4a 67bc c303 6fbc
000001a0: a945 e33b 2ba1 293c 003e cebd 450c ab3c
000001b0: b9a6 73bc 8bd7 f1bc 9782 feba 536a 413d
000001c0: bf12 f0b9 4ec6 d13b d7a5 ecba ff62 36ba
000001d0: 322b 293f b61c e6ba 7e6d aebb 24de 55bc
000001e0: 1a2a 113e 047f 61be 6b36 33be 5ee6 573d
000001f0: ca44 8dbd 00d4 d23d 0f11 b33d e176 a33d
00000200: f194 3f3d a3e2 aabe 0c6a 99bc 7727 fd3d
00000210: f019 04bf c53d 2bbe 20bf 96be 8f46 213e
00000220: 5f30 813e d87c 31be 3ff5 133f 2777 6a3c
00000230: a713 ff3d ed42 e73e 6a76 51bc c603 f8bd
00000240: 3627 993e e00e d8bc b28b 023e 0c41 563e
00000250: 021d 0e3b 8253 4f3e 4e37 133a 22aa ca3e
00000260: 6681 e8bd bd3b b1bd d9c2 1f3f 8aa0 25bd
00000270: d658 513e d396 debb 3218 943d 3c78 23bc
00000280: 63f3 a13e 0801 4abf 3275 7f3e 5a71 9f3f
00000290: f22a 3ebe f825 5fbe 9943 bb3c 2f1b c2bd
000002a0: ede8 433e 44b2 a23c 7fcc 2d3e dc89 5ebe
000002b0: 35b9 bbbe 2e52 263f 1240 60be 31ce 913e
000002c0: a9cc b5be d5b0 ba3d a99f dc3d 394b 223c
000002d0: a651 673b 6ce2 043a 1d35 d738 d75e a83e
000002e0: db72 a7ba 5d78 f0bb 1f07 92bb 1d39 513c
000002f0: 3186 12be 6b2b a9bb 880b 33bc afff a8bb
00000300: 95ae a4bc bed8 dabd de74 bcbb cb43 8bbc
00000310: 1122 30bc 4921 583c 9cb6 4bbe c9ec c3bb
00000320: 107d 703c 369f 423c bfe9 96bb 52b0 e33c
00000330: b451 df3c 953d b63b 68dd bcbb 24c5 96bb
00000340: bcd7 e73d 2689 dc3b e63b 02bb 09fe 6f3b
00000350: 1fe6 cd3c 21de 933d a081 bc3d 9edc 20bb
00000360: 47d3 bdbb ed25 2f3c 5e97 cf3e e738 7cba
00000370: ad0b 003c 8efd 8e3b c465 f83b 6fea f7bd
00000380: cd3e bebc e742 e6bb c141 60bb 4d38 343c
00000390: 708a e9bd 1c66 be3c a38e c9ba 9105 f43b
000003a0: 1fd6 c139 284c d3bb 280b baba 783e 433b
000003b0: 5773 0e3c bca8 4bbb a3a8 28bc 7fbb b83b
000003c0: 0b5d b83e 4faf a5bd 20d1 a5bb c1ed 503e
000003d0: c133 9bba 0a3a fe3b 8942 6d3e 4dcb d73b
000003e0: 5110 18bc d0d5 953a c03c 793d 570b 13be
000003f0: fedb 85bc f47e 44bb 91a2 63bc a7ce a93e

deconv1.bias f4 [12]
0.2752747 0.21774195 0.41484985 0.26673758 -0.012828978 0.2390135 -0.20715411 0.12619697
-0.33481443 0.1706981 0.0034767494 0.18203911
00000000: cef0 8c3e bff7 5e3e 3367 d43e d491 883e
00000010: a230 52bc f4bf 743e 3520 54be c739 013e
00000020: cc6c abbe 7ccb 2e3e 2dda 633b 7668 3a3e

deconv2.weight f4 [12, 24, 5]
0.07457887 -0.54758936 -0.0976873 -0.029540217 -0.07287114 -0.025969764 -0.13989604 0.06957805
0.11425718 -0.18763232 -0.034881145 0.09759083 -0.05907286 0.05284557 0.22593004 -0.12160232
0.0577195 -0.0035489367 0.23011385 0.08955686 -0.18079263 0.07567468 0.085227594 0.052672468
0.28652373 -0.06327739 0.41606277 0.079448 0.16458859 -0.07057905 0.012540052 -0.15314926
0.15861164 0.20065856 0.14380325 0.17302829 -0.19269286 0.11001021 0.11578336 -0.15306059
-0.051185556 0.16469021 -0.18718515 0.3164544 -0.02312672 -0.0529051 0.20592354 0.114549845
0.05269895 0.09016667 -0.021418491 -0.060639746 0.17505763 0.04769951 0.15492302 0.0765844
0.05594548 0.013333871 0.10929933 0.23080724 -0.15039119 -0.20234084 -0.005352879 0.00017546293
0.059873015 -0.27430263 -0.057351757 0.075550675 0.04969262 0.09828665 -0.020617452 0.186082
0.08788504 -0.14917204 0.012944105 0.028173689 0.19716963 -0.19773774 -0.064662 -0.07852798
-0.071899116 0.081355445 -0.5598733 -0.04359425 -0.033378515 -0.07382531 0.07961588 -0.39838082
-0.21767664 -0.06280628 -0.012383451 0.13359661 -0.1300634 0.025127742 -0.014899716 -0.016301053
-0.08057922 -0.15408775 -0.1116033 -0.023192829 -0.039860807 -0.050343346 0.008303383 -0.08550124
0.074813664 0.01263198 0.06973794 0.35392833 0.39740977 -0.10787931 0.027606223 -0.060414985
-0.011515574 -0.021953057 -0.06950283 -0.22302498 0.0031107247 0.15808858 0.069981925 0.10791993
0.12328644 0.18701857 0.1510492 -0.10018472 -0.23530042 -0.15352795 0.022969697 -0.15166625
0.46269628 0.13801394 -0.19481023 0.04917466 0.009915636 0.11835013 -0.21192303 0.08976286
-0.1684954 0.3485237 -0.19818395 -0.16308099 0.17857277 0.017384095 -0.11253416 0.105348304
-0.30205116 -0.04225101 -0.22576396 0.3019397 -0.2814838 -0.0862699 -0.016532458 0.16935821
0.22587381 0.1853201 -0.24147913 0.04700528 0.10811292 0.08092144 -0.2851685 -0.25928852
0.07679466 -0.02715265 -0.027730497 0.31828338 -0.13307446 0.099345036 -0.14742531 0.065782316
0.0046705925 0.05565991 -0.02569624 0.20619653 -0.033181604 -0.06558955 -0.099184394 -0.021284008
0.23813894 0.06349479 0.12142518 0.072931126 0.028341757 0.10492558 0.026988884 0.107510045
-0.16896515 0.046462927 0.36465552 -0.019925093 0.12266846 -0.10116132 0.09393998 -0.007818644
0.24970159 -0.15413281 -0.13499774 -0.0010829911 -0.21262226 0.17269 -0.016918913 -0.03902033
-0.22173713 -0.065091394 0.15809435 -0.007563956 0.010734078 0.13756688 0.14161964 0.05468698
-0.21133329 -0.05922759 0.09060374 0.19838527 0.14784089 0.26316237 -0.050427873 0.10018755
0.11531488 0.021929797 0.122051515 -0.04651191 -0.0071379393 0.024792463 -0.050070614 -0.027390117
-0.04409331 -0.12854134 -0.18317549 0.096804544 0.35678753 -0.057606813 -0.08471349 -0.00956219
-0.02191879 -0.006624461 0.040358044 -0.009313698 -0.007389358 -0.15134513 0.15362826 -0.13297643
0.0424437 0.047852885 -0.117856055 -0.031713605 0.049282137 0.07654932 0.16668028 -0.08903249
-0.24647413 0.16924842 0.18692529 -0.105354 0.023580149 -0.11007494 -0.22828908 -0.15926293
00000000: cebc 983d d12e 0cbf 4710 c8bd 53fe f1bc
00000010: 773d 95bd 8bbe d4bc e840 0fbe f07e 8e3d
00000020: abff e93d b022 40be 88df 0ebd b3dd c73d
00000030: 62f6 71bd 9974 583d 345a 673e a30a f9bd
00000040: 486b 6c3d 4795 68bb f7a2 6b3e 9669 b73d
00000050: b421 39be 54fb 9a3d ce8b ae3d 16bf 573d
00000060: 3db3 923e 9497 81bd 2e06 d53e a2b5 a23d
00000070: e989 283e c08b 90bd ca74 4d3c 29d3 1cbe
00000080: 176b 223e 7079 4d3e 2941 133e 542e 313e
00000090: 4751 45be 084d e13d d41f ed3d eabb 1cbe
000000a0: f2a7 51bd 8da4 283e 77ad 3fbe 5006 a23e
000000b0: 3f74 bdbc 05b3 58bd 9fdd 523e 1c99 ea3d
000000c0: dbda 573d 4ea9 b83d d575 afbc 6261 78bd
000000d0: 4f42 333e 9060 433d 24a4 1e3e 48d8 9c3d
000000e0: 1627 653d 4f76 5a3c 54d8 df3d bc58 6c3e
000000f0: 2600 1abe 7032 4fbe 3467 afbb 79fc 3739
00000100: 683d 753d 6571 8cbe ade9 6abd 50ba 9a3d
00000110: 7d8a 4b3d 834a c93d eee5 a8bc 488c 3e3e
00000120: 12fd b33d 8ec0 18be 8313 543c 82cc e63c
00000130: d6e6 493e c37b 4abe 836d 84bd 47d3 a0bd
00000140: d83f 93bd af9d a63d db53 0fbf e28f 32bd
00000150: e9b7 08bd b931 97bd a70d a33d 92f8 cbbe
00000160: a0e6 5ebe 94a0 80bd f5e3 4abc 8dcd 083e
00000170: 572f 05be b2d8 cd3c f01d 74bc c989 85bc
00000180: b806 a5bd 2ec9 1dbe 4590 e4bd e3fe bdbc
00000190: 1645 23bd d334 4ebd ea0a 083c 461b afbd
000001a0: e837 993d 5df6 4e3c c4d2 8e3d 1836 b53e
000001b0: 4b79 cb3e d4ef dcbd 7226 e23c b475 77bd
000001c0: d1ab 3cbc e6d6 b3bc 8057 8ebd a960 64be
000001d0: 4ddd 4b3b f9e1 213e af52 8f3d 2005 dd3d
000001e0: 9a7d fc3d cc81 3f3e a4ac 1a3e a52d cdbd
000001f0: 98f2 70be 6e36 1dbe f22a bc3c 664e 1bbe
00000200: 87e6 ec3e 8753 0d3e 557c 47be 5e6b 493d
00000210: 3175 223c 8e61 f23d 5a02 59be 97d5 b73d
00000220: 0f8a 2cbe b371 b23e bcf0 4abe b4fe 26be
00000230: c8db 363e 1769 8e3c 4f78 e6bd dac0 d73d
00000240: 73a6 9abe 650f 2dbd ab2e 67be d797 9a3e
00000250: a51e 90be 46ae b0bd 146f 87bc 3d6c 2d3e
00000260: 774b 673e 8dc4 3d3e 4e46 77be 9c88 403d
00000270: 4e6a dd3d 24ba a53d 9b01 92be 77c1 84be
00000280: 8546 9d3d 3c6f debc 112b e3bc 0af6 a23e
00000290: ac44 08be 6975 cb3d a9f6 16be e1b8 863d
000002a0: c50b 993b a5fb 633d ec80 d2bc 2f25 533e
000002b0: 6fe9 07bd d053 86bd 3021 cbbd cd5b aebc
000002c0: b2da 733e 8e09 823d c4ad f83d ea5c 953d
000002d0: f92c e83c 39e3 d63d cb17 dd3c 3a2e dc3d
000002e0: 3305 2dbe e94f 3e3d 21b4 ba3e f339 a3bc
000002f0: 9a39 fb3d ab2d cfbd 9b63 c03d c519 00bc
00000300: c6b1 7f3e fed4 1dbe d93c 0abe 27f3 8dba
00000310: a6b9 59be a6d5 303e 8899 8abc c8d3 1fbd
00000320: 0f0f 63be a34e 85bd 7ce3 213e 10db f7bb
00000330: fcdd 2f3c 55de 0c3e bd04 113e 74ff 5f3d
00000340: c167 58be a198 72bd 748e b93d 8225 4b3e
00000350: 9a63 173e 38bd 863e 758d 4ebd 212f cd3d
00000360: 352a ec3d 1ea6 b33c 25f6 f93d 4683 3ebd
00000370: 60e5 e9bb 9019 cb3c d816 4dbd 3d61 e0bc
00000380: 309b 34bd 57a0 03be 5b92 3bbe 7641 c63d
00000390: dbac b63e 1ff5 6bbd 447e adbd bbaa 1cbc
000003a0: 098f b3bc 0212 d9bb 7a4e 253d 7b98 18bc
000003b0: 6d22 f2bb 38fa 1abe ba50 1d3e f92a 08be
000003c0: 72d9 2d3d 6301 443d 845e f1bd 20e6 01bd
000003d0: 11dc 493d e4c5 9c3d 3cae 2a3e ab56 b6bd
000003e0: b763 7cbe 754f 2d3e 5869 3f3e d7c3 d7bd
000003f0: 282b c13c f86e e1bd 9dc4 69be d215 23be

deconv2.bias f4 [24]
0.163669 0.15443493 0.12748103 0.108363174 0.12014377 -0.03940895 0.03139682 0.088807486
0.08024902 0.11603309 0.10540319 0.2390019 0.19460015 0.065273315 0.20488419 -0.06324168
0.05419773 0.053615008 0.12181921 0.100529835 -0.16753231 -0.030847406 -0.027117042 0.035940968
00000000: d998 273e 3124 1e3e 638a 023e 83ed dd3d
00000010: f00d f63d 476b 21bd f499 003d b3e0 b53d
00000020: 9959 a43d c2a2 ed3d a1dd d73d eabc 743e
00000030: 4345 473e 04ae 853d 29cd 513e db84 81bd
00000040: 70fe 5d3d 699b 5b3d 5a7c f93d 96e2 cd3d
00000050: 978d 2bbe b3b3 fcbc 8f24 debc d636 133d

deconv3.weight f4 [24, 1, 5]
-0.19459607 0.58223087 0.31083396 -0.022139251 0.49632674 -0.48799857 -0.8055576 -0.8512664
-0.7376284 -0.42674518 0.43846765 -0.12639168 0.2740483 0.5766531 -0.27669495 -0.32995835
-0.12495738 0.08364702 0.8805562 0.28818265 0.2686645 -0.028824933 0.54168445 0.3840924
0.1736696 0.4527262 0.016277237 -0.54433113 -0.084716484 0.18615738 -0.2642073 0.4920596
-0.11761332 0.27849117 -0.2373254 -0.2568754 -0.49289206 -0.24814494 -0.60575944 -0.21185245
-0.24927609 0.020186154 0.15164913 0.3763314 0.2903437 -0.27188617 -0.7051711 -0.38944432
-0.113607146 -0.13871418 0.51344377 0.6553794 -0.15188102 -0.042461652 -0.29958132 0.38622957
0.26188612 0.47345364 0.3234975 -0.009484395 -0.19831014 0.3385452 0.49841276 -0.027293958
0.37069616 -0.09616931 0.35377318 0.79739803 0.10953243 -0.36016726 -0.091027096 -0.40582752
-0.6908307 -0.62937754 -0.042358845 -0.2413242 -0.32790262 0.85451895 -0.42236096 -0.60784537
-0.40118635 0.07042827 -0.59705013 -0.5036203 -0.37231135 0.3703811 -0.676665 -0.1340841
0.20670888 0.46403253 0.053837538 0.40647212 -0.21992098 0.22583808 0.33529928 0.033709142
0.29447004 -0.06554016 -0.034968924 0.67642105 0.22070135 -0.26001137 -0.5023627 0.19893992
-0.2352649 0.16137308 0.04814173 -0.29651368 -0.4629259 -0.1125948 -0.14463279 -0.13771687
-0.17611623 -0.11153387 0.07455254 -0.084786035 0.08522122 0.54692435 0.02142112 0.20805699
00000000: 3144 47be 150d 153f a125 9f3e 605d b5bc
00000010: 8a1e fe3e f3da f9be 0639 4ebf 98ec 59bf
00000020: 37d5 3cbf 587e dabe d57e e03e d26c 01be
00000030: 0f50 8c3e 8a9f 133f f6aa 8dbe 4df0 a8be
00000040: a8e9 ffbd 214f ab3d 226c 613f ad8c 933e
00000050: 658e 893e 4422 ecbc d5ab 0a3f c2a7 c43e
00000060: 72d6 313e bacb e73e d757 853c 4959 0bbf
00000070: d67f adbd 0aa0 3e3e 2e46 87be 3cef fb3e
00000080: 41df f0bd 6596 8e3e 6e05 73be 2c85 83be
00000090: 595c fcbe b519 7ebe 0d13 1bbf d9ef 58be
000000a0: 3b42 7fbe 6f5d a53c e949 1b3e 82ae c03e
000000b0: eea7 943e aa34 8bbe 1886 34bf 3f65 c7be
000000c0: ddaa e8bd 170b 0ebe 0d71 033f f2c6 273f
000000d0: b386 1bbe 45ec 2dbd b962 99be e2bf c53e
000000e0: f015 863e 8468 f23e 77a1 a53e 7064 1bbc
000000f0: d011 4bbe cc55 ad3e f52f ff3e 9497 dfbc
00000100: e3cb bd3e 6af4 c4bd c221 b53e 4722 4c3f
00000110: 8a52 e03d d867 b8be 6a6c babd a0c8 cfbe
00000120: 48da 30bf e31e 21bf 7880 2dbd b11d 77be
00000130: dae2 a7be c1c1 5a3f b23f d8be c19b 1bbf
00000140: 4c68 cdbe b23c 903d 47d8 18bf 43ed 00bf
00000150: 989f bebe 97a2 bd3e eb39 2dbf 584d 09be
00000160: 7eab 533e ac95 ed3e c084 5c3d 1d1d d03e
00000170: f732 61be 1942 673e 59ac ab3e 9912 0a3d
00000180: c7c4 963e eb39 86bd 933b 0fbd ee29 2d3f
00000190: 89ff 613e 3620 85be d89a 00bf e8b6 4b3e
000001a0: 48e9 70be fc3e 253e 4330 453d a4d0 97be
000001b0: a004 edbe 1a98 e6bd 9e1a 14be a705 0dbe
000001c0: d057 34be df6b e4bd 01af 983d 4da4 adbd
000001d0: 7788 ae3d 3c03 0c3f 587b af3c e40c 553e
