models/multi_resolutionv2/SNN_Autoencoder_tsri_160s_320g.pth (torch, 25565 bytes, 11 tensors)

encoder_conv1.weight f4 [24, 1, 5]
000000 88 ba f9 3e 48 80 20 3f 5e 1f 34 3f 42 a8 da 3b
       0.48775125 0.6269574 0.7036036 0.00667289
000010 33 80 76 bc ef 2f f3 3e ea 57 e9 3e ac db fe 3e
       -0.0150452135 0.47497508 0.45574886 0.4977697
000020 42 a9 f5 3e 4e 6a f6 3e 48 77 9a be 56 3c 13 3f
       0.47980696 0.4812798 -0.3016913 0.5751394
000030 35 78 8b 3e 35 b3 d8 3c 57 26 68 3d af d7 cf 3c
       0.27240148 0.02645264 0.05667719 0.0253714
000040 1b d7 0b 3f 87 ae 0e 3f b7 66 05 3f 92 25 d4 bc
       0.546251 0.5573506 0.52109855 -0.025896821
000050 8b da 2b 3c 85 cc ce 3b 4e e5 c0 3b d0 02 66 3c
       0.010489116 0.0063110017 0.0058867102 0.0140387565
000060 5b 1a 01 3c e8 db 85 3e ad 70 5e bd 8f 99 af 3d
       0.007879819 0.26144338 -0.054306675 0.08574211
000070 d7 94 34 3d ba 56 1b 3d fa e9 ec 3e 57 10 3c 3f
       0.044087257 0.037924506 0.4627226 0.7346243
000080 9f 4f 03 3f 26 87 5d bf a0 15 94 be b6 48 2d be
       0.5129337 -0.86534345 -0.2892275 -0.16922268
000090 29 51 17 3f 5c cd de 3e ed 20 90 3d 6f 89 30 3f
       0.59108216 0.43516052 0.0703753 0.6895971
0000a0 f6 cf 00 bb 49 90 23 3e b5 62 ce 3e 8c b2 d8 3c
       -0.0019655204 0.15973009 0.40309682 0.026452325
0000b0 64 72 23 bc 55 96 e7 bc b2 da 06 bd 97 f9 b7 3d
       -0.009976003 -0.028269926 -0.032923408 0.08983152
0000c0 a2 1b 65 3f 89 e9 6d 3f da d8 47 be 30 d0 fe bc
       0.8949529 0.9293447 -0.19516316 -0.03110513
0000d0 46 ab 6c be 29 1b b1 be 91 9d 67 bd 1b a0 fe be
       -0.2311221 -0.34591034 -0.05654675 -0.49731526
0000e0 d0 a2 b4 3d 52 91 ef be 03 88 bb 3d 7e ad 1b be
       0.088201165 -0.46790558 0.091568016 -0.15202901
0000f0 7a 04 ca bc 71 d6 27 3f 6b fa b0 bc 9c 3a 0a 3f
       -0.024660338 0.65561587 -0.021603784 0.5399568
000100 5b b9 6e bd ea a5 fd 3e 8b 8c e6 3e 6a 1c 10 bf
       -0.058282237 0.49540645 0.450291 -0.56293356
000110 58 63 e3 3e 7c a1 36 3f 59 98 34 bd f7 7e 96 bd
       0.4441173 0.71340156 -0.044090603 -0.07348435
000120 46 33 81 bc d1 a0 86 3f a5 a5 f0 bc 4c 0e 0a ba
       -0.01577152 1.0517827 -0.02937586 -0.00052664126
000130 97 1f b8 3b a2 2f 94 3b d4 a5 df ba dc 60 8d 3f
       0.005619 0.00452228 -0.001706297 1.1045184
000140 3c 0f c9 bb 53 6f b5 bc 50 8a 29 3f ce cf 12 3f
       -0.0061358493 -0.02214781 0.66226673 0.57348335
000150 29 9d 31 3d 6c f6 44 be 7e 4c e7 3d 81 81 ef 3c
       0.04336277 -0.19234627 0.112938866 0.029236557
000160 7a 61 bb be 65 ab 95 bb 57 59 2e bf ea 66 9c 3f
       -0.36597806 -0.004567551 -0.6810507 1.2218907
000170 06 bc 17 3f 72 0b ed 3a 31 85 45 3d d7 a7 c6 bc
       0.59271276 0.0018085076 0.048222724 -0.024249954
000180 a0 ae e5 be 9d c3 db bc bd 77 d3 be 3f 58 59 be
       -0.4485979 -0.026826674 -0.4130229 -0.2122507
000190 3d 96 aa 3d c0 a0 06 3f 4c 33 c5 3d cf b8 86 bc
       0.08329437 0.52589035 0.09628925 -0.016445545
0001a0 36 0c 0e bd 8c a1 00 bc dc c1 cb 3c 46 3f ea 3e
       -0.034679614 -0.007851016 0.024872713 0.457514
0001b0 e2 c9 02 3f 6c 2e ad 3d 60 eb 84 be c0 ea f8 bd
       0.510893 0.0845612 -0.25960827 -0.1215415
0001c0 22 16 5d be 2d 82 43 be 96 8d 77 3e 5a b2 1e 3f
       -0.21590474 -0.19092627 0.24175104 0.6199089
0001d0 08 d1 a8 3d e7 d6 8f be d0 f3 d8 3e 19 7d 1e 3f
       0.082429945 -0.28093645 0.42373514 0.61909634

encoder_conv1.bias f4 [24]
000000 58 82 36 bf 19 74 b7 be 99 09 e0 3e 8a ba 6b bc
       -0.7129264 -0.35830763 0.43757322 -0.014387736
000010 74 9f 89 3f 77 4f 74 3f bf 1f 2f 3e 8d a6 17 bf
       1.0751786 0.95433754 0.17101954 -0.5923851
000020 4f 82 77 3f 22 81 3b bf 45 81 06 be d1 73 81 be
       0.9668321 -0.73243916 -0.1313525 -0.25283673
000030 6a 29 b8 bc f5 6b 4f be a8 89 8b 3e ef 82 bd bc
       -0.022480685 -0.20256026 0.2725346 -0.023133723
000040 56 a4 37 be ea 7c 09 be b3 ba ed 3e 0d a5 21 be
       -0.17933783 -0.13426557 0.46431503 -0.15785618
000050 d2 3e b7 3e 17 99 a6 3d 8e 50 de be 81 93 17 3f
       0.35790116 0.08134668 -0.43420833 0.5920945

encoder_conv2.weight f4 [12, 24, 5]
000000 93 02 32 3e 46 59 1e be 80 14 0f be 6b a2 5c 3d
       0.17383794 -0.15463743 -0.13972664 0.05386583
000010 59 a0 2f 3d 6c 16 42 be 74 30 9e bd c6 7e 85 bd
       0.04287753 -0.18953866 -0.077240855 -0.06518321
000020 db 57 9a bb 1c 1a c5 3d 7c 56 8f bc 3c 7a 8e bd
       -0.00471018 0.096241206 -0.017497294 -0.06956908
000030 49 d8 ce bd 9b b4 92 3d 7d ab aa 3d a2 6e 59 be
       -0.10099847 0.07163354 0.0833349 -0.2123361
000040 2c 33 12 be 92 8b 9e bc ad 20 85 bd c6 99 c9 bb
       -0.14277333 -0.019353662 -0.06500373 -0.0061523644
000050 66 40 09 be 0b 0b e3 bb c1 8f 42 3d f1 5d 28 3d
       -0.13403472 -0.0069288067 0.047500376 0.041105215
000060 4c 13 82 3d 8e 31 0a bd 60 c6 67 3d 19 3c 4a 3e
       0.06351337 -0.033738665 0.05658567 0.19749488
000070 c8 05 bc 3d 05 5e 9e 3d 8b bb db bb c1 9b 4f be
       0.0918079 0.077327766 -0.0067057065 -0.20274259
000080 4b 18 bd 3c 23 f7 51 3c 8d 73 0d bd d9 bb c5 3d
       0.023082873 0.01281527 -0.034534026 0.0965497
000090 ae 41 da bc 97 94 d7 bd e8 d4 a7 3c 77 a7 f5 3d
       -0.026642647 -0.10526388 0.020487264 0.11994832
0000a0 df fb ab bc a9 ac 54 3d d8 8c 5c 3e 6e 25 05 3e
       -0.020994125 0.051922474 0.21538103 0.1300256
0000b0 ac 14 18 3e 36 9d 0f bd d4 06 e2 3c 25 1f b1 3d
       0.14851636 -0.035062037 0.027591147 0.086485185
0000c0 83 c5 b1 bc 6b f3 e4 3d 32 3e ed bc fb 2c 41 bd
       -0.021700626 0.11179241 -0.028960321 -0.047162037
0000d0 35 e8 93 bd 14 4f a9 bd 60 19 69 bc 94 57 22 3d
       -0.07222024 -0.08267036 -0.014227241 0.039634302
0000e0 ff f3 25 bd 6a 6f b1 3d 40 33 e3 bc 14 3a a7 3d
       -0.040515896 0.08663829 -0.027734399 0.081653744
0000f0 61 44 2a 3e 8e a6 7b bd 68 fe ba bd 38 89 e9 3c
       0.16627647 -0.061438136 -0.091305554 0.028507814
000100 7a 71 0f bd 91 8c 00 3d d1 53 84 bc b3 37 82 bd
       -0.03502033 0.031384055 -0.016153248 -0.0635828
000110 b1 86 bb bc a0 af 39 3c ea 8d 1a be f9 11 55 bc
       -0.022891374 0.011333376 -0.15093198 -0.013004773
000120 48 ef bd 3d 85 9c ef 3d 75 16 54 3c 60 c8 e5 be
       0.09274155 0.116997756 0.012944807 -0.44879436
000130 25 c8 85 bc fa 57 ee 3d f8 d7 f6 3d b8 fe 8f ba
       -0.016330788 0.11637874 0.120529115 -0.0010985946
000140 8d 75 64 be 5b cf 46 bd f5 d7 2e 3d fe aa b2 bd
       -0.22310467 -0.048537593 0.04268642 -0.087240204
000150 6d e6 0e 3c 50 57 d0 bb 8a c3 11 bd 6c b2 50 bd
       0.00872193 -0.0063580647 -0.03558687 -0.050951406
000160 80 2a 03 ba 04 01 b7 bd 41 d8 6e bc 86 2c 6d bd
       -0.00050035864 -0.089357406 -0.014577926 -0.05790379
000170 9f ab b4 3d 22 cf 3f 3b b3 28 f7 bc 85 40 9c bd
       0.088217966 0.0029267748 -0.030170774 -0.076294936
000180 0d 7c a8 bd e0 ee a4 bd d0 f4 61 3d 98 0b 81 3c
       -0.08226786 -0.08053374 0.055165112 0.015752599
000190 30 ef 16 3d 72 af cd bd 9e b0 1c 3b 2b eb bf 3d
       0.0368492 -0.10043229 0.0023908983 0.093710266
0001a0 31 61 92 3d 31 2e c2 be a7 e9 26 bd e8 be f6 bc
       0.07147444 -0.37925866 -0.040750172 -0.030120328
0001b0 56 70 a3 bc b4 58 89 3b 6e 1c f6 bc 26 66 22 bd
       -0.019951027 0.0041914824 -0.030042853 -0.039648198
0001c0 4c a6 54 3d 30 c4 a9 3d 46 f4 88 bd 79 92 85 3d
       0.051916406 0.08289373 -0.066872165 0.06522078
0001d0 cb 6e a9 3d f2 f9 77 3d 97 60 14 3c c1 8f 9f 3c
       0.08273085 0.0605411 0.009056232 0.019477727
0001e0 01 19 7b 3d f6 e7 20 3e 28 fe b0 3d b8 1e 53 3d
       0.061303142 0.15713486 0.086422265 0.051542968
0001f0 b2 7f b4 3e e8 f0 80 3e ba c7 66 3e 14 4b 1a 3e
       0.35253674 0.25183797 0.22537127 0.15067703
000200 44 48 99 3e 49 ad 52 be 40 83 8d be f6 a6 a7 bd
       0.29937947 -0.20573916 -0.27639198 -0.08186142
000210 60 7d ea bb 9b 92 68 be 47 2c 4b be c8 87 49 3e
       -0.007156059 -0.22712176 -0.19841109 0.19680703
000220 ef fd 86 3e 15 c1 09 3e 75 1a e5 3e d8 e8 23 bd
       0.2636561 0.13452561 0.44746748 -0.04001698
000230 fc 2e 1a 3e 7c cd ab 3d bd c9 4e be 99 c5 76 3d
       0.15056986 0.083888024 -0.20194145 0.060247038
000240 7d 90 f2 bc 59 a5 04 be 09 be 51 be 49 35 c5 be
       -0.029609913 -0.129537 -0.20482649 -0.38517216
000250 30 4c 42 be 0a 1b c2 be 08 23 64 3e 87 83 df 3d
       -0.18974376 -0.37911254 0.22278988 0.10913759
000260 8d 37 bd 3e 9e 19 06 3e 0b 57 a6 be e1 a5 12 bc
       0.36956444 0.1309571 -0.32488284 -0.008950681
000270 ec 18 8b bd aa 9c 2d 3e 7b fd 21 3b 02 1e a8 3e
       -0.06791863 0.16954294 0.0024717737 0.32835394
000280 ce 5d 1c be f2 ab 64 bb 51 2a ce bd eb a2 38 bd
       -0.15270159 -0.0034892526 -0.10066665 -0.045077246
000290 c3 03 8a be bf c9 39 3e 58 0e 41 3e b7 95 b5 3e
       -0.26955995 0.18143366 0.18853128 0.35465786
0002a0 a3 7f 0c 3e 6e b9 3a 3f d3 7b 94 bd 2f 12 3d bd
       0.13720565 0.72939193 -0.0725018 -0.04615992
0002b0 28 2f b0 bc d0 9c af 3c 3c ec 8e 3d be d5 9e bd
       -0.02150686 0.021437079 0.06978652 -0.07755612
0002c0 b8 50 90 bd cc dc c3 3c e0 cb 98 3b 00 e5 28 3a
       -0.07046646 0.023908995 0.0046629757 0.0006442815
0002d0 ec b1 ab bd 4c 00 68 3e 70 8e 0d 3f 29 d3 9d 3e
       -0.08383545 0.22656363 0.5529547 0.30825165
0002e0 0f ac cd 3e 20 f8 37 be b8 c1 c9 be d9 78 12 be
       0.40170333 -0.17965746 -0.39405608 -0.14303912
0002f0 cf 2a 4c be 2d e9 0f be 7a b4 17 bc 5c 92 57 3d
       -0.19938205 -0.14053793 -0.009259338 0.052629814
000300 30 f4 2d bc 18 23 ed 3d 78 97 89 be f0 8b 92 3e
       -0.010617301 0.11578959 -0.26873374 0.2862239
000310 91 a3 02 3e bc 41 a9 3c 3c 7d 40 3d 86 67 21 3e
       0.12757708 0.020661227 0.046994433 0.15762147
000320 bf 0d 86 3e ec 18 59 3e 22 66 b2 be c9 1b 14 3f
       0.26182362 0.21200913 -0.34843546 0.57854897
000330 0a ab 13 3f 5e 4b 83 3d 68 61 82 3d 6c 3b a9 3c
       0.5768286 0.064108595 0.06366235 0.020658217
000340 07 85 b3 bd 20 df b7 3d b6 70 07 3e 11 09 1d 3e
       -0.08765607 0.089781046 0.1322659 0.1533549
000350 c6 84 86 3d cd 46 0e 3d 0c 6c 5f 3e e8 e3 d4 bc
       0.06568293 0.03473549 0.2181856 -0.02598758
000360 dc 08 ac 3c be f7 85 3d 3e e7 05 3d 81 9f 97 bd
       0.021000318 0.06541394 0.032691233 -0.0740347
000370 33 0c a5 be 91 cb 8a be bb e2 62 be b6 a6 ca 3d
       -0.3223587 -0.27108434 -0.22156803 0.09895079
000380 74 9b c0 bd 1d 8f e0 bd 4f f2 9f be e4 1a bc be
       -0.0940465 -0.10964797 -0.31239554 -0.36739266
000390 9b c1 a8 be 32 8b 77 bd 8a 82 99 bd 3c 51 74 3d
       -0.3296021 -0.06043548 -0.074956015 0.059647784
0003a0 d8 3a bc 3c d2 42 3e bd 32 4d 96 bd 91 6c a3 3d
       0.022977278 -0.046450444 -0.073389426 0.07979692
0003b0 0a b3 47 bc 2e a1 4b 3d 1f 3f 02 be ae 12 66 bd
       -0.012188682 0.04971426 -0.12719391 -0.056170158
0003c0 f6 46 b2 bc 9d e5 a5 bd c1 51 a8 3d 7d ae 0d 3e
       -0.021762352 -0.08100436 0.08218718 0.13836093
0003d0 71 f7 b4 bd b3 79 95 3a fe eb 1c bd a6 17 84 bd
       -0.08836258 0.0011404067 -0.038310997 -0.06449823
0003e0 18 6d 13 3e 75 7f 1e 3d b3 6f 17 bd 94 9a e8 bc
       0.14397085 0.03869577 -0.03697176 -0.028394021
0003f0 03 14 f3 bc da b6 47 3d ab 5a 79 bd 54 40 fa bb
       -0.029672628 0.048758365 -0.060877483 -0.007637063

encoder_conv2.bias f4 [12]
000000 b9 82 cc 3e 02 2a 63 3e 59 23 33 bc a6 e8 70 3e
       0.39943483 0.22183993 -0.0109337205 0.23526248
000010 de a6 87 3e 5e 64 0a 3f c9 64 47 3f fd 31 b3 3e
       0.26494497 0.540594 0.7788816 0.34999076
000020 fe 5e b6 3f 0a 8f 47 3e f9 83 1b 3e 23 c5 c7 3e
       1.4247739 0.19488159 0.15187062 0.3901759

encoder_conv3.weight f4 [6, 12, 5]
000000 d9 7a 04 3e 1e 7c db 3d 25 32 68 be d1 59 e8 bd
       0.12937488 0.10717033 -0.22675379 -0.11345256
000010 c1 10 10 3e 33 4f 14 bd d5 9d d4 bd 3f a3 f6 3c
       0.14068891 -0.036208343 -0.103816666 0.030107139
000020 90 17 8a bd 5f d4 0d bd cb cc 51 3d cb 36 6b 3e
       -0.067427754 -0.03462636 0.051220696 0.2297012
000030 9f 31 26 3e bc a5 a8 be 1a 33 e2 3c ad 30 36 bd
       0.16229866 -0.32938945 0.027612258 -0.044480015
000040 a3 6e 02 bd c1 4c 85 3c fa a5 71 be 3f 08 8b 3c
       -0.031843793 0.01627195 -0.23598471 0.016971705
000050 a6 ce 04 be ad 5b 0e be 7d c0 f4 3c 78 eb c4 be
       -0.12969455 -0.13902159 0.029876942 -0.38460898
000060 d7 ac 35 bd 27 f8 aa bc 5b 2e 86 bc 86 de ac 3d
       -0.044354286 -0.020870281 -0.016379526 0.084408805
000070 af c0 02 be ef bf 2e bd 9c 41 82 3d f0 1b 9a 3c
       -0.12768815 -0.04266351 0.0636017 0.01881215
000080 64 d8 d3 3d 60 dc 0e be ce 9d 48 bd 0a 27 d3 3c
       0.103440076 -0.13951254 -0.04897862 0.025775451
000090 67 a7 6a bc 2e de c0 bb 88 b3 e0 3d c4 59 01 3c
       -0.014322138 -0.005885861 0.10971743 0.007894937
0000a0 28 a9 3b be 24 37 db 3d 14 7f 3e 3e 1b 4a a6 3e
       -0.18326247 0.107038766 0.18603164 0.32478413
0000b0 70 2d cf bd 0e f6 c7 bd da bc 2f 3d 66 1a c3 3d
       -0.101160884 -0.09763728 0.042904712 0.095265195
0000c0 04 66 e8 3c f6 6a ab 3b 51 70 4a 3c d2 f3 02 3e
       0.028368957 0.0052312566 0.01235588 0.12788323
0000d0 a4 3a 45 bb ee 32 96 be 03 1e 8d 3b a9 5b 4a bd
       -0.0030094767 -0.2933573 0.004306556 -0.04940382
0000e0 77 2a a4 3a 49 5a ce 3c 40 4e 9f 3d ca 03 83 bd
       0.0012524863 0.025189536 0.07778597 -0.06397207
0000f0 d7 de a3 3c 0d cf 1a bc 4c 3a f7 bc 99 55 f7 bc
       0.02000372 -0.009448779 -0.030179165 -0.030192183
000100 aa 25 52 3d 00 b5 89 3c 51 48 04 bb 16 3a c6 3c
       0.05130545 0.01680994 -0.0020184705 0.02419762
000110 31 68 57 3c 91 4f b1 3b b2 50 88 3c e4 e1 78 bd
       0.0131474 0.0054110964 0.016640041 -0.0607623
000120 3f a2 d5 3d e0 a8 9f 3d 7b db cf bc 08 cf e4 3d
       0.104313366 0.07795882 -0.025373211 0.111723006
000130 cb 6a f6 bc 46 93 58 3d a2 78 20 3c 6b ea 00 3b
       -0.03008022 0.052874826 0.009794386 0.0019670974
000140 a3 01 f0 3e 1e 6d f0 bd 6c 82 47 bb d2 54 b7 3c
       0.4687625 -0.117395625 -0.0030442728 0.022379313
000150 4c 0b 11 bd 3f 65 21 bd d6 b5 d2 bc 09 25 e2 bb
       -0.035411164 -0.039403196 -0.025721472 -0.0069013876
000160 00 be 08 bd da c9 9e bc d7 3d 3f 3c 05 ed f3 bc
       -0.033384323 -0.01938336 0.011672459 -0.029776106
000170 ad e9 3c bd 8d 6c bb bb 7a be c6 3b 0f 95 57 be
       -0.046121288 -0.0057197274 0.006065187 -0.21052955
000180 17 2c 67 3b e1 ca f6 3c 20 fd df 3a d4 5c 56 3a
       0.0035274082 0.030126037 0.0017088987 0.00081772846
000190 26 b2 0c bf c9 4c 71 3d a8 39 4d bd 26 9f 8b bc
       -0.5495933 0.05891112 -0.050103813 -0.017043661
0001a0 c9 4d a6 bd 3b ce bc 3b e8 6c dd 3c ac 47 9e 3c
       -0.08120305 0.0057618893 0.02702947 0.019321285
0001b0 17 fc c7 bc 32 8d d5 3c 36 2c 04 bb 55 d5 07 3b
       -0.024412198 0.026068304 -0.0020167953 0.002072652
0001c0 82 a4 13 3c e5 47 7f 3c 54 d8 64 bb 56 09 0b bd
       0.00901139 0.015581106 -0.003491898 -0.03394445
0001d0 7f cc 29 bd 85 da 2d bc b6 04 84 bc 8d 50 2e 3b
       -0.04145479 -0.010611181 -0.016115528 0.0026598305
0001e0 7e f6 f6 3c 65 92 2e bb 3a f5 24 3d 33 19 c4 3d
       0.030146834 -0.002663755 0.04027293 0.09575119
0001f0 53 51 63 bb c4 34 11 3b 1d 84 ae 3c c5 fe 0c bc
       -0.0034685924 0.0022156695 0.02130323 -0.008605664
000200 98 83 e0 3c c1 4a 24 3c 09 e5 d9 bc b1 ed de 3c
       0.027406499 0.010027588 -0.02659847 0.02721295
000210 ae cb 01 3d 89 6d f0 bb 97 38 f6 3c 42 30 64 3c
       0.031688385 -0.0073372764 0.030056281 0.013927521
000220 0a cc 2b 3c b1 0c 1e bb 1e 94 88 3c b7 1a 0e 3d
       0.010485658 -0.0024116451 0.01667219 0.034693446
000230 96 a2 18 bc 4b 34 10 bb 46 80 0c 3d af 2d ca 3d
       -0.009316107 -0.0022003825 0.03430202 0.09871995
000240 ce e1 15 3c 68 c2 0a bd a4 4c 7c bc 12 3b ac bc
       0.009148074 -0.033876806 -0.015399132 -0.02102426
000250 0a 60 b0 bd a9 3f 84 bc 8d dd c6 bb 62 64 a4 3c
       -0.08612068 -0.016143637 -0.0060688914 0.020067398
000260 24 ed 9b 3c 13 55 d7 3d df 5a 04 3c 1a 4d 46 bb
       0.019033976 0.105142735 0.008078306 -0.0030258358
000270 d1 e5 c5 3b 59 fc d5 3c cd 21 be 3d a6 70 eb 3b
       0.006039359 0.026121305 0.09283791 0.0071850596
000280 50 8a c7 bb 6c f3 90 3c 19 05 05 3d b7 90 b4 3d
       -0.006089486 0.017694198 0.032475565 0.08816665
000290 ee b2 07 3d 64 00 5a bc 68 b8 74 3b e4 5f 38 bd
       0.033129625 -0.013305757 0.003734136 -0.045013323
0002a0 5a 94 6d 3d 74 b7 1b bb 4d 1d 46 3b 48 60 78 3d
       0.058002807 -0.002376047 0.0030229867 0.060638696
0002b0 80 1c 92 bb b4 0f c0 bc 2e d8 80 3b 82 4d 1b bc
       -0.004458964 -0.023444988 0.0039320206 -0.0094789285
0002c0 1e c0 e1 3a 85 a7 3f bb 1b d8 86 bf 52 cb 32 bc
       0.0017223393 -0.0029244137 -1.05347 -0.010912733
0002d0 2a 4b 06 3c 28 8b a5 be c0 36 2f 3d 42 91 2c 3b
       0.008196631 -0.3233273 0.042776823 0.0026331698
0002e0 1e 8a 2f bc a7 c7 cf 3d 30 7e 21 3d 93 c4 ae 3c
       -0.010714082 0.101455025 0.039426982 0.021333968
0002f0 25 ab 0f 3d 6e 5f 32 3c 30 37 1f bd 94 ee 03 3c
       0.035075326 0.01088701 -0.03887099 0.008052487
000300 49 14 96 3c 8c 60 2b bd 36 61 89 bc d8 04 a4 bd
       0.01832022 -0.04184012 -0.016769987 -0.08008736
000310 56 08 ba 3d 6c 6d 48 3d ed b1 35 3d 21 fa a2 3a
       0.09083621 0.048932478 0.044359136 0.0012434163
000320 d2 52 5b bd 33 60 2d bd e6 91 51 3c f5 c2 0b bd
       -0.05354578 -0.04232807 0.012791133 -0.034121472
000330 74 d6 cd 3b 47 10 29 be 66 44 03 3d 61 c3 c4 bb
       0.0062816683 -0.16510116 0.03204765 -0.0060047363
000340 8f e3 12 3d 6a bd 34 bc 54 70 4b be fb 24 77 bd
       0.035861548 -0.011031488 -0.19867069 -0.060338
000350 bf 8f 84 bd 82 dc f1 3b f7 0d 13 3c 90 3f 17 bd
       -0.0647273 0.007381023 0.008975497 -0.036925852
000360 6d 90 9e bd 9a ac 00 3d 1e 60 25 3b 25 54 bd 3b
       -0.07742391 0.031414606 0.0025234292 0.005777853
000370 9f de 9a 3b 63 31 9a bd 4c dc b5 bc 35 6e 4f 3c
       0.0047262455 -0.07528951 -0.022199772 0.012660553
000380 51 fe 67 3c be dc 03 3d 79 3d af 3e 56 5c 9c 3c
       0.014159755 0.032192938 0.34226587 0.019086998
000390 77 ea 9d ba 27 bb b9 3c 41 2d b9 3c 6c 49 86 3c
       -0.0012048025 0.022672249 0.022604587 0.016392432
0003a0 68 d6 58 3c d2 bd 86 bc a6 5c 41 3c 69 8d 96 bc
       0.013234712 -0.016447935 0.011801874 -0.018377976
0003b0 15 89 30 bd 87 2c 96 bb db 0d fe bc 28 8e ed 3b
       -0.04309948 -0.004582945 -0.031012466 0.0072496124
0003c0 95 43 61 bc 7e 1c 63 bb fa 45 0f 3d 36 b5 41 bc
       -0.013749023 -0.0034654434 0.034978844 -0.011822989
0003d0 44 f5 9e bc 63 44 46 bc 1a 2a ed ba 5e ab 41 bc
       -0.019404061 -0.012101266 -0.0018094212 -0.011820642
0003e0 91 fc dd 3d 81 d7 5b bc b5 e1 ff ba fd c4 cd 3c
       0.10839189 -0.013418079 -0.0019522222 0.025118345
0003f0 8f 11 fe bc 60 59 1c 3e 30 76 d7 bb d0 7e 35 3c
       -0.031014232 0.15268469 -0.0065753683 0.011077598

encoder_conv3.bias f4 [6]
000000 4c 3f 37 3f 28 5a 5e 3f c9 4f 54 3f 13 4d 48 3f
       0.7158096 0.8685632 0.8293424 0.78242606
000010 cb 6e 42 3f 42 d7 f9 3e
       0.75950307 0.4879704

deconv1.weight f4 [6, 12, 5]
000000 30 e7 fd bc 64 a0 84 3d e8 14 bf 3c dd ba c4 bb
       -0.030994028 0.064759046 0.023325399 -0.006003721
000010 b3 1d 8f bc a2 36 63 bc 61 ab b6 be 4c 27 4b bd
       -0.017470216 -0.013868006 -0.35677627 -0.049598023
000020 5f 89 ad 3d 4f e1 fe bc 4f 84 f9 bd 3d b6 52 3d
       0.08473467 -0.031113295 -0.12183439 0.051443327
000030 eb 14 80 bd 4e 58 01 be 73 1e fa 3c 5f 71 ca 3c
       -0.0625399 -0.12631342 0.030532097 0.024712263
000040 23 1f b5 3e 9c db 66 be 67 62 f2 be e5 c9 84 3c
       0.35375318 -0.22544712 -0.473407 0.016209552
000050 89 d1 c7 3e b7 80 e2 3c 0e a4 ad be 33 b8 3d 3d
       0.3902705 0.027649267 -0.33914226 0.046318244
000060 c3 be e6 3e cc c8 a6 3d d6 6f ab 3a 87 d8 9f bd
       0.45067415 0.08143768 0.0013079594 -0.07804971
000070 29 17 99 3c f5 fd c6 bc a6 ac 46 3d 82 2f a2 3e
       0.018687801 -0.024291018 0.048504494 0.3167687
000080 c8 dc 0e 3e 66 91 1c bf 33 c1 69 3d 07 fa cf 3d
       0.13951409 -0.6115936 0.057069015 0.10155111
000090 1b f7 0c be 63 db 81 be af c9 cd 3d 35 ec 23 3e
       -0.13766138 -0.2536269 0.10048234 0.16008075
0000a0 4c 84 b7 bd 68 f8 1d bd 03 cb b8 3d 0f ab 41 3e
       -0.089607805 -0.038566977 0.090230964 0.1891291
0000b0 03 92 3d bc e5 3a f9 3d d1 fb 5f bd 1a 9a bc 3e
       -0.011570456 0.12169436 -0.05468351 0.3683632
0000c0 04 78 88 bc d7 cd 83 3d 30 94 b4 3d d8 91 bc bc
       -0.01665879 0.06435745 0.08817327 -0.023018762
0000d0 7c 00 09 be 2b e4 2e bf f8 50 a8 3b db 91 a1 bd
       -0.13379091 -0.68316907 0.0051366054 -0.07889148
0000e0 ac da c9 3c d9 05 5e bd 88 a0 29 be e5 26 e6 bc
       0.024640404 -0.054204796 -0.16565144 -0.028094718
0000f0 21 d9 da bd 04 29 8e 3d 05 27 49 bc 55 25 b4 bc
       -0.10685945 0.06941417 -0.012277369 -0.021990458
000100 9e a3 ff bb 1b 9c 0e 3d 77 6b b7 bc 05 41 44 bc
       -0.007801487 0.034816843 -0.02239011 -0.0119783925
000110 8f 66 bf 3c 69 0c 73 3b 39 e0 13 3c 7a 8e 9e 3c
       0.023364333 0.0037086254 0.009025627 0.019355047
000120 79 3d 3b 3d 41 b9 0a bc 8c 55 c6 bb 1a ca 3f 3d
       0.04571292 -0.00846702 -0.0060526785 0.0468236
000130 a7 64 9b 3d 67 93 cb bc 91 e6 01 bd 08 00 80 3c
       0.07587557 -0.02485056 -0.031714026 0.015625015
000140 38 65 24 3e 32 da ea 3a e3 cd 68 be eb d1 12 bb
       0.16054237 0.001791781 -0.2273479 -0.0022402953
000150 05 4a 0b 3e 93 58 bf bd 84 1c 90 bb 5e 98 14 3c
       0.13602455 -0.09343066 -0.0043979306 0.00906953
000160 0e c0 4b 3b be 4a 8c 3c cb 4c c2 bc 98 de af 3c
       0.0031089815 0.017125484 -0.023718258 0.021468446
000170 e9 8c 1c 3d 1a b6 dc 3c 32 89 ac 3b 05 b4 44 3c
       0.03822032 0.026942302 0.0052653784 0.012005811
000180 ad 9d 1c bd 47 83 27 3b d5 98 90 3b 68 3c ed 3c
       -0.03823631 0.0025560425 0.0044127502 0.028959468
000190 5c 96 70 3d 93 49 5b 3c 06 a7 95 bc 1b 56 3a 3b
       0.058737144 0.013384241 -0.01826812 0.002843267
0001a0 92 16 99 bc 9c f9 37 bc ea d3 1c 3b 2d 0d bb 3d
       -0.01868752 -0.011228945 0.0023930022 0.091333725
0001b0 7a e0 3c 3a ae f3 83 ba 01 cc 15 3f 84 66 99 b9
       0.00072050805 -0.0010067129 0.5851441 -0.00029258814
0001c0 39 70 b4 3b d0 29 a9 3b a6 81 54 3c e5 03 87 3e
       0.005506542 0.005162455 0.012970364 0.2637016
0001d0 19 3c 4b bb d0 1e 87 bb c3 8d 2d ba 9d 3c bd bc
       -0.0031011163 -0.004123546 -0.00066205504 -0.023100192
0001e0 a4 a9 2d bc 38 b0 97 3b 34 71 19 bb 42 94 23 be
       -0.0105995275 0.004629161 -0.0023413422 -0.15974525
0001f0 c1 06 f9 bb ca 86 55 bc 6e 0e 50 bd f4 ba b2 bc
       -0.007599682 -0.0130326245 -0.05079501 -0.021817662
000200 c6 8c 38 3d 83 29 20 bc 96 a6 8c 3b 94 dd 54 3c
       0.045056127 -0.009775522 0.0042923195 0.0129922815
000210 08 6d fa bb ee 58 5f bc ed 6e f6 3a 73 08 22 bc
       -0.007642392 -0.013632042 0.0018801369 -0.00988971
000220 0a b5 41 3d 44 8f ba bc e8 50 54 bd 5f 8a 0c 3c
       0.047291793 -0.022773392 -0.05183497 0.008577912
000230 fa 6a bd 3d a6 b7 ba 3b e2 95 ba bd 65 e3 62 3e
       0.0924892 0.005698162 -0.09110619 0.22157057
000240 72 d7 12 3e 6f 9a 25 bc c0 94 46 bb 42 53 76 bc
       0.14339998 -0.010107621 -0.0030301064 -0.015034499
000250 7d 75 af be 4a ce 74 bc d9 30 0b 3c 1f c1 8c 3c
       -0.34269324 -0.014941761 0.008495533 0.017181931
000260 ab fe 51 3c 49 14 6b bd 49 4d 4b 3c b1 a6 bc 3c
       0.012817065 -0.057392392 0.012408563 0.023028703
000270 8c 90 08 bc 9b d4 39 bb 96 4b c2 bc dc e2 00 3d
       -0.008335244 -0.0028355483 -0.023717683 0.03146635
000280 a8 c1 02 3c ca b5 cb bb dc 2d 62 3c 58 03 03 be
       0.007980742 -0.0062167393 0.013804879 -0.12794244
000290 5d df 1c 3c 0f e5 85 3c 39 de cf ba 26 51 96 3d
       0.009574738 0.016344575 -0.0015859074 0.073396966
0002a0 d7 21 43 3e 68 3a d6 3c 8f 61 28 bc d5 6b ae 3b
       0.19055878 0.026150897 -0.010277166 0.005322913
0002b0 4e 7a 3f bc 3a 7d 17 bd 88 6c af ba 9e 6d 1c bd
       -0.011686875 -0.03698466 -0.0013383785 -0.038190477
0002c0 92 c1 9c ba cd 17 26 bd fb 75 91 3c 57 59 73 bc
       -0.0011959544 -0.040550042 0.017756453 -0.014852843
0002d0 16 cc d6 3e 1f a8 6b 3e d7 69 2b bc 52 fb a5 3d
       0.4195258 0.23013352 -0.010462246 0.08104576
0002e0 65 c2 62 bc 66 e9 db bc 07 0f 25 3f a3 8b 29 bc
       -0.013840293 -0.026844691 0.64476055 -0.010348233
0002f0 af ad b2 3d 43 0f e0 bb 7e 15 98 bd dd 3b c9 3d
       0.08724534 -0.006837757 -0.07425974 0.09825871
000300 78 c1 f6 3d 3f 34 ad 3c 00 8a d1 39 29 3c 4b ba
       0.1204862 0.021143077 0.00039966404 -0.00077528
000310 3d b5 00 3f dc 76 72 3c ab 55 72 3d f1 9e 0c 3b
       0.5027655 0.014798846 0.05916373 0.002145704
000320 88 87 0f bd 7e e4 ba 3b b3 52 b2 be db bc 8f 3b
       -0.035041362 0.005703508 -0.3482872 0.004386527
000330 a0 8d 3b be 00 0d da bc ea 90 a0 bd 5c d6 95 3c
       -0.18315744 -0.026617527 -0.0784014 0.018290691
000340 b0 95 db bc ea 89 71 ba cb 1b cd 3d 04 3e 75 3e
       -0.026804775 -0.0009213971 0.10015067 0.23949438
000350 01 e3 f7 3c 76 5a db bb 4e 02 cb 3b f5 33 12 3e
       0.030259611 -0.0066941334 0.006195343 0.14277633
000360 f9 96 36 be 01 fe d3 3d 15 bd 51 bd 66 e3 03 3d
       -0.17831029 0.10351182 -0.051205713 0.032199286
000370 1a 07 98 bd c0 74 98 3c a3 97 19 bd e4 d8 68 3a
       -0.074232295 0.018610358 -0.037498128 0.0008882417
000380 9b d7 77 3b 0a a7 07 3e 8c 5d 5d 3e 4d 33 93 3c
       0.003781772 0.13247314 0.21617717 0.017968798
000390 14 fd a3 3a 34 e8 4a 3c 09 1e b5 3d 58 66 59 3e
       0.0012511336 0.012384463 0.088436194 0.21230447
0003a0 e0 39 36 3a 8b 95 1d 3d 1d 4a 2d bc 6e fb 66 3e
       0.0006951373 0.038472693 -0.010576752 0.2255685
0003b0 82 ab 25 be 55 c4 25 3d d6 a8 a0 bc 27 ac d0 3c
       -0.16178706 0.04047044 -0.019611757 0.025472714
0003c0 ad 37 04 bd c6 af 8d bc 5c e4 a1 3b 54 5c 08 3f
       -0.03227966 -0.01729573 0.0049405526 0.5326588
0003d0 bc 4f 3d bc a1 ce cc bc 00 1b 94 3d 45 16 5b 3c
       -0.011554655 -0.025000872 0.07231712 0.013372009
0003e0 17 be cc 3d 8c 9a 42 bc d8 b4 9e 3d cd 15 2b 3a
       0.09997194 -0.011877667 0.07749337 0.0006526381
0003f0 16 8b 44 3d 17 54 f7 3e 2d 7b 0d 3c 29 0d c0 bc
       0.047984205 0.48306343 0.008635324 -0.023443775

deconv1.bias f4 [12]
000000 87 31 4f 3e 0e d5 44 3e c3 23 1e 3e 91 40 32 3e
       0.20233737 0.19221899 0.1544333 0.17407443
000010 e0 39 3c bd 61 4e ca 3e e4 40 11 bd 1a 04 2d 3e
       -0.04595363 0.39512923 -0.035462275 0.16896096
000020 68 8d b3 3e 01 3c 75 3d 1a a3 aa 3e 6e 97 59 3e
       0.35068822 0.059871677 0.33327562 0.21249172

deconv2.weight f4 [12, 24, 5]
000000 dc 04 93 bd c0 7f ad bd 35 cb 2b bf e0 67 7a bc
       -0.07178661 -0.08471632 -0.67106944 -0.015283555
000010 b0 93 ee bd 29 58 46 3e ff 1f ae bb bf 9f 12 be
       -0.11649263 0.19369568 -0.005313873 -0.14318751
000020 b1 de 74 bd a4 bf 37 bd e6 cb 77 bc a7 eb 66 bb
       -0.059782688 -0.044860497 -0.015124297 -0.0035235675
000030 9f d1 46 bd 77 3a f8 bc 62 ef e6 bd 0f e7 11 bd
       -0.048539754 -0.030301316 -0.112761274 -0.035620745
000040 ff fd 9f 3e 5b f2 16 3c 8f ab 14 3e f5 f0 d3 3e
       0.3124847 0.0092130555 0.1451857 0.41394773
000050 1f 86 ed 3c 9d be f0 bd ca f5 8b 3e 48 83 64 bd
       0.028994618 -0.117551066 0.2733596 -0.055789262
000060 1e cc 94 bd 6a 55 d9 3d b1 1e d3 bd 20 0a 86 bc
       -0.07265495 0.106119946 -0.10308588 -0.01636225
000070 37 98 70 3e 6d 67 01 3e 64 84 74 bd 45 24 74 3d
       0.23495565 0.1263711 -0.05969657 0.0596049
000080 ba df 0e bd bc 70 85 bd 4b 66 b9 3c 6a df 81 bd
       -0.03488133 -0.06515643 0.022631785 -0.06341441
000090 80 2a 09 bd 6b 8a 88 bd 33 96 60 bc a4 c5 ab bd
       -0.033487797 -0.06667026 -0.013707685 -0.08387306
0000a0 26 11 c7 3d 13 4b 52 bd a2 dc a8 bc c0 6e 82 3e
       0.09720068 -0.051341128 -0.020613018 0.2547512
0000b0 cf 4f 25 3e 51 c7 2b 3d 28 56 9f bd 9b 67 0e 3f
       0.16143726 0.04193813 -0.07780105 0.5562684
0000c0 13 50 c8 3e d0 fc c6 bd 8d 47 20 3d bb 4b aa bc
       0.39123592 -0.09716189 0.039130736 -0.020788064
0000d0 cd c1 38 bd 63 7f 39 3b b5 30 22 bd 7e b6 3a be
       -0.045106698 0.0028304688 -0.039597232 -0.18233678
0000e0 f3 2e 41 bc 82 91 9d 3e 90 9d 93 3c 4e 4a 3a 3e
       -0.011790979 0.30775076 0.018019468 0.18192407
0000f0 c7 db 99 bd e1 61 b3 bd a0 8a 82 bd dd 25 c4 bc
       -0.07512622 -0.08758903 -0.06374097 -0.023943836
000100 9c cb 58 bd 9d eb 12 3e 7e a8 19 3e dc d9 63 3d
       -0.052928552 0.14347692 0.15005681 0.05562769
000110 78 77 77 3c 5b 3f 94 3e a4 d1 69 3d 11 32 b6 bd
       0.015104167 0.28954586 0.057084695 -0.08896268
000120 17 ec cd 39 66 bf 93 3e c9 4f c5 bc 6a 9d 42 3d
       0.00039276548 0.28856963 -0.024085896 0.047513403
000130 3f f8 a2 be 4b fa 62 be 07 36 88 3d 75 fd 0e 3e
       -0.31830022 -0.22165792 0.0665093 0.13963874
000140 f8 4f 63 bc 1c 50 43 3e 04 4a 36 3e b5 c5 56 bd
       -0.0138740465 0.19073528 0.17801672 -0.052434642
000150 cd 0d 8b bd cd 32 ae 3b e2 99 f5 bc ef 23 e6 bc
       -0.06789742 0.0053161145 -0.029980604 -0.028093306
000160 e6 ad 22 3e 14 78 e9 3d c6 93 f9 bc 47 78 cf 3d
       0.1588665 0.11399856 -0.030465972 0.10130363
000170 f1 3e f7 3d 69 32 d0 3d 67 f6 ca bc 86 c8 8a 3c
       0.12072552 0.10165865 -0.024775697 0.01694132
000180 16 d2 64 bc c4 25 23 3e 6b 67 ab 3d a1 db 83 3d
       -0.013966104 0.15932375 0.08369335 0.06438375
000190 6b 51 87 bd ee 95 34 bd 1f 95 34 be 65 f2 0c 3c
       -0.06607326 -0.044088297 -0.1763501 0.008602713
0001a0 46 e5 ad bd 09 52 58 3e aa cd ba 3b 2c 9d b2 bd
       -0.08490996 0.21125044 0.0057007866 -0.087213844
0001b0 39 97 6f bd 02 da 8e 3d 3b 2f 2b 3d b5 8b 20 3e
       -0.058493827 0.069751754 0.04179309 0.15678294
0001c0 97 8c a1 3d 90 8a 12 3e 4b 8a 89 bd 18 9d 6d 3c
       0.078881435 0.1431067 -0.067158304 0.014502786
0001d0 6a ab 05 3d 38 60 60 3d c5 f9 d0 3c d4 11 0b bd
       0.032634176 0.05477926 0.025509724 -0.03395255
0001e0 1d 1d b9 bd 0c b9 94 3d bd 3e 98 be ec 75 cd bd
       -0.09038756 0.072618574 -0.29735366 -0.100322574
0001f0 03 8c f6 bc 70 c6 11 bc 01 4b 81 bc c9 f3 d4 bd
       -0.03009606 -0.008897409 -0.015782835 -0.10398061
000200 54 36 61 3c aa 30 d2 3c b0 9e 0c bc 3e 4c 11 3d
       0.013745863 0.02565797 -0.008582756 0.0354731
000210 fd 09 aa bd 2c 62 b7 bd 0e a2 b8 bd 49 25 41 3e
       -0.08302686 -0.08954272 -0.090152845 0.1886188
000220 b5 67 0e 3f 97 17 4a 3d 5e 8b ee 3d 2d c2 86 be
       0.55626994 0.049338903 0.11647676 -0.2632002
000230 ed 73 99 bd c3 a3 4a 3e 3b 6d 6c ba da 80 95 3c
       -0.07492814 0.19789033 -0.0009018962 0.018249918
000240 ed a3 78 3a 54 fb f5 3d a6 34 d3 3d 79 85 d0 3e
       0.0009484876 0.12010828 0.10312776 0.40726832
000250 89 a5 98 be 55 23 4c bc dd b3 24 bd 6c 5e bc bc
       -0.29813793 -0.012459596 -0.040210593 -0.022994243
000260 70 57 4d 3d 74 08 f2 bd 18 e6 0b 3d 51 47 fc bc
       0.050132215 -0.118180186 0.03415498 -0.030795725
000270 4c e0 5d bd 89 8a aa bd 87 9a 7b 3d e2 f4 7a 3c
       -0.054168984 -0.08327205 0.061426666 0.015317174
000280 66 cf a6 3e 85 9d d5 3c c5 c2 83 bd d7 c9 93 3d
       0.32580107 0.026076088 -0.06433634 0.07216232
000290 9b ce 0b 3d 2f 67 98 3c 50 d2 b9 bd 7c 51 74 be
       0.03413258 0.01860389 -0.09073317 -0.23859209
0002a0 6a 49 ab bd ed cd 83 bc 3d 78 c8 3c ac 78 40 be
       -0.08363612 -0.016089404 0.024471397 -0.18796033
0002b0 13 39 07 bd a9 b5 d5 3d d6 07 9f 3b 59 51 fa be
       -0.033013415 0.104350396 0.004853229 -0.48890188
0002c0 ba ca 09 3d b4 00 bb be 7a fa e5 3c e0 7a 30 be
       0.0336406 -0.36523974 0.028073538 -0.17234373
0002d0 9a 94 31 bd dc 24 ad 3c 40 e7 4b 3d ed 4e 3b bd
       -0.043354608 0.02113574 0.049781084 -0.045729566
0002e0 8b 65 11 3d 2a 49 54 3e 82 06 b7 bd 80 e6 93 3d
       0.03549723 0.20731035 -0.08936788 0.07221699
0002f0 cf 23 1d 3d df 38 ca 3d 03 2e fd 3d 92 31 51 3d
       0.038364228 0.098741286 0.12362292 0.051072665
000300 46 2e 13 3d 8c 8b f2 3d 55 1c 5d bd 5e 07 27 bd
       0.0359328 0.11843023 -0.053982098 -0.04077851
000310 2d 29 a4 3e d1 ab 15 3d 11 8d 0b bf 15 c6 04 be
       0.32062665 0.03654081 -0.54512125 -0.12966187
000320 fe d1 33 bd 14 37 7f 3e 64 ab 83 bd f1 39 03 bd
       -0.043901436 0.24923354 -0.064291745 -0.03203768
000330 80 3d f0 bb 70 f8 f3 3c 8a 97 e8 3d 0c b0 b1 3d
       -0.00733155 0.02978155 0.11357029 0.086761564
000340 55 e9 28 bd 43 0c 31 bd 29 33 be bd 94 e9 81 3a
       -0.041238148 -0.043224584 -0.09287102 0.0009911531
000350 7d d1 a5 3e f8 4e 2b bd cf 62 9d 3d bb 21 97 3b
       0.3238639 -0.041823357 0.07684862 0.0046121753
000360 93 b5 b8 3d 7f 41 38 bd c8 0c 34 3d 1f 68 a0 3d
       0.090190075 -0.044984337 0.0439575 0.078323595
000370 76 9a 25 3e 2c 25 a0 3e 37 69 b6 bd 9b 73 8f 3c
       0.16172203 0.3127836 -0.08906787 0.01751118
000380 f1 87 ea bd 2e 05 ae 3e bd 15 85 bd 34 b8 89 3a
       -0.1145171 0.33988327 -0.06498287 0.0010507167
000390 f9 82 c3 bc b3 cf 6d 3d 73 ca ff 3b 70 86 ad 3e
       -0.023866164 0.058059406 0.0078061162 0.3389163
0003a0 ee 3a f1 bc 44 ee a6 bd c2 f1 84 3d 54 8d fc 3c
       -0.029447045 -0.08150914 0.06491424 0.03082911
0003b0 1a 1b 00 3d 3c f8 df bc 2d 5d a4 bc ac be 50 3d
       0.031275846 -0.027340047 -0.02006396 0.05096309
0003c0 e1 e0 7f bc cd d9 06 3c 27 df 81 be c6 27 01 be
       -0.01561758 0.008230639 -0.25365564 -0.12612829
0003d0 d2 eb 9b bb 85 d1 a8 bd b6 9d cf 3c 09 87 94 bb
       -0.0047583366 -0.08243088 0.025343757 -0.004532699
0003e0 c8 f5 89 bc 1f 6b 7e 3e 16 f5 88 3c 64 e4 9d bd
       -0.01684083 0.24845551 0.016718429 -0.07709578
0003f0 58 fb 64 bd d3 45 89 bd b1 29 e3 ba 33 31 08 3e
       -0.055903763 -0.06702771 -0.0017331151 0.13300018

deconv2.bias f4 [24]
000000 f4 a2 fe 3c 6d ab 11 be 4e ec 0b bd 27 e5 e0 bc
       0.031083561 -0.1422555 -0.034160905 -0.027453018
000010 ca 90 59 bc 50 f1 f1 3c ae 5c 8b bd 8b 02 5b bd
       -0.013279149 0.029534012 -0.068047866 -0.053469222
000020 64 20 18 3e e0 0b 33 be ec 93 f4 3d 6d 3b a6 3d
       0.14856106 -0.17484999 0.11942276 0.08116803
000030 cd 58 92 bd 9a f7 57 3e 17 09 52 3e d4 ec 84 3c
       -0.07145844 0.21090546 0.2051128 0.01622621
000040 46 05 73 be 4b b9 4c 3e 1e 69 2f be 09 af ef 3d
       -0.2373248 0.19992559 -0.17129943 0.11703307
000050 74 de 62 3e 48 08 72 bd cc ae 65 3e 99 83 f5 bd
       0.22155172 -0.05908993 0.22429961 -0.11987991

deconv3.weight f4 [24, 1, 5]
000000 6e 71 58 bd 95 af e7 be ad 78 4f 3f 9b 87 c9 be
       -0.05284255 -0.45251146 0.8104351 -0.3936127
000010 42 66 51 be 81 0a 65 3e 47 d9 6a be 4b f9 6f be
       -0.20449165 0.22367288 -0.22934447 -0.23434941
000020 4e c4 86 be 55 2e ea be de 7e 9f be db c0 d6 be
       -0.26321644 -0.45738474 -0.3115148 -0.41944012
000030 e1 f1 6f be 93 f0 be bd f5 63 62 be ec 64 5f 3a
       -0.23432113 -0.0932323 -0.22108443 0.00085218134
000040 6b 78 d3 3e f9 10 6e 3f ff 4a e1 3e 01 e8 87 3e
       0.4130281 0.9299465 0.4400253 0.26544192
000050 18 7d 16 bc 8c d0 de be f2 59 44 bf 9a 95 10 bf
       -0.009185098 -0.43518484 -0.76699746 -0.56478274
000060 aa 5e b0 bd c2 58 bd 3d 7b 73 0f 3f 70 72 0f 3e
       -0.08611806 0.09245445 0.56035584 0.14008498
000070 86 f2 39 3d 03 9d c9 3d 6a 2f e3 bc 54 70 a4 bd
       0.045397304 0.09844401 -0.02773257 -0.080292374
000080 55 f6 d4 be 0c 24 15 3e e3 b3 44 be 43 9a 80 bd
       -0.41594186 0.14564532 -0.19209246 -0.06279423
000090 93 ee 9f 3e c5 b1 95 3e bd 6a d0 be 7a 3d 21 be
       0.31236705 0.2923719 -0.40706435 -0.15746108
0000a0 9b 18 ed 3d 5d 6c bf 3e 8c 5f d7 3e d7 f7 0e 3f
       0.11576959 0.37387362 0.42065084 0.55846924
0000b0 59 72 48 3d 46 5b 3e be 5a 17 af be 2a 59 e9 be
       0.048937175 -0.18589506 -0.34197503 -0.4557584
0000c0 37 c5 5b bf 31 fc 63 bf 4f 4b a3 3e 40 06 a0 be
       -0.858478 -0.8905669 0.31893393 -0.31254768
0000d0 1f 42 27 3e bd 7a af 3e 95 cc 0b 3f f5 c5 04 bf
       0.16333817 0.3427333 0.5460904 -0.5186456
0000e0 bc ad 46 bf 8c c8 45 3d 09 5b 85 be 50 47 d2 be
       -0.7760885 0.04828696 -0.26046017 -0.41070032
0000f0 bb 14 9b 3e 00 8e 8b be fc 6d c0 be 2b 3f 65 3e
       0.30289254 -0.27256775 -0.3758391 0.22387378
000100 19 78 69 be 37 30 84 be 6d cf ef 3e 70 39 69 3e
       -0.2279972 -0.25818035 0.4683794 0.22775817
000110 c0 e7 50 3e 4a f6 e9 3e b1 2d 49 bc 88 da 89 3e
       0.20400906 0.45695716 -0.01227896 0.2692454
000120 1d 4b dc 3e b4 0b 07 3f d5 6e 90 3d a4 6e b2 be
       0.43026057 0.5275223 0.070523895 -0.34850037
000130 6d 2b 83 be 30 81 1c bf b3 8e ce bd b6 67 7e 3f
       -0.2561907 -0.61134624 -0.100858115 0.99377
000140 33 08 bb bd 98 a8 fa be 73 06 3a bf 59 9b d0 3e
       -0.09132423 -0.48956752 -0.7266609 0.4074352
000150 8a d7 7c 3e 74 98 a9 3e 4c e6 f2 3e f2 df bd 3e
       0.24691597 0.33124125 0.47441328 0.3708492
000160 c9 98 cc 3e fd 8c 7f 3d 36 3f 1d 3e 10 e6 a1 3e
       0.39960316 0.062390316 0.15356144 0.31620836
000170 05 41 79 3d 38 b3 94 be 24 cf 94 be 61 6d 22 3e
       0.060853023 -0.29042983 -0.29064286 0.15862037
000180 e1 ea 33 3e fc 48 1b be 02 83 9d 3e 72 5f 09 3f
       0.17570068 -0.1516456 0.30764014 0.53661263
000190 a2 4d 61 3e 48 ad 57 3f 37 b9 1d 3e a1 49 9c be
       0.22002271 0.8424878 0.15402685 -0.30524924
0001a0 33 63 a5 be 57 1b 3b bf 27 d7 f8 be d4 80 ca 3c
       -0.32302245 -0.7308859 -0.48601648 0.024719633
0001b0 92 bf 30 3d 23 c7 51 3d ff 47 c3 3e 0e 74 8b 3d
       0.043151446 0.051215302 0.38140866 0.06809245
0001c0 e6 80 ed 3e aa 91 f8 3d 5a cb 2f be 57 a0 c7 bd
       0.46387404 0.12137158 -0.17167416 -0.09747379
0001d0 25 88 d2 be b1 f7 97 3e 79 5a cb be 42 ce 27 be
       -0.41119495 0.2968116 -0.39717463 -0.16387275
