models/multi_resolutionv2/SNN_Autoencoder_tsri_320s_160g.pth (torch, 25565 bytes, 11 tensors)

encoder_conv1.weight f4 [24, 1, 5]
00000000: 16f1 0bbd e5a8 003f 2d98 a13e cffa 833e
00000010: 3f5d 74be 74a8 a7ba 8b76 a43b 4e93 c73c
00000020: 8aca 7d3c 6cd9 e53b 444b 9cb9 14eb 233e
00000030: f1f4 c83e 245a 393f 59e9 dcbc 6954 7c3d
00000040: 8666 c53e 1996 40bf 7079 5fbe 26aa e73e
00000050: 8e76 b3bd e100 93bd cdbb de3e 8f5b cbbd
00000060: 7960 f83e 000b 95be 6235 9e3e 0354 fb3e
00000070: 7741 493e 2635 1d3f 3401 dabb d043 943d
00000080: c9d1 e8bd a7a7 f53e a341 1a3f 0a50 b73e
00000090: 0b55 d23e a8d2 bb3e 506d 8b3e 9f0b 94be
000000a0: efed ffbb 7b35 ff3e 4cfa 043f ad16 093c
000000b0: f18e a4bc 2094 a4bd 8260 9d3e 0334 d53e
000000c0: e2d2 273f 4aa8 60be ee60 a03e 06f5 183d
000000d0: 6e8c 063c 3cb7 7d3c e143 e5bc 173d 0c3f
000000e0: 1ae0 0d3f 7a95 94be 0ff1 b6bd 7340 51be
000000f0: 00ef 7ebe 078b 1fbe 32b4 093f a36a 22bb
00000100: 5d4e c73e 278d bf3e 5306 143f 7e86 da3e
00000110: 6dc4 76bd 8702 fcbd 50cf 6abd 1ab4 bcbc
00000120: 1264 44be f979 003f 064f f13e 1886 0c3c
00000130: 6f70 313d 87a5 e73d 36ca 073f d224 bc3d
00000140: ef7f 51be 6169 893b 4503 553e 4604 553f
00000150: 9d78 fdbc 7aca 8d3e 2808 a03b e348 e63c
00000160: aa03 c23e c3fd 783c d162 363e 96c7 8a3e
00000170: f1f9 28bc e7a2 00bc cd42 92bd c5c9 ab3c
00000180: ca50 53be 0144 de3e 0348 173f cfcb e93e
00000190: 7a7f 8a3e be3d b53e 864a ed3e 38ff d0bd
000001a0: ef4a 9cbe 7e5d 4e3f 2356 9e3c 2f7c f43c
000001b0: c36a 0f3f 0b0c 8a3c 0a6e 8d3d 745b ce3e
000001c0: 725d c63e e2b2 913d fa28 b63e a789 cebe
000001d0: e7bc 6abe dd42 4cbf f3a5 46bf 6caa 8ebd
-0.034165464 0.5025771 0.31561413 0.2577729 -0.23863696 -0.0012791292 0.0050190142 0.024362233
0.015490184 0.007014444 -0.00029810716 0.16007644 0.39249375 0.7240317 -0.026966738 0.061603937
0.38554782 -0.7522903 -0.21823668 0.45247 -0.08762847 -0.07177902 0.43502656 -0.09929573
0.48511103 -0.29109955 0.30900103 0.49087533 0.19653879 0.61409223 -0.0066529755 0.07239497
-0.11368138 0.4797947 0.60256404 0.35803252 0.41080508 0.36684155 0.27231836 -0.28915116
-0.0078103463 0.4984549 0.5194442 0.008367223 -0.020087691 -0.08036065 0.30737692 0.41641244
0.65556157 -0.21939197 0.3132395 0.037343048 0.008212192 0.015485581 -0.027986469 0.54780716
0.55420077 -0.29020292 -0.08932697 -0.20434742 -0.24895859 -0.15580378 0.5379058 -0.0024782799
0.38926974 0.37412378 0.5782215 0.42680734 -0.06024592 -0.123051696 -0.057326615 -0.023035098
-0.19178799 0.50186116 0.47130603 0.008576892 0.043320116 0.11310869 0.53042924 0.091867104
-0.20458959 0.0041934703 0.20802028 0.83209646 -0.030941302 0.2769354 0.004883785 0.028110927
0.3789342 0.01519722 0.17811133 0.27105397 -0.010313497 -0.007851339 -0.071416475 0.020970235
-0.20636287 0.43411258 0.59094256 0.45663306 0.27050382 0.35398668 0.4634592 -0.10204929
-0.3052592 0.8061141 0.019328183 0.029844372 0.5602228 0.016851446 0.06905754 0.40304148
0.38743168 0.07114197 0.35578138 -0.40339395 -0.22923623 -0.79789525 -0.7759697 -0.06966099

encoder_conv1.bias f4 [24]
00000000: 742c 0b3d 96f5 6f3f 05ab 2cbe e043 d03e
00000010: 7dd1 923e cd78 9abe fef6 053f 1f6f ac3e
00000020: 92cb 943d 8faa 9c3e 119e 8c3f 114a 263e
00000030: 5fba f83e ab0c 7bbe 4709 2c3e 18bf c53e
00000040: a518 8a3e 5efc 2f3f 826b a43e 12a5 b8be
00000050: 121f 393e 0db5 a6be f909 53be 879e 7d3f
0.03397794 0.9373411 -0.16862114 0.40676785 0.28675452 -0.3017029 0.52330005 0.3367853
0.072653905 0.30598876 1.0985738 0.16239192 0.4857969 -0.24516551 0.16800414 0.38622355
0.26971927 0.68744457 0.32113272 -0.3606344 0.18078259 -0.32560006 -0.20609273 0.9907002

encoder_conv2.weight f4 [12, 24, 5]
00000000: 615f b23c fd39 c0bd afc4 703e ee4f e7bd
00000010: 34c8 46be 1cb2 8dbe d543 29bf 2b44 c4bd
00000020: 2cbd 14be e399 5d3d ea9d aa3d 3163 a0be
00000030: 8ad1 4cbd 98df d43c 1c79 8f3a ec9e a53e
00000040: 2933 ec3e 6911 143f 0351 97bd 1973 203d
00000050: f303 663e 8c56 d33e 2011 c0be 066d d53d
00000060: 7b52 da3c f3e5 a93a 95bd ad3c 8598 973e
00000070: aee0 3dbd 01ae e93b ee45 0c3e e0df 733d
00000080: 8275 de3e c532 9abd 884c 9e3c 01ea 803e
00000090: 1730 033f 4828 cc3d b237 27bd 26c4 9d3c
000000a0: bd52 063e d2b6 903d f4b7 29bd faf9 083d
000000b0: a906 7a3d 6748 2c3c e191 463e bfa5 41be
000000c0: 5e3e 74bd edac 97bd 6b0d 27be b773 2a3e
000000d0: c0b6 183e 2efd d7bb d143 a53e 0556 ea3d
000000e0: 61c1 983e 2823 f33e f9f9 aabd ab6a f83b
000000f0: 3909 5e3e caf7 a53e 1cb6 cdbe a4da 45bb
00000100: 3456 5abd 487e cdbc 742b 243e cb19 8d3e
00000110: 5873 803d 4a1d 73bd 053d 863e 30a1 1cbc
00000120: bb36 3c3d 0991 a5bd 4d20 3fbe 0785 2abd
00000130: 99a9 ecbc a752 50be a3a7 1a3d 16c9 143e
00000140: 47ae 9e3e b2d6 253f 181b 1abb 6c39 db3d
00000150: f052 3fbd 90d7 78be 434e f3bc 22b7 cd3d
00000160: e0c8 ef3c dfbc f53d ad0c 9cbe d0a8 88bd
00000170: bfbe 163e 0ad8 b2bb b112 b9bd e12e 5a3d
00000180: 3222 00be 4a6f 81be 7ab6 b83d 1c2b 0fbe
00000190: f387 cf3d 548f 743e 8dc4 8dbc 69c6 a1bd
000001a0: 2abf 4abd c803 2e3e 989c 5d3e f8a6 e73d
000001b0: ca22 df3d bf7f 443d f3b0 a53d 8993 893d
000001c0: 6b71 933e a9b4 d83d 62aa 9abd 4212 bb3b
000001d0: 20fd e03b d63b 0f3e bd1b 2e3a b4d9 ec3d
000001e0: 44ed a73c 7ecd 7e3e 044f 8cbc 3863 cfbc
000001f0: 9d0d cbbb 1771 c8bd fd31 98be 6ded dcbd
00000200: aee4 49be c45e 43be 0ad1 fabb 1ea8 463e
00000210: a9bd 54bd 9489 afbc 2a46 c3bc bab4 de3c
00000220: a7d9 9f3c 7a6a 073d df52 1e3c 1cbc d3ba
00000230: 55e0 d8bb 32bb 7b3d 2629 89ba b2ce 733d
00000240: cff9 a8bc ea3b c5bc 8392 e73d 6732 6dbd
00000250: fbea 0fba ec1e a1bc c4ad abbc b45a 7f3d
00000260: 8bfa 87bc 9aad 873d ade2 10bd 5bb7 e8bc
00000270: 0f12 1f3e 5da7 a5bc ec87 38bd 0e1f d43b
00000280: 4435 473d f950 743e d1b6 8a3c 247a 313c
00000290: 8b9a 64bd cccb 86bd 5e7a 8b3e 3c72 4abd
000002a0: 61a4 c4bc bf64 5fbc 5f87 43bd 5476 c0bd
000002b0: 51bc 783d 179c c23c 0048 8e3d ac8b d83c
000002c0: b790 cb3d 5f84 253c dd91 573b fe76 933c
000002d0: 6c4c 1c3c d1b3 9b3b 51ca 8ebc ed86 c1ba
000002e0: 9f6c 5dbd 562b 743d 0441 ac3d 462b 063c
000002f0: 837a 3b3d 59e5 9dbd 8111 f8bc 2fa4 923c
00000300: ae2b 57bb e61d 8a3d 1b72 11b9 57b6 58bb
00000310: f2b2 223e c103 c73a fa3a 033d 6310 0abd
00000320: 99a6 96bc c6c4 5c3e 9372 3bbb c2b5 143d
00000330: a988 4dbd 9a9b 49bb 7270 b23d d41d a1bc
00000340: 080f e73b 6561 873c 08fa c03c 448f f23d
00000350: 033e d23c e3fc ba3c 926e c33c 60b1 31bd
00000360: e2e9 283e 3200 fabc 1770 9a3c e32f bcbc
00000370: ec04 c73c d7b7 9c3d df81 233c 8124 39bc
00000380: accc 8bbb 8ca2 9bbc 43a4 273e dcad 263d
00000390: d591 59ba e3bd c83c d818 2bbd a9c4 183e
000003a0: b786 903d 5e27 8e3d 9b56 89bc 8bd9 9dbe
000003b0: e548 e1bd 2fa2 9e3d c027 17bc 9a90 ba3c
000003c0: 398c b0bc 0bc7 163d 9f0f 5dbd 5969 033e
000003d0: 1e71 dcbc 9d5a 173e c04f 703e 32fa c63e
000003e0: c1c5 83bd 07c0 223e 3e0b e33c 2622 04bc
000003f0: 4fc5 5d3c eb52 7a3e a93d 323d 7f6d f3ba
0.021773996 -0.093860604 0.23512529 -0.11294542 -0.19412309 -0.2767495 -0.6611913 -0.095833145
-0.14525288 0.054101836 0.08330901 -0.31325677 -0.05000452 0.025985524 0.0010946128 0.3234781
0.46132782 0.57839066 -0.07388499 0.039172266 0.22462444 0.41276968 -0.37513065 0.10421185
0.026650658 0.0012962207 0.021208564 0.2960855 -0.04635685 0.0071313386 0.13698551 0.059539676
0.43449026 -0.07529215 0.019323602 0.2517853 0.51245254 0.099686205 -0.0408246 0.01925857
0.131175 0.0706612 -0.041435197 0.03344152 0.061041508 0.010515309 0.19391586 -0.18910883
-0.05962979 -0.0740603 -0.16313712 0.16645704 0.14913464 -0.0065914607 0.32278302 0.11442188
0.29835036 0.4748776 -0.0834846 0.007581075 0.21683206 0.3241561 -0.40178 -0.0030190134
-0.053304866 -0.02508463 0.16032201 0.2755874 0.06272 -0.059354104 0.2621843 -0.0095599145
0.045950633 -0.08084304 -0.18664666 -0.04163077 -0.028889464 -0.2034403 0.037757527 0.14529833
0.30992338 0.64780724 -0.0023514684 0.10704312 -0.046709955 -0.2430098 -0.029700404 0.100446954
0.02927059 0.11998915 -0.3047842 -0.066728234 0.14721201 -0.005457883 -0.09036768 0.053267363
-0.12513044 -0.2528022 0.0901918 -0.13981289 0.10133352 0.238828 -0.017305637 -0.07899172
-0.049498715 0.1699363 0.21641767 0.11311144 0.10895307 0.04797339 0.08090391 0.06717593
0.2879747 0.10581333 -0.07552029 0.0057089636 0.0068661124 0.1398767 0.00066417066 0.11564961
0.02049888 0.24883077 -0.017127521 -0.025315866 -0.006196691 -0.09787195 -0.29725638 -0.10787473
-0.1971614 -0.19079119 -0.007654314 0.19400069 -0.051938687 -0.021427907 -0.023837168 0.027185787
0.019512964 0.03306053 0.009663313 -0.0016154083 -0.0066185393 0.06145782 -0.0010464534 0.059523292
-0.02062693 -0.02407642 0.11307242 -0.057909396 -0.0005490032 -0.019668065 -0.020956881 0.06234236
-0.01659896 0.06624909 -0.035372425 -0.028407743 0.15534233 -0.020221407 -0.0450515 0.0064734286
0.048634782 0.23859014 0.016932877 0.010832343 -0.055811446 -0.0658184 0.27241796 -0.04942535
-0.024004163 -0.01363486 -0.04773652 -0.09397569 0.060726468 0.02375607 0.06947327 0.026433788
0.099397115 0.0101023605 0.0032893338 0.018001076 0.009539705 0.0047516604 -0.017430456 -0.0014764942
-0.054058667 0.05961164 0.08410838 0.008189028 0.045771133 -0.0770976 -0.030281784 0.017900554
-0.0032832432 0.06743984 -0.00013870785 -0.0033067667 0.15888575 0.0015183614 0.032038666 -0.033707034
-0.018389987 0.21559438 -0.0028602227 0.03630615 -0.050179157 -0.0030762912 0.087128535 -0.019667543
0.0070513524 0.016525934 0.023556724 0.11843732 0.025664335 0.022825664 0.023856435 -0.04338205
0.16495469 -0.030517671 0.018852277 -0.022972053 0.02429434 0.07652252 0.009979694 -0.011300207
-0.004266342 -0.018998407 0.16371255 0.04069315 -0.0008299624 0.024504608 -0.04177174 0.1491877
0.07056945 0.069411024 -0.01676493 -0.30830035 -0.11000232 0.07745778 -0.009225786 0.02277403
-0.021551238 0.036810916 -0.053969976 0.12833156 -0.026909407 0.1478066 0.23467922 0.3886276
-0.06434203 0.15893565 0.027715322 -0.008064782 0.013535812 0.24445693 0.043515835 -0.0018572061

encoder_conv2.bias f4 [12]
00000000: e443 0d3f 68d4 ae3e d886 473d 0d7b 30be
00000010: a173 1e3e 2dcb 9b3e cf7b 813e 0b60 a8bb
00000020: ff6b 8b3e 9334 4a3e c35a 013f cbf6 0f3e
0.5518172 0.34146428 0.04871258 -0.1723444 0.15473796 0.30428448 0.2528977 -0.0051384023
0.27230832 0.19746618 0.50529116 0.14058988

encoder_conv3.weight f4 [6, 12, 5]
00000000: d8cb 303c 9bec 53bc 7de8 98b9 3cb5 9b3c
00000010: 6ace 9a3d d179 833b 444e 5bbd b1a8 cf3c
00000020: b0e8 aebd aa58 613d 66b1 35bd 0b53 d7bc
00000030: bc1a 8d3d 62c8 28bc 8532 babd 3eef bd3b
00000040: 2635 c5bc 954f 003e 6b38 17bd d5d3 79bb
00000050: c3ec b1bc 7783 913c befe 37be 954a b63d
00000060: 6f8b 89bd de7d e63a 4ebb 653c 2a69 023f
00000070: d219 8bbc 9a5d 2ebd b609 d63a e78e be3b
00000080: 3812 8a3d 215f 7b3d c1a3 6e3d ab00 ab3b
00000090: bd77 7d3a 60d2 143d 19cd 85bc 0674 af3d
000000a0: ca5f a03c f56b 2c3d 96ea 8abd 1f3a 0abc
000000b0: 6313 293d d69f 3e3b 31fc bdbc 2ed9 a1bb
000000c0: ae3b b6bc e97f 2abd 12ba 04bc 8e0f 08bd
000000d0: 0224 9abb dc65 f33e ad84 c33b ee52 9fb7
000000e0: e38e 04bc 2505 3c3c 8f6f 5dbd ef96 723d
000000f0: 8dec 963b 9631 903d 8ba1 14be 4894 ab3c
00000100: 9716 fdbc a0fb 413c 70d5 e23b 05e7 abbd
00000110: f1ea 213c 37e1 98bc 32ab ebbb 021f 2b3c
00000120: b10d b4be 1ff4 1ebd f48d c13c 1320 4f3c
00000130: f4f3 80bb 1604 443d 8230 733c ed76 95bc
00000140: d436 86bc 1ce9 75bd da66 7ebc cca0 81bd
00000150: 854f 2c3c c608 2fba 82bb 443d c053 36bd
00000160: e12b 3cbb 1eb7 f9b8 7cf1 0c3c d69a b8bb
00000170: ac0a ec3d b6e8 d13b 25e3 39bb b675 d23b
00000180: 5bcb 9dbb cb91 f13b 8d0a e3bb d04e 983b
00000190: 6324 20ba cafa ecbc a8a7 023e a977 753c
000001a0: 9952 30bb dc42 1ebc 2ec1 17bc c704 703f
000001b0: 5888 1e3c a3f7 103a 20e4 85bb 04a6 3bbc
000001c0: 39c5 e63c 56a9 8a3c 4929 f8bc 1b3e 43bb
000001d0: 739f d33c b9df f2bd 6fe4 9fb9 9dc5 3dbc
000001e0: c4a6 ef3c a430 013d 9218 043e a9ca 5a3c
000001f0: 8af9 8b3d c7ee 8e3c a62d 52bc 31b7 a93d
00000200: 118a f6bc 9883 923d 9513 22bc 775e 2bbd
00000210: a4a3 22bd 886e a8bc 6982 03bd ad5c ce3b
00000220: 4c6a db3e 70ce e53b 477a 5dbd fd3a 543c
00000230: 6bf2 0abd 2bc1 38be 40f4 64bc d7ad 57be
00000240: 20d2 4dbd 2a68 4dba eea5 683d 4293 d43b
00000250: 75c7 86bc c6b9 71bc 159d c6bc 3381 8c3d
00000260: 9904 1c3d 0e15 01be 5453 773c a1b6 b8bc
00000270: 2f1e 4cbb a28e 6cbd 5360 983c 033d b2bc
00000280: f335 23bc c9b8 ee3d f6f1 d93c 0523 47bb
00000290: 218b d93b b1f8 0f3c 84b4 283e d6e5 d23c
000002a0: c500 93bd cac7 cebb b999 4cbd e9a9 66bc
000002b0: ff47 243e 6183 2abd fd30 fd3b 3293 67bb
000002c0: 5405 a93c 3b9b 303d 3733 acbb 7e4e ee3b
000002d0: f808 0fbd f619 5abd 3189 133d 8152 f4bd
000002e0: e46c b7bc 9af7 303c cdf3 023c 5370 af3b
000002f0: f02e 893b 1bb9 8dbc 9c65 9dba 09e2 a23b
00000300: 07e4 ad3e a185 a0bc b3f6 a4bc c7c1 823c
00000310: 0c0f 29bc 09f7 783e 857f 653c 6a3e 3bbc
00000320: 7b96 c8bb 48ea 14bd a77e edbd c760 89bd
00000330: fe9f 33bc 9ee2 ad3c be52 9bbc d40e 94bd
00000340: 8008 78bb ac1e 783a 6b9f a63c 3df2 9dbb
00000350: 6b04 69bd 439a 92bc a690 0c3d 1947 ae3c
00000360: 865e 06bc dbac cabc 879a 57ba ad27 163d
00000370: 2b2f cb3c bea9 ccbc 1206 433f 4fef e33c
00000380: 6848 fe3c f3c1 26bc b694 03bc c70a 0c3c
00000390: 4b38 7ebc 4d16 78bc fe29 04ba 39ac 053b
000003a0: ffcc bfbb bc73 44bd f760 b8bc 6f73 943c
000003b0: c8ed 30bb 588e 17bd cb0a 2db9 7467 49bb
000003c0: 9a1b 78bb 787b 2a3e eb97 18bc 42b9 a23d
000003d0: 4fcf 8dbc 3f1a e93b 81d9 853c 6023 bebd
000003e0: ce52 8c3c f44d 95bc ccf1 123c 2e6d 11bc
000003f0: 7f89 3dbe b3ee 89bc 5922 e13b fee0 823c
0.010790788 -0.012934829 -0.00029164916 0.019007318 0.075589016 0.0040123244 -0.053541437 0.025348993
-0.08540475 0.055016197 -0.044358633 -0.026284715 0.06889865 -0.010301681 -0.09091667 0.005796342
-0.024073195 0.12530358 -0.03691904 -0.0038120646 -0.021719342 0.017762883 -0.1796827 0.08900944
-0.06716048 0.0017585119 0.014021708 0.5094172 -0.016980086 -0.042569734 0.0016329798 0.005815375
0.06741756 0.06137002 0.058261637 0.0052185855 0.00096690265 0.03633344 -0.01633315 0.085670516
0.019576926 0.042095143 -0.06783025 -0.008436709 0.041278254 0.002908697 -0.023191543 -0.00493922
-0.022245254 -0.04162589 -0.008101003 -0.03321796 -0.0047039995 0.4753865 0.005966744 -1.8992894e-05
-0.0080907075 0.011475836 -0.05406147 0.059225973 0.004605836 0.07040708 -0.14514749 0.02094473
-0.03089456 0.011839777 0.0069224164 -0.08393673 0.009882675 -0.018662078 -0.007192039 0.010444405
-0.35166696 -0.03880703 0.023627259 0.012641924 -0.0039353315 0.04785546 0.014843108 -0.018245185
-0.016383566 -0.060036764 -0.015527451 -0.06329498 0.010517006 -0.00066770276 0.048030384 -0.044513464
-0.0028712677 -0.000119073535 0.008602496 -0.0056336923 0.11525473 0.006405915 -0.0028364148 0.0064227236
-0.0048155016 0.007372116 -0.006928748 0.004648067 -0.00061089377 -0.02892818 0.12759268 0.0149821425
-0.00269047 -0.009659495 -0.009262366 0.9375729 0.009676062 0.0005530065 -0.0040860325 -0.011453155
0.028170215 0.016926449 -0.030293124 -0.0029791656 0.025832867 -0.11859078 -0.0003049704 -0.011582759
0.029254325 0.031540528 0.12899998 0.013353982 0.06834705 0.017447842 -0.012828266 0.08286894
-0.030095132 0.07154006 -0.009892364 -0.041838136 -0.03970684 -0.020560518 -0.03210679 0.006297669
0.42854536 0.0070131347 -0.05407169 0.012953517 -0.033922594 -0.18042438 -0.013974249 -0.21062408
-0.05024922 -0.0007835651 0.056798868 0.006487281 -0.01645253 -0.0147537645 -0.024244824 0.0686058
0.038090322 -0.12605688 0.015095551 -0.022548022 -0.003114592 -0.057753213 0.018600618 -0.021757608
-0.009961593 0.11656339 0.026604634 -0.0030385864 0.0066389 0.00878732 0.16475111 0.02574436
-0.07177881 -0.006310438 -0.04995129 -0.014078596 0.1604309 -0.0416292 0.007726787 -0.0035335538
0.020632423 0.04311679 -0.0052551287 0.0072725406 -0.034920663 -0.053247415 0.036019508 -0.11929799
-0.02239079 0.01080122 0.007992697 0.0053539663 0.0041865036 -0.01730018 -0.0012008431 0.004970793
0.33963034 -0.01959497 -0.020137167 0.01596154 -0.010318529 0.24312986 0.014007454 -0.011428455
-0.0061214543 -0.03635624 -0.11596423 -0.06707912 -0.010963438 0.021226224 -0.018960353 -0.07229391
-0.0037846863 0.00094650197 0.020339688 -0.004820137 -0.05688898 -0.017895823 0.034317635 0.021274136
-0.008201247 -0.024740627 -0.00082246255 0.03665893 0.024802765 -0.024983283 0.7618114 0.027824072
0.031040385 -0.010178077 -0.008031061 0.008547491 -0.015516351 -0.015142036 -0.0005041658 0.0020396842
-0.005853295 -0.047961935 -0.022507174 0.01812145 -0.0026997197 -0.037000984 -0.00016502586 -0.003073183
-0.0037858249 0.16648662 -0.009313564 0.079454914 -0.017310767 0.0071137245 0.016339066 -0.09284091
0.017129328 -0.018225648 0.008968782 -0.008876128 -0.18509482 -0.016837453 0.0068705496 0.015976425

encoder_conv3.bias f4 [6]
00000000: f969 553e 7f45 0b3f 0d3a de3e b164 a03e
00000010: 56f6 0b3f 1143 143e
0.20841207 0.5440292 0.43403664 0.3132682 0.54672754 0.14478709

deconv1.weight f4 [6, 12, 5]
00000000: 2b08 9e3c ad8b ce3c 4df7 a33e c1be 4b3d
00000010: 2ba5 69bc bcb6 0b3e b061 093d facc 373d
00000020: 8854 d4bd 63a1 0f3e f7db 2ebd 857d 3ebd
00000030: 5bf0 573e 5aa7 67bb e4ae 483e c07f 7a3d
00000040: 64a4 453d 8294 d13e 2df8 263e 6258 0f3e
00000050: cebf acbd c118 993c d775 82bd cf2f 0a3f
00000060: e19e be3c 087d 14bc 55c9 f4bc f372 97bc
00000070: 7c0f aa3e 9200 8d3d b0ec 44bd 593c c9bc
00000080: aff3 923e d9bb 7c3b 4bb1 acbc a034 b6bc
00000090: 19b0 b23c 9e46 05be 1b03 e53d 5b05 af3d
000000a0: c67a 50bd f44b 12bf af64 c13d ed69 15bf
000000b0: 7416 0b3d 6222 463d fe14 9739 fdf9 44be
000000c0: 7fae 22bd 5694 e93d 6cec 8dbc 493b de3c
000000d0: 2097 d7bc 636d 263e 5e01 433c 11ad 24bd
000000e0: cdcd 923c fdab 2039 df15 32bd 0d21 61bd
000000f0: 038e f0bb feba 03bd 9d54 6cbd 3867 353b
00000100: 00d2 a83c d2a3 c6bc 2401 b8bc 206e 9f3d
00000110: 9fae 143c 2bd1 9bbd 9375 2c3d 1cfa 913c
00000120: 8406 3fbe 9377 933c 72de cd3c d289 1a3b
00000130: 77b4 023d 4fa6 5939 b9c1 41bc b725 29bd
00000140: 1ef1 e93c eba6 cfbc 9320 f93d 0d1e 2cbc
00000150: 2454 813d 6282 b13b 1557 8b3d 08ff 4b3d
00000160: 2e62 03bc 4590 493d 19fd b13c 6a10 903c
00000170: 5385 253f 8d03 7f3c 2839 703d 6c1e f83c
00000180: d055 d6bc 1c37 4b3e 1e2e dabb 59ab 183c
00000190: 2e7b 063d 5ca4 12bf 7018 783e 497f 11bf
000001a0: 937d 943d 0b83 1bbc 1115 66bc 91aa 073f
000001b0: 1e39 59bb 5f58 19bd 81ee 223b fefa 773b
000001c0: 65dd 413e ee7e a73b a7ea 2cbc eee2 a23c
000001d0: 631d a63d 1c04 a63c 6923 e23b c779 403d
000001e0: 8ae6 993e 3a07 0f3f 9ad9 afbd a8ec 2ebd
000001f0: ca34 1c3e 532d 033f d5d9 b13d f8db de3e
00000200: 5a99 20bb 27e8 80be 1506 a53c 5f2f 07bd
00000210: f7c3 a23e 45aa a0bd caf7 c53e 1f8b bebd
00000220: 4ec6 233f fa8d eb3e 139e 443e 310d 053c
00000230: c873 b13c 203b 203e 4b18 033f 199b 3dbe
00000240: 6a62 f4bd 965a 1f3c 3a33 97be 7912 bd3e
00000250: 6fb2 4a3e d037 4e3d ee84 653c 17f3 053f
00000260: c9e2 87bc 5404 b3bd cee1 5dbb ab46 51be
00000270: e2b8 873e 4f53 283c 3f3a a93d 0d25 9b3d
00000280: 2479 88be 1f5d 0cbf bed5 6e3d f167 12bf
00000290: 803c 44bc a1b6 023e 2c09 8e3e c5d4 a33d
000002a0: 148a 18be 5ed0 e83e 5bcb bdbd 7eec 3b3f
000002b0: 80af 24be ade1 1fbf 5cbf 153e f415 003d
000002c0: 205b 033e b2a8 3fbe 937a dd3d 40cd b53c
000002d0: 695c 3fbb 2570 dfbc d0d9 193f d01c 953c
000002e0: 6620 003c d443 f73c 716b d5bc e715 a4bd
000002f0: 5a52 aa3c 7cfb 9d3d a93c 393d 110a 673c
00000300: 8fcf 49bd 3b5d 76ba e965 213d 21ce ac3c
00000310: 20d4 003d 3b23 153e 0068 153b 7351 013d
00000320: e2d4 6d3c fb8d cbbc 434c bc3e 8d5e 413d
00000330: 8038 cb3c 8ade 893c 5369 8e3d 8872 4dbe
00000340: 813d 87bc 1cba 433d c462 2c3c f641 c13c
00000350: 55a6 3ebe 2e8e f53a 4ebf 023d b465 a23c
00000360: 4988 ddbc 389f 6e3e 9563 4c3c dc14 523c
00000370: a407 073d e982 11bf eef7 293e 570c 0ebf
00000380: 3d20 813d 7e56 fe3a a984 96bc a6ca aa3d
00000390: be6b c1bb e359 d9bc a91d 8aba 1850 c3bc
000003a0: ff15 16be a59a 743c 9814 35bc a1c8 6f3c
000003b0: d319 963d 36c0 d83e 88c4 73bb 1348 283c
000003c0: 2ed6 1fbc c2fb 7cbd 1bf9 66be 5b63 0fbb
000003d0: 16b1 ab3c e5a5 b9bd d10f 79bd 546d 14be
000003e0: bc7d b0bb e76b 9bbd 2dac 773d 2cc8 dd3c
000003f0: 0fc9 653d 9da8 903c 8a0a f33b be3f 69bc
0.019291004 0.025213087 0.32024613 0.049742464 -0.0142605705 0.13643926 0.033540428 0.044873215
-0.103676856 0.14026408 -0.042690244 -0.046506424 0.21087782 -0.0035347552 0.19597965 0.06115699
0.04825248 0.40933615 0.16305609 0.13998559 -0.08435021 0.018688561 -0.063701324 0.539792
0.023269119 -0.009063013 -0.029881159 -0.01848743 0.3321494 0.068848744 -0.048077285 -0.024564909
0.2870154 0.0038564114 -0.021080634 -0.02224189 0.021812486 -0.1301522 0.11182233 0.08545943
-0.050898336 -0.57147145 0.09443032 -0.58364755 0.03395696 0.048372634 0.00028816605 -0.19235988
-0.039717194 0.11405246 -0.017324649 0.027127879 -0.02631718 0.16252665 0.011902181 -0.04020411
0.0179204 0.0001532286 -0.04347789 -0.05496316 -0.007341148 -0.03216075 -0.05769788 0.0027679931
0.020607948 -0.024248037 -0.022461481 0.077846766 0.009074836 -0.07608255 0.042104315 0.017819457
-0.1865483 0.018001353 0.025130484 0.0023580682 0.031910386 0.00020756687 -0.011825972 -0.041295733
0.028557356 -0.025348147 0.12164416 -0.010505212 0.06314877 0.005417154 0.06803719 0.049803764
-0.008019013 0.04920985 0.021727132 0.017585952 0.6465656 0.015564811 0.05864826 0.030287944
-0.026163965 0.19845241 -0.0066583296 0.009318196 0.032832317 -0.5728204 0.24228072 -0.56834847
0.07250514 -0.009491692 -0.014043109 0.5299464 -0.0033145617 -0.037437793 0.0024861398 0.0037838812
0.18932112 0.0051115667 -0.010553992 0.0198836 0.08111074 0.020265631 0.006901194 0.046991136
0.300587 0.558704 -0.08586426 -0.04270616 0.15254512 0.51241034 0.08684126 0.43527198
-0.0024505467 -0.25177118 0.020144502 -0.03300416 0.31790134 -0.07844976 0.3866561 -0.09303879
0.63974464 0.46006757 0.19200926 0.008120821 0.021661654 0.15647554 0.51208943 -0.18516196
-0.119328335 0.009726187 -0.2953127 0.36928156 0.1979463 0.050346196 0.014008744 0.5232405
-0.016587632 -0.0874106 -0.0033856514 -0.20437114 0.26508242 0.010273769 0.08263063 0.07575426
-0.26654923 -0.5482959 0.05830931 -0.5718985 -0.011977315 0.1276498 0.27741373 0.07999567
-0.14896423 0.45471472 -0.092673026 0.73407733 -0.16082573 -0.6245373 0.14623779 0.031270936
0.1282773 -0.18716696 0.10814395 0.022192597 -0.0029199368 -0.027275154 0.6009798 0.018202215
0.007820224 0.03018371 -0.026052209 -0.0801199 0.020791221 0.077139825 0.045223866 0.014101521
-0.04927021 -0.00093980477 0.03940383 0.021094384 0.0314523 0.1456422 0.0022797585 0.031571817
0.014516087 -0.024847975 0.36776933 0.04720931 0.024807215 0.016829748 0.06953683 -0.20063221
-0.01650882 0.04778491 0.010521594 0.023591023 -0.18618138 0.001873439 0.031920724 0.019823886
-0.027042525 0.23302925 0.012474914 0.012822356 0.03296627 -0.5684038 0.16598484 -0.5548758
0.06304977 0.0019404439 -0.018373804 0.08339433 -0.0059027364 -0.02653212 -0.0010537404 -0.023841903
-0.14656828 0.014929448 -0.011052273 0.014635236 0.07329144 0.42334145 -0.0037196 0.01027109
-0.009755654 -0.061763532 -0.22555964 -0.0021879289 0.020958465 -0.09064845 -0.0608061 -0.1449483
-0.0053860825 -0.0758894 0.060466934 0.027072988 0.056099948 0.017658526 0.007417028 -0.014236389

deconv1.bias f4 [12]
00000000: 1d65 8a3e 75b7 483e 0d5f e33d e7aa ca3c
00000010: 0cc8 e53c 66cc b33e e22e dd3d 5833 ae3e
00000020: 842a 113f 28e6 103e 8a18 9dbe 0691 643e
0.27030268 0.19601233 0.11102114 0.024739696 0.028049491 0.3511688 0.10799958 0.34023547
0.567055 0.14150298 -0.30682784 0.22320947

deconv2.weight f4 [12, 24, 5]
00000000: 3419 a1bd 0ed1 6abc 0adf 2c3e ef7f 853d
00000010: 7c3e 5cbd bcea c6bc 0ec4 303e 3eba 563e
00000020: 86b8 3d3e ecd1 63bd 2fd5 c9bd 148e 22be
00000030: dfb5 7e3d 354c 953d e22d b5bd d477 6dbd
00000040: 2fd3 963c fcc8 d4bd 9916 37be 618f c9be
00000050: 62fa 1ebd 81fc 22be ba9f 92bc d593 32be
00000060: 3170 17be 89fb c2bd 93e6 d9bc ea62 1ebe
00000070: 1016 fc3d 419a 96bd a362 35bd 4d73 f63d
00000080: 8f17 ebbd 618a 86be cce4 9ebd b82f cf3d
00000090: 740f d6bd ccf8 6abf f064 6c3e a8fa 9f3b
000000a0: 5e27 f43c c2c3 83be f00d af3e cc1f 4c3e
000000b0: 6195 213d 5de5 8abd 2e39 553c 2f36 0f3d
000000c0: 9613 473e b2a4 6abd d039 a8bd 57f4 81be
000000d0: 818a f5bb 8ddc b8bd ad14 bdbc 67e1 51bd
000000e0: 6a6d 90bd b15e 67be 51d4 b03d ce57 03bd
000000f0: 6486 b9bd eb76 5f3d 08f6 e8be 0230 68bd
00000100: 9fe4 afbc a653 c23d 2a9c 9f3e 3f29 6ebe
00000110: 5a69 483e e657 133e 3ca9 c2bc 6bf6 69bb
00000120: 1cb8 18be 29e8 6dbe 55e2 9e3d b235 1ebe
00000130: 3caf 663e 50a1 5abe edf2 1a3e 2481 763c
00000140: 3264 31be f473 c03d ee53 3fbe e271 983e
00000150: 8664 553d a910 f6bd 1225 0b3e 4a3a d9be
00000160: cedc 0bbe bda1 f83c 5620 1b3d 3de0 543e
00000170: be9d 35be d0f7 cdbd 2a78 8cbd 0b40 ffbd
00000180: a80c f23d fdb3 11bf a4ae cfbd 3736 bd3b
00000190: 40f9 1ebd 500e cf3c 52e1 853d 3748 e93c
000001a0: da97 c4bc 43a1 123c 60a2 fd3d a558 9bbd
000001b0: 064f 613c b9c7 1abe d08c 303d 2966 9cbd
000001c0: 9383 7b3e d7e2 9cbd 6834 673d e711 e2bd
000001d0: 6891 a9bd 5c88 76bd f981 86bd 53a9 3fbe
000001e0: 9f6a d33c b244 123d 3ec3 0f3d a547 f53c
000001f0: cdf8 08be 8cf3 47bc 3a42 723d 79a2 9a3c
00000200: 060a b737 ea27 013e 9d23 86be c33b 773d
00000210: a782 74bd f257 353e a5cc 2c3d 63c4 f4be
00000220: b7c5 2e3d 3008 13bc abf7 eebd 3939 403e
00000230: 9894 4e3d fe30 6bbe baea 8dbd 9b6c 1f3e
00000240: 17f2 733e 95d4 923c 32e3 013d f990 0abf
00000250: e12c 43be f09b 04be 26fd 913c 9bd2 0cbc
00000260: f185 87b7 9b92 303e d254 bbbd ef65 efbd
00000270: a808 19bd aaf4 2fc0 c353 93ba e791 fc3c
00000280: ac90 29bd 93a7 36be 59a1 34be 3ebc dabd
00000290: 9816 ecbd 244c 053a 01c0 babd ce94 f23d
000002a0: 854a 1e3d fdcd 873b 5b42 3ebe ac79 febd
000002b0: 752d 01bd 8603 2a3d 3fa8 c2bd ade7 d23b
000002c0: 92a4 8dbd 39cd 933d e4e8 27be bc6c 17be
000002d0: a024 0fbd 1e0b 71be d310 e6be 33ae 213e
000002e0: 3894 56bd 0e62 cd3d 3cac b63d f919 493d
000002f0: 26d9 d03d e8c7 283d be9f d73c e933 05bc
00000300: 6b56 283d ce1f 95be 8abc abbd a966 2ebe
00000310: c1fb b73c e703 1e3e eec7 123e 668d ddbd
00000320: 7268 bbbb 6c47 e93d 6d2f 743d f249 753d
00000330: 396b 2bbd 8a83 c8bd ace1 a1bd 52d4 f7bc
00000340: 6534 133e 2ea6 033e 1bc8 c13c 76cf 1b3d
00000350: 7c22 113d 95da 87be 17c8 3b3a 3573 3e3d
00000360: 3677 14bd 36c4 c0be 6687 883d 2857 9d3c
00000370: d81c cabd 1212 f9bd 0dec 353d 2d53 c7bb
00000380: e0e7 4a3d b31c b1bd dc34 ef3d 6196 0a3c
00000390: a624 eeba ce08 883b fb30 7bbd 72ab 2f3c
000003a0: 71d1 cfbd a728 f0bd 8c53 503d b8c7 d93d
000003b0: f91c 0fbd a8e0 d83b dd21 1fbc d231 3fbe
000003c0: 6732 5fbd c3ac 093e 1deb a03d c942 61bd
000003d0: 5263 8d3d 6a28 1b3d db69 b2bd c2c8 4e3e
000003e0: 265b cc3d 594c 3dbe 7027 2d3e 3670 363e
000003f0: 38cf 3bbe b579 483d 35c8 23be 0b92 653d
-0.07866135 -0.014332069 0.16881958 0.06518542 -0.053770527 -0.024281852 0.17262289 0.20969483
0.18527421 -0.05562012 -0.09855115 -0.15874511 0.062185165 0.07289926 -0.08846642 -0.057975605
0.018411247 -0.10389897 -0.17879714 -0.39367202 -0.038813002 -0.15916635 -0.01789843 -0.17439206
-0.14788891 -0.09520633 -0.026599204 -0.1546742 0.123088956 -0.0735364 -0.04428352 0.12033711
-0.11479103 -0.2627745 -0.07758483 0.101165235 -0.10452166 -0.91785884 0.2308538 0.0048821755
0.029803928 -0.2573529 0.3419032 0.19934005 0.0394491 -0.06782029 0.013014121 0.034963783
0.19441065 -0.057285972 -0.08214152 -0.2538173 -0.0074933176 -0.09026442 -0.023081148 -0.05124035
-0.07052119 -0.22594716 0.08634246 -0.03206616 -0.09058836 0.05455677 -0.45500207 -0.05668641
-0.02147132 0.09488611 0.3117383 -0.23257922 0.19571438 0.14389 -0.023762338 -0.0035699855
-0.14913982 -0.23233093 0.07758013 -0.1545017 0.22527784 -0.21350598 0.15131731 0.015045438
-0.17323378 0.09397116 -0.1868436 0.29774386 0.05209782 -0.120148964 0.1358836 -0.42427284
-0.13658449 0.03035056 0.037872635 0.20788665 -0.17735955 -0.10057032 -0.06858857 -0.12463387
0.1181882 -0.56915265 -0.10140732 0.005774285 -0.038811922 0.02527538 0.06537117 0.028476818
-0.02399819 0.008949581 0.12384486 -0.07585267 0.013751751 -0.1511525 0.04310304 -0.07636673
0.2456191 -0.07660454 0.056446463 -0.11038571 -0.08279687 -0.060188636 -0.06567759 -0.18716936
0.025807677 0.035710044 0.035098307 0.02994139 -0.1337616 -0.012204062 0.05914519 0.018876301
2.1819968e-05 0.12612882 -0.26199046 0.060359728 -0.059694912 0.1770933 0.04218735 -0.4780608
0.042669024 -0.00897412 -0.11668333 0.18771829 0.05043468 -0.22967908 -0.06929536 0.15568773
0.23822819 0.017923633 0.03171081 -0.5412746 -0.19060089 -0.1295011 0.017820906 -0.008595134
-1.6155625e-05 0.17243426 -0.091470376 -0.11689364 -0.03736177 -2.749308 -0.0011240173 0.03083129
-0.041397735 -0.17837362 -0.17639674 -0.106804356 -0.11527747 0.0005084893 -0.09118653 0.118447885
0.038645286 0.0041444288 -0.1858 -0.12425551 -0.03153749 0.041507266 -0.09504747 0.0064363093
-0.06916155 0.072168775 -0.16397434 -0.14787573 -0.034947038 -0.23539397 -0.4493471 0.15789108
-0.052387446 0.10028468 0.0891957 0.049097035 0.10197668 0.04120627 0.026321288 -0.008130052
0.04109804 -0.29125828 -0.0838557 -0.17031349 0.022458913 0.15431176 0.1433408 -0.10817985
-0.005719238 0.11390576 0.05961554 0.059884973 -0.041850302 -0.09790714 -0.079043716 -0.03025261
0.14375456 0.12856361 0.023654988 0.038039647 0.035433277 -0.26533952 0.00071632996 0.04649659
-0.0362465 -0.37649697 0.0666645 0.019206598 -0.09868783 -0.1216165 0.04441457 -0.0060829134
0.04953754 -0.08648052 0.11680004 0.008458705 -0.0018168881 0.00415144 -0.06132601 0.010722028
-0.1014737 -0.11726504 0.050860927 0.106337965 -0.03493974 0.006618578 -0.0097126635 -0.18671349
-0.054491427 0.1344481 0.07857344 -0.054995332 0.069037095 0.03788034 -0.087115966 0.2019377
0.09978323 -0.18486156 0.16909575 0.17816243 -0.18340766 0.048944194 -0.15994342 0.05604748

deconv2.bias f4 [24]
00000000: 7b73 4f3e 09fb 213e 4d63 ac3d dc8a ee3d
00000010: 789a 91bd 77ff 7bbd 723d 4fbd 5861 533d
00000020: 1ed0 243e 5c4f d93d 5ca2 a63d 349c 303e
00000030: 50df be3d 3614 0a3e 36f7 90bd 3935 423e
00000040: 4ad6 713e e880 ce3d 99cf e03d 129f a73d
00000050: 93c0 00be 16d7 c43c 2585 29bd 95d8 8dbd
0.20258896 0.15818419 0.084173776 0.11647579 -0.07109541 -0.061522927 -0.05059571 0.051606506
0.16095015 0.1061084 0.08136436 0.17247087 0.09319937 0.13484272 -0.07078402 0.18965615
0.23616901 0.10083181 0.10977096 0.08184637 -0.12573461 0.024028342 -0.041386742 -0.06926075

deconv3.weight f4 [24, 1, 5]
00000000: 677f 233e d9a8 0dbd 3c33 93be 5c68 bd3e
00000010: 05af 043f 940b 5b3e e839 c33e 1db5 7fbe
00000020: 9b90 11bc 0443 f33c fdcc b5be 1eea d8bc
00000030: bc15 623e 4627 e73d d202 743e 54ec bf3e
00000040: 3346 133f a8e0 c3bd 6f18 5bbe 2448 9cbd
00000050: 1774 153f 7dfd 063d 83c7 ccbe 990a ecbe
00000060: d98b 10be 7674 75be 1cad 29be e658 963d
00000070: c527 5abf 2c7d cebd cee0 a8be 3f52 2f3d
00000080: fbf7 8ebe bb45 b63a 7477 003f 42cc b63d
00000090: f3ef c7bc cc20 893f d0b3 af3d 9f52 d5bd
000000a0: 051c f7be 7448 bf3d 6870 bb3e 7b82 a03e
000000b0: ba99 4d3e a430 b63e 0dfc 8c3e 9abb 8f3e
000000c0: 4758 7bbe 9925 763d 4827 9ebe 86e5 c6be
000000d0: cfd0 0fbf 80c7 14bf feff b9be 2cc3 083e
000000e0: cfe2 c73d f8f0 fa3e a855 8f3e 8ddd 2d3d
000000f0: 9285 76be 1176 edbe bd04 4ebc 4159 163e
00000100: a405 d33e c5fb 00bd 67f3 983d cc02 c43e
00000110: c046 b13e 3a5c 583d 286a b43d f023 0e3f
00000120: 28c7 063d e961 7ebe cd2d 223b bf70 863e
00000130: 9cec 0a3f bcd2 ef3e 9099 a93d 7709 e93d
00000140: e4ad d33e 0530 933e ce61 db3c b0f6 043f
00000150: c84b a4be 1065 8e3d 3f41 4cbc e5dc 88be
00000160: e6a2 59be baa7 1b3f b070 60be a018 e53d
00000170: 7efb 983e 9be2 c43e 2654 e5bc f09b f5be
00000180: 7db1 81bf 4c12 df3e 3c5f b93d fc1b 74bd
00000190: 936e 993d dff2 d2be 91f9 f83c 0123 563f
000001a0: 27df 453e 9cd9 adbd 8033 75bd 9b70 183f
000001b0: 7ae6 933e 0be0 2ebc 8a30 62be aed2 c0bd
000001c0: 10ce 26be acb1 a73e 985e b13e 9137 4abd
000001d0: 052d 10bf 2bce d4be 44be 51be 9ce3 30be
0.15966569 -0.034584854 -0.28750026 0.36993682 0.5182956 0.21391135 0.38130116 -0.24971433
-0.008884574 0.029695041 -0.35507956 -0.026478823 0.22078604 0.11286788 0.23829201 0.37484992
0.5752899 -0.09564334 -0.2139604 -0.07630947 0.58380264 0.03295659 -0.39995965 -0.46101835
-0.14115848 -0.23970208 -0.16569942 0.07341175 -0.85216933 -0.100824684 -0.32984012 0.042803045
-0.2792357 0.0013906279 0.5018227 0.08925678 -0.024406409 1.0713134 0.085792184 -0.10416149
-0.48263565 0.09339991 0.36609197 0.3134955 0.20078173 0.35583985 0.2753605 0.28072816
-0.24545394 0.06009445 -0.30889344 -0.38846987 -0.5617799 -0.5811691 -0.3632812 0.13355702
0.09760057 0.4901197 0.27995038 0.042447615 -0.2407439 -0.4637914 -0.012574372 0.14682485
0.4121524 -0.031490106 0.074683 0.38283384 0.3462429 0.05282233 0.0880931 0.55523586
0.032904774 -0.24842037 0.0024746538 0.26257893 0.5426729 0.46840465 0.08281243 0.113787584
0.41343606 0.28747573 0.026780035 0.51938915 -0.32089067 0.0695287 -0.012466728 -0.2673103
-0.21253547 0.60802805 -0.21917987 0.111863375 0.29879373 0.38454136 -0.027994227 -0.47970533
-1.013229 0.43568647 0.09051368 -0.059597 0.074917935 -0.4120092 0.03039244 0.8364716
0.19323407 -0.08488771 -0.059863567 0.5954682 0.28886777 -0.010673533 -0.22088829 -0.09415184
-0.16289544 0.3275274 0.34642482 -0.0493694 -0.56318694 -0.41563544 -0.20482737 -0.17274326
