models/multi_resolutionv2/SNN_Autoencoder_tsri_80s_320g.pth (torch, 25531 bytes, 11 tensors)

encoder_conv1.weight f4 [24, 1, 5]
000000 b6 be 15 be 16 40 d4 3e ae 2b f1 bd 1a 9f f1 3e
       -0.14623532 0.41455144 -0.11775909 0.47191697
000010 cf eb be bd d7 28 8b 3d 86 fd 13 3d 72 f5 4c 3f
       -0.09322321 0.06794899 0.03613045 0.8006202
000020 99 fd d6 3e e1 3e 66 bd a7 5b e6 3e 24 2c 50 3f
       0.41990355 -0.05621231 0.449918 0.81317353
000030 8f da 03 bd 2e 3b bb 3d 23 f7 a6 bd 6b 97 11 bc
       -0.032190856 0.09142147 -0.08152606 -0.0088861985
000040 4e 16 9c ba c1 de 8c 3f 84 b8 86 3b bc a0 dc 3b
       -0.0011908503 1.1005479 0.0041113514 0.006733028
000050 f1 b6 03 3f b0 9e 14 3f 73 70 68 3e 99 62 06 bf
       0.5145102 0.5805464 0.22699146 -0.524942
000060 af 95 2c 3e 0d 08 0a 3f 93 44 05 3f 17 4d 16 bf
       0.16853975 0.53918535 0.5205776 -0.5871138
000070 f2 6b bb 3c be 83 12 3f e0 53 b5 3d 54 41 0c 3e
       0.02287862 0.5723227 0.088538885 0.13696796
000080 c3 b6 aa 3e 4a e9 dd bc 21 fb 79 3d c6 b5 8e 3e
       0.3334256 -0.02708878 0.06103051 0.27873057
000090 0c 69 a3 3d 2e cc e2 3e f7 ab 01 3f 6b e6 88 be
       0.079790205 0.44296402 0.5065302 -0.26738295
0000a0 6f 05 a4 3b e5 a7 14 3f 6c a5 38 3d b5 97 14 3f
       0.0050055305 0.58068687 0.045079634 0.58043987
0000b0 d1 a9 01 3c 8c e9 bf bb 15 3c 10 be c0 8a 9c 3e
       0.007914023 -0.0058566984 -0.1408542 0.30574608
0000c0 23 ec 34 be 30 b2 9b bc b6 f5 5a bd 85 1b 9b 3f
       -0.17668204 -0.019005865 -0.053456984 1.2117773
0000d0 8b a4 84 3d 31 9d 45 3d be 6d bc bd 01 d7 f8 3c
       0.064766966 0.048245613 -0.09200619 0.03037596
0000e0 1b f9 9b 3c bc f6 79 3e cc be 30 3f 32 4a 2e 3f
       0.019039681 0.24410528 0.6904113 0.68081963
0000f0 4c 13 34 3f 29 5d b7 3e 4c 66 ba 3e 3e 8b d0 3e
       0.70341945 0.35813263 0.3640617 0.40731233
000100 a6 14 4a 3e 0b 78 dd 3e 95 79 c0 3e f7 da 1f 3f
       0.19734439 0.43255648 0.3759276 0.6244349
000110 59 70 3b 3e 5b ea a4 3e ba a7 2b 3b 42 46 0c 3f
       0.18304576 0.3221005 0.0026192502 0.54794705
000120 33 a3 08 3f 02 46 1c 3f 98 bb 5e bb f5 27 4a bd
       0.5337402 0.61044323 -0.0033986326 -0.049354512
000130 4d 6d be bc c8 81 13 3e a9 02 b4 3e 52 57 d3 3e
       -0.023245478 0.14404976 0.3515828 0.41277558
000140 56 6c 3e 3e 71 58 41 be 9f 29 10 3e 94 30 da 3e
       0.18596014 -0.18881394 0.14078377 0.42615187
000150 9e ad 53 3e c5 5d 30 3f 06 ea c8 be 1d 20 84 3e
       0.20671698 0.6889308 -0.39241046 0.2580575
000160 26 6c ed 3e 59 b2 e9 3e f9 23 65 3b ec cf 7e ba
       0.46371573 0.4564388 0.0034964068 -0.0009720314
000170 58 bd ed bb 03 90 a2 bc 2c 65 69 3f 13 8a da 3e
       -0.0072552375 -0.01984406 0.9117 0.42683467
000180 b7 a1 c4 3e 0a ac 3e bd 77 c3 2b 3d a5 b4 cc 3e
       0.3840463 -0.046550788 0.041934457 0.3998157
000190 53 89 47 be 11 04 49 3e bf 6d 38 3f d1 35 15 3d
       -0.19485979 0.19630457 0.7204246 0.036428276
0001a0 5e b2 e4 3e b3 c4 15 3f fa cc 4e 3e 15 6f 03 bf
       0.44667333 0.58503264 0.2019538 -0.5134137
0001b0 10 0f 2c bf 45 46 5b be 84 e4 dd bd 77 f0 9b be
       -0.67210484 -0.21413524 -0.108346015 -0.30456898
0001c0 1c b1 54 be 33 ce 73 be 37 c5 c5 be 82 3b 90 bc
       -0.20770687 -0.23809128 -0.38627025 -0.0176065
0001d0 bf f3 52 3d 66 ff 05 3f 43 78 50 3f 5e 60 5b 3b
       0.051501986 0.5234283 0.81433505 0.0033474187

encoder_conv1.bias f4 [24]
000000 3b 14 46 3f 23 6b 90 bd 9b fd 53 be 18 70 ca bc
       0.7737462 -0.07051685 -0.20702212 -0.024711654
000010 c2 66 42 bc 8c 8c 88 bd 60 67 54 3f 96 8e 89 3e
       -0.01186532 -0.06667432 0.8297024 0.26866597
000020 84 fb dd bd d1 12 92 3f e8 dc 0b 3d 36 c5 c8 be
       -0.108389884 1.1411992 0.03414622 -0.3921296
000030 1b 43 e3 3e f9 dd 1c 3e 8a 31 4a bd ab 15 1a 3f
       0.44387135 0.15319051 -0.04936365 0.6018931
000040 ba 28 62 3f 6e 86 00 3e 2f df 5a 3e 22 97 34 3f
       0.88343394 0.12551281 0.213742 0.7054311
000050 23 62 84 3c 3d e7 5e 3f 3b f4 bf be 20 9c 83 be
       0.016160076 0.8707159 -0.3749102 -0.2570505

encoder_conv2.weight f4 [12, 24, 5]
000000 5f 6f 16 3c 34 33 4c bd 28 17 38 be 83 ed f5 bd
       0.009181826 -0.04985352 -0.17977583 -0.120081924
000010 1c 9b 75 bd 15 03 14 be 4a 8a 0e be c6 be 8e 3e
       -0.059962377 -0.144543 -0.1391994 0.27879924
000020 59 94 e5 3c 65 b1 b8 3d cb 06 d9 3d f0 71 e5 3d
       0.02802484 0.0901821 0.10596999 0.112033725
000030 07 fc c5 3c 74 75 de 3c 19 4c 0f 3e 5b 46 11 3e
       0.024168028 0.027155615 0.13993873 0.14186995
000040 c9 dd 06 be 6a 64 ee 3e 2c 15 9d 3e f4 b9 d5 3e
       -0.13170542 0.46560985 0.30680215 0.41743433
000050 a6 9d 31 3d 92 61 6d 3c 05 54 8b bc 0a b1 06 bd
       0.043363236 0.014488595 -0.017007837 -0.03288368
000060 5f 5b 05 bd 1d c7 91 3d 49 b0 f1 3d 98 34 0a be
       -0.03255784 0.07118056 0.11801202 -0.13496625
000070 fc 77 3f 3d fc 93 91 3d 34 68 72 ba da e3 2d be
       0.046745285 0.07108304 -0.0009247095 -0.1698145
000080 a1 17 24 be 39 92 fb bd ce 2f c2 bd a4 b1 24 be
       -0.16024639 -0.12283749 -0.09481774 -0.1608339
000090 83 5e 2a be fa 91 06 3c 3b 74 0a bc c2 f9 b1 3d
       -0.16637616 0.008213514 -0.008450563 0.08690216
0000a0 27 94 31 3c 48 6d a7 bd 75 9a 10 bc 40 45 0f 3e
       0.010838545 -0.081751406 -0.008825888 0.1399126
0000b0 47 f6 19 3e cf f5 67 3c 78 02 d5 bd a3 e6 e4 bd
       0.15035354 0.014157726 -0.104008615 -0.11176803
0000c0 d0 86 03 be b2 c4 34 be 97 95 91 3c 30 1e 5a bc
       -0.12844396 -0.17653158 0.017771525 -0.013312861
0000d0 89 d3 4d bd b5 3f 8c 3d ef 40 9d 3e 8f c7 b2 3d
       -0.050250564 0.06848089 0.30713603 0.08729469
0000e0 d5 80 a8 3d 11 0b c6 3d 29 7d 35 bd 0d 47 be bd
       0.08227698 0.096700795 -0.044308815 -0.092908956
0000f0 6c 9d 9d bd ed ad ca bd 9c 8b e6 3b b6 25 21 3e
       -0.076960415 -0.09896455 0.0070356857 0.15737042
000100 b9 6a b3 3d ff fd f5 bd 69 2f 36 bc 06 53 18 3d
       0.0876059 -0.120113365 -0.011119702 0.037188552
000110 7d a4 93 3d 31 7e 9f 3d 4c e0 d3 bd 4d 93 04 3c
       0.07209108 0.07787741 -0.103455156 0.00809176
000120 e4 f5 ef 3d 13 40 f6 bc 2c 9f ce 3d 35 81 a8 3d
       0.11716822 -0.03005985 0.100889534 0.08227769
000130 78 f5 d7 bd 5b 1d 64 3d 06 e8 bf bc a4 f3 9b bd
       -0.10544866 0.055692058 -0.023426067 -0.0761483
000140 d4 5b 01 bd 0e c3 b7 bc 26 d9 c0 bd 63 17 e8 bd
       -0.031581715 -0.022431877 -0.09416418 -0.11332586
000150 db 64 2d be ca 15 f8 bd a5 33 3a bd 55 ba 06 3d
       -0.16933005 -0.12113531 -0.04545941 0.032892544
000160 2d eb 80 3c b6 5e 6c bd a1 90 91 3e eb ef 21 be
       0.01573714 -0.05770751 0.28430656 -0.15814178
000170 29 10 b5 3e 15 db ae 3e 60 5b f0 3d ee 17 e1 bd
       0.35363892 0.3415152 0.117361784 -0.10990892
000180 2a aa 47 3d 8a ea 85 be b9 2a b6 bd 43 4b 6e bd
       0.048746265 -0.26155502 -0.088948674 -0.058177244
000190 cf 8e 24 3b 1b 1c 0f be b1 5a 89 3d 24 82 ad 3a
       0.0025109535 -0.13975565 0.06706751 0.0013237637
0001a0 f6 75 c1 3b b2 25 bb 3d 1f 08 c3 bd 38 b5 86 3e
       0.0059039546 0.09138049 -0.09523033 0.26310134
0001b0 dd e9 2b 3e 40 ce f5 bd b4 e4 46 3d 54 c6 48 3d
       0.1678843 -0.1200223 0.048557952 0.049017265
0001c0 46 a9 a0 3d 50 b6 9c 3b 54 c6 c3 3c 4a 3d 85 bd
       0.07844786 0.0047824755 0.023898281 -0.065058306
0001d0 98 19 16 bd c4 ed a1 3e ec df f6 3d aa d6 0e 3e
       -0.0366455 0.31626713 0.120544285 0.13949075
0001e0 91 b2 21 bd 09 b9 48 bd 38 32 b7 3d a7 0b 8b 3d
       -0.039476935 -0.04900459 0.08945125 0.06789332
0001f0 61 b8 d4 3b 56 ac 42 3d 38 43 cd 3d 3f d1 a3 3d
       0.0064917062 0.047527634 0.100225866 0.07998895
000200 5c 8b 09 3d 46 d4 04 3b 61 66 e0 bd 88 d4 2f 3d
       0.03358017 0.0020268126 -0.10957027 0.042927295
000210 f3 4e 87 3d 55 50 ae 3b ed ff 22 be 6e 9b 9c bc
       0.06606855 0.005319635 -0.1591794 -0.019117083
000220 d8 16 da bd b6 bb aa bd bb 4e 67 3d 1f 1d 1e 3e
       -0.10648888 -0.08336584 0.056471568 0.15440796
000230 55 77 5c 3c fe d3 bb 3d 4b 39 99 bd b1 ee 99 3d
       0.013456185 0.09171294 -0.07481631 0.0751623
000240 da 3f 4e 3b 1d c5 3e 3b 04 b7 49 bc 17 91 1a be
       0.0031471164 0.0029109188 -0.012311701 -0.1509441
000250 21 12 47 bb 42 30 a6 bd c7 e9 32 bc 98 f5 b1 bc
       -0.0030375796 -0.08114673 -0.010919995 -0.021723554
000260 05 69 54 bd c3 06 0b 3b 5a 4d 9b 3d 1d 87 a2 3d
       -0.051857967 0.0021213747 0.07583113 0.07935927
000270 6f 3e a3 3d 32 72 27 3e 49 bb 56 3e c5 ee c9 3d
       0.07970893 0.16352156 0.20969881 0.09859995
000280 1a de 1b bd da ea fc 3d d9 07 31 3e 62 d1 d2 ba
       -0.03805361 0.12349482 0.1728815 -0.001608413
000290 e5 bd 1a be 2f 06 3b bd 29 d7 35 bd 96 3a 00 be
       -0.15111502 -0.045660194 -0.044394646 -0.12522349
0002a0 3b c2 ec bc bb a3 1c bc da 73 8c bd 1c 29 05 3d
       -0.02890121 -0.009560521 -0.068580344 0.032509908
0002b0 c5 f8 5a bd d6 e7 ae 3d 5d 86 b2 bc 9b 91 8a 3d
       -0.0534599 0.08540313 -0.021792585 0.06766053
0002c0 6e 44 11 be 87 d7 f0 3d 50 6d 23 bd c4 e6 07 be
       -0.1418626 0.117598586 -0.03989917 -0.13271624
0002d0 d1 29 33 3d b9 55 22 3e 6a 29 b5 3d b2 40 b3 3d
       0.04374105 0.15853013 0.0884579 0.08752574
0002e0 82 66 8f 3d ee 2d 5a 3d 84 f8 71 3d af 28 91 3d
       0.07001974 0.05326646 0.059074894 0.07087838
0002f0 cd 04 43 3d 62 be 8f 3d e1 30 9c 3c d2 94 9e 3d
       0.047612 0.070187345 0.019066276 0.07743229
000300 bc 4f 17 3e 59 1d 25 3d e5 fd 1d 3a 3d 61 0d 3d
       0.1477651 0.04031119 0.0006026908 0.03451656
000310 12 4c d3 bd e6 1d 11 3c 59 81 94 3d 1b 92 3d 3d
       -0.10317244 0.008857226 0.072512336 0.046281915
000320 83 31 d1 bc 49 6d 9d bd 6b 43 a9 3d 9c 4a e7 3c
       -0.025536304 -0.0768686 0.08264812 0.028233819
000330 e1 b6 b0 3c 58 d0 63 3d 9b df 1a 3d ee ac ce 3d
       0.021571578 0.055618614 0.037810903 0.100915775
000340 44 72 d6 3c f5 d7 5e 3d a1 10 6b 3e 0a 45 56 be
       0.026177533 0.05440517 0.22955562 -0.20924774
000350 53 3d 46 3e eb 60 cc 3c 26 14 0d 3c d7 76 dc bc
       0.19359331 0.024948558 0.008610761 -0.026912136
000360 e3 2a 1a bc eb 58 f3 3c 8a 85 0a 3b da 22 73 bb
       -0.009409639 0.029705485 0.0021136724 -0.003709963
000370 36 db 99 3d a7 ff d1 3b 35 48 aa 3d 9d fa bb 3c
       0.07512514 0.00640865 0.08314554 0.02294665
000380 27 78 37 3d 1c c8 12 bd b6 01 08 3d 64 5a ce bd
       0.04479232 -0.03583537 0.033204757 -0.100758344
000390 9d f1 9d 3c 1e 95 49 bd 44 69 b6 3d 76 80 91 3d
       0.01928025 -0.049214475 0.089067966 0.0710458
0003a0 b2 1b 5b bd 80 47 fa 3a e0 b7 90 bd f0 97 44 bb
       -0.05349321 0.0019094795 -0.070663214 -0.0029997788
0003b0 35 60 d6 3b 1b e8 16 3d 03 20 c2 bc 91 0a 07 be
       0.0065422305 0.036842447 -0.023696905 -0.13187625
0003c0 aa 7f 08 3d 00 7c 1a 3d 3c af 9b 3d 64 79 89 3d
       0.033324875 0.037715912 0.07601783 0.067126065
0003d0 03 6a 86 3d 5c 42 67 3c 8f dd 86 3d 33 21 c6 bd
       0.06563189 0.014114942 0.06585228 -0.09674301
0003e0 be 04 5f bb 93 5e f3 3c 16 ca 58 bd 5d ad 0e be
       -0.0034029926 0.029708182 -0.0529271 -0.1393332
0003f0 43 75 58 bd 5a 29 9c 3c 58 32 3a 3d 7a 9c 27 3e
       -0.052846204 0.019062687 0.045458168 0.16368285

encoder_conv2.bias f4 [12]
000000 48 51 d4 3c db 7f 7c be 14 0e 06 3e 1b ec 22 3f
       0.025917664 -0.24658148 0.13091308 0.6364152
000010 41 25 2e 3f 2d d3 a7 3e be b9 b9 3f 5d 35 b1 3e
       0.68025595 0.32778302 1.4509809 0.34611025
000020 a0 18 4f 3e af 10 0d 3f 57 48 99 bb ef 11 65 3e
       0.20224237 0.5510358 -0.004677813 0.22370122

encoder_conv3.weight f4 [6, 12, 5]
000000 fb a3 e6 3d 92 0c 90 3d 03 f6 b7 3d 28 81 03 3d
       0.112617455 0.070336476 0.0898247 0.032105595
000010 65 06 6b bd ce f4 54 3c 5b 10 5a bd a4 4b 20 bc
       -0.057379145 0.012997819 -0.053238254 -0.009783659
000020 f8 88 1e 3d c6 db 25 bd 06 47 0a bd 88 9e 46 bd
       0.038704842 -0.040492795 -0.03375914 -0.04849103
000030 32 86 e1 bd 04 c5 21 be 17 49 98 bd a1 f4 26 bc
       -0.11011924 -0.15797812 -0.07435816 -0.01019016
000040 4c 7a c2 bd c3 64 25 bd dc bf 02 3c 4e 93 20 bd
       -0.094959825 -0.040379297 0.007980313 -0.03920298
000050 45 5c 09 3c 04 27 bb 3d 63 a5 b9 3d 2c d2 86 bd
       0.008383815 0.09138301 0.09064748 -0.06583056
000060 15 f0 79 bc 9a 61 f4 bc 97 ea 75 bd 80 45 a5 3d
       -0.015254994 -0.029831696 -0.060038175 0.08069897
000070 26 54 29 bc 53 76 06 bd e8 d4 e4 bd 02 36 a9 be
       -0.010335004 -0.032827687 -0.11173421 -0.33049017
000080 c8 a7 a4 bd 04 79 86 3e 8c 88 ab 3d 2a 8d 0d be
       -0.08039814 0.26264203 0.083756536 -0.13823381
000090 f6 42 a7 3d a5 0f c0 3e 3c df bd 3d f5 87 1f be
       0.08167069 0.37511936 0.09271094 -0.15579207
0000a0 ad c0 da 3d 52 4f 07 3d cb 61 0c 3e b0 bb 08 3e
       0.10681281 0.03303463 0.1370918 0.13352847
0000b0 49 8a 91 3c 99 fe 0a bd 87 8c 23 3d cf aa af bc
       0.017766135 -0.03393421 0.03992894 -0.021443753
0000c0 92 15 e1 3c 5c fc f5 3c 7d 1b 0b 3c 91 47 49 3d
       0.027476106 0.03002756 0.00849044 0.049140517
0000d0 2d 76 b2 3d ed cc 14 3d e1 17 c1 bb 93 f5 ac bb
       0.087139465 0.036328245 -0.005892739 -0.005278298
0000e0 9a 35 fa bb 73 00 1e 3e 1f 5c 39 3d 0b c0 0e bc
       -0.0076357843 0.15429859 0.04525387 -0.008712779
0000f0 c2 38 00 3d 5b 9e 84 3c 0b 00 03 be d1 d8 b6 3c
       0.03130413 0.016188791 -0.12792985 0.022320183
000100 97 29 41 bd 1c 2b 13 3d b3 eb 9e bd 06 4a 2b be
       -0.047158804 0.035929784 -0.077598 -0.16727456
000110 2c dc 45 bd fb 46 91 bc a7 f3 d9 3b 82 96 b7 bd
       -0.048305675 -0.017734041 0.00665136 -0.08964254
000120 53 61 a8 bd 86 c2 23 3d d7 0c 33 bd a9 b2 1d 3a
       -0.08221688 0.039980434 -0.043713417 0.0006015697
000130 ff a7 3d bd e1 87 ad bc 15 ea 09 3c 11 84 31 bc
       -0.04630279 -0.021182956 0.008417626 -0.01083471
000140 2d ce 92 3c 31 3f 7b 3c fb 8c 36 bd 88 c7 12 bb
       0.017920578 0.01533489 -0.044568043 -0.0022396762
000150 4d a7 e4 bb 0c db c0 3c 41 05 a3 3c 6f 81 40 bd
       -0.0069779516 0.02354195 0.019899966 -0.046998437
000160 b7 7c 04 3d df bb 8a bc 76 68 23 3c 01 3b 6e bd
       0.0323455 -0.016935287 0.009973636 -0.05816174
000170 c1 ce 59 3e e1 15 42 3e 87 e1 60 3d ce fd 8a ba
       0.21270277 0.18953659 0.05490258 -0.0010604204
000180 ca 3b cf bd 8a ba 4c 3d 12 d1 4b 3c d8 ec 49 bd
       -0.10118826 0.049982585 0.012439983 -0.049298137
000190 22 5f 84 3c 5f a7 24 be ce 29 e6 bd 83 96 95 3d
       0.016158644 -0.16079472 -0.11238442 0.073040985
0001a0 2e 92 ac bd be 5b fc 3c aa 2e 9b 3e da 32 be 3c
       -0.08426319 0.030805465 0.3030904 0.023217607
0001b0 b4 39 9a bd 01 3b d1 3c 05 10 97 3c 9f 9a 52 bd
       -0.07530537 0.02554083 0.018440256 -0.05141699
0001c0 12 63 da bd b3 15 b0 3c 7d 3d 00 bd 59 72 c5 bb
       -0.106634274 0.021494722 -0.03130864 -0.006025594
0001d0 13 b4 98 bc 1e 95 03 3e 7a f5 e8 3c 7f 6a 71 3d
       -0.018640554 0.12849852 0.028437365 0.058939453
0001e0 4e 1e 79 bb 66 8a 7d 3a 26 86 1b be 0f 6e 04 3d
       -0.0038012448 0.0009671807 -0.15187892 0.032331523
0001f0 1a f2 76 bc 43 82 e1 3b 78 2a df bb 2c e5 a4 bd
       -0.01507237 0.0068819835 -0.0068104826 -0.080515236
000200 a9 a2 fc bb af 9c 04 3c eb 91 2a bd 45 f2 91 bd
       -0.0077098203 0.008093997 -0.041643064 -0.07126287
000210 07 1d 5d be 89 c2 c7 3b 5d 4a fc bc 89 3c d9 bc
       -0.21593104 0.0060961884 -0.030797178 -0.026518123
000220 7c 23 3d bd a8 78 dc bd 9a 30 90 bc 31 f3 48 bc
       -0.04617642 -0.10765201 -0.0176013 -0.012265013
000230 3c c1 ce bc d4 3a 63 bc 2c e4 67 3f b1 5a 91 3b
       -0.025238626 -0.013869006 0.9058254 0.00443586
000240 2c e0 67 bc 8a 87 46 bb 7d 82 cb bb ed fc da be
       -0.014152568 -0.003029319 -0.006210624 -0.42771092
000250 27 29 27 bc a4 99 0e bc 72 0f 33 3d b2 2b 9e 3d
       -0.010202683 -0.008703623 0.0437159 0.07723178
000260 2f db 0e 3e 9c fb 48 3e 63 7b ff 3c a7 b4 47 bc
       0.139508 0.19627231 0.031186765 -0.012189067
000270 e9 2b d3 3c 2d 2d d4 bd 34 57 f8 3a 38 22 84 bd
       0.025777774 -0.10360179 0.0018946887 -0.06451839
000280 45 21 11 3c 49 f0 ca bc 20 04 00 be a9 5d f4 3b
       0.00885803 -0.02477278 -0.12501574 0.007457454
000290 c6 0c 7b bc 65 44 a6 3a 49 bb 64 3d fb a6 49 3b
       -0.01532287 0.0012685178 0.05584267 0.0030769694
0002a0 db 8a 9e bb 53 90 d9 3c 96 1a bd bb 14 07 cf bc
       -0.00483833 0.026558077 -0.0057709916 -0.02527193
0002b0 84 a4 1c 3f 03 87 23 bc 59 6d a1 3b 46 57 d3 bc
       0.6118853 -0.00998092 0.0049263653 -0.025798451
0002c0 16 75 1f bd ad 22 e4 39 35 63 52 3c 2d d6 ac bc
       -0.03893002 0.00043513384 0.012841036 -0.02109822
0002d0 dc c2 5e bd 04 21 8c bd a2 1c cb bd 2d 4a 4f 3e
       -0.05438505 -0.06842235 -0.09917571 0.2024314
0002e0 f0 24 66 3e 3a ff fb bb e7 1a 42 bd 19 94 8d bc
       0.22475028 -0.0076903375 -0.047388937 -0.017282533
0002f0 75 42 79 3e de c0 74 bb 86 7f 43 3d 58 c4 f3 3b
       0.24341758 -0.0037346403 0.047729038 0.0074391775
000300 27 16 15 bd 1b ec f4 be 25 2c aa bd 91 a3 73 3c
       -0.03639808 -0.47836384 -0.08309201 0.01487054
000310 42 9a 2a 3e cd cb 2c bd e1 8a a8 3e 47 03 8b bd
       0.16660407 -0.042186547 0.32918456 -0.067877345
000320 6b 1c a0 3c c4 0a a6 bd 19 e3 1e bd d4 50 f2 3d
       0.0195448 -0.08107522 -0.038790796 0.11831823
000330 21 0d ce bb d7 e0 c9 3c 09 bf 88 bc 21 95 a7 3b
       -0.006288186 0.024643345 -0.016692655 0.005114213
000340 c2 8d 3d 3d 22 b4 6a 3c aa c3 07 3c 83 0b c2 3e
       0.04627777 0.014325174 0.008286396 0.37899408
000350 ef c6 91 3c dc 56 5c be a2 30 30 bc 90 bc 72 3b
       0.017795054 -0.21517509 -0.0107537825 0.0037038662
000360 c8 d9 bc bc 14 e9 14 bd fd 6a 04 3d 4a a0 c9 bc
       -0.023053065 -0.036355093 0.032328594 -0.024612565
000370 8f 26 9f bd 04 9f f4 b9 3d bb 9e bd 08 0e 78 bd
       -0.07771026 -0.00046657783 -0.077505566 -0.060560256
000380 0c 57 ab bd 20 95 84 bc 9f 4f 5d 3c 60 21 5a bc
       -0.08366212 -0.01618439 0.013507753 -0.013313621
000390 a2 bd cc 3d 50 3f 05 3d 99 34 01 bc 8c 6f a3 bd
       0.09997107 0.032531083 -0.007886075 -0.0798026
0003a0 94 2c b6 bd 83 7c 31 3e 66 31 44 3c 83 e2 e8 bd
       -0.08895221 0.17332654 0.011974668 -0.11371329
0003b0 c5 34 ec 3d 47 af d9 3a ea 3a ae bd 24 c6 6f bd
       0.115335025 0.0016608023 -0.08507331 -0.05853857
0003c0 47 74 1d bc 8c f2 04 3b dd 8b 89 bd b7 cd c9 39
       -0.009610242 0.002028617 -0.0671613 0.00038490977
0003d0 93 25 59 bc cb 11 8b bc c0 81 25 bc 86 1a a6 3d
       -0.013253587 -0.016976258 -0.010101736 0.08110528
0003e0 fa 00 a7 bc 52 44 98 bb 25 0b 7a bd 03 2c bf bc
       -0.020386208 -0.0046468163 -0.061045785 -0.023336416
0003f0 e9 5b c7 be d9 0e e1 bc 19 38 af bc cd 6b e1 bc
       -0.3893731 -0.0274729 -0.021389054 -0.027517224

encoder_conv3.bias f4 [6]
000000 0a 6a 34 3f 70 f1 50 3f bb 3c ba 3e ad a3 4f 3f
       0.704743 0.81618404 0.3637446 0.81109124
000010 93 3c 04 3f f5 4d 5e 3f
       0.5165493 0.86837703

deconv1.weight f4 [6, 12, 5]
000000 38 35 7c 3a 4b a4 18 3e cd 1d 9d 3e 24 57 f6 3d
       0.00096209673 0.14906423 0.306868 0.120283395
000010 76 9f ab bd 5d 2c 10 3f 42 c2 74 3e 40 48 1f 3f
       -0.08380024 0.56317693 0.23902228 0.6221962
000020 04 27 02 3f 2c c8 ea 3c d0 70 9f bd f3 aa 48 3d
       0.50840783 0.028659903 -0.07785189 0.048991155
000030 7c c2 23 3f ae e3 e4 bc 78 8b ef bc 9e c9 93 bd
       0.63968635 -0.027940597 -0.029241309 -0.0721619
000040 a4 97 b5 bd a7 84 45 be c5 b5 94 3d 59 1a 2e 3d
       -0.08866814 -0.19288884 0.07261232 0.042505596
000050 32 5f 15 be bd 5b 88 3d f8 b6 9e 3e 01 a8 d5 3e
       -0.14587095 0.06658123 0.3099897 0.4172974
000060 56 64 07 3d 0a 77 49 3c 14 58 86 bd ab 03 30 3e
       0.033054672 0.0122964475 -0.06559768 0.17188899
000070 6f b5 0b 3e d9 c9 96 3c be c2 88 bd ce 8d 97 bd
       0.1364343 0.018406795 -0.06677769 -0.07400094
000080 6f 73 3b 3e 20 a3 8e 3e 6a 1c b9 3d 99 f0 27 3e
       0.18305753 0.2785883 0.09038623 0.16400374
000090 f4 7d 32 3e ff cd 87 be c9 c4 9d bf a5 d8 4e bf
       0.1743086 -0.2652435 -1.2325679 -0.80799323
0000a0 48 81 50 3d 0e 3d f4 be fa c8 d8 bd 9d d4 2d bd
       0.050904542 -0.4770283 -0.10585208 -0.042439092
0000b0 97 76 ef 3c 75 4f 59 be ac dc 7b bd 0e cd 61 3f
       0.029231353 -0.21221717 -0.061489746 0.88203514
0000c0 4c 7d d2 3e d5 0b 82 bc 51 bf c7 be 34 f2 9e 3e
       0.4111122 -0.015874783 -0.3901315 0.3104416
0000d0 9d ae 17 3f 23 77 85 be 95 33 5c be 8f e5 98 3d
       0.59250814 -0.26067457 -0.21504052 0.0746566
0000e0 25 49 14 bf 20 e1 ef 3d ca 33 98 bc eb 59 d9 3c
       -0.5792411 0.11712861 -0.018579382 0.026532134
0000f0 fa cf b7 3b e5 67 c6 be fa 02 0f be 4d 7e c0 3d
       0.0056095095 -0.3875114 -0.13965979 0.0939909
000100 ee 4c 14 bd 8b 0d d2 bd 17 41 e2 bc 21 36 8c be
       -0.03620618 -0.10256489 -0.027618928 -0.27385047
000110 39 20 f5 bd 09 b8 4c be 2c f5 35 3c 4e 30 43 3c
       -0.119690366 -0.19992079 0.011105817 0.011913372
000120 45 39 7a bf ce 22 fd bb 21 37 ad bc 8b fd 41 3d
       -0.97743636 -0.0077250963 -0.021144452 0.047360938
000130 1d 3d 71 3e 81 9b 69 bd 7f 06 26 bd d2 75 e6 bc
       0.23558469 -0.057033066 -0.04053354 -0.028132353
000140 c7 d2 43 3d b8 25 91 be af 5c 13 bf db 18 12 3e
       0.047808435 -0.2834909 -0.575633 0.14267294
000150 79 a6 3d be 40 6d a8 3b 3f 7f a1 bd 5b 68 b2 bc
       -0.18520536 0.0051399767 -0.078855984 -0.021778276
000160 e1 9d b7 3b 55 22 3c 3c 9c b5 ed 3c 71 6b f3 3b
       0.0056035374 0.011482795 0.029017262 0.0074285795
000170 c4 38 42 3b f7 36 4b 3e 22 70 26 bb 51 f6 90 bd
       0.0029635886 0.19845186 -0.0025396426 -0.07078231
000180 8a d3 51 3d 4a a2 85 bc d7 1d c9 bd 3f af 5e bf
       0.05122713 -0.016312737 -0.098201446 -0.86986154
000190 72 83 17 bd 3e 85 f2 3e 23 49 9d 3d 18 c6 ca 3c
       -0.03699059 0.4736728 0.07679965 0.024752662
0001a0 b4 b0 5c 3d 7a e5 68 3d 8c 61 79 3e b7 66 f3 3c
       0.053879455 0.05685947 0.24353617 0.029712064
0001b0 07 66 c4 3c f3 07 90 3d 88 e4 22 3d 9d 55 b3 be
       0.023974432 0.07032766 0.039768726 -0.35026255
0001c0 b8 2d 2a be 3b 88 98 3d 3e c6 57 be f5 2b 2d bd
       -0.16619003 0.07447859 -0.21071717 -0.04227825
0001d0 fd 88 c1 bd 03 6c 16 3e 23 04 03 3d e5 9f 7d 3d
       -0.094499566 0.1468964 0.031986367 0.061920065
0001e0 15 52 16 bc f2 1b 03 3a 1e 1b 4a bd 87 de 7d b9
       -0.009174843 0.00050014176 -0.049342267 -0.00024210858
0001f0 39 65 43 bc e7 de ae bc 78 a7 b1 bb 03 1b 37 bd
       -0.011925989 -0.021346522 -0.005421575 -0.044703495
000200 53 46 b3 b9 9e ac 12 bc 7a 94 d9 bb ef d6 06 bc
       -0.00034193936 -0.008952288 -0.0066400142 -0.008229955
000210 c0 14 e1 3d 70 be 52 3a 87 32 19 bc be b7 23 3c
       0.10990286 0.00080392417 -0.009350426 0.009992538
000220 42 21 6b 3c be 57 29 bd 36 eb 79 3b a2 39 a7 3c
       0.014351191 -0.041343443 0.0038134581 0.020413224
000230 6d 37 8b 3b 98 e1 a3 3b ba 23 4c bd 69 a3 4a 38
       0.0042485506 0.005001258 -0.04983876 4.831274e-05
000240 4b d5 72 bc 99 35 f4 38 ff ad 43 3b e4 29 d2 3e
       -0.014821361 0.0001164481 0.0029858348 0.41047585
000250 e7 43 76 3b 26 5c 0d 3b 3b 07 21 3c de eb 14 bc
       0.0037577094 0.0021569817 0.009828384 -0.009089438
000260 4c 6c 19 3e 88 98 20 3c dd e2 de 3c 76 fd 97 3c
       0.14982718 0.009801991 0.027207786 0.018553477
000270 14 17 a0 bc bd 3c 65 bd fe 7f 37 3b c1 a8 3d bf
       -0.019542255 -0.055966128 0.0027999873 -0.74085623
000280 75 6a be bb 63 93 38 3b ba 99 f2 3d 7f 7c b3 bb
       -0.0058110305 0.0028164021 0.11845727 -0.0054774876
000290 15 f0 79 bb 01 f1 16 ba fe 53 4c 3b a4 63 d0 bb
       -0.0038137485 -0.0005757958 0.0031177993 -0.0063595343
0002a0 29 3c a8 3a 73 fa 1c 3b b6 8e a6 3c 7c 7c c3 bb
       0.0012835312 0.002395299 0.020331722 -0.0059657674
0002b0 38 71 c1 bd 08 df f6 bb 6f 4e 29 ba 27 88 09 bc
       -0.09445423 -0.0075339116 -0.0006458526 -0.008394278
0002c0 1c fb 25 3c c6 2c 52 be 86 05 83 b9 b0 fd 8b bc
       0.01013067 -0.20524892 -0.00024990382 -0.017088741
0002d0 b6 29 40 bb 30 bf 2a 3e c0 2a cb bc 94 c2 c5 3d
       -0.0029321737 0.16674495 -0.024800658 0.096562535
0002e0 8f a4 f8 bb ae 93 9f 3c 2c 71 02 be d7 90 cc bb
       -0.0075879763 0.019479599 -0.12738484 -0.006242852
0002f0 2d 5f ab 3c 31 4a 98 3d 2e bc 8b bd f2 b5 74 bd
       0.020919407 0.07436026 -0.06823002 -0.05974383
000300 74 f4 e7 bc 3b 0a 44 3d b8 69 15 bd a4 53 02 3d
       -0.028314807 0.04786132 -0.036477774 0.031818047
000310 21 ad 9a ba cd 15 e4 bb c2 30 dc 3e 40 0a ef 3d
       -0.0011800864 -0.0069606067 0.4300595 0.11671877
000320 6e 4f 32 bd b4 40 75 3e 83 54 44 bd 9a 92 d3 bc
       -0.04353278 0.23950464 -0.04793216 -0.025826741
000330 62 9b bf bc cf cc 94 bc 0a fb 6d 3c 0e 07 1c 3c
       -0.023389522 -0.018164067 0.014525184 0.009523166
000340 42 ae 0a 3f 3a 59 ea 3c e7 f6 44 3d e3 14 62 bf
       0.54172146 0.028607 0.048087027 -0.8831312
000350 34 eb 32 bc be 9f 40 3d 8d 68 0a 3e 98 f0 fc 3d
       -0.010920335 0.047027342 0.13516445 0.12350577
000360 d2 75 9d be 71 28 e4 bb 16 8f c6 3e 48 7d 1b bf
       -0.30753952 -0.006962829 0.3878104 -0.6073804
000370 1f cf b9 bc e2 9e 5f bc 56 c5 c3 3c 52 eb 86 be
       -0.02268177 -0.01364872 0.023897808 -0.2635141
000380 49 0a ea bc f2 48 cc bc db a8 8a 3d a0 27 75 bd
       -0.028569357 -0.024937127 0.06770488 -0.059852242
000390 fd 77 16 3e 77 ea a8 3d 33 e1 71 3e 8e 57 6b be
       0.1469421 0.082478456 0.23621063 -0.22982618
0003a0 96 03 01 be 86 5f 1a 3e 69 9f f5 3d 60 57 6a bd
       -0.12599024 0.15075502 0.11993296 -0.057212234
0003b0 71 87 a4 3e cb 44 8b 3c 0a b5 4f 3e e8 5f ba bd
       0.32134584 0.017000576 0.20283905 -0.09100324
0003c0 98 fd 37 3b a1 0d 24 3b 4e 34 2b bd b5 6b b3 3a
       0.0028074738 0.0025032538 -0.04179793 0.0013688715
0003d0 15 9a 29 3b 5f 56 0b 3b 7b e9 50 bb 8b 82 68 3c
       0.0025879194 0.0021261198 -0.0031877446 0.01419128
0003e0 f2 f5 12 bb e3 04 95 3a 13 e5 52 bb 34 ed 7e bb
       -0.0022424427 0.0011369254 -0.0032179996 -0.0038898708
0003f0 6f f8 b4 bb fc 65 4c bb 70 01 19 39 0b 80 5e 3a
       -0.0055227797 -0.0031188717 0.00014591753 0.0008487708

deconv1.bias f4 [12]
000000 fe 94 d8 3e 82 84 a2 be e6 44 8b bd 54 1a 53 3e
       0.42301172 -0.3174172 -0.06800251 0.20615512
000010 85 76 86 3d d0 73 80 bd 36 f0 0b 3e b0 1d 13 3f
       0.065655746 -0.062720895 0.13665852 0.57467175
000020 1e 44 01 3e 2f 34 16 be 9f 04 9a 3e 18 6d d0 3d
       0.12623641 -0.14668344 0.3008165 0.10177058

deconv2.weight f4 [12, 24, 5]
000000 57 88 28 3d af f4 92 3e 58 5f 3c bd d8 70 57 3c
       0.04114565 0.28702304 -0.045989364 0.013149463
000010 3c db 03 3c 5c 16 af 3c 2c 34 f2 3c 2f ca 1b 3f
       0.008047875 0.021372966 0.029565893 0.6085538
000020 d1 48 1d bd b4 cd c1 bd 7e 2c f8 3c a7 b4 32 3e
       -0.03839952 -0.09463063 0.030294653 0.17451726
000030 8a 74 c0 3d d0 0f 12 3e 40 73 fb 3d 3c 36 ab 3d
       0.09397228 0.14263844 0.122778416 0.08359954
000040 e8 5e 47 bd 35 db ce bc de eb ee 3c 75 66 dc 3d
       -0.048674494 -0.02525101 0.029165205 0.1076173
000050 d3 34 88 3d 54 5a ac 3d 75 5f 85 3d 16 bd 88 be
       0.066507004 0.08415666 0.065123476 -0.2670676
000060 94 12 c0 3d 9f fa 92 3b 2c 02 bc 3d 7c 84 2b 3e
       0.093785435 0.004485443 0.09180102 0.16749758
000070 dc 62 c0 3c c7 8e e3 3d 0b 33 2e 3d 94 5f f2 3b
       0.02348464 0.11111217 0.042529147 0.0073966477
000080 2d fe bd 3e 4b 7f ad bd dc 56 63 3e 0a 54 b3 bd
       0.37107983 -0.08471545 0.22201103 -0.087562636
000090 23 e3 02 bd 66 ca c1 bd 39 8c 56 3e 15 44 a6 bc
       -0.031954896 -0.094624326 0.20951928 -0.020296136
0000a0 02 99 a9 bd 96 36 4f bd c4 85 6b bd 7f c1 72 3c
       -0.08281137 -0.050589167 -0.057500616 0.014816641
0000b0 d4 ad 45 bd 1a 26 ca bc b9 94 55 3d 9d 79 60 3d
       -0.04826148 -0.024676371 0.052143786 0.05480348
0000c0 5f ba 87 3e 4b 22 c8 3b 40 a6 a2 ba b4 be 81 bd
       0.26509377 0.0061076037 -0.0012409166 -0.06335202
0000d0 9c 06 db bc f6 47 28 3d 24 71 27 3d 1b 9a 9d bd
       -0.02673655 0.041084252 0.040879384 -0.07695409
0000e0 70 10 82 3d 30 37 58 3d b6 1d 1b 3e bb 1e 00 3d
       0.063507915 0.052787006 0.15148053 0.031279307
0000f0 46 d3 10 3d 9c 38 c0 bc 1a a3 01 3c d2 86 95 3d
       0.035357736 -0.023464493 0.007912422 0.073011056
000100 c7 35 6a bd 46 91 e6 3b 9b dc 0f 3e 6f 44 1b 3e
       -0.057180192 0.007036361 0.14048998 0.15162824
000110 db d5 c2 3e 72 02 88 3e 6f 57 95 3c a8 37 cd 3d
       0.38053784 0.26564366 0.018230168 0.10020381
000120 7d 48 1d be 36 10 09 bc 6f 31 af bd a7 dc 96 3d
       -0.15359683 -0.008365681 -0.085543506 0.07366305
000130 c8 30 0a 3f e4 88 61 3d 15 79 26 be b3 e6 95 3e
       0.53980684 0.05506219 -0.16257127 0.29277572
000140 fe 0f 1c 3d 8d a6 d0 bb 02 40 11 3e 67 f0 76 bd
       0.03810119 -0.0063675107 0.14184573 -0.06028786
000150 e2 93 6f 3e 8a 7a b7 bb 60 54 73 3d cc 73 00 be
       0.23396257 -0.0055993246 0.05940664 -0.12544173
000160 f0 8a 18 be c6 d8 94 bd 20 f3 43 3d 0c 2e 5c be
       -0.1489675 -0.07267909 0.047839284 -0.2150194
000170 8f 09 fa 3d fe 3d b8 bd 73 ac a5 3e f1 7e 8a bc
       0.122088544 -0.08996199 0.3235813 -0.016906234
000180 17 f0 ee 3d 32 ec b2 bc 4c 96 27 3e b9 50 c8 bd
       0.11666887 -0.021841142 0.16365927 -0.097810216
000190 52 db 07 3e 85 4c 00 3c fd a7 6f bd fa 86 83 bd
       0.13267258 0.007830744 -0.058509815 -0.06422229
0001a0 5f f6 81 be a2 29 c1 bd 3a dd c9 bd fe 4a d8 bc
       -0.2538328 -0.09431769 -0.09856649 -0.026402947
0001b0 db 29 39 3d ca 8b 1c 3e 38 2e ab 3b 5b 3b 1a 3d
       0.045205932 0.152877 0.0052240156 0.037654262
0001c0 4d 2c 33 39 28 a9 fb 3d 04 de b4 3e 9e 36 79 3b
       0.00017087274 0.12288123 0.35325634 0.003802694
0001d0 8e f7 ca 38 2b cf 46 bd 4b 9f 65 3e c4 a1 93 3e
       9.678221e-05 -0.048537415 0.22424047 0.28834355
0001e0 dc 70 84 3d 35 2c ac bf 9c 4b ee be cc 2a ae bd
       0.06466839 -1.3450991 -0.4654206 -0.085042566
0001f0 42 1c da bc 77 90 67 be 6b fc 07 3c 52 57 7c be
       -0.026624803 -0.22613703 0.008299927 -0.24642685
000200 2e e5 6a bd 52 1f d2 be 30 cd a1 bc 5c ba a8 bd
       -0.05734747 -0.4103952 -0.019751161 -0.0823867
000210 c5 ab 7a 3e 31 9f a7 3d 49 90 f0 3d 8b 4b b9 3d
       0.24479587 0.0818466 0.1174627 0.09047612
000220 c6 44 8e bd 9d 7b 07 bc 5d f3 03 3d c6 fe b8 3e
       -0.06946711 -0.008269218 0.03221451 0.36131877
000230 33 ed 06 3e 5d 67 8f 3d 04 1a 8f 3d d2 b2 5c c0
       0.13176422 0.07002137 0.06987384 -3.4484143
000240 13 35 6c 3e 1e 62 83 3e 42 93 63 bc 95 41 03 3e
       0.23067121 0.25660795 -0.0138900895 0.12817986
000250 c2 ec d2 3d f5 5c 6e 3d 68 38 26 3e 75 e9 49 3d
       0.10299064 0.05819412 0.16232455 0.049294908
000260 46 8a be 3e 26 89 93 bd ce 23 cb 3e 22 ab bb bc
       0.3721487 -0.07203893 0.39675754 -0.02290875
000270 37 2b 87 bd db 24 f5 bc 63 b8 ff 3d 22 e9 3e bd
       -0.066000395 -0.0299248 0.12486341 -0.04660905
000280 81 a6 58 bd b4 05 dd 3c 0d ac 83 bd 5b 07 93 3a
       -0.052893165 0.026980259 -0.064293005 0.0011217402
000290 92 38 64 bd 4b d8 47 3c 5f f8 04 3d f4 eb ab 3d
       -0.055718012 0.012197564 0.032463428 0.08394614
0002a0 a4 58 22 3e 86 54 10 3d f8 1f 33 3c 10 b2 8b 3d
       0.15854126 0.035236858 0.010932915 0.06821072
0002b0 38 64 ac bd 04 a9 50 3d 78 e7 2d 3c f8 29 80 bf
       -0.08417553 0.050942436 0.0106142685 -1.0012808
0002c0 f0 06 11 be 52 e9 72 bc fc e1 d5 bf 2c 22 08 be
       -0.14162803 -0.014826136 -1.670959 -0.13294286
0002d0 13 b3 03 bd f6 07 db bc d7 6c 4d c0 50 74 90 bf
       -0.0321532 -0.026737195 -3.209768 -1.1285496
0002e0 cc 50 3b be c0 32 a6 bd 02 2d ea bf 30 30 b8 3e
       -0.1829254 -0.081151485 -1.8294985 0.35974264
0002f0 30 a8 a3 3d e0 22 48 3e 49 40 81 bd 75 7d 26 bd
       0.079910636 0.19544554 -0.063110895 -0.04064699
000300 fa 00 6e bd c5 c0 d7 bf fa 3e fb bd af 59 aa 3b
       -0.0581064 -1.6855704 -0.12267871 0.0051986794
000310 fa 07 15 c0 f1 aa 03 3f b2 32 98 bd a4 d3 ff 3d
       -2.3286119 0.5143271 -0.07431544 0.12491539
000320 42 79 c9 3e ad 7a 24 c0 51 d1 04 be 00 6e c0 3d
       0.39350325 -2.5699875 -0.12970473 0.09395981
000330 ef 5c c3 be 4a 0f 05 3e 80 94 e6 3d 60 2e 1d bf
       -0.3815684 0.12994114 0.11258793 -0.6139889
000340 36 a4 84 be 86 0f 96 3d c7 f8 7b be e5 46 35 bf
       -0.25906533 0.073271796 -0.2460662 -0.708113
000350 cc 56 3f 3f c8 c0 3a be 5e 3a 33 bf ec d0 9c 3d
       0.74741817 -0.18237603 -0.70010936 0.07657036
000360 89 cd 2c bd 13 f0 3f be 3d bd fb 3e 48 97 43 be
       -0.0421882 -0.18743925 0.49167815 -0.19100678
000370 f6 0e 99 be 2b cc 37 3e ff f0 b5 bd 24 53 ad bd
       -0.29894227 0.17948978 -0.08883857 -0.084631234
000380 54 80 04 3f 5b 1e 56 3e 66 14 18 bf 2d 3f be be
       0.51758313 0.20910017 -0.59406126 -0.37157574
000390 32 43 1c bd 3d 9e f6 3e 0f 24 f4 3d 0d 6f b6 3c
       -0.03815002 0.481676 0.1192094 0.02226975
0003a0 1f 86 7a 3e bb 77 ea bc dc 81 e2 3e 73 96 cf bd
       0.24465226 -0.028621545 0.442397 -0.10136118
0003b0 04 1d 60 bd 27 9c 5b bd f8 e5 20 3e 97 27 0c 3f
       -0.05471517 -0.053615715 0.15712726 0.5474791
0003c0 61 36 97 bd ad ac 50 3e 6d eb cd 3e 0b 34 80 bd
       -0.07383419 0.2037837 0.40218678 -0.062599264
0003d0 e5 5e 93 3c 2b 6b c0 3c e4 e6 5c bd ce 9a bd bd
       0.017989585 0.023488602 -0.053931132 -0.09258042
0003e0 9a a6 9f 3c 92 dc 03 3e 0d bd 63 3c da 2e ee 3d
       0.019488622 0.1287711 0.013900054 0.1163003
0003f0 03 13 ca 3d 1f 2b fd 3d 0e 05 b2 3d 72 89 9d bd
       0.098669074 0.1236174 0.0869237 -0.07692231

deconv2.bias f4 [24]
000000 c6 a9 3e 3b 56 b7 7d bc 56 e3 0b 3d 75 6a 1d be
       0.0029092892 -0.015485605 0.03415235 -0.15372641
000010 4e 8b f1 3c 74 2a 64 3d 72 24 f9 bc 81 32 49 3c
       0.029485371 0.05570455 -0.030412886 0.0122801075
000020 6b e3 d8 bd 60 99 ff 3c 93 a5 b6 bd 64 57 25 3e
       -0.105902515 0.031201065 -0.089182995 0.16146618
000030 34 85 34 3e da cc 36 bd 09 f9 2c 3e 53 1d d3 3c
       0.17628938 -0.044628955 0.16891874 0.025770819
000040 bf 90 b5 3c 02 6c 06 3e 54 07 ea 3d 4d e0 e7 3b
       0.022163747 0.13127139 0.11427179 0.0070762993
000050 a0 73 fa 3c f1 91 14 3d 7a 02 83 bb c2 22 8c bd
       0.030572712 0.036271993 -0.003998098 -0.06842567

deconv3.weight f4 [24, 1, 5]
000000 77 4e 15 bf 0e 9e 52 3e 7d 64 80 3f 61 fd 2e 3f
       -0.5832285 0.20568106 1.0030667 0.68355376
000010 9e 44 fa 3d 1e a9 7d bc aa 7c 46 3b e7 2a a5 be
       0.12220119 -0.015482215 0.0030286708 -0.32259294
000020 1d 71 ee 3e 2f 9a 25 3e 68 26 be be 26 67 ad be
       0.46570674 0.16172098 -0.37138677 -0.3386776
000030 ec 97 79 3e 09 ba 90 3e 17 c0 6d 3e a9 b3 10 be
       0.2437436 0.28266934 0.23217808 -0.14131035
000040 31 d6 9c 3e 86 f2 a5 3d 6f ce a3 bf c1 78 58 3d
       0.30632165 0.08102898 -1.2797374 0.052849535
000050 fa df c1 3e e6 64 a1 3e 38 ad 89 3e 53 f5 8f 3d
       0.37866193 0.31522292 0.26889968 0.07029214
000060 d2 2f b3 bd 4f 62 c3 be 58 bb 92 be 98 93 b1 3d
       -0.087493554 -0.3816094 -0.28658557 0.086707294
000070 59 57 9b bd 92 e3 9c 3e 40 43 ea 3d 20 3e 6e 3e
       -0.075850196 0.30642372 0.11438608 0.23265886
000080 9b d8 6b bf c7 27 c7 3e f4 a5 b3 3e 01 19 ac 3e
       -0.9212739 0.38897535 0.3508755 0.33612826
000090 c2 c0 2a 3f 5d 55 2b 3e 20 db 2f 3f ab 6a 6e 3e
       0.66700375 0.16731782 0.68693733 0.23282878
0000a0 94 29 da 3e c4 dd d8 3e fc 69 86 3e d4 79 9b be
       0.42609847 0.42356694 0.26252735 -0.30366385
0000b0 6c 81 63 bc 5b eb 30 3e 7c d5 d8 3e 40 c1 5c 3e
       -0.013885837 0.17277281 0.42350376 0.21558094
0000c0 0c 70 2e bc f0 13 98 3e 11 3e 89 be ee 71 cf be
       -0.010646831 0.2970271 -0.26805165 -0.4051661
0000d0 59 a0 a3 be 71 60 97 bd 6d 7b c6 be 87 59 a7 be
       -0.31958273 -0.073914416 -0.3876604 -0.3268549
0000e0 2b 4b c8 be af 72 e6 be 00 a7 1f be 3c 16 77 3d
       -0.3911985 -0.45009372 -0.15591049 0.06032394
0000f0 c1 22 52 be ba 85 12 bd 5a 74 a9 be 8a 60 ec be
       -0.2052107 -0.035772063 -0.33096582 -0.46167403
000100 03 e8 aa be e7 4e cb bd de 59 e3 bd 7d 95 d4 3e
       -0.33380136 -0.09927159 -0.11101125 0.415203
000110 8e 93 bf 3e 4c e9 1f 3f 85 79 0c bd a2 e2 c5 be
       0.37417263 0.6246536 -0.034295578 -0.3864947
000120 bb be 66 be 3c fb bb be 3e 52 b1 be 1b d9 10 bd
       -0.22533695 -0.36715114 -0.34633058 -0.035363298
000130 68 ed 5b bd ae 1f b8 3f 1c dc a3 3d 26 a1 af 3c
       -0.053693205 1.4384668 0.08000967 0.021439146
000140 0d f3 b0 3d 1e 22 ea bc e6 06 a8 be e7 25 69 be
       0.08640108 -0.028580721 -0.32817763 -0.22768365
000150 28 bf 8e 3e 12 75 20 3e 4b 61 c4 be 60 74 40 be
       0.27880216 0.15669659 -0.3835548 -0.18794394
000160 c2 bb 0b bd c3 45 92 bd 6d 22 0d bd 99 80 1d 3e
       -0.034114607 -0.07142212 -0.03445666 0.15381087
000170 20 5c 0a 3e e1 63 6c 3f 70 28 77 3e d4 ed 06 3f
       0.13511705 0.92339903 0.2413652 0.52706647
000180 a8 43 2e 3f 06 de 7f be 60 f6 5f be 6f ee 4c 3e
       0.68071985 -0.24987039 -0.21871328 0.2001283
000190 07 67 24 3e 07 a9 ec 3c 7e 25 dd be a1 45 93 be
       0.16054927 0.028889192 -0.43192667 -0.2876406
0001a0 c5 73 ac 3d 31 22 2a be 03 04 ab 3d 70 a7 34 3d
       0.08420519 -0.16614605 0.083503745 0.044104993
0001b0 e8 d7 c1 be 30 6d 23 bf 6d ca 9c 3e da d4 0f 3f
       -0.37860036 -0.6383848 0.3062319 0.5618416
0001c0 5f 95 c6 3d cb 0b ff 3e 13 47 d4 be 19 9c d6 bd
       0.09696459 0.49813685 -0.41460475 -0.10478992
0001d0 fd 47 2f 3f 9b a9 56 3f 60 9e 48 3f 3e 87 a5 3d
       0.6846922 0.8385255 0.7836666 0.08082436
