models/multi_resolutionv2/SNN_Autoencoder_tsri_320s.pth (torch, 25395 bytes, 11 tensors)

encoder_conv1.weight f4 [24, 1, 5]
0	0xbd0ee738	-0.034888476
1	0xbd390a07	-0.04517558
2	0xbcec0ed2	-0.02881566
3	0x3f13e5d3	0.5777256
4	0x3f0e5e83	0.55612963
5	0xbbcf06a1	-0.006317929
6	0x3e8cff0e	0.2753834
7	0x3eab8a3e	0.33503908
8	0x3f0f7a1c	0.560457
9	0x3f2119e6	0.6293014
10	0xbe09d02b	-0.13458316
11	0x3e26d7f3	0.16293316
12	0x3f2daa3b	0.67837876
13	0x3ebcef40	0.36901283
14	0x3ef46416	0.4773261
15	0xbf34deb6	-0.7065233
16	0xbe8676dc	-0.26262558
17	0x3ed2c6e8	0.41167378
18	0xbe8ed731	-0.27898553
19	0x3e91e23d	0.2849292
20	0x3c3d43b2	0.011551784
21	0x3ed08ab1	0.40730813
22	0x3f091f6c	0.5356357
23	0x3d6ba9c9	0.057534967
24	0x3d4a663a	0.049413897
25	0xbee50a03	-0.447342
26	0xbdea42c2	-0.11438514
27	0xbecb45fd	-0.39701834
28	0x3e1a15d5	0.15047391
29	0xbee3ca7e	-0.44490427
30	0x3c8aca10	0.016942054
31	0xbcf5d637	-0.030009372
32	0x3dc79fda	0.09747286
33	0x3ddf0554	0.10889688
34	0x3c585784	0.013204459
35	0x3f112bc8	0.5670743
36	0x3e815056	0.25256604
37	0xbcf2c833	-0.029636478
38	0xbdc0ae58	-0.094082534
39	0x3ec8e493	0.39236888
40	0x3e85c269	0.26124886
41	0x3f2b05c7	0.6680569
42	0x3f63c910	0.8897867
43	0x3e449b6e	0.19199917
44	0xbe1b3003	-0.15155034
45	0x3e4772b2	0.19477347
46	0x3c1e47b5	0.009660651
47	0xbe17f791	-0.14840533
48	0xbeaaddf2	-0.33372456
49	0x3ecfee2e	0.40611404
50	0x3d326236	0.043550692
51	0xb95a7c8d	-0.00020836499
52	0x3b9125d3	0.004429558
53	0x3eae492d	0.34040204
54	0x3f1a985d	0.6038874
55	0x3ea3ba1b	0.31977925
56	0xbe936927	-0.28791162
57	0xbde09164	-0.10965231
58	0xbeb5cd3c	-0.35508144
59	0xbe23ebcf	-0.16007923
60	0xbae3f453	-0.001739154
61	0x3f353419	0.7078262
62	0x3edad134	0.42737734
63	0x3f24cb8c	0.6437309
64	0x3ec62205	0.3869783
65	0x3d4c6d4b	0.049908917
66	0x3f7745bc	0.9659078
67	0x3ad03ff6	0.0015888202
68	0xbcc33da3	-0.023833102
69	0x3d7a6e34	0.061140254
70	0x3c51d629	0.012807407
71	0x3d134ee6	0.035963915
72	0x3b5bae42	0.0033520614
73	0x3d94ecaf	0.07271706
74	0x3d3bfc26	0.045894764
75	0x3d33fc61	0.04394186
76	0xbd80027d	-0.062504746
77	0xbf2d08e9	-0.6759172
78	0xbf148bca	-0.580258
79	0x3d22aeae	0.03971737
80	0x3f04222b	0.51614636
81	0xbd8399c6	-0.06425814
82	0x3efcc0c5	0.4936582
83	0xbd275146	-0.040848993
84	0xbceffd1b	-0.029295495
85	0x3edcef48	0.43151307
86	0x3e30837b	0.17237656
87	0x3d47ab66	0.048747443
88	0x3ecf380a	0.40472442
89	0x3ef8e0e1	0.4860907
90	0x3c0c70ba	0.008571798
91	0xbcf8eb80	-0.030385733
92	0x3efa40cd	0.48877564
93	0x3f1342d7	0.57523865
94	0x3c690424	0.014222179
95	0x3e1741dc	0.14771217
96	0x3ec0a04a	0.3762229
97	0xbd1c1da5	-0.03811421
98	0xbee1f34c	-0.44130933
99	0x3f2d2731	0.67637926
100	0xbec4eb9d	-0.3846101
101	0xbe62f7fb	-0.2216491
102	0xbd739c95	-0.0594755
103	0x3f29c2a0	0.663126
104	0x3f140c0c	0.5783088
105	0x3f4b47fe	0.79406726
106	0x3f004373	0.5010292
107	0x3f12dadb	0.57365197
108	0x3ea76e31	0.32701257
109	0xbe367792	-0.1781905
110	0xbef92302	-0.4865952
111	0xbf703edf	-0.93845934
112	0x3f0b0b13	0.5431377
113	0x3f020a80	0.5079727
114	0x3ec37669	0.38176277
115	0x3d2247f0	0.039619386
116	0x3cf6d2b1	0.030129762
117	0x3d1eb7c2	0.038749464
118	0x3cffd349	0.031228678
119	0x3d438360	0.04773271

encoder_conv1.bias f4 [24]
0	0x3d59c533	0.05316658
1	0x3e48ab92	0.19596699
2	0xbeff9b03	-0.49922952
3	0x3f4983d7	0.78716797
4	0x3de85c9e	0.1134579
5	0xbe92adf0	-0.2864833
6	0x3f7735b8	0.96566343
7	0xbddf3485	-0.10898689
8	0x3e1ee916	0.15518603
9	0x3f325a50	0.69669056
10	0x3d07cea0	0.033156037
11	0xbea5adbb	-0.32359108
12	0xbee3e42e	-0.44510025
13	0x3dcbd2c5	0.099523105
14	0x3f61b41b	0.88165444
15	0x3f9c520d	1.221254
16	0x3e01be24	0.12670189
17	0xbf1e9232	-0.61941826
18	0x3d47cf64	0.048781767
19	0x3f6d20dc	0.92628264
20	0x3c8c48fa	0.017124642
21	0xbf1581fe	-0.5840148
22	0x3f22c439	0.6358066
23	0x3f726a34	0.94693303

encoder_conv2.weight f4 [12, 24, 5]
0	0x3d0455ea	0.032308497
1	0x3dbf342c	0.09336123
2	0xbe17fc7b	-0.14842407
3	0x3d931549	0.07181794
4	0x3d4e269f	0.0503298
5	0x3ce95d51	0.02848688
6	0xbd091bd6	-0.033473812
7	0xbdc12820	-0.09431481
8	0xbb9b7bed	-0.0047449977
9	0x3e107d21	0.14110233
10	0xbd8d119a	-0.06888123
11	0x3d19f26f	0.03758472
12	0x3cbc03e7	0.02295108
13	0xbb3fd467	-0.0029270889
14	0xbda37271	-0.07980812
15	0xbcda8af0	-0.026677579
16	0xbe10f6ed	-0.14156695
17	0xbdd1f0cb	-0.10251006
18	0x3df994b4	0.12186566
19	0xbab900bf	-0.0014114602
20	0xbce07db0	-0.027403682
21	0xbe2408cc	-0.1601898
22	0xbbac77f7	-0.0052633244
23	0xbe242ea4	-0.16033417
24	0x3b046566	0.002020204
25	0xbda773f5	-0.08176414
26	0xbd595161	-0.053056125
27	0x3db1fb50	0.08690512
28	0xbdaa126d	-0.08304296
29	0x3db80714	0.08985725
30	0x3d7ba9ee	0.061441354
31	0xbc4870c9	-0.012233921
32	0x3dfa37bb	0.12217661
33	0x3e1140c0	0.14184856
34	0x3e0f3905	0.13986595
35	0xbddd50be	-0.10806416
36	0xbdc8026e	-0.097660884
37	0xbd5b7446	-0.053577684
38	0xbe525632	-0.20540693
39	0x3b9fae92	0.0048731053
40	0xbd643012	-0.055709906
41	0xbda37271	-0.07980812
42	0x3d9334e4	0.071878225
43	0xbd8d1a97	-0.06889837
44	0x3d7f71e4	0.062364474
45	0xbca02d64	-0.019552894
46	0x3c48dd4b	0.012259792
47	0xbe4cebfb	-0.20011894
48	0xbcfa7731	-0.030574413
49	0x3d216e42	0.03941179
50	0xbd298c93	-0.041393828
51	0xbcda8d07	-0.026678575
52	0xbe19e95e	-0.15030429
53	0xbe259a84	-0.16172224
54	0x3d309dbb	0.043119173
55	0x3d19eb3c	0.037577853
56	0xbd88bfea	-0.0667723
57	0x3da109d2	0.07863201
58	0x3db42d64	0.0879772
59	0xbc092ad8	-0.008372031
60	0xbcbb6bb0	-0.022878498
61	0x3c7f4733	0.01558094
62	0xbce28a8b	-0.027653953
63	0xbd1d68ad	-0.038429905
64	0xbd4dd957	-0.0502561
65	0x3cecbf7a	0.028899897
66	0xbea9b521	-0.33146003
67	0x3e439c96	0.19102702
68	0xbe8e9e77	-0.27855274
69	0x3dc503b7	0.09619849
70	0xbab8dfc4	-0.0014104773
71	0x3ce89562	0.028391544
72	0x3ccb7780	0.024837255
73	0x3dbd7153	0.092501305
74	0xbe1c29ba	-0.15250292
75	0x3d5b6a1e	0.053567998
76	0x3e380d62	0.17973855
77	0x3c91ef0a	0.017814178
78	0x3e78bf3a	0.24291697
79	0x3d3ed80b	0.046592753
80	0x3d11579b	0.035483938
81	0xbde63f3d	-0.112425305
82	0x3d96dd86	0.07366471
83	0xbe8c6a4e	-0.27424854
84	0x3d21d8e5	0.039513487
85	0xbd8639cc	-0.06553993
86	0x3ca4fa20	0.0201388
87	0x3d465142	0.048417337
88	0xbdb7cbbf	-0.08974408
89	0xbd961053	-0.07327332
90	0x3dbd9575	0.09257022
91	0xbd8682fa	-0.065679505
92	0xbc7b5220	-0.015339404
93	0xbcd300fd	-0.025757307
94	0x3d16fa60	0.03685987
95	0x3bb705c0	0.0055854023
96	0x3cb082e4	0.021546789
97	0xbd8c336d	-0.06845746
98	0x3ccddfb4	0.025131084
99	0x3dd63a93	0.10460391
100	0x3c96b263	0.018395608
101	0x3cafe0c6	0.021469485
102	0xbda7ce59	-0.081936546
103	0x3d354bec	0.044261858
104	0x3dab08ae	0.08351265
105	0x3d9e5393	0.07730784
106	0x3b1adcaa	0.0023630061
107	0x3d199430	0.03749484
108	0xbea5604f	-0.3230004
109	0xbd005a27	-0.031335976
110	0x3d0d5d9a	0.034513094
111	0xbd498bcb	-0.049205583
112	0x3d86e008	0.06585699
113	0x3e283d25	0.16429575
114	0x3d4c49c1	0.049875025
115	0xbcac7851	-0.021053465
116	0xbbd8bea4	-0.006614523
117	0x3d50b430	0.05095309
118	0x3dc60126	0.09668188
119	0x3e2f9d41	0.17149831
120	0xbba7a222	-0.0051157633
121	0x3d5fe3cd	0.054660607
122	0x3b82b0f9	0.003988382
123	0xbcf0784d	-0.029354239
124	0x3befa19a	0.0073129656
125	0xbccde9ec	-0.025135957
126	0x3d441ace	0.047877125
127	0xbd2526d7	-0.040320244
128	0x3d48e1b2	0.049043365
129	0xba157f69	-0.00057028845
130	0x3be4c8e9	0.006981958
131	0x3df21986	0.118212745
132	0xbbcd83e2	-0.006271825
133	0xbd234fcf	-0.039871033
134	0xbcc4125a	-0.023934532
135	0xbc22d4d3	-0.009938437
136	0xbd117f10	-0.035521567
137	0x3d4547f9	0.04816434
138	0x3c1f4414	0.009720821
139	0xbba24bec	-0.0049528982
140	0xbcd0984d	-0.025463248
141	0x3e626e2c	0.2211234
142	0xbd906e67	-0.070523076
143	0x3b95d2a5	0.00457223
144	0xbc9605d0	-0.018313318
145	0xbc7b51b8	-0.0153393075
146	0x3cbb6c78	0.02287887
147	0xbd043897	-0.03228053
148	0x3b9d3920	0.0047980696
149	0xbc38a2b0	-0.0112692565
150	0x3b86e954	0.0041171703
151	0x3e42809b	0.18994372
152	0xbcdd6d1b	-0.027029565
153	0x3da4f63a	0.080547765
154	0x3c57e769	0.013177731
155	0xbd66e011	-0.05636603
156	0x3c5bb1ab	0.013409059
157	0xbd975f43	-0.073912166
158	0x3c2c3c7d	0.010512468
159	0x3b7ddb8b	0.0038735594
160	0xbdca67dd	-0.098830916
161	0x3d756535	0.05991097
162	0xbc9fee32	-0.01952276
163	0x3cdbd605	0.02683545
164	0x3d473b61	0.048640613
165	0xbc96f630	-0.018427938
166	0xbde7d44a	-0.11319788
167	0x3dd1db92	0.10246958
168	0x3be1142f	0.006868861
169	0xbd08d452	-0.03340561
170	0x3cfb5488	0.030679956
171	0x3c698916	0.014253875
172	0x3d03034b	0.031985562
173	0xbc818dfc	-0.015814774
174	0xbd7d3fd0	-0.061828434
175	0xbd872dd3	-0.06600537
176	0xbc571e98	-0.013129853
177	0xbd2baed2	-0.04191477
178	0xbcee2668	-0.029071048
179	0xbcb04b08	-0.021520153
180	0xbcecda6d	-0.028912747
181	0x3e1a6946	0.15079221
182	0x3aee7982	0.0018194171
183	0xbc23d246	-0.009998864
184	0xbba91ca7	-0.0051608863
185	0x3c834bbb	0.016027322
186	0x3eee2d1e	0.46518797
187	0xbca1d0af	-0.019752828
188	0x3e0120d5	0.1261018
189	0x3d37f0ef	0.044907507
190	0xbecc0ff5	-0.39855924
191	0xbe9f7c63	-0.31149587
192	0x3cd00442	0.025392655
193	0x3da7584e	0.0817114
194	0x3d56ea8f	0.052469786
195	0x3cc98a5b	0.024602106
196	0xbeaa9526	-0.33316916
197	0x3ddb44fa	0.107065156
198	0x3dac23ba	0.08405252
199	0x3cdef21d	0.027215058
200	0xbcfd22c3	-0.030900365
201	0x3db72078	0.0894174
202	0xbd30bb45	-0.043147344
203	0x3d3387ad	0.043830562
204	0xbc9f255c	-0.019426994
205	0x3aa0102b	0.001221185
206	0x3d8b2a82	0.06795217
207	0xbd3207b0	-0.043464363
208	0xbc4e2c74	-0.012583841
209	0xbc507f0b	-0.012725602
210	0xbbc4b316	-0.006002794
211	0x3e9f6745	0.31133476
212	0xbd62a0ab	-0.055329006
213	0x3bc9dfaf	0.0061606984
214	0x3cab2b84	0.020894773
215	0xbc3f72fe	-0.011685131
216	0xbd795edc	-0.06088148
217	0x3a8955f0	0.0010477882
218	0x3d33df77	0.043914285
219	0x3d152068	0.036407858
220	0x3d08968b	0.033346694
221	0xbcec0162	-0.028809253
222	0x3c6ec846	0.014574116
223	0xbca3cca1	-0.019995036
224	0xbca5e408	-0.020250335
225	0xbc928c39	-0.017889129
226	0x3dff59ef	0.12468325
227	0x3c2223d5	0.009896238
228	0x3d7f0301	0.062258724
229	0xbc45f096	-0.012081286
230	0x3c1d48e9	0.009599903
231	0x3d820a3a	0.06349607
232	0x3d787755	0.06066068
233	0x3d8c383c	0.06846663
234	0x3d1e40d3	0.03863604
235	0xbd8e567d	-0.0695009
236	0xbdaa5e38	-0.08318752
237	0xbc8cb4ad	-0.017175997
238	0x3b2562ef	0.002523597
239	0xbc131817	-0.008977911
240	0xbe10fd37	-0.14159094
241	0xbb941219	-0.004518759
242	0x3ddd0854	0.10792604
243	0x3e0bd0f8	0.13653934
244	0x3d30948a	0.043110408
245	0xbd8b7b21	-0.06810594
246	0x3c107dcd	0.008819056
247	0x3d8d241d	0.06891654
248	0x3db6331a	0.088964656
249	0xbcd3c9ac	-0.025853
250	0xbd31d974	-0.04342027
251	0xbc985a04	-0.01859761
252	0x3ea5a522	0.3235255
253	0xbd70395d	-0.058648456
254	0x3e2a2f2d	0.16619559
255	0x3c92bf25	0.01791341

encoder_conv2.bias f4 [12]
0	0x3f06219b	0.5239503
1	0x3eaa9d02	0.33322912
2	0xbf0643ba	-0.5244709
3	0x3da81b06	0.08208279
4	0xbe417138	-0.18890846
5	0xbc4855b7	-0.012227467
6	0x3e4e62e4	0.20154911
7	0x3ee84c5b	0.45370755
8	0x3e977d45	0.2958776
9	0x3d75845d	0.059940685
10	0x3edfb16f	0.4369006
11	0x3efa199b	0.4884766

encoder_conv3.weight f4 [6, 12, 5]
0	0x3c4017ea	0.011724452
1	0x3aff8505	0.0019494599
2	0x3dd8d4e0	0.10587478
3	0x3d44e4da	0.048069812
4	0xbbaf85aa	-0.00535651
5	0x3c98f614	0.018672027
6	0xbb144bf3	-0.0022628277
7	0x3e3e856a	0.18605581
8	0x3d26bc86	0.040707134
9	0x3c05d89a	0.008169318
10	0x3b373983	0.0027957864
11	0xbc47c654	-0.012193281
12	0xbc8a4853	-0.01688019
13	0x3d8908ae	0.06691109
14	0x3a28218f	0.0006413692
15	0x3c0af693	0.008481639
16	0xbc3aae82	-0.011394145
17	0x3cb37603	0.021906858
18	0x3d28b23c	0.041185603
19	0x3c397199	0.011318588
20	0xbb297f43	-0.0025863207
21	0x3baa88b9	0.005204287
22	0xbd4ce4b5	-0.0500228
23	0x3d07649d	0.033054937
24	0x3c776a25	0.01510099
25	0xbc51841e	-0.012787847
26	0xbcedf4af	-0.029047338
27	0xbe52d4e9	-0.20589031
28	0x3d25eccf	0.04050904
29	0xbd004c82	-0.031322964
30	0x3c097a08	0.008390911
31	0x3bd2bbc5	0.0064310753
32	0x3e24765f	0.1606078
33	0x3d847dd7	0.064693145
34	0x3c260fef	0.010135635
35	0xbbb86e6e	-0.0056283986
36	0x3c1c477d	0.0095385285
37	0x3d8bef10	0.06832707
38	0x3d1c15fd	0.038106907
39	0x3be7d030	0.0070743784
40	0xbbbf4905	-0.005837562
41	0xbc3b4656	-0.011430344
42	0xbe9f714a	-0.3114112
43	0x3d03d75f	0.032187816
44	0xbc97ec07	-0.018545164
45	0x3cdf182e	0.02723321
46	0x3cbc7884	0.023006685
47	0x3d3a6735	0.045508582
48	0x3d811b48	0.063040316
49	0x3c61a5b5	0.013772418
50	0xbc9924e9	-0.018694358
51	0xbccdcab2	-0.025121067
52	0xbc306ab4	-0.0107676275
53	0xbcaad73b	-0.020854583
54	0xbc95fc1e	-0.018308695
55	0x3c7695ee	0.015050394
56	0x3b155e00	0.0022791624
57	0xbf721624	-0.94565034
58	0x3b04f234	0.0020285966
59	0x3c5323d4	0.01288696
60	0x3d0d96cb	0.034567636
61	0xbd7e2f2f	-0.062056717
62	0xbcf1fc89	-0.029539363
63	0xba88e419	-0.0010443955
64	0x3c00d404	0.007863048
65	0xbcfe7b92	-0.031064782
66	0xbc540bd9	-0.012942278
67	0xbc921c0e	-0.017835643
68	0xbbee99ee	-0.0072815334
69	0x3bc5db6f	0.0060381214
70	0x3cc920ed	0.024551833
71	0x3e8b2b66	0.27181548
72	0xbc722388	-0.014778979
73	0xbe62c5f6	-0.22145829
74	0x3d146f6b	0.03623907
75	0xbcdcf381	-0.02697158
76	0xbdd33132	-0.10312118
77	0xba79f8c6	-0.00095356663
78	0xbdbdfdf6	-0.09276955
79	0xbccc68ce	-0.024952319
80	0xbd7f2638	-0.062292308
81	0x3e10dee4	0.14147526
82	0x3d135d8e	0.035977893
83	0xbe14bba3	-0.14524703
84	0xbd16fb2b	-0.036860626
85	0xbbbc846e	-0.0057530915
86	0x3cd740aa	0.026275951
87	0x3d4c95c0	0.0499475
88	0xbde2d189	-0.11075122
89	0x3c91dd4e	0.017805722
90	0xbd8e3f2f	-0.06945645
91	0x3d23b3da	0.03996644
92	0x3c91e43e	0.01780903
93	0xbbf28c7e	-0.007402002
94	0xbcdc741b	-0.026910832
95	0xbd8d4e58	-0.068997085
96	0xbe3347dc	-0.17507881
97	0x3d3b6797	0.045753088
98	0xbd652a09	-0.05594829
99	0xbd165ad0	-0.0367077
100	0x3bf8a1a0	0.0075876266
101	0xbdac83f8	-0.084236085
102	0xbdb2ba2d	-0.087269165
103	0xbd1cbf64	-0.03826846
104	0xbc90f4d7	-0.017694874
105	0xbd5fd279	-0.05464408
106	0x3e181276	0.14850792
107	0x3d8bbcd1	0.06823123
108	0x3b4a059a	0.0030826093
109	0xbd6f5aca	-0.058436193
110	0x3dee639c	0.11640093
111	0x3dc059d3	0.093921326
112	0xbce050fc	-0.027382366
113	0x3ba72c02	0.0051016817
114	0x3d6e7b32	0.058222957
115	0xbc5f8ae6	-0.013643956
116	0x3db988d0	0.09059298
117	0x3c117746	0.008878535
118	0xbe081ebd	-0.13292976
119	0xbbcc6685	-0.006237807
120	0x3d035627	0.032064583
121	0xbd34420a	-0.044008292
122	0x3d426238	0.04745695
123	0x3ca5c8f3	0.020237422
124	0xbbc25bfc	-0.0059313755
125	0xbc2df851	-0.010618285
126	0xbd5a463f	-0.05328965
127	0xbd20374a	-0.039115228
128	0xbd930639	-0.07178921
129	0xbc6eebdc	-0.0145826
130	0xbc6e4ea8	-0.01454512
131	0xbd19093a	-0.037362315
132	0x3bcb6890	0.006207533
133	0xbd8203b1	-0.0634836
134	0xbd3300a4	-0.043701783
135	0x3c4f15c3	0.012639466
136	0x3b6d3ea0	0.0036200657
137	0x3e0c2e7c	0.13689607
138	0x3e0a84dc	0.13527244
139	0xbcacaa08	-0.021077171
140	0xbb93045f	-0.004486605
141	0x3cc6a647	0.02424921
142	0x3e104419	0.14088477
143	0x3ed210f5	0.41028562
144	0xbd1b5e30	-0.03793162
145	0x3c6c39fb	0.0144181205
146	0x3b5084ba	0.0031817392
147	0x3ec438a3	0.3832446
148	0x3f165cff	0.5873565
149	0xbdc787f3	-0.09742727
150	0xbd263e13	-0.040586542
151	0x398a4827	0.0002637517
152	0xbd92727e	-0.07150744
153	0x3b6b561e	0.0035909484
154	0xbc26ddb2	-0.010184692
155	0xbd937203	-0.071994804
156	0xbd24701c	-0.04014598
157	0xbedcdbb7	-0.4313638
158	0x3d14f065	0.03636207
159	0xbe456aa3	-0.1927896
160	0x3d1ff135	0.039048392
161	0xbc1f0624	-0.009706054
162	0xbe799972	-0.24374941
163	0xbe7b37d3	-0.24533014
164	0x3df6251a	0.12018795
165	0x3b6a04b1	0.0035708363
166	0xbd089e03	-0.033353817
167	0xbc14f315	-0.009091158
168	0xbdd12a71	-0.10213173
169	0x3b7ce498	0.00385884
170	0x3bd72873	0.006566101
171	0x3cbc04f2	0.022951577
172	0x3a0a7c56	0.000528281
173	0xbd87c1b9	-0.066287465
174	0x3c755986	0.014974957
175	0xbcd9ac6f	-0.02657148
176	0x3d6e5065	0.05818214
177	0xb99684c5	-0.0002870915
178	0x3cd90966	0.02649374
179	0xbd12c91f	-0.035836335
180	0x3ce68acd	0.028142357
181	0x3ce0a7fe	0.027423855
182	0xbf40729b	-0.75174874
183	0x3ab2a0a9	0.0013628203
184	0x3b63dc21	0.0034768658
185	0x3cd6a29e	0.026200589
186	0x3ccacf31	0.024757
187	0x3e98f3ac	0.29873407
188	0xbd280383	-0.041018974
189	0xbc70da39	-0.014700466
190	0x3c931a90	0.017957002
191	0xbb8b97f1	-0.004260056
192	0x3ca9cbf5	0.020727137
193	0x3dac0d83	0.08401015
194	0x3a3877eb	0.0007036912
195	0x3c85aef6	0.01631878
196	0x3ce5b498	0.028040215
197	0xbe1049fa	-0.1409072
198	0x3d0a688e	0.033791117
199	0x3c406959	0.011743867
200	0x3acf387d	0.0015809681
201	0xbbe35a92	-0.006938287
202	0x3dd3253c	0.10309836
203	0xbd4d00e0	-0.050049663
204	0x3ad73b55	0.001642088
205	0xbaa0ea52	-0.0012276864
206	0xbcbacfda	-0.02280419
207	0x3d62d560	0.05537927
208	0xbd4fddf0	-0.050748765
209	0xb9e9e636	-0.00044612744
210	0x3c07340b	0.008252154
211	0x3c884a9b	0.016637137
212	0x3db18755	0.08668391
213	0x3a268f32	0.0006353735
214	0xbb02a9c0	-0.0019937605
215	0x3d1b19ec	0.037866518
216	0xbb0ab8c1	-0.002116725
217	0xbd8c04c1	-0.06836844
218	0x3cc21ae3	0.023694461
219	0x3d3617f6	0.044456445
220	0x3c3871a7	0.011257566
221	0x3d2d1520	0.042256474
222	0xbd559207	-0.052141216
223	0x3d20019b	0.03906403
224	0xbd3ca395	-0.04605444
225	0x3ccf6363	0.025315946
226	0x3cc0cfcc	0.023536585
227	0x3d671226	0.056413792
228	0x3abe5665	0.0014521597
229	0x3caf3908	0.0213895
230	0xbbc6be25	-0.0060651475
231	0x3d01c58e	0.031682543
232	0x3d4e46b1	0.050360385
233	0xbc978d1e	-0.018499907
234	0xbc02db5b	-0.007986869
235	0x3cd1a2cc	0.025590323
236	0xbb50e69f	-0.0031875742
237	0x3d181869	0.037132654
238	0x3d69ce47	0.057081487
239	0x3ce09f8a	0.027419824
240	0xbd04d222	-0.03242696
241	0x3c8e99c4	0.017407306
242	0xbd703405	-0.05864336
243	0x3c2d8e51	0.010593013
244	0xbba22c11	-0.004949101
245	0xbbd690b3	-0.006548011
246	0x3d0ebe9c	0.034849748
247	0xbea16b3e	-0.31527132
248	0x3b4eb818	0.0031542834
249	0x3c2ca414	0.010537166
250	0xbbd083d3	-0.006363371
251	0xbd65eaba	-0.056132056
252	0x3d2b1f7f	0.041778084
253	0x3ba526d3	0.0050400286
254	0x3c2c6fa0	0.01052466
255	0x3b235702	0.0024923687

encoder_conv3.bias f4 [6]
0	0x3f6cc3b9	0.9248615
1	0x3f66cfdf	0.90160936
2	0x3ed51fe0	0.4162588
3	0x3f13f59a	0.57796633
4	0x3f02ae59	0.51047283
5	0x3f1534b9	0.58283573

deconv1.weight f4 [6, 12, 5]
0	0xbe19516a	-0.14972463
1	0xbc2732c3	-0.010204974
2	0xbea3c7dd	-0.3198842
3	0x3c0aa4aa	0.0084621105
4	0xbe7f745f	-0.24946736
5	0x3c1746d3	0.009233194
6	0x3af27cf9	0.001850038
7	0xbd80fb37	-0.062979154
8	0xbb59ce60	-0.0033234581
9	0x3c005e77	0.007835022
10	0xbbd1b355	-0.006399552
11	0x3ca7f47d	0.020502323
12	0xbe84e7f4	-0.25958216
13	0xb9225265	-0.00015480218
14	0xbc531506	-0.01288343
15	0xbb89f303	-0.0042098775
16	0x3cab1d91	0.020888122
17	0x3ec62747	0.3870184
18	0x3aa08c74	0.001224889
19	0x3b59ad99	0.0033215045
20	0xbc4b5603	-0.0124106435
21	0xbb58fe52	-0.003311057
22	0x3c0b93fe	0.008519171
23	0x3c2e8960	0.01065287
24	0x3d5fcf7d	0.054641236
25	0xbb88cf21	-0.0041750823
26	0xbcd4d36c	-0.02597972
27	0x3e0b6e38	0.13616264
28	0x3c3e0c45	0.011599605
29	0x3c477c84	0.012175683
30	0xbab3146c	-0.0013662702
31	0x3bb768f9	0.0055972305
32	0xbd488416	-0.048954092
33	0x3ba763c6	0.0051083295
34	0xbc44dffb	-0.012016292
35	0xbb4ff6ef	-0.0031732877
36	0xbca8ac57	-0.02058999
37	0x3dae6162	0.08514668
38	0xbba62559	-0.00507037
39	0xbb7a70e4	-0.003821426
40	0xb9fee9c6	-0.0004862083
41	0xbcddb924	-0.027065821
42	0xbe24179e	-0.16024634
43	0xbb760148	-0.0037537385
44	0x3c87473a	0.016513456
45	0xb901d209	-0.00012380643
46	0xbc39d36e	-0.011341913
47	0x3f0b74c5	0.5447505
48	0x3bdca64e	0.0067336923
49	0x3c05d79c	0.008169081
50	0xbb124804	-0.0022320757
51	0xb9c93531	-0.00038377338
52	0x3e9092f3	0.28237113
53	0xbaa5eb21	-0.0012658575
54	0xbc7678c0	-0.0150434375
55	0x39981769	0.0002900914
56	0x3ade6815	0.0016968275
57	0xbd08edb4	-0.033429816
58	0x3c5ad56e	0.01335655
59	0xbc5def0d	-0.013545764
60	0xbe992bce	-0.29916233
61	0x3ed3b6ef	0.41350505
62	0xbea228d7	-0.31671783
63	0x3d096954	0.033547714
64	0xbe874d1a	-0.2642601
65	0xbe1f563a	-0.15560237
66	0x3de60748	0.112318575
67	0xbdd33d86	-0.10314469
68	0xbe2d78d1	-0.16940619
69	0x3c50ac38	0.012736373
70	0x3dda6dfe	0.106655106
71	0x3e8c1c8f	0.27365538
72	0x3e30100c	0.17193621
73	0xbe3afd29	-0.18260635
74	0x3c7be5bc	0.015374597
75	0x3ccd4a64	0.025059886
76	0xbde23cbe	-0.11046742
77	0x3e544c2e	0.20732185
78	0x3e8ed1d8	0.27894473
79	0x3c83b940	0.016079545
80	0xbeed5e51	-0.4636102
81	0x3eb85e1e	0.36009306
82	0x3ece7917	0.4032676
83	0xbe853941	-0.26020244
84	0xbecbd6f5	-0.39812437
85	0xbd8cb16f	-0.0686978
86	0x3e7e6156	0.24841818
87	0x3edb71e9	0.42860344
88	0xbea99d6f	-0.33127925
89	0xbe146324	-0.14490944
90	0x3e1737ed	0.14767428
91	0x3ba1ea1a	0.004941237
92	0xbe17fc8f	-0.14842437
93	0x3e6d9a04	0.23203284
94	0xbd4ea40c	-0.050449416
95	0x3eaa012f	0.33204028
96	0xbdbb03fe	-0.09131621
97	0xbd70f7c9	-0.058830056
98	0xbe54ee3b	-0.20794003
99	0x3e26469a	0.1623787
100	0x3ce6ebdd	0.02818864
101	0x3e65c476	0.22438225
102	0x3e4e3b4e	0.2013981
103	0xbe24921c	-0.16071361
104	0xbe168048	-0.14697373
105	0xbd8013b6	-0.062537596
106	0x3b5c1197	0.003357982
107	0x3debe022	0.11517359
108	0x3b154cdd	0.002278141
109	0xbe2e4c50	-0.17021298
110	0x3eb55ffa	0.35424787
111	0x3f1d6515	0.61482364
112	0x3da85656	0.08219592
113	0x3dc486ea	0.09596045
114	0x3e3b81af	0.18311189
115	0xbb37e153	-0.0028057888
116	0xbdcd2074	-0.100159556
117	0x3d3e2f62	0.046431907
118	0xbd85fe35	-0.06542627
119	0x3dc8dc9d	0.09807704
120	0xbe0c12e3	-0.1367908
121	0x3bebd826	0.0071973978
122	0xbe84f3d1	-0.25967267
123	0x3e46d86d	0.19418497
124	0xbe87a74d	-0.26494828
125	0xbb864a96	-0.004098247
126	0x3d0a87cd	0.033820916
127	0x3cb64d7f	0.02225375
128	0xbd4a67c2	-0.049415357
129	0xb8f8c223	-0.00011861722
130	0x3cbcf7ea	0.023067433
131	0x3d2e9aa3	0.04262794
132	0x3eb07e57	0.3447139
133	0x3da6e1ee	0.081485614
134	0xbd47b7a7	-0.04875913
135	0xbb92ad63	-0.0044762357
136	0xbca534c0	-0.020166755
137	0x3c880f90	0.016608983
138	0x3e074061	0.13208152
139	0xbc225578	-0.009908073
140	0xbcd98b58	-0.026555702
141	0x3d8451da	0.064609244
142	0x3d232ffb	0.03984068
143	0x3e11e23b	0.14246456
144	0x3dfabad6	0.122426674
145	0xbcad9282	-0.021188024
146	0xbc42f426	-0.01189903
147	0x3e59647e	0.21229741
148	0x3e60850e	0.21925756
149	0xbdd82f95	-0.105559506
150	0x3ba45eb6	0.0050161732
151	0xbc06adc7	-0.008220143
152	0xbced4d0d	-0.028967405
153	0xbe1f629a	-0.15564957
154	0xbb3ee169	-0.0029126054
155	0x3caa613e	0.020798322
156	0xbd0357a4	-0.032066002
157	0x3e2b657d	0.16737933
158	0xbb6674a6	-0.0035164743
159	0xbc22daf1	-0.009939895
160	0xbcae9ca3	-0.021314925
161	0xbc789b9b	-0.015173818
162	0xbe66f2af	-0.22553514
163	0xbda8042e	-0.08203922
164	0x3d16f5ed	0.036855627
165	0xbb0d1b43	-0.0021531142
166	0xbc197149	-0.009365388
167	0x3e127368	0.14301836
168	0x3df7edfd	0.121059395
169	0xbd0bfda9	-0.034177456
170	0x3c9c93b5	0.019113401
171	0xbc39242e	-0.01130013
172	0x3e74715b	0.23871367
173	0xbc0d3a8c	-0.008619916
174	0xbc934c6a	-0.017980773
175	0x3b38c263	0.0028192035
176	0x3cd1f9ef	0.025631873
177	0x3dbf0f15	0.093290485
178	0x3ece00ef	0.40235087
179	0xbcec0159	-0.028809236
180	0x3ced5729	0.028972225
181	0xbbd3e9af	-0.0064670662
182	0xbe4ff921	-0.20309879
183	0x3bcb11d5	0.006197194
184	0xbe7b7b06	-0.24558648
185	0xba04a175	-0.00050594594
186	0xbb8bc859	-0.0042658267
187	0x3f0723d0	0.5278902
188	0x3c216c1a	0.009852434
189	0x3b8180d0	0.003952123
190	0x3bbb2356	0.0057109995
191	0x3d42a4cd	0.047520448
192	0x3cb25d3e	0.021772977
193	0x3ca6fdd7	0.020384712
194	0x3c741452	0.014897423
195	0x3c005c13	0.007834452
196	0x3d85d662	0.06535031
197	0x3d9f3575	0.07773868
198	0xbca6d592	-0.02036551
199	0x3ca34e07	0.019934667
200	0x3d19520b	0.037431758
201	0xbcb7a2da	-0.02241652
202	0xbdaa4759	-0.0831439
203	0x3cc89a16	0.024487536
204	0x3e1e1be7	0.15440331
205	0x3cff695a	0.031178165
206	0xbd919de5	-0.07110194
207	0xbcab59e5	-0.020916888
208	0x3cd9adbf	0.026572106
209	0x3db34931	0.087541945
210	0x3a879ad0	0.001034582
211	0x3c03ba20	0.008039981
212	0xbe820af4	-0.25398982
213	0xbb591dcc	-0.0033129333
214	0xbc1fdd68	-0.009757377
215	0x3b05da29	0.0020424223
216	0xbd4b0b02	-0.049571045
217	0x3d80ae66	0.06283264
218	0xbbf68b9c	-0.007523967
219	0xbbfa59d2	-0.007640102
220	0x3c28696a	0.010279039
221	0xbd507d10	-0.05090052
222	0x3db802d1	0.08984912
223	0x3c304eaa	0.0107609425
224	0x3ca6a026	0.020340037
225	0x3bb29a57	0.0054505276
226	0xbd3ca288	-0.04605344
227	0x3e025e7a	0.12731352
228	0xbd3f51f4	-0.046709016
229	0x3cf0876f	0.029361455
230	0xbb7814d0	-0.0037854202
231	0x3b8bfd58	0.0042721443
232	0x3ecf7df6	0.40525788
233	0xbb3ab15f	-0.002848707
234	0xbc9202d1	-0.017823609
235	0xbc285473	-0.0102740405
236	0x3c2b0466	0.01043806
237	0xbe514eec	-0.20440263
238	0x3d15b67f	0.036550995
239	0xbc89b876	-0.01681159
240	0xbe5e11ba	-0.2168645
241	0xbc90f4fa	-0.017694939
242	0xbde0ddd5	-0.10979811
243	0x3c3afd50	0.0114129335
244	0xbe8cdc66	-0.275119
245	0x3c373b66	0.011183595
246	0xbc975cc1	-0.018476846
247	0x3e08e73a	0.13369456
248	0x3c0956e7	0.008382536
249	0x3c093d8f	0.008376493
250	0xbc983de2	-0.018584196
251	0x3d59ca5a	0.053171493
252	0x3d5b1ac0	0.053492308
253	0x3c34eece	0.011043264
254	0xbbeb2e0c	-0.00717712
255	0x3b89f2ed	0.004209867

deconv1.bias f4 [12]
0	0x3e4eb66a	0.20186773
1	0x3e46cec1	0.19414808
2	0x3e128b19	0.14310874
3	0x3e2c7bcf	0.16844104
4	0xbd5ba38e	-0.053622775
5	0x3d814782	0.06312467
6	0x3ee1727b	0.44032654
7	0x3ebe92f4	0.3722149
8	0x3eed2eb7	0.46324703
9	0x3e33c32a	0.17554918
10	0x3b07d71d	0.0020727583
11	0x3e8bd544	0.27311146

deconv2.weight f4 [12, 24, 5]
0	0xbd86a0bd	-0.06573627
1	0xbb63af0d	-0.003474179
2	0x3c2d2b57	0.010569415
3	0xbd827755	-0.06370417
4	0xbdb23505	-0.08701519
5	0xbe12e72e	-0.14346
6	0x3e380ef5	0.17974456
7	0x3bb055bb	0.0053813136
8	0x3c6c6631	0.014428661
9	0xbeef902b	-0.4678968
10	0x3d26645c	0.040623054
11	0x3e142ce0	0.14470243
12	0xbdd8eb3e	-0.10591744
13	0xbd27d12b	-0.040970962
14	0xbe280da0	-0.16411448
15	0x3e81fc4a	0.25387794
16	0xbdc4501b	-0.095855914
17	0x3da678df	0.08128523
18	0x3d28bb23	0.041194092
19	0xbdadd9ad	-0.08488784
20	0xbc8f614b	-0.017502448
21	0x3d8f3783	0.0699301
22	0x3bec7cc0	0.00721702
23	0xbc85b974	-0.016323783
24	0xbd28b116	-0.041184507
25	0x3d827276	0.06369488
26	0x3da0559b	0.07828828
27	0x3e464ecd	0.19365998
28	0x3ca2174f	0.019786505
29	0xbcb33fbc	-0.021880977
30	0x3dc3faf0	0.09569347
31	0x3ec70279	0.38869074
32	0xc036892e	-2.8521228
33	0xbd8fe2a7	-0.070256524
34	0xbe3867a5	-0.18008287
35	0x3cf7436b	0.030183515
36	0x3e8262ed	0.254661
37	0xbfd9f3aa	-1.7027485
38	0x3e10e488	0.14149678
39	0x3d08d51b	0.03340636
40	0x3c8fd13e	0.01755583
41	0x3cec46ea	0.028842408
42	0xbcc8dafd	-0.024518484
43	0xbfd95b40	-1.6980972
44	0xbf81f7dd	-1.0153767
45	0xbfa33ed4	-1.2753549
46	0xbe774907	-0.24148951
47	0xbd3f3fbf	-0.046691652
48	0x3d963ea6	0.07336168
49	0x3ece3710	0.40276384
50	0x3ea25b52	0.31710297
51	0x3dfc66e5	0.12324313
52	0x3d9aabfc	0.07552335
53	0x3e180bfb	0.1484832
54	0xbe8f7953	-0.2802225
55	0x3ea0d38d	0.314114
56	0xbc74febf	-0.014953314
57	0xbda5057d	-0.080576874
58	0x3e947296	0.28993672
59	0x3e41c29c	0.18921894
60	0x3d4d006e	0.050049238
61	0x3e03f641	0.12886907
62	0x3da76870	0.08174217
63	0xbc630f1f	-0.013858586
64	0xbd768f90	-0.060195506
65	0xbd4a19d1	-0.049341027
66	0xbe5d2b9b	-0.21598665
67	0x3dce005e	0.10058664
68	0x3dc2d289	0.09512813
69	0x3df28e4d	0.11843548
70	0xbd346d28	-0.044049412
71	0x3e19701d	0.14984174
72	0x3dfd98eb	0.123826824
73	0x3c62654e	0.013818098
74	0xbd84101e	-0.064483866
75	0x3d43d51e	0.047810666
76	0x3d4a50e8	0.049393564
77	0xbcb2e470	-0.021837443
78	0xbc7bd799	-0.015371227
79	0xbd87b752	-0.066267624
80	0x3db61dcf	0.08892404
81	0xbe664ebd	-0.22490974
82	0xbe71fc7d	-0.23631473
83	0x3c9af943	0.018917685
84	0x3d6531ab	0.05595557
85	0xc003b771	-2.0580714
86	0xbe0a36fc	-0.13497537
87	0xbe37cfb6	-0.17950329
88	0xbdf70d55	-0.1206309
89	0xbcb7327c	-0.02236294
90	0x3c8de920	0.017323077
91	0x3e05eadf	0.13077877
92	0x3e8cb850	0.2748437
93	0x3e7ae611	0.24501826
94	0x3db4a3ff	0.08820342
95	0x3d4866bf	0.04892611
96	0xbc625705	-0.013814692
97	0xbe5b3e8a	-0.21410576
98	0xbd23d31c	-0.03999625
99	0x3d9b3668	0.075787365
100	0xbd4b80aa	-0.04968325
101	0xbeb1f57c	-0.34757602
102	0xbf45e852	-0.7730762
103	0xbe8056c9	-0.25066212
104	0x3d26b4cd	0.04069977
105	0xbea3dbaf	-0.32003543
106	0x3e4e81bb	0.20166676
107	0x3d87251e	0.065988764
108	0xbef88b1a	-0.48543626
109	0xbc3b2415	-0.011422177
110	0x3d3c9f62	0.046050437
111	0xbbfc4d77	-0.007699664
112	0x3c3d0237	0.011536173
113	0x3e2f6ec6	0.171321
114	0xbd8e2f43	-0.06942608
115	0xbde4e348	-0.11176163
116	0xbd84d119	-0.06485195
117	0x3c8d31ad	0.017235601
118	0xbf6cf6af	-0.9256391
119	0xbd983396	-0.07431714
120	0xbd83f4fe	-0.06443213
121	0xbd01cfaa	-0.031692185
122	0xbd8fe67f	-0.070263855
123	0x3d0d54ee	0.034504823
124	0x3d846cee	0.06466089
125	0x3d774f2a	0.06037823
126	0x3c62e1ce	0.013847781
127	0xbe2e771a	-0.17037621
128	0x3dba7ecc	0.09106216
129	0xba143467	-0.00056535605
130	0x3ee25378	0.44204307
131	0x3e721b51	0.23643233
132	0xbc94b730	-0.018153757
133	0x3d6e53ca	0.058185376
134	0x3ddeecf6	0.108850405
135	0xbd0a1e83	-0.033720504
136	0x3ccd78ca	0.02508201
137	0xbd76a462	-0.06021536
138	0x3d0dadb8	0.0345895
139	0x3df56382	0.1198187
140	0xbdb4e140	-0.088320255
141	0xbdbf5ee8	-0.09344274
142	0xbd3d7619	-0.046255205
143	0xbd894f18	-0.06704539
144	0xbd92f0b9	-0.071748205
145	0x3d98d3bd	0.07462261
146	0x3e0cb5b4	0.13741189
147	0x3e2e03c8	0.1699363
148	0x3df1c07d	0.11804292
149	0x3bfca928	0.0077105947
150	0x3d28329f	0.0410639
151	0x3e4070fc	0.187931
152	0x3eaf0b51	0.3418832
153	0x3c0ee917	0.008722565
154	0xbd16bb3a	-0.036799647
155	0x3d2b17cb	0.041770738
156	0x3e4f4a35	0.20243151
157	0x3c951f07	0.018203272
158	0x3d932861	0.07185436
159	0x3e3971f1	0.18109871
160	0xbc9dc748	-0.019260064
161	0xbe0a09de	-0.13480327
162	0x3d46d2fc	0.048541054
163	0xbe707862	-0.23483422
164	0x3ce16e0a	0.027518291
165	0xbe41d070	-0.18927169
166	0xbcd37b95	-0.025815764
167	0xbb8df273	-0.0043318807
168	0x3c9ad6f7	0.018901331
169	0xbd5ac7d5	-0.05341323
170	0x3dedae7e	0.11605547
171	0xbdebc547	-0.11512237
172	0x3ea17181	0.3153191
173	0x3d0502ad	0.032473255
174	0x3db156be	0.08659123
175	0x3e60284e	0.21890375
176	0x3bc2b95a	0.005942506
177	0xbd9c2e05	-0.07625965
178	0xbdb016b0	-0.08598077
179	0xbeb8a4ee	-0.3606333
180	0xbcf6c4e2	-0.030123178
181	0xbcf43fca	-0.029815573
182	0xbe8d6963	-0.27619466
183	0x3c464032	0.012100266
184	0x3cdc2b81	0.026876213
185	0x3db76de4	0.08956507
186	0x3e806a32	0.2508102
187	0x3d7cbb97	0.061702337
188	0xbd890a37	-0.066914015
189	0xb9f53e24	-0.0004677634
190	0xbd747bc7	-0.059688356
191	0x3e9c148b	0.30484423
192	0x3e051e03	0.1299973
193	0xbcb94909	-0.022617834
194	0x3d95b327	0.07309561
195	0xbd054bdc	-0.03254305
196	0x3d974430	0.073860526
197	0x3c9115ea	0.017710645
198	0x3d004cab	0.031323116
199	0xbb235680	-0.0024923384
200	0xbd6ce823	-0.05783857
201	0xbe5f7914	-0.21823531
202	0x3e81330a	0.25234252
203	0xbc11a709	-0.008889922
204	0x3d1705c1	0.03687072
205	0x3e482505	0.19545372
206	0xbce60f62	-0.028083507
207	0x3d212dfe	0.039350502
208	0xbded01f0	-0.11572635
209	0xbdbbc841	-0.09169055
210	0x3dea1302	0.11429407
211	0xbd7b3d01	-0.061337475
212	0xbe21ac0e	-0.1578829
213	0x3cfa1e42	0.030532006
214	0x3ccc9580	0.02497363
215	0x3da118b8	0.07866043
216	0xbd88bdc5	-0.06676821
217	0xbdc05050	-0.093903184
218	0x3d459832	0.048240848
219	0xbd20edee	-0.039289407
220	0xbc7b1486	-0.015324717
221	0xbf2efc30	-0.6835356
222	0x3d71bc88	0.059017688
223	0xbe9d6733	-0.30742797
224	0xbd78843d	-0.060672987
225	0x3e072a75	0.1319979
226	0xbd1e5486	-0.038654827
227	0xbe27720c	-0.16352099
228	0xbd6f6a2d	-0.058450866
229	0x3d71806b	0.05896036
230	0xbcfaf9b7	-0.030636651
231	0xbdc17bfa	-0.09447475
232	0xbdb7161a	-0.089397624
233	0x3d08a0d0	0.033356488
234	0x3e385f0e	0.1800501
235	0x3cd1cc8e	0.025610235
236	0xbb9571c2	-0.00456068
237	0x3e5908e1	0.21194793
238	0xbf030b1b	-0.5118882
239	0xbd749815	-0.05971535
240	0xbc6e4aa8	-0.014544167
241	0x3d691a2e	0.056909733
242	0x3cb3ea47	0.021962298
243	0x3cb9cdf5	0.022681216
244	0x3c1a99f0	0.009436116
245	0xbe1310fa	-0.14361945
246	0x3ccf4e84	0.025305994
247	0xbe4a0fdb	-0.19732611
248	0x3d20a490	0.03921944
249	0xbe9e71a1	-0.30946067
250	0x3e8001bd	0.25001326
251	0xbc3af9fc	-0.01141214
252	0xbe96327b	-0.2933539
253	0x3e0513fc	0.12995905
254	0xbe75a5bc	-0.23989004
255	0xbd1506a5	-0.03638329

deconv2.bias f4 [24]
0	0xbdd5c43c	-0.10437819
1	0x3e06b257	0.13153969
2	0x3db2e98d	0.087359525
3	0x3dc0fdae	0.094233856
4	0xbdfc604e	-0.12323056
5	0x3e216b7b	0.15763657
6	0x3d854621	0.06507517
7	0xbc7dca27	-0.015490091
8	0x3e0b58f9	0.13608159
9	0xbca98996	-0.020695489
10	0x3b3a2fbd	0.0028409802
11	0xbd9d4b5c	-0.07680389
12	0x3e1c3b56	0.1525701
13	0x3de73115	0.112886585
14	0x3e106261	0.14100029
15	0xbdd5eea4	-0.10445908
16	0x3dcf7018	0.10128802
17	0x3e3d0bfa	0.184616
18	0x3e0e56c7	0.1390029
19	0x3dd732cd	0.10507736
20	0x3d23e60c	0.04001431
21	0x3d3e092e	0.046395473
22	0xbc97fe54	-0.01855389
23	0x3d467f7e	0.04846143

deconv3.weight f4 [24, 1, 5]
0	0xbc8120e6	-0.015762758
1	0x3ebcb5a1	0.36857322
2	0x3e4625f0	0.1935041
3	0xbea1a2f5	-0.3156964
4	0xbd82a6bd	-0.06379459
5	0x3eb3167b	0.3497809
6	0x3dc8be61	0.09801937
7	0xbdb9cd95	-0.09072415
8	0xbef87541	-0.48526958
9	0xbf20f16e	-0.6286839
10	0x3c87e097	0.016586585
11	0xbe6a9d97	-0.22911678
12	0xbe95e6e9	-0.29277733
13	0xbe4c3897	-0.19943462
14	0xbd0a1939	-0.03371546
15	0xbd94e15a	-0.07269545
16	0xbd0c8a02	-0.034311302
17	0xbd97e6a8	-0.07417041
18	0x3ead361b	0.33830342
19	0x3e9a740b	0.3016666
20	0x3ed0dddf	0.40794274
21	0x3e05faa9	0.130839
22	0xbdffee50	-0.124966264
23	0x3e0c644e	0.13710138
24	0xbd8b4693	-0.0680057
25	0x3eb3a237	0.35084698
26	0x3e503a14	0.20334655
27	0x3e86e0ca	0.26343375
28	0x3c916cc6	0.017752063
29	0x3ee4fda1	0.44724753
30	0xbcd32db8	-0.025778636
31	0x3e3caa3e	0.18424317
32	0x3ef210fb	0.4727858
33	0x3f2492b3	0.64286345
34	0x3cf5d15e	0.03000706
35	0x3d5368e6	0.05161371
36	0x3edd0ec0	0.43175316
37	0xbd2476bd	-0.0401523
38	0xbcfc32bb	-0.030785909
39	0x3e887a3e	0.26655763
40	0xbeab308b	-0.33435473
41	0xbf3637f5	-0.71179134
42	0xbf2805b9	-0.6563373
43	0x3d0b144e	0.03395491
44	0x3c852464	0.016252704
45	0x3e59fb68	0.2128731
46	0x3f0eac18	0.55731344
47	0xbe7975e8	-0.24361384
48	0xbcba6c1e	-0.022756632
49	0x3c79d3b5	0.015248229
50	0x3d770a06	0.060312293
51	0x3c8b5264	0.01700706
52	0xbc9cdd92	-0.019148622
53	0x3e15165b	0.14559309
54	0x3f17f014	0.59350705
55	0x3d0e5af4	0.03475471
56	0xba33e029	-0.00068617106
57	0xbc1de3f8	-0.0096368715
58	0x3d2955c6	0.041341566
59	0x3f6df618	0.92953634
60	0xbdf7255c	-0.120676726
61	0xbcd2d790	-0.025737554
62	0xbe8b1a8c	-0.2716869
63	0xbf07309a	-0.52808535
64	0xbeac3a2e	-0.33638138
65	0xbdfd598e	-0.12370597
66	0x3e550ebb	0.208064
67	0x3eecb684	0.46232998
68	0x3e59cb81	0.21269037
69	0xbe9878c9	-0.29779652
70	0x3e981458	0.2970302
71	0x3ecb7213	0.3973547
72	0x3ebbf896	0.36713094
73	0x3e815bfa	0.25265485
74	0xbde43c45	-0.11144308
75	0x3ea9e01d	0.33178797
76	0xbea29553	-0.3175455
77	0xbde7fc47	-0.11327415
78	0x3def463b	0.11683317
79	0xbe7d538e	-0.24738905
80	0x3d10513c	0.03523372
81	0xbe836aa3	-0.25667295
82	0x3ec7a68d	0.38994256
83	0x3d5775c3	0.05260254
84	0x3c640aee	0.013918621
85	0xbe29750f	-0.1654856
86	0xbf247615	-0.6424268
87	0xbf29b1e6	-0.66287076
88	0xbe8cc3de	-0.27493185
89	0xbe95e669	-0.29277351
90	0x3d55e5b7	0.052221026
91	0x3e888ac0	0.26668358
92	0xbcb75d1c	-0.022383265
93	0x3eb848f0	0.35993147
94	0xbe82b3af	-0.25527713
95	0x3df68947	0.12037902
96	0x3e51c568	0.20485461
97	0x3edcad57	0.43100998
98	0x3ec205f4	0.37895167
99	0xbe367b37	-0.1782044
100	0x3c086cd2	0.008326726
101	0xbe612328	-0.21986067
102	0x3b3530d6	0.0027647517
103	0x3e7d3c72	0.2473009
104	0x3e98f1c2	0.29871947
105	0xbe997bbe	-0.2997722
106	0x3bed1b0f	0.0072358917
107	0x3c8ca88e	0.017170217
108	0xbf3ebdc1	-0.7450829
109	0x3dd11d38	0.10210651
110	0x3d8519f5	0.064990915
111	0xbe909467	-0.28238222
112	0x3d8984cc	0.06714782
113	0xbe03ef98	-0.12884367
114	0xbda18fbd	-0.07888744
115	0xbefedbc2	-0.49777037
116	0xbed202d1	-0.41017774
117	0x3e450151	0.19238783
118	0x3e654b49	0.22392
119	0x3db4cb17	0.08827799
