models/multi_resolutionv2/SNN_Autoencoder_tsri_320s_80g.pth (torch, 25531 bytes, 11 tensors)

encoder_conv1.weight f4 [24, 1, 5]
00000000: 6020 95be 6ec4 92bd ed43 133f 6812 013f
00000010: 025f 193f 3acd b0be 9c37 993d b3a9 a03e
00000020: 0301 353e dc62 b03d 4457 773e c47f a6be
00000030: 9763 64be 97a6 9bbe 5e67 083e 79e3 babc
00000040: ac66 5fbc 0dfa 9ebc ef5c c6bc 7f78 74bc
00000050: d6ef 71be 80c7 41be c254 263f 664e e13c
00000060: 0847 6bbd ccee d6be 29c5 90be 971c 883e
00000070: c36f e3be 1a61 e9be 7fef debd 072f 163f
00000080: 51f4 b23d 74e3 f6bd 0fc2 743e 8f81 69bb
00000090: 04f6 5c3d 1470 e03e c292 f53e d4d6 29bd
000000a0: a6e1 103f 03e7 fc3e 0c8c 533c 55c5 183c
000000b0: 963e 1aba 2637 f83c 4ba3 493e 88d3 eb3e
000000c0: dbc2 943e b48b a33e 0a6e 80bd 9abe c8bd
000000d0: 82db 12be 0264 533f d776 363f e821 5d3c
000000e0: 9ccf 203e 7788 8b3e 84b7 bb3e a0aa 7f3e
000000f0: b0d2 57bb d66c 70bd 5882 303f b420 593f
00000100: 9cc9 1bbe deb3 aa3e 260f 3a3f 9344 b5be
00000110: 02b4 0abe d76a c7bb 0d66 a73c 3283 ccbc
00000120: a459 443f e587 b63c 3054 5a3f 1236 c2bd
00000130: 8082 873f 6378 fb3d a432 11bd 8315 edbc
00000140: 41c8 8bbc c5f2 bf3c 0672 223d e273 a43b
00000150: bc58 3cbb 8c68 b1ba 86d1 fa3e 4c70 f43e
00000160: d4bc 313c 6933 1b3f 16a7 2dbe f91b 993e
00000170: 0117 833f 8776 e83e 98b2 03bf f155 8ebd
00000180: 47f4 943e 729d d4bd 316e 293f 6a3d 8fbe
00000190: 9c58 dbbe 9296 5fbe 039b a3be 5a97 163e
000001a0: 8161 0bbf 2dfa 3bbe 845c afbe 1820 0fbe
000001b0: 116a 493f 7710 983e d21f d83e 8561 ebbd
000001c0: a588 983e 63ab 57be a6c9 36bc 43e3 073f
000001d0: e0b9 193f 5b5c d13e 65fe 3c3e 216e 0a3e
-0.29126263 -0.07166372 0.5752552 0.5041871 0.59910595 -0.34531575 0.0748131 0.3137947
0.17676167 0.08612606 0.24154383 -0.32519352 -0.22303616 -0.30400535 0.13320681 -0.022813546
-0.013635319 -0.019406343 -0.024214236 -0.014921307 -0.23626646 -0.1892376 0.6497308 0.027503204
-0.057440788 -0.41979063 -0.2827542 0.26584312 -0.44421205 -0.45581895 -0.10885524 0.5866551
0.08738006 -0.12055102 0.23902152 -0.0035630201 0.053945556 0.4383551 0.4796353 -0.04146464
0.5659431 0.49394998 0.012911808 0.009324391 -0.000588396 0.030299734 0.19691198 0.46059823
0.29054913 0.31942523 -0.06270988 -0.09801979 -0.14341548 0.82574475 0.71275085 0.013496853
0.15704197 0.27252552 0.3666345 0.24967432 -0.0032931976 -0.058697544 0.6894889 0.84815526
-0.15213627 0.33340353 0.72679365 -0.3540388 -0.1354523 -0.0060857343 0.020434404 -0.024964903
0.7669928 0.022281596 0.8528471 -0.09482969 1.05867 0.12278821 -0.035448685 -0.028940922
-0.017063262 0.023431191 0.039659522 0.005018697 -0.0028739413 -0.0013535186 0.4898798 0.47741926
0.010848243 0.6062532 -0.1695827 0.29904154 1.0241395 0.4540293 -0.5144439 -0.06949986
0.2909262 -0.10381593 0.66183764 -0.27976543 -0.4284104 -0.21834782 -0.31954202 0.14706174
-0.54445654 -0.18357153 -0.3425027 -0.13977087 0.7867747 0.29700062 0.42211777 -0.1149321
0.29791752 -0.21061473 -0.011156475 0.5308115 0.6004925 0.40890774 0.18456419 0.13518573

encoder_conv1.bias f4 [24]
00000000: 5886 19bf 5f1d 683e 6856 c8be 5818 113f
00000010: cd01 223f aed4 d9be 4f52 bf3e 1957 003e
00000020: 5b46 373c 28dd 2f3e fdad afbe 3cac 2fbd
00000030: 3406 b0be e8a4 893e d56d 04bf f70a 353e
00000040: 03d5 883f 460d 013f 0fc7 3c3e a99a ea3e
00000050: 84d5 00be b75a 0e3f 8c60 153f 58be 27bf
-0.5997062 0.22667454 -0.39128423 0.5667777 0.63284 -0.42545074 0.37367484 0.12533225
0.011186208 0.17174208 -0.3431243 -0.042888865 -0.34379733 0.26883626 -0.5173009 0.17679964
1.0690006 0.5041088 0.1843531 0.4582112 -0.1258145 0.5560717 0.58350444 -0.65524817

encoder_conv2.weight f4 [12, 24, 5]
00000000: 2136 663b 56d2 f7bb ffd9 363c 0add 01be
00000010: e056 f73a 4e4d 75bd ceb0 a3bd 5260 03be
00000020: be6d 1e3d 9548 81bd acf4 11bd 642f f1bc
00000030: 289a 3fbc 04fe 98bc 1ce1 b03d 66fd 62bc
00000040: 0551 b6bd 3ab3 3abe 5455 45bd bdc9 9ebd
00000050: dfc7 6dbd a976 a0bc 9507 f7bc 4970 913d
00000060: a0c9 b33c dced e9bc 9ce3 0f3d 601a 96bd
00000070: 5106 8bbd bad3 6fbd 85c9 d5bc 6342 84bd
00000080: 1576 0d3d b6cf 5ebd e367 80bd 5f42 5f3c
00000090: 5c3b 513d 7b77 9bbd 6ed8 7f3e 54b8 4eba
000000a0: 3d4f 593d fffe c43d 9b93 1a3d b041 1e3e
000000b0: 0f62 65b9 c7fe 433d 78fd 573d b6ab 6bbd
000000c0: 90c5 233e 2e5b 09bd 899b 083e f72d 283c
000000d0: efdd 393c 9497 973c 31ee cdbc e519 843d
000000e0: 6364 a9bc 562f abbc b00c 153e 2790 9abd
000000f0: d46a 17bd 335d 0f3d 5eb7 293d 2fc8 003e
00000100: 823d 383d ea5f 2cbd f974 6ebd 76a9 44bc
00000110: 0f28 aebd a337 89bd f6a6 213e a28d 933d
00000120: ede8 98bd eb5f c43c 70ff 4c3b ab55 823d
00000130: 9b0c 293f 363a 133e 9470 0f3f 145f b13d
00000140: 88a3 cabc 2c59 fabc 4745 673c 2ed4 003e
00000150: 74a6 d73c 87f5 40bd 6e38 fa3c b6ef 413d
00000160: db21 d63c 0814 c73c 5cfd 2f3d 72bb 893c
00000170: 32bc ddbd 03fa f93d 7c8e 8d3c 2aea 99bd
00000180: 7732 98bd 4e02 d4bd fd5e 923d 649e 7ebd
00000190: 4258 a93d 355d 983c cee4 25bc 7aba 093d
000001a0: 6fd0 9fbd 4bc2 54bc e3b6 26bd d2fc 4c3b
000001b0: 9f58 653d 3992 5bbd 248c 0ebd bf30 43bd
000001c0: 95c9 84bd d8e3 c03c 0f97 9ebc d42f 19bd
000001d0: fa09 c63d a862 0c3d cdb6 133e 16b5 3dbc
000001e0: e356 36bc ae8c 013e 6a58 a13e 1470 a5bc
000001f0: 1aa9 bb3c cda1 083d 3591 1cbd 8360 cdbd
00000200: ae49 5ebd c07b 23be 5828 693d 486b 6d3d
00000210: 5e10 043d d3c3 74bd 280e 1e3d e332 893d
00000220: 097e ab3e f1e9 7e3e 7b01 ce3e 43d8 1b3c
00000230: aa59 8dbc 81f6 25be 78b5 9f3e a202 753c
00000240: fccb 1c3d 609f 39bb 40d7 973b 1466 213d
00000250: bff1 9dbd 7804 5dbd 0b66 acbc 3ea4 ef3d
00000260: c982 123c 8a39 c43a 5e97 59bd 4256 c9bd
00000270: 829d 57be cc2d 053d 68c8 1fbe b7ce 6bbe
00000280: 98b7 97bd bbb1 67bd 5b17 9a3d 7256 d1bd
00000290: dd26 d7bd c497 123b 940c 45be 6ceb 04be
000002a0: 04b0 21be eeea 65be db45 bc3c f8a0 103e
000002b0: bfd2 af3c a0b2 fcbd 17a4 17be 911f 25be
000002c0: 0d70 83be a14e 3abe 5c36 fdbe b234 8cbe
000002d0: 7355 90bd 8e85 db3d ea93 e2bd 12f6 13be
000002e0: c29d 793d c73b 72bd bac7 ab3d 9aee 163e
000002f0: 757d ac3d 903e c53c 3bc3 c5bb 955c 763d
00000300: 089c 313e 77ef 0abe 67ac a73d 727a 1abe
00000310: f40b 3a3d 0e9a a23d 2673 78be c296 06be
00000320: b5d7 153e 2f01 703e 1aab 683e 9dc6 683d
00000330: 1b72 ac3d 9733 e3bc b23e 23bb d2e3 183e
00000340: c417 fb3c 6097 893c 9ae8 c5bd a538 9dbd
00000350: a788 ce3d 7464 e8bd 2841 94bd 1183 32bc
00000360: a135 56bd 7cd3 3d3d 174c 9dbd 35cc 19bc
00000370: acb0 d03c 3a31 8d3c c2fa 6cba e0d0 2b3b
00000380: 26a5 a33d 37fd dc3d e335 883b bc8a 5cbd
00000390: 2dda c1bd 1cfc 3fbc 79ee 8bbd 0a3a a63c
000003a0: 6f5e 073e a37b e8bd 9ab5 f2bc ff9b 713d
000003b0: f5c3 3abd a6c2 a4be cf20 8bbe b27b 8b3d
000003c0: 8d7c b83c 7042 7d39 6b0c e5bd 3a08 bdbd
000003d0: 98e1 43bd a42a 46bd 6534 3b3e e27a 00be
000003e0: 8bf8 aebd 59ea eebd 18de 4dbc 48d2 7d3d
000003f0: 0039 7e3b b5be 7dbd a876 d93c 0218 88bc
0.0035127478 -0.007562916 0.011160373 -0.12681976 0.0018870495 -0.059888177 -0.07992707 -0.12829712
0.038678877 -0.06312672 -0.035633728 -0.029441543 -0.011694469 -0.018675812 0.08636686 -0.01385436
-0.08902172 -0.18232432 -0.04817708 -0.07753322 -0.05805194 -0.019587832 -0.030154983 0.07101495
0.021946728 -0.028555803 0.035129175 -0.073292494 -0.06788314 -0.058551528 -0.026097069 -0.06457975
0.03453644 -0.054397307 -0.06269815 0.013626664 0.051082 -0.075911485 0.24984905 -0.00078857434
0.053054083 0.09618949 0.037738424 0.15454745 -0.00021875672 0.047850396 0.05273196 -0.057536803
0.15993333 -0.03353422 0.13340582 0.010264865 0.011344417 0.018504895 -0.025137993 0.064502515
-0.02067775 -0.020896595 0.14555621 -0.07547026 -0.036967114 0.03500099 0.04143464 0.12576364
0.044980533 -0.04208366 -0.058217023 -0.012003293 -0.08503734 -0.06700065 0.15786347 0.07204749
-0.07466302 0.023971519 0.0031280182 0.06363996 0.6603486 0.14377674 0.56031156 0.08660713
-0.02473618 -0.030560099 0.014115638 0.1258094 0.026324488 -0.047109153 0.030544486 0.047347747
0.02613919 0.024301544 0.04296623 0.016813014 -0.10826911 0.12205889 0.017279856 -0.075153664
-0.074315004 -0.10352002 0.07147024 -0.06216277 0.08268787 0.018599132 -0.010125352 0.033625104
-0.078034274 -0.012985776 -0.040701758 0.0031278622 0.05599272 -0.053606246 -0.034801617 -0.04765391
-0.06483761 0.023546144 -0.01935914 -0.037399128 0.09669872 0.034273773 0.14425202 -0.011578819
-0.011129114 0.12651321 0.31512767 -0.020195045 0.022907782 0.03335743 -0.038224418 -0.10028174
-0.054269485 -0.15965176 0.05692324 0.05796364 0.03224217 -0.059757065 0.03858772 0.06699159
0.33494595 0.24893929 0.40235505 0.00951201 -0.01725467 -0.16207315 0.31193137 0.014954241
0.038280472 -0.0028323755 0.004633814 0.03940399 -0.07712125 -0.05395934 -0.021044752 0.117012486
0.008942314 0.0014970761 -0.05312287 -0.098309055 -0.21056178 0.03251438 -0.15603793 -0.23028074
-0.074080646 -0.05656598 0.07523986 -0.10221566 -0.105054595 0.0022368291 -0.1924308 -0.12980431
-0.15789801 -0.224529 0.022982528 0.14123905 0.021462796 -0.123387575 -0.14808689 -0.16125323
-0.25671425 -0.18194057 -0.49455535 -0.27383953 -0.07047548 0.10718833 -0.110633686 -0.14449337
0.060941465 -0.05913904 0.08387704 0.14739457 0.084223665 0.024077684 -0.006035236 0.060146887
0.17344677 -0.13567911 0.0818718 -0.15085772 0.045421556 0.0793954 -0.24262676 -0.13143447
0.14633067 0.23437952 0.2272152 0.056830037 0.084202014 -0.02773456 -0.0024909195 0.14930657
0.03065098 0.016795814 -0.09663506 -0.0767682 0.10084658 -0.11347285 -0.0723899 -0.0108955065
-0.05229724 0.046344265 -0.076805286 -0.009387066 0.025474869 0.017235387 -0.00090400514 0.0026217028
0.07990484 0.107904844 0.0041568144 -0.053843245 -0.09465442 -0.011717822 -0.068325944 0.020291347
0.13219617 -0.11351707 -0.02962761 0.05898666 -0.045597035 -0.32179755 -0.27173468 0.068107024
0.022520328 0.0002415271 -0.11184009 -0.09230085 -0.047822565 -0.04838051 0.18281706 -0.12546876
-0.085434996 -0.11665792 -0.012565158 0.061968118 0.00387913 -0.06194945 0.026545838 -0.01661301

encoder_conv2.bias f4 [12]
00000000: 35ba 013d f6a6 543e 971f e13e 706c ebbb
00000010: 4cde c93e a2c5 1f3e f650 17bb e1d1 c43e
00000020: bd6f 943d 9676 333e 6cca 2d3e 089a 473f
0.03167172 0.20766816 0.43969414 -0.0071845576 0.39427412 0.15602735 -0.0023089028 0.38441375
0.07247875 0.17525706 0.16971749 0.7796941

encoder_conv3.weight f4 [6, 12, 5]
00000000: 4bb0 75bc 9b0c 32ba 0251 b0bc a728 973c
00000010: a26c 89bb 213f 45bb 3840 343b 109b a7bd
00000020: 2226 75bc 573a 47bc 1f59 13b7 d5b0 043a
00000030: dfa4 6d3c d9c1 2e3c 2e86 003c ed7b b7bb
00000040: daf4 15bd d31a 733f 7ed6 f83b 0347 62ba
00000050: 4738 e93b 4b51 ddbc 8808 42bd 6bec da3c
00000060: 57dd bfbb bfef 823c fc30 b43c 4ced 713c
00000070: 6e5c babc e912 9fba 5643 3d3b 0d01 d8bb
00000080: cacb af3b 59c9 0ebd b361 b1bc c940 8cba
00000090: 7428 743c 3590 8b3d 356b 0c3c 6f82 d53a
000000a0: d8e9 323c 82ce ca3b d7f1 593c 95f4 d0bb
000000b0: eaca 5a3c c8d0 353b 6170 02bc cd8c 37bc
000000c0: e403 3fbc 789e f03c 16c6 9dbb 4944 82bc
000000d0: d46b 8a3e 3678 163b 16c4 dfba 8cfd 233d
000000e0: 5563 b3bb 8fde 71bd 8501 f43c 6d4d a33c
000000f0: d440 38bd 9bca 013c f21a 693d 26e7 2aba
00000100: 02f6 8cbb d9d8 6cbd 8545 adbd 4a0b 89bc
00000110: 48a9 94ba 0b37 843d 50a0 e0bc e547 a13c
00000120: e1c2 883f 6d9f c73b 5caa 75bc 7c67 973c
00000130: 0b2b 333d b34e 27bd 24b8 debc 057f d5bb
00000140: 641d 66bd aecb 21bd 5766 a1bc 3d38 81bc
00000150: 693b 6abd 9d2c 6c3c 3d9f 59bb 3c26 35bd
00000160: e90a 233e 573b f03c 4038 f23c e4aa ce3a
00000170: b9b1 5b3d ae12 243d 5db2 253d 26f9 d4bc
00000180: 991f c73c 2fb0 273e e74a cbbc b508 d8bc
00000190: 9f72 c73b dd92 fb3c 59ff e2bd 51d9 5bbd
000001a0: e5b3 9dbc 3de9 193c fb6a 2dbd d5ed 21bd
000001b0: 0545 5bbd 3850 4bbd 41b1 74bd a88f 8d3b
000001c0: b1a1 843c 08ec 323d de59 a8bb 09cf dd3c
000001d0: f078 d7bb 84be 01bd 9b8c 6cbc 0c3b 433c
000001e0: 0056 89bd 5c46 a03d bde1 e9bd 5d08 bf3c
000001f0: 16f3 8fbd 274a b7ba 11ed d1be 13a9 1e3d
00000200: 745e d9bd f209 a83c 537a 70bd e2e8 903f
00000210: ddf8 9ebe 506d 7bbc b8df 4d3c 40e3 d33b
00000220: 21ae edbd fbd5 19bc 710a 853e 7925 113b
00000230: 5922 0dbc d34b eabc 5209 28bd 2671 0ebe
00000240: ade8 43bd 2dcd 913b 484d 563d 87a7 1fbc
00000250: 2905 b13d 2b1e 5b3d 6092 fe3c 0cef 333e
00000260: bf9f 563c 15ae 763d b95c a43d 208d acbc
00000270: f009 86be 6c8c 01bd fd6b 89bc d59d 87be
00000280: da45 eeb9 1575 353e 82f5 2bbd c455 293d
00000290: 41be cc3e e8eb 2dbc 1e48 83be 0aca dc3b
000002a0: 5d22 42be 2ab1 dcbe fbfb 91bc 6693 05bc
000002b0: e2cd cbbc 640f 0c3e eb67 31bd a92b 8e3d
000002c0: 4477 8a3d c716 59bd ac61 6fbd e8b6 62bc
000002d0: 5c86 fabb d6bf c03c 39ae d1bd 784c 533e
000002e0: 2436 0ebd 1fd4 a939 e009 7ebc 5f4f 3cbe
000002f0: fde1 39bc 8bdf 593d c950 b9bb 1f6c 38bb
00000300: a0e4 55bd 7edd 143b 1c52 88bd baff 213c
00000310: e9f4 ec3c 143b c93c 1068 2dbd d9da 393c
00000320: 38b7 453c 969f 04bc faa8 37bc 3215 cebd
00000330: 6898 1fbd 0cf9 913c 1424 87bc 49cc d13d
00000340: 6ec9 06bd 654a e4b9 d57a 1f3d 32ec 043c
00000350: 92a1 cf3d 20ae a93d 9e1e 1c3d bfaa 4abc
00000360: 262d 753b d94f 39bb bc5c 203d c21a c4bc
00000370: f6af 4bbc 7f12 9f3c 88aa c5bd 98ab 8fbd
00000380: 293c 13bd 7c82 b7bb 4c83 f9bc b7c9 8cbc
00000390: 69fa 633f e108 af3a 447f d0bc ce4d 3d3d
000003a0: 1b91 79bd 9dbb 073c 6b08 b5bc adf2 0abb
000003b0: 6621 05bd f193 9d3d 1e2f afbc 6a90 90bb
000003c0: 98a9 cbbc 76a4 bbbb 6902 553f 12dd a1bc
000003d0: 6e5e 54bc 93d6 71bc b71e 1dbd bb89 493c
000003e0: ee5f 0cbd f689 5c3d ba16 f23b 9349 fb3b
000003f0: 2fcb 45bd db1d c93b 0e0d 6abc 7d10 d23b
-0.014995645 -0.00067920395 -0.021523003 0.018452002 -0.0041938582 -0.0030097442 0.0027504098 -0.08183873
-0.014962705 -0.012159905 -8.782633e-06 0.00050617504 0.01450464 0.010666334 0.007844491 -0.00559949
-0.03661046 0.94962806 0.007593929 -0.00086317974 0.0071173045 -0.027016303 -0.047371417 0.026724061
-0.005855243 0.01598346 0.021996014 0.014766049 -0.022749152 -0.0012136373 0.0028879247 -0.006591922
0.0053648697 -0.03485999 -0.021653032 -0.001070046 0.014902223 0.06814615 0.008570482 0.0016289483
0.0109200105 0.0061891684 0.013302288 -0.0063768127 0.013354043 0.0027742852 -0.0079613635 -0.011203003
-0.011658642 0.029372439 -0.0048148734 -0.015901702 0.2703539 0.0022959835 -0.0017071988 0.040036723
-0.005474488 -0.05905014 0.02978588 0.01993438 -0.0449837 0.00792184 0.056910463 -0.0006519429
-0.0043017874 -0.05782399 -0.084605254 -0.016729016 -0.0011341954 0.06455811 -0.027420193 0.019687602
1.0684472 0.006092003 -0.01499423 0.018481962 0.04374222 -0.040846538 -0.027187414 -0.006515386
-0.056180373 -0.039500885 -0.01970212 -0.015773887 -0.057185564 0.0144149335 -0.0033206486 -0.044225916
0.1592213 0.02932517 0.029567838 0.0015767482 0.053636286 0.040056877 0.040453304 -0.02599771
0.02430706 0.16375802 -0.02481599 -0.02637134 0.006086662 0.030709678 -0.1108386 -0.053674046
-0.01925082 0.009393987 -0.042338353 -0.039533455 -0.05353262 -0.04963705 -0.059739355 0.0043201037
0.016190382 0.04368213 -0.005137666 0.027076261 -0.006575696 -0.03167583 -0.01443782 0.011915933
-0.06705856 0.0782592 -0.11420009 0.023319418 -0.07028787 -0.0013983891 -0.4100118 0.03873546
-0.10613719 0.020512555 -0.058710407 1.132107 -0.31049243 -0.015345886 0.012565546 0.0064662993
-0.11605478 -0.009389396 0.2598453 0.002214758 -0.008614146 -0.028600609 -0.041024514 -0.1391035
-0.04782932 0.0044495077 0.052319795 -0.0097445315 0.08643562 0.053495567 0.031075656 0.17571658
0.01309961 0.06022461 0.08025498 -0.021063387 -0.26179457 -0.031628057 -0.016775126 -0.26487604
-0.0004544694 0.17720445 -0.04198218 0.041341558 0.39988902 -0.010615326 -0.2564096 0.006737952
-0.18958421 -0.43103915 -0.017820349 -0.008152818 -0.024878446 0.13677746 -0.043311995 0.06941921
0.06761029 -0.053000238 -0.058442757 -0.013837554 -0.0076454114 0.023528975 -0.102383085 0.2063464
-0.0347196 0.00032392234 -0.015505284 -0.18389653 -0.011345384 0.053191703 -0.0056553823 -0.0028140617
-0.052219987 0.0022715027 -0.06656286 0.00988763 0.028925376 0.024564303 -0.04233557 0.011343681
0.012067609 -0.008094689 -0.011209721 -0.100626364 -0.038963705 0.01781895 -0.016496696 0.102440424
-0.032906942 -0.00043542977 0.0389355 0.008112954 0.10138239 0.08285165 0.038115136 -0.012369811
0.0037410944 -0.0028276353 0.03915094 -0.02393854 -0.012432089 0.019418 -0.09651667 -0.07015151
-0.035946045 -0.0056002717 -0.030458115 -0.017186029 0.8905397 0.0013354087 -0.02545131 0.04621678
-0.0609294 0.008284477 -0.02209874 -0.0021201775 -0.032502554 0.07694233 -0.021384772 -0.0044117467
-0.024861142 -0.0057263924 0.832068 -0.019758735 -0.012961967 -0.014760631 -0.03835937 0.012300904
-0.034271173 0.053842507 0.007387963 0.007668683 -0.048289474 0.0061375923 -0.014285339 0.006410657

encoder_conv3.bias f4 [6]
00000000: d0ae bfba 14ad 913e 2353 893f b86c ab3e
00000010: d8b6 d03e f5f6 a33f
-0.0014624242 0.2845236 1.0728496 0.33481383 0.407645 1.280974

deconv1.weight f4 [6, 12, 5]
00000000: e046 263a 8704 02bb 37f1 923c bc55 82bb
00000010: 859a 1cbc fe23 133c a257 533c ef10 d73c
00000020: 5ee9 ab3b ae78 fb3b b3e5 ea3b f544 e5bb
00000030: b5df 2e3e db61 d8bc ce8b 623b f3e1 b23c
00000040: 35c2 c6bb f116 f83e 04de 9d3b ff96 723b
00000050: 2a3d c63c 2755 e33b 5aab ea3d ffa2 bc3c
00000060: 9516 9a3b 2321 30bb 4988 163c 8371 733c
00000070: 1eab e13b f936 acba 565d d2bb 607f 443c
00000080: c050 d83e 8965 ad3c 34ff 11bc 07da 3c3c
00000090: b3fc 55bc b5a1 533d a221 a1bc 602f d33b
000000a0: 33d4 503c bc51 17bc 567f d73e d860 b4bc
000000b0: b4ff 4e3c 0f7a 9f3c a63b 74bc 69f2 583d
000000c0: e674 f2bc 2fd7 7cbb 43d9 f03c bec6 0b38
000000d0: 534c acbe 7973 07bc 2da2 b73b 4a25 92bc
000000e0: 96e4 0fbd 8b35 73bc bb88 043d 273d cb3c
000000f0: aab9 243b 1cd2 5cbc c05a 59bd b59d 953b
00000100: ec5f ac3b 1301 093c b3d3 e93d 4a9e ca3e
00000110: 72de df3c 533c 443c 9259 8f3c 7107 9c3c
00000120: f0a5 d53c 3f18 1d3b c6e9 64bc 7352 673d
00000130: 7c20 66be 9ab5 903e 7b0d 99bd 4485 b6bc
00000140: 8f88 5c3d cbbd 733c f5bf 63be 7e47 d9bb
00000150: 3f83 033d b4a7 5bbc de38 643d 6bca 8c3d
00000160: 839d 543c 5d04 70bc e0a8 c4bb d1f4 9b3d
00000170: e2c5 283e ca90 c73b b588 a6bc d81f 813a
00000180: 28f2 68bd 0251 97be f0ee 123a 7b17 85bc
00000190: d010 c73b b0b6 6b3a 1820 793e 66a2 51bc
000001a0: 4fe3 0b3d de84 903d c291 c4bd bea6 47bd
000001b0: a55f 64bc 2606 173c a77b 743d bfeb 863c
000001c0: f290 b63e 23d5 37bb 2eb1 183b b3b6 bcbe
000001d0: 16ed dfbe c7f3 10bc 66ed 30bd c798 a4bc
000001e0: 23d0 813a 150d 0d3d ba4b 33bc 0eff adbc
000001f0: d176 c93c bade 9d3b e9b1 e13e a844 76bc
00000200: 3c8d 7c3b 31b3 1e3d bfce d53b 7888 38bd
00000210: bdc7 bb3c 4bbb f43c 152e 20bd eb1a 273d
00000220: 4f6b 1bbf 3d0e 163d 6f7a 30bd f3d6 06be
00000230: 4485 443d 8b05 8fbd 2fcc 853b ccc9 0c3d
00000240: 081e 503e 2c24 afbb 34ec a73d 6eaa 1f3d
00000250: ecde dd3c f3be 543b 49fa afbb 8ec6 9a3d
00000260: bb8a a2bb 6f98 523d c780 44bc 4e62 083b
00000270: efe6 c2bc c8dd bcb9 870a 2dbd 6790 00bc
00000280: 2094 153c 8477 553e 364a 9d3c 529c 443a
00000290: d758 1a3e 0217 543d 331c 02be 07d5 553c
000002a0: e736 38bd cef6 cebc 0b2f 413d 5c93 2c3e
000002b0: 3dae ca3c 1ec2 36bd f3d2 953d 52db 4bbe
000002c0: 755d 3dbe 24b0 1abd 6af9 0bbd c385 523c
000002d0: 45a2 03bb b1a3 15bc 2838 babc 304d d63d
000002e0: 86cb b9bc b330 bf3b ce1d 683d ea53 9e3c
000002f0: 02f6 1d3d da93 52bc cf61 1a3c c88f f63b
00000300: b239 7c3c 48d0 2e3f 5916 c83c e7e3 043d
00000310: 1576 0fbe 84dd 3d3d 96d7 62be 7b76 973c
00000320: 42a9 163d bd76 3a3c 5ec5 5a3d 94c6 98be
00000330: 8ea2 983c 39fd 43bc 08f3 e63c 68f3 b6bb
00000340: 9e75 1d3e be6a 1c3d 3f19 b3bb 1c35 293d
00000350: a69e 18ba d401 b53b f628 093a 50b4 0f3b
00000360: 7009 09bd 545e 0c3c 9a25 2f3e af4c b6bc
00000370: 1ae1 5c3c 76a6 d93b f754 ad3a 22ca 83bd
00000380: 410f 413d 2bf3 213d 42ac 47bd f0a8 cd3d
00000390: ccb8 81bd 345c 3a3c 7a64 123d 4ff3 e73b
000003a0: f5f7 133e 3ebc 9e3d a89d 213d 00cc 83be
000003b0: 7b9b a1be 7d25 93be 4cfb bdbe daca 9ebd
000003c0: 1ad2 f7bb 98b2 a3bb f130 6cbe 8680 9bbb
000003d0: b15b 88bc 7ac1 d63b a55c 243d b484 d5bc
000003e0: 85b7 bb3c e674 a0ba 75ec 1a3c 27bd 3e3c
000003f0: 522a 0c3e b520 c53c aa5a 4a3c e85c 123d
0.00063429587 -0.0019839124 0.017937286 -0.0039775055 -0.009558325 0.008980749 0.012899311 0.026253192
0.0052463254 0.0076742982 0.0071684956 -0.0069967457 0.17077525 -0.026413849 0.0034568193 0.021836257
-0.0060656318 0.48455003 0.004817726 0.003701627 0.024199087 0.006937641 0.11458464 0.023026941
0.004702399 -0.002687522 0.009187766 0.014858606 0.006886854 -0.0013138942 -0.006419818 0.011993259
0.42249107 0.02116658 -0.008910943 0.011526591 -0.0130607365 0.051667888 -0.019669358 0.0064448565
0.012745905 -0.009235796 0.42089337 -0.022018835 0.012634207 0.019467382 -0.014906799 0.052965555
-0.029596757 -0.0038580408 0.029400473 3.3325276e-05 -0.3365198 -0.008267277 0.0056040497 -0.017840046
-0.035130106 -0.014844309 0.03235696 0.024809433 0.0025135078 -0.013477828 -0.05306506 0.0045659193
0.005260458 0.0083620725 0.114173315 0.3957389 0.02732775 0.011977273 0.017498765 0.019046517
0.026080102 0.002397075 -0.013971752 0.056475114 -0.2247333 0.2826355 -0.07473274 -0.022280343
0.05384117 0.014876793 -0.22241195 -0.006630837 0.032107588 -0.013406683 0.055718295 0.06874546
0.012977007 -0.014649478 -0.006001577 0.076150544 0.16481736 0.0060902582 -0.020328859 0.0009851409
-0.056871563 -0.29553992 0.00056050625 -0.016246548 0.0060750023 0.0008991761 0.24328649 -0.012795066
0.034152325 0.070565924 -0.095981136 -0.048743002 -0.013938819 0.0092177745 0.059688237 0.016469834
0.3565746 -0.0028050623 0.0023298967 -0.36858138 -0.4373557 -0.008847184 -0.04319515 -0.020092381
0.0009903949 0.034436304 -0.010943348 -0.021239784 0.024592789 0.004817811 0.44081047 -0.015031017
0.003853633 0.03874511 0.00652489 -0.04505202 0.022922391 0.029874464 -0.039106447 0.040797155
-0.60710615 0.036634672 -0.04308551 -0.13167934 0.047978655 -0.06983479 0.0040831785 0.034372136
0.20323956 -0.005344888 0.08199349 0.038980894 0.027083836 0.0032462447 -0.0053704125 0.075574026
-0.0049603856 0.051414903 -0.011993594 0.0020810547 -0.023791758 -0.00036023394 -0.042246368 -0.007846928
0.009129554 0.20846373 0.019200426 0.00075001 0.15072952 0.051779754 -0.1270607 0.013051278
-0.044974234 -0.02526417 0.047164004 0.16853088 0.024741286 -0.04461872 0.07315626 -0.19907883
-0.18492682 -0.037765637 -0.034173407 0.012849274 -0.0020085734 -0.009133265 -0.022731856 0.10463941
-0.022680055 0.005834663 0.05666905 0.019327123 0.03856469 -0.012852633 0.009422733 0.0075244643
0.015394615 0.6828656 0.024424719 0.032443907 -0.14009888 0.046353832 -0.22152552 0.018489113
0.03678251 0.0113808485 0.05341088 -0.29839003 0.0186322 -0.011962228 0.028192058 -0.0055832155
0.15376899 0.038187735 -0.005465656 0.041310415 -0.00058219803 0.0055238996 0.0005232239 0.0021927543
-0.033456266 0.008567411 0.17104188 -0.022253362 0.013481403 0.006642158 0.0013224174 -0.06435038
0.047133688 0.039538544 -0.048748262 0.10041988 -0.06334075 0.011374522 0.035740353 0.007078565
0.14450057 0.07750748 0.039456993 -0.25741577 -0.31563935 -0.2873954 -0.37105787 -0.077535346
-0.007562888 -0.0049956553 -0.23065545 -0.004745546 -0.016645284 0.006553826 0.040127415 -0.026064254
0.022914657 -0.001224187 0.00945579 0.011641777 0.13688019 0.024063447 0.012350718 0.035733134

deconv1.bias f4 [12]
00000000: f33e a23e 0ebf d53d 2926 00bc 6b5e abbc
00000010: ddca 923e 345f 5f3d f553 b2bd 706b 013e
00000020: 19a2 b0bd a4c5 683e 3d60 8dbd 14e4 29bf
0.3168865 0.104368314 -0.007821598 -0.020919045 0.28670397 0.054534152 -0.0870742 0.1263864
-0.08624668 0.22731644 -0.069031216 -0.66363645

deconv2.weight f4 [12, 24, 5]
00000000: f971 91be 82fb 263e c373 09bf 65d4 af3c
00000010: 8cd4 d8bd 5564 cdbc 22ce 82bd 5324 7bbf
00000020: ce17 f3bc 3fb6 0dbd 6a15 cf3e da6b a9bd
00000030: 0ba1 75bd 36f4 e9bd 8346 8ebd 5607 c23c
00000040: 8c53 aabd 2f3e df3d 95aa 9dbc a53c c63d
00000050: 29ec 99bb c9c1 9a3d 9cf9 2a3e 06d1 7bbd
00000060: 509c eebe e3f2 453e 3177 fe3d 781c f83e
00000070: a483 003e 7958 30bd d2bb 4f3d 6f06 283d
00000080: d139 b1be 08ef 983d b29b 85bd d6bd e8bb
00000090: 64fd ce3c e482 04bf 9b39 c0bd b386 913a
000000a0: b8d0 0c3e f384 e2bc 9a58 093d 87f3 1dbd
000000b0: 4aa9 90be efd9 613e 988f d0be c3de 523d
000000c0: 3c8e 033e db4f 9dbd 50df 3e3e 8677 67be
000000d0: 4bec 663e b0b4 5f3e 18cd e33d 674a 2a3e
000000e0: dadb 243e 6198 e3be 9528 203e 8785 c63c
000000f0: e6e6 8e3d af5d 6fbc a000 b6be 9c57 06bc
00000100: b3ac 243e 4e8f 2e3c f03e d5bd cf22 843d
00000110: f1c6 803d 0135 733d d8f1 e43d c67c 2a3e
00000120: 1b2d 923d ddd2 363d 480e 8ebc 8a59 ed3c
00000130: 6a43 cfbd 3b13 d13d a946 a3bd 46ec 62bd
00000140: 215b a83d 88bd 50bf 1dc5 0cbe 81da 0ebd
00000150: d074 45bd c3c2 64bd 3084 babd 7b23 563e
00000160: fae7 013d 15ef 95be 52c9 7ebd afe7 083e
00000170: 8fad 9b3d b444 d93b d5dd 2bbe c8b3 3d3a
00000180: e185 3b3e fb6c 473d 9720 5abb 3f1b 59bd
00000190: 8ab6 093e 60de a3be d606 3abf c0d8 dbbe
000001a0: 7427 6abc 7c1a 09be 2695 2b3e 522d 06be
000001b0: 97cd 363e 3a4b 463d 07b7 fdbd e998 f83c
000001c0: 2250 853e 1138 31bd f4d7 95be 737c 4c3e
000001d0: 77ff 28bd 4d01 b8bf a230 513e c4b0 123e
000001e0: eb8e e0bd 4100 51be 2865 04be 210b fb3d
000001f0: 53c4 2abe 8935 0f3e d82c 4e3d 3ccd 9a3e
00000200: 18ad 81be 41bd a53d 061c bcbd f67f 2cbd
00000210: 8f5c 3b3b d01a 46ba fdc7 5bbd ed7a e33d
00000220: 26a7 2c3f acb4 d1bb be03 3cbd afcd 0f3e
00000230: b795 bcbb 2b8a 583e 7abd 7abc da4f 7a3d
00000240: 1c84 473e c9f3 d83c 8856 97be cca3 08be
00000250: 9d82 f1bb 9b26 34bd 8256 9a3d 5df5 a43d
00000260: 6577 b23d 4205 833c 6804 163e 2a54 153e
00000270: 5fcb 00be 255e c03c 51e2 ca3b 0ead 393e
00000280: 9099 eebc 319a 49bd a352 a8bb bc85 003d
00000290: 65b0 2c3e ab71 2bbd f2f0 513e f92d 543e
000002a0: 6fd3 70bd 1369 06be d40b a6bc 4cbc 5cbe
000002b0: 68dc 8c3d c876 3dbe 10e4 e4bc d24d 7a3e
000002c0: d25a 693e 97b0 4c3e a3a8 babd ddc0 07be
000002d0: a21e 283a cf12 bd3d a7ce 1a3e e8ee ff3d
000002e0: 9def 8fbd 1261 ecbd 0ba3 23be 8efd 36be
000002f0: 5fa1 e2bd 61ee 6abd 4981 aabe dba6 443e
00000300: 82dc cebc d305 28bd 236d bfbc cb6f 8b3d
00000310: 1f3a 24ba 0f50 7a3e 8823 2b3e be19 a9bd
00000320: b782 1bbd 40bf 6bbe 8db6 ebbd 6f8a 9fbc
00000330: 1fbe abb9 1ad4 ed3d ffbd a9bd 361a ba3d
00000340: a8b5 83be 67b0 8c3d 467b 1b3e f23e 2ebe
00000350: 3b3c 83be fa05 9c3d 2290 8d3d b78b d6bd
00000360: 02aa 9f3e ce40 9fbd 3eaa 9abd 9ef3 90bc
00000370: 3e04 af3c 4806 93be 042d 383e df7f c93c
00000380: 09e1 5d3d 5e3f 35bd e4dd 14be 6c0f 143d
00000390: 17ee 8ebd 862b 233e 7693 a63e 31b8 a4be
000003a0: 79d3 dc3c b72b 8bbd 459e 8d3e bbaf 85bc
000003b0: aac8 42bd d0fa 553e d075 81bd 89ae 9dbc
000003c0: 907d b4be d987 633d a8a0 0abe 1e4d 253e
000003d0: a249 ce3c 99d7 ff3d 4185 79bd 4203 4f3e
000003e0: ab44 913d 56a4 5c3d ee85 ed3d 165d e9bc
000003f0: 61e0 d1bc 6dd4 873d 2fa8 4ebd 2480 2b3e
-0.28407267 0.1630688 -0.53692263 0.021463582 -0.10587415 -0.025072256 -0.06386973 -0.981023
-0.029674437 -0.03459763 0.40446025 -0.08272524 -0.059968036 -0.11423533 -0.06947043 0.023685139
-0.083167166 0.109005325 -0.019246379 0.09679536 -0.004697342 0.07556493 0.16696781 -0.061478637
-0.46603632 0.19330935 0.12425078 0.4845922 0.12550217 -0.043053124 0.05071623 0.04102176
-0.34614423 0.074674666 -0.06523837 -0.0071027083 0.02526731 -0.51762223 -0.09385987 0.0011102766
0.13751495 -0.027651286 0.033531763 -0.038562324 -0.28254157 0.22055791 -0.40734553 0.051481973
0.12847227 -0.07681247 0.18639874 -0.22604188 0.22551076 0.2184627 0.11123103 0.16629945
0.16099492 -0.44452193 0.15640481 0.024233593 0.06977634 -0.014609738 -0.35547352 -0.008199599
0.16081505 0.010654284 -0.10412395 0.06451952 0.06287945 0.05937672 0.111789405 0.1664916
0.071375094 0.04463469 -0.017340794 0.02897336 -0.1012028 0.10208746 -0.07972462 -0.05540111
0.082205065 -0.815392 -0.13747068 -0.03487635 -0.048207104 -0.0558498 -0.09107244 0.20911972
0.03171537 -0.29283968 -0.062203713 0.1336963 0.07601463 0.0066305045 -0.16783841 0.00072365673
0.1831279 0.048687916 -0.0033283585 -0.0530045 0.1344854 -0.32005596 -0.7266668 -0.42938805
-0.014291633 -0.13389009 0.16756114 -0.13103226 0.17851864 0.048411585 -0.12388425 0.03034635
0.260377 -0.04326636 -0.29266322 0.19969349 -0.041259255 -1.4375397 0.20428708 0.14325243
-0.109647594 -0.20410253 -0.12929213 0.12257982 -0.16676454 0.13985266 0.050335735 0.30234706
-0.25327373 0.08092738 -0.091850325 -0.04211422 0.0028589105 -0.0007557096 -0.05365752 0.111074306
0.6744255 -0.0063997116 -0.045902006 0.14043306 -0.005755152 0.21146457 -0.015303964 0.06111131
0.1948399 0.026483433 -0.29558206 -0.13343734 -0.0073703066 -0.04398213 0.07536031 0.08054612
0.08714179 0.015993718 0.14650118 0.14582887 -0.1257758 0.023482392 0.00619153 0.18132421
-0.029125959 -0.049219314 -0.005136804 0.03137754 0.16864164 -0.04185645 0.2050207 0.20720662
-0.05879539 -0.1312602 -0.020269312 -0.21556205 0.06877977 -0.18502343 -0.02794078 0.24443749
0.22788551 0.19989239 -0.09114196 -0.13257165 0.0006413256 0.09232103 0.15117894 0.124967396
-0.070281245 -0.11541952 -0.15980165 -0.17870161 -0.11065935 -0.057356242 -0.33301762 0.19204275
-0.02525163 -0.04102118 -0.02336747 0.06808432 -0.0006264764 0.24444602 0.16712773 -0.08256863
-0.037966456 -0.23022175 -0.11509428 -0.01947519 -0.00032757313 0.11612721 -0.08288192 0.090870306
-0.2572453 0.068695836 0.15183744 -0.17016199 -0.2563189 0.076183274 0.06912257 -0.10475867
0.31184393 -0.077760324 -0.07552002 -0.01769429 0.021364328 -0.2871573 0.17985922 0.024597107
0.05416969 -0.044249885 -0.1453777 0.03614752 -0.06979006 0.15934572 0.3253438 -0.32171777
0.026956307 -0.06795447 0.27659813 -0.016319146 -0.04755465 0.20896459 -0.06321299 -0.019248264
-0.35252047 0.055549476 -0.13537848 0.16142699 0.025181595 0.12492294 -0.060918096 0.20216087
0.070931755 0.05386766 0.11597811 -0.02848677 -0.025619688 0.06632314 -0.05045336 0.167481

deconv2.bias f4 [24]
00000000: e4bc a8bc 142d 5bbd f7bb 4ebd 0e14 ac3d
00000010: 2f93 443d 6b72 143e 7ac5 e13d 4a98 2fbc
00000020: 18d9 c03b 6b43 aa3c f4b5 6b3e 5ad2 cd3c
00000030: dc16 3a3d 5a81 a43d 3c42 063d 964a 23be
00000040: ca13 ab3d a8d8 253e b1d6 d33c 3813 81bd
00000050: 4bb3 0e3d cd31 2c3c df1f a6bd dac9 98bd
-0.020597883 -0.053509787 -0.050472226 0.08402263 0.047991928 0.14496772 0.11023994 -0.010717461
0.0058852546 0.0207841 0.23018628 0.025124718 0.045431957 0.08032484 0.03277801 -0.15946421
0.08353384 0.16195929 0.025859209 -0.06302494 0.034838956 0.01050992 -0.08111548 -0.07460375

deconv3.weight f4 [24, 1, 5]
00000000: 505e e63d 62ae bbbe 3426 dabe ff8f fabe
00000010: bb65 3dbd a523 1d3f 9d27 a53d 09f5 b43b
00000020: ac92 33bd a843 9bbc 644c ed3d b5b4 083e
00000030: 1a97 be3d 155a 9c3e 2d00 1e3b 9bdb fb3c
00000040: f30d 263c 8fe8 d83e e54d d73e 3d68 883c
00000050: cae6 8b3e 5b3d 22be 39d6 a33e 5795 9f3e
00000060: 9be8 83be f027 8f3e 9044 743e 9dc5 cebe
00000070: bf6e 97be a987 80be de70 b93d 282c 9f3e
00000080: 287a f83b 527b 0a3e 015e b93d 3bed 5ebc
00000090: 8c20 073f 26ef 58be 5972 0a3d 176b 5cbe
000000a0: 918e ed3d 2c4d 953e 5ebe cc3e 166f c43e
000000b0: 7161 8e3e 3d88 4cbe a0e3 b3be b3b2 b33d
000000c0: 4b79 a63e 8caa d03e c2e2 99be acad bcbe
000000d0: 1da9 e3be 5680 debe 9061 06be ac0b ed3e
000000e0: 462a 8f3e 7f24 323f 6c7c a93e 49df 353e
000000f0: e8b0 713d 4b47 403e 3276 ecbd 88fb 363e
00000100: f0db c63e f50b 5e3e 0391 db3d 3f69 a73e
00000110: 6542 47be 5032 adbd 1cd6 c5be d35a 8f3e
00000120: b333 e43e fb93 53bd 4b6f 63be 437f 06be
00000130: 37b7 b63d 6ceb 733e c58e 663e f5f1 b63e
00000140: b827 663f 51a9 cc3e 4f2d b4bd 4ec9 0cbe
00000150: 6748 bfbd 8361 0abc b5cf c23e a34c 9bbe
00000160: 1965 d0be d013 25bd f273 ba3d db83 a4be
00000170: c2fe 0fbe 655e 99be 6b59 11be cfb2 9fbd
00000180: 9a9d eebe 57ed 2c3e bd7c 063f 959b 6b3e
00000190: cb1d f9bb 8919 db3e a1b2 c83e 949a a4bc
000001a0: d5ef 78bd 90d7 143c 8edd 14be 816f d2be
000001b0: 963c bcbe 74bc 1bbc 51b5 90bd 4616 17be
000001c0: 1436 073f 51ac e53e b0d7 943c 9f1e c0be
000001d0: 389d 34bf 5c0f 333e bc4c 953d 0f6a a53c
0.112484574 -0.3665648 -0.42607272 -0.48937985 -0.046239596 0.61382514 0.08064196 0.0055223745
-0.04384105 -0.01895316 0.11586836 0.13350184 0.09306164 0.30537477 0.0024108991 0.030744364
0.010135162 0.42364928 0.42051616 0.016651267 0.27324516 -0.15843718 0.31999376 0.31168625
-0.257634 0.27960157 0.2385428 -0.40385142 -0.2957668 -0.251035 0.09054731 0.31088376
0.0075829215 0.13523605 0.09051133 -0.013606365 0.5278404 -0.21184978 0.033800457 -0.21525227
0.11599458 0.2916044 0.3998899 0.38366002 0.27808717 -0.19973846 -0.35134602 0.087743185
0.32514414 0.40755117 -0.30055815 -0.3685125 -0.4446496 -0.43457288 -0.13123155 0.46297967
0.2796194 0.6958694 0.3310274 0.17760958 0.0590066 0.18777196 -0.115459815 0.17869389
0.38839674 0.21684249 0.10721018 0.32697484 -0.19458921 -0.08456862 -0.38639915 0.2799898
0.44570693 -0.051654797 -0.22210424 -0.13134484 0.08921664 0.23820275 0.225154 0.35731474
0.89904356 0.39972928 -0.087977044 -0.13748667 -0.093399815 -0.0084461 0.38049093 -0.30331907
-0.4070213 -0.040302098 0.09104146 -0.32131848 -0.14062026 -0.2995483 -0.14194266 -0.07797777
-0.46604615 0.16887413 0.52534086 0.23008569 -0.0076024286 0.4279292 0.39198783 -0.02009324
-0.060775597 0.009084597 -0.14537641 -0.41100696 -0.36764973 -0.00950538 -0.07065833 -0.1475459
0.5281689 0.4485803 0.018169254 -0.37523362 -0.70552397 0.17486328 0.072900265 0.020192174
