models/Quant2/SNN_Autoencoder_tsri_quant8_noBias.pth (torch, 24405 bytes, 6 tensors)

encoder_conv1.weight f4 [24, 1, 5]
0	0x3e9423a0	0.2893343
1	0xbea777af	-0.327085
2	0xbec153e0	-0.37759304
3	0xbe167a90	-0.14695191
4	0x3e01a828	0.12661803
5	0xbe097fc6	-0.13427648
6	0xbe0bb124	-0.13641793
7	0x3d8185e0	0.06324363
8	0x3eb6763e	0.35637087
9	0x3d8ff128	0.07028419
10	0xbe8bbc5f	-0.27292153
11	0x3e531e48	0.2061702
12	0x3ec9725a	0.39345056
13	0xbe8972cd	-0.268454
14	0x3d901b78	0.07036489
15	0xbe095f8c	-0.13415354
16	0x3d801780	0.06254482
17	0x3d3882b0	0.04504651
18	0x3d771fd0	0.060333073
19	0xbeaf4b28	-0.34237027
20	0x3e57476c	0.21023339
21	0xbec7fce5	-0.3906013
22	0xbe2d578a	-0.16927925
23	0x3ea45b74	0.32101023
24	0x3eb5b02a	0.35485965
25	0xbe277db2	-0.16356543
26	0xbeafa148	-0.34302735
27	0xbec6820c	-0.38771093
28	0xbcb30290	-0.021851808
29	0x3e300044	0.17187601
30	0xbda77d14	-0.08178154
31	0x3cab2970	0.020893782
32	0xbeb1013a	-0.34571248
33	0x3e124584	0.1428433
34	0x3eb4641a	0.3523262
35	0x3e8e310c	0.27771795
36	0xbe5ac0f0	-0.21362662
37	0x3e66fb1c	0.22556728
38	0x3e4279e8	0.18991816
39	0xbdc52af4	-0.09627333
40	0xbe83b613	-0.2572485
41	0xbeb95a1e	-0.36201566
42	0x3cc270c0	0.023735404
43	0xbcefc700	-0.029269695
44	0x3ed43d38	0.41452956
45	0xbeca34c4	-0.39493382
46	0xbd8e1070	-0.06936729
47	0xbe9d687b	-0.30743775
48	0x3ea05af4	0.31319392
49	0xbdf2a628	-0.11848098
50	0xbed8be6b	-0.42332777
51	0x3ead1e0c	0.33811986
52	0xbe712c08	-0.23551953
53	0xbdde8e64	-0.108670026
54	0x3e3201f4	0.17383558
55	0xbe20f24a	-0.15717426
56	0x3ebc1a52	0.3673883
57	0x3e4a0c50	0.1973126
58	0xbe9a47bb	-0.3013285
59	0xbea4c3b4	-0.3218056
60	0x3d3a0a40	0.04541993
61	0x3e8fb300	0.28066254
62	0xbe66bbe0	-0.22532606
63	0xbe8b89cd	-0.2725357
64	0x3e9cb8dc	0.30609787
65	0xbd81efec	-0.063445896
66	0xbd3a3af8	-0.045466393
67	0x38f23000	0.000115484
68	0xbe8916b8	-0.26775146
69	0x3e14596c	0.14487237
70	0xbede1837	-0.4337785
71	0x3eaddbbc	0.33956707
72	0x3e63be48	0.22240555
73	0x3e4359ac	0.19077176
74	0x3eca90da	0.39563638
75	0xbeb15ea3	-0.34642515
76	0x3d5b4f60	0.053542495
77	0x3d1e0498	0.0385786
78	0xbe3a613e	-0.18201157
79	0x3e72c048	0.23706162
80	0x3dc17d88	0.09447771
81	0xbdfa429c	-0.12219736
82	0xbd604eb8	-0.054762572
83	0x3e8cef46	0.275263
84	0xbb45c880	-0.0030179322
85	0x3ebef4f2	0.37296253
86	0x3e187d18	0.1489147
87	0xbe87e0e7	-0.26538774
88	0x3dd73bd8	0.10509461
89	0xbebb103a	-0.36535817
90	0x3e9371cc	0.28797758
91	0xbeb79b07	-0.35860464
92	0x3e5c8abc	0.21537298
93	0xbd6033a0	-0.054736733
94	0xbe72d7ce	-0.23715135
95	0x3d125f58	0.035735458
96	0xbda57b2c	-0.08080134
97	0x3ea67242	0.32509047
98	0xbd8fb680	-0.07017231
99	0xbe6994bc	-0.22810644
100	0xbe3e0564	-0.18556744
101	0x3ecf3dca	0.4047683
102	0x3e326700	0.17422104
103	0xbe09792e	-0.13425133
104	0xbd80a050	-0.06280577
105	0xbe2cabce	-0.16862413
106	0x3c40a040	0.011756957
107	0xbd48baf8	-0.049006432
108	0x3a6bd200	0.0008995831
109	0xbe5ed780	-0.21761894
110	0xbe9d4a3b	-0.30720696
111	0x3b9c8bc0	0.0047774017
112	0x3e3f0e0c	0.18657702
113	0xbe12ef06	-0.14348993
114	0xbe937ead	-0.28807583
115	0xbd8016a0	-0.062543154
116	0xbdaa9740	-0.0832963
117	0x3d754cd0	0.059887707
118	0xbeda6b5c	-0.42660034
119	0xbe97bfde	-0.2963857

encoder_conv2.weight f4 [12, 24, 5]
0	0xbd8bc6f3	-0.06825056
1	0xbd8d5065	-0.069001
2	0x3d93379c	0.07188341
3	0xbd8c723e	-0.068577275
4	0x3d057f34	0.032592013
5	0xba8d9680	-0.0010802299
6	0x3db565b2	0.088572875
7	0xbda42301	-0.08014489
8	0x3c868bb8	0.016424045
9	0xbd4f1885	-0.050560493
10	0x3c4cc9f0	0.0124993175
11	0xbdb61613	-0.08890929
12	0xbd733275	-0.05937429
13	0x3d0ca6f4	0.034338906
14	0x3d172f24	0.03691019
15	0x3d8bb10e	0.0682088
16	0x3d2d76cc	0.04234962
17	0x3da5900a	0.08084114
18	0x3cbe7ba4	0.023252316
19	0xbd826f08	-0.06368834
20	0x3d816e26	0.06319837
21	0x3dba8aea	0.09108527
22	0x3da75262	0.0817001
23	0xba59d380	-0.0008309409
24	0x3cdc339c	0.026880078
25	0xbd8041ec	-0.062625736
26	0x3d47f47c	0.048817143
27	0x3b704280	0.003666073
28	0xbd82dfa8	-0.06390315
29	0xbd45d45b	-0.04829822
30	0x3d707254	0.05870278
31	0x3da57012	0.08078016
32	0xbcdc2f68	-0.026878074
33	0xbd4ab076	-0.049484693
34	0xbb6c5c00	-0.0036065578
35	0x3d44cba0	0.048045754
36	0xbb813fa0	-0.0039443523
37	0xbd8d773e	-0.06907509
38	0x3b9478c0	0.004530996
39	0xbbce23a0	-0.006290868
40	0x3a8ca8c0	0.0010731444
41	0x3b371560	0.0027936324
42	0xbcf0759a	-0.029352952
43	0x3d96fefc	0.07372853
44	0x3d407a94	0.0469919
45	0x3d34a200	0.044099808
46	0x3d9b46f6	0.07581894
47	0xbc931338	-0.0179535
48	0xbd617a58	-0.055048317
49	0x3da3628a	0.07977779
50	0xbd968d96	-0.07351224
51	0x3d0d4d44	0.034497514
52	0xbda6adad	-0.08138595
53	0x3cfaf4cc	0.030634306
54	0xbdb69996	-0.08916013
55	0x3b19c5c0	0.0023463815
56	0x3ccb69f4	0.024830796
57	0xbd11ff4c	-0.03564386
58	0x3ad21e40	0.0016030744
59	0xbda973bd	-0.082740285
60	0xbd94e452	-0.07270111
61	0x3d45334c	0.048144624
62	0x3cd9e4a8	0.02659829
63	0x3d8cc074	0.06872645
64	0xbd63e56f	-0.055638727
65	0xbd7f7520	-0.06236756
66	0x3c5a86c0	0.013337791
67	0xbccf9d1c	-0.02534347
68	0x3cd077fc	0.025447838
69	0xbc84d240	-0.016213536
70	0xbd0aa5ea	-0.033849634
71	0x3d74373c	0.059622988
72	0x3d416398	0.04721412
73	0xbdae6840	-0.08515978
74	0xbd800fb6	-0.062529966
75	0x3c9cd2fc	0.019143574
76	0xbda8b3cc	-0.082374185
77	0x3ba366b0	0.0049866065
78	0xbd12af90	-0.03581196
79	0x3c9f17e4	0.019420572
80	0x3c708298	0.0146795735
81	0xbb8172b0	-0.0039504394
82	0x36d78000	6.4224005e-06
83	0x3b555660	0.0032552704
84	0x3bf52940	0.007481724
85	0x3cce718c	0.025200628
86	0xbcda1ff8	-0.026626572
87	0xbdaab42b	-0.083351456
88	0xbc680498	-0.0141612515
89	0x3d232b74	0.039836362
90	0x3d6b3b1c	0.057429418
91	0xbd633124	-0.055466786
92	0x3d8758c6	0.06608729
93	0xbd079ea0	-0.03311026
94	0xbd3cf57a	-0.046132542
95	0xbc614b78	-0.013750903
96	0xbd96d2b4	-0.07364407
97	0xbd230b1e	-0.039805524
98	0x3db9cd04	0.09072307
99	0xbd970362	-0.07373692
100	0x3da19bac	0.0789102
101	0x3d40ed40	0.04710126
102	0xbd5590de	-0.05214011
103	0xbc799898	-0.015234135
104	0x3d7cc730	0.061713398
105	0xbcf8c78e	-0.030368593
106	0xbd88daaf	-0.066823356
107	0x3cd440e8	0.025909856
108	0xbcb0b158	-0.02156894
109	0x3d4d1a88	0.05007413
110	0xbd882481	-0.066475876
111	0x3ca2ca74	0.019871928
112	0x3d99b75a	0.07505675
113	0xbd3aa6ad	-0.04556911
114	0x3c2855a0	0.010274321
115	0xbb34cec0	-0.0027589053
116	0x3d94bbe6	0.07262401
117	0xbdb1ce8d	-0.086819746
118	0xbdaf4431	-0.08557928
119	0x3db38a20	0.0876658
120	0x3c7a0b30	0.015261456
121	0xbcfa90a2	-0.030586544
122	0x3d29b77c	0.04143475
123	0xbd180384	-0.037112728
124	0x3b5ed980	0.0034004152
125	0x3d8a5114	0.06753746
126	0xb9c97400	-0.00038424134
127	0x3d9d4690	0.07679474
128	0xbd93d1d5	-0.07217757
129	0x3d118f08	0.035536796
130	0x3d7b22f0	0.061312616
131	0xbdb79f74	-0.0896596
132	0x3d813694	0.06309238
133	0x3d24cb20	0.040232778
134	0x3da109dc	0.07863209
135	0x3d8cc99a	0.0687439
136	0xbb41f6c0	-0.0029596537
137	0x3a799500	0.0009520799
138	0xbd6a06ab	-0.057135265
139	0xba7f8b80	-0.0009748265
140	0xbd37c9d6	-0.04487022
141	0xbd9c4f10	-0.076322675
142	0xba5cc200	-0.0008421242
143	0x3d96ff00	0.07372856
144	0xbd48a1d9	-0.048982475
145	0x3cdbff4c	0.026855133
146	0x3d9c6780	0.076369286
147	0x3c9f9a0c	0.019482635
148	0x3d5a9864	0.053367987
149	0x3dacd46a	0.08438952
150	0xbda6a737	-0.081373625
151	0x3c5c03b0	0.013428614
152	0xbdb7888c	-0.08961591
153	0x3d9a6942	0.075396076
154	0x3caea864	0.02132053
155	0xbd6bb7b3	-0.057548236
156	0xbc9b9544	-0.018992074
157	0x3cb1eae0	0.021718442
158	0x3d0c24dc	0.03421484
159	0xbd9dd417	-0.077064686
160	0xbb7e7320	-0.0038825944
161	0x3cb9ee8c	0.022696756
162	0x3c6dcc28	0.014514007
163	0x3c2d0bc0	0.010561883
164	0x3c56bdc8	0.013106771
165	0xbd716cdd	-0.05894171
166	0xbda8b0d9	-0.08236856
167	0xbd012bad	-0.031535793
168	0x3bfc6100	0.007701993
169	0x3d2a070c	0.041510627
170	0x3d44b5f8	0.0480251
171	0x3cf01668	0.02930756
172	0x3d7b5564	0.06136073
173	0xbd4a7ffa	-0.049438454
174	0x3bd64c60	0.0065398663
175	0xbd73a480	-0.05948305
176	0x3b992f60	0.004674837
177	0xbcac585c	-0.021038227
178	0xbda9c5c6	-0.082896754
179	0xbd94b2d8	-0.07260674
180	0x3c52ace8	0.012858607
181	0x3d6ef488	0.058338672
182	0xbd738316	-0.059451185
183	0xbd5ec32f	-0.05438536
184	0x3d849940	0.064745426
185	0xbd90f4da	-0.07077952
186	0xbd9f0777	-0.07765096
187	0xbd89dc3e	-0.06731461
188	0xbdb32ee5	-0.08749179
189	0x3cdcf3dc	0.02697175
190	0x3d66d784	0.056357875
191	0xbdb00187	-0.08594041
192	0xbd84e809	-0.0648957
193	0xbda35174	-0.0797452
194	0x3c0156d8	0.00789424
195	0x3d512cc0	0.051068068
196	0x3d702f7c	0.058639035
197	0xbd2937f8	-0.04131314
198	0xbc142cd0	-0.009043887
199	0xbd166827	-0.03672042
200	0x3db67466	0.0890892
201	0xbd7bea24	-0.06150259
202	0x3daec8c2	0.08534385
203	0xbc5d2ed0	-0.0134999305
204	0xbd1bc7c8	-0.038032323
205	0xbdb5fe93	-0.08886447
206	0xbd7ae3d7	-0.06125244
207	0xbdac85bc	-0.08423945
208	0x3c7c7428	0.015408553
209	0x3db36ab6	0.08760588
210	0xbcc4d620	-0.024027884
211	0xbd5fd4e8	-0.054646403
212	0xbd96e074	-0.0736703
213	0x3d361ca4	0.044460908
214	0xbcc72274	-0.02430842
215	0x3d8b942c	0.06815371
216	0xbd82617e	-0.063662514
217	0x3cb4a3b0	0.022050709
218	0xbcb8fa10	-0.022580177
219	0xbcbf89ac	-0.023381077
220	0x3d777288	0.06041196
221	0xbd2ff87e	-0.04296159
222	0xbd68a286	-0.05679562
223	0xbd1d1ece	-0.038359456
224	0xbdb941c7	-0.09045749
225	0x3d6edf9c	0.05831872
226	0xbd61eab0	-0.055155456
227	0x3ce0adbc	0.027426593
228	0xbd09f9c5	-0.033685464
229	0x3c60bb18	0.013716482
230	0xbc0672c8	-0.008206077
231	0xbce5f464	-0.028070636
232	0x3d385f58	0.045012802
233	0x3d851536	0.06498186
234	0x3d943686	0.07236962
235	0xbd0c193a	-0.034203745
236	0x3d55eb04	0.05222608
237	0x3db1a9ea	0.08674987
238	0x3cba9268	0.02277489
239	0xbd1a480e	-0.037666373
240	0xbd02508f	-0.031815108
241	0x3d8c598e	0.06853019
242	0x3d9d32c6	0.076757
243	0x3c9e96d0	0.019359022
244	0x3d3f7608	0.046743423
245	0x3ccf58cc	0.025310896
246	0x3c1d43c0	0.009598672
247	0x3c848e34	0.016181089
248	0x3da9e606	0.082958266
249	0x3cb7f6a4	0.022456475
250	0xbd901e8a	-0.07037075
251	0xbdaab906	-0.08336072
252	0xbd2dd14d	-0.042435933
253	0x3cf5f14c	0.030022286
254	0x3cbfe3c8	0.023424044
255	0xbbdbe1a0	-0.006710246

encoder_conv3.weight f4 [6, 12, 5]
0	0xbd4e24de	-0.050328128
1	0x3d90e024	0.070740014
2	0xbd376de8	-0.04478255
3	0xbd96ff47	-0.07372909
4	0x3baefbc0	0.0053400695
5	0x3df236b6	0.118268415
6	0xbdf7a7f2	-0.1209258
7	0x3ddefbe2	0.108878866
8	0x3d6d70c4	0.05796887
9	0x3dfb12ea	0.12259467
10	0x3ce6bb98	0.028165624
11	0x3ca08248	0.019593373
12	0x3d0f9090	0.035049975
13	0x3d9c8530	0.07642591
14	0xbddf570c	-0.10905275
15	0xbdfcc799	-0.12342758
16	0x3c804fc8	0.015663043
17	0xbcc9b2c8	-0.024621382
18	0x3dc9b450	0.09848845
19	0xbd4e49da	-0.0503634
20	0x3ddb78be	0.10716389
21	0xbd7740c8	-0.060364515
22	0x3da4bd9e	0.08043979
23	0x3d1323f4	0.03592296
24	0x3de1db9c	0.11028215
25	0x3cb263f0	0.02177617
26	0xbde5ae5e	-0.112148985
27	0xbd002628	-0.03128639
28	0xbd25a052	-0.040436096
29	0x3c8759d0	0.016522318
30	0xbc86bab8	-0.016446456
31	0xbc8851e0	-0.016640604
32	0xbd2c1472	-0.042011686
33	0xbc95dfa4	-0.018295117
34	0xbdcc6d8f	-0.09981834
35	0xbcd0e0fc	-0.025497906
36	0x3db16626	0.086620614
37	0xbab88680	-0.001407817
38	0x3e009f2b	0.12560718
39	0x3d376640	0.044775248
40	0x3d15a768	0.036536604
41	0x3db2c678	0.08729261
42	0x3b13f880	0.0022578537
43	0x3a3b0f00	0.0007135719
44	0xbd1d74de	-0.03844153
45	0x3ccde9a8	0.02513583
46	0x3cd57468	0.026056483
47	0xbdc2dcfa	-0.09514804
48	0xbdb043a3	-0.08606651
49	0x3d0a9648	0.033834726
50	0xbd1ff258	-0.039049476
51	0x3d92f968	0.07176477
52	0x3d9752a2	0.07388808
53	0xbe02a87d	-0.12759586
54	0x3d50451c	0.050847158
55	0xbd9876e4	-0.074445516
56	0xbdc1b8a6	-0.09459047
57	0xbdc3124e	-0.09524976
58	0xbdca32bc	-0.09872958
59	0x3c867658	0.016413853
60	0xbd89b72a	-0.06724389
61	0x3d7a4428	0.061100155
62	0xbd721a08	-0.059106857
63	0xbdad072a	-0.08448632
64	0x3d105438	0.035236567
65	0xbdbcd4bf	-0.092202656
66	0x3dad3b82	0.08458616
67	0x3d1bc194	0.038026407
68	0xbd812992	-0.06306757
69	0x3dc4a6d0	0.096021295
70	0xbd52e7d8	-0.051490635
71	0x3dd3c1ea	0.103397205
72	0x3b613b00	0.0034367442
73	0x3e042e25	0.12908228
74	0xbd828f44	-0.06374982
75	0x3dc87782	0.09788419
76	0xbd9787c2	-0.073989406
77	0xbc9f2870	-0.019428462
78	0x3d935048	0.07193047
79	0x3dd8bc82	0.1058283
80	0x3d87aec4	0.06625131
81	0x3dfba81e	0.12287925
82	0x3ce37778	0.027766928
83	0x3da59d30	0.08086622
84	0xbcfc224c	-0.030778073
85	0x3c45c9d0	0.012072042
86	0xbd8ef24a	-0.06979807
87	0xbd7ccda6	-0.06171956
88	0xbd914616	-0.07093446
89	0xbdae8624	-0.08521679
90	0x3dd4c4dc	0.103891104
91	0x3d938bda	0.07204409
92	0xbdd125c8	-0.10212284
93	0xbd987b92	-0.07445444
94	0xba802180	-0.0009775609
95	0x3d2ec4a4	0.042668
96	0xbd2462ee	-0.04013341
97	0x3de3a1e6	0.11114864
98	0xbd1454b6	-0.0362136
99	0xbd9f9e70	-0.077938914
100	0xbd2028fc	-0.039101586
101	0xbc2b9a88	-0.010473855
102	0xba9de380	-0.001204595
103	0xbd40db26	-0.047083996
104	0xbdc329a6	-0.09529428
105	0x3ccc6880	0.024952173
106	0x3de756f8	0.11295885
107	0x3d93dab4	0.07219449
108	0xbddc8832	-0.10768165
109	0xbdca3c3c	-0.0987477
110	0x3dc6d154	0.09707895
111	0x3dd82c3c	0.10555312
112	0x3d2ada84	0.0417123
113	0x3e0350d1	0.12823798
114	0x3d148c30	0.036266506
115	0x3df29724	0.11845234
116	0x3d2bf154	0.041978195
117	0x3d3c5420	0.045978665
118	0x3c87dcc8	0.016584769
119	0x3d6211bc	0.055192694
120	0x3dbd9ec6	0.09258799
121	0x3dbdfa4e	0.092762575
122	0xbe00b421	-0.12568714
123	0x3d4b8228	0.049684674
124	0xbad1cc80	-0.001600638
125	0xbd990e96	-0.07473485
126	0x3dc5bb24	0.09654835
127	0xbd7fb40c	-0.062427565
128	0x3a7df600	0.0009687841
129	0x3d884930	0.066545844
130	0x3dc9256a	0.09821589
131	0x3d466fdc	0.04844652
132	0xbd197cd2	-0.037472554
133	0xbd97f522	-0.07419802
134	0x3daca376	0.08429615
135	0x3c546e00	0.012965679
136	0x3da9acc6	0.08284907
137	0x3dcea536	0.10090105
138	0xbd0eab22	-0.034831174
139	0xbdecd236	-0.11563532
140	0xbda659e6	-0.081226155
141	0xbd1440b8	-0.036194533
142	0x3d196894	0.03745325
143	0x3cf2b730	0.029628366
144	0xbdcd6d5a	-0.10030623
145	0x3d184a5c	0.03718029
146	0x3d0b0d98	0.03394851
147	0xbca617e0	-0.020275056
148	0xbda062a4	-0.07831314
149	0x3da84e6e	0.08218084
150	0xbdbe2be0	-0.09285712
151	0xbd90b996	-0.07066648
152	0xbd47ba56	-0.04876169
153	0xbddcf3e1	-0.10788704
154	0x3dec1bfe	0.115287766
155	0xbd2dd584	-0.042439952
156	0x3c469a70	0.012121782
157	0xbde975fe	-0.11399458
158	0x3dda8746	0.106703326
159	0x3d687488	0.056751758
160	0xbd46e81c	-0.0485612
161	0x3d2a9b2c	0.04165189
162	0xbd0ff6e0	-0.035147548
163	0x3da12058	0.07867497
164	0xbde38ba8	-0.11110622
165	0xbc53f0a0	-0.012935787
166	0x3d923c42	0.071403995
167	0x3cd20968	0.02563925
168	0x3da34c96	0.07973592
169	0x3df68be0	0.12038398
170	0xbdd17a39	-0.1022839
171	0x3ce16728	0.027515009
172	0x3c7a9530	0.015294358
173	0xbdea39c5	-0.114368
174	0xbda015b3	-0.07816639
175	0x3a973600	0.0011536479
176	0x3d5f9950	0.05458957
177	0x3c9e5e38	0.019332036
178	0xbca25b58	-0.019818947
179	0x3c75b150	0.014995888
180	0x3dc7dc18	0.097587764
181	0xbdfea12a	-0.12433083
182	0xbdf6a141	-0.120424755
183	0xbdc667fe	-0.09687804
184	0x3d2f8758	0.042853683
185	0xbd22da74	-0.039759114
186	0xbde20222	-0.11035563
187	0x3d5397f0	0.05165857
188	0xbd58dab6	-0.052942954
189	0xbd462148	-0.048371583
190	0xbc06dce0	-0.008231372
191	0x3db4f8f2	0.08836545
192	0x3d3094a4	0.043110505
193	0xbd968cfc	-0.073511094
194	0xbdad697e	-0.08467387
195	0xbc6639e8	-0.014051892
196	0xbc8c7fc8	-0.017150775
197	0xbd8c86fb	-0.06861683
198	0xbddf2acc	-0.10896835
199	0x3d94b066	0.07260208
200	0xbd86e68c	-0.06586942
201	0xbb0a64c0	-0.002111718
202	0xbda7382e	-0.08165012
203	0x3c498bc0	0.012301385
204	0x3df57548	0.1198526
205	0xbd5e8bd8	-0.054332584
206	0xbde68cd8	-0.112573326
207	0x3ce5ccc0	0.028051734
208	0xbd8f3536	-0.06992571
209	0x3cb840d0	0.022491843
210	0x3d566ce4	0.05234994
211	0xbdd792f6	-0.105260774
212	0x3df23418	0.11826342
213	0xbc3ca730	-0.01151447
214	0xbde8a87b	-0.1136026
215	0xbd94ce78	-0.07265943
216	0x3df34168	0.118777096
217	0xbd83aa5d	-0.064289786
218	0x3df48cb2	0.11940898
219	0xbc693418	-0.0142336115
220	0xbdab1f76	-0.0835561
221	0xbe0211c9	-0.12702097
222	0x3db5fc98	0.08886069
223	0xbdeec726	-0.11659078
224	0xbd65b332	-0.056079097
225	0xbd305d0c	-0.043057486
226	0x3da88d74	0.08230105
227	0xbde9b0ea	-0.11410697
228	0xbdff0b8b	-0.124533735
229	0xbcac2f34	-0.021018602
230	0x3cf631c8	0.030053034
231	0x3d22e80c	0.03977208
232	0x3c100a40	0.008791506
233	0xbd9b8cfc	-0.0759525
234	0xbb592080	-0.0033130944
235	0x3e029775	0.12753089
236	0x3cd3d1f0	0.025856942
237	0xbdf0fc3a	-0.117668584
238	0x3df22bb6	0.118247434
239	0xbd4930a4	-0.049118653
240	0x3d391d18	0.04519376
241	0x3dfbd37a	0.12296195
242	0x3d1904ac	0.03735797
243	0xbd59f858	-0.053215355
244	0xbdc6c435	-0.09705392
245	0xbc7fe068	-0.015617467
246	0xbdeb133f	-0.1147828
247	0xbde8050e	-0.11329089
248	0xbd978b45	-0.073996104
249	0x3dc87662	0.09788205
250	0xbd5a6b54	-0.053325012
251	0x3d4f4f5c	0.050612792
252	0x3dbf9938	0.09355396
253	0xbda083fe	-0.078376755
254	0x3d8ce786	0.06880097
255	0x3cdafe40	0.026732564

decoder.0.weight f4 [6, 12, 5]
0	0xbd674632	-0.056463428
1	0x3ccac1e0	0.02475065
2	0xbd8d93ba	-0.06912942
3	0x3ca689a0	0.020329297
4	0x3cd4c1c0	0.025971293
5	0xbd1de9d8	-0.03855309
6	0x3c8c7b68	0.017148688
7	0x3dba8c80	0.091088295
8	0x3dd39ab6	0.10332243
9	0xbd718b96	-0.05897101
10	0xbdb3bb86	-0.08776002
11	0x3dbc5ecc	0.091977686
12	0xbd9c4a10	-0.07631314
13	0xbc4cfe28	-0.012511767
14	0x3ce1c968	0.027561858
15	0x3d1bfbb4	0.03808184
16	0xbd25152c	-0.040303394
17	0x3d5d2c14	0.053997114
18	0x3dac3a6a	0.08409579
19	0xbdefec6c	-0.11715016
20	0x3c6d7990	0.014494315
21	0xbdb9e915	-0.0907766
22	0x3d51c548	0.051213533
23	0x3ca1d918	0.019756839
24	0x3e03af2f	0.12859796
25	0x3d3cee78	0.04612586
26	0xbd8b5a3a	-0.06804319
27	0x3cca1130	0.024666399
28	0xbd9fc6ff	-0.07801627
29	0x3d58e078	0.052948445
30	0x3dd33ea6	0.103146836
31	0xbd5f8816	-0.05457314
32	0xbb857560	-0.00407283
33	0xbbce8c50	-0.0063033476
34	0xbdf24dd8	-0.11831254
35	0x3d9449ba	0.07240625
36	0x3dacfa66	0.08446197
37	0x3d101e54	0.035185173
38	0x3d5f5914	0.05452831
39	0x3d12201c	0.035675153
40	0xbc5461e8	-0.012962796
41	0x3dfea832	0.124344245
42	0xbd6fd40c	-0.058551833
43	0x3d78c8f0	0.060738504
44	0xbdc8d4b5	-0.09806196
45	0xbd6d569a	-0.057943918
46	0x3d1a6998	0.03769836
47	0x3d82b2ac	0.06381735
48	0xbd652a70	-0.055948675
49	0x3d8d1dd2	0.068904534
50	0xbda962e0	-0.08270812
51	0x3d05e37c	0.03268765
52	0x3d1e3f34	0.038634494
53	0x3de04228	0.10950118
54	0xbde6bf42	-0.11266948
55	0x3d87d602	0.066326156
56	0xbd8dbd9e	-0.06920932
57	0xbd35fe22	-0.044431813
58	0x3db75e6e	0.08953558
59	0x3cae3888	0.02126719
60	0xbdfcb4d2	-0.12339176
61	0xbdc93112	-0.098238125
62	0x3c9f5688	0.019450441
63	0x3c9a7ca8	0.018858269
64	0x3deebcd6	0.11657111
65	0x3c4bb2e0	0.012432784
66	0xbd1a6a72	-0.03769917
67	0x3d485274	0.04890676
68	0xbda2eda4	-0.079554826
69	0x3de16506	0.11005597
70	0xbdb5c1e6	-0.08874874
71	0x3d094da0	0.033521295
72	0xbda433d2	-0.080176964
73	0xbc285140	-0.010273278
74	0x3dfa041e	0.122078165
75	0x3d964b4a	0.07338579
76	0xbbfaef00	-0.0076578856
77	0x3d998f1e	0.074980006
78	0x3dc13016	0.09433
79	0x3dcecccc	0.10097656
80	0xbdfb05b3	-0.122569464
81	0xbd262dea	-0.04057113
82	0x3df6cdea	0.12050994
83	0xbc0d65c0	-0.008630216
84	0xbdaaa65b	-0.08332511
85	0x3dd8b9bc	0.10582301
86	0x3dcbdfb8	0.0995478
87	0xbd4c072a	-0.04981152
88	0x3ac6ca80	0.0015166551
89	0x3dbeb6b6	0.09312193
90	0x3d84e436	0.0648884
91	0xbd84e6a0	-0.06489301
92	0xbdf106b9	-0.1176886
93	0x3e000589	0.12502111
94	0xbc4b0720	-0.012391835
95	0xbd09c788	-0.033637553
96	0xbc9f42e4	-0.019441076
97	0x3dc9a4c4	0.0984588
98	0x3d891f60	0.066954374
99	0xbd0e67c8	-0.034766942
100	0xbdae1eda	-0.08501978
101	0xb96db000	-0.00022667646
102	0x3d5c7624	0.053823605
103	0xbdbc1d62	-0.09185292
104	0x3de7e692	0.11323275
105	0x3d2b35d8	0.041799396
106	0xbdf98b14	-0.1218473
107	0x3cd86d10	0.026419193
108	0xbc9b1344	-0.018930085
109	0x3d5e6e6c	0.054304525
110	0xbe037ed5	-0.12841351
111	0x3ad63e00	0.0016345382
112	0xbde95371	-0.11392868
113	0xbce8e894	-0.028431214
114	0x3d339efc	0.04385279
115	0xbde478de	-0.11155866
116	0xbdaac7fc	-0.08338925
117	0x3d2077c8	0.039176732
118	0x3ddad794	0.106856495
119	0xbde0155a	-0.109415725
120	0xbdbc3689	-0.09190089
121	0x3b8a02e0	0.0042117685
122	0x3df55c9e	0.11980556
123	0xbcfb5ce8	-0.03068395
124	0xbd8880a3	-0.066651605
125	0x3dc85c48	0.09783226
126	0xbcd0db48	-0.025495186
127	0x3c531290	0.012882844
128	0xbdbea000	-0.09307861
129	0xbd85169a	-0.064984515
130	0xbdf59acb	-0.11992415
131	0xbdda3dee	-0.106563434
132	0xbd8170a2	-0.06320311
133	0x3d88600e	0.06658946
134	0xbde0749f	-0.10959744
135	0xbcdf6648	-0.027270451
136	0x3d840ece	0.06448136
137	0x3bbe47e0	0.005806908
138	0x3d9f5eaa	0.077817276
139	0xbda86ab6	-0.082234785
140	0x3dfce1b2	0.123477355
141	0xbdc6a7e2	-0.0969999
142	0xbd657e76	-0.056028806
143	0xbdf77604	-0.120830566
144	0xbe03fd3e	-0.12889573
145	0xbd9c0142	-0.076174274
146	0xbcd5b80c	-0.026088737
147	0xbde42394	-0.111395985
148	0x3c85f618	0.016352698
149	0xb959e000	-0.00020778179
150	0xbdbafd04	-0.0913029
151	0xbdaf4dbc	-0.085597485
152	0xbd88617e	-0.0665922
153	0x3c7d5360	0.015461773
154	0x389c3800	7.4490905e-05
155	0x3cdc2618	0.026873633
156	0x3d8dfe28	0.06933242
157	0xbde71ffa	-0.11285396
158	0xbc4200f0	-0.011841044
159	0xbdb20cdc	-0.08693859
160	0x3d8fa324	0.070135385
161	0x3cc390e8	0.023872808
162	0xbd095e7a	-0.033537365
163	0x3da2c8c2	0.07948448
164	0xbdfb1bec	-0.12261185
165	0xbd3ba2b2	-0.045809455
166	0x3dbd15be	0.092326626
167	0x3dc5dbbc	0.09661052
168	0x3b994fa0	0.0046786815
169	0xbc071ea8	-0.008247055
170	0xbce93120	-0.028465807
171	0xbd531c66	-0.051540755
172	0xbca0321c	-0.019555144
173	0xbe035753	-0.1282628
174	0xbc0d9c18	-0.008643173
175	0x3df83b66	0.12120704
176	0x3dbffa7a	0.093739465
177	0xbdd2fd7d	-0.10302255
178	0x3cd9c1a0	0.026581585
179	0xbd47bdca	-0.04876498
180	0xbdd305bc	-0.10303828
181	0x3d4c4c50	0.049877465
182	0xbd8bdcd8	-0.06829232
183	0xbc8e50ac	-0.017372452
184	0x3d848178	0.06470007
185	0x3da185da	0.07886858
186	0x3d481d50	0.04885608
187	0x3dd2c0f2	0.10290708
188	0xbc9bc480	-0.019014597
189	0x3d560748	0.052253038
190	0x3d0f9eb0	0.035063446
191	0xbcffcdfc	-0.03122615
192	0xbdd92263	-0.10602262
193	0x3cdb5780	0.026775122
194	0x3d979620	0.07401681
195	0x3da91ac0	0.08257055
196	0xbd0c6cf8	-0.03428361
197	0xbc84f82c	-0.016231619
198	0xbd03e738	-0.03220293
199	0xbd0475f0	-0.032339036
200	0xbb255840	-0.0025229603
201	0x3d4bd7d0	0.04976636
202	0xbdb1ae1c	-0.08675787
203	0xbd6d8c80	-0.05799532
204	0xbcb3797c	-0.021908514
205	0x3d6e6714	0.05820377
206	0x3d6a64dc	0.057225093
207	0x3dacbb54	0.084341675
208	0x3d8f98b2	0.07011546
209	0x3c997240	0.018731236
210	0xba534400	-0.0008059144
211	0xbd9cc224	-0.07654217
212	0x3da17ea4	0.07885483
213	0xbc803d60	-0.015654266
214	0x3dcca006	0.099914595
215	0x3db272ce	0.087133035
216	0x3cb46e58	0.022025272
217	0x3dd6ade4	0.10482386
218	0xbd739646	-0.059469484
219	0xbc144638	-0.009049945
220	0x3db1f74e	0.08689748
221	0xbcee3b40	-0.029080987
222	0xbd3eee78	-0.04661414
223	0xbc7a37c8	-0.015272088
224	0x3d8d1fc0	0.068908215
225	0x3c2ee8f0	0.010675654
226	0xbc1f32d0	-0.0097167045
227	0xbd9c6bb8	-0.07637733
228	0xbca1ea10	-0.01976493
229	0xbdcec696	-0.10096471
230	0xbd09a3d2	-0.033603497
231	0xbded6a3c	-0.11592528
232	0x3db95336	0.09049074
233	0x3df0ca16	0.11757295
234	0xbd4e7248	-0.050401956
235	0xbce3a5d8	-0.027789041
236	0xbd78a6de	-0.060706012
237	0xbd61f59a	-0.055165865
238	0xbdd33868	-0.10313493
239	0xbdce593e	-0.10075615
240	0xbd7073ba	-0.058704115
241	0x3d9f7376	0.07785694
242	0xbd8cbbb4	-0.06871739
243	0x3c42a3a0	0.011879832
244	0x3de8fdaa	0.113765076
245	0xbd2fc36a	-0.04291097
246	0x3d3ab38c	0.045581385
247	0xbda9361a	-0.08262272
248	0xbe00f066	-0.12591705
249	0xbd1bbf0e	-0.038024
250	0x3d66d820	0.056358457
251	0x3da4ba88	0.080433905
252	0x3db69958	0.08915967
253	0xbdb744ff	-0.08948707
254	0xbd3f25b6	-0.046666823
255	0x3df8522e	0.121250495

decoder.2.weight f4 [12, 24, 5]
0	0xbdb310aa	-0.08743413
1	0xbc484ff8	-0.012226097
2	0xbd591bd1	-0.053005043
3	0x3ccf4430	0.025301069
4	0x3d6cf820	0.057853818
5	0x3afa74c0	0.001910828
6	0x3d9c3a30	0.07628286
7	0xbcc42c9c	-0.023947053
8	0x3d7dbef0	0.06194967
9	0xbd70af34	-0.058760837
10	0xbca69528	-0.020334795
11	0xbca0f278	-0.019646868
12	0x3dac3a04	0.08409503
13	0xbd3f74a5	-0.0467421
14	0xbcdbf3f0	-0.026849717
15	0x3c9fbec0	0.019500136
16	0xbce1ed78	-0.027579054
17	0x3d937e76	0.07201855
18	0x3d1346a8	0.035956055
19	0xbc3cb8d0	-0.011518672
20	0xbd3cf8c9	-0.046135698
21	0xbdaa2d23	-0.083093904
22	0x3db33fd2	0.08752407
23	0xbd75d06a	-0.060013212
24	0x3d77a5b8	0.060460776
25	0xbbfecda0	-0.0077759773
26	0xba357f00	-0.00069235265
27	0x3d5814e0	0.052754283
28	0x3d235370	0.039874494
29	0x3cb03ccc	0.021513365
30	0xbb7e0b80	-0.0038764179
31	0x3c1cf888	0.009580739
32	0xbda8ca38	-0.08241695
33	0xbd461b6c	-0.048365995
34	0xbd8d3f04	-0.06896785
35	0x3d9694ca	0.07352598
36	0xbd57065e	-0.052496307
37	0x3cf8d844	0.030376561
38	0x3c037118	0.008022569
39	0x3d0b442c	0.03400056
40	0x3d9be7d8	0.0761258
41	0x3ca79d0c	0.020460628
42	0xbcf3fad0	-0.029782683
43	0xbd8d4c87	-0.06899362
44	0x3d7aedac	0.061261818
45	0xbd20bf23	-0.039244782
46	0xbd1a0ed2	-0.03761179
47	0x3c853714	0.016261615
48	0xb9dca600	-0.0004208535
49	0xbd7aa238	-0.06118986
50	0x3d938990	0.07203972
51	0xbd762220	-0.060091138
52	0x3b509000	0.0031824112
53	0xbdab6b19	-0.08370037
54	0xbd0528b9	-0.03250954
55	0xbd7f1dfb	-0.06228445
56	0x3cdcff68	0.026977256
57	0xbd9c0e28	-0.076198876
58	0xbdba6041	-0.0910039
59	0x3d0deca8	0.03464952
60	0x3d39be90	0.04534775
61	0x3d93f626	0.072246835
62	0xbba73c00	-0.005103588
63	0xbd96c59c	-0.0736191
64	0x3d332ed8	0.043745846
65	0xbcac7398	-0.021051213
66	0xb96c3200	-0.0002252534
67	0x3c4c28e0	0.012460917
68	0xbd8a376d	-0.06748853
69	0x3d87bbbe	0.06627606
70	0xbc0937c8	-0.008375116
71	0xbd509ae4	-0.050928965
72	0xbc9fcfb8	-0.019508228
73	0xbd338efa	-0.043837525
74	0xbda1b058	-0.07894963
75	0xbd8ce3ea	-0.06879409
76	0xbd9b39bf	-0.075793736
77	0xbd82533c	-0.06363532
78	0xbdb71588	-0.08939654
79	0x3d860ff2	0.0654601
80	0x3d87986a	0.066208676
81	0xbc9a8a18	-0.018864676
82	0xbcd76704	-0.026294239
83	0x3c838f8c	0.01605966
84	0xbd7e9070	-0.062149465
85	0x3d529f78	0.051421613
86	0x3db39a3c	0.08769652
87	0x3db896f0	0.09013164
88	0xbd86f032	-0.06588782
89	0xb9efa400	-0.00045707822
90	0xbd64f49f	-0.05589735
91	0xbd207a0b	-0.03917889
92	0x3ce4bae4	0.027921148
93	0xbd79e0e8	-0.061005503
94	0x3d9c03da	0.07617922
95	0x3dafe6f0	0.0858897
96	0xbdbacf91	-0.091216214
97	0xbd657915	-0.056023676
98	0xbce5940c	-0.028024696
99	0xbca9fac0	-0.02074945
100	0x3d176df4	0.036970094
101	0x3d4c5d1c	0.049893484
102	0x3c36b440	0.011151373
103	0xbdaf654d	-0.085642435
104	0xbd617995	-0.05504759
105	0xbbda3150	-0.0066587105
106	0xbce47610	-0.027888328
107	0x3cdb435c	0.026765518
108	0xbdb239e0	-0.08702445
109	0x3b798d40	0.0038078576
110	0x3d97ce88	0.074124396
111	0xbd9c1632	-0.07621421
112	0xbd49b55d	-0.049245227
113	0xbcf8f628	-0.030390814
114	0xbc878948	-0.016544953
115	0x3d253258	0.040331215
116	0xbd5eb849	-0.054374967
117	0x3d79f03c	0.06102012
118	0x3d875b1c	0.066091746
119	0xbd98d1ca	-0.07461889
120	0x3db358dc	0.08757183
121	0xbd13bcb9	-0.03606865
122	0x3ca66a1c	0.020314269
123	0xb7f53000	-2.9228628e-05
124	0x3d2a0f0c	0.041518256
125	0x3c2f3bd8	0.01069542
126	0xbcbabb48	-0.02279438
127	0xbcb10104	-0.02160693
128	0xbda3a1a8	-0.07989818
129	0xbd8e3744	-0.06944135
130	0x3cdeca60	0.02719611
131	0x3c0236d8	0.007947646
132	0xbd365080	-0.044510365
133	0xbc0e2868	-0.008676626
134	0x3b933310	0.004492171
135	0xbd0e7dba	-0.03478787
136	0x3d4fb598	0.05071029
137	0x3d6febd8	0.058574528
138	0xbda7f2c5	-0.082006015
139	0x3d8c5572	0.06852235
140	0xbdb17267	-0.08664399
141	0xbcc5ec3c	-0.024160497
142	0x3ce5f378	0.028070197
143	0x3d8c6798	0.068556964
144	0x3d8f74c4	0.07004693
145	0x3d40ac00	0.047039032
146	0x3dab8694	0.08375278
147	0x3d364954	0.044503525
148	0xbd182632	-0.0371458
149	0x3dade5d6	0.08491103
150	0xbd25d400	-0.040485382
151	0xbc4edd28	-0.01262597
152	0xbc182548	-0.009286232
153	0xbd7359cb	-0.059411805
154	0x3da0dc36	0.07854502
155	0xbd75af96	-0.059981905
156	0xbd9173e0	-0.071021795
157	0xbd0a65de	-0.033788554
158	0x3daf6d1a	0.08565731
159	0x3db9a32a	0.09064324
160	0xbd86ab7a	-0.06575675
161	0x3cb324f4	0.021868207
162	0xbd844dbc	-0.06460139
163	0xbbb58580	-0.005539596
164	0x3d6d9fb4	0.058013633
165	0xbd7c6cc3	-0.06162716
166	0x3d31ed88	0.043439418
167	0xbd240ac1	-0.04004932
168	0x3d4ef798	0.050529093
169	0xbcb58dbc	-0.02216231
170	0xbb66f4a0	-0.0035241023
171	0x3d398a1c	0.045297727
172	0xbc8bd8a8	-0.017071083
173	0xbd74b521	-0.05974305
174	0x3d21ce9c	0.03950368
175	0xbd8c5bff	-0.06853484
176	0xbd9de49b	-0.07709619
177	0x3db737b8	0.089461744
178	0xbd6d4ca6	-0.057934426
179	0x3cd9b7c4	0.026576884
180	0xbb58e100	-0.0033093095
181	0x3d6e56fc	0.058188424
182	0xbd610135	-0.05493279
183	0xbd4e0c97	-0.050304975
184	0x3d015e14	0.03158386
185	0x3c76e350	0.015068844
186	0x3cf52e84	0.029929407
187	0x3d9fee0a	0.07809074
188	0xbd91d06c	-0.071198314
189	0xbd01d0a2	-0.03169311
190	0x3c5c4de8	0.013446309
191	0x3ce8adf4	0.02840326
192	0x3d423964	0.047418013
193	0xbc920de4	-0.01782889
194	0x3c759d60	0.014991134
195	0xbc4b6348	-0.012413807
196	0xbbdaa8e0	-0.0066729635
197	0xbdb3ddc0	-0.0878253
198	0x3c855634	0.016276456
199	0xbd7ac198	-0.06121978
200	0xbcfe4df0	-0.031043023
201	0xbc1c9d08	-0.009558924
202	0xbd2f6efd	-0.042830456
203	0x3d6b46f8	0.057440728
204	0xbd0e0044	-0.034668222
205	0xbcc20f48	-0.023688927
206	0x3cb0a1ac	0.021561466
207	0x3d5851d0	0.052812397
208	0x3db61adc	0.08891842
209	0xbd86d269	-0.06583101
210	0x3d15cea4	0.03657402
211	0x3bbdcb70	0.005792074
212	0x3d33085c	0.043709144
213	0xbceaecb8	-0.02867733
214	0x3d9e970a	0.07743652
215	0xbd2bd422	-0.041950352
216	0xbd5f8fa8	-0.05458036
217	0xbd08dc8e	-0.033413462
218	0xbd92b75e	-0.07163881
219	0xbc3bc388	-0.0114601925
220	0x3da37c38	0.07982677
221	0xbd541d91	-0.05178601
222	0xbdb8a110	-0.09015095
223	0x3cd7b290	0.026330262
224	0x3db4d932	0.08830489
225	0x3da5bed6	0.0809304
226	0xbd9cb9c1	-0.07652617
227	0xbd517fcb	-0.051147263
228	0xbda4df40	-0.08050394
229	0x3d5bf1e8	0.053697497
230	0xbcc71c18	-0.024305388
231	0x3d476cdc	0.0486878
232	0x3d6c5a5c	0.05770336
233	0x3d5d3fec	0.05401604
234	0xbd2279d5	-0.03966697
235	0xbd286c75	-0.041119058
236	0x3cdf4e6c	0.027259074
237	0x3db8d012	0.09024061
238	0xbbb85330	-0.005625151
239	0xbd79a87d	-0.0609517
240	0xbd6c9437	-0.057758536
241	0xbc316208	-0.010826595
242	0xbd91d67b	-0.07120987
243	0xbd123e89	-0.03570417
244	0xbb098100	-0.002098143
245	0xbbe268c0	-0.00690946
246	0x3d8fb228	0.070164025
247	0x3da8716e	0.0822476
248	0x3ceb8e50	0.028754383
249	0x3ca1f744	0.019771226
250	0x3d4318cc	0.04763107
251	0x3cf85730	0.030315012
252	0x3da66b3e	0.081259236
253	0x3d893c24	0.06700924
254	0x3d0e89b0	0.034799278
255	0x3d8785e6	0.06617336

decoder.4.weight f4 [24, 1, 5]
0	0x3e8ace0a	0.2711032
1	0xbdb22554	-0.08698526
2	0xbdcfecfc	-0.10152623
3	0x3eaa86ac	0.3330587
4	0x3e89e27c	0.26930606
5	0xbe376d4a	-0.17912784
6	0x3c22bee0	0.009933203
7	0x3e8f3e16	0.27977055
8	0xbd7a30c0	-0.061081648
9	0xbe929548	-0.28629518
10	0xbe8ca3ce	-0.27468723
11	0x3ea4615a	0.32105523
12	0x3e387010	0.18011498
13	0x3ed17c06	0.40914935
14	0xbeac5388	-0.3365748
15	0x3e1558d8	0.14584672
16	0xbda83c7c	-0.082146615
17	0xbe95b0f8	-0.2923658
18	0x3eb041e8	0.34425282
19	0x3ecbe02e	0.39819473
20	0xbe54bf12	-0.20776013
21	0x3cb140c0	0.02163732
22	0xbed25787	-0.41082403
23	0x3e93548a	0.28775436
24	0x3ea2d650	0.31804132
25	0xbecfaf90	-0.4056363
26	0x3ee428a8	0.44562268
27	0x3e5735d4	0.21016628
28	0x3ed338d0	0.41254282
29	0xbe4e4086	-0.20141801
30	0x3e497788	0.19674504
31	0xbc3934c0	-0.0113040805
32	0xbe136a54	-0.1439603
33	0x3e83df6c	0.25756395
34	0xbe88f5e0	-0.26750088
35	0x3eaa1e48	0.33226228
36	0x3cd10940	0.025517106
37	0xbe38bc6e	-0.1804063
38	0xbe0519dc	-0.12998146
39	0xbe052ab6	-0.13004574
40	0x3e211980	0.15732384
41	0x3c976fb0	0.018485874
42	0xbdd211f8	-0.102573335
43	0x3ebaeec4	0.3651029
44	0xbda5270c	-0.08064088
45	0x3e81acd6	0.25327176
46	0xbe300092	-0.17187718
47	0xbe7357e4	-0.23763996
48	0x3e8a3304	0.26992047
49	0xbe24cb3a	-0.1609315
50	0x3e5423f4	0.2071684
51	0xbe3933ba	-0.18086138
52	0x3cd58170	0.026062697
53	0x3e4525d4	0.19252712
54	0x3e022cb0	0.1271236
55	0xbdab6d3c	-0.08370444
56	0xbe997487	-0.29971716
57	0xbe8e9366	-0.2784683
58	0xbec66e42	-0.38755995
59	0x3c203fc0	0.009780824
60	0xbe5b2301	-0.21400072
61	0x3e9d63ce	0.30740207
62	0xbea380fe	-0.3193435
63	0xbea8bbb0	-0.32955694
64	0xbdaf1268	-0.085484326
65	0x3ebe512a	0.37171298
66	0xbe7d7e17	-0.2475513
67	0xbe85ac9c	-0.26108253
68	0xbeda6546	-0.4265539
69	0xbe8f30c2	-0.27966887
70	0x3ed486b8	0.41509032
71	0x3e4a759c	0.19771427
72	0xbdebc658	-0.115124404
73	0xbed4d728	-0.415704
74	0x3eddab2e	0.43294662
75	0xbe8406c1	-0.25786403
76	0x3d862348	0.06549698
77	0x3baf4bc0	0.0053496063
78	0xbe845d9e	-0.25852674
79	0xbeceedeb	-0.40415892
80	0xbecb5d7f	-0.3971977
81	0xbcc445b0	-0.02395901
82	0x3dc30ce8	0.09523946
83	0xbe5c6234	-0.21521837
84	0x3e99bb28	0.300256
85	0xbeded63e	-0.4352283
86	0x3e0a11a0	0.13483286
87	0xbebf4e85	-0.37364593
88	0xbe9a26ee	-0.30107826
89	0xbe52400b	-0.20532243
90	0x3e6fb97c	0.234106
91	0xbd9ad97c	-0.07561013
92	0x3e3e9f64	0.1861549
93	0x3e1205e8	0.14260066
94	0xbe92c1ce	-0.28663486
95	0xbeb73674	-0.35783732
96	0x3dad3560	0.08457446
97	0x3e41b5f0	0.1891706
98	0x3e34f2b0	0.17670703
99	0xbe3d1704	-0.18465811
100	0x3ec09486	0.37613314
101	0xbedc2968	-0.4300034
102	0x3ce5c7e0	0.02804941
103	0xbec9370c	-0.3929981
104	0xbddf45f4	-0.109020144
105	0x3cda6d90	0.026663572
106	0x3d956890	0.07295334
107	0xbe85a493	-0.26102123
108	0xbe9e4266	-0.30910033
109	0xbe6a53b5	-0.22883494
110	0xbdeaf6fc	-0.1147289
111	0xbdeddefc	-0.116147965
112	0xbe940781	-0.28911975
113	0x3eaf3f58	0.34228015
114	0x3e7a2cdc	0.24431175
115	0x3ec17c5e	0.37790197
116	0x3e58e238	0.21180046
117	0x3c256620	0.010095149
118	0xbe1b7290	-0.15180421
119	0xbea20efa	-0.3165205
