models/Quant2/SNN_Autoencoder_tsri_quant16.pth (torch, 28037 bytes, 11 tensors)

encoder_conv1.weight f4 [24, 1, 5]
0.23233947 1.394025 1.3190323 0.99684334 0.19915935 -0.027091576 -0.1365425 -0.093904175
0.042355195 -0.19734466 -0.7181434 -0.76811546 -1.5954303 -0.91011727 0.11151474 0.0014262359
-0.00091179926 -3.3274344e-05 -1.5166426 -1.1617106 -0.0016890686 -0.015773755 -0.274401 1.835338
0.7716125 0.72950774 1.0589172 1.5280049 -0.50281835 -0.040621206 -0.16038942 0.0222358
0.09806619 0.23721339 -0.29918772 0.48327413 0.48549148 0.7087801 0.5453721 0.6267829
0.08689736 0.15822919 0.11226316 1.8811346 -0.13861191 -0.004440127 0.018179582 0.0054717814
0.8901944 0.906591 -0.31264633 0.04009501 -0.39896432 -0.036765054 -0.2221358 0.31070647
0.30756384 1.7769389 -0.12615006 -0.06270635 -0.021666514 -0.580237 -1.5955294 -0.74798816
0.04346366 0.86495674 1.1775032 0.56071705 0.66447675 0.13502033 1.1916308 1.5492382
-0.44338754 -0.37314057 0.84475136 0.28141117 0.080111496 0.1397998 -0.13429984 -2.8294804
-0.22900045 0.09561903 -0.2906489 -0.10197026 0.3445183 0.8692115 0.02973317 1.3959948
1.4191147 -0.0016675633 -0.47845772 -1.6710999 -0.06010254 -0.18088177 0.13346899 0.0039800494
1.7657107 -0.43262818 0.44704267 -0.02250916 -1.3730335 -0.38845408 1.5174814 0.7777521
-0.07092409 2.8042681 -0.027387867 -0.07782677 0.0066998573 0.024902603 1.0049188 0.18285891
-0.31611308 -0.009234558 -0.46237466 1.1054696 1.5675826 0.9414297 -0.04910691 -0.10775117
00000000: 66ea 6d3e 696f b23f 0dd6 a83f 2031 7f3f
00000010: 6ef0 4b3e 27ef ddbc ccd1 0bbe d550 c0bd
00000020: a47c 2d3d b814 4abe 3fd8 37bf 37a3 44bf
00000030: 0f37 ccbf 72fd 68bf d761 e43d 89f0 ba3a
00000040: d005 6fba 0e90 0bb8 5821 c2bf efb2 94bf
00000050: bd63 ddba f637 81bc 4a7e 8cbe 5bec ea3f
00000060: 6688 453f 05c1 3a3f 998a 873f aa95 c33f
00000070: b4b8 00bf 6c62 26bd 203d 24be da27 b63c
00000080: edd6 c83d 11e8 723e 222f 99be b56f f73e
00000090: 5792 f83e 9d72 353f 829d 0b3f d874 203f
000000a0: 3ef7 b13d d506 223e 3aea e53d 05c9 f03f
000000b0: 48f0 0dbe 7c7e 91bb 59ed 943c a14c b33b
000000c0: c8e3 633f 5916 683f 2e13 a0be aa3a 243d
000000d0: 0d45 ccbe f496 16bd 9177 63be eb14 9f3e
000000e0: 0279 9d3e bc72 e33f 7b2d 01be 306c 80bd
000000f0: f97d b1bc 698a 14bf 4f3a ccbf 277c 3fbf
00000100: f306 323d ce6d 5d3f 6db8 963f 278b 0f3f
00000110: 261b 2a3f c542 0a3e 5c87 983f 704d c63f
00000120: b103 e3be 480c bfbe a041 583f 2015 903e
00000130: 7f11 a43d ae27 0f3e e685 09be 3516 35c0
00000140: 187f 6abe e9d3 c33d efcf 94be c9d5 d0bd
00000150: b464 b03e a584 5e3f fa92 f33c f5af b23f
00000160: 8da5 b53f 2492 daba 69f8 f4be 9ae6 d5bf
00000170: 152e 76bd 1239 39be 18ac 083e 136b 823b
00000180: cf02 e23f 7181 ddbe c7e2 e43e 2165 b8bc
00000190: 90bf afbf 74e3 c6be d53c c23f c31a 473f
000001a0: a640 91bd 2179 3340 855c e0bc a463 9fbd
000001b0: 7a8a db3b 8b00 cc3c 2ea1 803f 5e3f 3b3e
000001c0: 93d9 a1be 8b4c 17bc 5fbc ecbe 0780 8d3f
000001d0: 8ca6 c83f 8901 713f 5424 49bd a5ac dcbd

encoder_conv1.bias f4 [24]
-0.7195199 -0.26353148 1.1594205 1.1556658 -0.54389715 -0.31710237 -0.49428764 0.5781202
-0.26936227 -0.6236351 -0.42044088 -0.41026786 1.8719344 -0.9676156 -0.49701813 1.1434929
-0.39816114 -1.0137862 1.4393306 -0.03968747 0.51946664 -0.018486813 0.45715943 -0.048747115
00000000: 7532 38bf 99ed 86be e467 943f dbec 933f
00000010: d83c 0bbf 3e5b a2be 4513 fdbe afff 133f
00000020: dae9 89be 8da6 1fbf 0744 d7be a10e d2be
00000030: 8c9b ef3f a8b5 77bf 2979 febe fa5d 923f
00000040: c7db cbbe bfc3 81bf fc3b b83f 548f 22bd
00000050: c4fb 043f a871 97bc cd10 ea3e 0eab 47bd

encoder_conv2.weight f4 [12, 24, 5]
-0.09044084 0.038888864 0.029626137 0.009523908 -0.03568163 -0.059187423 0.0118186325 -0.037644055
-0.0060421154 -0.07269043 0.013195885 -0.6323266 -0.11610586 -0.056346435 -0.000111667105 -0.0017312332
-0.23757495 -0.07777996 -0.07645724 0.010983807 -0.03818918 0.18127066 -0.0758475 0.052905608
0.008722918 -0.026989838 0.0066509373 -0.014948003 -0.030990535 0.0116828615 -0.009784594 0.08300244
0.07515928 -0.07311989 -0.07864003 -0.004031566 -0.009781924 0.039430194 -0.03547761 -0.10338223
-0.106885895 0.45056304 0.3665326 0.04303403 0.04971391 -0.05878353 0.07385234 0.17692496
0.0008009534 0.046651192 -0.07360017 0.07949075 -0.055555258 0.08173062 0.060878918 -0.11772048
0.019742334 -0.17154203 0.050963227 0.06794863 0.048790853 -0.20240307 -0.1914594 -0.057492107
0.010628593 -0.03705399 -0.035921182 0.025751488 -0.010289239 0.035558928 -0.067221485 -0.12040018
-0.15550245 -0.07970221 -0.03415584 -0.1661482 0.10948985 0.22373144 -0.003470426 -0.0378712
0.01944533 0.066818 0.03530638 0.06272878 0.006025538 -0.06436845 0.0035495714 -0.053647507
-0.00038740397 0.0562413 0.023150016 0.03950687 -0.33056694 0.1751488 -0.03136219 -0.02185851
-0.042498518 0.09701905 0.009278252 0.0045509166 0.034597874 0.100915276 0.14165613 0.07348083
0.05276952 -0.009353825 0.080524154 -0.26541376 -0.28401503 0.010626376 0.03990503 0.049018055
-0.093735695 0.07848635 0.00705372 0.025759725 0.13625045 0.11462403 -0.062854126 -0.04055764
-0.19107422 -0.37694007 0.047184885 -0.016137902 -0.0054967124 -0.05855107 -0.0015994757 0.07669632
-0.06602903 -0.06837678 -0.13691914 0.024426986 -0.17103943 -0.038700446 -0.09551838 -0.074112885
0.10891896 0.1425105 -0.036605112 -0.03888868 0.036734134 -0.12452827 -0.46001506 -0.06210321
-0.03478514 0.04976124 -0.14966422 0.32377645 0.013792993 -0.013114458 0.009981246 -0.005804755
-0.058366794 -0.030973557 0.0061598616 -0.04815109 -0.09596588 -0.14634654 -0.039307874 -0.030554222
-0.15273528 -0.12106815 -0.49346903 0.09758145 0.06480834 -0.087521344 -0.1490074 -0.30376282
-0.031580266 -0.050049596 0.05225143 0.0061749443 -0.069725424 0.027859949 0.031408504 0.087351024
-0.30974826 0.68068653 0.016501764 -0.030578962 0.018444253 0.106540754 -0.38667315 -0.1905775
-0.012189529 0.112612374 -0.2438822 -0.21848199 0.16527751 -0.0603 0.16583723 0.025086815
-0.15522201 -0.091960885 0.05422041 -0.3236289 0.17740694 -0.0057805977 0.05501084 0.022567274
-0.07786218 -0.007225454 -0.06626525 0.022744805 -0.0010598004 0.27002782 -0.20955668 0.14870477
0.1297466 -0.04305229 0.22364466 -0.22623603 0.5659069 -0.15301378 -0.14683624 -0.36645472
-0.24416728 -0.7899926 0.017303718 0.14270861 -0.49189264 -0.06561736 0.12105432 -0.021206057
0.012364931 0.9947771 0.24556272 -0.34340173 0.066831075 -1.062028 0.3070411 -0.011908936
-0.07305996 -0.047067206 0.16799611 0.15434536 0.0034174973 0.18993117 -0.033138607 0.07950655
0.042221587 -0.2906331 -0.0369754 -0.3256596 0.052542526 -0.05406332 -0.06077074 -0.056400962
-0.022517234 -0.07268479 -0.07231472 0.110457696 -0.07810866 -0.616715 -0.1212779 0.18481013
00000000: 0c39 b9bd ee49 1f3d 83b2 f23c 2a0a 1c3c
00000010: e726 12bd 836e 72bd f0a2 413c a730 1abd
00000020: f0fc c5bb b8de 94bd 8e33 583c 28e0 21bf
00000030: e9c8 edbd 85cb 66bd d22e eab8 8cea e2ba
00000040: d946 73be 1a4b 9fbd 9d95 9cbd 6df5 333c
00000050: 426c 1cbd 049f 393e ef55 9bbd 8db3 583d
00000060: 92ea 0e3c cb19 ddbc 1bf0 d93b 78e8 74bc
00000070: dddf fdbc 7969 3f3c 904f 20bc 2ffd a93d
00000080: 1ced 993d e2bf 95bd 060e a1bd 3a1b 84bb
00000090: 5d44 20bc 8e81 213d f850 11bd 10ba d3bd
000000a0: fee6 dabd 33b0 e63e 29aa bb3e 7344 303d
000000b0: d0a0 4b3d 00c7 70bd e53f 973d d12b 353e
000000c0: 13f7 513a 5215 3f3d b0bb 96bd 0ccc a23d
000000d0: e98d 63bd 6262 a73d 2c5c 793d 6f17 f1bd
000000e0: adba a13c b7a8 2fbe d1be 503d a728 8b3d
000000f0: ebd8 473d c042 4fbe ef0d 44be d87c 6bbd
00000100: 8d23 2e3c edc5 17bd 1722 13bd c9f4 d23c
00000110: 3294 28bc 3da6 113d 6bab 89bd 5f94 f6bd
00000120: 093c 1fbe ea3a a3bd fee6 0bbd c122 2abe
00000130: 373c e03d db19 653e 1670 63bb d51e 1bbd
00000140: d04b 9f3c e0d7 883d 6c9d 103d f277 803d
00000150: e071 c53b 9bd3 83bd ed9f 683b 7dbd 5bbd
00000160: 7b1c cbb9 475d 663d 1aa5 bd3c f5d1 213d
00000170: 1240 a9be 355a 333e a475 00bd 9e10 b3bc
00000180: ed12 2ebd ecb1 c63d cf03 183c db1f 953b
00000190: 80b6 0d3d abac ce3d 4e0e 113e 1e7d 963d
000001a0: da24 583d c940 19bc d9e9 a43d 50e4 87be
000001b0: 6b6a 91be 401a 2e3c 7573 233d 28c7 483d
000001c0: 80f8 bfbd 74bd a03d e422 e73b 0f06 d33c
000001d0: 3d85 0b3e 01c0 ea3d aab9 80bd c51f 26bd
000001e0: f6a8 43be 4afe c0be f044 413d a233 84bc
000001f0: c41d b4bb 3fd3 6fbd 80a5 d1ba f612 9d3d
00000200: 3a3a 87bd 2009 8cbd 8834 0cbe 1a1b c83c
00000210: f624 2fbe 5c84 1ebd 249f c3bd 7fc8 97bd
00000220: e710 df3d 46ee 113e 3eef 15bd bd49 1fbd
00000230: 8876 163d ad08 ffbd 1887 ebbe ef5f 7ebd
00000240: dd7a 0ebd 71d2 4b3d 9441 19be 07c6 a53e
00000250: 01fc 613c 06de 56bc 6188 233c d035 bebb
00000260: 0512 6fbd 42bc fdbc aad8 c93b 143a 45bd
00000270: c289 c4bd dedb 15be 4b01 21bd d94c fabc
00000280: a366 1cbe 94f2 f7bd f9a7 fcbe c9d8 c73d
00000290: 3cba 843d 643e b3bd 6595 18be cd86 9bbe
000002a0: 4f5a 01bd ce00 4dbd 9805 563d 3057 ca3b
000002b0: 34cc 8ebd 8c3a e43c 34a6 003d 18e5 b23d
000002c0: 5397 9ebe 7941 2e3f b52e 873c bb80 fabc
000002d0: 6718 973c 0a32 da3d 06fa c5be c026 43be
000002e0: 97b6 47bc 51a1 e63d 41bc 79be beb9 5fbe
000002f0: 823e 293e 22fd 76bd 3cd1 293e dd82 cd3c
00000300: 85f2 1ebe fd55 bcbd 3816 5e3d b0b2 a5be
00000310: 2aaa 353e 2b6b bdbb 0c53 613d 01df b83c
00000320: 3576 9fbd 80c3 ecbb 13b6 87bd 5053 ba3c
00000330: 00e9 8aba 1641 8a3e 0796 56be 1046 183e
00000340: 4bdc 043e 9957 30bd 1b03 653e 6baa 67be
00000350: 46df 103f a5af 1cbe 3d5c 16be f49f bbbe
00000360: fd06 7abe f43c 4abf 87c0 8d3c 3522 123e
00000370: 5ad9 fbbe 6562 86bd 54eb f73d 53b8 adbc
00000380: 4896 4a3c b6a9 7e3f cb74 7b3e 5ad2 afbe
00000390: bbde 883d 89f0 87bf 7e34 9d3e b31d 43bc
000003a0: 76a0 95bd 8bc9 40bd 2c07 2c3e b60c 1e3e
000003b0: 17f8 5f3b 517d 423e 59bc 07bd 55d4 a23d
000003c0: 8bf0 2c3d ddcd 94be 8473 17bd dbbc a6be
000003d0: d536 573d 8071 5dbd bdea 78bd b204 67bd
000003e0: 1076 b8bc c3db 94bd bd19 94bd a537 e23d
000003f0: 6ff7 9fbd 09e1 1dbf 8c60 f8bd de3e 3d3e

encoder_conv2.bias f4 [12]
0.7659767 1.0249505 1.7655926 1.0351291 0.66491616 0.623102 0.8582062 0.5453349
1.0150216 1.0178068 0.4543488 0.6618232
00000000: 0d17 443f 9431 833f f0fe e13f 1c7f 843f
00000010: f237 2a3f 9d83 1f3f 67b3 5b3f 119b 0b3f
00000020: 3aec 813f 7e47 823f 68a0 e83e 3f6d 293f

encoder_conv3.weight f4 [6, 12, 5]
-0.018354231 0.013513977 0.019715011 -0.05350215 -0.119073 0.025951004 0.049183328 -0.06766763
0.017234951 0.05062546 -0.07196388 -0.012897976 -0.046312872 -0.048616696 -0.06652631 0.040954925
0.02331775 -0.012706354 0.015339951 0.011674663 -0.010666465 -0.04213256 -0.01983114 -0.101216085
-0.077064045 -0.11590206 0.040321153 0.12480444 0.014882201 -0.115187906 0.022540368 -0.011283525
0.035842963 -0.06747105 0.024409102 -0.011712537 -0.013348968 -0.041229583 -0.36417365 0.023749448
0.014167841 0.060103673 0.0014321035 0.0399373 0.0057540736 0.03135917 0.14599225 -0.044387773
-0.028708722 0.022121774 -0.015205997 -0.012028529 -0.085836425 -0.048813444 0.019351173 -0.031530354
-0.040745866 0.05418364 0.018989393 -0.15040648 0.31595063 0.38208514 -0.044412196 0.12033463
-0.08408012 0.45972568 0.19721793 0.05495888 -0.038766053 0.16274513 0.39359123 0.40511605
-0.3452466 -0.2113003 -0.37474653 0.19445872 0.60563475 -0.78479004 0.046446886 -0.16974138
0.28787273 0.6183316 0.14507626 -0.23542309 0.055903237 0.2144619 0.018154249 0.37484676
0.2498328 0.09779488 0.2747031 0.30747512 -0.17007305 -0.024413006 -0.02721374 0.29278848
0.34318188 -0.9378281 -0.2545847 -0.12274096 0.5360562 0.3429702 0.42450982 -0.040445007
0.12013159 0.22787955 0.04982769 -0.13875811 0.009082779 -0.03441899 0.4559748 -5.8201437
-0.07969607 -0.068611704 0.0029114175 -0.07212629 -0.06467327 0.16021353 0.049425274 0.11050407
0.011828857 0.014620986 0.0060825087 -0.7276945 -0.011820416 0.0273918 0.01784511 0.034952223
0.028006678 0.025234992 -0.09157814 0.016283857 -0.21542418 0.12141754 -0.14225551 0.012181663
-0.003327284 -0.0051148552 -0.0747791 0.0042123455 0.0694532 -0.023077123 0.02335777 -0.22030842
0.0013636476 0.034040034 0.025460038 -0.1298518 0.27895302 -0.010489819 -0.0016728633 -0.0075566266
-0.045789883 -0.15866226 -0.0249159 0.02407726 0.013881869 -0.00744381 -0.63999254 0.0031896099
0.02653486 -0.03126437 0.004489511 0.078398 0.013883057 0.0026761903 -0.12644768 -0.0062370147
0.15852834 0.016916856 0.02276184 0.017086864 0.020729268 -0.17402199 0.034679834 -0.046951495
0.034631923 -0.07725929 0.02434284 -0.05647494 0.057843406 0.02134424 0.0007335185 0.010231034
-0.012682881 -0.02446844 0.005656565 0.07242956 -0.039630536 0.017104477 0.07544892 0.008079904
-0.034659598 -0.020589102 -0.017846748 -0.07900629 -0.018550366 -0.015369248 -0.00055864494 0.0020887768
-1.4632664 -0.00307058 0.01111584 -0.037854414 -0.0055913306 0.015481107 0.05858189 -0.027107162
0.016809762 -0.0018870624 -0.081391454 0.025664467 -0.056927856 -0.009571519 -0.01881523 0.007450066
0.032827772 -0.028722385 -0.016842766 0.0011301928 0.03736916 -0.016889598 -0.005212554 -0.027049396
-0.016253455 -0.011531992 -0.011600637 -0.037426077 -0.014109929 -0.011828557 0.08731149 0.027779538
0.00924061 -0.006576285 -0.0031507316 -0.011557084 0.0270359 0.0015653624 -0.0014336263 0.0020906548
0.06524615 0.04278631 -0.0215294 0.045751642 0.23226163 0.008240037 0.026893485 0.042649053
0.081406035 -1.1929396 -0.055324167 -0.029997211 0.005505836 -0.039275523 -0.015884038 -0.02668016
00000000: 9d5b 96bc ba69 5d3c 6081 a13c 1225 5bbd
00000010: 8cdc f3bd 3397 d43c 7574 493d 5495 8abd
00000020: 5030 8d3c a45c 4f3d cc61 93bd 0852 53bc
00000030: 91b2 3dbd 4d22 47bd f23e 88bd 5ac0 273d
00000040: de04 bf3c 502e 50bc 6b54 7b3c 1647 3f3c
00000050: 66c2 2ebc 3193 2cbd ea74 a2bc 614a cfbd
00000060: c1d3 9dbd 0f5e edbd cb27 253d 7899 ff3d
00000070: 7ad4 733c a3e7 ebbd 94a6 b83c 89de 38bc
00000080: 12d0 123d 432e 8abd 99f5 c73c f1e5 3fbc
00000090: a1b5 5abc 5ae0 28bd f874 babe 348e c23c
000000a0: 3b20 683c 452f 763d 6bb5 bb3a 4b95 233d
000000b0: ab8c bc3b 7972 003d fe7e 153e f4cf 35bd
000000c0: 8e2e ebbc b938 b53c 9322 79bc 4f13 45bc
000000d0: 02cb afbd 9bf0 47bd 5a86 9e3c f925 01bd
000000e0: 23e5 26bd aaef 5d3d a58f 9b3c 2804 1abe
000000f0: 48c4 a13e aaa0 c33e 90e9 35bd 0172 f63d
00000100: 3332 acbd 2a61 eb3e 7ff3 493e 901c 613d
00000110: 27c9 1ebd a9a6 263e ca84 c93e 5f6b cf3e
00000120: 2ac4 b0be 1b5f 58be c7de bfbe 3020 473e
00000130: e10a 1b3f 00e8 48bf 173f 3e3d afd0 2dbe
00000140: 0e64 933e fb4a 1e3f df8e 143e c012 71be
00000150: cbfa 643d e69b 5b3e 38b8 943c eaeb bf3e
00000160: 2bd4 7f3e af48 c83d e2a5 8c3e 616d 9d3e
00000170: a127 2ebe c9fd c7bc 59ef debc 5fe8 953e
00000180: 89b5 af3e 8115 70bf ed58 82be 9d5f fbbd
00000190: fb3a 093f ca99 af3e 5a59 d93e aaa9 25bd
000001a0: 8d07 f63d 4259 693e 1f18 4c3d 9b16 0ebe
000001b0: f0cf 143c edfa 0cbd 8775 e93e 9e3e bac0
000001c0: b137 a3bd 4b84 8cbd 7bcd 3e3b f3b6 93bd
000001d0: 6b73 84bd 040f 243e 2872 4a3d f54f e23d
000001e0: d2cd 413c dc8c 6f3c c84f c73b 304a 3abf
000001f0: 6baa 41bc c564 e03c e82f 923c 102a 0f3d
00000200: 436e e53c 9db9 ce3c 528d bbbd b965 853c
00000210: 2898 5cbe c2a9 f83d 6eab 11be 9995 473c
00000220: 900e 5abb 849a a7bb c925 99bd b707 8a3b
00000230: 7b3d 8e3d 3c0c bdbc cb58 bf3c 8898 61be
00000240: 6cbc b23a 906d 0b3d 9291 d03c dff7 04be
00000250: eed2 8e3e 7ddd 2bbc fa43 dbba 949d f7bb
00000260: 2c8e 3bbd 5c78 22be 6e1c ccbc ad3d c53c
00000270: c770 633c 34eb f3bb 8dd6 23bf c608 513b
00000280: a25f d93c 110f 00bd bf1c 933b 218f a03d
00000290: c375 633c 0663 2f3b 807b 01be df5f ccbb
000002a0: 4155 223e 3895 8a3c 0a77 ba3c c0f9 8b3c
000002b0: 6dd0 a93c d232 32be 710c 0e3d 3650 40bd
000002c0: 34da 0d3d 1e3a 9ebd a36a c73c 4452 67bd
000002d0: 35ed 6c3d 1eda ae3c 9849 403a 11a0 273c
000002e0: dccb 4fbc 0a72 c8bc b55a b93b f355 943d
000002f0: a153 22bd b01e 8c3c f784 9a3d 9361 043c
00000300: 39f7 0dbd 7aaa a8bc 5833 92bc 0dce a1bd
00000310: f0f6 97bc 4ccf 7bbc 0772 12ba dce3 083b
00000320: 504c bbbf c93b 49bb 361f 363c 3b0d 1bbd
00000330: 7b37 b7bb 78a4 7d3c 90f3 6f3d d70f debc
00000340: a0b4 893c 4f57 f7ba 90b0 a6bd 4a3e d23c
00000350: 2f2d 69bd dcd1 1cbc 6622 9abc af1f f43b
00000360: 6a76 063d 354b ebbc d7f9 89bc fa22 943a
00000370: 6810 193d 0e5c 8abc 12ce aabb b296 ddbc
00000380: f725 85bc aef0 3cbc 9910 3ebc 164c 19bd
00000390: 552d 67bc 90cc 41bc 5ed0 b23d ea91 e33c
000003a0: ed65 173c e17d d7bb 817c 4ebb ec59 3dbc
000003b0: 647a dd3c d92c cd3a 84e8 bbba 5e03 093b
000003c0: c69f 853d b340 2f3d 6d5e b0bc 1366 3b3d
000003d0: fed5 6d3e 3801 073c ba4f dc3c c6b0 2e3d
000003e0: 35b8 a63d 3fb2 98bf 989b 62bd b6bc f5bc
000003f0: 4d6a b43b 5fdf 20bd 3e1f 82bc 5a90 dabc

encoder_conv3.bias f4 [6]
0.6707011 2.2186131 1.3438745 1.0085636 1.2407343 1.1401128
00000000: 11b3 2b3f c2fd 0d40 1404 ac3f 9d18 813f
00000010: 62d0 9e3f 37ef 913f

deconv1.weight f4 [6, 12, 5]
1.754038 0.115772694 1.0509154 0.32630563 1.0523415 -0.06303035 0.77455455 0.16124411
0.29239205 0.09279013 -0.02268823 -1.5102568 -0.85313565 -1.3833405 -0.84310055 0.28192565
-0.8262068 -2.5543513 -0.84684867 0.6338307 0.42948064 -0.18713994 0.041451953 -0.8729348
-0.25658062 0.38292587 0.1592526 -0.037085403 -0.51537377 -0.7000316 0.92053163 0.8317634
-0.9432475 0.75204015 0.63874876 -0.028975174 0.61772764 -1.0930768 -0.8744674 -0.33443442
-0.83492374 1.257272 0.43803567 0.93800825 -0.77457243 -0.12981278 0.59051883 -0.0024116235
0.24567014 -0.11787326 -0.50317657 -0.10902826 1.0515102 0.0056988574 -0.45023084 -0.4449366
-0.015876777 -0.9999266 0.34615368 0.21178006 2.72257 -0.08819272 1.3852118 -0.014828077
1.2723247 -0.12397338 0.25785354 -0.043321643 0.3128845 -0.024622642 0.08172528 2.2871554
0.09041994 1.418532 0.015219274 0.1588413 0.09909593 0.034878302 -0.68428516 0.029059144
0.074325636 -2.8595064 0.10813192 0.4018754 0.04674491 -0.0072816685 0.41534257 -0.0002476175
-0.0013655868 -0.008805476 0.01929386 0.019965105 0.020637948 0.0026509105 0.014085385 -0.018430075
0.08845826 0.0023824763 -0.030297743 -0.01895541 -0.0031761925 0.5046554 0.17112736 0.46462354
0.07022313 -0.12463899 0.4906493 0.08947103 -0.012203704 0.040903654 0.0070332517 0.34455305
-0.04822895 0.041474294 -0.01681427 0.019620689 -0.006915354 -0.12708117 -0.029473914 0.2551214
1.0619328 -0.008965119 2.9784765 -0.028019648 3.3856132 -0.047115277 0.07730393 0.018652648
-2.9777358 -0.0061273025 -0.08287682 0.3133519 -0.10054271 0.79502094 -0.08645777 0.030645544
-0.56417894 -0.060450424 -0.5733546 -0.02917296 0.009540211 0.12982927 0.028952288 0.08267773
0.00034939428 0.009047455 -0.0066739917 -0.0005728578 -0.21906373 -0.004294479 0.0045173587 0.0025332163
-0.019304734 0.32096687 0.0050503 -0.0072085424 0.034195244 -0.0009298682 -0.2579854 -0.018225078
-0.0013611853 0.22229774 0.0037396685 0.45602125 0.0006202246 -0.103144005 0.0096642645 0.037457135
0.0727826 0.0070282426 0.0046492727 0.021178413 -0.014827817 -0.033911135 -0.0011539197 0.03540321
-0.028495055 0.07979232 -0.09164984 0.12939909 2.9994137 -0.005758618 1.0527731 -0.0021223319
1.4563781 1.026016 0.37439698 -0.00821839 0.24187803 -0.014381673 0.212243 1.9293823
-0.010242632 1.1268644 -0.02766249 0.08205186 -0.6311832 -0.030345567 -0.6661857 -0.010597031
1.3363378 0.7908369 0.0738536 0.3163565 0.021270093 -0.036292244 -0.011511016 -0.011425717
0.00656747 -0.0060335062 -0.045876388 0.0060673244 -0.012448309 -0.0028845225 0.004119296 -0.16862272
0.008270462 -0.017351491 -0.10535934 -0.022163412 0.03971031 1.3551211 0.11161396 0.48278707
0.011708119 1.684536 0.009479574 0.09889946 -0.001683383 0.042078916 -0.054522824 0.030723179
-0.036444623 -0.0051423577 -0.0058143623 0.07672421 -0.021089546 0.014188169 -0.04191222 0.18820712
3.0318973 -0.00198047 1.0468221 0.0059723607 2.608665 -0.03065789 0.100367986 0.027815899
0.15987256 0.14114177 0.042874556 0.30084607 0.068494186 0.5997815 0.38709846 0.045006216
00000000: 5184 e03f 3c1a ed3d 6584 863f 8811 a73e
00000010: 20b3 863f 0e16 81bd 3549 463f 2d1d 253e
00000020: 69b4 953e c008 be3d abdc b9bc 1850 c1bf
00000030: 1967 5abf 4d11 b1bf 70d5 57bf 8f58 903e
00000040: 4a82 53bf 7e7a 23c0 13cb 58bf bb42 223f
00000050: e3e4 db3e 9da1 3fbe 86c9 293d a878 5fbf
00000060: 895e 83be dc0e c43e 1d13 233e dde6 17bd
00000070: 89ef 03bf 4535 33bf f6a7 6b3f 72ee 543f
00000080: ab78 71bf b485 403f 0a85 233f 585d edbc
00000090: 6623 1e3f f1e9 8bbf 18dd 5fbf fd3a abbe
000000a0: 90bd 55bf 4aee a03f 3646 e03e 4f21 703f
000000b0: 614a 46bf a4ed 04be 3e2c 173f 540c 1ebb
000000c0: f490 7b3e 8967 f1bd 2ed0 00bf 354a dfbd
000000d0: e397 863f 7bbd ba3b a884 e6be bbce e3be
000000e0: 0410 82bc 31fb 7fbf 0e3b b13e dfdc 583e
000000f0: 963e 2e40 639e b4bd 9f4e b13f 76f1 72bc
00000100: 89db a23f c1e5 fdbd 6105 843e 0972 31bd
00000110: 6632 a03e 6cb5 c9bc 955f a73d c160 1240
00000120: 172e b93d 7592 b53f 435a 793c 4ba7 223e
00000130: cff2 ca3d 8ddc 0e3d 502d 2fbf 710d ee3c
00000140: 0a38 983d 2702 37c0 4574 dd3d 9dc2 cd3e
00000150: 9777 3f3d 109b eebb c8a7 d43e a9d2 81b9
00000160: 7dfd b2ba d844 10bc 280e 9e3c dc8d a33c
00000170: ea10 a93c e6ba 2d3b 63c6 663c abfa 96bc
00000180: 9b29 b53d 5223 1c3b f932 f8bc 6048 9bbc
00000190: ab27 50bb 1931 013f 033c 2f3e 23e3 ed3e
000001a0: 25d1 8f3d ba42 ffbd 6336 fb3e 963c b73d
000001b0: 0bf2 47bc 978a 273d 3177 e63b 4269 b03e
000001c0: b88b 45bd f3e0 293d 14be 89bc 91bb a03c
000001d0: 329a e2bb 9121 02be 4773 f1bc 469f 823e
000001e0: 6aed 873f 6fe2 12bc 5c9f 3e40 7689 e5bc
000001f0: e3ad 5840 f3fb 40bd 8651 9e3d 70cd 983c
00000200: 3993 3ec0 8ac7 c8bb 52bb a9bd a96f a03e
00000210: 56e9 cdbd 7e86 4b3f c510 b1bd 5d0c fb3c
00000220: 086e 10bf dd9a 77bd 5ec7 12bf 22fc eebc
00000230: 8c4e 1c3c f7f1 043e 592d ed3c f152 a93d
00000240: e82e b739 c73b 143c 80b1 dabb d62b 16ba
00000250: 3e52 60be b3b8 8cbb 5a06 943b 5104 263b
00000260: f624 9ebc c555 a43e fd7c a53b a335 ecbb
00000270: 5010 0c3d 66c2 73ba aa16 84be c24c 95bc
00000280: cd69 b2ba 05a2 633e 3a15 753b 9e7b e93e
00000290: 9196 223a 2a3d d3bd dd56 1e3c a76c 193d
000002a0: 0b0f 953d 2c4d e63b ed58 983b 5a7e ad3c
000002b0: 5ff0 72bc 67e6 0abd 1f3f 97ba f502 113d
000002c0: 766e e9bc 286a a33d e9b2 bbbd 3281 043e
000002d0: 65f6 3f40 cab2 bcbb 45c1 863f d216 0bbb
000002e0: 996a ba3f 7e54 833f f6b0 bf3e 6da6 06bc
000002f0: e0ae 773e 1ca1 6bbc 3b56 593e 00f6 f63f
00000300: b6d0 27bc 183d 903f 729c e2bc ce0a a83d
00000310: 3995 21bf 4497 f8bc 258b 2abf 2b9f 2dbc
00000320: 1e0d ab3f 4974 4a3f 8e40 973d 7bf9 a13e
00000330: 9e3e ae3c 2da7 14bd b398 3cbc ee32 3bbc
00000340: ee33 d73b b8b4 c5bb e1e8 3bbd 68d0 c63b
00000350: fef3 4bbc 420a 3dbb 29fb 863b 6fab 2cbe
00000360: d580 073c b724 8ebc a3c6 d7bd 0b90 b5bc
00000370: 47a7 223d 9c74 ad3f dc95 e43d de2f f73e
00000380: 69d3 3f3c e09e d73f 3750 1b3c cd8b ca3d
00000390: f6a4 dcba f15a 2c3d 5353 5fbd 2daf fb3c
000003a0: f546 15bd 3981 a8bb 6886 bebb 9521 9d3d
000003b0: fcc3 acbc 7e75 683c 26ac 2bbd 5eb9 403e
000003c0: 9b0a 4240 c6ca 01bb 44fe 853f cbb3 c33b
000003d0: 5ef4 2640 4126 fbbc bb8d cd3d 2bde e33c
000003e0: a2b5 233e 7887 103e 3b9d 2f3d 7f08 9a3e
000003f0: ae46 8c3d 488b 193f c531 c63e 7058 383d

deconv1.bias f4 [12]
0.01730716 0.2433483 -0.13542809 0.55691403 -0.13685782 0.059305746 -0.25466672 1.0557382
-0.015984772 -0.1391092 -0.040746637 0.14191127
00000000: bfc7 8d3c 4c30 793e a9ad 0abe eb91 0e3f
00000010: 7524 0cbe 95ea 723d ad63 82be 6e22 873f
00000020: 7ff2 82bc a472 0ebe f2e5 26bd 3051 113e

deconv2.weight f4 [12, 24, 5]
-0.8536182 0.010393186 -0.06321351 -0.116012394 0.071586326 0.105135016 -0.15642792 0.08838255
-0.107498415 0.12117368 -0.034937423 0.0155788595 -0.06298344 0.18725032 0.1095766 -2.8465314
0.024801577 -0.119942434 0.46692324 0.23804252 -0.021839406 -0.21386296 0.12995692 0.20082411
-0.040528003 -0.035350032 -1.239609 0.5213187 -0.0034036965 0.17226346 -0.07519532 0.35588366
0.41124028 0.33499128 0.033140767 0.05230876 -1.2446897 -0.86528605 0.22889563 0.034255255
0.037149165 0.014631249 -0.00022114447 0.052850254 -0.010346307 -0.060883284 -0.9722037 -0.12145401
0.71825504 0.176647 -0.07999726 0.037358955 0.53940815 0.19633065 0.030015904 -0.17182082
0.085774146 -0.17734866 -0.081755035 0.012026282 -0.0038153778 0.033923265 -0.04748179 0.11196666
-0.014233842 -0.06266818 0.049366318 0.6021004 -0.16082288 -0.09130471 0.24077083 0.027821528
0.3932816 0.20429578 -0.08836336 -0.7676993 -0.17612013 -0.01629218 -0.04231231 0.23011091
-0.04010372 -0.07670264 -0.057434086 -0.023791 0.013938037 -0.32384902 0.036751453 -0.37290823
0.041873645 0.10050992 -0.21621798 -0.00115849 -0.19057097 -0.041078325 0.13995683 -0.08765757
-0.06835209 0.34812635 -0.010866258 -0.041618142 0.0083029065 0.17694929 -0.045177467 0.17592964
-0.1297693 0.11960435 0.030638231 -0.103462525 0.050300926 -0.051897034 -0.38610956 -0.017745307
-0.02840064 -0.13658206 0.112141356 -0.19179638 -0.018937107 -0.5097396 0.21316002 0.042921714
-0.2701886 -0.3904476 0.4908111 0.29610917 -0.10576454 0.041004483 0.44793192 0.20840721
0.5720912 -0.033407535 0.013800116 -0.028370399 0.03607149 0.009830546 0.14743747 -0.29980534
-0.032197926 -0.02325408 0.30578697 0.39363632 -0.08169262 0.32099864 -0.057586927 -0.2601273
0.046219215 -0.24634014 1.1497416 0.35929933 -0.015632788 0.021942835 0.013906438 -0.28317705
-0.4122045 0.27117383 0.015365699 0.0048715533 0.22095169 0.4430269 0.10683197 0.008753701
0.06077326 0.006453045 -0.08735254 0.016308516 0.0033995435 0.016558422 -0.2686363 0.08730175
-0.61241096 -0.072952375 0.03860497 0.017138567 -0.8422238 0.015482993 -0.04599578 0.12220501
-0.3362368 0.037016984 0.6479232 0.042893473 0.0096414145 0.04219817 0.13312559 0.044697415
0.01041619 -0.028713832 -0.046668682 0.09407883 -0.8693137 0.020284897 -0.016414015 -0.016122412
0.37229303 -0.48128766 -0.0010308054 -0.17038675 -0.06187662 -0.0012689994 0.009153527 0.0052453447
0.034946177 0.041222356 0.021686926 -0.03381482 -0.09982742 -0.05643526 -0.04720866 -0.6711241
0.23591761 -0.07685807 -0.045931358 0.27205288 -0.51518583 0.0234985 -0.052256998 0.03139936
-0.09600011 0.6590426 0.004469643 -0.039371762 0.010430413 -0.012231996 0.022585358 0.5410948
-0.058481727 0.074363105 0.18385999 -0.05760403 0.004608664 -0.35109928 -0.041837145 -0.29342344
0.06984304 0.028348554 -0.1695546 0.20196714 -0.48383898 0.08997711 -0.107315294 0.30368525
0.061873697 -0.11384066 0.5522341 0.04533159 0.32976085 -0.13060032 0.4034454 -0.1795763
-0.09177678 -0.12139067 0.10107659 0.016473856 -0.07550073 0.45213535 0.038710803 0.16260652
00000000: b986 5abf 2e48 2a3c 1676 81bd e897 edbd
00000010: da9b 923d 0751 d73d a42e 20be e901 b53d
00000020: 2128 dcbd e829 f83d 8b1a 0fbd 793e 7f3c
00000030: 76fd 80bd 8cbe 3f3e b269 e03d 922d 36c0
00000040: ad2c cb3c 61a4 f5bd 9010 ef3e 6bc1 733e
00000050: 8ee8 b2bc e4fe 5abe 6d13 053e d6a4 4d3e
00000060: b100 26bd 32cb 10bd 82ab 9ebf 2475 053f
00000070: 8d10 5fbb d565 303e 0100 9abd 6236 b63e
00000080: 168e d23e fa83 ab3e 9dbe 073d b641 563d
00000090: fe51 9fbf 6383 5dbf 9e63 6a3e 3d4f 0c3d
000000a0: b929 183d e8b7 6f3c 04e3 67b9 8279 583d
000000b0: 8f83 29bc c060 79bd 57e2 78bf e1bc f8bd
000000c0: 90df 373f f3e2 343e 9ad5 a3bd b405 193d
000000d0: a716 0a3f e70a 493e eae3 f53c ccf1 2fbe
000000e0: 5baa af3d e39a 35be 2f6f a7bd e209 453c
000000f0: 6b0b 7abb 1ff3 0a3d 447c 42bd c74e e53d
00000100: 0f35 69bc 2d58 80bd 5634 4a3d 4023 1a3f
00000110: c1ae 24be f7fd babd a18c 763e f9e9 e33c
00000120: 355c c93e ea32 513e d9f7 b4bd f187 44bf
00000130: d658 34be 2e77 85bc ac4f 2dbd 32a2 6b3e
00000140: cc43 24bd 4616 9dbd 0140 6bbd 58e5 c2bc
00000150: 5d5c 643c 8acf a5be b188 163d d4ed bebe
00000160: b383 2b3d 25d8 cd3d 3f68 5dbe 79d8 97ba
00000170: 0925 43be bf41 28bd d850 0f3e d085 b3bd
00000180: 2efc 8bbd 9e3d b23e 6408 32bc c977 2abd
00000190: ea08 083c 3232 353e 020c 39bd e626 343e
000001a0: 3ee2 04be 20f3 f43d 07fd fa3c 29e4 d3bd
000001b0: 5808 4e3d fc91 54bd 27b0 c5be 9b5e 91bc
000001c0: 75a8 e8bc 2bdc 0bbe 5eaa e53d 4566 44be
000001d0: fe21 9bbc 4b7e 02bf 9f46 5a3e aece 2f3d
000001e0: 2956 8abe bfe8 c7be 984b fb3e 9f9b 973e
000001f0: 149b d8bd 51f4 273d 5557 e53e b368 553e
00000200: 9274 123f 57d6 08bd e219 623c 0a69 e8bc
00000210: b3bf 133d 4c10 213c d9f9 163e 1680 99be
00000220: f9e1 03bd 577f bebc 1c90 9c3e b38a c93e
00000230: 764e a7bd ef59 a43e 45e0 6bbd 682f 85be
00000240: 5c50 3d3d 9740 7cbe bc2a 933f 15f6 b73e
00000250: 5510 80bc 76c1 b33c d4d7 633c 95fc 90be
00000260: 780c d3be 4cd7 8a3e 6ac0 7b3c 8da1 9f3b
00000270: 2941 623e 6cd4 e23e b8ca da3d af6b 0f3c
00000280: 62ed 783d 1174 d33b e3e5 b2bd 7099 853c
00000290: e0ca 5e3b 87a5 873c b28a 89be 43cb b23d
000002a0: f7c6 1cbf 0e68 95bd 3f20 1e3d 2e66 8c3c
000002b0: fb9b 57bf 61ac 7d3c 1266 3cbd 9f46 fa3d
000002c0: 3b27 acbe 1f9f 173d 4bde 253f 11b1 2f3d
000002d0: 06f7 1d3c fdd7 2c3d 1352 083e a314 373d
000002e0: aba8 2a3c 4539 ebbc a927 3fbd 67ac c03d
000002f0: 588b 5ebf 832c a63c af76 86bc 2613 84bc
00000300: 319d be3e 566b f6be 171c 87ba dd79 2ebe
00000310: 5772 7dbd 8e54 a6ba adf8 153c 24e1 ab3b
00000320: b923 0f3d c6d8 283d c8a8 b13c 6981 0abd
00000330: 5272 ccbd a928 67bd de5d 41bd cace 2bbf
00000340: 6394 713e c467 9dbd 8522 3cbd 844a 8b3e
00000350: 38e3 03bf ed7f c03c 6f0b 56bd 9e9c 003d
00000360: b59b c4bd 04b7 283f 1576 923b 4944 21bd
00000370: 53e4 2a3c b668 48bc ee04 b93c 3085 0a3f
00000380: 898a 6fbd af4b 983d cb45 3c3e 34f2 6bbd
00000390: 4704 973b 49c3 b3be 6d5d 2bbd 993b 96be
000003a0: de09 8f3d 3a3b e83c b99f 2dbe 79d0 4e3e
000003b0: beb9 f7be eb45 b83d 1fc8 dbbd a27c 9b3e
000003c0: 466f 7d3d 4b25 e9bd 375f 0d3f 9ead 393d
000003d0: 6ad6 a83e 17bc 05be 6590 ce3e d9e2 37be
000003e0: 77f5 bbbd ac9b f8bd 3e01 cf3d 2ef4 863c
000003f0: 20a0 9abd 497e e73e 388f 1e3d 5382 263e

deconv2.bias f4 [24]
-0.11282824 0.049211968 -0.11911903 0.038511414 0.1111683 0.045514006 -0.12648806 0.007875004
-0.15721361 0.15548693 -0.1984008 0.035636026 -0.06833366 -0.069119506 0.05143308 -0.13675687
-0.09544457 0.016294792 0.045302894 -0.073899 -0.024539277 -0.07323188 -0.15776938 0.093962304
00000000: 7e12 e7bd 7d92 493d aef4 f3bd 25be 1d3d
00000010: 35ac e33d e56c 3a3d 1686 01be 2906 013c
00000020: 9bfc 20be f737 1f3e 9429 4bbe 15f7 113d
00000030: 85f2 8bbd 878e 8dbd 7eab 523d fe09 0cbe
00000040: 7178 c3bd a87c 853c 878f 393d 5c58 97bd
00000050: 9806 c9bc 99fa 95bd 4c8e 21be 4f6f c03d

deconv3.weight f4 [24, 1, 5]
-0.022079403 -0.10715958 0.517097 0.7785314 -0.0760666 -0.13837 -0.008738554 0.4255257
0.5468971 0.2896391 1.06913 0.84276456 1.1900704 1.1684718 -0.19450182 0.7241322
0.8441258 0.8848476 0.7250303 0.48361623 1.4492546 0.035007175 0.030860329 0.03326442
0.06290575 -0.28042692 0.56775576 1.1601175 0.28496528 0.16358483 -0.86551756 -1.5395211
-0.70593584 -0.53345734 0.048997734 0.08115644 1.4536114 1.061039 -0.14294966 -0.40409634
-0.15096037 0.21059096 -0.20883442 -0.37109298 -0.3604699 -0.49433306 -0.49961892 -0.7406257
-0.93731916 -0.4343537 0.86786556 0.76975286 0.16096036 0.16634795 -0.0051145977 0.7564145
0.76856214 0.3335247 0.29571187 -0.024372533 0.06521127 -0.46017218 -0.48887816 0.7486549
0.16770042 0.06605057 -0.49524245 -1.64072 -0.24918976 -0.0066169403 -0.37824684 -0.36638013
-0.36359134 -0.36567605 -0.31979918 0.47026286 -0.22815691 1.5228842 2.8270628 1.3496749
-0.16157939 -0.21370067 -0.18010235 0.36955407 -0.116893895 -0.22899362 -0.4064736 -0.51305974
-0.7076409 -0.6379717 0.48348486 0.726419 -0.34575918 -0.16180749 -0.16310403 0.046562366
0.017989697 2.7055538 0.007216173 0.33586144 -0.7834843 -0.69203204 -0.58945704 -0.42705068
-0.19351904 -0.8062537 -0.9026751 -0.36749643 -0.6159325 -0.3499635 -0.5758614 0.10817115
0.20079441 0.5194695 0.70788825 0.10206031 -0.40040493 -0.52254426 -0.47258747 0.34153134
00000000: dddf b4bc 7b76 dbbd 7860 043f d54d 473f
00000010: cec8 9bbd deb0 0dbe 272c 0fbc 81de d93e
00000020: 7301 0c3f 934b 943e 40d9 883f 6bbf 573f
00000030: 3a54 983f 7c90 953f 7c2b 47be ba60 393f
00000040: a118 583f 5f85 623f 969b 393f 8c9c f73e
00000050: 2d81 b93f af63 0f3d cdce fc3c 4640 083d
00000060: bbd4 803d 1e94 8fbe 7158 113f bb7e 943f
00000070: f8e6 913e c882 273e 8f92 5dbf 070f c5bf
00000080: 36b8 34bf a990 08bf d9b1 483d 5935 a63d
00000090: f00f ba3f 20d0 873f 6561 12be b7e5 cebe
000000a0: 5b95 1abe 28a5 573e b1d8 55be e6ff bdbe
000000b0: 838f b8be 3919 fdbe 0dce ffbe a599 3dbf
000000c0: 26f4 6fbf 9c63 debe 702c 5e3f 860e 453f
000000d0: cbd2 243e 1e57 2a3e 5b98 a7bb 61a4 413f
000000e0: 7dc0 443f c0c3 aa3e 8c67 973e e8a8 c7bc
000000f0: 7c8d 853d b09b ebbe 3d4e fabe d9a7 3f3f
00000100: a9b9 2b3e 8545 873d 6b90 fdbe 1d03 d2bf
00000110: 9a2b 7fbe ebd2 d8bb 92a9 c1be 2d96 bbbe
00000120: a528 babe e439 bbbe b8bc a3be 4bc6 f03e
00000130: f7a1 69be dfed c23f 99ee 3440 26c2 ac3f
00000140: 1175 25be 59d4 5abe c06c 38be 3136 bd3e
00000150: 1166 efbd 4e7d 6abe 4f1d d0be e257 03bf
00000160: f427 35bf 1d52 23bf 548b f73e 98f6 393f
00000170: 5907 b1be ddb0 25be be04 27be 2eb8 3e3d
00000180: 215f 933c cb27 2d40 a675 ec3b 08f6 ab3e
00000190: 6d92 48bf 0329 31bf a8e6 16bf 63a6 dabe
000001a0: db29 46be a466 4ebf b715 67bf 7e28 bcbe
000001b0: c1ad 1dbf 6a2e b3be a76b 13bf d688 dd3d
000001c0: 0d9d 4d3e f4fb 043f 2a38 353f ff04 d13d
000001d0: e001 cdbe 76c5 05bf fcf6 f1be 32dd ae3e
