models/Quant2/SNN_Autoencoder_tsri_quant4.pth (torch, 27997 bytes, 11 tensors)

encoder_conv1.weight f4 [24, 1, 5]
000000 63 0a eb be af d3 d7 be da 03 a7 3e ab 83 c5 be
       -0.45906362 -0.4215369 0.32620126 -0.38577017
000010 35 9f 1b bc 03 fe 31 be ac 8e c8 be 9a 35 5f 3f
       -0.009498407 -0.17382054 -0.3917135 0.87191164
000020 19 37 aa 3f a5 74 56 3f 26 08 c2 3f 47 7f d7 3e
       1.3298064 0.83771735 1.5158737 0.42089292
000030 9a 88 36 be 22 df 57 3f b9 bb 4f 3e e4 d6 a0 3e
       -0.17825547 0.8432485 0.20286454 0.3141395
000040 51 13 1b 3f e0 f0 c9 3e 80 41 1e 3f 5b 81 5a 3c
       0.6057635 0.39441586 0.61818695 0.013336505
000050 85 9b c7 3e c1 56 8e 3f be 50 c8 3d eb 72 da 3e
       0.3898584 1.1120225 0.09781025 0.426658
000060 55 a5 eb 3e f3 72 2f 3f 7f 37 ee bb df 86 8b 3e
       0.46024576 0.68534774 -0.0072697992 0.27251336
000070 8e 6b 50 3f ee 54 2f 3f 73 f1 8d bf f6 e4 8f be
       0.81414115 0.6848897 -1.108931 -0.2810437
000080 d5 85 27 3f 96 01 f4 3c 3b 35 ae 3d 6a f4 80 3f
       0.65438586 0.029785912 0.08506247 1.0074589
000090 8f 10 a5 3f 1e 7d 01 3f 17 82 20 3e f7 af 16 be
       1.2895678 0.5058154 0.15674625 -0.14715563
0000a0 8a 47 65 be 3c a4 ad 3e 51 8c 85 3f 5f 69 55 3f
       -0.22390571 0.33914363 1.0433446 0.8336391
0000b0 6f 71 10 3f 0a 23 6d 3e 8c c4 02 be c6 b0 59 3e
       0.56423086 0.23157898 -0.12770289 0.2125884
0000c0 c2 77 23 be 6f 38 46 be 3a bf 9e 3f 71 28 36 3f
       -0.15963653 -0.19357465 1.2402108 0.7115546
0000d0 2f b4 82 3f df 15 7f 3f 58 43 9d bd cf 1c 7f 3e
       1.0211238 0.9964275 -0.076788604 0.24913333
0000e0 97 f8 9e 3f 7a 8f 01 3f ec 97 45 3f dd 6a 3a 3e
       1.2419614 0.5060955 0.7718494 0.18204828
0000f0 64 94 57 be 24 ec c7 3e 67 d4 67 bd ad 35 7d 3d
       -0.210527 0.39047348 -0.056599047 0.061818767
000100 3f 1f 5e bd 96 db 25 3e 72 71 dc 3e e9 33 5d 3f
       -0.054229017 0.16197047 0.43055302 0.86407334
000110 da ee 17 3f a0 67 45 3e d9 eb 4d be a0 50 1d 3e
       0.59348834 0.19277811 -0.201095 0.15362787
000120 d2 be 09 3e 2c 61 40 be 65 b4 e9 be 15 f2 5e 3e
       0.13451698 -0.18787068 -0.45645443 0.21772034
000130 fb 3a d8 3e cd e8 80 3f b1 13 23 3f 9a 1a 8a 3e
       0.422325 1.0071045 0.6370192 0.2697342
000140 74 7e 03 bf dc b1 33 bf 3a 44 3a bf aa 9f 73 bf
       -0.5136483 -0.70193267 -0.72760355 -0.95165503
000150 a3 96 61 3e 82 62 07 be f1 71 5b bd 78 55 a7 3d
       0.2203012 -0.13221171 -0.05357546 0.08170599
000160 6e 85 36 be 5f f3 9c bd 87 5a bf bb 0f 7f 1e 3f
       -0.17824337 -0.07663607 -0.005839649 0.61912626
000170 31 25 0f 3f 2a a8 26 3f 6f f3 18 3f f7 19 b0 bd
       0.55916125 0.6510035 0.5974645 -0.085987024
000180 81 38 7e bf b0 32 25 bf 54 50 ea be 2f ca 23 bf
       -0.9930497 -0.6453047 -0.4576441 -0.6398038
000190 c1 9c 8d 3f f0 4c 25 3f 5c 02 8a 3e 4c 9c d0 bc
       1.1063462 0.6457052 0.26954925 -0.025465153
0001a0 d8 b9 f2 3e df 86 58 3c d3 88 bc 3e 59 44 55 bd
       0.47407413 0.0132157495 0.3682314 -0.052067135
0001b0 d7 d8 dc bf 74 2a fe be c0 20 fb 3e 2d 3b 2b 3f
       -1.7253674 -0.49641764 0.49048424 0.6688717
0001c0 6e 7c 15 3f d9 75 1f 3f 7e ce e7 bd ae 24 27 3f
       0.5839299 0.62289196 -0.11318682 0.65290344
0001d0 c0 f2 0f 3f e4 12 08 3e 6b 29 7b 3c 65 69 38 3f
       0.5622978 0.13288456 0.015329699 0.7203582

encoder_conv1.bias f4 [24]
000000 61 c1 6a be 16 f3 c0 be 73 62 b9 be 0b cb 09 bf
       -0.2292533 -0.3768546 -0.36207923 -0.53825444
000010 e7 93 05 bf d3 c3 00 bf 74 82 81 3e 3e 52 94 be
       -0.52178806 -0.50298804 0.2529484 -0.28968996
000020 9f 39 ce bd ae 52 bc be ed b0 d7 bd 10 dd 2a be
       -0.10069584 -0.3678183 -0.10531793 -0.16685891
000030 a8 42 d9 be 58 2a 7d be 16 c2 40 3d 64 eb d8 be
       -0.42433667 -0.24723184 0.047060095 -0.4236709
000040 69 58 a3 3f 68 9b a4 be 7d de 50 bf 97 26 9f 3f
       1.2761356 -0.32149816 -0.8158949 1.2433652
000050 2b ac af be 3d fa 90 3f bc 2f 47 bf 33 10 d7 bd
       -0.3431104 1.1326367 -0.7780721 -0.10501137

encoder_conv2.weight f4 [12, 24, 5]
000000 60 65 74 3d 83 a9 87 bd d0 63 38 bd 5d 89 34 bd
       0.05966699 -0.06624129 -0.045017064 -0.044076312
000010 fc 5f b9 3c 2f 32 81 3e 00 66 bd 3e bb 8a 55 bf
       0.022628777 0.252336 0.36991882 -0.8341481
000020 36 be 22 bd ec 10 46 3e 30 39 66 3e b1 98 ce 3e
       -0.03973218 0.19342393 0.22482753 0.4035087
000030 14 75 58 3e 50 84 22 bf 6c ea 39 be 0a a6 d9 3c
       0.21138412 -0.6348314 -0.18155831 0.026568431
000040 dd b0 05 3e 94 9c f7 3b f4 f2 71 be 23 93 79 bd
       0.13055749 0.0075565074 -0.23627836 -0.060931336
000050 84 02 6d 3e c9 c4 c6 3e df b1 34 be 60 27 ff be
       0.23145491 0.3882201 -0.17645977 -0.49834728
000060 cd 8d 35 bb bb b8 6e 3e d4 ea ae 3e e1 f6 fe be
       -0.0027702928 0.23312657 0.34163535 -0.4979773
000070 ff 0b c1 be f3 fd d2 3c 36 69 2d 3e 1e f3 db bd
       -0.37704465 0.025755858 0.16934666 -0.1073973
000080 15 ca a3 be 91 e5 26 3e 81 15 2b 3d 9b 02 5b 3e
       -0.31990114 0.1629851 0.041768555 0.21387713
000090 e7 ae 06 3e e3 32 af 3e 75 73 da be e0 b8 44 bd
       0.13152657 0.3421851 -0.42666212 -0.048027873
0000a0 46 90 18 3e 4d 74 73 3e 09 4a c2 be 1e 56 a2 be
       0.14898786 0.23774834 -0.3794711 -0.31706327
0000b0 96 f5 a4 3d b4 24 36 3d a8 27 87 bc a1 4d 91 bd
       0.08054654 0.044468597 -0.016498402 -0.07094885
0000c0 9e e1 b0 bd e2 1f a3 3d 91 10 0c 3e 76 9d df 3e
       -0.08636783 0.079650655 0.13678195 0.4367482
0000d0 50 8e 0d be 2b fb 39 bf 21 25 d9 bd e4 db 3b 3d
       -0.13823819 -0.72648877 -0.10602785 0.045864
0000e0 96 8a aa 3e 10 ff bb 3d 6f df 6b be a7 29 aa bd
       0.33308858 0.09179509 -0.23034452 -0.08308726
0000f0 36 69 1c bd 5c f7 8e bd 51 ed ba bd 06 d4 29 bd
       -0.038186274 -0.06980774 -0.09127296 -0.041461967
000100 ad 37 0e bd 9e d1 4e 3e 93 d3 f5 3d 7c 83 ef be
       -0.034721065 0.2019715 0.12003245 -0.46780002
000110 c8 d6 96 be bf 6b c8 3c 14 28 8b 3d 59 cc a4 bd
       -0.2946074 0.02446544 0.06794754 -0.08046789
000120 aa ef 8a 3d cf 16 a2 bd 74 e8 4e 3d 1c 6e cc 3c
       0.067839935 -0.07914507 0.050514653 0.024954848
000130 9f 79 bc be 4a 00 f5 be 9e 44 77 be 12 cd 51 be
       -0.3681154 -0.47851783 -0.24147269 -0.20488384
000140 10 d6 74 be be 82 0c be 8f 4c 1e 3e 8c 78 c1 3e
       -0.23909783 -0.13721749 0.15458892 0.37787282
000150 5e cb 86 3e 10 c8 a5 3d dc 2c be bc c2 1a 1e bd
       0.26327032 0.080947995 -0.02321475 -0.038599737
000160 18 09 91 bd 16 95 b7 3d fb c1 2c bd c8 be 16 be
       -0.070818126 0.08963983 -0.04217718 -0.14721215
000170 f6 b9 03 bf 8e 29 02 bf 22 35 a5 be d2 7d a9 be
       -0.5145563 -0.5084466 -0.322671 -0.33103806
000180 f3 29 d8 bd 88 8a b1 3e b6 ed 83 3e 96 63 5b 3d
       -0.10554876 0.34676003 0.25767297 0.05356177
000190 01 53 9e 3e 82 2c aa 3d e5 15 2a bd b3 18 84 bf
       0.30922702 0.083092704 -0.041524787 -1.0320038
0001a0 b4 b7 0e be 00 74 bb bd 3d 74 53 bf 35 de 5f 3e
       -0.13937265 -0.091529846 -0.8259924 0.21862109
0001b0 e0 a7 9f 3d 8b b5 88 bd 5a a2 2c 3c 36 2d 2f 3e
       0.077956915 -0.066752516 0.0105367545 0.1710709
0001c0 cc 14 35 be bd 7f a0 be cd a9 57 be c9 c9 75 3e
       -0.17683715 -0.31347457 -0.21060868 0.24002756
0001d0 65 f5 1b 3e 9a d2 96 3d 5e fa d3 be ba 7a bd bd
       0.1523033 0.07364388 -0.41401953 -0.09251924
0001e0 58 03 a4 bd 1d fc a4 bd e0 76 61 bc 10 43 1f 3c
       -0.0800845 -0.08055899 -0.013761252 0.009720579
0001f0 a0 cc 2c 3c cd d7 1d 3d 84 b0 72 3d ce 12 4e bd
       0.010546833 0.03853588 0.05925037 -0.050310902
000200 14 a8 a6 3d 2f 72 13 bb 72 aa ee bc 3e 34 ec 3c
       0.08137527 -0.0022498479 -0.029134009 0.028833505
000210 cd ef 04 be 49 81 de bd e7 cd 0a be e3 2e 0f be
       -0.12982102 -0.10864503 -0.13555108 -0.1398273
000220 b0 a5 e3 bc 24 2d e2 bd 83 77 93 bd d4 32 d5 bd
       -0.027788967 -0.11043766 -0.072005294 -0.10410085
000230 2a 60 49 3d aa 19 b0 3d ad 69 0d bd 92 ad 84 bc
       0.049163975 0.08598645 -0.03452461 -0.016196046
000240 73 4a d9 3a e7 c0 dd bd 5f 19 87 bd 05 86 da bd
       0.0016577974 -0.10827809 -0.06596636 -0.106700934
000250 47 5f 59 3a b0 d3 42 bd c6 03 8c bd d5 51 8d 3c
       0.00082920905 -0.047565162 -0.06836657 0.017250935
000260 73 0c b9 3d ed 23 25 3d f7 92 2b 3d 61 d6 ed 3c
       0.090355776 0.040317465 0.041888203 0.029032888
000270 af 64 70 3d 24 e3 b8 bd 10 96 26 bd 12 f9 b2 3c
       0.05868977 -0.09027699 -0.040670455 0.021847282
000280 86 89 9f bd 6a 3f cb bb a7 0f ef bc fa 67 0b be
       -0.077899024 -0.006202628 -0.029182268 -0.13613883
000290 e1 4f 66 bd ac 9f 6d 3d 2c 6d 63 3d 98 7d 25 3d
       -0.056228522 0.058013603 0.055524036 0.04040298
0002a0 c8 08 79 bd 43 2a 88 bd dd be 06 be e5 40 5c 3c
       -0.06079939 -0.06648686 -0.13158746 0.013443206
0002b0 fd 53 89 bc 84 df ed bc 9c 31 cd bd d2 df 1b be
       -0.016763682 -0.029037245 -0.10019228 -0.152221
0002c0 5c 18 7e bd a9 08 44 bb a2 9a 20 be f2 b7 00 be
       -0.06203495 -0.0029912388 -0.15683988 -0.1257017
0002d0 30 87 73 3c 97 b2 6f bd 37 7c 88 bd 2d c9 51 bd
       0.014863774 -0.058519926 -0.06664317 -0.051217247
0002e0 30 d4 43 3c 72 78 c7 bc 65 b0 b1 bd dc 16 71 bc
       0.011952445 -0.024349425 -0.08676223 -0.014714923
0002f0 62 32 d6 bd 2f 96 a0 b8 64 a1 67 3d 78 36 78 bd
       -0.104588285 -7.6573684e-05 0.0565504 -0.06059882
000300 78 07 15 3c 60 73 60 3d 14 f9 b6 3c 06 80 70 bd
       0.009096019 0.05479753 0.022335567 -0.058715843
000310 c1 fb be 3b 00 52 92 bd 73 7c b8 bc 78 8c 07 bd
       0.0058283512 -0.071445465 -0.02252028 -0.033092946
000320 2e b3 0c be bb 0d ed bd 23 d8 ed bd b5 f0 03 be
       -0.13740227 -0.115748845 -0.116134904 -0.12884791
000330 d3 f5 26 be 58 b2 b1 bc 80 c8 f7 bc c4 c6 82 3c
       -0.16304712 -0.021691486 -0.030246973 0.01596392
000340 44 50 33 3d 57 d0 a6 bd 23 14 b8 bd e0 0d 0c be
       0.04377772 -0.081452064 -0.08988216 -0.13677168
000350 1c b9 ee bd b0 87 ca bd 1b 80 84 bc df b5 d1 bd
       -0.116564006 -0.098891616 -0.016174367 -0.10239767
000360 cf e6 04 be 7e 59 8e bd c3 fc 0d be bb 91 b3 bd
       -0.12978671 -0.06950663 -0.13865952 -0.0876803
000370 88 0a 02 bc 6b a0 fd bd 40 ab 98 bd 4a 21 18 bd
       -0.007937081 -0.12384113 -0.07454538 -0.037141122
000380 33 30 f4 3c 43 09 9c bd 60 f8 b4 bd 2a 31 62 3d
       0.02980814 -0.07618954 -0.08836436 0.055222668
000390 7f a7 8c bd 77 2b be bd f6 ba b1 bc 35 02 37 bc
       -0.06867885 -0.09285634 -0.021695595 -0.01116996
0003a0 d3 3c d8 ba 27 11 81 39 9b de da bd fc e8 f0 bd
       -0.0016497619 0.00024617577 -0.1068699 -0.11763188
0003b0 1e 8f 8c bd 17 5e 10 be 58 ad b0 bd 57 0c 18 be
       -0.06863235 -0.14098392 -0.08626813 -0.14848457
0003c0 cc 35 8d bd 30 79 9b bd 10 ac 7f bc 04 54 a3 3c
       -0.068950266 -0.07591474 -0.015604988 0.019937523
0003d0 3a 0e 5a bd d8 f8 c3 3d e9 31 59 be 08 25 94 be
       -0.053236224 0.095689476 -0.21210445 -0.28934503
0003e0 28 7a da bd 61 52 34 be af cd 59 be f7 94 b6 bd
       -0.10667831 -0.1760955 -0.21269868 -0.089151315
0003f0 03 c3 af be 4f f7 23 3d be 49 09 be 46 19 68 be
       -0.3432847 0.040030774 -0.13407037 -0.22665891

encoder_conv2.bias f4 [12]
000000 ff 2e 4e 3f 4a 7d 98 be 76 46 70 3f 62 b8 2e 3f
       0.8054046 -0.29783088 0.93857515 0.68250096
000010 d5 9a 0b 3e 98 30 2c 3f c6 c3 4c 3f cd 3b 74 3e
       0.13633282 0.6726165 0.79986227 0.23850937
000020 7a 0f f4 bd 4f 44 67 3f 45 3c 60 3f e2 4a 68 3f
       -0.119170144 0.90338606 0.87591964 0.9073926

encoder_conv3.weight f4 [6, 12, 5]
000000 de 54 d9 bf c4 c3 30 bf 8f 24 d1 3f 07 af 9f 3d
       -1.6979024 -0.69048715 1.6339282 0.07797056
000010 90 79 1a bf 04 97 9a bc ab d5 e9 bd e0 b5 c4 3d
       -0.6034174 -0.018870838 -0.11417707 0.096050024
000020 16 39 71 bd 32 44 9b 3d 5f 81 21 bf 9f a3 74 bf
       -0.058892332 0.075813666 -0.6308803 -0.95562166
000030 c1 55 9f be 95 26 8d 3e 66 87 2d be d3 59 14 3f
       -0.31120113 0.27568498 -0.16946182 0.5794956
000040 f9 4f 26 3f af 2b ff be c6 d8 e6 bd b5 a9 14 3f
       0.6496578 -0.49838015 -0.11271815 0.5807145
000050 39 5e 86 3e d5 8d 80 3f 4e 1b cb 3c 0a 92 eb 3e
       0.2624376 1.0043284 0.024793293 0.46009856
000060 0d b6 c3 3e 49 26 12 3f a7 6c 0c 40 ea c5 91 bf
       0.3822483 0.5708967 2.1941316 -1.1388524
000070 97 3c 1c 3e 37 37 85 3e 34 ee 56 3f 73 de b2 3f
       0.15257488 0.26018688 0.8395722 1.3974136
000080 20 e8 9d be 34 2a cf 3e 95 4f 58 3f 52 c5 c9 be
       -0.3084116 0.40461886 0.8449643 -0.39408356
000090 a6 9b 94 3f 47 d7 26 bd f2 63 16 be 0a 64 84 3b
       1.161 -0.04073265 -0.14686564 0.004040246
0000a0 d6 33 e9 3e c4 de a2 3e ef 3d 68 3f 35 91 68 3f
       0.4554736 0.31810582 0.90719503 0.9084657
0000b0 c7 1e cb 3e 42 d2 fa bd b0 24 91 3f 75 54 80 3f
       0.3967192 -0.12247135 1.1339321 1.0025774
0000c0 f7 3b b4 be 43 07 66 be 2a e5 28 bf 49 7d 32 3e
       -0.35202 -0.22463708 -0.65974677 0.17430605
0000d0 5f 42 3f 3f 65 a2 c6 3d 7f 70 e2 bd d0 1e 85 bf
       0.7471065 0.09698943 -0.11056613 -1.0400028
0000e0 18 6b 35 be 5b 21 a7 3f 91 20 8d bd 86 7d 9d be
       -0.17716634 1.3057054 -0.06890977 -0.3075983
0000f0 99 bb ea bf ce 15 c9 3f 45 7e a1 be 48 ec f1 3e
       -1.83385 1.5709779 -0.31541649 0.4725058
000100 82 d3 f8 3e c0 9b 90 3b d5 22 d7 bd 12 cf 9d bd
       0.48598868 0.004413098 -0.105046906 -0.07705511
000110 c0 8f ec 3b a2 97 18 bd 0f 43 de bf 50 4a 72 3f
       0.007219285 -0.037253983 -1.7364215 0.9464464
000120 ce e6 94 3e f1 3e 90 3e 0c 68 8b 3e df 2c 3c 3f
       0.2908234 0.2817302 0.2722782 0.7350597
000130 44 0c d5 bf c7 49 2c 3f dd cf a6 be 77 f6 98 be
       -1.6644368 0.67300075 -0.32580462 -0.29875538
000140 ad 1c 0d bd ad 9c 17 bf 7e 5e 4c be bf d7 7d be
       -0.034451175 -0.59223443 -0.19957921 -0.24789332
000150 aa e7 a9 3b 55 c5 86 be b3 22 d5 bf c1 94 71 bd
       0.005185087 -0.26322427 -1.6651214 -0.058979753
000160 87 36 58 be c4 ea 80 be 34 84 ba 3f c4 f7 ff bd
       -0.2111455 -0.25179112 1.4571595 -0.124984294
000170 48 13 44 3f ca 1a cc bd 38 85 83 3e 05 23 81 3f
       0.7659192 -0.09966047 0.25687575 1.0088812
000180 ce d0 2b bf b6 a2 79 3e 95 20 39 3e ae 4f 72 3d
       -0.67115486 0.24378476 0.18078835 0.05915802
000190 bc f9 73 be 7d 81 64 be f0 f8 38 be 17 fd 36 be
       -0.23825735 -0.22315021 -0.18063712 -0.17869984
0001a0 a1 92 98 be c6 3d ca be b6 be 1d be df ae 2b be
       -0.2979937 -0.39500254 -0.15404782 -0.16765927
0001b0 64 78 4b 3e 61 82 36 3c 49 75 b9 bf 4e 5c 50 3e
       0.19870144 0.011139483 -1.4488918 0.20347711
0001c0 b5 3e a5 3e d1 e1 51 3e 7a 88 98 3e d5 b1 3e c0
       0.32274404 0.20496298 0.29791623 -2.979604
0001d0 f8 70 8f be dc 13 30 3e 81 a4 33 be 6f ff 14 3e
       -0.28015876 0.17195076 -0.17543222 0.14550565
0001e0 2d 83 8e 3d b7 2c 02 3d 0b 54 01 3d 00 ca 22 3e
       0.069586135 0.031780925 0.03157429 0.1589737
0001f0 83 82 5a 3e 8c 13 5c bd 84 5a 86 3d 3b 6d 02 3e
       0.21338849 -0.05372958 0.06560233 0.1273698
000200 60 41 d8 3b 5c 24 b1 bd cf f1 0a 3d 78 dc 62 3d
       0.00659959 -0.08649513 0.033922013 0.055386037
000210 ae a0 1a 3d 2d 59 0f 3d e4 5b d5 3d 57 f3 3c 3e
       0.037750892 0.034997154 0.10417917 0.18452202
000220 0e d0 70 3e 95 54 96 3e 26 d2 80 3d 0f c2 b8 3e
       0.23516867 0.29361406 0.06290083 0.36085555
000230 7f 60 94 3d 98 46 8e 3d 25 85 23 3e 7b 23 24 3e
       0.07244968 0.069470584 0.1596876 0.1602916
000240 cb b2 3e 3e 6d b8 93 3e 34 26 88 3e f6 1c 2c 3e
       0.18622892 0.28851643 0.26591647 0.16807923
000250 37 88 8d 3e fb d7 62 3e 6e 51 90 3e 5b 05 4e 3e
       0.27642986 0.22152703 0.28187126 0.2011923
000260 1b 88 7f 3e 14 5b 94 3d 02 c1 90 3e e6 7c fe 3d
       0.24954264 0.07243934 0.28272253 0.12426166
000270 1d 73 53 3e 4d e6 79 3e 7f 90 33 3d 3d f6 3a 3e
       0.20649381 0.24404259 0.043838974 0.18257995
000280 ec 9b e0 3d b6 f0 ab bb 65 0a de 3c 07 dd 12 3d
       0.1096724 -0.005247201 0.027104566 0.03585532
000290 93 2d 2a 3e e5 f4 57 3d 7d 60 00 3d ce 8d 42 3e
       0.16618948 0.052723784 0.03134202 0.18999407
0002a0 a1 78 63 3e 15 59 32 3d b5 24 69 3e fb 30 70 3e
       0.22213985 0.043541986 0.22767909 0.23456185
0002b0 1b 6b 22 3e 32 1f 63 3e 03 b0 6b 3e e3 7b 8e 3e
       0.1586117 0.22179869 0.23016362 0.27828893
0002c0 ce e2 cd 3e dd 78 f0 3d f6 9b ca 3e 95 78 6c 3e
       0.402121 0.11741803 0.39572114 0.23092873
0002d0 e8 36 e1 be 7b f4 c1 3e 02 6e 63 3e 0c a9 55 3f
       -0.43987203 0.37881836 0.22209933 0.8346107
0002e0 b4 5d 7c 3e b8 7d da 3d 3c f5 e9 bc b0 13 a1 3d
       0.2464512 0.1066851 -0.02855932 0.07865083
0002f0 7e 92 c7 3d ec a6 7d bd 3e 58 e1 be cc 12 e9 bb
       0.09744738 -0.061926767 -0.44012636 -0.0071128365
000300 dc 51 0b 40 28 bb ee 3e 66 e6 bd 3e 77 db a6 3e
       2.1768713 0.46627164 0.37089843 0.32589313
000310 cf d2 3e bf d9 0c ed 3d 3f 37 84 be d2 d8 10 3f
       -0.7454042 0.11574716 -0.258234 0.5658084
000320 8f 24 9a 3e 87 1c 3c be 75 b9 f8 be 81 7d aa be
       0.30106017 -0.18370257 -0.48578992 -0.33298877
000330 c5 c2 86 3e 94 2c 47 3e 47 94 65 be dd 28 36 bd
       0.26320472 0.19450599 -0.22419845 -0.044472564
000340 85 e6 21 be 26 eb 20 3e 03 fd 14 3e 5e 5f 20 be
       -0.15810592 0.15714702 0.14549641 -0.1566138
000350 b5 56 76 be 91 d5 b5 bd 34 7e d3 3e 75 b1 71 3e
       -0.24056514 -0.08878625 0.41307223 0.2360285
000360 67 1b 50 3e b5 8d dc be 3d 9c 9c 3e 63 b4 a8 3e
       0.20322953 -0.43076864 0.3058795 0.32950124
000370 a0 4b 33 bf 7c c5 1f bf 95 98 e7 bd e0 41 9e bd
       -0.7003727 -0.6241071 -0.113083996 -0.077274084
000380 f4 b6 7b bf 99 e3 23 be af 6e 53 be f5 e8 3a c0
       -0.9832604 -0.1600479 -0.20647691 -2.9204686
000390 d2 12 ba 3d ae 39 70 be 21 10 03 bf c5 2a 08 3f
       0.09085621 -0.23459503 -0.51196486 0.5319026
0003a0 dd ae 80 bf 2b 96 34 3f 40 e1 88 3e 28 a3 70 bf
       -1.0053364 0.7054164 0.26734352 -0.93998957
0003b0 66 51 b9 3e 9d 76 61 c0 dc 78 81 3e ae 08 9f 3e
       0.36194915 -3.5228646 0.2528752 0.3106131
0003c0 de 4a 0a 3e 9a f2 e6 bd ae fe 82 3e a7 b8 d8 bd
       0.13505122 -0.11276741 0.2558493 -0.10582095
0003d0 f3 05 23 3f f0 61 e6 bb e8 97 8b bd c5 6b 84 bd
       0.6368095 -0.007030718 -0.06816083 -0.06465868
0003e0 db ac ee bd a6 a6 92 3d 7c 43 9f 3e 86 8a 61 3e
       -0.11654063 0.07160692 0.31106174 0.22025499
0003f0 11 b1 0e 3f 65 0a 55 3e 91 cb ab 3e 6b 26 cf 3d
       0.5573893 0.20804746 0.33553746 0.101147495

encoder_conv3.bias f4 [6]
000000 aa 70 34 40 ae 1a 6f 3f c4 0d 60 3f 23 e7 e2 3f
       2.8193765 0.93400085 0.87521005 1.7726787
000010 78 d1 8d 3f 82 16 00 40
       1.107955 2.0013738

deconv1.weight f4 [6, 12, 5]
000000 24 10 09 3e 43 42 da 3e e8 e0 24 c0 29 e6 1f 3d
       0.13385063 0.4262868 -2.5762272 0.039037857
000010 35 a8 02 3f 97 a3 79 40 59 e4 ff bd 6a 5f a5 3f
       0.51037914 3.9006097 -0.12494726 1.2919743
000020 2a 2f e6 be 1b b5 00 bf e3 bc fe 3e 09 3d fd 3e
       -0.44957858 -0.50276345 0.49753484 0.4946063
000030 dc 21 9a 3f e3 24 00 bf b6 6f 8c be df 59 c6 3f
       1.2041583 -0.50056285 -0.2742898 1.5496176
000040 ff 46 06 3f 30 6e f8 3e c3 37 28 3f 38 ae 48 3f
       0.5245208 0.48521566 0.65710086 0.78390837
000050 d7 3a 58 3f ff ab c0 bf 35 f7 fa be a4 42 fc be
       0.8446478 -1.5052489 -0.4901673 -0.49269593
000060 6f 98 a6 be 12 38 c4 40 d2 13 01 bf 70 14 90 c0
       -0.32538173 6.1318445 -0.5042087 -4.502495
000070 69 1a 08 bf ad 79 15 40 56 d6 b3 bf 6d 0b 87 be
       -0.531653 2.3355515 -1.4049785 -0.26375905
000080 25 00 20 40 26 87 e5 bf c6 fb 27 bf 80 a5 0d c0
       2.5000088 -1.7931869 -0.6561855 -2.2132263
000090 81 8a 53 3f 25 d4 b9 bf b3 4a b5 3e c2 11 28 c0
       0.82633215 -1.4517866 0.35408553 -2.6260839
0000a0 81 e2 19 3f 75 34 d3 3d 51 d5 61 c0 c7 03 f8 be
       0.6011124 0.1031274 -3.5286448 -0.48440382
0000b0 20 81 ff 3e cb 7b 38 bd f1 8e 7a c0 95 77 c0 bf
       0.49903202 -0.045039933 -3.9149745 -1.5036494
0000c0 10 00 00 3f 7e 77 03 bf b8 c9 1c be e9 5d e0 3e
       0.50000095 -0.51354206 -0.15311325 0.43821648
0000d0 83 37 98 3f 77 7f 3d be 00 2c df be 65 ad 1b bf
       1.1891941 -0.18505655 -0.43588257 -0.60811454
0000e0 d8 27 a9 be 04 31 8b 3f b9 32 1b 3f 36 94 66 3e
       -0.3303821 1.0874333 0.6062427 0.22517475
0000f0 15 bf 4c 3f 4a bc 7e be 1e cf 68 bf 0f db 62 be
       0.7997907 -0.24876514 -0.90941036 -0.22153877
000100 9d ee 2a bc 1a f4 0a 40 17 32 a0 bf 16 1c 6b be
       -0.010432866 2.1711488 -1.2515286 -0.22959933
000110 fb 6d 97 be b8 7e 73 be 6c c5 fa bc 29 e9 8e be
       -0.29576096 -0.23778808 -0.030611716 -0.27912262
000120 a7 03 8c 3f bb 14 80 be 57 52 95 be d3 63 40 3f
       1.0938615 -0.25015816 -0.29164383 0.7515232
000130 c9 64 40 bf 6e 49 6a be b4 1a 4b bf 09 7e f9 bd
       -0.75153786 -0.22879574 -0.7933762 -0.121822424
000140 09 aa 2f 40 e6 19 a1 bf 82 5c 26 3e be 13 a1 bf
       2.7447531 -1.2586029 0.16246226 -1.258415
000150 43 4d 31 3e a4 88 82 3e 2d 24 e2 be 45 8a 6f 3e
       0.1731463 0.25494874 -0.44168225 0.2339259
000160 a1 7e f1 be 8c d0 80 3e 4a b7 2c bf a9 49 53 3f
       -0.47166923 0.2515911 -0.67467177 0.8253427
000170 fc 9d 69 3e 91 52 17 be 1f 1b cb bd 8c 96 15 c0
       0.22814173 -0.1477759 -0.09917282 -2.3373137
000180 2f 21 53 be 55 4f a5 bf 4c 92 b3 3c 4f e5 8a bf
       -0.20618127 -1.2914835 0.021920346 -1.085123
000190 12 e6 aa 3d 3b a7 86 3e ef 63 ac be fa ae 55 3e
       0.08344664 0.26299462 -0.33669993 0.2086753
0001a0 44 80 35 be 29 96 08 bf 60 fe 0a bf 70 b8 89 be
       -0.1772471 -0.53354126 -0.54294395 -0.26898527
0001b0 31 7e 27 3e b6 d5 f8 3d 83 c0 92 be 3d 6c 2d 3e
       0.16356732 0.12150137 -0.286625 0.16935821
0001c0 9c 13 e1 3e bf 10 8c be ad 5c 72 be 32 07 0d 40
       0.43960273 -0.27356526 -0.23668166 2.2035642
0001d0 18 c5 dd 3f cf e9 cf 3e f1 c0 27 3f 82 a5 75 3e
       1.7325773 0.4060807 0.6552878 0.23988917
0001e0 18 0b 16 c0 c8 50 1f bf d7 57 14 c0 e9 b4 b8 bf
       -2.344427 -0.6223264 -2.3178613 -1.4430209
0001f0 ab a3 1a c0 34 f8 90 bf 58 e4 10 bd 69 cc cd bf
       -2.4162395 -1.1325746 -0.035374016 -1.6078006
000200 4f e6 b3 be 73 45 d4 bf d1 56 27 bd b1 20 38 3e
       -0.3513665 -1.6583694 -0.04085428 0.17981221
000210 42 47 26 3f 65 ea 66 be fa e1 f3 bd 01 15 5c bf
       0.6495248 -0.22550352 -0.11908336 -0.8596955
000220 2a ea bb be dd 02 97 bf 60 07 81 bf f6 f7 17 c0
       -0.3670209 -1.1797749 -1.0080376 -2.3745093
000230 3d 9d 98 bf bc d7 22 be 37 d8 df bf 89 93 b3 bf
       -1.1922985 -0.15902609 -1.7487859 -1.4029399
000240 a1 c0 0e c0 b3 11 70 bf 42 86 47 bd af 07 44 bf
       -2.2305071 -0.93777007 -0.048712023 -0.76574224
000250 79 e3 da be 3f 3b ba bf 85 70 83 bb 4e 90 d4 3e
       -0.42751673 -1.454933 -0.004011216 0.41516346
000260 ee 97 fd 3d 66 84 32 bd 6c 0d 88 3e 63 99 1e be
       0.12382494 -0.043583296 0.2657274 -0.154882
000270 48 89 35 3e b1 36 07 3e 98 d7 00 3e a0 55 5e 3f
       0.1772815 0.13204457 0.12582242 0.86849403
000280 5c 3e 3b 3f 1e f0 92 bf c8 17 32 3f f0 5a 93 bf
       0.7314203 -1.1479528 0.6956754 -1.1512127
000290 70 a2 bf 3e b5 45 1a be 64 e2 8c be 87 a9 0b bf
       0.37428617 -0.15065654 -0.27516472 -0.54555553
0002a0 95 66 ba 3f 56 91 e2 be de 64 8c 3f 81 9e b0 bf
       1.4562556 -0.44251508 1.0968282 -1.3798372
0002b0 eb e0 17 bf eb 4d f3 bf c3 7d 7d be 65 66 9a be
       -0.5932757 -1.9008154 -0.24755006 -0.30156246
0002c0 aa 9b 14 bf 7c a1 72 3e de 41 55 bf b3 12 c1 be
       -0.58050025 0.23694414 -0.8330363 -0.3770958
0002d0 26 d3 7b 3e f2 0f 54 be ae a6 92 3f a8 18 1c bd
       0.24592265 -0.20709208 1.1457117 -0.03810945
0002e0 63 5c 25 be e2 74 a3 bd 6f bd 10 bf 4b 3f 19 40
       -0.16148524 -0.07981278 -0.5653905 2.394488
0002f0 c8 ba cb bf 55 ea 95 3d e7 e5 b2 b9 c1 3a d1 bd
       -1.5916376 0.07320086 -0.00034122096 -0.102162845
000300 c7 b6 78 3e fb 41 41 bd a7 c7 a1 bd 79 35 dd 3d
       0.24288474 -0.047182065 -0.07899409 0.10801215
000310 9d 03 3e be 31 76 9c 3e 3b eb e6 be 5a 43 97 bd
       -0.18556066 0.30558923 -0.45101342 -0.07385893
000320 6e f1 55 3e 99 37 a0 bf 53 18 ae bf fb 0e a0 bf
       0.2089288 -1.2516967 -1.3601173 -1.2504572
000330 9a e6 7a be 56 68 85 3e 13 b1 c7 be 8d df b3 3e
       -0.2450203 0.26056165 -0.39002284 0.35131493
000340 46 45 cb be f2 94 5d 3d cb 90 80 be 9c c5 f5 bd
       -0.3970129 0.054097123 -0.25110468 -0.120005816
000350 37 32 a2 be be 0e 8a 3e 5b e6 93 be 38 a9 47 bf
       -0.31678936 0.26964372 -0.28886685 -0.7799258
000360 f5 85 2f 3e 22 3d 5a bf c2 40 82 3e 39 83 88 bf
       0.17140944 -0.8524953 0.2544003 -1.0665046
000370 f2 40 dc bd 0f 9a af 3d 80 68 ba bb 84 52 aa bd
       -0.10754575 0.08574306 -0.005688727 -0.0831652
000380 51 4b 0a bd f4 d0 25 3e e9 23 f7 3f 4b da 84 3f
       -0.033763234 0.1619299 1.9307834 1.0379118
000390 1a 19 2d 3f 9e 61 60 be bb 71 7f be bc f0 f6 3e
       0.67616427 -0.21912238 -0.24945728 0.4823054
0003a0 c8 be 91 c0 d6 d4 48 3d bf d4 76 3e 49 92 fa 3f
       -4.5545387 0.0490311 0.24104594 1.9575893
0003b0 ba f4 4d 3f f4 19 40 c0 b6 b2 a5 3f 14 c5 87 3e
       0.8045155 -3.001584 1.2945163 0.26517546
0003c0 1c b6 dd 3e 4d 7a 35 bc 4c 27 97 3e 7d 96 d1 3c
       0.43303 -0.011076522 0.2952217 0.025584454
0003d0 d4 e6 0d bf c4 a1 0d bd 4c 65 00 bf 60 1d 26 3f
       -0.5543034 -0.0345781 -0.50154567 0.6488857
0003e0 4f 5d 9c bf 04 db 01 c0 0b 06 56 bf 41 e8 75 3e
       -1.2215976 -2.0289927 -0.8360297 0.24014379
0003f0 ce 86 5c c0 b2 31 1e 3d 32 54 5d c0 7d 05 4e be
       -3.4457278 0.038621612 -3.4582639 -0.20119281

deconv1.bias f4 [12]
000000 6c 29 82 3f cc da d6 3e e4 30 77 3d 83 56 4f 3f
       1.0168891 0.41963804 0.06034936 0.8099138
000010 2b 2a b0 3f ca ee 36 3e 61 99 94 bf 90 07 65 3f
       1.3762869 0.17864528 -1.1609308 0.89464664
000020 f1 56 82 bf 32 e2 6b bf bd fb ee 3f 49 e0 0d bf
       -1.0182782 -0.9214202 1.8670574 -0.55420357

deconv2.weight f4 [12, 24, 5]
000000 a6 a3 71 3c b9 5c 99 bd 9e 6f 9e 3c f6 55 40 bf
       0.0147484895 -0.074883886 0.019340333 -0.75131166
000010 95 db 44 bd 5f 93 36 3f 0e 94 89 be 1f 35 61 3e
       -0.048060972 0.7131862 -0.2687077 0.2199292
000020 f9 bc 7c be f2 2e d6 be 2a a4 8a be 69 be 9b 3e
       -0.24681462 -0.4183269 -0.27078372 0.3041871
000030 46 f7 c3 3c 6f 0c 7e 3e ad 4f 64 bf 5e 07 8e bf
       0.02392162 0.2480943 -0.89184076 -1.1095998
000040 38 11 36 c0 d3 96 a0 bf 2d a2 e0 bf e1 57 08 bf
       -2.844801 -1.2546028 -1.7549492 -0.5325909
000050 ba 3d 47 bd 48 bb 77 3d 71 c1 26 bd d0 9d 9a bb
       -0.04864285 0.06048134 -0.040711824 -0.0047185197
000060 0d 50 92 3c 6f a6 3b be ee cc 10 be a3 33 0f be
       0.017860437 -0.18325208 -0.14140674 -0.13984542
000070 ec cc 21 be 32 a7 6c 3d 1c 59 2f 3f 09 05 62 bc
       -0.15800828 0.057776637 0.68495345 -0.013795146
000080 85 09 92 3b bc c7 cb 3e 17 3e 9f be 36 47 03 be
       0.004456701 0.39800823 -0.31102058 -0.12820134
000090 6d 04 89 3c 73 e0 a9 bd 56 eb 3f 3f 72 30 f9 bd
       0.016725743 -0.082947634 0.7496847 -0.12167443
0000a0 37 57 40 3f df 3f 87 be 76 d2 3f 3f 05 30 63 bf
       0.7513308 -0.26415917 0.7493051 -0.88745147
0000b0 89 e8 66 bf dc 05 b2 bf db 76 84 be 5f f5 2f bf
       -0.9019857 -1.3908038 -0.2587193 -0.6873378
0000c0 1c e2 94 bf 4c e3 30 c0 af 49 b1 bd 0e b3 87 3d
       -1.1631503 -2.763873 -0.08656632 0.06625949
0000d0 4d 51 c3 3c d0 01 52 3d ed 7d ba bd 1b 17 af be
       0.023842478 0.05127126 -0.0910605 -0.34197316
0000e0 6a 20 11 3e 63 08 31 3f ca ba f4 bd 64 e9 c6 3d
       0.14172521 0.6915342 -0.1194969 0.097124845
0000f0 c8 8b 76 3d b9 a1 6b 3e 62 09 99 bd 2c fe 41 bf
       0.0601919 0.23010911 -0.07472493 -0.7577846
000100 dc 77 9c bb b9 d9 a1 3b 47 d4 93 bd dc 53 02 c0
       -0.0047750305 0.0049392846 -0.07218223 -2.0363684
000110 b7 d1 3c bf b1 83 80 3c 36 7d 30 3d 6a ce 7d 3e
       -0.737575 0.015687795 0.04308816 0.24785772
000120 00 8d d6 3c fc 4e 54 3d fd 6e 2d bc e0 e2 0d bf
       0.02619028 0.051833138 -0.010585544 -0.5542431
000130 86 1f bc 3c 50 18 40 3f 7e 7e 7c 3e 64 4a 7b 3e
       0.02296425 0.750371 0.24657628 0.24540097
000140 1a 06 a1 bc 7b 85 f9 bd 20 ff 90 bf a2 3c b1 3b
       -0.01965623 -0.121836625 -1.1327858 0.0054088393
000150 46 cd 09 bc 12 70 73 3c 77 a0 d8 ba 74 c8 e8 bf
       -0.008410757 0.014858263 -0.0016527314 -1.8186173
000160 23 c7 9b bd 72 7d 26 3d 7e d4 3a 3f 89 97 1f 3f
       -0.07606342 0.040646978 0.7298049 0.623406
000170 be 12 74 3d ce 09 4b 3f 81 42 81 3e 58 c8 ce bd
       0.059588186 0.79311836 0.2524605 -0.10096806
000180 13 e2 c8 be 4e db 92 bf 11 2d b8 bd c2 26 8a bd
       -0.3923498 -1.1473176 -0.08992971 -0.06745674
000190 22 5a 0a be 97 ba 8a bd 9f e0 ee be 3d a5 bc 3d
       -0.13510945 -0.067738704 -0.46655747 0.09211204
0001a0 5e 9b 18 be 6a cc a8 be 3e fe 80 bd 7f f9 b9 bd
       -0.14903018 -0.32968456 -0.06298493 -0.09080791
0001b0 3a 9a 9c bb 12 96 3e bf 1c c3 ae bf 16 75 a2 be
       -0.0047791274 -0.7444774 -1.3653293 -0.31729954
0001c0 ee 79 b2 bf 23 0d e6 bd 25 f2 be be 9e 43 e3 3d
       -1.394346 -0.112329744 -0.37294117 0.11096881
0001d0 13 23 51 be d7 4e ed be ea d6 14 bd 93 05 2c bd
       -0.20423536 -0.46349213 -0.03633777 -0.041997503
0001e0 06 e5 97 bd 22 90 01 be 94 91 c2 bd fd e0 60 be
       -0.0741673 -0.12652639 -0.09500423 -0.21960826
0001f0 57 31 aa 3c da b0 b2 bd c0 0a 45 be d2 a4 17 3f
       0.02077548 -0.08725138 -0.19242382 0.5923587
000200 26 a9 d0 3d cf 50 a2 3d 00 ff 2e 3f 7c f9 83 bd
       0.101885125 0.07925569 0.6835785 -0.0644407
000210 02 a4 bc bd 56 ce 56 3d 1d 48 25 3d 03 8a 13 bf
       -0.092109695 0.05244287 0.040351976 -0.57632464
000220 a2 49 ee 3e 07 56 e2 be 52 51 71 bf c9 1b 09 bf
       0.46540552 -0.4420626 -0.9426471 -0.5355802
000230 4d fe c9 3b 2a 98 f9 bb 06 b9 80 3d 60 f4 09 3b
       0.006164348 -0.0076170163 0.062852904 0.00210502
000240 86 5a 0b 3c e3 ca 73 3d e4 58 a7 bd 5b 87 9f bd
       0.008505469 0.05951966 -0.081712514 -0.07789489
000250 dc 1b 1a be 04 a8 06 bf 76 ce 1f 3d 20 5a 68 3b
       -0.1504969 -0.5260012 0.039015256 0.003545411
000260 80 cd c0 bb 25 88 ce be 6b 94 b3 be e0 0c e2 3c
       -0.0058838725 -0.40338245 -0.3507417 0.02759403
000270 d3 fa 79 3c b2 0a 2a bd 7f af 14 3f a1 4a cc 3c
       0.015257555 -0.041514106 0.58080286 0.02493793
000280 06 04 a4 be d5 f6 9e bd 51 0b 6f bf 07 91 bc be
       -0.3203432 -0.07761923 -0.9337664 -0.36829397
000290 1d 94 c2 3e e5 fb 44 3f 69 f3 b8 be 51 20 7b bf
       0.38003626 0.7694686 -0.36123207 -0.98096186
0002a0 f2 23 a0 be 1d 4e 7c be 70 46 76 3d 11 79 9c bd
       -0.31277424 -0.24639173 0.06012577 -0.07640279
0002b0 3d da 7b ba c9 d7 6c bd ee 1b a7 3c 05 30 d1 be
       -0.000960741 -0.057822976 0.02039906 -0.40856948
0002c0 38 12 01 be c6 cd 47 3e 0c e8 4a be a8 dd a6 3e
       -0.12604606 0.1951209 -0.19815081 0.32590985
0002d0 1f 4c 39 bd 52 06 ea bd e7 91 7d 3d cd ad 92 3e
       -0.04523861 -0.11426987 0.06190672 0.28648224
0002e0 14 4f dc bd 80 55 20 3c 3d 71 83 bd 1b 42 d2 3e
       -0.107572705 0.00978601 -0.06418083 0.4106606
0002f0 45 6c 8b 3e 2f a1 03 be ed a3 03 bd da 7b 11 bf
       0.2723104 -0.12854455 -0.032138754 -0.5682961
000300 a0 52 4f bc 32 a7 b2 39 00 0d 2f bd 16 92 02 3e
       -0.012653977 0.00034075376 -0.042737007 0.1275104
000310 2b a6 2b bf 29 a2 03 3e 7c d2 fd 3d 32 fe 17 be
       -0.6705043 0.12854828 0.12393662 -0.14843062
000320 4a 6f 27 bd 06 8d c6 3a 89 ee f8 bd 48 9b 14 bd
       -0.040877618 0.001514823 -0.12154872 -0.0362809
000330 c7 76 3c bc 51 1e 0c bd a8 5f 58 bd 11 92 94 3e
       -0.011502928 -0.0342086 -0.0528256 0.2901769
000340 93 fc c2 bc 97 ef 70 bd d6 fc 87 be d4 f7 2d bc
       -0.023802077 -0.05882224 -0.26560086 -0.010618169
000350 5a c0 73 3d 90 d3 4f 3f 25 42 41 3d fd 0b 50 bd
       0.059509613 0.81182194 0.04718222 -0.050792683
000360 0e 11 99 be 5c ab e9 bd 4c 8f 07 bd 4c eb c1 bd
       -0.29895824 -0.11409637 -0.033095643 -0.094687074
000370 ac 43 22 bf a5 6e 81 be 1f ae 21 3f 90 ff 87 bd
       -0.6338451 -0.25279728 0.6315631 -0.066405416
000380 cb c9 ae 3d 10 fb 4d bd 52 7f b1 bd 79 8b 43 bc
       0.08534583 -0.05028826 -0.086668625 -0.011935108
000390 40 0e 42 bd 1f 60 b1 3e 5d 5f a9 be 23 8d d8 be
       -0.04737687 0.34643647 -0.3308057 -0.4229518
0003a0 0f 4f 79 bf 6b cd 72 3d 7d e0 39 3e d0 ff a5 be
       -0.9738626 0.059277933 0.18152042 -0.32421732
0003b0 4a bf 0e bf 51 5c 82 bf ea 5f a9 bd 75 36 6d 3d
       -0.55760634 -1.0184423 -0.08270247 0.057913262
0003c0 7d 9f a9 bd 70 b5 0d 3c ca 4e 01 be e3 cf 30 3f
       -0.08282373 0.008649215 -0.12627712 0.6906721
0003d0 f3 6f a5 bd 36 9c 02 3d 48 2d bf 3e d3 e5 fd 3d
       -0.08077993 0.031887256 0.37339234 0.12397351
0003e0 e7 53 3c 3e 61 5d 2d 3f 23 24 06 be 9e dd 0d bf
       0.18391381 0.6772061 -0.13099723 -0.55416286
0003f0 ec 97 47 be cc da f7 be 01 00 17 3f 64 8c ec be
       -0.19491547 -0.48409116 0.5898438 -0.4620086

deconv2.bias f4 [24]
000000 15 80 52 bf 82 c0 3a bf 5c 28 20 bf f0 28 d7 3e
       -0.8222669 -0.72949994 -0.62561584 0.4202342
000010 25 7f 10 be 1e dd c0 bd d1 cf 47 bf 27 13 4b bf
       -0.14111002 -0.09417175 -0.7805148 -0.793261
000020 c8 9e 2b bf 6b b7 71 3d f3 21 0a be 6f 10 2d bf
       -0.67039156 0.05901281 -0.13489513 -0.676032
000030 12 b4 f7 be df 9c e9 be fe 29 91 be 14 58 be be
       -0.4837957 -0.45627496 -0.2835235 -0.37176573
000040 2c 9f 9f be 25 b4 1a bf b5 bd 3c bf ce 97 18 ba
       -0.31176126 -0.6043113 -0.7372697 -0.00058209605
000050 20 04 27 bf f7 54 13 bf 48 75 bd be 04 86 c2 be
       -0.6524067 -0.5755152 -0.3700354 -0.3799287

deconv3.weight f4 [24, 1, 5]
000000 2e 45 8b 3f 9c ea 4d 3f b8 84 ee 3f 94 aa 40 3f
       1.0880487 0.8043611 1.8634253 0.7526028
000010 87 6d 27 40 75 df f1 3f f7 48 4a 40 6f 6c a4 3e
       2.61606 1.8896319 3.1607034 0.32113978
000020 50 4b e8 3e bc 5d d9 3e f5 96 c8 3f 24 07 46 40
       0.4536996 0.42454326 1.5671068 3.0941858
000030 10 26 40 3f 5a 02 40 3f b5 58 62 be 59 36 4f bf
       0.7505808 0.7500359 -0.22104152 -0.809423
000040 76 ff 4f bf 3e 17 50 bf 85 f9 4f bf e9 8e bc bd
       -0.8124918 -0.81285465 -0.8124011 -0.092069454
000050 84 81 b9 be 09 31 8f be a5 56 d7 3e 1d d7 1c be
       -0.36231625 -0.27967098 0.42058292 -0.15316434
000060 e4 a3 50 bd fb aa 1c 3d f1 19 93 bd 70 03 e3 bd
       -0.05093755 0.038248997 -0.07182682 -0.1108464
000070 97 ae 22 be 25 3b 5f bf 6b 43 e8 bd 4d 0b 1d 3d
       -0.15886913 -0.8719962 -0.11340984 0.038340855
000080 cb 3a 31 be 75 d6 5b be 38 30 cb 3c f0 b7 58 be
       -0.17307584 -0.21468528 0.024803266 -0.21163917
000090 f7 68 db be 0e 4e 25 bf ac 47 7e bd 11 51 8d 3d
       -0.4285352 -0.64572227 -0.06208007 0.06900228
0000a0 ee bd 30 3d c2 14 db be 96 04 d0 be f4 29 87 be
       0.04314988 -0.42789274 -0.406285 -0.26399195
0000b0 ae e1 94 be 5d 96 4e bf d6 52 11 bf 82 d8 0f bf
       -0.2907843 -0.80698186 -0.5676702 -0.5618974
0000c0 56 c7 0f bf bd 55 a0 be e4 58 4a 3e 34 fa 61 be
       -0.5616354 -0.31315413 0.19760472 -0.22068101
0000d0 b0 4f dc bd d7 a5 fb bd 8c c1 0d 3d ca 0a c0 3e
       -0.10757387 -0.12287491 0.03460841 0.3750823
0000e0 b9 13 c0 3e b6 5b 51 3f dc a4 11 3e 66 b9 9e 3f
       0.37515047 0.81780565 0.14223045 1.2400329
0000f0 a4 2b 53 3f 74 b3 d4 3f 43 20 d8 3f fd 0f d8 3e
       0.82488465 1.6617265 1.6884845 0.42199698
000100 e7 c6 1c 3e 32 43 03 bf df e3 b3 be f4 98 00 3e
       0.1531025 -0.51274407 -0.3513479 0.12558347
000110 df 2c 11 bf 6b bd b1 3f 41 9a cd 3e 79 cd d0 3e
       -0.5670909 1.3885931 0.4015675 0.40781763
000120 4f c9 69 3e 6f e1 1c 3f 4d 63 bf 3d f5 fe df 3e
       0.228307 0.61281484 0.09345112 0.43749204
000130 f9 20 30 3f 33 43 5e 3f 99 5d 70 3e 74 7c 3e 3d
       0.6880031 0.8682129 0.23473205 0.046505406
000140 25 49 f3 be a0 aa 82 bd 41 0e e0 be 09 59 20 bf
       -0.47516742 -0.063802004 -0.43760875 -0.62635857
000150 8a df 7d bd cc b5 ad bf 49 6b 04 c0 99 d4 52 40
       -0.06198076 -1.3571105 -2.0690482 3.294226
000160 fa 59 6c be 81 dc a4 3f b0 75 e0 3e a9 35 38 3f
       -0.23081198 1.2879792 0.43839788 0.7195688
000170 92 06 4f 3f 7a 64 9e 3f 66 a4 dd 3e 4d d7 60 3f
       0.808694 1.2374413 0.4328949 0.8782852
000180 51 d6 04 40 8a 22 a3 3f 93 24 0b 3e 5d bc 3a 3f
       2.0755808 1.2744915 0.1358817 0.7294367
000190 a3 2d 2c bd b8 16 27 3d 4b 00 00 40 3f 22 16 40
       -0.04203571 0.04079315 2.000018 2.3458402
0001a0 95 c1 41 be 06 4f 85 40 5b ce 9e 40 fb 6a 23 be
       -0.18921502 4.1658964 4.96269 -0.15958779
0001b0 db 07 00 bf e3 78 89 be 35 31 73 bf ef aa 05 3f
       -0.50011986 -0.26850042 -0.9499696 0.5221395
0001c0 13 13 ef 3e f2 f0 df be 9b 8a 4e be 0a 78 40 be
       0.4669424 -0.43738514 -0.20170061 -0.18795791
0001d0 20 d4 80 3f 5f 21 12 3f df c1 bb be 28 1d 8d be
       1.0064735 0.5708217 -0.3667135 -0.27561307
