models/Quant2/SNN_Autoencoder_tsri_quant8.pth (torch, 28701 bytes, 16 tensors)

encoder_conv1.weight f4 [24, 1, 5]
0	0xbe6a8b72	-0.22904757
1	0xbdc84469	-0.09778673
2	0x3fc1b634	1.5133729
3	0x3e68cf92	0.22735432
4	0x3e6c4a44	0.23075205
5	0x3dc5893c	0.09645316
6	0xbec45dce	-0.38352817
7	0xbba4ae91	-0.0050256927
8	0xbed7f133	-0.42176208
9	0x3d128f43	0.035781156
10	0x3fda9b2b	1.7078604
11	0x3e8afd65	0.2714645
12	0x3d904c7c	0.07045838
13	0xbda5c18d	-0.080935575
14	0xbe955e28	-0.29173398
15	0x3ce962b4	0.028489448
16	0xbdc3dfdd	-0.09564183
17	0xbe08374a	-0.13302341
18	0xbd28f4a5	-0.041248936
19	0x3cdeaff4	0.02718351
20	0xbd2d6b2c	-0.042338535
21	0xbdcb5fa4	-0.099303514
22	0xbfe6c1f2	-1.8027937
23	0xbed4336a	-0.41445476
24	0x3d2fec92	0.04295022
25	0x3cf00ed0	0.029303938
26	0xbc881389	-0.016610878
27	0xbc10ad2e	-0.008830352
28	0xbff57d11	-1.9178792
29	0xbc0ecf5f	-0.008716433
30	0x3f002463	0.5005552
31	0x3fb3ec09	1.4056407
32	0x3bdaaa30	0.00667312
33	0xbd61cddd	-0.055127967
34	0x3cf3b0ae	0.029747333
35	0x3ea64439	0.32473925
36	0x3f6f7f48	0.9355359
37	0x3f7cb726	0.9871696
38	0x3f351592	0.7073604
39	0x3e7c69b4	0.24649698
40	0x3de527cd	0.11189232
41	0x3f084910	0.53236485
42	0x3f412e3a	0.7546116
43	0x3f297e1c	0.6620805
44	0x3f35616a	0.7085177
45	0xbdda2cef	-0.10653102
46	0xbeac3021	-0.3363047
47	0xbe483e78	-0.1955508
48	0xbe24094e	-0.16019174
49	0xbded16ad	-0.11576591
50	0x3f5e7b2b	0.8690669
51	0x3cc43de5	0.023955295
52	0x3cfe4d89	0.031042831
53	0x3f58f464	0.8474791
54	0x3fb105b8	1.382987
55	0x3e3d6240	0.1849451
56	0x3eeebe8f	0.4662976
57	0x3fcf604d	1.6201264
58	0x3f7c438c	0.9854057
59	0xbf10e70c	-0.5660255
60	0x3e145aae	0.14487717
61	0x3e498fea	0.19683805
62	0x3deee248	0.116642535
63	0xbe4c1e0f	-0.19933341
64	0xbff6cef0	-1.9281902
65	0xbf1e8d4b	-0.61934346
66	0xbf3ffc10	-0.7499399
67	0xbf71a60f	-0.9439401
68	0xbebfeafe	-0.37483972
69	0xbea4b14a	-0.3216651
70	0xbf1744ae	-0.5908917
71	0xbf10d2aa	-0.5657145
72	0x3e905b55	0.2819468
73	0x3fbf7794	1.4958367
74	0x3f57eef6	0.84349
75	0xbe54cae8	-0.20780528
76	0xbddc8e62	-0.10769345
77	0x3fb3ef1e	1.4057348
78	0x3ecc6098	0.39917445
79	0x3d41903e	0.0472567
80	0x3ee69113	0.45032558
81	0x3ea9fc53	0.3320032
82	0xbdd47962	-0.103747144
83	0x3ee1b390	0.44082308
84	0x3fa3cdea	1.2797215
85	0xbcf2f9f0	-0.029660195
86	0x3eab46b7	0.3345239
87	0x3fd80c47	1.6878747
88	0xbcc79b53	-0.024366057
89	0x3c0ba467	0.008523083
90	0xbee3be74	-0.44481242
91	0xbfbc1dc2	-1.4696581
92	0xbd939f89	-0.07208163
93	0xbd4a071f	-0.049323197
94	0xbc3cf9cf	-0.011534168
95	0xbdb52968	-0.08845788
96	0x3e9ebaf0	0.31001997
97	0xbde03685	-0.10947899
98	0x3fdce6f5	1.7257982
99	0xbe3ff5b0	-0.18746066
100	0x3f5e4fa4	0.8684027
101	0x3f572b62	0.8405057
102	0x3c4a06cf	0.012330725
103	0x3f54821c	0.8301103
104	0x3c3710ac	0.0111734085
105	0x3e02c98c	0.12772197
106	0x3fb94bcc	1.4476256
107	0x3c1133a8	0.0088624135
108	0xbe13d3d6	-0.14436278
109	0xbd829151	-0.06375373
110	0x3fce535f	1.6119193
111	0x3ebbd369	0.3668473
112	0xbf779f19	-0.9672714
113	0xbf404ad0	-0.75114155
114	0x3f02dc8d	0.51117784
115	0x3f3feac4	0.749676
116	0x3fb2adf4	1.3959336
117	0x3ef52d32	0.47886044
118	0xbc94bbde	-0.018155988
119	0xbe07a7f9	-0.1324767

encoder_conv1.bias f4 [24]
0	0xbf305c2c	-0.68890643
1	0xbe7ab244	-0.24482065
2	0xbf0c396c	-0.5477512
3	0xbe9dd359	-0.30825308
4	0x3fc7fd5c	1.5624194
5	0x3f9d354a	1.2281888
6	0xbe201453	-0.15632753
7	0xbeefeac3	-0.46858796
8	0xbf7844bc	-0.9697988
9	0xbed09e93	-0.40745983
10	0xbf139abd	-0.57657987
11	0xbe01c528	-0.12672865
12	0x3fafefe8	1.3745089
13	0x3fceabcb	1.6146177
14	0xbe823ab2	-0.25435406
15	0x3dad18c5	0.0845199
16	0xbf38a3b2	-0.7212478
17	0xbf1665ca	-0.5874907
18	0x3fbdff60	1.4843559
19	0xbf28cd79	-0.65938526
20	0x3e8ce847	0.27520964
21	0xbe761472	-0.24031237
22	0x3e7e4109	0.24829496
23	0xbf80a2e2	-1.0049708

encoder_conv1.bias_quant.frozen_k f4 [24]
0	0xc0c00000	-6.0
1	0xc1000000	-8.0
2	0xc0c00000	-6.0
3	0xc1200000	-10.0
4	0xc0c00000	-6.0
5	0xc0c00000	-6.0
6	0xc0c00000	-6.0
7	0xc0e00000	-7.0
8	0xc0e00000	-7.0
9	0xc1100000	-9.0
10	0xc0e00000	-7.0
11	0xc0c00000	-6.0
12	0xc0c00000	-6.0
13	0xc0e00000	-7.0
14	0xc0c00000	-6.0
15	0xc0c00000	-6.0
16	0xc0e00000	-7.0
17	0xc0c00000	-6.0
18	0xc0c00000	-6.0
19	0xc0c00000	-6.0
20	0xc0e00000	-7.0
21	0xc0c00000	-6.0
22	0xc0c00000	-6.0
23	0xc0e00000	-7.0

encoder_conv2.weight f4 [12, 24, 5]
0	0xbd74faaa	-0.059809364
1	0xbd9ecbd4	-0.07753721
2	0xbe958ed2	-0.29210526
3	0xbd0bcbc4	-0.034129873
4	0x3e1eb73d	0.15499587
5	0x3da15ef0	0.07879436
6	0x3c816fa4	0.015800305
7	0x3d6e56a8	0.05818811
8	0xbcc28658	-0.0237457
9	0x3c8b5300	0.01700735
10	0x3d3aa794	0.04556997
11	0x3e06c32b	0.13160388
12	0x3d86ad0f	0.06575977
13	0x3da39b2c	0.07988581
14	0xbf369c10	-0.7133188
15	0xbd620061	-0.055176143
16	0xbcbd8250	-0.023133427
17	0xbd53977d	-0.051658142
18	0x3cb3bc54	0.021940388
19	0x3d6a3878	0.05718276
20	0xbd073dd5	-0.033017952
21	0xbc9cc292	-0.019135747
22	0x3ec4e841	0.38458446
23	0xbcf57ef4	-0.029967763
24	0x3c83828b	0.016053459
25	0xbd33f0f8	-0.043930978
26	0xbd987ac3	-0.0744529
27	0x3e97cd36	0.2964875
28	0xbc3740fb	-0.011184926
29	0xbd914ae9	-0.07094366
30	0xbd74f3f1	-0.059802953
31	0xbd511a99	-0.051050756
32	0xbd9977af	-0.07493531
33	0x3d8291a0	0.06375432
34	0xbd431ba0	-0.047633767
35	0xbd42bae1	-0.047541503
36	0xbd5ed81a	-0.05440531
37	0xbd961aff	-0.07329368
38	0xbcf0f6d8	-0.02941458
39	0xbdf4ae97	-0.11947363
40	0xbc14c094	-0.009079117
41	0xbc9aee15	-0.018912354
42	0xbd7c705f	-0.061630603
43	0x3d8e48f5	0.06947509
44	0x3e8256aa	0.25456744
45	0x3dac4b30	0.084127784
46	0x3d4fcbd0	0.05073148
47	0x3d26a47c	0.04068421
48	0xbdaed304	-0.08536342
49	0xbc8af060	-0.016960323
50	0xbde1c67e	-0.110241875
51	0xbdcb7475	-0.09934322
52	0xbdb98c5c	-0.090599746
53	0xbdb56763	-0.0885761
54	0xbc286ee7	-0.010280347
55	0x3b95c552	0.0045706416
56	0x380052c5	3.0594663e-05
57	0xbd462fec	-0.048385546
58	0xbd0b0b7c	-0.0339465
59	0xbd695c3e	-0.056972735
60	0xbd73b951	-0.059502903
61	0x3c6e2952	0.014536219
62	0xbd0907d3	-0.033454727
63	0x3e8bd75a	0.27312738
64	0x3cc2f96c	0.023800574
65	0x3d8400d5	0.06445471
66	0x3d9bab44	0.07601026
67	0x3c2d0a8e	0.010561598
68	0xbdccb4e2	-0.09995438
69	0xbdb0b133	-0.08627548
70	0xbc1e39fd	-0.00965738
71	0xbbae10d9	-0.005312067
72	0xbd6a9d8f	-0.057279166
73	0xbdbd32d6	-0.09238212
74	0x3d1dd2ee	0.038531236
75	0xbc82855f	-0.015932737
76	0xbc816af3	-0.015798068
77	0x3be90a27	0.007111806
78	0xbd3fafca	-0.046798505
79	0x3b46d762	0.003034078
80	0xbcbed99d	-0.023297125
81	0x3cf89ce3	0.030348247
82	0x3d865f91	0.065611966
83	0xbdf519ae	-0.11967789
84	0x3d166264	0.036714926
85	0x3e0ada08	0.13559735
86	0x3dc0530b	0.09390839
87	0x3d9ad0b8	0.07559341
88	0x3dd27643	0.10276463
89	0x3c9a3c2a	0.018827517
90	0x3d044b4f	0.032298382
91	0x3b6ed42b	0.003644238
92	0xbd336b77	-0.04380366
93	0xbe5284d5	-0.20558484
94	0x3d8ca15f	0.068667166
95	0x3da7d819	0.08195514
96	0x3e11980e	0.1421816
97	0xbe19e94f	-0.15030406
98	0x3e29750b	0.16548555
99	0x3e07e904	0.13272482
100	0xbd5afe58	-0.053465217
101	0xbd43d7dd	-0.047813285
102	0xbde93331	-0.11386717
103	0xbe0f4aa3	-0.13993315
104	0xbdb06fe1	-0.08615089
105	0x3da3b68c	0.079938024
106	0x3db9e0ba	0.09076066
107	0x3e142469	0.14467014
108	0x3ea84087	0.3286173
109	0xbdb43d1d	-0.08800719
110	0xbd1e334a	-0.03862313
111	0x3c5477e6	0.012968039
112	0x3cbe66f8	0.023242459
113	0xbc9b2d7a	-0.018942583
114	0xbceeee32	-0.029166315
115	0xbd7331e5	-0.059373755
116	0xbc3d62f4	-0.011559237
117	0xbde9ca4c	-0.11415538
118	0x3dbf9653	0.09354844
119	0xbe003f52	-0.12524155
120	0x3c27b0d9	0.010235035
121	0x3dc0445a	0.09388037
122	0x3e31c7a4	0.17361313
123	0xbcbcd4b1	-0.023050638
124	0x3d4f0034	0.050537303
125	0xbd84e01f	-0.0648806
126	0xbd8d02a9	-0.06885273
127	0x3db338fe	0.08751105
128	0xbd490361	-0.049075488
129	0xbd3ef9d1	-0.046624962
130	0xbd2aec61	-0.041729335
131	0xbcfbbcd3	-0.030729687
132	0x3e83a2aa	0.2571004
133	0x3e5506d0	0.2080338
134	0xbf26fee5	-0.6523269
135	0xbc5da5f8	-0.01352834
136	0x3d3eb4f0	0.046559274
137	0x3c828bb8	0.015935764
138	0xbd8422c9	-0.06451947
139	0xbcbab25c	-0.022790127
140	0xbd64df15	-0.05587681
141	0x3d8e18e1	0.06938339
142	0xbf76f9f4	-0.9647515
143	0xbe2f0635	-0.17092212
144	0x3d33f86f	0.043938097
145	0xbe08ac6f	-0.13347028
146	0x3c81b3e6	0.015832853
147	0x3e8bbf71	0.27294496
148	0x3e533368	0.20625079
149	0xbcbb6122	-0.022873465
150	0xbcf4e9cc	-0.02989664
151	0xbd97b592	-0.07407679
152	0x3cf95d13	0.030439889
153	0x3d83d0e3	0.06436326
154	0x39ed204f	0.00045228234
155	0xbd8cd71c	-0.06876966
156	0xbe566cd6	-0.20939955
157	0x3d9eac11	0.07747663
158	0x3da9f2ba	0.082982495
159	0xbb9d81d2	-0.0048067356
160	0x3d53b382	0.051684864
161	0xbdf29de0	-0.118465185
162	0xbc9b52b3	-0.018960332
163	0xbd15352a	-0.036427654
164	0x3d85d613	0.06534972
165	0xbbcfdad0	-0.006343223
166	0x3cf93864	0.030422397
167	0xba6a7500	-0.0008943826
168	0x3d9f8792	0.0778953
169	0x3d0be4dc	0.034153804
170	0xbdeab3bd	-0.114600636
171	0xbe1e9a1a	-0.15488473
172	0xbc9db631	-0.019251915
173	0xbcbea41d	-0.023271615
174	0x3c964b65	0.018346498
175	0x3d1a3f38	0.037657946
176	0xbd0e2382	-0.03470183
177	0x3df77142	0.12082149
178	0x3d207197	0.039170828
179	0xbcc18753	-0.023624098
180	0x3d725b4a	0.05916909
181	0xbe2a7d18	-0.16649282
182	0xbe5481d0	-0.20752645
183	0x3e9fdcf0	0.3122325
184	0xbdd3e25b	-0.10345908
185	0xbd9b6ec0	-0.07589483
186	0x3d07c051	0.03314239
187	0xbdd0b30a	-0.10190399
188	0xbea7108b	-0.3262981
189	0xbd87cc22	-0.06630732
190	0xbcf8b49e	-0.030359562
191	0xbd1d1620	-0.03835118
192	0x3b0b0ed9	0.0021218567
193	0xbe25ba45	-0.16184337
194	0x3d94616f	0.072451465
195	0xbcb2297a	-0.021748293
196	0xbdbdc75d	-0.09266541
197	0x3e0c6dd1	0.13713767
198	0xbc4969ad	-0.0122932615
199	0x3d440036	0.047851764
200	0xbd709ec1	-0.05874515
201	0xbbddfb74	-0.0067743603
202	0xbaf9f40b	-0.0019069923
203	0xbe43f3f7	-0.19136034
204	0x3cb73cbb	0.022367826
205	0x3db7188d	0.089402296
206	0xbe4022bb	-0.18763249
207	0x3e59bf42	0.21264365
208	0x3e15ab2b	0.14616077
209	0x3d53f6e0	0.05174911
210	0xbd25ecf8	-0.040509194
211	0x3d8795b8	0.066203535
212	0xbe8772d7	-0.26454803
213	0xbe511238	-0.20417106
214	0x3e943cd0	0.28952646
215	0x3dbcd9db	0.0922124
216	0xbe01562e	-0.12630531
217	0xbeca0046	-0.39453334
218	0x3d42d82d	0.047569443
219	0xbc597d82	-0.013274552
220	0xbe0a7fe5	-0.1352535
221	0xbd66b9f4	-0.056329682
222	0xbe0ba660	-0.13637686
223	0xbd316f35	-0.043318946
224	0xbcd173ba	-0.025567878
225	0x3dccbb7a	0.09996696
226	0xb9d3e53d	-0.00040415852
227	0x3edf6480	0.43631363
228	0x3db03c5e	0.08605264
229	0xbe047b28	-0.12937605
230	0x3ce7ac5f	0.028280435
231	0x3dac3b6e	0.08409773
232	0xbdedc35d	-0.11609528
233	0xbd52f030	-0.051498592
234	0xbe8a0adf	-0.2696142
235	0xbd05a3fc	-0.03262709
236	0xbe3cb52d	-0.18428488
237	0x3d3d64d5	0.04623874
238	0xbd445feb	-0.047943037
239	0xbe551eb3	-0.20812492
240	0xbd35e9dc	-0.04441248
241	0xbe1f2abb	-0.15543644
242	0xbd7a54d9	-0.061116073
243	0xbccf6428	-0.025316313
244	0x3d11022a	0.035402454
245	0x3d29fc30	0.04150027
246	0xbcb1550c	-0.021646999
247	0xbd0ac1bc	-0.033876166
248	0xbd59dbc8	-0.053188115
249	0x3d897a22	0.06712748
250	0x3e13c8a0	0.14432001
251	0x3d444967	0.047921564
252	0xbe214fd0	-0.15753102
253	0x3d9d4235	0.076786436
254	0xbe00e90c	-0.125889
255	0x3d5967bc	0.053077444

encoder_conv2.bias f4 [12]
0	0x3f184b65	0.5949004
1	0x3f6f6027	0.9350609
2	0x3f0fa5f1	0.5611258
3	0x3f82eaa1	1.0227853
4	0x3f7ac0ea	0.97950613
5	0x3f80c34b	1.0059599
6	0x3f7ead34	0.99483037
7	0x3fb390d9	1.4028579
8	0x3fa20767	1.2658509
9	0x3f813bfa	1.0096428
10	0x3f83b562	1.0289729
11	0x3f5d1087	0.86353344

encoder_conv2.bias_quant.frozen_k f4 [12]
0	0xc0e00000	-7.0
1	0xc0e00000	-7.0
2	0xc1000000	-8.0
3	0xc0e00000	-7.0
4	0xc1000000	-8.0
5	0xc0e00000	-7.0
6	0xc0c00000	-6.0
7	0xc0e00000	-7.0
8	0xc0e00000	-7.0
9	0xc0e00000	-7.0
10	0xc0c00000	-6.0
11	0xc0e00000	-7.0

encoder_conv3.weight f4 [6, 12, 5]
0	0x3d64a08c	0.055817172
1	0xbdc666e6	-0.09687595
2	0x3e709081	0.23492624
3	0xbc6d6989	-0.014490494
4	0x3e01cf89	0.12676825
5	0xbbaa58fe	-0.005198597
6	0xbe141b3f	-0.14463519
7	0x3e62576e	0.22103664
8	0x3cfb00fe	0.030640122
9	0x3da7ec56	0.081993744
10	0x3d933255	0.071873344
11	0x3d98e1ba	0.07464929
12	0x3d4a363b	0.049368124
13	0x3cb147a2	0.021640602
14	0x3d8df938	0.069323
15	0x3ab48799	0.0013773321
16	0xbdfd7e06	-0.12377553
17	0xbe104c18	-0.14091527
18	0xbceb6144	-0.028732903
19	0xbe0e9c54	-0.13926822
20	0xbcffe8a0	-0.031238854
21	0xbe34ef7c	-0.17669481
22	0x3cf8b4b4	0.030359603
23	0xbd42aedb	-0.047530036
24	0x3c3e1492	0.011601584
25	0xbd8319df	-0.06401419
26	0x3e7b1df5	0.24523146
27	0x3c2ce104	0.010551695
28	0xbd7305b8	-0.059331626
29	0xbd20a8c5	-0.03922345
30	0x3e0df8ba	0.13864413
31	0xbdeaf20e	-0.114719495
32	0x3e8c7970	0.274364
33	0xbcf2fd58	-0.02966182
34	0x3d9355b3	0.0719408
35	0xbda3786d	-0.07981954
36	0x3f3d500d	0.7395027
37	0xbc16f258	-0.009213053
38	0xbb3e421a	-0.0029031099
39	0x3d963f67	0.07336312
40	0xbea42b39	-0.32064226
41	0xbe4478d8	-0.19186723
42	0xbdc906db	-0.09815761
43	0xbe873edc	-0.26415145
44	0x3c646d07	0.01394201
45	0xbda705f2	-0.08155431
46	0xbc65bb1b	-0.01402166
47	0xbe6ea72d	-0.2330596
48	0xbd56982d	-0.05239122
49	0xbddc7dc1	-0.10766173
50	0x3c131d8b	0.008979212
51	0xbdacc256	-0.08435504
52	0xbf0650c2	-0.52466977
53	0xbd891971	-0.06694306
54	0xbe1d9ba4	-0.15391403
55	0xbd516253	-0.05111916
56	0xbfb3c879	-1.4045554
57	0xbd5f9d63	-0.054593455
58	0x3d238022	0.03991712
59	0x3c29caee	0.010363324
60	0x3dc2c6b4	0.09510556
61	0xc0655a5b	-3.5836399
62	0x3c98ba02	0.018643383
63	0x3d991c06	0.07476048
64	0xbe7a3423	-0.24433951
65	0x3e830eb4	0.25597155
66	0x3d6ecb21	0.058299188
67	0x3dad5636	0.08463709
68	0xbd789820	-0.060691953
69	0xbd3ed4b8	-0.046589583
70	0x3dbd533b	0.092443906
71	0xbdada8ca	-0.084794596
72	0x3db867e1	0.09004188
73	0x3d5dc122	0.054139264
74	0xbcf909d2	-0.03040019
75	0x3e00c4c0	0.12575054
76	0x3d03f783	0.032218467
77	0xbdc07001	-0.09396363
78	0xbdb39e68	-0.08770448
79	0x3d6fe1aa	0.05856482
80	0x3deeca47	0.11659675
81	0xbcf8aadc	-0.03035491
82	0xbda94630	-0.0826534
83	0x39c53043	0.00037610726
84	0xbda7ab19	-0.08186931
85	0x3e460038	0.19336021
86	0x3d763e96	0.06011828
87	0x3e0976a4	0.13424164
88	0xbe6c041e	-0.23048446
89	0xbb7313fe	-0.0037090774
90	0x3e4de28d	0.20105954
91	0xbe43cf45	-0.19122036
92	0xbd9decf9	-0.077112146
93	0xbdbe1171	-0.092806704
94	0xbe8932d7	-0.267966
95	0x3e3b5875	0.18295462
96	0x3e56135c	0.20905823
97	0xbd5eaa9c	-0.054361925
98	0x3e1511aa	0.1455752
99	0xbc4530f6	-0.012035599
100	0x3dfcff7f	0.123534195
101	0x3e0049c9	0.12528147
102	0xbd2d1a71	-0.042261545
103	0xbea452c4	-0.32094395
104	0xbda1edc7	-0.079066806
105	0x3e005bcc	0.12535018
106	0x3e4edc02	0.20201114
107	0x3d605ad7	0.05477413
108	0xbdcde1d9	-0.10052843
109	0x3e54d0c1	0.20782758
110	0x3e28e358	0.16492975
111	0x3ec62182	0.3869744
112	0xbc0ba960	-0.008524269
113	0xbdac330f	-0.08408176
114	0x3f3d8518	0.7403121
115	0x3d56e9e4	0.05246915
116	0x3dbce902	0.0922413
117	0xbd866f18	-0.06564158
118	0xbdb21dc0	-0.086970806
119	0xbe498f9c	-0.19683689
120	0x3dc342b8	0.0953421
121	0x3cd5479a	0.026035119
122	0x3e80e5da	0.25175363
123	0x3d5eef0e	0.0544272
124	0x3e00b03c	0.12567228
125	0x3dcdedbe	0.10055111
126	0x3d56741f	0.052356835
127	0x3ebee085	0.3728067
128	0x3d2dd04c	0.042434976
129	0x3e2c2120	0.16809511
130	0x3d529309	0.051409755
131	0xc0477fd2	-3.1171765
132	0x3df34f4a	0.118803576
133	0x3dd46894	0.10371509
134	0xbcd50642	-0.02600396
135	0x3e01c115	0.12671311
136	0x3d81e260	0.06342006
137	0xbde8cffb	-0.11367794
138	0xbd818596	-0.063243076
139	0xbdc5a092	-0.09649767
140	0x3d9c1186	0.0762053
141	0xbd7067d1	-0.058692757
142	0xbe0c65ff	-0.13710783
143	0xbd152a14	-0.036417082
144	0xbd4a2e2f	-0.04936045
145	0x3e008ef5	0.12554534
146	0x399db20c	0.0003007803
147	0x3e453ca6	0.19261417
148	0xbd8d59d6	-0.069019005
149	0xbbeb6148	-0.0071832277
150	0x3e0b66a0	0.13613367
151	0x3e551ec4	0.20812517
152	0x3e445f24	0.19176918
153	0x3c178270	0.009247407
154	0xbd072461	-0.032993678
155	0x3cd8734f	0.02642217
156	0x3dcbfc43	0.099602245
157	0xbd578818	-0.052620023
158	0x3cb185bb	0.021670213
159	0xbceb8308	-0.028749004
160	0x3dc3f1e4	0.09567621
161	0x3f0019b7	0.5003924
162	0xbe141674	-0.1446169
163	0xbe99467b	-0.29936585
164	0xbd75b63b	-0.05998824
165	0x3d89da45	0.06731085
166	0xbd004abe	-0.03132128
167	0xbdfb6f62	-0.12277104
168	0xbdd6042a	-0.10450013
169	0xbdd41637	-0.103558
170	0x3d89da5e	0.06731103
171	0x3dc8e883	0.09809973
172	0xbe5364d6	-0.20643935
173	0xbdf258f3	-0.11833372
174	0xbe01a099	-0.1265892
175	0x3bdaefec	0.006681433
176	0x3dcf2259	0.10113973
177	0xbe0790bb	-0.13238804
178	0x3e00622f	0.12537454
179	0xbdd15b2e	-0.10222469
180	0xbdb35129	-0.087557144
181	0xbd144a8d	-0.03620391
182	0x3d1d8076	0.038452588
183	0x3d8b69cc	0.068072885
184	0xbd73cf32	-0.05952377
185	0xbd24db0f	-0.040247973
186	0xbc173de5	-0.009231065
187	0xbd11d1dc	-0.035600528
188	0xbddeb70c	-0.10874757
189	0xbc7c115a	-0.015384996
190	0xbccc7601	-0.024958612
191	0x3bfd4344	0.007728966
192	0xbd0a7f15	-0.0338126
193	0x3bbe3c1f	0.005805507
194	0x3cad2a62	0.021138374
195	0xbd46eacf	-0.048563775
196	0xbd95b7f1	-0.07310475
197	0xbdde6dfc	-0.108608216
198	0xbeb2534c	-0.34829175
199	0x3ca6b423	0.020349568
200	0xbd1edb92	-0.038783617
201	0x3d3b9a91	0.045801703
202	0x3ceea006	0.02912904
203	0x3d143490	0.03618294
204	0xbd7b1cf6	-0.061306916
205	0xbd8a30e7	-0.06747609
206	0x3ce30ff2	0.027717564
207	0x3ceec15a	0.029144932
208	0xbe3cbb0e	-0.1843073
209	0xbdd7401a	-0.10510273
210	0xbe0584c9	-0.13038935
211	0x3d638c8e	0.055553965
212	0xbc94bdce	-0.018156912
213	0xbe3ee69d	-0.1864266
214	0xbd556a68	-0.05210343
215	0x3daff905	0.085924186
216	0x3cc12cc1	0.02358091
217	0x3d0f3057	0.03495821
218	0xbd44918b	-0.047990363
219	0x3c5d6ce0	0.013514727
220	0xbd101d07	-0.035183933
221	0x3dceb6ef	0.100934856
222	0x3e5b4642	0.2141352
223	0x3ddbdcdf	0.10735487
224	0xbe648f74	-0.22320348
225	0x3cd1b944	0.025601037
226	0x3ca56bca	0.020193
227	0xbd0cb047	-0.0343478
228	0xbe479819	-0.19491614
229	0x3c91f00a	0.017814655
230	0x3d922b35	0.07137147
231	0xbd22fd53	-0.03979237
232	0xbe255e1f	-0.16149186
233	0xbe614269	-0.2199799
234	0x3e013d6a	0.12621084
235	0xbd1165c5	-0.035497446
236	0xbc12a81e	-0.008951215
237	0x3d3775fd	0.044790257
238	0x3cf208f0	0.029545277
239	0xbd84dc5f	-0.06487345
240	0x3c83789a	0.016048718
241	0x3cceeda2	0.025259797
242	0xbdd4e702	-0.10395624
243	0xbcdac56a	-0.026705462
244	0x3a90356e	0.0011002251
245	0x3c815d02	0.01579142
246	0x3cac1c40	0.021009564
247	0xbfc4b44f	-1.5367526
248	0xbb8fe325	-0.0043910914
249	0xbc8c2923	-0.01710946
250	0x3c87913f	0.01654875
251	0x3d33997e	0.043847553
252	0xbd830ac0	-0.06398535
253	0xbc7b9ec9	-0.015357682
254	0xbc66e2ee	-0.01409219
255	0x3cd9489f	0.026523886

encoder_conv3.bias f4 [6]
0	0x3f9da278	1.2315207
1	0x3fa75022	1.307133
2	0x3fa48307	1.2852486
3	0x3f3799bb	0.7171895
4	0x3f88bb3f	1.0682143
5	0x3f8f2a92	1.1184866

encoder_conv3.bias_quant.frozen_k f4 [6]
0	0xc0c00000	-6.0
1	0xc0a00000	-5.0
2	0xc0a00000	-5.0
3	0xc1100000	-9.0
4	0xc0c00000	-6.0
5	0xc0e00000	-7.0

decoder.0.weight f4 [6, 12, 5]
0	0xbcfb0097	-0.03063993
1	0xbdc17128	-0.09445411
2	0xbda48799	-0.08033676
3	0x3bed5056	0.007242243
4	0xbc9fc6ce	-0.019503977
5	0xbd3e91bc	-0.046525702
6	0x3f7b862e	0.98251617
7	0x3c6cf738	0.014463238
8	0xbc3c5fc2	-0.01149744
9	0xbcb9d42a	-0.022684176
10	0xbcfb2097	-0.030655188
11	0xbe09342e	-0.13398811
12	0x3e4aedc1	0.19817258
13	0xbbf1eab9	-0.0073827174
14	0xbca921ce	-0.020646002
15	0x3c8864f9	0.01664971
16	0xbd2f951e	-0.04286682
17	0x3d1e286a	0.03861276
18	0xbbfd5b39	-0.007731822
19	0x3d230943	0.039803755
20	0x3faeaabc	1.3645854
21	0xbed655f8	-0.41862464
22	0x3f3f0b24	0.74626374
23	0xbeca08b6	-0.3945977
24	0x3f5daa88	0.86588335
25	0xbd718d32	-0.058972545
26	0x3f8205db	1.0158037
27	0x3bdbf9a5	0.0067131096
28	0xbc2a696f	-0.010401114
29	0xbd33acfa	-0.043866135
30	0xb94768b2	-0.00019017121
31	0xbea47ed1	-0.32128003
32	0x3bc0063e	0.005860119
33	0x3be8683b	0.0070925034
34	0xbc824d0c	-0.01590588
35	0xbc09d437	-0.008412412
36	0xbd8dbab7	-0.06920379
37	0xbc06ff3a	-0.008239562
38	0x3be2afa3	0.00691791
39	0xbc957f26	-0.018249106
40	0x3d9cefe9	0.07662947
41	0x3e0724e5	0.13197668
42	0x3e87feca	0.26561576
43	0xbc4f917b	-0.012668963
44	0x3e1f024a	0.15528217
45	0x3dd3a77b	0.10334679
46	0x3bd08520	0.006363526
47	0x3e6d586f	0.23178266
48	0xbc8bbe08	-0.017058387
49	0x3de1554c	0.11002597
50	0x3c963ec4	0.018340476
51	0x3d99e0db	0.07513591
52	0x3d1f78be	0.038933508
53	0xbe9064f6	-0.28202027
54	0x3d24284e	0.0400775
55	0x3d733871	0.05938
56	0x3e8d9908	0.27655816
57	0xbd8eaa7b	-0.0696611
58	0xbcbe2cc0	-0.023214698
59	0x3d77b33f	0.060473677
60	0xbc89fb45	-0.016843447
61	0x3f26053d	0.64851743
62	0x3c3ad342	0.011402907
63	0xbb949700	-0.004534602
64	0x3bffb25a	0.0078032436
65	0xbcaeaab6	-0.021321636
66	0xbdac9075	-0.084259905
67	0x3ba30a79	0.0049756137
68	0x3cb2bf45	0.02181972
69	0xbc80db27	-0.0157295
70	0x3e86e26e	0.26344627
71	0x3d522590	0.051305354
72	0x3ecd7035	0.4012467
73	0xbd15dcb8	-0.036587447
74	0x3e6ceffe	0.23138425
75	0xbc85415e	-0.016266521
76	0x3e6b3ca8	0.22972357
77	0x3c9e82fd	0.01934957
78	0x3c7d4f4a	0.0154607985
79	0xbc0b4093	-0.008499282
80	0x3f9fe099	1.2490417
81	0xbec8627c	-0.39137638
82	0x3f2001e8	0.6250291
83	0xbed52ac5	-0.41634193
84	0x3f3d3971	0.73915774
85	0xbbc6733e	-0.0060562184
86	0x3f01b530	0.50667095
87	0xbcc245cd	-0.023714924
88	0xbc69b3cf	-0.014264061
89	0xbd2f8a3e	-0.042856447
90	0x3c0d7545	0.008633916
91	0xbe7954a9	-0.24348702
92	0xbc0409c7	-0.008058972
93	0x3d026b17	0.03184041
94	0xbc5ad446	-0.013356274
95	0x3c785653	0.0151573
96	0xbe04196c	-0.12900323
97	0xbc0b3d06	-0.008498436
98	0xbc933f51	-0.017974528
99	0x3c069863	0.008215043
100	0xbd903e5c	-0.07043144
101	0xbef4f8ca	-0.4784606
102	0xbd933f00	-0.07189751
103	0x3c7d6500	0.015465975
104	0xbe4f02c4	-0.20215899
105	0x3d91cc14	0.07119003
106	0x3f07f8a6	0.5311378
107	0x3d7a89dc	0.06116663
108	0xbc79b578	-0.015241019
109	0xbcf744bf	-0.030184148
110	0xbc9542db	-0.018220356
111	0x3dab2c84	0.083581
112	0x3c4f86e7	0.012666441
113	0xbd8ab89e	-0.06773494
114	0xbc756db7	-0.014979771
115	0xbe1b0662	-0.15139154
116	0x3e2e7b55	0.17039235
117	0xbe5ddf05	-0.21667106
118	0xbd0d6d22	-0.034527905
119	0xbe1c89ed	-0.1528699
120	0xbc02e2c4	-0.007988635
121	0xbdf084f5	-0.117441095
122	0x3b8943a3	0.004188971
123	0xbbb885bf	-0.005631178
124	0x3a3446cb	0.0006877004
125	0xbba5e3b3	-0.0050625443
126	0x3b694b02	0.0035597687
127	0xbc5a5583	-0.013326052
128	0xbca16e20	-0.019705832
129	0x3c3ab67f	0.0113960495
130	0x3f06595d	0.5248011
131	0x3e0f9c0e	0.14024374
132	0x3f14de92	0.58152115
133	0xbcd39ae6	-0.025830697
134	0x3eefc8fb	0.46833023
135	0xbc94e5ee	-0.018176045
136	0x3e93a49f	0.28836533
137	0x3c883b82	0.016629938
138	0x3c411bb7	0.011786393
139	0x3c9f00c3	0.019409543
140	0x3f5d85d9	0.8653236
141	0xbed5e29b	-0.4177445
142	0x3f127c5d	0.57221013
143	0xbed74842	-0.42047316
144	0x3f1fc633	0.62411803
145	0xbd32b5dc	-0.043630466
146	0x3d02a445	0.03189494
147	0xbc2795fd	-0.010228631
148	0xbc886829	-0.01665123
149	0xbd7b81af	-0.061402973
150	0x3c708a86	0.014681464
151	0x3d493560	0.049123168
152	0xbbb6d084	-0.005579056
153	0x3d912efa	0.07089038
154	0xbc91c7ad	-0.017795408
155	0xbc263b63	-0.010145995
156	0x3f79dd3d	0.9760321
157	0xbc112514	-0.008858938
158	0xbd040a7f	-0.032236572
159	0xbc05d601	-0.008168698
160	0xbd5eeca9	-0.054424915
161	0x3dd8b22b	0.10580858
162	0x3c61a798	0.013772868
163	0x3c7fc5ef	0.015611156
164	0xbc87c4e7	-0.016573383
165	0x3e11c823	0.14236502
166	0xbda8a682	-0.08234884
167	0x3e20d366	0.15705642
168	0x3c5258b9	0.012838536
169	0x3e043aae	0.1291301
170	0x3c7dba9c	0.015486386
171	0x3dee6257	0.116398506
172	0x3caa416a	0.020783145
173	0x3d45e0d6	0.048310123
174	0x3c86343e	0.016382333
175	0xbe94dc18	-0.29074168
176	0xbd319efd	-0.043364514
177	0xbe9d5f36	-0.30736703
178	0xbd9ed242	-0.07754947
179	0xbe8561fd	-0.26051322
180	0x3c57bca8	0.013167538
181	0x3ccbda60	0.024884403
182	0xbd821fc3	-0.06353714
183	0x3e87260a	0.2639621
184	0xbd367376	-0.044543706
185	0x3c455be1	0.012045831
186	0x3d82947d	0.06375978
187	0x3e0b3812	0.13595608
188	0xbe950562	-0.2910567
189	0xbe6b9995	-0.23007806
190	0x3f15f133	0.58571166
191	0xbd4ab30d	-0.049487162
192	0x3f09b941	0.537983
193	0xbe6e7877	-0.23288141
194	0x3f442c27	0.7662987
195	0x3e56c69a	0.20974198
196	0x3cdf48fb	0.02725648
197	0x3f35a70d	0.70958024
198	0xbe041887	-0.12899981
199	0xbe8cbed0	-0.27489328
200	0x40a97418	5.2954216
201	0xbec7584f	-0.38934562
202	0xc1391afd	-11.569089
203	0xbec5e182	-0.3864861
204	0x40a1c0ad	5.05477
205	0x3e2738a9	0.16330208
206	0xbe227d07	-0.15868007
207	0xbed0db70	-0.40792418
208	0x3e0f5903	0.13998799
209	0x3dbc07df	0.09181189
210	0xbe8ce67d	-0.275196
211	0xbed0d678	-0.40788627
212	0xbeacce86	-0.33751315
213	0xbf4a504e	-0.79028785
214	0xbe809d0b	-0.25119814
215	0x3d3d80d6	0.046265446
216	0xbd4cd8cb	-0.050011437
217	0xbec934b6	-0.39298028
218	0x3e8cf907	0.27533743
219	0x3dc4f89f	0.09617733
220	0xbf56b1a7	-0.83864826
221	0xbd830380	-0.06397152
222	0x3fb39b5f	1.403179
223	0x3f3f7884	0.7479327
224	0xbf83521a	-1.025943
225	0xbfbac74a	-1.4592068
226	0xbdab179c	-0.083541125
227	0xbf875232	-1.0571959
228	0xbd3e165f	-0.046408053
229	0xbf04dff4	-0.51904225
230	0x3e1f8b8c	0.15580577
231	0x3fbbeb2f	1.4681147
232	0x3ea16f34	0.31530154
233	0xbd47de62	-0.048796065
234	0x3e39630f	0.18104194
235	0xbe373de4	-0.17894703
236	0x3e376470	0.17909408
237	0xbe812e55	-0.2523066
238	0xbf41d959	-0.7572227
239	0xbecae0c6	-0.39624614
240	0x3c81e475	0.015856007
241	0x3c6652c0	0.014057815
242	0x3f71d32e	0.9446286
243	0xbb3d26e2	-0.0028862287
244	0x3cb55e7f	0.022139786
245	0x3c5fc4e2	0.01365778
246	0xbc3afb6d	-0.011412484
247	0x3f164e86	0.5871357
248	0x3c672b97	0.014109514
249	0x3c63c7af	0.013902589
250	0x3e9a9cb5	0.30197683
251	0xbc09e043	-0.008415285
252	0x3ea72f21	0.32653144
253	0xbd0381d2	-0.03210623
254	0x3ebeccf0	0.3726573
255	0x3c069704	0.008214716

decoder.0.bias f4 [12]
0	0x3e480877	0.19534479
1	0xbec19055	-0.3780543
2	0x3e5e3dc5	0.2170325
3	0xbd083523	-0.0332538
4	0x3e61e91f	0.22061585
5	0xbe19f42c	-0.1503455
6	0x3ef9842d	0.48733655
7	0x3e97e3f9	0.29666117
8	0x3e3fcc28	0.18730223
9	0xbcc4e5b7	-0.024035318
10	0xbec1f86b	-0.3788484
11	0x3f4aad32	0.79170525

decoder.0.bias_quant.frozen_k f4 [12]
0	0xc0e00000	-7.0
1	0xc0e00000	-7.0
2	0xc0e00000	-7.0
3	0xc0e00000	-7.0
4	0xc0400000	-3.0
5	0xc0c00000	-6.0
6	0xc0e00000	-7.0
7	0xc0e00000	-7.0
8	0xc0c00000	-6.0
9	0xc0c00000	-6.0
10	0xc0c00000	-6.0
11	0xc0e00000	-7.0

decoder.2.weight f4 [12, 24, 5]
0	0x3baa7b82	0.0052027116
1	0x3d203a7d	0.03911828
2	0xbe56c148	-0.20972168
3	0x3d684b64	0.056712523
4	0xbd0542a0	-0.03253424
5	0xbbf82399	-0.007572603
6	0xbd9f71e2	-0.07785393
7	0xbd522603	-0.051305782
8	0x3df64017	0.12023943
9	0xbcd8b2cb	-0.026452443
10	0xbcee27f2	-0.029071782
11	0xbe448851	-0.19192626
12	0xbeb8bee8	-0.3608315
13	0xbdba1735	-0.09086458
14	0x3d829b56	0.06377284
15	0xbd3facdf	-0.046795722
16	0x3e839151	0.25696805
17	0xbd94ea20	-0.07271218
18	0x3e7b57c4	0.24545199
19	0x3be17b66	0.0068811653
20	0x3d763294	0.06010683
21	0xbe95554a	-0.29166633
22	0x3d7d5ca4	0.061855927
23	0x3eb9b37e	0.36269754
24	0xbe2576cb	-0.16158597
25	0x3e4de05e	0.2010512
26	0xbe56b725	-0.20968302
27	0x3e2f4a02	0.17118075
28	0xbe3510b1	-0.17682149
29	0xbe966cf8	-0.29380012
30	0x3d002efd	0.03129481
31	0x3d8475c3	0.06467774
32	0x3e716379	0.23573102
33	0xbc3a9124	-0.011387143
34	0x3d8215f2	0.06351842
35	0xbcd63659	-0.026148962
36	0xbe5a1353	-0.21296434
37	0x3e5f85b8	0.21828353
38	0xbe04572d	-0.1292388
39	0xbf087fae	-0.53319824
40	0x3d3a09ed	0.045419622
41	0xbd8cb7fa	-0.06871028
42	0xbde3338e	-0.11093818
43	0xbebf4b47	-0.3736212
44	0x3ea16523	0.31522474
45	0x3d3a565e	0.045492522
46	0xbe780ea1	-0.2422433
47	0xbed756d8	-0.42058444
48	0x3da00cad	0.07814918
49	0x3e3f3259	0.1867155
50	0xbc8d4231	-0.017243477
51	0xbc118511	-0.008881823
52	0x3c8bad56	0.017050426
53	0x3e57555a	0.21028653
54	0x3d10c7af	0.035346683
55	0xbdafbdd7	-0.08581131
56	0xbd326591	-0.043553893
57	0xbd389db1	-0.04507226
58	0xbfa79da6	-1.3094985
59	0x3ba15237	0.004923131
60	0xbd447404	-0.047962204
61	0xbd84f00c	-0.06491098
62	0xbcd38486	-0.025820028
63	0xbca87efe	-0.020568367
64	0xbd4f04a1	-0.050541524
65	0x3d1fb1fa	0.03898809
66	0x3d0f587f	0.034996506
67	0xbdaa2971	-0.083086856
68	0x3c4f4072	0.012649642
69	0xbc765ba1	-0.0150364945
70	0x3d2615ec	0.04054825
71	0x3cbd6c28	0.023122862
72	0xbcf17446	-0.029474389
73	0x3d6fa28c	0.058504626
74	0x3cc76782	0.024341349
75	0xbe3450df	-0.17608975
76	0x3d096a90	0.03354889
77	0xbe3ecc42	-0.18632606
78	0x3e19a6cb	0.15005033
79	0xbfad2125	-1.352574
80	0xbdb96b6c	-0.09053692
81	0x3b71a860	0.003687404
82	0xbd08e878	-0.033424824
83	0xbeb82941	-0.35968974
84	0x3d467fa8	0.048461586
85	0x3d408087	0.046997573
86	0x3eb7d4e4	0.3590461
87	0xbdcc752e	-0.09983288
88	0xbe382660	-0.17983389
89	0xbcaed92a	-0.021343786
90	0x3c03bce5	0.008040641
91	0xb9de6428	-0.00042417762
92	0xbe79f150	-0.2440846
93	0x3e229d17	0.15880238
94	0xbbfd3005	-0.0077266716
95	0x3e5f74c0	0.2182188
96	0xbded98a9	-0.11601383
97	0x3da929e8	0.08259946
98	0xbecfd80b	-0.40594515
99	0xbcfa24bb	-0.030535093
100	0x3d106c41	0.03525949
101	0xbcd768bc	-0.026295058
102	0x3df66e64	0.12032774
103	0x3bd5ac57	0.0065207887
104	0x3d9a37af	0.07530152
105	0x3d9eb528	0.077493966
106	0x3d549b95	0.051906187
107	0x3d6e4b80	0.05817747
108	0x3e9e0277	0.30861256
109	0x3c811a0e	0.015759494
110	0xbdb5b157	-0.088717155
111	0xbddc3e2b	-0.10754045
112	0x3d48f5af	0.049062427
113	0xbea280bc	-0.31738842
114	0xbe8dab6f	-0.27669856
115	0xbd761f54	-0.06008847
116	0xbe2fc6b7	-0.17165647
117	0x3ed682f3	0.4189678
118	0xbe278295	-0.16358407
119	0xbd2605fd	-0.040533055
120	0xbdab6006	-0.083679244
121	0x3e87eac2	0.26546293
122	0xbf1028b5	-0.56312114
123	0xbe2ee9de	-0.17081401
124	0xbd8fb039	-0.07016034
125	0x3e34baf3	0.1764944
126	0xbd073a39	-0.03301451
127	0xbe97b0ec	-0.29627168
128	0xbe8e6b50	-0.27816248
129	0x3d777ded	0.060422827
130	0xbc732061	-0.014839263
131	0xbee773eb	-0.45205626
132	0x3e694200	0.22779083
133	0x3e85d279	0.2613714
134	0x3dd305bb	0.103038274
135	0xbe84f61b	-0.25969014
136	0xbdc8a937	-0.097979
137	0x3def4218	0.11682528
138	0xbd118067	-0.035522845
139	0xbdd4e870	-0.103958964
140	0xbdf4f1a5	-0.119601525
141	0xc00be4bc	-2.1858358
142	0x3d2bfd8e	0.041989855
143	0xbdd77751	-0.10520805
144	0xbe0dba27	-0.13840543
145	0xbd3d5e5a	-0.04623256
146	0x3edff19d	0.43739024
147	0x3c21f105	0.009884124
148	0xbe1d118b	-0.15338723
149	0xbe3effa1	-0.18652202
150	0xbd9bc3f8	-0.076057374
151	0x3e878f82	0.26476675
152	0xbe8a152e	-0.26969284
153	0xbea365e7	-0.31913683
154	0x3d001bc1	0.03127647
155	0xbd3e910f	-0.046525057
156	0xbdc9d519	-0.09855098
157	0xbbadcaf0	-0.005303733
158	0xbe287c74	-0.16453725
159	0x3e129e9e	0.1431832
160	0x3e39d287	0.18146716
161	0x3cd750c5	0.026283631
162	0xbcc347e5	-0.023837993
163	0xbf808c00	-1.0042725
164	0xbe2a3be7	-0.16624413
165	0x3d16a0ac	0.036774322
166	0xbfb45fd6	-1.4091747
167	0x3e1cae54	0.15300876
168	0xbea89a16	-0.32930058
169	0xbe01cad4	-0.12675029
170	0x3d113d3d	0.035458792
171	0x3d526183	0.051362526
172	0xbefbe536	-0.49198312
173	0x3e14aafb	0.14518349
174	0xbcade17d	-0.021225685
175	0x3cc2e917	0.023792787
176	0xbc52238e	-0.01282586
177	0xbd838e2a	-0.064236
178	0xbcf87dae	-0.030333366
179	0xbdb53a49	-0.08849008
180	0x3d1831da	0.037156917
181	0x3ca522e7	0.020158244
182	0x3c61829f	0.013764053
183	0xbcfbeb22	-0.030751768
184	0xbd88d1fd	-0.06680677
185	0xbda695fa	-0.081340745
186	0x3d04514e	0.0323041
187	0xbda1bd6c	-0.078974575
188	0x3d7a57d0	0.0611189
189	0x3d18ed09	0.03733543
190	0xbdc7b473	-0.09751215
191	0xbc1fdff0	-0.009757981
192	0xbe00112c	-0.1250655
193	0x3e8c12cd	0.27358094
194	0xbc58569b	-0.013204242
195	0xbf0645c7	-0.5245022
196	0xbed450e2	-0.4146796
197	0x3da2bee1	0.079465635
198	0x3ee9034e	0.45510334
199	0xbc3dbd9d	-0.011580852
200	0x39d36026	0.00040316692
201	0xbd8935bd	-0.06699703
202	0xbd86658b	-0.065623365
203	0x3e20b6c7	0.15694724
204	0x3d0db561	0.034596805
205	0xbddf1004	-0.108917266
206	0xbefbbe99	-0.49168852
207	0xbd6420b2	-0.055695243
208	0x3e8ae1e6	0.27125472
209	0xbcf8dee6	-0.030379724
210	0x3e81198c	0.25214803
211	0x3f10868f	0.5645532
212	0xbc0ded3e	-0.00866252
213	0xbe519574	-0.20467168
214	0xbcfc402f	-0.030792324
215	0x3df0cb28	0.11757499
216	0xbd427628	-0.047475964
217	0xbcba7228	-0.022759512
218	0x3f333f79	0.70018727
219	0x3cd76e89	0.026297824
220	0x3c810784	0.015750654
221	0x3bd844e0	0.0066000074
222	0x3e2b5707	0.16732417
223	0xbd860cbf	-0.065454
224	0xbd783e4c	-0.060606286
225	0x3d0142b0	0.03155774
226	0xbd667d47	-0.056271818
227	0x3cf9cffe	0.030494686
228	0xbdd7692c	-0.10518107
229	0xbbddf2c3	-0.006773324
230	0xbdb98fdd	-0.09060643
231	0x3e952a1e	0.29133695
232	0xbf2bbc86	-0.6708454
233	0xbe165fd0	-0.14684987
234	0x3d54a78d	0.0519176
235	0x3e039936	0.12851414
236	0x3f13e484	0.5777056
237	0x3e96fddd	0.29490557
238	0x3f45f7cd	0.7733124
239	0x3e97ddf9	0.2966154
240	0x3dc873d9	0.09787721
241	0x3c9c64ea	0.019091088
242	0x3e02ed93	0.1278594
243	0x3f101987	0.5628895
244	0xbdaa258e	-0.08307944
245	0x3d3fa737	0.046790328
246	0xbe2cd9fa	-0.16880026
247	0x3dc2cb51	0.09511436
248	0x3b8986e9	0.0041969907
249	0xbd8a0518	-0.06739253
250	0x3d08156c	0.033223554
251	0x3dacee24	0.08443859
252	0xbd7570e1	-0.059922103
253	0x3e010d96	0.12602839
254	0xbd2107aa	-0.03931395
255	0xbbc7bbba	-0.006095377

decoder.2.bias f4 [24]
0	0x3e615470	0.22004867
1	0x3de77a36	0.11302607
2	0xbd1b3320	-0.037890553
3	0x3d8972ec	0.06711373
4	0x3e0bda53	0.13657503
5	0xbc534842	-0.012895646
6	0x3e180c61	0.14848472
7	0x3db04fac	0.08608946
8	0xbd89c23e	-0.06726502
9	0xbea836e1	-0.3285437
10	0x3d793c0e	0.06084829
11	0xbcdc4951	-0.026890429
12	0xbd8e31e2	-0.06943108
13	0xbe093774	-0.1340006
14	0xbe50aed5	-0.20379193
15	0xbca34dbb	-0.019934526
16	0xbe4fc9d1	-0.2029183
17	0xbdcbdfeb	-0.09954818
18	0x3d1e9c2c	0.038723156
19	0xbe8b8a86	-0.27254122
20	0xbe44f7c3	-0.19235139
21	0xbea83e6c	-0.32860124
22	0x3ec5adba	0.38609105
23	0x3bf5232e	0.0074810004

decoder.2.bias_quant.frozen_k f4 [24]
0	0xc0e00000	-7.0
1	0xc1000000	-8.0
2	0xc0c00000	-6.0
3	0xc0e00000	-7.0
4	0xc0c00000	-6.0
5	0xc0e00000	-7.0
6	0xc1000000	-8.0
7	0xc0e00000	-7.0
8	0xc0e00000	-7.0
9	0xc0c00000	-6.0
10	0xc1000000	-8.0
11	0xc0c00000	-6.0
12	0xc1200000	-10.0
13	0xc1200000	-10.0
14	0xc0c00000	-6.0
15	0xc0a00000	-5.0
16	0xc0c00000	-6.0
17	0xc0c00000	-6.0
18	0xc0e00000	-7.0
19	0xc1000000	-8.0
20	0xc1000000	-8.0
21	0xc0e00000	-7.0
22	0xc0e00000	-7.0
23	0xc0e00000	-7.0

decoder.4.weight f4 [24, 1, 5]
0	0x3e8db306	0.27675647
1	0x3e4abc68	0.19798434
2	0x3ec7f09e	0.39050764
3	0x3e3e795d	0.18600984
4	0xbe223e9e	-0.15844199
5	0xbd1bd740	-0.038047075
6	0x3ceab463	0.028650468
7	0x3e160d45	0.146535
8	0x3e60ae48	0.21941483
9	0x3ece2b19	0.40267256
10	0xbe7ba0e1	-0.24573089
11	0x3e729719	0.23690452
12	0xbc6f2329	-0.014595785
13	0xbde63006	-0.112396285
14	0xbe817e7c	-0.25291812
15	0xbeb76492	-0.35818917
16	0xbd0f2617	-0.034948435
17	0x3da1919a	0.078890994
18	0xbf3325e3	-0.69979686
19	0xbe0d153a	-0.13777629
20	0xbe9fee25	-0.31236377
21	0xbf0bdfc6	-0.54638326
22	0xbf1c246b	-0.6099307
23	0xbea8285d	-0.32843295
24	0xbde011f1	-0.10940922
25	0x3efa0bb4	0.48837054
26	0x3e001e32	0.12511519
27	0x3f2b1726	0.66832197
28	0x3ef3cfec	0.4761957
29	0x3d75f987	0.06005242
30	0x3defc281	0.117070206
31	0x3eefa32e	0.46804184
32	0x3e3c34f6	0.18379578
33	0x3e80ea31	0.25178674
34	0x3e873f50	0.2641549
35	0xbec80fdc	-0.390746
36	0xbdc6f506	-0.09714703
37	0x3e9fa525	0.31180683
38	0x3ea7c39e	0.32766432
39	0x3e90099c	0.2813233
40	0x3f15843f	0.58404917
41	0x3f499535	0.78743297
42	0x3d431ccd	0.04763489
43	0x3e022cee	0.12712452
44	0x3d9ac79b	0.07557603
45	0x3ec7f8d5	0.3905703
46	0x3e9563f6	0.29177827
47	0xbde20932	-0.1103691
48	0xbe983f99	-0.2973602
49	0xbea77c7a	-0.32712156
50	0x3dd584ca	0.10425718
51	0xbe0af15c	-0.13568634
52	0xbdf8158b	-0.12113484
53	0x3e4b5e0e	0.19860098
54	0x3ec2a276	0.38014573
55	0xbdfdacb3	-0.123864554
56	0xbdac049f	-0.08399319
57	0xbe2fd552	-0.17171219
58	0xbf09164f	-0.53549665
59	0xbf73b6cd	-0.95200807
60	0x3e2ce4e9	0.16884197
61	0x3e09637a	0.13416854
62	0xbde7f7b6	-0.11326544
63	0xbe6ecd08	-0.233204
64	0xbea450fb	-0.32093033
65	0x3e5304ce	0.20607302
66	0xbcefcb46	-0.029271733
67	0xbec52d89	-0.38511303
68	0xbe01d55c	-0.12679046
69	0x3dc1891d	0.094499804
70	0xbeb771d5	-0.35829034
71	0x3c92e24e	0.017930176
72	0xbecdc5a3	-0.40189847
73	0xbf009486	-0.5022663
74	0x3e109d75	0.14122565
75	0xbf1c9a5d	-0.6117304
76	0xbf3c8e78	-0.7365489
77	0xbc6f0f5a	-0.014591062
78	0x3d7f8447	0.06238201
79	0x3d9fdb19	0.078054614
80	0xbc801259	-0.015633749
81	0xbf4f2c88	-0.80927324
82	0xbef2eb84	-0.4744531
83	0xbf444e02	-0.7668153
84	0x3e1f11d7	0.15534149
85	0x3eb73a1c	0.3578652
86	0x3f9fe326	1.2491195
87	0x3f8a6630	1.0812435
88	0x3e983adb	0.29732403
89	0xbdb8c98c	-0.09022817
90	0x3e81584d	0.2526268
91	0x3ea9e503	0.33182535
92	0x3e8d4b33	0.27596435
93	0x3d9cf72f	0.07664334
94	0x3ed57cfc	0.41696918
95	0x3e89422c	0.26808298
96	0xbde87cb4	-0.1135191
97	0xbe263bd6	-0.16233763
98	0xbdc257ef	-0.09489428
99	0xbea93319	-0.33046797
100	0x3e9b7536	0.30362862
101	0xbe0891ef	-0.13336919
102	0xbfca4c19	-1.5804473
103	0xbda16c69	-0.07882006
104	0xbdf0ec8b	-0.11763867
105	0x3eb004d8	0.34378695
106	0xbdcc2968	-0.09968835
107	0x3e524a0b	0.20536058
108	0x3eceb783	0.40374383
109	0x3f97e8f9	1.1867973
110	0xbebecd1a	-0.37265855
111	0xbed0015b	-0.40626034
112	0x3fd64c00	1.6741943
113	0x3d309d27	0.043118622
114	0xbe911225	-0.28334156
115	0xbd948031	-0.07251013
116	0x3e0f5470	0.13997054
117	0xbd34f20d	-0.04417615
118	0x3f20e1be	0.62844455
119	0xbde0d6bc	-0.10978457
