models/Quant1/SNN_Autoencoder_tsri_quant8.pth (torch, 41895 bytes, 11 tensors)

encoder_conv1.weight f4 [24, 1, 5]
0	0x4171a42e	15.102583
1	0x3f7a2244	0.97708535
2	0xc2975aad	-75.6771
3	0xc25d7a9d	-55.36974
4	0xc14c7a48	-12.779854
5	0x416dc15d	14.859708
6	0x3f7a2248	0.9770856
7	0xc2976972	-75.70595
8	0xc2614192	-56.314034
9	0xc1528c67	-13.159278
10	0x4182da01	16.356447
11	0x3f7a2198	0.9770751
12	0xc28e9aad	-71.3021
13	0xc250876a	-52.13224
14	0xc122a1f5	-10.16454
15	0x417b1bbb	15.69427
16	0x3f7a2247	0.97708553
17	0xc28e60c6	-71.18901
18	0xc252720b	-52.61137
19	0xc1341593	-11.255267
20	0x417d77d4	15.841755
21	0x3f7a2198	0.9770751
22	0xc28ef561	-71.479256
23	0xc25017e8	-52.023346
24	0xc12f560c	-10.958508
25	0x416de539	14.868463
26	0x3f7a219a	0.9770752
27	0xc29b352e	-77.60387
28	0xc2615e5b	-56.342144
29	0xc145d32b	-12.364055
30	0x4180f13a	16.117786
31	0x3f7a2242	0.97708523
32	0xc28d4083	-70.626
33	0xc25125ad	-52.286793
34	0xc11e7384	-9.903202
35	0x4177e4f6	15.493399
36	0x3f7a2196	0.977075
37	0xc28e4c17	-71.14861
38	0xc24eb2b5	-51.67452
39	0xc12f07be	-10.93939
40	0x41790170	15.562851
41	0x3f7a21a0	0.9770756
42	0xc28e49e2	-71.1443
43	0xc25017a4	-52.023087
44	0xc1262757	-10.384604
45	0x416853a3	14.520419
46	0x3f7a2196	0.977075
47	0xc299f277	-76.973564
48	0xc25e8aaf	-55.635433
49	0xc15433e4	-13.262669
50	0x4178c237	15.547416
51	0x3f7a2240	0.9770851
52	0xc28d7e14	-70.74625
53	0xc24f7304	-51.86232
54	0xc1298a39	-10.596246
55	0x41781e62	15.507418
56	0x3f7a224a	0.9770857
57	0xc29664a9	-75.1966
58	0xc25dca56	-55.447594
59	0xc14e2ce6	-12.885962
60	0x41726797	15.1502905
61	0x3f7a2248	0.9770856
62	0xc297f50d	-75.978615
63	0xc25ed0de	-55.70397
64	0xc14d5b49	-12.834786
65	0x4181ecd0	16.240631
66	0x3f7a2248	0.9770856
67	0xc28e36bf	-71.106926
68	0xc24f6ddb	-51.85728
69	0xc12e8db7	-10.909598
70	0x4179feef	15.62474
71	0x3f7a2248	0.9770856
72	0xc28de6df	-70.95092
73	0xc2519c84	-52.402847
74	0xc1398786	-11.595587
75	0x41809556	16.072918
76	0x3f7a21a7	0.977076
77	0xc2976c45	-75.711464
78	0xc25ffdea	-55.997963
79	0xc147dbc6	-12.491156
80	0x4164b480	14.294067
81	0x3f7a219e	0.97707546
82	0xc2974fcb	-75.655846
83	0xc25df0d4	-55.485184
84	0xc154d1a4	-13.301182
85	0x416d3c16	14.827169
86	0x3f7a219a	0.9770752
87	0xc28f6935	-71.70548
88	0xc253634c	-52.84697
89	0xc13355b2	-11.208422
90	0x41787cac	15.530437
91	0x3f7a2248	0.9770856
92	0xc2981968	-76.04962
93	0xc25e9060	-55.64099
94	0xc149a90d	-12.603772
95	0x417866a3	15.525058
96	0x3f7a219c	0.97707534
97	0xc296cc4d	-75.399025
98	0xc25fb392	-55.92536
99	0xc140de04	-12.054203
100	0x41766e60	15.401947
101	0x3f7a2190	0.9770746
102	0xc28eb579	-71.35444
103	0xc2532b52	-52.792305
104	0xc1330bb3	-11.190356
105	0x4175a61c	15.353054
106	0x3f7a219e	0.97707546
107	0xc29791dd	-75.78489
108	0xc25e6c63	-55.605846
109	0xc1493dbc	-12.577572
110	0x416dbc0f	14.858413
111	0x3f7a2248	0.9770856
112	0xc2975144	-75.65872
113	0xc25d4d43	-55.32545
114	0xc14da9cd	-12.853955
115	0x417d15c5	15.817815
116	0x3f7a224b	0.97708577
117	0xc28d4df4	-70.65225
118	0xc24f9d8e	-51.903862
119	0xc125d838	-10.365288

encoder_conv1.bias f4 [24]
0	0x4302ff5d	130.99751
1	0x4302334e	130.20041
2	0x42fc84aa	126.25911
3	0x42fbe73a	125.951614
4	0x42fc16f4	126.04483
5	0x4303052f	131.02025
6	0x42fc3f5f	126.12377
7	0x42fc8381	126.25684
8	0x42fbff46	125.99858
9	0x4302cfcc	130.8117
10	0x42fbec5f	125.96166
11	0x43029119	130.56679
12	0x430166d7	129.40172
13	0x42fc8e00	126.27734
14	0x42fbdd5c	125.93234
15	0x4301ad34	129.67657
16	0x4302a5f0	130.6482
17	0x42fd878f	126.76476
18	0x43028216	130.50815
19	0x4301dfcb	129.87419
20	0x42fbee46	125.96538
21	0x430257ff	130.34373
22	0x4302d4a0	130.83057
23	0x42fbfb73	125.99111

encoder_conv2.weight f4 [12, 24, 5]
0	0x4326cbf6	166.79672
1	0x431c7af2	156.48026
2	0x4320ebb7	160.92076
3	0x431d44b6	157.2684
4	0x4324b92d	164.72334
5	0x43274d59	167.30214
6	0x431d7d8d	157.49043
7	0x4321adae	161.67844
8	0x431e25e2	158.14798
9	0x4325d310	165.82446
10	0x4327181a	167.09415
11	0x431d924b	157.57146
12	0x431fdcdf	159.86278
13	0x431ca05b	156.62639
14	0x43242643	164.14946
15	0x432719fd	167.10152
16	0x431d6a90	157.41626
17	0x431ffb45	159.98152
18	0x431ccb3c	156.79388
19	0x43243552	164.20828
20	0x43271475	167.07991
21	0x431d84c0	157.51855
22	0x43200856	160.03256
23	0x431ce729	156.90297
24	0x43244030	164.25073
25	0x4326cb90	166.79517
26	0x431ce03d	156.87593
27	0x4320ff91	160.9983
28	0x431d0e82	157.05667
29	0x4324e7ad	164.90498
30	0x4326e5a4	166.89703
31	0x431d713e	157.44235
32	0x431fe385	159.88875
33	0x431cbf3c	156.74701
34	0x43241777	164.09166
35	0x4326f324	166.94977
36	0x431d6de2	157.42923
37	0x431fe764	159.90387
38	0x431cc74f	156.77855
39	0x43241093	164.06474
40	0x4326ec79	166.92372
41	0x431d5ccb	157.36247
42	0x431fde01	159.8672
43	0x431cadb1	156.67848
44	0x43241aa6	164.1041
45	0x4325f427	165.95372
46	0x431c1b05	156.10555
47	0x4321277b	161.15422
48	0x431d8144	157.50494
49	0x43248ec4	164.55768
50	0x4326e20c	166.883
51	0x431d4ea0	157.30713
52	0x431fd9fe	159.85153
53	0x431ca476	156.64243
54	0x43241e18	164.11755
55	0x43277d00	167.48828
56	0x431d7390	157.45142
57	0x4321b0fb	161.69133
58	0x431e4a39	158.28993
59	0x4326085e	166.03268
60	0x432755e7	167.33556
61	0x431d85da	157.52286
62	0x4321222f	161.13353
63	0x431e0ee3	158.05815
64	0x4325859e	165.52194
65	0x432707fb	167.03117
66	0x431d6078	157.37683
67	0x431fe207	159.88292
68	0x431ce053	156.87627
69	0x4324270b	164.15251
70	0x43271d0d	167.11348
71	0x431d6691	157.40065
72	0x43202495	160.1429
73	0x431cd10f	156.81664
74	0x43243282	164.1973
75	0x432768a3	167.40874
76	0x431d88a6	157.53378
77	0x43213329	161.19984
78	0x431dfa69	157.97816
79	0x4325b5c9	165.7101
80	0x43262356	166.13803
81	0x431bbebc	155.74506
82	0x43226e77	162.4315
83	0x431eae37	158.68053
84	0x432654fd	166.33199
85	0x4326e815	166.90657
86	0x431d6b17	157.41832
87	0x4320126f	160.072
88	0x431cf5e5	156.96053
89	0x43245bbe	164.35837
90	0x4327549e	167.33054
91	0x431d603d	157.37593
92	0x43219088	161.56458
93	0x431e28a4	158.15875
94	0x4325d257	165.82164
95	0x4327579c	167.34222
96	0x431d6de0	157.4292
97	0x43215495	161.3304
98	0x431e0934	158.03595
99	0x4325b59f	165.70946
100	0x4326e150	166.88013
101	0x431d31b1	157.1941
102	0x431fe4e1	159.89406
103	0x431ca394	156.63898
104	0x4323c2c4	163.7608
105	0x432754de	167.33151
106	0x431d7510	157.45728
107	0x4321b4be	161.70602
108	0x431e24a1	158.14308
109	0x4325e7a2	165.90482
110	0x4326443b	166.26653
111	0x431c5e48	156.36829
112	0x43210ff7	161.06236
113	0x431d6dcf	157.42894
114	0x4324e9b4	164.9129
115	0x4326d84f	166.84496
116	0x431d604e	157.37619
117	0x431ff825	159.96931
118	0x431cbaca	156.72964
119	0x4324012a	164.00455
120	0x432669d7	166.41344
121	0x431c8569	156.52113
122	0x432110de	161.06589
123	0x431d769d	157.46333
124	0x43255868	165.34534
125	0x43273af4	167.23029
126	0x431d3dcf	157.24144
127	0x43217dcb	161.49138
128	0x431e330c	158.1994
129	0x4325c552	165.77078
130	0x43271716	167.09018
131	0x431d90e1	157.56593
132	0x431f6004	159.37506
133	0x431bfe20	155.99268
134	0x43237e0c	163.49237
135	0x43271087	167.06456
136	0x431d6b8e	157.42014
137	0x431fad89	159.67787
138	0x431c3d84	156.2403
139	0x4323935a	163.57559
140	0x43270a12	167.03934
141	0x431d8a7e	157.54099
142	0x431f9538	159.58289
143	0x431c6371	156.38844
144	0x4323aa56	163.66537
145	0x432698c7	166.59679
146	0x431cb57e	156.70895
147	0x43213eb2	161.2449
148	0x431d5583	157.33403
149	0x43252c85	165.1739
150	0x4326d781	166.84181
151	0x431d7958	157.474
152	0x431f60c0	159.37793
153	0x431bfa2f	155.97728
154	0x432365d9	163.39784
155	0x4326f57c	166.95892
156	0x431d77fe	157.46872
157	0x431f886e	159.53293
158	0x431c1515	156.08235
159	0x43238637	163.52428
160	0x4326f574	166.9588
161	0x431d5a23	157.3521
162	0x431f657f	159.39647
163	0x431c3249	156.19643
164	0x43237bdd	163.48384
165	0x43255cd1	165.36256
166	0x431bed3c	155.9267
167	0x4321732a	161.44986
168	0x431da215	157.63313
169	0x4324eee2	164.93314
170	0x4326db4b	166.85661
171	0x431d6485	157.39265
172	0x431f709e	159.43991
173	0x431c4146	156.25497
174	0x4323abf6	163.67172
175	0x4327478a	167.27945
176	0x431d6614	157.39874
177	0x4321a952	161.6614
178	0x431e29a1	158.16261
179	0x4325e4f9	165.89442
180	0x43273a96	167.22885
181	0x431d77d3	157.46806
182	0x4320feef	160.99583
183	0x431de508	157.89465
184	0x432553d0	165.3274
185	0x43270cfb	167.0507
186	0x431d3dce	157.24142
187	0x431f9b42	159.60648
188	0x431c5adf	156.35497
189	0x43239c95	163.61165
190	0x4326fe03	166.99223
191	0x431d9302	157.57425
192	0x431fb533	159.70781
193	0x431c5c6d	156.36104
194	0x4323af8f	163.68578
195	0x43275878	167.34558
196	0x431d82fa	157.51163
197	0x43211dfd	161.11714
198	0x431de211	157.88307
199	0x4325705d	165.43892
200	0x43253596	165.20932
201	0x431b7337	155.45006
202	0x432245ab	162.27214
203	0x431eb302	158.69925
204	0x4326811e	166.50436
205	0x4326f7be	166.96774
206	0x431d632c	157.38739
207	0x431fb32a	159.69986
208	0x431c6e1a	156.43008
209	0x4323ea64	163.91559
210	0x4327452b	167.27019
211	0x431d3a05	157.22664
212	0x43217c15	161.4847
213	0x431e284b	158.1574
214	0x4325c2b0	165.7605
215	0x43274d24	167.30133
216	0x431d7632	157.4617
217	0x43211f36	161.12192
218	0x431dc843	157.78227
219	0x43258180	165.50586
220	0x4326d90c	166.84784
221	0x431d4ef9	157.30849
222	0x431f4839	159.28212
223	0x431bd50c	155.83221
224	0x4323240e	163.14084
225	0x43274dcd	167.30391
226	0x431d66fb	157.40227
227	0x43218629	161.52406
228	0x431e1540	158.08301
229	0x4325bf64	165.74762
230	0x4325a295	165.63509
231	0x431c14ec	156.08173
232	0x4321292a	161.1608
233	0x431da6d4	157.65167
234	0x43254bd8	165.29626
235	0x4326f5d3	166.96025
236	0x431d796b	157.47429
237	0x431f8399	159.51405
238	0x431c3da8	156.24084
239	0x43239285	163.57234
240	0x432701bd	167.00679
241	0x431c779b	156.46721
242	0x4320cff9	160.8124
243	0x431d11c6	157.06943
244	0x4324fb46	164.98154
245	0x43270c40	167.04785
246	0x431d0bec	157.04657
247	0x4321613c	161.37982
248	0x431da54b	157.64568
249	0x43256c6e	165.42355
250	0x4326d851	166.84499
251	0x431d4f5b	157.30998
252	0x431f2553	159.1458
253	0x431bc255	155.75911
254	0x4323c49c	163.768
255	0x4326b45b	166.70451

encoder_conv2.bias f4 [12]
0	0x4250d764	52.210342
1	0x4250eb06	52.229515
2	0x424e6065	51.594135
3	0x42488c03	50.13673
4	0x42496191	50.34528
5	0x42507cbe	52.12182
6	0x4249cf61	50.45252
7	0x424f46e2	51.81922
8	0x424f6f2f	51.858578
9	0x42510773	52.257275
10	0x42509d7e	52.1538
11	0x4250b9c0	52.181396

encoder_conv3.weight f4 [6, 12, 5]
0	0x42f4de73	122.43447
1	0x42f49f76	122.31145
2	0x4291fa6f	72.98913
3	0x4291f3e0	72.97632
4	0x424c5242	51.08033
5	0x42f50621	122.51197
6	0x42f4bd6d	122.36997
7	0x4291954d	72.7916
8	0x4291be5f	72.87182
9	0x424dae62	51.420296
10	0x42f456d8	122.16962
11	0x42f45690	122.16907
12	0x4292202f	73.06286
13	0x429219a3	73.05007
14	0x424c7ad5	51.119953
15	0x42f4b040	122.34424
16	0x42f4e45e	122.44603
17	0x42926c58	73.21161
18	0x4292037c	73.006805
19	0x424ff166	51.98574
20	0x42f66904	123.20511
21	0x42f5ed54	122.96353
22	0x42942893	74.07925
23	0x4292aa5b	73.332726
24	0x42519c2c	52.40251
25	0x42f4e8fa	122.45503
26	0x42f4cd5a	122.40108
27	0x429208f0	73.017456
28	0x4291f361	72.97535
29	0x424cfdda	51.247902
30	0x42f685aa	123.26106
31	0x42f5ecee	122.96275
32	0x4293c3fe	73.8828
33	0x4292403b	73.12545
34	0x42514f3c	52.327377
35	0x42f4807c	122.250946
36	0x42f44e81	122.15333
37	0x42920d46	73.025925
38	0x42923b2c	73.11557
39	0x424cce5e	51.20153
40	0x42f4965c	122.29367
41	0x42f48162	122.2527
42	0x42925606	73.168015
43	0x4291ae7a	72.840775
44	0x424d4063	51.312878
45	0x42f48472	122.25868
46	0x42f489c2	122.26906
47	0x4291c7d7	72.89031
48	0x4291fe06	72.99614
49	0x424c7440	51.113525
50	0x42f4b966	122.36211
51	0x42f45d0e	122.18175
52	0x4291bc2c	72.86752
53	0x4291bc39	72.86762
54	0x424de33c	51.47191
55	0x42f4c15f	122.37768
56	0x42f472de	122.22435
57	0x4291cf01	72.904305
58	0x4291acab	72.83724
59	0x424ce9e3	51.228405
60	0x43182e3e	152.18063
61	0x43182623	152.14897
62	0x42c11517	96.54119
63	0x42c0e96d	96.45591
64	0x429c903c	78.28171
65	0x43183bc2	152.23343
66	0x431846ee	152.27707
67	0x42c0dd73	96.43252
68	0x42c08e14	96.2775
69	0x429c8127	78.25225
70	0x4317da57	151.85289
71	0x4317ec4b	151.92302
72	0x42c0acb9	96.33735
73	0x42c02017	96.062675
74	0x429bf1a5	77.97196
75	0x431701d2	151.00711
76	0x43175ab8	151.35437
77	0x42c15a75	96.676674
78	0x42c0a102	96.31447
79	0x429a49bc	77.14401
80	0x4315e71e	149.9028
81	0x4316bffb	150.74992
82	0x42c09792	96.296036
83	0x42c00cff	96.02538
84	0x429988be	76.767075
85	0x43180b04	152.04303
86	0x431856ae	152.3386
87	0x42c0e4c0	96.44678
88	0x42c0d3b0	96.41345
89	0x429c755d	78.229225
90	0x4315d842	149.84476
91	0x4316d4a6	150.83066
92	0x42c0ca8e	96.395615
93	0x42c06028	96.187805
94	0x42993fce	76.62462
95	0x4317ecae	151.92453
96	0x4317e3c0	151.88965
97	0x42c05f27	96.185844
98	0x42c04972	96.14345
99	0x429c2a1f	78.08227
100	0x4317f48b	151.95525
101	0x4318018e	152.00607
102	0x42bf835f	95.756584
103	0x42c03c79	96.11811
104	0x429ba304	77.81839
105	0x43182cd0	152.17505
106	0x43183bfd	152.23433
107	0x42c0ea14	96.457184
108	0x42c08ab0	96.270874
109	0x429c2ea8	78.091125
110	0x43181d8b	152.1154
111	0x43183105	152.19148
112	0x42c0ed75	96.46378
113	0x42c0fbd8	96.49188
114	0x429c4a5f	78.145256
115	0x431811c4	152.0694
116	0x43184c88	152.29895
117	0x42c0fda6	96.49541
118	0x42c08721	96.26392
119	0x429c5273	78.16103
120	0x431939c4	153.22565
121	0x43192050	153.12622
122	0x42c6d948	99.42438
123	0x42c6956c	99.29184
124	0x42a3048c	81.50888
125	0x4319156d	153.0837
126	0x4319121a	153.07071
127	0x42c70b32	99.521866
128	0x42c6e576	99.448166
129	0x42a2f1a5	81.47196
130	0x4318f08b	152.93962
131	0x4318dd41	152.86427
132	0x42c66d01	99.2129
133	0x42c5cb38	98.89691
134	0x42a2208d	81.063576
135	0x4317f465	151.95467
136	0x43183861	152.22023
137	0x42c6c332	99.38124
138	0x42c6e2c9	99.44294
139	0x42a0c572	80.385635
140	0x4316cfa1	150.81105
141	0x4317c15e	151.75534
142	0x42c569ac	98.70639
143	0x42c60e2d	99.02769
144	0x429fc099	79.87617
145	0x4319051d	153.01997
146	0x4319288a	153.15836
147	0x42c6f710	99.482544
148	0x42c6f428	99.47687
149	0x42a2d09f	81.40746
150	0x4316a948	150.66125
151	0x4317d1f6	151.82016
152	0x42c59c14	98.80484
153	0x42c64af4	99.14639
154	0x429fd6e6	79.91972
155	0x4318fb49	152.98158
156	0x4318e681	152.9004
157	0x42c68bba	99.2729
158	0x42c63b92	99.11635
159	0x42a28884	81.26663
160	0x4318c99b	152.78752
161	0x43190de2	153.05423
162	0x42c58ef4	98.779205
163	0x42c5e116	98.93962
164	0x42a1fcef	80.99401
165	0x4319118b	153.06853
166	0x43191924	153.0982
167	0x42c701a7	99.50323
168	0x42c66d5c	99.21359
169	0x42a2e1f6	81.44133
170	0x4318e422	152.89114
171	0x43191cfc	153.11322
172	0x42c701a3	99.5032
173	0x42c6bc68	99.36798
174	0x42a296e4	81.29471
175	0x43190355	153.01302
176	0x43192d9a	153.17813
177	0x42c6d2fa	99.41206
178	0x42c6e742	99.451675
179	0x42a26b41	81.20948
180	0x430bdaad	139.8542
181	0x430bdc31	139.86012
182	0x42b7ef95	91.96793
183	0x42b81159	92.03388
184	0x4291bd9b	72.87032
185	0x430c2014	140.1253
186	0x430c10e1	140.06593
187	0x42b7b0db	91.84542
188	0x42b81b96	92.05388
189	0x4292504b	73.15682
190	0x430be028	139.87561
191	0x430bddf7	139.86705
192	0x42b8bb03	92.36526
193	0x42b8f28e	92.47374
194	0x4291e639	72.94965
195	0x430bb857	139.72008
196	0x430bcbdb	139.79631
197	0x42b77536	91.72893
198	0x42b732a8	91.59894
199	0x4291f4b7	72.97796
200	0x430c6486	140.39267
201	0x430c7edd	140.49556
202	0x42b65a13	91.17593
203	0x42b5f198	90.97186
204	0x4293b2fa	73.84956
205	0x430c0bfe	140.04684
206	0x430bfdf6	139.99203
207	0x42b83d1e	92.11937
208	0x42b84081	92.125984
209	0x429281cc	73.25351
210	0x430c8d24	140.55133
211	0x430cb04f	140.6887
212	0x42b5d703	90.919945
213	0x42b5c2b4	90.88028
214	0x429384b3	73.75918
215	0x430bd57a	139.8339
216	0x430bf64d	139.96211
217	0x42b876ea	92.232254
218	0x42b8db28	92.42804
219	0x42918758	72.76434
220	0x430bcadb	139.7924
221	0x430b8f07	139.5587
222	0x42b8ff82	92.49904
223	0x42b8f384	92.47562
224	0x429199ab	72.80013
225	0x430bf09e	139.93991
226	0x430bec3d	139.9228
227	0x42b80376	92.00676
228	0x42b84804	92.140656
229	0x4291fd40	72.99463
230	0x430c1d5a	140.11465
231	0x430bf2cd	139.94844
232	0x42b7cf6c	91.90512
233	0x42b82804	92.078156
234	0x42927338	73.22504
235	0x430c2ad6	140.16733
236	0x430be75a	139.90372
237	0x42b7f3ea	91.976395
238	0x42b80fe7	92.03106
239	0x42924de7	73.15215
240	0x4319462d	153.27412
241	0x431943cc	153.26483
242	0x42cda8fc	102.83005
243	0x42ce0292	103.00502
244	0x42aa489f	85.14184
245	0x43192626	153.14902
246	0x431946d3	153.27666
247	0x42cdad4d	102.83848
248	0x42cdd109	102.90827
249	0x42aa487f	85.141594
250	0x4318f48a	152.95523
251	0x43192e27	153.18028
252	0x42cd80da	102.75166
253	0x42ccf6ec	102.48227
254	0x42a9ea74	84.95792
255	0x4317fd8e	151.99045

encoder_conv3.bias f4 [6]
0	0x3f6da0ac	0.9282329
1	0x41e8e806	29.113293
2	0x41e859f8	29.04393
3	0x41239141	10.222962
4	0x41f70937	30.8795
5	0x411488a0	9.283356

deconv1.weight f4 [6, 12, 5]
0	0x4070c685	3.7621167
1	0xc10c5047	-8.769599
2	0xc01c7725	-2.444772
3	0xc0e95ac1	-7.2923284
4	0xc190585f	-18.04315
5	0x40446c58	3.0691128
6	0x40ec3b48	7.3822365
7	0xbf244a71	-0.6417609
8	0xc1ead03c	-29.351677
9	0xc1f53909	-30.65285
10	0x3fa2d679	1.2721702
11	0xbf45f5cf	-0.773282
12	0xbf0999ed	-0.537505
13	0xc2da4c16	-109.148605
14	0xc1f09e2f	-30.077238
15	0xc198626e	-19.048061
16	0x4181f3bc	16.24401
17	0x4197ae4b	18.960104
18	0x420abaff	34.682613
19	0x4235d696	45.459557
20	0x3f1dc692	0.6163112
21	0xc0042843	-2.0649574
22	0xbfb7231c	-1.430759
23	0xc2d9ab37	-108.834404
24	0xc1d945c0	-27.159058
25	0x41963cec	18.779747
26	0xc0c25460	-6.0727997
27	0x421b5bf6	38.839806
28	0x4204ed84	33.23195
29	0x42375359	45.831394
30	0x41a5c0b2	20.71909
31	0xbf836a68	-1.0266848
32	0xbf6947df	-0.9112529
33	0xc2a2b9d4	-81.362946
34	0xc1fdd81b	-31.73052
35	0x401df255	2.4679158
36	0xbf80048d	-1.0001389
37	0xbf0adf74	-0.5424721
38	0xc2d1d6df	-104.91967
39	0xc1e599f9	-28.700182
40	0xc1239e23	-10.226108
41	0x414b061f	12.688994
42	0x41d6f2fc	26.868645
43	0x42035444	32.83229
44	0x42529e30	52.65448
45	0xc1a20760	-20.253601
46	0x41854489	16.658464
47	0x4195e495	18.736612
48	0x42060d5b	33.513042
49	0x42327d78	44.622528
50	0x414e5552	12.89583
51	0x3f9d790c	1.2302566
52	0x421b28ee	38.78997
53	0x411f2ad1	9.947953
54	0x4200d22a	32.20524
55	0x3f363648	0.71176577
56	0xbfc8020e	-1.5625627
57	0xbf4d293e	-0.80141056
58	0xc2db54ba	-109.66548
59	0xc1e758a9	-28.918291
60	0x40742aa3	3.8151023
61	0xc103b9ed	-8.232892
62	0xc02fb80a	-2.7456079
63	0xc0e4ea7f	-7.153625
64	0xc1897c8b	-17.185812
65	0x40708412	3.758061
66	0x4104efcf	8.308547
67	0x3e930954	0.28718054
68	0xc1e42e76	-28.522686
69	0xc1ec4487	-29.53346
70	0x3ffea9a7	1.9895524
71	0x3e140a33	0.14457016
72	0xba88888e	-0.0010416673
73	0xc2da43b9	-109.13227
74	0xc1e7c446	-28.970837
75	0xc199c789	-19.22243
76	0x4181a8cd	16.207422
77	0x41977c20	18.935608
78	0x420ad5f4	34.70894
79	0x42333adb	44.807476
80	0x3f32e808	0.698853
81	0xbec4c181	-0.38428882
82	0xbfbe67af	-1.4875392
83	0xc2d736e8	-107.60724
84	0xc1d06994	-26.051552
85	0x41a00d3a	20.006458
86	0xc0a246e3	-5.071153
87	0x421d138d	39.269093
88	0x4208d2a4	34.205704
89	0x423b89e2	46.88465
90	0x41ab17f4	21.386696
91	0xbe0a40b9	-0.13501252
92	0xbd1a3238	-0.03764555
93	0xc2a0edc2	-80.46437
94	0xc1f4e0e4	-30.60981
95	0x40663aa0	3.5973282
96	0x3e6e9a1e	0.23300979
97	0xbd47de4e	-0.04879599
98	0xc2cfb44c	-103.85214
99	0xc1daff53	-27.37467
100	0xc11f3962	-9.951509
101	0x41413fed	12.078107
102	0x41d5a022	26.70319
103	0x4201edc5	32.482197
104	0x4250e859	52.226902
105	0xc1a165b7	-20.174665
106	0x4181761e	16.182674
107	0x41948e87	18.569593
108	0x42049d3a	33.15354
109	0x422fc7e7	43.945217
110	0x415f06cc	13.939159
111	0x400ae273	2.1700714
112	0x421d9ca6	39.402977
113	0x412ec2b3	10.922534
114	0x4205803b	33.375225
115	0x3fdae5a9	1.7101337
116	0x3cbef45e	0.023309883
117	0xbecb5c20	-0.39718723
118	0xc2d9122d	-108.5355
119	0xc1ddf08c	-27.742455
120	0x407687e1	3.8520434
121	0xc107b1a5	-8.48087
122	0xc038c339	-2.8869154
123	0xc0e600e1	-7.1876073
124	0xc188b591	-17.088655
125	0x406d2f9e	3.7060313
126	0x410668b0	8.400558
127	0x3e67a69f	0.22622155
128	0xc1e4ccb5	-28.599955
129	0xc1eb3664	-29.401558
130	0x401384d8	2.3049831
131	0x3df3ef59	0.11910886
132	0x3e219d82	0.1578274
133	0xc2daf66b	-109.481285
134	0xc1e5d1f5	-28.727518
135	0xc19c090b	-19.504416
136	0x4181b584	16.21363
137	0x41988625	19.0655
138	0x420be953	34.977856
139	0x4231dc02	44.46485
140	0x3f569bf5	0.8383172
141	0xbebf6e46	-0.3738882
142	0xbfd3e3bb	-1.6553873
143	0xc2d7aff5	-107.843666
144	0xc1d064cf	-26.049223
145	0x41a146a4	20.159492
146	0xc09e9623	-4.955827
147	0x421c3728	39.053864
148	0x420878e3	34.118053
149	0x423bcc24	46.949356
150	0x41ad4f97	21.663862
151	0x3d0316cf	0.032004174
152	0xbd1a285a	-0.03763614
153	0xc2a0d6aa	-80.419266
154	0xc1f250b5	-30.289408
155	0x4063933b	3.5558612
156	0x3e56f48f	0.20991729
157	0x3cc2aa5b	0.023762872
158	0xc2cfb08e	-103.84483
159	0xc1d9d3fc	-27.228508
160	0xc121ca51	-10.111894
161	0x414051c7	12.019965
162	0x41d655e7	26.791945
163	0x4202d0ef	32.704037
164	0x424fcb2e	51.948418
165	0xc1a2e654	-20.362465
166	0x418101b6	16.125835
167	0x4194f7be	18.620968
168	0x4204a899	33.164646
169	0x422f0c74	43.76216
170	0x41606028	14.023476
171	0x40152b8b	2.3307827
172	0x421da375	39.409626
173	0x412eb8c4	10.920109
174	0x42066dc6	33.6072
175	0x3fe41ef2	1.7821944
176	0xbe8d2648	-0.2756827
177	0xbeb95d56	-0.36204022
178	0xc2d95b10	-108.67786
179	0xc1dd0856	-27.62907
180	0x40596d98	3.397314
181	0xc1088aac	-8.533855
182	0xc00b7430	-2.1789665
183	0xc0e606aa	-7.1883135
184	0xc18eff91	-17.874788
185	0x405a9b07	3.415712
186	0x40f4a441	7.6450505
187	0x3d0d7320	0.03453362
188	0xc1e5ff9e	-28.749813
189	0xc1f3aed0	-30.460358
190	0x3fbcd69f	1.4752997
191	0xbf173dcc	-0.5907867
192	0xbc289e93	-0.010291713
193	0xc2d9fa00	-108.98828
194	0xc1ed69ef	-29.676725
195	0xc198132d	-19.009363
196	0x41817163	16.180365
197	0x4195c7d9	18.722582
198	0x420b5b31	34.839054
199	0x4234ed97	45.23202
200	0xbe460212	-0.19336727
201	0xbfc8b9bc	-1.5681682
202	0xbf86cfe2	-1.0532191
203	0xc2d88ec3	-108.27883
204	0xc1d78480	-26.939697
205	0x4196c3b7	18.845564
206	0xc0b658cd	-5.69834
207	0x421c129f	39.018185
208	0x42068998	33.63437
209	0x4237430f	45.815487
210	0x41a6d2db	20.852957
211	0xbf188b98	-0.59588003
212	0xbe76028b	-0.24024408
213	0xc2a1cf44	-80.904816
214	0xc1fc5e90	-31.546173
215	0x401b330c	2.4249907
216	0xbee4b3b6	-0.4466836
217	0x3e225018	0.15850866
218	0xc2d07e62	-104.24684
219	0xc1e35647	-28.417128
220	0xc12262f2	-10.149157
221	0x414b3fab	12.703044
222	0x41d55d36	26.670513
223	0x4201b017	32.421963
224	0x4252c1d6	52.689293
225	0xc1a16cc6	-20.178112
226	0x4185426c	16.657433
227	0x4193a0ce	18.453518
228	0x42046b63	33.10487
229	0x42324496	44.56698
230	0x414ee19a	12.9300785
231	0x3fd0341c	1.6265903
232	0x421da250	39.40851
233	0x4127ac6a	10.479593
234	0x42012566	32.286522
235	0x3f4ca888	0.7994466
236	0xbf8dd936	-1.1081913
237	0xbe93bbea	-0.28854305
238	0xc2da6fc6	-109.21831
239	0xc1e5c9f3	-28.723608
240	0x406719dd	3.6109536
241	0xc106f81f	-8.435576
242	0xc02b1a60	-2.6734848
243	0xc0e5b7cd	-7.1786866
244	0xc1892c2e	-17.146572
245	0x4070a9b2	3.7603574
246	0x4102bef9	8.171624
247	0x3ec1a495	0.3782088
248	0xc1e4eb33	-28.614843
249	0xc1eb6e09	-29.428728
250	0x400c7f2b	2.1952617
251	0x3e0611e6	0.13092765
252	0x3e3c7fc4	0.18408114
253	0xc2daf36f	-109.47546
254	0xc1e5a57e	-28.705807
255	0xc199b64f	-19.214018

deconv1.bias f4 [12]
0	0x41402ca0	12.010895
1	0x40e2f6ef	7.0926433
2	0x40dcf4b6	6.904872
3	0x415c4042	13.765688
4	0x41175188	9.457405
5	0x403e4c62	2.973412
6	0x40fd7191	7.920113
7	0x40db6f59	6.8573422
8	0x413cd329	11.801553
9	0x41777b63	15.467624
10	0x4141a1d8	12.102013
11	0x4113015c	9.187832

deconv2.weight f4 [12, 24, 5]
0	0x3c99aba9	0.018758612
1	0xbec98ce9	-0.39365318
2	0xbafa6e84	-0.0019106423
3	0xbdb0c596	-0.086314365
4	0x3c21f63e	0.009885369
5	0x3fc75964	1.5574155
6	0x3e11e224	0.14246422
7	0x40f909e8	7.7824593
8	0x40e026ae	7.0047216
9	0xc1b27999	-22.309374
10	0x4122c70c	10.173595
11	0x3ddc2c11	0.107505925
12	0xbfcd492b	-1.6037954
13	0x41750c11	15.315446
14	0x3f42b615	0.76059085
15	0x40329722	2.7904744
16	0xc06d0e03	-3.7039802
17	0xbe88d061	-0.2672148
18	0x3cb3e3d1	0.021959217
19	0x4179cbaa	15.612223
20	0x40b379ff	5.608642
21	0xbdb17df7	-0.08666604
22	0xc04087b2	-3.0082822
23	0x3e37512a	0.17902055
24	0x40b29088	5.580143
25	0xc0afda84	-5.4954243
26	0x41c89a90	25.07547
27	0x403d2170	2.9551659
28	0xbfcb2430	-1.5870419
29	0x4029a43a	2.6506486
30	0x4058ceb1	3.3876154
31	0xbe887727	-0.26653406
32	0x3e626a8b	0.22110955
33	0x3f5146cb	0.81748646
34	0x414aa41e	12.665068
35	0xc09eb743	-4.959871
36	0xbf80cfcb	-1.0063413
37	0x40e5fd6e	7.1871862
38	0x407a3c58	3.909933
39	0xc180549a	-16.04131
40	0xc028b6fd	-2.6361687
41	0x41a1a488	20.205338
42	0x3ff61b6a	1.9227116
43	0xc032698e	-2.7876925
44	0x4116a018	9.414085
45	0x3f84a183	1.036179
46	0xbf3003db	-0.6875588
47	0xbef6e709	-0.4822314
48	0x3e195774	0.14974767
49	0x4164df3d	14.304502
50	0xc0928219	-4.578381
51	0x41a609eb	20.754843
52	0xc140be4a	-12.046457
53	0xc0589df8	-3.3846416
54	0x413a7d9f	11.655669
55	0xbc9395c1	-0.018015744
56	0x3d2d7d65	0.042355914
57	0xbe251344	-0.1612063
58	0xbec42c47	-0.3831503
59	0xbd6adcb7	-0.057339396
60	0x4072f777	3.796354
61	0xbdd7cbd0	-0.10536921
62	0xbf6e244c	-0.93024135
63	0xc04aa3c1	-3.1662447
64	0x414dd0bd	12.8634615
65	0xc0533486	-3.3000808
66	0x41a9e354	21.236
67	0xc12d0979	-10.814813
68	0xc0445578	-3.0677166
69	0x41235ef9	10.210687
70	0x40d5b837	6.678737
71	0xbe1a44d9	-0.15065326
72	0x40d11370	6.5336227
73	0x419b1143	19.383429
74	0xc18ae20b	-17.360373
75	0x40985ca8	4.7613106
76	0xc041e01b	-3.0293033
77	0x408243c3	4.0707717
78	0x416a9024	14.660191
79	0xc1ab2a42	-21.395634
80	0x4086d634	4.213648
81	0xbf0d7849	-0.55261666
82	0xbf2412a6	-0.64090955
83	0xbfa2dfcd	-1.2724549
84	0x40f94889	7.7901044
85	0x40a98bbf	5.298309
86	0xc04374a0	-3.0539932
87	0x40b63738	5.6942406
88	0x4113e5c7	9.243598
89	0xc18bb955	-17.465494
90	0x409df0e9	4.935658
91	0xc036d61a	-2.8568177
92	0x40ca9a92	6.3313684
93	0x416a3f1d	14.6404085
94	0xc1913ac9	-18.153704
95	0x40ba04d9	5.8130918
96	0xc05a45e0	-3.4105148
97	0x4151658e	13.087294
98	0x413067e5	11.025365
99	0xc18f1cfc	-17.889153
100	0xc009419c	-2.1446295
101	0xbed32be9	-0.41244438
102	0x3fac196c	1.3445258
103	0xc0938e24	-4.611101
104	0x40ff8580	7.9850464
105	0x3f64f0bf	0.8942985
106	0xbf1302d8	-0.57426214
107	0xc130aa89	-11.041635
108	0xc090a487	-4.520084
109	0x40cd71db	6.4201484
110	0x3ef387cd	0.47564545
111	0xbf8196f5	-1.0124193
112	0xbe679798	-0.22616422
113	0xbf37d19d	-0.7180422
114	0x414482ce	12.281935
115	0xbfdc0ccd	-1.7191406
116	0xbf313983	-0.6922838
117	0xbf2b169f	-0.6683139
118	0x3eb5aa81	0.35481647
119	0x4170c307	15.047614
120	0xbd91e53d	-0.07123802
121	0x3e2cb021	0.16864063
122	0x3d5077b7	0.05089542
123	0xbda68ec9	-0.08132703
124	0x3d8e725f	0.06955408
125	0xc0f1db6b	-7.5580344
126	0xc1021699	-8.130517
127	0x40742911	3.8150065
128	0xbf1ccdee	-0.61251724
129	0xc1148e55	-9.284749
130	0x408a5546	4.3229094
131	0xbe6e9f9a	-0.2330307
132	0x414e2573	12.884143
133	0xc101a87a	-8.103632
134	0x41bef7bc	23.870964
135	0x410eea39	8.932183
136	0x3fd999e7	1.7000092
137	0xbeb57187	-0.35438177
138	0x41b1f097	22.242476
139	0x4111ee8a	9.120737
140	0x40e1e187	7.05878
141	0xbdb0a096	-0.08624379
142	0xc17be065	-15.742284
143	0xbe68f6f8	-0.22750461
144	0x41e44ab6	28.53648
145	0x40abd7f7	5.370113
146	0x41abc41a	21.470753
147	0x41812740	16.144165
148	0x419bee4d	19.491358
149	0x3f6640f3	0.89942855
150	0x410d9af7	8.850333
151	0xbde4da2f	-0.11174428
152	0x41a0c12c	20.094322
153	0x41307cb1	11.030442
154	0x41369523	11.41141
155	0xc070748b	-3.7571132
156	0xc033e134	-2.8106203
157	0x4144c225	12.297399
158	0x405e39e5	3.4722836
159	0xc0b48bf1	-5.6420827
160	0x412cba66	10.795507
161	0x4190fa18	18.122116
162	0x40dee510	6.9654617
163	0x4186f67f	16.87036
164	0x4170940f	15.036147
165	0x410c2c81	8.760865
166	0x3d25610e	0.04037576
167	0x3da06f16	0.07833688
168	0x41da7fed	27.312464
169	0x41fc84f2	31.564915
170	0x413ae1d7	11.680137
171	0x41801dac	16.014488
172	0xbeea9480	-0.45816422
173	0x40c77a40	6.233673
174	0x408fb698	4.4910393
175	0xbd92e645	-0.07172827
176	0xbcf54997	-0.029942317
177	0xbe6a7c97	-0.2289909
178	0x41ffb1a1	31.961733
179	0xbdae468d	-0.0850955
180	0x41094b84	8.580936
181	0xbcd69622	-0.026194636
182	0x4125134d	10.317212
183	0x41232d14	10.198505
184	0x41420863	12.127048
185	0x413d63d4	11.836872
186	0x418c0f10	17.507355
187	0x40e0cf80	7.0253296
188	0x414df488	12.8722
189	0x41d25c18	26.294968
190	0xc118da7e	-9.553343
191	0xbec9ad09	-0.39389828
192	0x3f33f438	0.70294523
193	0xc0b2417a	-5.5704927
194	0xc11d648b	-9.837047
195	0xc118375d	-9.513516
196	0xc0bd114f	-5.908363
197	0xc118e6ca	-9.556345
198	0xc11d3ebe	-9.827818
199	0xc173cd26	-15.237585
200	0x411e8d13	9.909442
201	0x3d98d5a8	0.07462627
202	0x3ed610f4	0.4180981
203	0x41bd1115	23.63334
204	0x41432861	12.197358
205	0xc1075984	-8.459354
206	0xc0c96a49	-6.2942243
207	0xc05fa3bb	-3.4943683
208	0xc10ae919	-8.681909
209	0xc129c7b7	-10.6112585
210	0xc1158837	-9.345756
211	0xc0ff52d9	-7.9788632
212	0xc0f81c0c	-7.7534237
213	0xc121dd61	-10.116548
214	0xc139e817	-11.619163
215	0xc1217681	-10.091432
216	0xc10fb456	-8.981527
217	0xc140b806	-12.044928
218	0xc1142b97	-9.260642
219	0xc11b1fa0	-9.695221
220	0x4129ee8a	10.620737
221	0xbd92dc41	-0.07170916
222	0x41190fc6	9.566351
223	0x4131d64f	11.114821
224	0x41e84afe	29.036617
225	0x410a0e42	8.628481
226	0xbe5b4ea4	-0.21416718
227	0x40630cc1	3.5476534
228	0x40c4ddad	6.15206
229	0x41699319	14.5984125
230	0x4115af24	9.355259
231	0xbe369ace	-0.17832491
232	0xbd3fb5d3	-0.04680426
233	0x41d9ae66	27.210155
234	0x420ec6fd	35.694324
235	0x412db374	10.856312
236	0x3c965280	0.018349886
237	0xbe7fbb04	-0.24973685
238	0x41dbb8f4	27.46531
239	0x41efea53	29.989416
240	0x3c594602	0.01326132
241	0xbed3712a	-0.41297275
242	0xbdacde5e	-0.08440851
243	0xbdd598b9	-0.1042952
244	0xbddaf26d	-0.1069077
245	0xc09caa84	-4.895815
246	0x3febaf31	1.8412839
247	0x41067fc9	8.406198
248	0x3f46f993	0.7772457
249	0xc1b33315	-22.399942
250	0x40b4bff0	5.64843
251	0xbdbe2816	-0.092849895
252	0xbf61d594	-0.8821652
253	0xc0806a70	-4.012993
254	0x40e3cbb4	7.118616
255	0x41211ed1	10.070024

deconv2.bias f4 [24]
0	0xbe33e144	-0.17566401
1	0x40be9104	5.955202
2	0x3fdc7fe8	1.7226534
3	0xc0225104	-2.5361948
4	0xbfa15a9e	-1.2605779
5	0x4034a2e1	2.8224413
6	0xc003a73c	-2.0570822
7	0x40a8885b	5.266645
8	0x406c577e	3.69284
9	0xc0094eb9	-2.1454298
10	0x40743dee	3.81628
11	0xbfed6c8a	-1.8548748
12	0xbffb0a0a	-1.9612439
13	0x40023bcf	2.0349004
14	0x40ade21b	5.433851
15	0x400901d3	2.1407363
16	0x3fafb4cb	1.3727049
17	0x406525ee	3.58044
18	0x3ff3ee02	1.9057009
19	0x3fc634d3	1.5484871
20	0xbf5831bb	-0.8445088
21	0xbebabeae	-0.36473602
22	0xc01cad25	-2.448068
23	0xbffbe8f8	-1.9680471

deconv3.weight f4 [24, 1, 5]
0	0xbe08f816	-0.13375887
1	0x3f62fef3	0.8867027
2	0x3ecc4f80	0.39904404
3	0x3e373627	0.17891751
4	0x3e83718e	0.25672573
5	0x3f018177	0.5058817
6	0xbf476982	-0.7789537
7	0xc03cd097	-2.9502313
8	0xc000a4f9	-2.0100691
9	0xc0da5173	-6.8224425
10	0xc0627c2e	-3.5388293
11	0xc0203e32	-2.503796
12	0xbe60db91	-0.21958758
13	0xc120abc4	-10.041935
14	0x40499df9	3.150267
15	0x3ec19a47	0.37813017
16	0x40a913aa	5.2836504
17	0x41ba1dbd	23.26452
18	0x40dde356	6.934001
19	0x4147dc5f	12.491302
20	0xc0b335b7	-5.600307
21	0xbe8e67b4	-0.27813494
22	0x3f42a2a4	0.7602942
23	0xbf0f0800	-0.5587158
24	0x40f8dbed	7.7768464
25	0x40d3fcd5	6.6246133
26	0x400c78a8	2.1948643
27	0x40ddecf2	6.935174
28	0x40fa57d3	7.8232207
29	0x3f8899d0	1.067194
30	0x402f1706	2.7357802
31	0x3e53f8fe	0.20700452
32	0x409b4fca	4.85349
33	0x41188834	9.533253
34	0x41042ca4	8.260899
35	0x3f0c2ac2	0.54752743
36	0x3df14d84	0.11782363
37	0xc0961551	-4.690102
38	0xbf1d662c	-0.61484027
39	0xc0d65677	-6.698055
40	0x3f7f2ecf	0.996808
41	0x3f9828d6	1.1887462
42	0x412e89e4	10.908665
43	0x410ffbd1	8.998979
44	0x4047b26a	3.1202645
45	0x3f66128b	0.89872044
46	0x4101fcf0	8.124252
47	0x41564e9a	13.39419
48	0x41fa9157	31.320967
49	0x414ed6a8	12.927406
50	0x3f4f6a0c	0.8102119
51	0x3f888e23	1.0668377
52	0x40b43d99	5.6325192
53	0x40d5d268	6.6819344
54	0x3ecf27ac	0.40459955
55	0x41f240ca	30.281635
56	0x41fa0512	31.252476
57	0x41d5dceb	26.73287
58	0x426cc823	59.195446
59	0xc12fa605	-10.978032
60	0x4044ff09	3.078066
61	0x3f67ac4e	0.9049729
62	0x411fe189	9.992562
63	0x406b140c	3.6730986
64	0x40a220a5	5.066485
65	0x3fcc3443	1.5953449
66	0x4023dcc8	2.5603504
67	0x40e51c78	7.159725
68	0x41050aae	8.315107
69	0x4029a9ca	2.650988
70	0xbf09f5bf	-0.53890604
71	0xbf9862fa	-1.1905205
72	0xc0509266	-3.2589355
73	0xc1478985	-12.471074
74	0xc1257487	-10.340949
75	0xbff3ccca	-1.9046872
76	0xbf391620	-0.72299385
77	0xc0364cbf	-2.8484342
78	0xc17a24c9	-15.633981
79	0xc0b59477	-5.674373
80	0xc00b6272	-2.1778836
81	0xbf0cfd7c	-0.55074286
82	0xc0db10c3	-6.845796
83	0xbe8ec503	-0.27884683
84	0xbf7ddc50	-0.99164295
85	0xc0359569	-2.8372443
86	0xbfe8b214	-1.8179345
87	0xbf619c66	-0.8812927
88	0xc0e9d541	-7.307282
89	0xc0d85f1b	-6.7616096
90	0xc101bbd6	-8.108358
91	0xbfb82572	-1.4386427
92	0xbfda9a13	-1.707827
93	0xc11a48ae	-9.642744
94	0xc11029f3	-9.0102415
95	0xc0d5047a	-6.6567965
96	0xc00af54a	-2.1712213
97	0xbf5cbbd2	-0.8622409
98	0xc143dd78	-12.2415695
99	0xc0ff1879	-7.9717374
100	0x3e048b65	0.129438
101	0x3f463b8c	0.7743461
102	0x3ebd85c7	0.37016127
103	0x406bf324	3.6867151
104	0xbe7e07a0	-0.24807596
105	0xc0a2a8ed	-5.083121
106	0x3e9e32de	0.30898184
107	0x409a6c5b	4.825727
108	0x40e06418	7.0122185
109	0x403b90d8	2.9307156
110	0x3ecd4862	0.40094286
111	0x40501897	3.2515008
112	0x418069b6	16.051617
113	0x42004106	32.0635
114	0x4190fc98	18.123337
115	0x402e8c06	2.7272964
116	0x412c4289	10.766244
117	0x418f81f1	17.938448
118	0x41d02166	26.016308
119	0x410906e2	8.56418
