models/Quant1/SNN_Autoencoder_tsri_quant16.pth (torch, 41977 bytes, 11 tensors)

encoder_conv1.weight f4 [24, 1, 5]
00000000: 1338 3940 184b 6d3f 120e 6cc2 da62 0bc2
00000010: 99d8 59c1 cf2c 7340 184b 6d3f 3df7 6ac2
00000020: 54da 07c2 e77e 4bc1 54ca 8240 184b 6d3f
00000030: bba1 6ac2 7301 07c2 74e6 4cc1 2d72 7c40
00000040: 184b 6d3f e02c 67c2 97c5 07c2 e408 4cc1
00000050: 1582 7140 184b 6d3f 0162 67c2 8654 0ac2
00000060: 1588 52c1 807f 5240 184b 6d3f ab4c 69c2
00000070: 3e9a 09c2 f8cf 4ec1 2725 3d40 184b 6d3f
00000080: f33c 69c2 9d4e 0ac2 d1ca 53c1 3e2c 4e40
00000090: 184b 6d3f 95f4 66c2 1874 07c2 88a6 4bc1
000000a0: ec6b 6840 184b 6d3f 8309 6ac2 19d7 08c2
000000b0: fa9a 57c1 e164 8740 184b 6d3f 0318 68c2
000000c0: 8d82 06c2 e2f1 4fc1 841c 4140 184b 6d3f
000000d0: 23ae 6ac2 4a7a 09c2 5d46 4bc1 ff08 6140
000000e0: 184b 6d3f 5f45 6ac2 737b 08c2 a31e 4ac1
000000f0: d535 5740 184b 6d3f 02d6 67c2 f854 08c2
00000100: e6f9 48c1 7b39 5f40 184b 6d3f 658b 67c2
00000110: c54a 0ac2 2a42 54c1 e40f 8140 184b 6d3f
00000120: 3cb4 68c2 1ec8 07c2 5747 4dc1 5a7c 8440
00000130: 184b 6d3f 89f0 66c2 62bb 08c2 2951 4fc1
00000140: bc94 6540 184b 6d3f 990c 69c2 b841 09c2
00000150: 04e5 50c1 cf9e 5c40 184b 6d3f a3e6 69c2
00000160: 35ec 06c2 ae15 4bc1 670e 3940 184b 6d3f
00000170: 7746 67c2 4d7d 08c2 574a 4fc1 01af 4f40
00000180: 184b 6d3f b780 67c2 1a80 08c2 3858 4ec1
00000190: 087c 3040 184b 6d3f 6d2f 69c2 dca2 0ac2
000001a0: 7dda 54c1 2c38 6a40 184b 6d3f f75a 67c2
000001b0: 4c24 08c2 a1d7 4ec1 0c81 4b40 184b 6d3f
000001c0: ccbb 68c2 b464 0ac2 539f 52c1 2681 5340
000001d0: 184b 6d3f 8c16 6ac2 18de 06c2 0714 49c1
2.8940475 0.9269271 -59.01374 -34.846535 -13.61538 3.79961 0.9269271 -58.741444
-33.96321 -12.718482 4.0871983 0.9269271 -58.65794 -33.751415 -12.806263 3.9444687
0.9269271 -57.793823 -33.94296 -12.752171 3.7735646 0.9269271 -57.845707 -34.582542
-13.158223 3.289032 0.9269271 -58.32487 -34.400627 -12.925774 2.9553926 0.9269271
-58.30952 -34.57677 -13.237016 3.2214503 0.9269271 -57.73885 -33.863373 -12.728157
3.631587 0.9269271 -58.50929 -34.210056 -13.475336 4.2310643 0.9269271 -58.02345
-33.62749 -12.996553 3.0173655 0.9269271 -58.670055 -34.369423 -12.704679 3.516174
0.9269271 -58.567745 -34.120556 -12.63248 3.3626606 0.9269271 -57.958992 -34.082977
-12.56101 3.4878833 0.9269271 -57.886127 -34.573017 -13.266153 4.03319 0.9269271
-58.17601 -33.945427 -12.829917 4.1401796 0.9269271 -57.734898 -34.18299 -12.9573145
3.587203 0.9269271 -58.262302 -34.31418 -13.055912 3.447193 0.9269271 -58.47523
-33.73067 -12.692793 2.891504 0.9269271 -57.818813 -34.122364 -12.955649 3.2450564
0.9269271 -57.875698 -34.1251 -12.896538 2.7575703 0.9269271 -58.296314 -34.659042
-13.303342 3.6596785 0.9269271 -57.838833 -34.035446 -12.927644 3.1797514 0.9269271
-58.183395 -34.598343 -13.1638975 3.3047576 0.9269271 -58.52202 -33.71689 -12.5673895

encoder_conv1.bias f4 [24]
00000000: 2c50 ac42 1d9c a942 cd3e a942 104f a942
00000010: 31f6 a942 a92f a942 ffd9 a942 7ee8 a842
00000020: e4bd ab42 b068 a942 0410 a942 39a9 a942
00000030: 2f78 a942 84f0 a842 bf1f a942 3b49 a942
00000040: 9166 a942 8cae a842 1884 a842 bde9 a842
00000050: d915 aa42 63e2 a942 7765 ac42 26be a942
86.156586 84.80491 84.62266 84.65442 84.98084 84.59309 84.92577 84.45409
85.87088 84.70447 84.53128 84.83051 84.73473 84.46976 84.562004 84.64303
84.700325 84.34091 84.257996 84.45652 85.04267 84.94216 86.19817 84.87138

encoder_conv2.weight f4 [12, 24, 5]
00000000: c287 d442 d434 c642 b126 da42 66ce cf42
00000010: b183 d642 5653 d642 9c9a c842 c8ce d842
00000020: 31a2 cf42 b0ed d542 828c d642 829a c842
00000030: 7426 d942 8918 d042 9524 d642 0f79 d642
00000040: 7b6a c842 e066 d942 3003 d042 f8da d542
00000050: bfa3 d642 02ca c842 4c61 d942 0785 cf42
00000060: 42e6 d542 8460 d642 4233 c842 ecab d842
00000070: 6c29 cf42 66c1 d542 7690 d642 9289 c842
00000080: 352f d942 4048 cf42 fdfc d542 de45 d642
00000090: d974 c842 63c5 d842 75b7 cf42 30bf d542
000000a0: 1182 d542 184e c742 4474 da42 201d d042
000000b0: 19e8 d642 14bc d642 ba77 c842 2553 d942
000000c0: a0c1 cf42 a50a d642 1f06 d642 c475 c842
000000d0: 1771 d842 e1c3 cf42 2795 d542 cd5f d642
000000e0: a18e c842 f4d3 d842 1418 d042 221a d642
000000f0: d6f3 d542 e490 c842 6cd1 d842 03f4 cf42
00000100: e6df d542 9ca2 d642 ae85 c842 a917 d942
00000110: 1a3c cf42 92bd d542 408d d642 20a1 c842
00000120: aa23 d942 68a9 cf42 a2da d542 b990 d642
00000130: fc24 c842 9442 d942 47e5 cf42 8517 d642
00000140: 2cd0 d642 297d c842 3839 d942 a3bc cf42
00000150: 6114 d642 7055 d642 2653 c842 ddf1 d742
00000160: 8575 cf42 30b8 d542 fa17 d642 2373 c842
00000170: 5fe6 d842 b808 cf42 10a2 d542 d049 d642
00000180: 2186 c842 7e02 d942 6aa5 cf42 d6bc d542
00000190: 9f98 d642 a2bf c842 df19 d942 182b cf42
000001a0: a4dc d542 4c67 d642 6246 c842 bd0c d942
000001b0: d375 cf42 6dd5 d542 3424 d642 bbee c742
000001c0: 0e75 d942 5ace cf42 3e0f d642 ab37 d642
000001d0: fe99 c842 f2d4 d842 4140 d042 5afa d542
000001e0: 2f92 d342 195a c542 aee1 d742 69d5 cd42
000001f0: 81d8 d542 2913 d642 46e1 c842 e27a d942
00000200: c89e d042 dfb8 d642 d78c d642 a529 c942
00000210: c009 da42 22b5 d042 f203 d742 3ce0 d642
00000220: ef7d c942 08cd d942 8ad8 d042 3ff5 d642
00000230: 8fa0 d642 3d1b c942 a61b da42 004a d042
00000240: e3a2 d642 0817 d642 6dbf c842 423b d942
00000250: b4a1 cf42 ec57 d642 84ab d642 4b01 c942
00000260: e9b9 d942 3206 d042 4abb d642 2487 d642
00000270: d11a c942 758c d942 a365 d042 f5d5 d642
00000280: ea3a d542 320c c742 a79c d842 d252 cf42
00000290: ea2f d642 1dcb d642 c549 c942 9a5a da42
000002a0: 88d8 d042 ef37 d742 9a60 d642 41ed c842
000002b0: e564 d942 41fb cf42 2783 d642 6595 d642
000002c0: 6850 c942 3cb8 d942 9498 d042 11c1 d642
000002d0: 4871 d642 170f c942 0f9f d942 c3b8 d042
000002e0: ece3 d642 c9d9 d642 0d2b c942 8d5b da42
000002f0: b33d d042 1c24 d742 75c6 d642 602a c942
00000300: 7409 da42 03d0 d042 95b9 d642 1a76 d642
00000310: fe08 c942 39f3 d942 c2c6 d042 6fe5 d642
00000320: 0d8e d642 2e03 c942 bccf d942 3b7f d042
00000330: 699e d642 a02b d642 dba9 c842 7b34 d942
00000340: 977b d042 5748 d642 7b91 d642 be3a c942
00000350: 76b8 d942 c135 d042 01d7 d642 f695 d642
00000360: f107 c942 ebd1 d942 724f d042 99d8 d642
00000370: 2d79 d642 23bd c842 12de d942 68d4 cf42
00000380: b9ac d642 a355 d642 2c93 c842 d351 d942
00000390: 0ef1 cf42 7d8b d642 a021 d442 217c c642
000003a0: 6df0 d642 d484 cd42 00cf d442 b546 d642
000003b0: 6d3a c942 c5d2 d942 1cac d042 acc3 d642
000003c0: 2a77 d442 8ccf c642 758e d842 acc1 cd42
000003d0: 6bcb d342 2e8d d242 9955 c542 2d4b d742
000003e0: dd32 ce42 b026 d442 af8e d342 a8e2 c542
000003f0: 57bf d642 b8d8 cc42 3b93 d342 ffac d342
106.26515 99.10318 109.07557 103.90312 107.25721 107.162766 100.30197 108.40387
103.81678 106.96423 107.27443 100.30177 108.5751 104.04792 107.07145 107.23644
100.20797 108.70093 104.006226 106.92767 107.31982 100.39455 108.69003 103.75982
106.94972 107.18851 100.10011 108.335785 103.5809 106.87773 107.28215 100.26869
108.5922 103.64111 106.99412 107.13646 100.22822 108.38552 103.858315 106.87341
106.754036 99.65253 109.22708 104.056885 107.453316 107.36734 100.23384 108.66239
103.878174 107.02079 107.011955 100.23001 108.22088 103.882576 106.79131 107.18711
100.27857 108.41397 104.04703 107.05104 106.97624 100.28299 108.40903 103.976585
106.9373 107.3176 100.26109 108.54621 103.617386 106.870255 107.27588 100.3147
108.56966 103.83087 106.92702 107.28266 100.072235 108.630035 103.94781 107.04594
107.406586 100.24445 108.611755 103.86843 107.0398 107.16687 100.1624 107.97239
103.72953 106.85974 107.04683 100.22488 108.44994 103.51703 106.81653 107.144165
100.26197 108.50487 103.823074 106.86882 107.29809 100.37428 108.55053 103.58417
106.93094 107.20175 100.13747 108.52488 103.730125 106.91685 107.07071 99.96627
108.72862 103.90303 107.02977 107.10873 100.300766 108.41591 104.125496 106.98897
105.785515 98.67597 107.94078 102.91682 106.92286 107.03742 100.43999 108.740005
104.31012 107.36108 107.27508 100.58134 109.01904 104.353775 107.507706 107.43796
100.745964 108.90045 104.42293 107.479 107.31359 100.5532 109.054 104.14453
107.31814 107.04498 100.37388 108.61574 103.81583 107.17172 107.33499 100.502525
108.863106 104.0121 107.3658 107.26395 100.552376 108.77433 104.19851 107.417885
106.61507 99.52382 108.30596 103.66176 107.09358 107.396706 100.64408 109.176956
104.42291 107.609245 107.188675 100.46339 108.69706 103.99073 107.25616 107.29179
100.65704 108.85983 104.298004 107.37708 107.22125 100.52947 108.81066 104.36086
107.44516 107.42536 100.58408 109.17881 104.12051 107.570526 107.38761 100.58276
109.01846 104.40627 107.362465 107.23067 100.51756 108.975044 104.3882 107.44811
107.27744 100.50621 108.90573 104.2485 107.309395 107.085205 100.33175 108.6025
104.24139 107.14129 107.28414 100.61473 108.860275 104.10499 107.41993 107.29289
100.51551 108.909996 104.15517 107.42304 107.23667 100.36941 108.93373 103.914856
107.33735 107.16726 100.287445 108.65981 103.97081 107.27244 106.065674 99.24244
107.46958 102.75943 106.4043 107.1381 100.61411 108.91166 104.33615 107.38217
106.23274 99.405365 108.27824 102.878265 105.8973 105.27574 98.66718 107.64683
103.09934 106.07556 105.77868 98.94269 107.37371 102.42328 105.78756 105.83788

encoder_conv2.bias f4 [12]
00000000: 6680 7e41 6162 8241 75fe 6f41 364f 4341
00000010: 6ff3 8041 33f2 8241 43b0 8141 a2ff 8241
00000020: 966c 7441 2a7f 8141 be3a 8141 a952 7d41
15.906347 16.298037 14.999623 12.206839 16.118864 16.368261 16.211065 16.37482
15.27651 16.187092 16.153683 15.832681

encoder_conv3.weight f4 [6, 12, 5]
00000000: 4fa9 a542 8eeb a542 49d3 7142 4a10 7242
00000010: d80a 2642 0688 a542 8e30 a642 9294 7242
00000020: 2ff4 7142 4499 2542 6552 a542 bb30 a542
00000030: 2772 7342 b8f4 7242 3cce 2442 7feb a342
00000040: 8377 a442 c044 7142 168c 7042 f35f 2542
00000050: 86ca a542 7922 a642 97a2 7142 c4ad 7142
00000060: 5b35 2642 27db a542 0726 a642 f565 7242
00000070: 9376 7242 6395 2642 6797 a542 d121 a642
00000080: 58d0 7242 9227 7142 40ef 2442 029a a542
00000090: 8e18 a642 058c 7242 7a4b 7242 0eca 2542
000000a0: 1e3e a542 00e7 a542 0462 7342 914a 7242
000000b0: 3cc7 2442 e1e3 a542 d50f a642 1ef1 7142
000000c0: f029 7242 2d22 2642 4d91 a542 2011 a642
000000d0: 67a3 7142 151e 7142 f1a1 2642 0c29 a542
000000e0: 6a0f a642 7dcc 7242 1099 7242 7895 2442
000000f0: 61f5 9e42 7ffd 9e42 00cd aa42 d3fa aa42
00000100: 3a66 9842 7cee 9e42 ed32 9f42 19e7 aa42
00000110: 9935 ab42 cd50 9842 4dca 9f42 a5ff 9e42
00000120: 3d33 aa42 06ff a942 4b39 9842 2474 a042
00000130: d938 a042 5932 a942 1abe a942 5da2 9742
00000140: 5f41 9f42 a00a 9f42 55fd aa42 f01b ab42
00000150: 2000 9842 06dc 9e42 6122 9f42 e318 ab42
00000160: bbec aa42 a730 9842 de23 9f42 e330 9f42
00000170: 2f10 ab42 d04a ab42 550b 9842 8ce6 9e42
00000180: 4718 9f42 71db aa42 baee aa42 b355 9842
00000190: da17 9f42 0e03 9f42 4bdc a942 dc1e aa42
000001a0: c9be 9842 ec2e 9f42 0326 9f42 4904 ab42
000001b0: d3e9 aa42 7973 9842 fd1a 9f42 7123 9f42
000001c0: bd12 ab42 1e1a ab42 a125 9842 ccfd 9e42
000001d0: ab09 9f42 e80b aa42 49c8 aa42 e0aa 9842
000001e0: 1946 20c2 4c63 20c2 ec99 0fc2 3505 10c2
000001f0: e180 13c2 1f7f 1fc2 a93e 20c2 f528 0fc2
00000200: fb96 0fc2 aa3a 12c2 e57b 20c2 a941 20c2
00000210: 1165 0fc2 e945 0fc2 0d68 13c2 a493 1fc2
00000220: 206e 1fc2 248f 0fc2 41de 0fc2 3b4b 12c2
00000230: be08 20c2 5e07 21c2 75f8 0ec2 bca3 0fc2
00000240: e6ad 12c2 86fd 1fc2 3b9e 1fc2 81f0 0fc2
00000250: d2d4 0fc2 2cfd 12c2 fc2e 1fc2 c635 20c2
00000260: cbb4 0fc2 90cf 0ec2 24ce 11c2 ca62 1fc2
00000270: d4a2 1fc2 81ca 0fc2 9885 0fc2 1d7d 12c2
00000280: 78fc 20c2 bc7e 20c2 f25a 10c2 6220 10c2
00000290: 91c1 13c2 c0dd 1fc2 3f2d 20c2 d375 0fc2
000002a0: 8da0 0fc2 545d 12c2 0e1e 20c2 27d8 20c2
000002b0: bf8c 0fc2 9f66 0fc2 9e1f 13c2 2fef 20c2
000002c0: b8ee 1fc2 c221 10c2 74f5 0fc2 1270 13c2
000002d0: 70de 7d42 4525 7e42 682c 2f42 92a2 2f42
000002e0: 89b4 d941 b6af 7d42 f577 7e42 20a7 3042
000002f0: fac5 2e42 bd18 da41 9c57 7e42 6b91 7e42
00000300: 7340 3042 44d2 3042 e7d5 da41 f5f7 7c42
00000310: b7ab 7c42 28d8 2e42 3d26 2f42 a88f d841
00000320: c147 7e42 4c57 7e42 1d26 3042 d65e 2f42
00000330: f50d db41 1836 7e42 7d8a 7d42 6e73 2f42
00000340: 529a 2f42 58f8 d941 b5a0 7e42 14a8 7e42
00000350: 4e1c 3042 bea2 2e42 ebe3 da41 7c21 7e42
00000360: 0e8e 7d42 a593 2f42 f19a 2f42 098f da41
00000370: c8b3 7d42 5365 7e42 14bf 3042 d329 3042
00000380: 11e9 d841 b705 7e42 6e93 7e42 46c7 2f42
00000390: c728 2f42 d48b da41 6e90 7e42 3f62 7e42
000003a0: e6fc 2f42 2390 2f42 dd20 db41 9f97 7d42
000003b0: 5d4b 7e42 b0bd 3042 8fba 2f42 672f d941
000003c0: f317 04c2 19ad 03c2 b4ea 123f 9694 ee3e
000003d0: 39ac 603f 9d88 03c2 3fe5 02c2 eb19 413f
000003e0: 33f6 353f 00c8 443f 87c1 04c2 fef1 04c2
000003f0: 2069 293f 4963 053f 7c34 213f 2dfe 01c2
82.83068 82.96007 60.456333 60.515907 41.51059 82.76567 83.09483 60.64509
60.48846 41.399673 82.66093 82.59518 60.861477 60.738983 41.2014 81.95995
82.23342 60.31714 60.136803 41.3437 82.89555 83.06733 60.40878 60.419693
41.552105 82.92803 83.07427 60.599567 60.615795 41.645885 82.79571 83.06605
60.70346 60.288643 41.233643 82.8008 83.04796 60.636738 60.573708 41.44732
82.62132 82.95117 60.84572 60.57282 41.194565 82.945076 83.03092 60.485466
60.540955 41.533375 82.78379 83.03345 60.409573 60.279377 41.658146 82.58017
83.030106 60.699696 60.649475 41.145966 79.479256 79.49511 85.40039 85.48989
76.19966 79.46579 79.599464 85.45136 85.60468 76.157814 79.89512 79.499306
85.100075 84.99809 76.1119 80.22684 80.11103 84.598335 84.87129 75.817116
79.62768 79.52075 85.49479 85.554565 76.000244 79.42973 79.56715 85.54861
85.462364 76.095024 79.57005 79.59548 85.53161 85.64612 76.02213 79.45029
79.54742 85.4286 85.46626 76.16738 79.546585 79.50597 84.93026 85.06027
76.37263 79.591644 79.57424 85.50837 85.45669 76.22553 79.55271 79.56922
85.5366 85.55101 76.073494 79.4957 79.51888 85.023254 85.39118 76.33374
-40.068455 -40.09697 -35.900314 -36.005085 -36.87586 -39.87414 -40.06119 -35.789997
-35.89744 -36.55729 -40.12099 -40.06412 -35.848698 -35.81827 -36.851612 -39.89418
-39.857544 -35.889786 -35.967045 -36.573467 -40.008537 -40.257195 -35.742634 -35.909897
-36.669823 -39.99758 -39.904522 -35.984867 -35.957832 -36.74724 -39.795883 -40.052513
-35.926556 -35.702698 -36.45131 -39.846474 -39.90901 -35.947758 -35.880463 -36.62218
-40.24655 -40.123764 -36.088814 -36.031624 -36.93903 -39.966553 -40.044186 -35.865063
-35.906788 -36.59114 -40.02935 -40.211086 -35.887447 -35.850216 -36.780876 -40.233578
-39.983124 -36.032967 -35.9897 -36.859444 63.467224 63.536396 43.793365 43.90876
27.213152 63.421593 63.617146 44.163208 43.693336 27.26208 63.585556 63.64201
44.06294 44.205338 27.354445 63.242146 63.16769 43.71109 43.787342 27.070145
63.570072 63.58525 44.03722 43.842613 27.381815 63.552826 63.385242 43.862724
43.900703 27.246262 63.65694 63.66414 44.02764 43.658928 27.361288 63.5327
63.388725 43.894184 43.90131 27.319841 63.425568 63.59895 44.1866 44.040844
27.113802 63.50558 63.643974 43.944603 43.78982 27.318275 63.641045 63.595943
43.99697 43.89076 27.391047 63.398067 63.573597 44.18524 43.932186 27.148146
-33.023388 -32.91904 0.5738938 0.46597737 0.8776279 -32.88341 -32.723873 0.7543017
0.71078795 0.76867676 -33.18899 -33.23632 0.66176033 0.5210462 0.6297071 -32.49822

encoder_conv3.bias f4 [6]
00000000: f8c8 f840 be9d fb41 3bb1 d7c1 0532 5c3f
00000010: e4d4 f240 4c56 b440
7.7745323 31.452023 -26.961538 0.86013824 7.5884876 5.6355343

deconv1.weight f4 [6, 12, 5]
00000000: 10e8 c4c0 f684 3541 a4c5 193f f427 1042
00000010: fd04 9241 2ad4 21c1 78e1 0b41 2135 1bc0
00000020: 798f 0542 350c 5341 af23 81bf 92b9 48c0
00000030: ec05 09c0 014e c2c2 be73 f1c1 09af b9c0
00000040: ca7f 1841 00a5 813f 06a7 1942 f14f 9b41
00000050: 6b43 36be af45 363e 1292 2cbf 715e 15c2
00000060: 0466 f9c1 a224 36be d929 b9bf 533d 3fbf
00000070: 0b42 afc2 fa1d fcc1 cb21 04bf 935b fa3f
00000080: e92d 8fbf 1159 04c2 ae88 f6c1 1cc5 7941
00000090: 4fff d83e 1a7f 1541 4efa 6cc2 a46e 5dc1
000000a0: 0f03 fc3f 4532 ab3d c4b4 e6be 9b8f c9c2
000000b0: 278d a8c1 6f9c 1942 e32f 3b40 4cde 2642
000000c0: 058c 9941 6f85 fd41 42bb dc3e 798a 2ebe
000000d0: f11e 10bf d04a b5c2 4dd0 c9c1 178c f541
000000e0: 5d52 bdc0 2b80 f941 7525 9a41 3e74 9641
000000f0: d9fc c5c0 df76 2941 fee6 e1c0 6383 1942
00000100: 3cf2 b240 3843 1fc1 7e48 0541 1f1f 1cc1
00000110: 1388 0e42 2264 a63f 7a4d 2d3f d7a9 b4bf
00000120: 283c 3240 cb77 b3c2 ea79 b2c1 b69a b6c0
00000130: 4eb5 0c41 1a47 9cc0 2871 1342 a907 2841
00000140: b037 a73f 1d22 2f40 c104 9840 85c0 e4c1
00000150: 544a c6c1 f5bc 993f d805 5e3f 14b8 7e40
00000160: 6dc9 9ec2 1e25 c0c1 47b6 1f3f 264f ab3f
00000170: 7104 8f40 1568 d2c1 1817 b3c1 f039 7341
00000180: fae1 4cbf 370e 8141 f90e 6bc2 a13a 9ac0
00000190: 1b35 f03e 4e3a adc0 f08a bf40 8c1e c0c2
000001a0: 9220 60c1 a00f 0142 3a8b de3f c20d 2542
000001b0: 86f4 8541 6ef4 0842 926d 283e b0b7 e7bf
000001c0: 62cc c340 d724 b5c2 c6f4 7dc1 ad8e d941
000001d0: 56e5 2dc1 ddb1 0242 edf0 1541 08e7 c841
000001e0: 14c4 673d aece e23d 0a03 e83d 00a2 9e3b
000001f0: 3eec 4ebd 6828 d13d 42df 88bd befb f53d
00000200: 182e 27bc 2daa d7bd acfd 783d ce35 32bd
00000210: 0ae3 d63d 6e73 be3d fc59 753d 5675 dd3d
00000220: 00e2 92bb 62f0 d63d e6f2 b53d 4067 93bd
00000230: a04f 6c3d fd23 a4bd 4884 77bc 1202 ff3d
00000240: 5c4f 063d 0011 e1bd 5d0d 023e ec65 cfbd
00000250: 1add 0fbd 90ba a23d e99e 86bd 40a6 4f3d
00000260: 544d 67bd 6406 b0bc c81f 20bc 1130 b7bd
00000270: 606e b3bb 4e3d 833d 7256 91bd 5078 0d3c
00000280: cc04 b93d 0cac d6bc c221 1abd ae59 7fbd
00000290: dcee 413d 28b3 7b3d 8014 c83c 66b3 8e3d
000002a0: 46c9 993d deb0 49bd a759 fabd 2c44 8abd
000002b0: aa36 32bd 3c40 183d f0ae 79bc 1038 ea3d
000002c0: 5a3f 75bd 5868 dfbd 0046 4cbb 01af a2bd
000002d0: 68a5 c9c0 6352 3741 6dfc b43e c3e1 0e42
000002e0: 7c77 9041 903a 24c1 f456 0f41 bc85 27c0
000002f0: a0f3 0542 0fb0 4e41 9e6e 8ebf 0ac1 63c0
00000300: ac2c 18c0 42c4 c2c2 2b1f f2c1 9772 abc0
00000310: 847e 1f41 2e2d d33f ebf8 1942 fddc 9d41
00000320: d1a2 ebbe 982b aabe 1d05 6bbf 6694 16c2
00000330: 694d fac1 b965 f9be 4fc0 dcbf ea93 5ebf
00000340: 35cc afc2 56ff fcc1 9b20 70bf 4dd2 a23f
00000350: 423f a2bf 3608 06c2 ea79 f8c1 a190 7641
00000360: b6e3 273d 2c9f 1141 039e 6dc2 d5ed 5ec1
00000370: 3051 d03f b087 24bf 326d 4cbf fecf c9c2
00000380: ccc4 a9c1 8fc7 1842 59ff 2f40 c69c 2642
00000390: 71e5 9941 6f88 f741 9160 a3bc ccf5 f1be
000003a0: 7621 58bf bffd b5c2 ad18 c9c1 4837 f141
000003b0: 368f cdc0 048b f741 bfe2 9841 45f4 9541
000003c0: 9d37 96c1 9cef d341 de4a 24c2 6949 3642
000003d0: 45de 88c1 7884 11c2 1377 d841 cc91 48c2
000003e0: b66d 3742 ac85 d7c1 5836 e140 8959 af3f
000003f0: 33d0 c041 4392 8f3f f190 7a3e e396 82c1
-6.153328 11.344961 0.600672 36.039017 18.252436 -10.114298 8.742546 -2.4251177
33.39011 13.19048 -1.0089015 -3.1363263 -2.1409864 -97.15235 -30.181515 -5.8026166
9.5311985 1.0128479 38.41311 19.414034 -0.17799155 0.1780002 -0.67410386 -37.342228
-31.174812 -0.17787412 -1.4465896 -0.7470295 -87.62899 -31.514637 -0.51614064 1.9559196
-1.1185886 -33.08698 -30.816738 15.610622 0.42382285 9.343531 -59.24444 -13.839512
1.9688433 0.083591975 -0.45059788 -100.78048 -21.068922 38.402767 2.9247978 41.717087
19.193369 31.690153 0.43111616 -0.1704501 -0.5629721 -90.64612 -25.22671 30.693403
-5.916304 31.187582 19.26829 18.806759 -6.187115 10.591521 -7.0594473 38.378307
5.5920696 -9.953911 8.330198 -9.757598 35.632885 1.2999308 0.67696345 -1.4114331
2.7849216 -89.73397 -22.309528 -5.7063856 8.794264 -4.8836794 36.860504 10.50187
1.306387 2.736457 4.7505803 -28.594004 -24.786293 1.201079 0.86727667 3.9799852
-79.39341 -24.018124 0.6238751 1.3383529 4.469292 -26.300821 -22.386276 15.201645
-0.8003231 16.13194 -58.76462 -4.819657 0.46915516 -5.4133673 5.98571 -96.05966
-14.007952 32.26526 1.7386239 41.263435 16.744396 34.2387 0.16448048 -1.8102932
6.118699 -90.57195 -15.872259 27.194666 -10.86849 32.673695 9.37132 25.112808
0.05658348 0.11074577 0.11328705 0.0048410892 -0.050518267 0.10212785 -0.06683208 0.12010907
-0.010203861 -0.10530505 0.060788795 -0.043508343 0.10492523 0.0929936 0.05990027 0.10813396
-0.0044825077 0.10495068 0.0888422 -0.07197428 0.057693124 -0.08014677 -0.015107222 0.12451567
0.032790527 -0.109895706 0.1270041 -0.10126862 -0.03512297 0.0794574 -0.065732785 0.050695658
-0.05647023 -0.021487422 -0.009773202 -0.08944715 -0.005475804 0.06408177 -0.07096566 0.008634642
0.09034118 -0.026205085 -0.03762985 -0.062341385 0.047346935 0.061450154 0.024423838 0.06967811
0.07509093 -0.04924094 -0.12224131 -0.06751284 -0.043509163 0.037170634 -0.015239462 0.11436474
-0.05987487 -0.10908574 -0.0031169653 -0.079435356 -6.301441 11.457614 0.35348836 35.72047
18.058342 -10.2642975 8.958729 -2.6175375 33.487915 12.917983 -1.1127508 -3.5586572
-2.3777266 -97.383316 -30.265219 -5.357738 9.968388 1.6498163 38.493084 19.732904
-0.46022657 -0.33236384 -0.9180468 -37.64492 -31.287798 -0.4871042 -1.7246188 -0.8694445
-87.89884 -31.624676 -0.9379975 1.2720429 -1.2675555 -33.50802 -31.059528 15.41031
0.040988646 9.10136 -59.40431 -13.933064 1.6274776 -0.6426954 -0.7985412 -100.906235
-21.221092 38.19488 2.7499602 41.6531 19.237032 30.941618 -0.019943507 -0.4725784
-0.8442606 -90.9956 -25.137049 30.151993 -6.423732 30.942879 19.110716 18.744272
-18.777155 26.491997 -41.073112 45.57169 -17.10853 -36.379364 27.058142 -50.14238
45.85714 -26.94027 7.0378838 1.3699199 24.10166 1.121651 0.24469353 -16.323675

deconv1.bias f4 [12]
00000000: d110 b140 01b4 bf40 d81d c240 55d6 8840
00000010: a5bd 8140 778f 8340 8bb2 8940 605a 8040
00000020: 9790 9b40 f48a b840 4dc7 8040 3942 aa40
5.533303 5.990723 6.066143 4.2761636 4.0544 4.111263 4.303045 4.011032
4.8614 5.766962 4.0243287 5.320584

deconv2.weight f4 [12, 24, 5]
00000000: 5b7c adbd 4082 013f fe2a 0d40 8212 93c0
00000010: 0cbf 92bf 1bf7 923f 65bc 653f 84a4 0940
00000020: 1e5a c8bf 5f7f c240 aa37 4e40 5144 f63f
00000030: ed27 db3f 5f06 2b40 fcf3 b940 6b0f 043e
00000040: 38f5 1abf c103 f1bd 9eb1 9ac0 308c 9ec0
00000050: a2e1 6840 18d1 af3f 48d8 863f 0f12 3040
00000060: cd9b c740 9ca5 ae3f ab05 d1bf a435 cc3e
00000070: 640e a8be 7c26 79c0 8d72 51be 2d65 103f
00000080: c349 bf3c 6c71 bec0 503e a6be d5b9 e63f
00000090: ab0f c33f f7ef c7be f886 6040 9ea8 8940
000000a0: 2c5c 5e3e ec5a a13f b892 4740 86a6 bec0
000000b0: 6f99 6dc0 a2e6 9abd 0f62 2a3d 49cc 0abf
000000c0: 30c1 23c0 43ba 87c0 4b4a fd3e 4b40 fabe
000000d0: d3fa 87bf d0df 4dbf 8815 5dc0 1375 2ebe
000000e0: 5e9c 2d3f d649 08bf 5734 9640 a230 2ebf
000000f0: 38f9 e6bd 808f 4abd bf08 b93d 116e cdbf
00000100: 2d22 d3be 5465 3140 df28 d13f c391 823f
00000110: 8359 3040 869c be40 6105 9c3f b2ae ba3f
00000120: 420e 6a3d d88e 24bf 0928 b4c0 a589 c83e
00000130: 4538 8bbe f487 4abe 6df7 05c0 9f5e 82c0
00000140: edab 6c40 f00a 9c3f b465 5c3f 2816 4140
00000150: 8dfb cc40 7e9c 7040 1051 bb3f 828c 2e3f
00000160: e8aa 4b40 3471 2240 d003 3d3d 8f45 ad3e
00000170: 8414 93bd d685 45c0 4cd2 79c0 14e9 aebf
00000180: 8da0 2f40 5661 1cc0 b17b 8840 3488 9ac0
00000190: c1db 903e 86fa fdbe 4c1f 4340 6608 15c0
000001a0: 6104 cbc0 fcdd a53e 2c8c 8b3e 210c 6e3d
000001b0: 5cf8 03c0 8bb3 74c0 4046 ac3c 1e03 b6bd
000001c0: c70d 32bd dd8a e3bc 18a9 cb3c deb8 bc3d
000001d0: fd74 953e bfc0 303f 8146 d1bf 9e0d 7ec0
000001e0: 387e 633f 2cf2 ef3f 62fe 3640 a0d4 cac0
000001f0: 9938 03be d8ea a83f 90e7 c83f a4f6 2240
00000200: 9511 15c0 0f58 b240 76cb 1040 ef05 053f
00000210: 4f16 e73f 8fdf 7540 6ba0 a140 68d0 6f3f
00000220: c061 bc3f 8787 c9bd da87 d5c0 875c 7bc0
00000230: 72df 1e40 326a a93b 2a2d 963f 70b2 7740
00000240: 1036 ac40 6b2a f63f 428b cbbe 9d5c 0d3f
00000250: 7041 b8bf 177a 4ac0 0f45 f6bd 008e fa3f
00000260: def1 ed3d 0647 0ac1 ee00 97be 8f9b 623f
00000270: 7e93 323d f65d 09bf ef39 ae40 0733 7d40
00000280: 1b75 433f 9fe4 2140 0912 6640 9ea0 1fc1
00000290: 00ce 71c0 f42a 443f f687 af3f f52a b8be
000002a0: b0ad 6ac0 6eef 4ec0 39f2 c63f 91ec 613f
000002b0: f552 8dbf 4035 02c0 b8e3 2cc0 8e2d e1bd
000002c0: 0af9 24bf e5b6 1cbf 06e3 ba40 c485 28bf
000002d0: e6eb 01be 015d 963f a501 803d 1577 49c0
000002e0: d97f d8be c312 cb3f 29ed c83e 8dc7 5c3f
000002f0: 8331 7440 314c 9f40 67e2 df3f e43d e63f
00000300: 6d64 80bf 0ac8 b0bf 01ba 96c0 1d9a a43f
00000310: 38b9 653f e95e c7be ea96 52c0 a166 48c0
00000320: d15f 2040 fa9a ea3d 1e5e 363f 3db4 8640
00000330: 8f6f b640 4db9 1f40 0766 593e 791e c6bd
00000340: 1d7f 8c40 91e2 6b3f 15f6 793f 587b c03f
00000350: 6bbe d13c d6e5 8bc0 5e27 3fc0 40b0 a1bf
00000360: 2ebc 7b3f ee5e 44c0 706b ce40 0275 97c0
00000370: 549b 0ebe 9e50 f8be 49ba 2a40 5c0b 64c0
00000380: 3c56 bec0 93fd 643f c521 a63f 9412 223e
00000390: 6231 4ec0 584f 32c0 8d04 76bd dae6 e6bc
000003a0: 00e4 6a3a f337 dabc c675 66bd 9e50 733f
000003b0: 4dfc b63f 0a5c 893f 7cb8 4cc0 2f5e 3dc0
000003c0: 36af f140 1670 ee40 96aa 88c0 312c 5d40
000003d0: ff06 0541 ed39 2f40 0ff9 fb40 e8e2 3b41
000003e0: 6ee9 1f40 4fc8 bcc1 1625 cbc0 ca56 d3c0
000003f0: 4553 5940 9426 9b3f f377 c4c1 7ca5 3241
-0.084709845 0.5058937 2.205749 -4.5960093 -1.1464553 1.1481661 0.8974059 2.1506662
-1.5652502 6.078048 3.2221475 1.9239599 1.7121559 2.6722639 5.8110332 0.12896506
-0.60530424 -0.11768294 -4.834182 -4.9546127 3.6387715 1.3735685 1.0534754 2.7511022
6.2377687 1.364429 -1.6329855 0.39884675 -0.3282348 -3.892974 -0.20453854 0.5640438
0.023350602 -5.9513454 -0.32469416 1.8025461 1.5239156 -0.39050266 3.5082378 4.301833
0.21714848 1.2605872 3.11833 -5.9578276 -3.7124898 -0.07563521 0.041597422 -0.54217964
-2.5586662 -4.241487 0.49470744 -0.48877177 -1.062342 -0.80419636 -3.4544392 -0.17036848
0.6781672 -0.53237665 4.693889 -0.6804296 -0.112780035 -0.04945326 0.09034871 -1.6049215
-0.41237012 2.7718096 1.6340598 1.0200733 2.7554634 5.956607 1.2189142 1.4584563
0.057142504 -0.6428046 -5.629887 0.39167514 -0.27191368 -0.19778425 -2.0932267 -4.0740504
3.6979935 1.2190838 0.86092687 3.0169773 6.405707 3.7595515 1.4634113 0.6818315
3.1823063 2.5381594 0.046146214 0.33842131 -0.071816474 -3.0862937 -3.9034605 -1.366488
2.7441742 -2.443441 4.265099 -4.8291264 0.2829266 -0.49605197 3.0487852 -2.3286376
-6.3442845 0.32395923 0.2725538 0.058117036 -2.0620337 -3.8234584 0.021029592 -0.08887313
-0.04347017 -0.027776176 0.024860904 0.09214948 0.29190817 0.6904411 -1.6349641 -3.9695811
0.8886447 1.874578 2.8592763 -6.338455 -0.12814559 1.3196669 1.5695667 2.5463037
-2.3291981 5.5732493 2.2624183 0.5196218 1.8053683 3.84177 5.0508323 0.9367738
1.4717331 -0.09840303 -6.6728334 -3.9275224 2.482388 0.00517013 1.1732533 3.870266
5.3815994 1.9231695 -0.39754683 0.5521944 -1.439497 -3.1637018 -0.12024891 1.9574585
0.11618398 -8.64234 -0.29492897 0.88518614 0.04359769 -0.53659 5.444572 3.9562395
0.76350564 2.529579 3.5948508 -9.976713 -3.7781982 0.7662804 1.3713367 -0.35970274
-3.666851 -3.2333636 1.554267 0.88251597 -1.1040941 -2.0345001 -2.7013988 -0.10995017
-0.64442503 -0.61216575 5.840213 -0.6582911 -0.12687644 1.1747133 0.06250314 -3.1478932
-0.4228504 1.5865101 0.3924344 0.8624199 3.815522 4.9780507 1.7490968 1.7987638
-1.0030648 -1.3811047 -4.7102056 1.2859532 0.89735746 -0.38939598 -3.290461 -3.131264
2.5058482 0.11455341 0.7123736 4.2095017 5.701118 2.4956849 0.21230327 -0.09673781
4.3905168 0.9214259 0.97641116 1.5037642 0.025603494 -4.371806 -2.9867778 -1.2631912
0.98334014 -3.068294 6.450615 -4.733033 -0.1392644 -0.48499006 2.66762 -3.5631933
-5.9480267 0.89449424 1.2979056 0.158274 -3.221764 -2.7860928 -0.060062934 -0.02818625
0.0008960366 -0.026638007 -0.05626466 0.9504489 1.4295746 1.0731213 -3.19876 -2.9588735
7.552638 7.4511824 -4.2708235 3.4558222 8.314208 2.7379105 7.8741527 11.742897
2.4986224 -23.597807 -6.348277 -6.6043444 3.3957074 1.2121148 -24.558569 11.165401

deconv2.bias f4 [24]
00000000: 0193 0c3f a84e 7a40 b622 3040 e206 d1be
00000010: b59f 3a40 c682 ad3f 3cea 183f cdca 3940
00000020: 429a 973f 808a b3bb 6222 9f3e dff5 8140
00000030: 6614 e33e 898f 4940 5064 4e3f aeb4 313d
00000040: e6d8 3540 705a 1f40 d0c6 95bb 5419 2a40
00000050: 5999 ad3f 9ce7 663e c241 1ebe 3fea 963e
0.5491181 3.9110508 2.7521186 -0.40825564 2.9159977 1.3555534 0.59732413 2.903003
1.1843951 -0.005479157 0.3108092 4.0612636 0.443515 3.1493857 0.80621815 0.0433852
2.8413634 2.4898949 -0.0045708194 2.657796 1.3562423 0.2254929 -0.15454772 0.2947559

deconv3.weight f4 [24, 1, 5]
00000000: 3a9f 5b40 77e2 4840 3d9f 2440 a3fa 863e
00000010: 375e a83e 7b15 cd3f 429d c53f 2268 80bf
00000020: f300 25bf 1084 40c0 5afb ddc0 e625 b6c0
00000030: a670 b3c0 60bf 9cc0 dc87 1bc1 138b 0341
00000040: 0c8f fb40 108a 2941 d049 d240 4efa 2741
00000050: 6f54 dfc0 f2b9 28c0 4926 1fc1 7fdd 9cc0
00000060: 5be1 88c0 2f9b 873f 70a2 4040 dab0 2140
00000070: 9a1e 6340 5f5b 2840 bb8a bf40 4b2d 4f40
00000080: 80e5 6040 b323 343f 5b0b 07c0 2978 85c0
00000090: 3ad6 29c0 7eee c6c0 0e54 9ac0 6531 8fbe
000000a0: bfa7 ac3f 61e7 313f f3c2 e440 7fc8 e33f
000000b0: 80be 18bf 4dd3 6040 b510 9e40 4dd6 ed40
000000c0: 5e99 c43f ba57 a940 9650 cd3f 3cdb 5c3f
000000d0: 13f7 1e3f 90a0 8e3f 0765 2040 15dc 0ec1
000000e0: 68e3 ddc0 e498 d4c0 cd8e 0ebf d3e6 8dc0
000000f0: 42df 8c40 c578 3740 374e cc3f 3ad9 3b3f
00000100: 0d99 9d3f 2711 c3c0 ffc0 66c0 236f f9c0
00000110: 4b98 88c0 8973 07c1 fc0b 2abf 0888 00bf
00000120: 6887 9a40 224d 5e3f f70f 143f f134 8940
00000130: 2edb 973f 36d7 3340 b8d5 ca3f 0df9 e33f
00000140: 146d 0cc1 4303 c0c0 d0f6 03c1 3e72 3dc0
00000150: b962 12c1 2749 0fc1 33ab 81c0 1323 71bf
00000160: 5d7e a5bd 856d c7c0 4abc 6e40 aabb 9040
00000170: 6fd5 e740 9f6c aa3f e4ec 5140 176e b6c0
00000180: 2971 39c0 c80d 6fc0 461c 43bf 6026 673f
00000190: 803c 913c d788 3cbf aec4 0c41 41ee 703f
000001a0: 9842 42be c995 f03f ca6e 4a3f 8529 4640
000001b0: 24bf c43f a884 fc3f 0482 6e3e af80 973e
000001c0: 50e1 c63d 91ac e8bc b9e0 d73e f7a4 a33f
000001d0: 15da 2a40 b475 8340 314b 943d 8952 8b40
3.4315934 3.1388223 2.5722191 0.26363096 0.3288438 1.602218 1.5438616 -1.0031779
-0.64454573 -3.0080605 -6.9369326 -5.6921263 -5.607501 -4.898361 -9.720669 8.221454
7.861212 10.596207 6.5715103 10.49861 -6.979057 -2.6363492 -9.946847 -4.902038
-4.277509 1.0594233 3.0099144 2.5264192 3.5487428 2.6305768 5.985685 3.2371395
3.5140076 0.7036697 -2.110068 -4.170918 -2.6537004 -6.216613 -4.8227606 -0.27967373
1.3488692 0.6949368 7.1487975 1.7795562 -0.5966568 3.5128968 4.9395394 7.43241
1.5359304 5.291959 1.6040218 0.86272025 0.62095755 1.114275 2.5061662 -8.928731
-6.9340096 -6.6436634 -0.55686647 -4.434427 4.402253 2.8667462 1.5961369 0.73378336
1.2312332 -6.095844 -3.6055295 -7.7948165 -4.2685905 -8.465707 -0.66424537 -0.5020757
4.829029 0.86836445 0.5783686 4.2877126 1.1863763 2.8100104 1.5846472 1.7810379
-8.77663 -6.000398 -8.247757 -2.9600978 -9.149102 -8.955359 -4.0521483 -0.94194144
-0.080807425 -6.232119 3.7302423 4.522908 7.244804 1.3314399 3.2800837 -5.7009387
-2.8975317 -3.7352161 -0.76215017 0.9029293 0.017729044 -0.736463 8.7980175 0.94113547
-0.18970716 1.8795711 0.790753 3.0962842 1.5370831 1.9727983 0.23291785 0.29590365
0.09710944 -0.028402599 0.42163637 1.2784718 2.6695607 4.108118 0.07240904 4.353825
