models/AutoEncoder_6dB_fan_best.onnx (onnx, 33616 bytes, 11 tensors)

const_fold_opt__423 f4 [1, 8, 1]
0	0xbe972d1e	-0.2952661
1	0xbf159384	-0.58428216
2	0xbe18b2ed	-0.14912005
3	0xbd01ddcc	-0.031705663
4	0xbf9a2ef7	-1.2045583
5	0xbe686be0	-0.22697401
6	0x3e94a0dc	0.29028976
7	0x3f858857	1.0432233

const_fold_opt__420 f4 [1, 16, 1]
0	0x3f155e35	0.58346874
1	0x3e3cb8a9	0.18429817
2	0x3f88f4e6	1.0699737
3	0x3f2b8f8e	0.6701592
4	0x00000000	0.0
5	0xbcf8aeb8	-0.03035675
6	0xbd2d75ea	-0.04234878
7	0x3e62e90d	0.22159214
8	0xbe957c50	-0.29196405
9	0x3d2645c8	0.040593892
10	0xbcd96659	-0.026538061
11	0xbe63b006	-0.22235116
12	0x3f904432	1.1270812
13	0xbced6969	-0.028980928
14	0xbe396af5	-0.18107207
15	0x3e6d3841	0.2316599

const_fold_opt__419 f4 [1, 32, 1]
0	0x403f87b0	2.9926567
1	0xbdee1386	-0.116248176
2	0x3fa4f263	1.288647
3	0xbffaac05	-1.9583746
4	0xbfb8a0dd	-1.4424092
5	0xc0620dcd	-3.5320923
6	0xbee9a8c7	-0.4563658
7	0x3c9b372f	0.018947212
8	0x3f9d363f	1.228218
9	0x3f36b0ef	0.7136373
10	0xbedc016a	-0.4296983
11	0x3e1bc959	0.15213527
12	0x404fd1b8	3.2471752
13	0x409d59ab	4.917196
14	0x3f47cd2a	0.7804743
15	0xbf8a9f49	-1.082986
16	0x00000000	0.0
17	0x00000000	0.0
18	0xbd403e13	-0.0469342
19	0x3cbcf1c5	0.023064503
20	0x3f9de0ba	1.2334206
21	0x00000000	0.0
22	0x3f18e12c	0.59718585
23	0xc020a575	-2.5100987
24	0xbe94a1dc	-0.2902974
25	0x40076b2a	2.1159158
26	0xbf7c98ea	-0.9867083
27	0x00000000	0.0
28	0xc014a7a9	-2.3227332
29	0x3f974131	1.181677
30	0xbd543f6b	-0.051818293
31	0xbe03329d	-0.12812276

AutoEncoder_1/conv2d_transpose_9_1/conv_transpose/ReadVariableOp:0 f4 [8, 16, 5, 1]
0	0x3dcd07c3	0.10011246
1	0x3eeb4114	0.45948088
2	0xbde01747	-0.1094194
3	0xbd38ef2c	-0.045149967
4	0xbdab1e84	-0.0835543
5	0x3bbde3f4	0.0057949964
6	0x3eb0e58e	0.34550136
7	0x3eec7535	0.46183172
8	0x3d7dd485	0.061970253
9	0x3c162175	0.00916325
10	0xbe85d675	-0.2614018
11	0x3c11dd3f	0.008902847
12	0x3f2e6071	0.6811591
13	0x3db4c208	0.08826071
14	0x39d2cef7	0.00040208522
15	0xbea60e59	-0.3243282
16	0x3e12c96c	0.14334649
17	0xbe1a764e	-0.15084192
18	0xbdb7d5cb	-0.08976325
19	0xbce558d1	-0.027996453
20	0xbe274627	-0.16335355
21	0x3e9bddc7	0.3044264
22	0xbdf7e732	-0.12104644
23	0x3d4e5920	0.050377965
24	0xbd762c0b	-0.060100596
25	0xbe346ebd	-0.17620368
26	0x3e82617f	0.2546501
27	0x3e6ff48f	0.23433135
28	0x3e178dfa	0.14800254
29	0xbc4b936d	-0.012425286
30	0xbe57b05f	-0.21063374
31	0xbd822dfe	-0.063564286
32	0x3d4409bd	0.04786085
33	0xbc0a6bf0	-0.008448586
34	0xbe4e764b	-0.20162313
35	0x3de5930e	0.11209689
36	0xbe120ee4	-0.14263493
37	0x3e94ecca	0.29086906
38	0xbce3dfa3	-0.0278166
39	0x3bef2251	0.007297792
40	0x3f09ab8c	0.53777385
41	0x3ec29059	0.38000754
42	0x3ece5f6e	0.40307182
43	0x3c80f3c8	0.015741244
44	0x3d016260	0.03158796
45	0xbd190ac8	-0.037363797
46	0xbca59e5c	-0.020217113
47	0xbd9d7e03	-0.076900505
48	0xbcc7ae85	-0.02437521
49	0x3b3d716e	0.002890672
50	0x3e47d109	0.19513334
51	0xbd52b6c5	-0.051443834
52	0x3f0b56dd	0.5442942
53	0xbe78d2f9	-0.2429923
54	0x3d5270ed	0.051377226
55	0xbf532013	-0.82470816
56	0xbef86682	-0.48515707
57	0x3f35b046	0.70972097
58	0x3b5be0c0	0.003355071
59	0x3db9bfe0	0.090698004
60	0xbf29e976	-0.6637186
61	0xbde1e4b7	-0.11029952
62	0x3ebc2311	0.36745504
63	0x3e360e41	0.17778875
64	0xbd8e75cd	-0.069560625
65	0x3e87078f	0.26372954
66	0xbe1441a7	-0.1447817
67	0x3e301226	0.17194423
68	0xbd216603	-0.039403927
69	0x3cd4eb6f	0.02599117
70	0xbee3975b	-0.44451413
71	0x3d889a76	0.06670086
72	0x3f2b3c63	0.6688902
73	0xbe849d01	-0.25901034
74	0xbd418921	-0.047249917
75	0xbe63b9c7	-0.22238837
76	0xbd021214	-0.031755522
77	0x3e896de9	0.26841667
78	0xbd20770f	-0.039176043
79	0x3dc17a8e	0.094472036
80	0xbe5c2e3d	-0.21502014
81	0xbe8265ab	-0.25468192
82	0xbdcb0875	-0.099137224
83	0xbd8bef8e	-0.06832801
84	0x3d1078de	0.035271518
85	0xbc4ad938	-0.012380891
86	0xbe14e464	-0.14540249
87	0x3e975eae	0.29564422
88	0x3dc48550	0.0959574
89	0x3d5c0f09	0.053725276
90	0x3ea65925	0.32489887
91	0xbc942df5	-0.01808832
92	0x3f1efe57	0.6210684
93	0xbd9beb76	-0.0761327
94	0xbc3fa8b7	-0.01169794
95	0xbc89d812	-0.016826663
96	0x3e1b33c5	0.15156467
97	0x3d887829	0.06663544
98	0x3c7c4e5b	0.015399541
99	0xbdba9652	-0.091107026
100	0xbe4179fa	-0.18894187
101	0xbe4978ee	-0.19675037
102	0x3d697f0c	0.057005927
103	0xbebfdc7b	-0.374729
104	0xbe1ae9e3	-0.15128283
105	0x3e3541ae	0.17700836
106	0xbeb62cb6	-0.35580987
107	0x3e51aa38	0.2047509
108	0x3c9f5978	0.019451842
109	0x3bfe504a	0.007761036
110	0xbc42ce20	-0.011889964
111	0xbdc0d831	-0.09416235
112	0x3d00b6ab	0.031424206
113	0x3d946912	0.07246603
114	0x3e26ec46	0.16301069
115	0xbce59339	-0.028024303
116	0x3e553b99	0.20823516
117	0x3ef98ae2	0.48738772
118	0x3cab2ac3	0.020894414
119	0xbafc63f6	-0.0019255865
120	0xbe805b2a	-0.25069553
121	0x3c3ed827	0.011648214
122	0x3c6fb55a	0.01463064
123	0xbbf3def9	-0.007442352
124	0xbc15c1df	-0.009140461
125	0x3cd18c50	0.025579602
126	0xbee4144f	-0.44546744
127	0xbea0219a	-0.31275636
128	0x3e8421ac	0.2580694
129	0xbb66d1fd	-0.0035220378
130	0xbf26e5a8	-0.6519418
131	0x3dd01b28	0.1016143
132	0x3e2d43c3	0.1692038
133	0x3e941d6e	0.28928703
134	0x3dc10d1a	0.09426327
135	0xbf53f52b	-0.8279597
136	0x3f10f2b9	0.56620365
137	0xbdbae418	-0.09125537
138	0x3d73b996	0.05950316
139	0x3c16c795	0.0092028575
140	0x3f0134c1	0.5047112
141	0xbd061858	-0.03273806
142	0x3d8df867	0.069321446
143	0x3e83a367	0.25710604
144	0xbcce397c	-0.025173895
145	0x3d761f92	0.0600887
146	0xbcba0bde	-0.022710737
147	0x3fa58c94	1.2933526
148	0xbe19d838	-0.15023887
149	0xbd857263	-0.06515958
150	0x3e8d2938	0.2757051
151	0x3dd5920a	0.10428245
152	0x3ed93379	0.42422083
153	0xbe8ff1e7	-0.28114244
154	0xbdb618be	-0.08891438
155	0xbd462d9f	-0.04838335
156	0x3ebec652	0.3726068
157	0x3efad860	0.48993206
158	0xbe24bb19	-0.16086997
159	0xbccb8ab1	-0.024846407
160	0x3e0aa982	0.13541225
161	0xbea3e491	-0.3201032
162	0xbe8607bd	-0.2617778
163	0x3daadb70	0.08342636
164	0xbe85ec71	-0.26156953
165	0xbefdf72a	-0.49602634
166	0x3efc51d6	0.49281186
167	0xbca55dbe	-0.020186301
168	0xbdee1ca3	-0.11626556
169	0xbd9cc5d9	-0.07654924
170	0x3e7843f0	0.24244666
171	0xbe46328a	-0.19355217
172	0xbe8c9c52	-0.27463013
173	0x3d998f88	0.074980795
174	0xbd17851c	-0.036992177
175	0xbe2a3450	-0.16621518
176	0xbe04f3c5	-0.12983616
177	0xbc3a80d4	-0.011383254
178	0xbd0cb599	-0.034352873
179	0x3beb077c	0.007172523
180	0xbe4d5848	-0.20053208
181	0x3eae9ee4	0.341056
182	0x3d16af45	0.036788244
183	0x3d23eef4	0.040022805
184	0xbe2a93d2	-0.16657951
185	0xbe98ef2c	-0.29869974
186	0x3e5b1ed7	0.21398483
187	0x3f2809da	0.6564003
188	0xbe0c174b	-0.1368076
189	0x3d396ed6	0.045271717
190	0xbe2adfdd	-0.1668696
191	0x3e5030dd	0.2033114
192	0x3d24c503	0.040226948
193	0x3da05277	0.07828229
194	0x3c09a443	0.008400979
195	0xbf32a28b	-0.6977927
196	0x3e69cc77	0.22831903
197	0xbd1818fe	-0.03713321
198	0x3c1b07b6	0.009462288
199	0xbd0dd4c0	-0.034626722
200	0xbe7179a7	-0.23581563
201	0xbe4cd035	-0.200013
202	0xbc537ef8	-0.01290869
203	0xbe77af00	-0.24187851
204	0xbbc87f9e	-0.006118729
205	0xbe36ed80	-0.17864037
206	0x3e3c9e51	0.18419768
207	0xbe804efd	-0.25060263
208	0x3e82a8ed	0.25519505
209	0xbcd843e7	-0.026399566
210	0xbf0423bd	-0.5161703
211	0xbd07eceb	-0.033184927
212	0x3f8aa9a3	1.0833019
213	0x3e0f05dc	0.13967079
214	0x3d842891	0.0645305
215	0xbf56a362	-0.8384305
216	0x3f03e073	0.5151436
217	0xbe5eb860	-0.21750021
218	0xbdbe7264	-0.09299162
219	0xbb2886fe	-0.0025715227
220	0x3f274f8e	0.65355766
221	0xbd7d19ec	-0.0617923
222	0x3e5bc63f	0.21462344
223	0x3e45ee41	0.19329168
224	0x3d246c21	0.040142182
225	0xbd1322c6	-0.035921834
226	0x3e4a9297	0.19782482
227	0x3f1515ac	0.58236194
228	0xbcc98484	-0.024599321
229	0xbd70ed18	-0.05881986
230	0x3e8ae7ed	0.2713007
231	0x3c625eb8	0.013816528
232	0x3cae315f	0.021263776
233	0xbdf5c925	-0.12001256
234	0x3d7e174d	0.06203394
235	0x3e7b42c0	0.24537182
236	0xbe58e4bf	-0.2118101
237	0x3f3fd564	0.74934983
238	0xbe98a3f2	-0.2981258
239	0x3c71ecc8	0.014765926
240	0x3d2820e8	0.041047007
241	0xbe403948	-0.18771851
242	0x3db2364c	0.087017626
243	0xbd0b02ac	-0.033938095
244	0xbd7faf68	-0.06242314
245	0xbe0af631	-0.13570477
246	0xbe05505c	-0.13018936
247	0xbe44ccc7	-0.19218741
248	0x3e038fff	0.12847899
249	0x3db7a26b	0.08966526
250	0x3dd8dfe4	0.10589579
251	0xbca426f8	-0.020038113
252	0xbe39878b	-0.18118112
253	0xbe09f5b4	-0.13472635
254	0x3e1d5c01	0.15367128
255	0x3e194844	0.14968973

AutoEncoder_1/conv2d_transpose_9_1/Squeeze:0 f4 [16]
0	0x41274757	10.454917
1	0xbf6e0a2d	-0.92984277
2	0xbf22d209	-0.6360174
3	0x3fc5c0b8	1.5449438
4	0xbe4be86a	-0.19912878
5	0xbef8796e	-0.48530143
6	0x3ff3e074	1.9052873
7	0xc01aaf05	-2.4169323
8	0x3f24242a	0.6411768
9	0x405a1439	3.4074843
10	0x3e274bc0	0.1633749
11	0x4030846a	2.758082
12	0xc01ffa97	-2.4996698
13	0x3e9a02b3	0.30080184
14	0xbfe93aa1	-1.8221017
15	0x3f172776	0.5904459

AutoEncoder_1/conv2d_transpose_11_1/conv_transpose/ReadVariableOp:0 f4 [32, 1, 5, 1]
0	0x3dd0ad52	0.10189308
1	0xbeb85ee6	-0.36009902
2	0x3e4e1b0c	0.20127505
3	0xbe850e5c	-0.25987518
4	0xbe2042c0	-0.15650463
5	0x3e3f4670	0.18679214
6	0x3cf2e6e1	0.029651107
7	0xbe5f07a8	-0.21780264
8	0xbf218fba	-0.63109934
9	0xbeccf57a	-0.40031034
10	0x3e5590e1	0.20856048
11	0xbd04c610	-0.03241545
12	0xbe1ae210	-0.15125299
13	0x3cd58c16	0.026067775
14	0x3e2631bd	0.16229911
15	0x3f3d1c3a	0.73871195
16	0x3e6a8cdc	0.22905296
17	0xbe25e340	-0.1619997
18	0xbef5c25f	-0.47999856
19	0xbe8d193e	-0.2755832
20	0xbd72bc58	-0.05926165
21	0xbe358169	-0.17725147
22	0xbe2ec62c	-0.17067784
23	0x3e0c2cfb	0.13689034
24	0x3e8048a1	0.2505541
25	0x3ebe2c2f	0.37143084
26	0x3ed3e5e9	0.41386345
27	0x3ec35909	0.38153866
28	0x3ec3ba6a	0.3822816
29	0x3ea7860a	0.3271945
30	0xbef6dad3	-0.48213825
31	0xbf307919	-0.6893478
32	0xbf0cfee3	-0.55076426
33	0xbe9a9727	-0.30193445
34	0x3e986d1e	0.2977075
35	0xbd1059f9	-0.035242055
36	0xbdc1b27a	-0.0945787
37	0x3f156486	0.5835651
38	0x3ed1829a	0.40919954
39	0xbe0f27e4	-0.13980061
40	0x3ef99f55	0.48754373
41	0x3f621460	0.8831234
42	0x3ed075b5	0.40714803
43	0x3e8d839f	0.2763948
44	0x3e946694	0.2898451
45	0xbea0179f	-0.3126802
46	0xbee88b25	-0.4541866
47	0xbe91f98f	-0.2851071
48	0x3f61eeeb	0.88255185
49	0x3ef8a26a	0.48561412
50	0x3dac3b61	0.08409763
51	0x3e712d52	0.23552445
52	0xbe7610c1	-0.24029829
53	0xbe7b583e	-0.2454538
54	0xbcebffb8	-0.02880846
55	0x3ed23ab2	0.41060406
56	0x3eab8c3b	0.33505425
57	0xbe2c48b8	-0.16824615
58	0xbec71344	-0.38881886
59	0xbeab8ae4	-0.33504403
60	0xbe220b5d	-0.15824647
61	0x3e626b5c	0.22111267
62	0xbe21da5c	-0.15805954
63	0x3db207cf	0.086928956
64	0x3d165ef0	0.036711633
65	0xbd16fc2d	-0.036861587
66	0xbe2d5dca	-0.16930309
67	0x3e2c9e29	0.16857208
68	0x3dc6ddd1	0.09710277
69	0xbea47fbb	-0.321287
70	0x3ddffdba	0.109370664
71	0xbdf128c6	-0.11775355
72	0xbeb2e06d	-0.34936848
73	0xbed0afa8	-0.40759015
74	0xbcf10882	-0.029423002
75	0xbdb9bac8	-0.09068829
76	0xbea917d5	-0.33025995
77	0x3e7e8f9b	0.24859469
78	0x3ebdcada	0.37068826
79	0xbbf2ba48	-0.0074074604
80	0xbd8300cc	-0.06396636
81	0xbebda10e	-0.37036937
82	0xbec32003	-0.3811036
83	0x3e1b6311	0.1517451
84	0xbd64306a	-0.055710234
85	0xbd05d93c	-0.032677874
86	0x3d3e8de5	0.04652204
87	0xbd0c4982	-0.03424979
88	0xbe880460	-0.26565838
89	0x3e4ab060	0.19793844
90	0xbef75d86	-0.4831354
91	0xbe39702a	-0.18109193
92	0xbe4dd38f	-0.20100234
93	0xbe142210	-0.14466119
94	0x3e4e7e5b	0.20165388
95	0x3e4bb4c5	0.19893177
96	0xbdaca490	-0.08429825
97	0xbee3b715	-0.44475618
98	0xbe3a836f	-0.182142
99	0xbe2970d0	-0.16546941
100	0xbe04ff1f	-0.12987946
101	0x3ee53d19	0.44773176
102	0xbed1f20a	-0.41004974
103	0x3d90b8d5	0.07066504
104	0x3e1e52bf	0.15461253
105	0xbe4029b5	-0.1876591
106	0x3e81e27f	0.25368115
107	0xbdc7a633	-0.09748497
108	0xbeb91caa	-0.3615468
109	0xbd67e7d6	-0.05661758
110	0xbea9cb4a	-0.3316291
111	0xbdbd7139	-0.09250111
112	0x3f1f8768	0.6231599
113	0x3d9c8ae8	0.07643682
114	0xbeaa5244	-0.3326589
115	0xbdfe46e9	-0.12415869
116	0x3ec0c2df	0.37648675
117	0x3eab0d5e	0.33408636
118	0xbe179b9a	-0.14805451
119	0xbe06eb2d	-0.1317565
120	0x3ca10689	0.019656437
121	0xbee85c00	-0.4538269
122	0xbd94a2fb	-0.072576486
123	0xbd0c9805	-0.034324665
124	0x3c5717a1	0.013128192
125	0x3eee6a8b	0.4656566
126	0x3f4bd39b	0.7961976
127	0x3e4b4be6	0.19853172
128	0xbea418c3	-0.32050142
129	0xbed463c5	-0.41482368
130	0xbeb2314b	-0.34803233
131	0xbf148151	-0.5800982
132	0xbe2c1212	-0.16803768
133	0xbe838075	-0.25683942
134	0xbdeaae5e	-0.11459039
135	0xbe5a61dc	-0.21326393
136	0xbe5b7fcb	-0.21435468
137	0x3ec7b990	0.3900876
138	0xbe5be9f3	-0.21475963
139	0xbdf0290d	-0.1172658
140	0x3d722e1f	0.059126016
141	0x3cecd475	0.028909901
142	0xbec6404a	-0.38720924
143	0x3cf24902	0.029575828
144	0xbe47b42d	-0.19502325
145	0x3e2f501a	0.171204
146	0xbd50ab8a	-0.050944842
147	0xbecb2278	-0.39674735
148	0x3e1ec472	0.15504625
149	0xbd0cc872	-0.034370847
150	0xbe350dbf	-0.17681025
151	0x3e585feb	0.2113034
152	0x3ec23bf0	0.37936354
153	0xbd265c95	-0.040615637
154	0xbec6be95	-0.38817278
155	0xbe46f9f4	-0.19431287
156	0xbd4f5ecc	-0.050627515
157	0x3eb0f670	0.34563017
158	0x3ef7694f	0.48322532
159	0x3e162f65	0.14666517

AutoEncoder_1/conv2d_transpose_10_1/conv_transpose/ReadVariableOp:0 f4 [16, 32, 5, 1]
0	0xbeb669bf	-0.35627553
1	0xbe8eadb5	-0.27866903
2	0xbc2273dd	-0.009915319
3	0x3ce40c38	0.027837858
4	0x3e5411f7	0.20709978
5	0x3ca1b17b	0.01973795
6	0xbc9b2ca8	-0.018942192
7	0xbe2eaea7	-0.17058812
8	0x3f31070d	0.69151384
9	0x3d3efcc7	0.046627786
10	0x3f039289	0.5139547
11	0x3c29a180	0.010353446
12	0x3eedb8c6	0.46430033
13	0x3f52591c	0.8216722
14	0xbf187d29	-0.5956598
15	0x3ea049a3	0.3130618
16	0x3d9169ef	0.07100283
17	0x3ed50878	0.41608024
18	0xbf8d2f44	-1.1030049
19	0xbad0b61e	-0.0015923416
20	0xbdd9ab3a	-0.10628362
21	0x3eec68b9	0.46173647
22	0xbed7fc88	-0.42184854
23	0x3e12b8a2	0.14328244
24	0xbdd8b67c	-0.10581681
25	0xbf63f534	-0.89046025
26	0x3eb01761	0.34392837
27	0x3e699e26	0.22814235
28	0x3c2a55d9	0.010396444
29	0x3e6c152c	0.23054951
30	0xbecf30ad	-0.40466824
31	0x3e490527	0.19630872
32	0x3db08887	0.086197905
33	0xbe81a7c3	-0.25323305
34	0x3e151dbd	0.14562126
35	0xbe09decc	-0.13463897
36	0x3d905fab	0.07049497
37	0xbe7485db	-0.23879187
38	0x400c624c	2.1934996
39	0x3d8f81e5	0.07007197
40	0x3d693899	0.05693874
41	0xbdf62f94	-0.120207936
42	0xbcd73ac0	-0.026273131
43	0x3efa64e5	0.489051
44	0x3e1dea57	0.15421425
45	0x3e7daeea	0.24773756
46	0x3dfe3bd4	0.12413755
47	0xbfa5bb56	-1.2947795
48	0xc0785346	-3.8800826
49	0xbdedb50b	-0.11606797
50	0x3e057406	0.1303254
51	0xc0fd4e9b	-7.9158454
52	0xbebbdcfa	-0.3669203
53	0x3e3e6191	0.18591906
54	0xbff90dd4	-1.9457345
55	0x3cf2c515	0.029634992
56	0xbeb49542	-0.35270125
57	0x3e023325	0.12714823
58	0xbf066e08	-0.52511644
59	0x3d9ae9c8	0.075641215
60	0x3db962cb	0.090520464
61	0x3d4b5e37	0.049650397
62	0x3f4379fc	0.7635801
63	0x3fba6108	1.4560862
64	0xbeaffbc3	-0.34371766
65	0xbe04e95d	-0.12979646
66	0x3d2b675f	0.04184663
67	0x3e2e1cf3	0.17003231
68	0x3d9fb185	0.07797531
69	0xbecdc205	-0.40187088
70	0x3dee26f3	0.11628523
71	0x3cdd3542	0.027002934
72	0x3ebdbc31	0.3705764
73	0x3ef25e98	0.47337794
74	0xbd6dc8aa	-0.058052696
75	0xbcebedad	-0.028799856
76	0x3e142d51	0.14470412
77	0x3f4b70c0	0.7946892
78	0xbece66aa	-0.403127
79	0xbdea0859	-0.114273734
80	0xbe6cc99d	-0.23123784
81	0x3b992388	0.004673425
82	0xbf1be557	-0.6089682
83	0xbda90b0f	-0.082540624
84	0xc024b45d	-2.5735085
85	0x3e04c5a2	0.12966016
86	0x3f1f8314	0.62309384
87	0x3f7b1861	0.98084074
88	0x3b0e5ac0	0.0021721572
89	0x3ee66829	0.45001343
90	0xbe3e0915	-0.18558152
91	0xbe48c7f3	-0.19607525
92	0x3d08008d	0.03320365
93	0x3eb641da	0.35597116
94	0xbdf7ceb9	-0.12099976
95	0xbf1cf9de	-0.6131877
96	0x3f235caa	0.6381327
97	0xbe4783f9	-0.19483937
98	0x3edbcdb2	0.4293037
99	0x3f01fd31	0.50776964
100	0xbe59a13d	-0.21252914
101	0x3ea5336c	0.32265794
102	0xbd352238	-0.044222087
103	0xbec74080	-0.38916397
104	0xbe2f6259	-0.1712736
105	0x3ca2b868	0.019863322
106	0x3e40500e	0.18780538
107	0x3e7b5b7a	0.24546614
108	0x3f28ba90	0.6590967
109	0xbee8409c	-0.45361793
110	0xbe164207	-0.14673625
111	0x3d881294	0.066441685
112	0x3dd01306	0.101598784
113	0x3cec6b16	0.028859656
114	0xbfa76193	-1.3076652
115	0x3f17dbb3	0.5931961
116	0x3e236280	0.15955544
117	0xbee5acfe	-0.44858545
118	0xbf02cfaf	-0.5109815
119	0xc18b60f2	-17.422337
120	0x3ed7f209	0.42176846
121	0x3e649318	0.22321737
122	0x3e83dc9c	0.2575425
123	0xbf388867	-0.72083133
124	0xbdf6669b	-0.12031289
125	0xbbd642ef	-0.006538741
126	0xbe481f57	-0.19543205
127	0x3e404411	0.18775965
128	0xbd2511c1	-0.040300135
129	0xbe0808f0	-0.1328466
130	0x3e426f08	0.18987668
131	0x3eddf945	0.4335424
132	0x3f1bbce4	0.608351
133	0x3f26d384	0.651665
134	0xbdc728c1	-0.0972457
135	0xbdda6fbe	-0.106658444
136	0xbe039b0b	-0.12852113
137	0xbea5c0ab	-0.32373556
138	0xbd3dac4c	-0.046306893
139	0xbdca3f34	-0.09875336
140	0xbe1a5fd0	-0.15075612
141	0xbe1449a2	-0.14481214
142	0xbdd9a5a1	-0.10627294
143	0x3e3acdae	0.18242523
144	0xbd6c2a32	-0.057657428
145	0xbd1a918f	-0.03773647
146	0xbe7b732a	-0.2455565
147	0x3cd4fc85	0.025999317
148	0xbd13e30d	-0.036105204
149	0xbd2fdf58	-0.042937607
150	0xbbe77dac	-0.007064542
151	0x3f49fd99	0.78902584
152	0x3dcabf1a	0.09899731
153	0xbee025d4	-0.4377886
154	0x3dc497c2	0.09599258
155	0xbd437a03	-0.04772378
156	0xbea25530	-0.31705618
157	0xbe4fa5da	-0.20278111
158	0x3d0dd8c8	0.034630567
159	0x3dd43066	0.10360794
160	0x3ee0c148	0.43897462
161	0x3c0e3043	0.008678499
162	0xbebf733b	-0.373926
163	0xbd5eedd2	-0.054426022
164	0xbd0f6d8a	-0.035016574
165	0xbd93fce0	-0.072259665
166	0xbd8d363f	-0.06895112
167	0x3efe61bd	0.49683943
168	0x3e541342	0.20710471
169	0xbe03547a	-0.12825194
170	0xbe3413fc	-0.17585748
171	0xbddc292b	-0.1075004
172	0xbe3d61d4	-0.1849435
173	0x3ed1a862	0.40948778
174	0xbc3af569	-0.011411049
175	0xbf3180a5	-0.6933692
176	0xbe828dee	-0.2549891
177	0x3f014408	0.5049443
178	0x3e1e2f79	0.15447797
179	0x3fe532b6	1.7906101
180	0x3db7e59e	0.08979343
181	0xbd59f465	-0.05321159
182	0xbec405a3	-0.3828555
183	0xbedc4f79	-0.43029383
184	0xbd5d799f	-0.054071065
185	0x3df4cc47	0.11953025
186	0x3d9874cd	0.07444153
187	0xbd49f939	-0.049309943
188	0x3d93a1f6	0.07208626
189	0xbd8bcb9c	-0.06825945
190	0x3ea16053	0.31518802
191	0xbee8f3c4	-0.45498478
192	0xbd2b6525	-0.041844506
193	0xbcf973a7	-0.030450655
194	0xbdb93813	-0.090438984
195	0xbe205fba	-0.15661517
196	0xbe64bfc4	-0.22338778
197	0xbe6adeea	-0.22936597
198	0xbc351ca3	-0.011054191
199	0xbd0b7206	-0.034044288
200	0x3d960a80	0.073262215
201	0xbdc36381	-0.09540463
202	0xbe02d817	-0.12777744
203	0x3ecc8f73	0.39953193
204	0x3dbfd3b5	0.09366552
205	0x3ee0a213	0.43873653
206	0xbe1957de	-0.14974925
207	0x3ea6a228	0.3254559
208	0x3db0c2b8	0.0863089
209	0x3d7fd8f9	0.06246278
210	0x3de11ca6	0.109917924
211	0xbd95b24d	-0.07309399
212	0x3ef62072	0.4807163
213	0x3ed497ea	0.4152215
214	0xbe366b0a	-0.1781427
215	0xbf3770b3	-0.7165634
216	0x3d926726	0.0714858
217	0xbe1f94c6	-0.15584096
218	0xbe34610e	-0.17615148
219	0xbd56b64e	-0.052419953
220	0x3f17f76f	0.5936193
221	0xbeb1e883	-0.34747705
222	0x3de6a656	0.11262195
223	0x3e84547d	0.2584571
224	0x3e5e502d	0.21710272
225	0xbcc45d8b	-0.023970386
226	0xbf0e6a37	-0.5563082
227	0xbde5ea24	-0.112262994
228	0xbebc4bdd	-0.3677663
229	0x3dbcd92a	0.09221108
230	0x3de53069	0.11190874
231	0x3e1e508b	0.15460412
232	0xbe6f471b	-0.23366968
233	0xbf4439d9	-0.7665077
234	0xbe2aa7cf	-0.16665576
235	0xbdb0eaa5	-0.08638505
236	0xbe548057	-0.20752083
237	0x3eac26a1	0.33623222
238	0xbe1f9691	-0.1558478
239	0xbd5f4b7c	-0.054515347
240	0xbf0c96ef	-0.54917806
241	0x3e5065ee	0.20351383
242	0x3e62b9b5	0.22141154
243	0xbe20fd37	-0.15721594
244	0xbed3b590	-0.4134946
245	0xbf3013a6	-0.6877998
246	0x3dd5086c	0.10401997
247	0xbd497d38	-0.049191684
248	0xbd97a89f	-0.07405209
249	0x3da4ab79	0.08040518
250	0xbefe59f6	-0.4967801
251	0x3e4cfba7	0.20017873
252	0xbd8c3fb1	-0.06848086
253	0xbc7fbb69	-0.015608647
254	0xbd202460	-0.03909719
255	0xbe83abbe	-0.25716966

AutoEncoder_1/conv2d_transpose_10_1/Squeeze:0 f4 [32]
0	0xbfc1c08d	-1.5136887
1	0x4012164c	2.282611
2	0xbebc9fc9	-0.36840656
3	0x400f0199	2.2344725
4	0xbc80b116	-0.015709441
5	0x3fde815f	1.7383231
6	0x3d86e2b1	0.06586207
7	0xbfc9e204	-1.57721
8	0xc032ceff	-2.793884
9	0xbe8df9f8	-0.27729774
10	0x3ecbeb52	0.39827973
11	0x3ef31d53	0.4748331
12	0x3eb177ea	0.346618
13	0x3fc7d084	1.5610509
14	0xc0456b16	-3.084661
15	0xc0208638	-2.508192
16	0xbf5794b4	-0.8421128
17	0x3f3ed0d5	0.745374
18	0x3f20f695	0.62876254
19	0x3f42369a	0.75864565
20	0x3fbe3661	1.4860345
21	0xbe95a631	-0.29228356
22	0xc038cd9b	-2.8875492
23	0x402f935d	2.7433693
24	0x40165964	2.349206
25	0x40a22c60	5.067917
26	0x3fbf0942	1.49247
27	0xbeb0b355	-0.3451182
28	0xbfecfdbb	-1.8514932
29	0x4089dfbd	4.308562
30	0xc045901d	-3.086921
31	0x4013f4df	2.3118207

AutoEncoder_1/conv1d_9_1/convolution/ExpandDims_1:0 f4 [32, 1, 1, 5]
0	0x3d3dcd06	0.046338104
1	0x3b9d50af	0.004800878
2	0x3d99da0a	0.07512291
3	0x3dfa0335	0.12207643
4	0xbe48389d	-0.19552846
5	0x3c237e45	0.0099788355
6	0x3e2fb060	0.17157125
7	0x3df4f7ac	0.11961302
8	0xbebd557c	-0.36979282
9	0x3cff0dfd	0.0311346
10	0x3e45c2ec	0.19312638
11	0x3d2245a4	0.039617196
12	0xbe2bcd5c	-0.16777557
13	0xbd7f7100	-0.062363625
14	0xbe28c501	-0.16481401
15	0xbdd5aff6	-0.104339525
16	0x3c472251	0.012154178
17	0x3daf33cf	0.085548036
18	0x3e0d07b0	0.13772464
19	0xbe7e30f7	-0.24823366
20	0xbe84b579	-0.25919703
21	0xbe1cfe6a	-0.15331426
22	0x3e2ef4c2	0.17085555
23	0x3e32ef91	0.174742
24	0xbc7f8438	-0.015595488
25	0x3b0b5071	0.0021257664
26	0x3d1f3548	0.038869172
27	0xbd6e7ea4	-0.058226243
28	0xbdcb529e	-0.09927867
29	0xbdc69c33	-0.096977614
30	0xbe6eb1d9	-0.23310031
31	0x3e00f4b5	0.12593348
32	0x3e2f39dc	0.17111915
33	0x3c36e16b	0.011162142
34	0xbe2d2f03	-0.16912465
35	0x3de7c1f8	0.113162935
36	0x3dbe185f	0.09281992
37	0x3cd82543	0.026384955
38	0xbd978ac1	-0.07399512
39	0xbe7526dd	-0.23940606
40	0x3dbda298	0.09259528
41	0x3e0adb25	0.1356016
42	0xbeb9a1cd	-0.36256257
43	0xbd9df4b1	-0.07712687
44	0x3e0424c2	0.12904647
45	0xbd3af2e5	-0.0456418
46	0xbe0903ba	-0.13380328
47	0x3e8538c2	0.26019865
48	0xbac7f3b1	-0.0015255121
49	0xbe578802	-0.21047977
50	0xbe4edd26	-0.20201549
51	0xbd5a3ec2	-0.053282507
52	0xbdb00dae	-0.08596359
53	0xbe3fa304	-0.1871453
54	0x3d29d724	0.04146494
55	0xbea5e6a4	-0.32402527
56	0xbd7042df	-0.058657523
57	0x3d1772e8	0.036974818
58	0x3db76a44	0.089558154
59	0xbda6b08c	-0.081391424
60	0x3e0d4a42	0.13797858
61	0x3df5810a	0.11987503
62	0xbec81827	-0.39080927
63	0xbd27186d	-0.04079478
64	0x3e5f9270	0.21833205
65	0x3b7e7d44	0.0038831988
66	0x3d90fcb4	0.07079449
67	0x3d8235a0	0.063578844
68	0x3d164316	0.036685072
69	0x3a76f471	0.000942058
70	0x3e08ace6	0.13347206
71	0xbe5544e9	-0.20827068
72	0xbe494ed5	-0.19658978
73	0x3d84226a	0.064518765
74	0x3d848d48	0.0647226
75	0x3db21ab9	0.08696503
76	0x3df33b4b	0.118765436
77	0xbea8ef92	-0.32995278
78	0xbd319e9a	-0.043364145
79	0x3d7657b2	0.060142227
80	0x3e2607f4	0.16213971
81	0x3c3e3ab0	0.011610672
82	0x3dd5bf7c	0.10436913
83	0x3e4291b2	0.19000891
84	0x3cbe1488	0.02320315
85	0x3c0affa0	0.008483797
86	0x3d5ebf1c	0.054381475
87	0x3dc77a80	0.09740162
88	0x3c296750	0.010339573
89	0x3d6d01bc	0.057862982
90	0x3d87d589	0.066325255
91	0x3c405da4	0.011741076
92	0x3d9a62f8	0.07538408
93	0xbe63d953	-0.22250871
94	0xbde0a775	-0.1096944
95	0xbd817f52	-0.063231125
96	0x3e360f69	0.17779316
97	0x3e3629ba	0.17789355
98	0xbdef023e	-0.116703495
99	0xbe5308b0	-0.20608783
100	0x3e4d839a	0.20069733
101	0xbecb6127	-0.3972256
102	0xbd047481	-0.03233767
103	0x3dde7494	0.10862079
104	0x3db28203	0.08716204
105	0x3e351352	0.17683151
106	0x3d2fc948	0.042916566
107	0x3dee87c0	0.11646986
108	0xbd022de8	-0.03178206
109	0x3de9233c	0.113836735
110	0xbdc50e0e	-0.09621821
111	0xbdbd02c7	-0.09229045
112	0xbd9c467d	-0.07630632
113	0x3e3e0e6c	0.18560189
114	0xbdc11005	-0.094268836
115	0xbd50b51a	-0.050953962
116	0xbe32c3dd	-0.17457528
117	0xbe3abb57	-0.18235527
118	0x3e187ce8	0.14891398
119	0x3dd9aa34	0.10628167
120	0xbe1737e1	-0.1476741
121	0xbe76829e	-0.24073264
122	0xbe530e64	-0.20610958
123	0xbcff713a	-0.03118192
124	0x3e07fb67	0.13279496
125	0x3e46faf9	0.19431676
126	0xbe2fc21d	-0.17163892
127	0x3df12802	0.11775209
128	0xbd1b13a3	-0.037860524
129	0x3d053db0	0.032529533
130	0xbd6103e8	-0.054935366
131	0x3d965105	0.07339672
132	0xbcb6b6db	-0.02230399
133	0x3c53c976	0.01292645
134	0xbde39854	-0.11113039
135	0x3e32fe8a	0.17479911
136	0x3c828770	0.015933722
137	0x3d9ece14	0.0775415
138	0x3bd64640	0.006539136
139	0x3d790bf0	0.0608024
140	0x3e6692da	0.22516957
141	0x3e0e62ad	0.1390483
142	0xbe2ee04e	-0.17077753
143	0xbe8096b1	-0.25114968
144	0xbce6d82d	-0.028179253
145	0xbe1c6d5a	-0.1527609
146	0x3e34ce29	0.17656769
147	0xbbac990d	-0.0052672685
148	0xbe88aba3	-0.26693448
149	0x3d7d781f	0.061882135
150	0x3daaf3fa	0.08347316
151	0xbde25291	-0.110509045
152	0xbdaed835	-0.08537332
153	0xbdce270e	-0.10066043
154	0x3dd828dc	0.10554668
155	0x3dbd4450	0.09241545
156	0x3d7a6c98	0.06113872
157	0xbe138f93	-0.14410238
158	0xbe638f1f	-0.22222565
159	0xbc8cdfa4	-0.017196484

AutoEncoder_1/conv1d_11_1/convolution/ExpandDims_1:0 f4 [8, 16, 1, 5]
0	0x3e3f85bd	0.18703361
1	0xbd16f421	-0.036853913
2	0xbdac28de	-0.08406232
3	0xbe57cfea	-0.21075407
4	0x3dc0be28	0.094112694
5	0xbe8c5f8d	-0.2741665
6	0xbd9bcad1	-0.076070435
7	0x3e73437e	0.23756215
8	0xbd7fff2c	-0.06249921
9	0x3e05f0e6	0.13080177
10	0xbe45c0e9	-0.1931187
11	0x3f1712b5	0.5901292
12	0x3d85f38f	0.06540596
13	0xbd28674e	-0.041114144
14	0x3e853550	0.26017237
15	0x3e440283	0.19141583
16	0xbe015c44	-0.12632853
17	0x3debe8ee	0.11519037
18	0x3e3efe65	0.18651731
19	0xbeb13946	-0.3461401
20	0xbc4a8580	-0.01236093
21	0xbe409a92	-0.18808964
22	0x3d0df508	0.034657508
23	0x3d4e7ed0	0.050413907
24	0xbb871860	-0.004122779
25	0x3e594597	0.21217953
26	0xbdb5e4b6	-0.08881514
27	0x3dc2fef9	0.095212884
28	0xbd57ad38	-0.05265543
29	0x3dd802db	0.1054742
30	0x3d008351	0.031375233
31	0xbd82111e	-0.06350921
32	0xbd89a892	-0.06721605
33	0xbe23b138	-0.15985572
34	0x3d602f0b	0.054732364
35	0x3d695c79	0.056972954
36	0xbe51b31c	-0.20478481
37	0x3e7bdd0d	0.24596043
38	0x3e72b4f1	0.23701836
39	0x3dc83083	0.09774878
40	0x3e657917	0.22409473
41	0xbcef4b73	-0.029210782
42	0x3e2c7a6a	0.16843572
43	0xbe53e74d	-0.20693703
44	0xbdbe2cc2	-0.092858806
45	0xbe83e730	-0.2576232
46	0x3eaee67f	0.3416023
47	0x3e4a7d4a	0.19774356
48	0x3c31dedd	0.010856357
49	0xbdf01c54	-0.11724153
50	0xbe01f9c4	-0.12692934
51	0x3dd926d8	0.10603112
52	0x3e503202	0.20331576
53	0xbd9afa36	-0.07567255
54	0xbe1f2000	-0.15539551
55	0x3ec50808	0.3848269
56	0x3dab4ce3	0.08364274
57	0x3e54651f	0.207417
58	0x3de331b4	0.110934645
59	0x3ca401fe	0.020020481
60	0x3e92526d	0.2857851
61	0xbf47c6ac	-0.78037524
62	0xba16a854	-0.0005747129
63	0x3e08828a	0.13331047
64	0x3e519a35	0.20468982
65	0x3e3741a4	0.17896134
66	0x3d9e167e	0.07719134
67	0x3d9ec7b0	0.07752931
68	0xbe57ee1a	-0.21086922
69	0x3daed5ec	0.08536896
70	0xbf0fe30d	-0.56205827
71	0x3ba339a9	0.004981239
72	0x3ea0802e	0.31347793
73	0x3d90c37e	0.07068537
74	0x3c1257be	0.008932052
75	0x3e513cb0	0.20433307
76	0x3da5e5a7	0.08100443
77	0x3e9f4c1f	0.31112763
78	0xbdb1ca82	-0.086812034
79	0x3e08167c	0.13289827
80	0xbe514e59	-0.20440044
81	0x3e85e551	0.26151517
82	0xbe0ebbec	-0.13938874
83	0xbe82c389	-0.25539806
84	0x3e04fa60	0.12986135
85	0x3e7e682d	0.24844427
86	0xbda3bd02	-0.07995035
87	0x3eb68f29	0.35656098
88	0xbe315dd9	-0.17320956
89	0x3e13c8f3	0.14432125
90	0x3d4327f7	0.047645535
91	0xbce5f8a3	-0.02807266
92	0xbe76525e	-0.24054858
93	0xbe11b536	-0.14229283
94	0x3e7bc2e0	0.24586058
95	0xbda1bb73	-0.07897081
96	0xbe09c47e	-0.13453862
97	0x3e5cbb6d	0.21555872
98	0x3da40287	0.080082946
99	0xbeb1f483	-0.3475686
100	0x3d6f3d68	0.05840817
101	0x3daa6e44	0.08321813
102	0xbe25b378	-0.16181743
103	0x3e368234	0.17823106
104	0xbca334f0	-0.019922704
105	0xbdef7562	-0.11692311
106	0x3cdf3faf	0.027252046
107	0xbe10e37e	-0.14149281
108	0x3e3d201c	0.1846928
109	0xbe0e04d9	-0.13869037
110	0xbe54f551	-0.20796706
111	0xbdc76f05	-0.09737972
112	0x3e6d8f6d	0.23199244
113	0x3d5aaa0e	0.053384833
114	0xbc765c75	-0.015036692
115	0x3d0a2144	0.03372313
116	0xbe8037d5	-0.25042596
117	0xbf10934f	-0.56474775
118	0x3e16baa7	0.1471964
119	0x3e1e7209	0.15473188
120	0xbda4fca4	-0.08056
121	0xbe379815	-0.17929108
122	0x3f078e7a	0.52951777
123	0x3d0dce85	0.03462078
124	0xbd848578	-0.0647077
125	0x3de2b910	0.11070454
126	0xbf091047	-0.5354046
127	0x3ebfe88e	0.37482113
128	0x3c873320	0.01650387
129	0xbdd1ad4a	-0.102381304
130	0xbe6133b7	-0.21992384
131	0x3ddb49e2	0.107074514
132	0xbae79600	-0.0017668605
133	0xbe12b5ec	-0.1432721
134	0xbe3f581e	-0.18685958
135	0xbd944da8	-0.07241374
136	0xbd5ad22f	-0.053423103
137	0x3f0e070b	0.55479497
138	0xbde2ca3b	-0.11073729
139	0xbc8edcc2	-0.01743925
140	0xbe2daa45	-0.16959484
141	0x3d848e8a	0.064725
142	0x3dd671af	0.10470902
143	0x3e716df2	0.23577097
144	0x3e22af19	0.15887107
145	0xbc098a40	-0.008394778
146	0xbdf0112c	-0.11722025
147	0xbbdf0ae0	-0.0068067163
148	0x3e283452	0.16426209
149	0xbd508b04	-0.050913826
150	0x3e31935a	0.17341366
151	0x3e90d080	0.28284073
152	0x3e472572	0.19447878
153	0xbe0ea965	-0.13931806
154	0x3ccf8212	0.025330577
155	0xbdf62bc6	-0.12020068
156	0x3e43f0b0	0.19134784
157	0xbe263289	-0.16230215
158	0x3d084d29	0.03327671
159	0x3e579ff9	0.21057118
160	0x3e051255	0.12995274
161	0xbe9eecb0	-0.31039953
162	0xbe65e81c	-0.22451824
163	0xbde6fa3c	-0.11278197
164	0x3d91e944	0.0712457
165	0x3cd7e1bf	0.026352761
166	0xbebbd04b	-0.36682352
167	0x3ee5cb2b	0.44881567
168	0xbd5594f7	-0.052144017
169	0x3d317838	0.04332754
170	0x3d7b085e	0.061287276
171	0xbd3d1645	-0.046163816
172	0x3dde49ad	0.10853896
173	0xbe26f73b	-0.16305248
174	0x3dc4b1e4	0.096042424
175	0x3e37e840	0.1795969
176	0x3ecaee68	0.39635015
177	0xbe9661cc	-0.29371488
178	0xbdf6e5a3	-0.120555185
179	0xbcee7199	-0.029106902
180	0xbd214ea4	-0.03938164
181	0xbd5e37a4	-0.05425228
182	0x3e42a842	0.19009498
183	0xbe3425f4	-0.17592603
184	0xbdf1b00e	-0.11801158
185	0x3e4d1d69	0.2003075
186	0xbdc00a3b	-0.09376951
187	0xbd15daef	-0.036585744
188	0x3e630cb0	0.22172809
189	0x3e314210	0.17310357
190	0x3e607188	0.21918309
191	0xbe2bf82d	-0.1679389
192	0x3d0a97ce	0.03383618
193	0xbe0f770d	-0.14010258
194	0x3e71e51b	0.23622553
195	0xbd7ac907	-0.06122687
196	0x3dc50205	0.09619526
197	0xbea7cb3d	-0.32772246
198	0x3e3efded	0.18651552
199	0x3d01c551	0.031682316
200	0xbd9baf0f	-0.07601749
201	0x3e1c8576	0.15285286
202	0x3e2587eb	0.1616513
203	0x3d2b52c9	0.041826997
204	0xbb986bf6	-0.004651542
205	0xbe5bed8f	-0.2147734
206	0x3e2a6683	0.16640668
207	0x3d6e22d0	0.05813867
208	0x3cabc5f0	0.020968407
209	0xbcddcaef	-0.027074305
210	0xbd3d26e4	-0.046179667
211	0xbdf016d5	-0.11723105
212	0xbdea02ea	-0.11426337
213	0xbe5075a9	-0.20357384
214	0xbd9fc684	-0.07801536
215	0xbba88b18	-0.0051435344
216	0xbdc7ed85	-0.097621
217	0xbc76a4c1	-0.015053929
218	0xbe04bfd5	-0.12963803
219	0x3cda0e46	0.026618134
220	0xbf083296	-0.5320219
221	0x3f5b6941	0.8570748
222	0x3e3aa39b	0.18226473
223	0xbd637082	-0.055527218
224	0xbd8557e5	-0.06510905
225	0xbe2d96c0	-0.16952038
226	0x3e1f0cc3	0.15532212
227	0x3e343fa6	0.17602405
228	0x3dc0e7bc	0.094192
229	0xbd5af190	-0.05345303
230	0x3f0e0121	0.5547047
231	0xbd2aa2c1	-0.04165912
232	0xbe5e9b67	-0.21738969
233	0x3d2b9ec0	0.041899443
234	0x3dd0c03a	0.10192914
235	0x3e8f1676	0.27946824
236	0xbe9db199	-0.3079956
237	0x3df936a2	0.121686235
238	0x3daccfbc	0.0843806
239	0xbbd9c448	-0.006645713
240	0x3bd7f5e0	0.00659059
241	0x3d715d40	0.05892682
242	0x3dc85c20	0.097831964
243	0xbcfa8440	-0.03058064
244	0x3cf75d51	0.030195864
245	0x3ca254a8	0.019815758
246	0x3d970771	0.07374466
247	0xbe3b328a	-0.18280998
248	0x3e085e99	0.13317336
249	0xbe449dd9	-0.19200839
250	0xbe018044	-0.12646586
251	0xbe288386	-0.16456422
252	0xbdf4667b	-0.11933609
253	0xba120283	-0.0005569832
254	0xbdd15ca9	-0.10222752
255	0xbd9fdad0	-0.07805407

AutoEncoder_1/conv1d_10_1/convolution/ExpandDims_1:0 f4 [16, 32, 1, 5]
0	0xbe9a217d	-0.30103675
1	0xbe8e7152	-0.27820832
2	0x3f239b00	0.63908386
3	0x3ee6db88	0.45089364
4	0x3f22d2fd	0.6360319
5	0xbd95a4ba	-0.0730681
6	0xbe81c6c1	-0.2534695
7	0xbdab87f1	-0.08375538
8	0x3e6c45fc	0.23073572
9	0x3e39960c	0.18123645
10	0x3ed7652e	0.4206938
11	0x3e9cae6a	0.30601817
12	0xbe4c83bd	-0.19972129
13	0xbe8895d2	-0.26676804
14	0xbe58f56b	-0.2118737
15	0xbd77e6d2	-0.06052286
16	0x3d20fca2	0.03930343
17	0x3d832815	0.064041294
18	0xbe5e214e	-0.21692392
19	0xbe417571	-0.18892457
20	0x3e686e2a	0.22698274
21	0x3e83ab49	0.25716618
22	0xbdfcc146	-0.123415515
23	0xbe941e1c	-0.28929222
24	0xbec88bb4	-0.39169085
25	0xbed548a8	-0.41656995
26	0x3f027165	0.50954276
27	0xbdb4c58e	-0.08826743
28	0xbe96e7ce	-0.29473728
29	0xbe91e06f	-0.28491542
30	0x3dcfdcf5	0.10149566
31	0x3dd4bdb1	0.10387743
32	0xbe28d2e2	-0.16486695
33	0x3e25e0f1	0.1619909
34	0x3e534edc	0.20635551
35	0xbec7b4a1	-0.39004996
36	0x3ea24411	0.31692556
37	0x3e5ca93b	0.21548931
38	0xbeffa8c4	-0.49933445
39	0x3e05fdd8	0.13085115
40	0x3e14cca1	0.14531185
41	0xbef69486	-0.4816019
42	0x3e507035	0.20355304
43	0xbd511d77	-0.05105349
44	0x3ce9e6c8	0.028552428
45	0x3c26f093	0.010189193
46	0xbe57a9fa	-0.21060935
47	0xbe542608	-0.20717633
48	0xbdeaa185	-0.11456589
49	0x3f1b890c	0.6075599
50	0x3d5c75bd	0.05382322
51	0x3dd6c99a	0.10487671
52	0x3cea989e	0.028637227
53	0xbe17646a	-0.14784399
54	0x3d18e8de	0.037331454
55	0xbd2bc0a9	-0.041931782
56	0xbd534cd6	-0.05158695
57	0x3e7b685d	0.2455153
58	0xbde3a7e0	-0.11116004
59	0x3ef5bcba	0.4799555
60	0xbd9b0b69	-0.07570536
61	0x3ed7fcaa	0.42184955
62	0xbf19527f	-0.59891504
63	0x3e762fe8	0.24041712
64	0x3e7c8e17	0.24663578
65	0xbf031d79	-0.51216847
66	0x3e770987	0.24124728
67	0xbd67bf9b	-0.056579214
68	0xbeb438c8	-0.3519957
69	0x3e3a6f8d	0.18206616
70	0x3e576190	0.21033311
71	0x3e2eb4e3	0.1706119
72	0x3e01937b	0.12653916
73	0x3e0a91b0	0.13532138
74	0xbe9ec93d	-0.31012908
75	0x3ca56ccf	0.020193486
76	0xbe87037c	-0.26369846
77	0x3dacecad	0.0844358
78	0x3d68a96b	0.056802195
79	0x3e78edce	0.24309465
80	0xbd7a5556	-0.06111654
81	0x3d8fd7ea	0.07023604
82	0x3bf44100	0.0074540377
83	0x3d8d1cc6	0.06890254
84	0x3d76c370	0.060244977
85	0xbe1c94cb	-0.15291135
86	0xbcbfdd20	-0.02342087
87	0x3dabd668	0.08390504
88	0x3d9ee864	0.07759169
89	0x3c3b7130	0.01144056
90	0x3ec8230c	0.3908924
91	0xbd398b9d	-0.04529916
92	0xbde70a92	-0.11281313
93	0xbede7f02	-0.43456274
94	0xbdfa04ff	-0.12207984
95	0xbcf7e7a1	-0.030261816
96	0xbd63b54b	-0.055592816
97	0xbc89aa4f	-0.016804842
98	0x3f0470a1	0.5173436
99	0xbeb58515	-0.35453096
100	0xbaa6de72	-0.0012731089
101	0xbd1791a3	-0.037004124
102	0xbdfbac17	-0.12288683
103	0x3dc4f6e2	0.09617402
104	0x3e90312f	0.28162524
105	0x3dd96a4e	0.10615979
106	0xbdf0312f	-0.11728131
107	0xbc937708	-0.018001094
108	0xbdaf3c91	-0.08556474
109	0xbcc3ff00	-0.023925304
110	0x3d691010	0.056900084
111	0x3cac306c	0.021019183
112	0xbe1db393	-0.15400533
113	0x3e957303	0.2918931
114	0xbdd349c0	-0.10316801
115	0x3d389cc3	0.045071375
116	0x3d8b56e5	0.06803683
117	0x3e990e2a	0.2989362
118	0xbf21bd9e	-0.6317996
119	0x3e2750f2	0.16339472
120	0xbd6fe655	-0.05856927
121	0xbc1b3a21	-0.009474308
122	0xbc06b72c	-0.0082223825
123	0xbe344078	-0.17602718
124	0xbd641e26	-0.055692814
125	0xbe8fca1b	-0.28083882
126	0xbd47c029	-0.048767243
127	0xbdb82caf	-0.08992898
128	0xbe716b32	-0.23576048
129	0x3dca94c5	0.09891657
130	0x3e98b856	0.29828137
131	0xbdc33c9f	-0.09533047
132	0xbe97f306	-0.296776
133	0xbdb9095d	-0.09034989
134	0x3c793f3c	0.01521283
135	0x3cf67078	0.030082926
136	0x3dca841a	0.098884776
137	0xbdb454ce	-0.08805238
138	0xbd93c7ca	-0.07215841
139	0xbe0e3614	-0.13887817
140	0xbe534e28	-0.20635283
141	0xbec31faf	-0.3811011
142	0x3e48fa13	0.19626646
143	0x3e0ff4cf	0.14058231
144	0x3db64296	0.08899419
145	0x3eac4ee6	0.33653945
146	0x3f1007ec	0.5626209
147	0x3eac59e4	0.3366233
148	0xbec3657e	-0.3816337
149	0x3e978eda	0.29601175
150	0x3ebf6a30	0.37385702
151	0x3da33cbb	0.07970568
152	0x3d867224	0.06564739
153	0x3d994d24	0.074854165
154	0xbdddcca9	-0.108300515
155	0x3e846f6b	0.25866255
156	0x3cf68d7f	0.030096767
157	0xbd2ef1dc	-0.042711124
158	0xbe63182f	-0.22177194
159	0xbedf5516	-0.43619603
160	0x3d87dfb7	0.06634467
161	0xbdb18151	-0.08667243
162	0x3d03b07f	0.03215074
163	0xbf4baf24	-0.7956412
164	0x3e1f4124	0.15552193
165	0x3e05364a	0.13008991
166	0x3f0c0236	0.54690874
167	0x3db42fc9	0.08798177
168	0x3c795007	0.015216834
169	0xbda22791	-0.07917703
170	0xbe14da24	-0.14536339
171	0xbe95e928	-0.29279447
172	0xbd993bb1	-0.07482088
173	0x3eb08ab6	0.34480828
174	0x3d998fad	0.07498107
175	0x3d5eb889	0.054375205
176	0x3db82d56	0.08993022
177	0x3d570c44	0.05250193
178	0xbda60f32	-0.08108367
179	0xbd9819b3	-0.07426777
180	0xbea9df6d	-0.33178273
181	0xbeeb3cd8	-0.45944858
182	0x3e83b73b	0.2572573
183	0x3c0c4adf	0.008562773
184	0x3ec7104c	0.3887962
185	0x3d6c726a	0.0577263
186	0xbe912202	-0.28346258
187	0xbe05169b	-0.12996905
188	0x3e8ac724	0.27105057
189	0xbe8c9593	-0.27457866
190	0xbd5fe713	-0.05466373
191	0xbc1ec525	-0.009690558
192	0x3e3ea3ec	0.18617219
193	0xbe1c9236	-0.1529015
194	0x3dd259d9	0.10271043
195	0x3e326a2e	0.17423317
196	0x3da45d34	0.080255896
197	0xbf108fc7	-0.56469387
198	0xbf708ba5	-0.9396308
199	0x3f454a1d	0.7706621
200	0x3bb6fdbe	0.0055844476
201	0x3d150520	0.03638184
202	0xbe143e0a	-0.14476791
203	0x3d8b9102	0.068147674
204	0x3e13cbb9	0.14433183
205	0x3dded4d6	0.10880439
206	0x3e2aeb96	0.16691431
207	0x3d810997	0.06300657
208	0xbe073d25	-0.13206919
209	0xbe1fcb54	-0.15604907
210	0x3d9604a2	0.073251024
211	0xbe0b5f59	-0.13610591
212	0xbdaa3a37	-0.08311885
213	0xbd5c26ff	-0.053748127
214	0xbd7a07f7	-0.061042752
215	0x3f3fce60	0.7492428
216	0x3e37c249	0.17945208
217	0xbea099fa	-0.31367475
218	0x3d09c8ca	0.033638753
219	0x3e645d05	0.22301109
220	0x3d5d2fbc	0.0540006
221	0xbd9b042c	-0.07569155
222	0x3f2d7f6a	0.67772543
223	0xbe70e1d0	-0.2352364
224	0xbce77065	-0.028251836
225	0xbe8553bc	-0.26040447
226	0x3ea58f87	0.32336065
227	0xbe542e7e	-0.2072086
228	0xbf0dae64	-0.55344224
229	0x3f3b8ad3	0.73258704
230	0x3ebcc563	0.36869344
231	0x3e13ebb2	0.1444538
232	0xbd080840	-0.033210993
233	0xbda01383	-0.078162216
234	0x3e663830	0.22482371
235	0xbe1290a2	-0.14312986
236	0x3e30b826	0.17257747
237	0xbe4b4f62	-0.19854501
238	0xbd32c5fe	-0.04364585
239	0x3dbaa62a	0.091137245
240	0xbdf0d1a2	-0.11758734
241	0xbe0d7e12	-0.13817623
242	0xbe1b6ec0	-0.15178967
243	0xbd0c9f5e	-0.034331672
244	0xbd920664	-0.07130125
245	0x3d857fb8	0.06518501
246	0x3e1c9c49	0.15293993
247	0xbe07b94c	-0.13254279
248	0xbb27b1c0	-0.0025588125
249	0x3c425310	0.011860624
250	0x3d70a364	0.05874957
251	0xbe162027	-0.14660703
252	0x3d3adfc0	0.04562354
253	0xbeb23d1c	-0.34812248
254	0x3da46346	0.080267474
255	0xbc1426cd	-0.009042454
