models/SNN_autoencoder_tsri_time6.pth (torch, 37205 bytes, 11 tensors)

encoder_conv1.weight f4 [32, 1, 5]
00000000: 4d53 92bd 2f1f 413e 3af5 073f 74ff 483d
00000010: 5d3b e43c 7049 e53d 1ae8 8c3e 7326 493f
00000020: 63af bc3e 7df0 643e bb50 113f 4bee da3e
00000030: c4a8 ddbe eeb3 00be 417d 183e bb6b 373b
00000040: 780b cabb dd97 833b 38d3 863f f3db 6e3b
00000050: b0e6 ca3e a156 6fbe baed 713d 6060 113d
00000060: 545c f43d fda3 da3c 0ca8 5d3d 29a0 2b3f
00000070: f7f6 6c3e 07a2 8dbc 9b75 c43e fb57 c83e
00000080: 26cf 4a3f f0f8 b93e 1478 78bc 7378 403f
00000090: 05e2 443e b3be 24be bc3d 78bd ec9e e73b
000000a0: a61e 1e3e 746b 18be 2dbd a8bd 5e8d 373e
000000b0: 4c48 47be b414 6d3e 0294 00bf 5652 8c3f
000000c0: 5d3a febd 836b 91be e596 403c b234 923f
000000d0: 9d39 1f3e d46f 7b3c 1e6d 143c 7d4a ca3c
000000e0: 5508 583e da6f cbbd 6ca0 8d3d 03d9 7fbc
000000f0: 07ab 673e adb1 7d3d 825a 0dbf 2883 d03e
00000100: 730c f93e 7c75 a2be c55a a5bb 3d0f 9e3c
00000110: bd98 773e 076b 843b 0342 8f3d c23a cb3d
00000120: 6115 4d3f f37d 9fbc f59a a63c e02f 963e
00000130: 30bc 533e 4acf 9c3e 72d0 3f3e 50de 1d3e
00000140: 0428 803e b6bf 753e 47e6 79be dac9 e73d
00000150: b65d 8a3c 5b25 90be 251e 6cbf f683 a5bd
00000160: 95cf b5be 8b8c d03e f911 31bd d7c3 4abc
00000170: 6651 f63e 1416 c7bd c0ea b6bc 35ce 04bd
00000180: 83e5 a83e ab7b 4fbe f913 053e f785 3d3e
00000190: 0d30 0a3f f06c ff3e dbfc b53c 26d0 ca3e
000001a0: b6d3 02bb 9ebf 053d c597 793a 7e36 043f
000001b0: cd91 7abf 7bdd 0f3f c271 86bf f1b7 70bf
000001c0: 63ba 343f 97f8 fc3e b8e0 003f b670 dcbd
000001d0: 2213 953d 25fb 93ba c56a ec3e 9273 99bd
000001e0: d673 533f dc11 113f a828 d3be 5fdc 8ebe
000001f0: e167 abbe d3f3 923d 96d1 ffbe 8645 ebbc
00000200: 22ee f23e 0a82 1c3f 12f1 a03c 4f36 573d
00000210: 0589 0bbe 2506 3f3e efe6 6e3f 7240 333e
00000220: e562 65be 0969 c53d cb64 e1be 71a4 073e
00000230: 162e 7b3e 04d6 d93e 0b30 073d d116 b73e
00000240: a879 c8be 0fa5 3c3d fe2d 7dbc d269 edbb
00000250: 8cf7 083f 2cc0 0a3f 5245 d4bd daea ba3d
00000260: ee02 b43e 1759 f13e 35bf 393b 81d6 b43c
00000270: 3e79 cebc 9219 123f 04ef 043f 156d 2a3c
-0.071447946 0.18859552 0.5310856 0.049071744 0.027860338 0.11195648 0.2752083 0.78574294
0.3685256 0.22357364 0.5676381 0.42759928 -0.4329282 -0.12568638 0.1489153 0.0027987796
-0.006165918 0.0040159062 1.0533209 0.0036447018 0.39629126 -0.2337289 0.059064604 0.0354923
0.11931673 0.026689524 0.05411534 0.6704126 0.23141085 -0.017289175 0.38370976 0.39129624
0.79222333 0.36322737 -0.015165348 0.7518379 0.19226845 -0.16088371 -0.06060575 0.0070685055
0.15441379 -0.1488474 -0.082392074 0.17925021 -0.19461173 0.23152429 -0.5022584 1.0962627
-0.12413476 -0.28402337 0.011754726 1.1422331 0.15549321 0.015346486 0.009059219 0.024693722
0.21096928 -0.09933443 0.06915364 -0.0156157045 0.22623836 0.061937023 -0.5521623 0.40725064
0.4864231 -0.31730258 -0.005046221 0.019294376 0.24179359 0.004041079 0.069950126 0.099233165
0.80110747 -0.019469237 0.020337561 0.293334 0.20677257 0.306269 0.1873186 0.15416837
0.2503053 0.23998913 -0.2440425 0.11317797 0.016890388 -0.281535 -0.92233497 -0.0808181
-0.35509935 0.40732226 -0.04323003 -0.012375793 0.48108977 -0.09721008 -0.022328734 -0.032423217
0.32987604 -0.2026202 0.129959 0.18508135 0.5397957 0.498878 0.022215297 0.3961193
-0.0019962615 0.032653444 0.00095212116 0.5164565 -0.97878724 0.5619733 -1.0503466 -0.9403067
0.70596904 0.4940841 0.50342894 -0.107636854 0.0727904 -0.0011290057 0.4617521 -0.074927464
0.82598627 0.56667876 -0.41241956 -0.27902505 -0.3347769 0.07175412 -0.4996459 -0.028719675
0.47447306 0.61135924 0.019646201 0.052542027 -0.13626488 0.18654688 0.93321127 0.17505053
-0.22401007 0.096391745 -0.4402221 0.13246323 0.24529299 0.42546093 0.0330048 0.35759595
-0.39155316 0.04605585 -0.01545286 -0.007245281 0.53502727 0.5419948 -0.10364784 0.09126826
0.35158485 0.47138283 0.0028342728 0.02207494 -0.025204297 0.5707027 0.5192721 0.010401984

encoder_conv1.bias f4 [32]
00000000: 60b4 013f 73c7 2cbf fd47 ce3e 79ea f63c
00000010: dc79 bebe d155 713f 8de1 f4be d591 a93e
00000020: c3bf cabe 6560 173e ce7b 3bbd fd6b 8a3f
00000030: 9566 1d3f 49b8 893f 8305 cd3d 0b89 303f
00000040: 0c37 5d3f 6b4c 123f 5e22 843e abc1 603f
00000050: 1a19 87be c535 35bd 6cdf e6bd abe8 233f
00000060: 553f a43e 60c3 323d e2f6 8f3d ba79 cebe
00000070: 97b6 2e3f aa6f 08bf 3172 2e3e 9e6c 0fbc
0.50665855 -0.67491835 0.40289298 0.030141102 -0.37202346 0.9427157 -0.47828332 0.33119074
-0.39599428 0.14782865 -0.045772366 1.0814205 0.6148465 1.0759364 0.10010817 0.6895911
0.8641212 0.57147855 0.2580747 0.87795514 -0.26386338 -0.04424073 -0.11273083 0.640269
0.32079569 0.043643355 0.07029511 -0.40327245 0.6824736 -0.53295386 0.17035748 -0.008753924

encoder_conv2.weight f4 [16, 32, 5]
00000000: 4e24 203d 54d6 a33c e02b c83d 8b64 07bd
00000010: ec24 093d 0bd5 293d 0ffd 49bd 9d12 19bd
00000020: e394 343d 9c79 56bd cd2e d0bb 34cb 2cbd
00000030: bee5 1cbd 0441 51bd 2f57 8d3c 53de e0bc
00000040: 1955 b13e 504f 503e 8e8e de3c 5391 803e
00000050: 12b6 25bd e87b 0d3d 6b33 44bd cb21 48bc
00000060: feb7 5f3d 1c0a 09bd ecb0 983d 16e8 da3d
00000070: 4955 aebc 696a 6f3d 9a30 a4bb d15c 7ebd
00000080: d1f7 013d 4e8e 07be 15e8 ea3d 9307 c5bc
00000090: 09cc a6bc da50 c9bb cc7b c3bd f567 303c
000000a0: 7819 9d3c aab6 d8bc ba6c 75bd b8c8 723c
000000b0: a8b0 8a3c 3894 50bd 1f08 7f3c 053f c43d
000000c0: f06f 6cbd 4273 9d3d e431 193e 0431 17be
000000d0: d521 dc3d bce3 47bf c19a b13e 4fc1 4d3d
000000e0: db17 a0bc 9378 05bc e579 a7bb 61a2 d03c
000000f0: ea37 01bd 50b3 e9bc e920 0dbd e291 993d
00000100: aa74 b3bb 6bbb 21bd 3c08 073d 0a3f 123d
00000110: 9827 823d 8d04 d43b 3788 d5bc 31df a93b
00000120: 4449 fa3c 00ea 47be 0b22 d2ba e328 1e3d
00000130: ee99 9a3c 381a ec3d b387 643d d69b 563e
00000140: 9526 523b d9b3 71bd 3a50 8cbc 1b8e 9c3b
00000150: 1e15 6cbd ae19 053c 4864 7e3d a37f ebbc
00000160: c670 643b a66d 25bd ba84 0a3c 5cb2 30bd
00000170: 3c55 5b3c 40cc 02be 8a26 45bc 6595 bbbc
00000180: 1829 c2bb 8749 6fbd 9608 37bc b073 76bd
00000190: e743 ca3c 4cb4 253d e3d1 0f3e 2ac5 2fbe
000001a0: 0465 663c 81d4 65bd d096 acbc c8cd 613d
000001b0: 4eef 483d 56d0 643d 4c4c 243b d009 0b3b
000001c0: 2a06 e5bc a04b 503d c27b 4d3d 3874 a2bd
000001d0: 71a2 94bc d67a 38bc 1543 e0bc af9f b5bc
000001e0: 1de9 963c 3478 dbbd 359f abbc 5e47 afbd
000001f0: 4bc4 a43c 2efb 86bc 5c38 0c3d 3c2e 23bd
00000200: 28a1 833d 61bb 823d de8d c2bc 9287 473d
00000210: 8ba6 27bd 481b cf3c ae5b c8bd 1cb5 e43c
00000220: 2a52 643d 363e 9dbc a765 91bd ba3d e8bc
00000230: 3ce7 0abd b766 76bd c25a 9cbc 5e59 19be
00000240: c847 42bc 693b c5bb 8463 bc3d dcb0 aabd
00000250: 9a36 00bc 58ab 0cbe 0c31 09be 5834 2abd
00000260: c248 db3c 50fe 01be 194c 4a3d 064d b63d
00000270: ca3c 21bd 3de5 dc3d 2e56 9f3c 8c02 5e3d
00000280: 06c5 17be beb9 773e 1fc7 c83c fb43 74bd
00000290: 5691 d33c 6aa6 8ebd cbed 2cbd fc93 363e
000002a0: 3ea8 183d 27d1 8d3d b276 49bb f9e0 8c3b
000002b0: 74c3 103e b769 883d f6ea 6d3d 54be 3cbe
000002c0: 4af9 6e3e d53b 4fbe 6b36 8abe a469 14bd
000002d0: b8e3 a3bd 3172 973b f5ec 3bbb 3a7f 9c3c
000002e0: 81f1 843c ef2f 2cbe cca3 83bd 3d36 08be
000002f0: 812d 96bd 66a9 95bd 029d f4bc 54e1 8abc
00000300: 4d33 df3d fc09 0bbd 8934 efbc d4a5 dc3c
00000310: c476 063d e74b 023e 7f22 173d 4f29 8b3c
00000320: 800d e5ba 7c79 9abd c0db 36bd 1e20 78bd
00000330: 9ecf e1bc 09f8 10be 8a7f dfbd 34cd 96bc
00000340: f5ac ab3c 0b36 28be 52d5 7ebe dd71 993d
00000350: 871f 643e 44ca 28be 71ab 1fbe 1f06 68be
00000360: 0957 51be 085f ae3d a541 a13d 6030 0f3e
00000370: 8acf 763d 70ef c63b 1a20 343d a537 513d
00000380: 1d22 883d 2346 e9bc 1be1 923b c7d5 113d
00000390: cf40 5a3d 38b2 773d a121 d0bd 5f85 073e
000003a0: 2b52 bb3d e09b 2cbd 4944 babd 611a 6abe
000003b0: 9871 1a3d 3b21 7cbc 6e99 a3bd 3486 e9bc
000003c0: 1033 1a3c dbaa b8bd b773 913d 2961 a73d
000003d0: c1b5 8c3d 8857 a83b de1e 2ebc 3277 4c3e
000003e0: d9cf bebb 7642 123e 73d1 8bbd c595 4e3e
000003f0: 0fe4 ad3d b91d 2e3d 31e7 2dbd 73d1 bc3a
0.039097123 0.01999966 0.097739935 -0.03305487 0.033482477 0.04146294 -0.0493136 -0.037371267
0.044087302 -0.05236207 -0.0063532353 -0.042185977 -0.038305037 -0.051087394 0.017253486 -0.027449762
0.34635237 0.20342755 0.027167585 0.25110874 -0.04045684 0.034541994 -0.0479006 -0.012215088
0.054618828 -0.033456907 0.0745562 0.10688798 -0.021280902 0.05845109 -0.0050106766 -0.062100235
0.031730477 -0.13237879 0.114700474 -0.024051463 -0.020360963 -0.0061436715 -0.09545097 0.010766973
0.019177184 -0.026454289 -0.059918143 0.014818363 0.01692994 -0.050922602 0.015565901 0.095823325
-0.05772394 0.07687999 0.14960438 -0.14764792 0.107486404 -0.7808187 0.3468838 0.05023318
-0.019542625 -0.008146423 -0.0051109665 0.025468053 -0.031547464 -0.028527886 -0.034455214 0.07498528
-0.005476554 -0.039485376 0.032966837 0.03570465 0.06355208 0.006470269 -0.026065929 0.005184077
0.030552514 -0.19522858 -0.0016031874 0.03861321 0.018872228 0.11528438 0.055793475 0.20957884
0.0032066454 -0.059009407 -0.017128099 0.0047776825 -0.057637326 0.008123798 0.062107354 -0.028747385
0.0034857257 -0.040387772 0.008454496 -0.043138847 0.013387021 -0.12773228 -0.012033114 -0.022898385
-0.005925309 -0.05841973 -0.011171481 -0.060168922 0.024690581 0.040455148 0.14044909 -0.17165056
0.01406217 -0.056110863 -0.021068007 0.05512789 0.049056344 0.055862747 0.002506989 0.0021215566
-0.02795704 0.05085337 0.050166853 -0.07932323 -0.018143864 -0.011259755 -0.027375737 -0.02217087
0.018421704 -0.10716286 -0.02094994 -0.08558534 0.020113131 -0.016477194 0.034233436 -0.039839014
0.064272225 0.06383396 -0.023749288 0.048713274 -0.040930312 0.025281563 -0.097831115 0.02791839
0.05574242 -0.019194704 -0.07099467 -0.028349746 -0.03391193 -0.06015655 -0.019086245 -0.14975497
-0.011857934 -0.006019045 0.091986686 -0.083345145 -0.007825518 -0.13737237 -0.13397616 -0.041553825
0.026768092 -0.12694669 0.04938898 0.0890141 -0.039364614 0.10785911 0.019450273 0.054201648
-0.14821252 0.24191949 0.02450901 -0.059635144 0.025826138 -0.06965335 -0.042218965 0.17829889
0.037269823 0.06924658 -0.0030740914 0.00429928 0.1413706 0.066607885 0.058085404 -0.1843198
0.23337284 -0.20237668 -0.26994643 -0.03623356 -0.08002418 0.004621767 -0.0028675173 0.019103635
0.01622844 -0.1681516 -0.06427726 -0.1330194 -0.07332898 -0.07307701 -0.029860023 -0.016953148
0.10898457 -0.03394507 -0.029199855 0.026934542 0.032828107 0.12724267 0.036898132 0.01698747
-0.0017475337 -0.075427026 -0.044643164 -0.060577504 -0.02756482 -0.14157118 -0.10912998 -0.018408395
0.020956496 -0.16426866 -0.24886063 0.07492421 0.22277652 -0.16483408 -0.15592743 -0.22658585
-0.20443358 0.085142195 0.07873849 0.13983297 0.06025652 0.0060710236 0.043975927 0.051078457
0.066471316 -0.028475827 0.004482401 0.035604265 0.053284463 0.060472697 -0.10162664 0.13234471
0.09146532 -0.04214084 -0.090950556 -0.22861625 0.037705988 -0.015388782 -0.07988249 -0.028506376
0.009411588 -0.09016963 0.07102149 0.08172829 0.06870604 0.0051373877 -0.0106274765 0.19967344
-0.005823117 0.14283165 -0.06827059 0.2017432 0.08490764 0.042508814 -0.04245681 0.0014405682

encoder_conv2.bias f4 [16]
00000000: 6b9b 073f 44e7 493e f0da 96be bd82 fc3e
00000010: 7ced 8c3e f504 583d 6397 4f3e 27ed 533e
00000020: fe3b 743e 079b 063f ca01 003f 2098 8d3d
00000030: 5955 1a3d cbf2 223e d646 523e 919b 7c3e
0.52971524 0.19717127 -0.2946391 0.49318495 0.27524936 0.052739102 0.20272593 0.20695935
0.2385101 0.525803 0.5000273 0.06913781 0.03767905 0.1591293 0.20534834 0.24668719

encoder_conv3.weight f4 [8, 16, 5]
00000000: 5d71 293e 14f5 0339 400d 4a3e d5b8 0b3c
00000010: 1233 01be 8c01 443d 4c16 3c3e d8ea a2ba
00000020: 8bc6 cabd 13fc 273d 7b8f c53c 1bca f5bd
00000030: ed82 f03c a952 303e d7a1 b33a ea6a 4f3d
00000040: 943b 0ebd 1f34 82bc f0e1 7d3c ebc6 8e3c
00000050: b7d1 493c 36a0 db3c 59f3 a8bc a8f0 ddbc
00000060: 8367 84bd 8628 afbd c429 033e 20e8 e0bd
00000070: 0cfe 65bd 411d 07be c0c1 92bd e459 fc3d
00000080: fe8c a2bd cf70 dc3a 4d13 cc3e 72e3 8a3d
00000090: bdbb 05be 3d51 c83d ce62 163e 0583 b83d
000000a0: 4072 97bc e419 a73d 2c31 6ebc b43a 89bd
000000b0: a97b b73c b26d 133e 260c f23d c415 4c3e
000000c0: a13d eabd 22eb 433e 166a 913c e6fa 41bb
000000d0: 62ad 693d 6a8d 783d d360 c23d cfcd d03c
000000e0: 0abe b6bd 6bd1 4dbc 31d5 1a3d 279b 23bd
000000f0: 0cca 95bd f8c1 213e 6ade d3bd 45a0 5fbd
00000100: 6e59 ac3c 084b 99bd f160 7abe 5917 0ebe
00000110: 9380 183e 8efe d8bd 9b59 293b 0a88 683d
00000120: c6d2 a4bc 3d3c 05bd 7bfa ecbc 741f 263e
00000130: 3292 1abd cd75 98bd 6a65 4c3e 8139 b6bd
00000140: 128d 3abe 760d 0abc bfcc 2a3e 2e54 7d3d
00000150: 3c95 0d3d d32b a3bd 39f9 f8bd 884a 3f3c
00000160: a1cd e33d 3f7a b5bb ae5f 44bd b3c5 113e
00000170: a3be a5bc 94cf 1b3e 3a5d 16bd ca34 9d3c
00000180: 5d43 993c c8b8 a6bc 9eee c93c 6896 03bd
00000190: 9f6d 3cbc dfce 093c 6949 f6bc 6e89 b73b
000001a0: fcc2 c33c 00a8 d23d 61de 6d3a 8b6d 3cbd
000001b0: df40 923d 0383 af3d 88c3 503d 0568 00be
000001c0: 2a35 07be 5078 1e3d 05d0 2bbe 83a5 febc
000001d0: 7fa3 e93d bb1c 733d 13cb e93d 9710 23bd
000001e0: 4481 a1bc 2040 00bd 328d 9c3c b17a c7bb
000001f0: b476 753c 37fd 06be 0c99 ecbd 4a41 ca3d
00000200: fba3 3bbe b69a cdbd 48e0 02b8 853b 7a3d
00000210: 073a f33c 55e9 173d 50a1 fbbc 755d 443e
00000220: 9eda 863d 9ae6 c43d 306b 583b 9ef0 d23c
00000230: 215e e33d a364 afbd 5ba2 6bbd 3601 143b
00000240: 03b4 e03c 12ac 103d f8cf 013e 8988 cabd
00000250: f896 e7bc 7ded 44ba 9fc7 3abc 5cc2 8cbc
00000260: e697 45bd 6438 c2bd 0a31 71bc 7dfc 41be
00000270: 3780 573d 455d a4bd 9ee3 1b3f d5a9 913d
00000280: 16f7 983c 7153 513b fe75 483c 508f 12bd
00000290: f624 04bd 8bb4 dc3c 55ff e83d fece dc3d
000002a0: 1022 513d 234a a73c fa3e 973d c2b6 2abe
000002b0: b24d e2bd e4a5 d43c 8444 ae3d 9027 163e
000002c0: 6cf6 afbd cb6e 71bd 3fc1 623d 1003 a4be
000002d0: 77df bcbc b27d a4bd 5ad4 ecbb da25 eb3d
000002e0: 33d7 95bc 9d1e 063d 2371 19be 342e 07bc
000002f0: 5d1d b03e 5675 a1ba d27b 803c d38c 47bc
00000300: 02d2 b93c 34d5 3ebd 9ad5 89bb 2bff f0bc
00000310: a681 c7bd 3294 c0bc e2e7 26bd de40 36bd
00000320: 0bfb ac3d 9fc5 94bb e987 88be e3d7 393d
00000330: 3a08 333c 8931 403d dc78 7a3d 0e27 a03d
00000340: 82b2 73bc 4d76 743c ea1b 323c 4a14 253d
00000350: 076f debd 2dd2 0dbc fd41 c1bb 5241 1c3d
00000360: c54b 35be ad4a e3bd 5a1e b83b 5c0f 0ebe
00000370: 64f8 cd3c 3e41 dcbd a684 ce3d 32e2 153c
00000380: 2e5b 8bbc 0691 32bc f126 9c3d 6f87 febc
00000390: 8235 373d ec31 063d 93a9 7bbd c2d2 7ebd
000003a0: 7643 4bbb a233 ad3d 2c07 f8bc c339 373b
000003b0: 736d 8a3d ac5f fbbc eb3e 543c fa64 f4ba
000003c0: e5cf 833c 0f63 16bc abc8 00be c8a3 a13c
000003d0: 959c 863c b45b e9bb 1d5b 713c cd1b 23bd
000003e0: b365 64ba 486b 0e3c 0d2b a33c ec84 d3b9
000003f0: daa4 cbbc f604 403d ba52 9ebc fe3b d53d
0.16547151 0.00012584432 0.19731617 0.008527954 -0.12617138 0.047853038 0.1836788 -0.0012429608
-0.0990115 0.04101188 0.024116268 -0.12001439 0.029359305 0.17219032 0.0013704848 0.05063907
-0.034724787 -0.015893994 0.015495762 0.017428836 0.012318066 0.026809793 -0.02062385 -0.027092293
-0.06465056 -0.08552651 0.12808901 -0.10981774 -0.05615048 -0.13194753 -0.07165861 0.12321833
-0.079370484 0.0016818288 0.39858475 0.06781663 -0.13059898 0.0978112 0.14686128 0.09009365
-0.018487096 0.08159235 -0.014538091 -0.0670065 0.022397833 0.14397314 0.118187234 0.19930178
-0.11437536 0.19132665 0.017750781 -0.002959901 0.057050116 0.060681738 0.09491124 0.025488762
-0.08922966 -0.012562136 0.03780097 -0.039942887 -0.07313928 0.1579665 -0.103451565 -0.054596204
0.021038737 -0.07485014 -0.24451043 -0.13876094 0.14892797 -0.105954275 0.0025840763 0.056770362
-0.020120036 -0.03252815 -0.028928032 0.16222936 -0.03773708 -0.07444344 0.19960561 -0.08897687
-0.18217877 -0.008426061 0.16679667 0.061847858 0.03456615 -0.07967343 -0.121569104 0.0116754845
0.11123205 -0.0055382545 -0.04794281 0.14235573 -0.020232504 0.15215904 -0.03671 0.01919021
0.01870888 -0.020351782 0.024649914 -0.03212586 -0.011500745 0.008411138 -0.030064302 0.0056010997
0.023896687 0.1028595 0.00090739696 -0.046002906 0.071412794 0.085699104 0.050967723 -0.1253968
-0.13203874 0.038688958 -0.16778572 -0.031084782 0.114081375 0.05935357 0.114156865 -0.039810743
-0.019714959 -0.031311154 0.019110296 -0.006087624 0.014981914 -0.13182531 -0.11552629 0.09875734
-0.18324272 -0.100392744 -3.1203293e-05 0.06109192 0.029690756 0.037087757 -0.030716568 0.19176276
0.06584667 0.09614296 0.0033022873 0.0257495 0.11101938 -0.08564117 -0.05752788 0.002258373
0.027429586 0.03532035 0.1267699 -0.09889323 -0.02827023 -0.0007512195 -0.011400132 -0.017182522
-0.048240565 -0.09483412 -0.0147211645 -0.18943973 0.05261251 -0.08025602 0.6089419 0.07112471
0.018672507 0.0031940604 0.012235163 -0.035781205 -0.03226181 0.026941558 0.11376826 0.10781668
0.051057875 0.020421093 0.07385059 -0.16671279 -0.110499755 0.025958009 0.08509162 0.1466353
-0.08591923 -0.05894355 0.055360075 -0.32033587 -0.023055775 -0.08031787 -0.0072274627 0.11481829
-0.018291092 0.03274404 -0.14984564 -0.008250762 0.34397402 -0.0012318294 0.015684042 -0.012179571
0.022683147 -0.046590045 -0.0042063715 -0.029418549 -0.09741525 -0.023508165 -0.040748484 -0.044495456
0.0844632 -0.00454016 -0.2666619 0.0453719 0.010927254 0.04692224 0.061150417 0.07819949
-0.014874103 0.014920783 0.010870913 0.040302552 -0.108610205 -0.008656067 -0.005897759 0.03814823
-0.17704685 -0.11098228 0.0056188526 -0.13873047 0.025142856 -0.107546315 0.100838944 0.009148167
-0.017011251 -0.010898834 0.07624615 -0.03107044 0.044728763 0.032762453 -0.061441015 -0.062212713
-0.0031015552 0.08457114 -0.030276857 0.0027958013 0.06759157 -0.030685268 0.012954454 -0.0018645816
0.016090343 -0.009178891 -0.12576549 0.019731417 0.016432086 -0.0071215276 0.014731196 -0.039821435
-0.0008712664 0.00869257 0.01991799 -0.0004034409 -0.02485888 0.04687973 -0.019326556 0.10411833

encoder_conv3.bias f4 [8]
00000000: bd55 163e 02da 393e ff98 993f 16f2 aa3e
00000010: de04 053f 77f5 3c3f ccf9 883e a641 d73e
0.14681144 0.1814957 1.1999816 0.33387822 0.5196055 0.7381205 0.2675308 0.42042273

deconv1.weight f4 [8, 16, 5]
00000000: e71e c3bc 8801 a63d 59a9 a7bd 1647 b8bb
00000010: 236d 08ba 8dbc 6abc 6200 e83d 96c7 ba3d
00000020: 6b36 a0bd 83b7 1bbd f9a6 ad3c 47af c03d
00000030: 28ce c2bc 3998 8dbd 05f7 abbc 890b 253e
00000040: 65be 9b3c 10b0 403e 74fb aebc 1dc2 9b3d
00000050: 87b3 d5bf ed44 a33d b18b 183d 5ba8 323d
00000060: 9d99 833d c7e2 89bc ee71 843d a9fb c3bd
00000070: d9fc b63c 702a 8dbd f984 c2bc b6ca 943d
00000080: 3acc 25bc 9848 413b 87e0 0a3e 4528 a63d
00000090: f7d0 73be bc01 c53c e955 863e b88e 593c
000000a0: c2c7 d7bd 8b18 3fbd 382c 0fbe f863 84bb
000000b0: 0431 413d f5ee 6d3d c812 f33d 3905 4b3d
000000c0: bb89 00bc 712d 003e fec7 66bc b65a a0bc
000000d0: 1402 643d 4f11 813c 7b00 4a3d bcdb f03d
000000e0: e856 143d 113f 263d f2cf 063e 3b82 b3bd
000000f0: 7576 3e3d faff 7cbd 3a30 2abd 8d7c 833c
00000100: 9ecb 17be 95e3 acbd 603c 3dbc 6f38 26bd
00000110: 7de3 353d 3e97 083e fa0a 3b3d 8eac a2bc
00000120: 34cf b33d 1306 8c3d 3355 47be 69d5 2e3e
00000130: d922 bd3d 80d4 d13d 4c6c 1c3c 0433 e93d
00000140: a788 393d 88a7 a3bc eebc 80bd 373c 54bb
00000150: 1f25 123d 6b02 87bd fa06 37bb 6fd8 973d
00000160: 5eb1 ab3b db6b 09bc 3a2c 9cbc ec60 95bd
00000170: d0bd e0bc d01e b73c 7a89 1ebc ad56 553d
00000180: 6572 ecbc eaeb 623e 25f8 84bc 513d bd3d
00000190: 2af5 eebf f84d 1e3e bbe9 323e 8059 293d
000001a0: 29c7 2a3e 312b bf3d ba0c b13c 61ed bcbc
000001b0: 3eab 353e fef7 e93d 90f7 153e 473c c23c
000001c0: 7d4f 38bc 4083 713d 6eeb 53bc 2d44 09bd
000001d0: 0573 123e 7054 af3c 5ff0 993e c05e 5b3c
000001e0: c15f 183e 5a06 70bc 272e e3bd a798 113d
000001f0: 7822 8a3c 16f3 1a3d fbc8 67bd 0ca0 053b
00000200: d5df c8bb 9be2 c5bc 950a df3d 1a5b 583a
00000210: 3449 783d 090f dfbb dfd3 383d 2313 e8bb
00000220: 6479 8d3d ad38 ac3d d37e 9d3e 6eb9 183e
00000230: ce2c b83d 9fcc 95bb fe39 233c 0d54 76bc
00000240: 72c5 063e 4c98 163e 5db6 233d fb03 e0bc
00000250: b087 85bd 2796 b5bc 91df babc 02b0 0a3e
00000260: e49b ae3d 2278 323d 6a49 653d 921b 84be
00000270: c58e 81bd a053 533d 5a24 153e 78a8 91bd
00000280: 1103 aabd 42ca 93bd 0fbf fabd ce29 89be
00000290: c91c 94bd e7e4 afbd b8ee d03d ba16 08be
000002a0: 8061 f33e 9bb9 03be aaa1 f4bc 0da3 f3be
000002b0: d25b 9ebc 309e 163f d448 acbd 9950 be3c
000002c0: 5ee3 63be dbde d33d 4b92 863d 3569 c43d
000002d0: ff7b fbbf dc7a b63e 258a 613e 4968 163e
000002e0: da6c 4e3f 31a0 383e 50af 96bd 7a9f 1f3e
000002f0: e21d 983e 3d6f a53e 97f0 1fbb 96a3 4cbe
00000300: ea25 b9bc d143 3cbe 97b6 dc3d 0f8b 893d
00000310: ef82 e83d 6fa9 a1be c738 9dbc 878f 233d
00000320: 2b4c d23c cbac dabe e17b 673e 931d bc3e
00000330: d249 af3d 8bb2 f73d 8b5e fb3e 82f4 de3e
00000340: 3e78 823e 6dd6 8e3d 2a85 50bd 0413 0ebf
00000350: 4db6 893e 87d3 ca3e f487 90be 977b ba3e
00000360: 2bc7 0a3e 89e0 fb3d bd70 7f3e cf6e 91bd
00000370: 190f c4bd 3b7f 903e 15f6 993e ee3b b2be
00000380: d7e9 823e 9f9d a33e 5886 24be 43d9 ad3c
00000390: 0f6b 783e ed1b 323e aca4 44be 8781 ccbe
000003a0: 8727 3e3d 4817 793d 086b 0e3e c96e bcbd
000003b0: 02bb bcbd 2f3b 9e3e 536b a4bd a092 643e
000003c0: b9e1 2abb 3ce6 dfbb 2211 513d ba14 183b
000003d0: 6c50 e43b aea7 91bc 7d33 003d d60d cd3e
000003e0: fd06 253b c71b f5bb 48ee 83bb 593b 62bd
000003f0: 1341 fb3b 51fa 1e3d 0e66 12bc 63b2 243c
-0.023818446 0.08105761 -0.081865974 -0.0056237085 -0.0005204251 -0.014327181 0.11328198 0.09120099
-0.078228794 -0.038016807 0.021197783 0.094084315 -0.023779944 -0.069138 -0.020991812 0.16117682
0.019011686 0.18817163 -0.021360137 0.076053835 -1.6695412 0.07972131 0.037242595 0.043617588
0.06425784 -0.016831769 0.06467043 -0.09569485 0.022337364 -0.0689286 -0.023745047 0.072652265
-0.010119492 0.0029492732 0.13562213 0.081131496 -0.23810183 0.024048679 0.2623742 0.013278656
-0.10536148 -0.046654265 -0.13981712 -0.0040402375 0.047165886 0.058089215 0.118688166 0.049565528
-0.0078453375 0.12517335 -0.014085768 -0.019574504 0.055666044 0.015755324 0.049316864 0.11760661
0.036215693 0.04058749 0.13165262 -0.08765074 0.04649969 -0.061767556 -0.0415499 0.016050601
-0.14823768 -0.08441845 -0.011550039 -0.040581163 0.044406403 0.13338944 0.045664765 -0.019857671
0.08779755 0.06837096 -0.19466095 0.17073597 0.09235162 0.10245609 0.009547304 0.113866836
0.045296337 -0.019977346 -0.062860355 -0.0032384524 0.035679933 -0.06592258 -0.0027927742 0.07414328
0.0052396497 -0.008387531 -0.019064058 -0.07293877 -0.02743426 0.02235356 -0.009676332 0.052084614
-0.028863141 0.22160307 -0.016231606 0.09240211 -1.8668568 0.1545943 0.17471974 0.04134512
0.16677536 0.0933441 0.021612514 -0.02306241 0.17741105 0.11424254 0.14645219 0.023710383
-0.01124942 0.05896306 -0.012934549 -0.033512283 0.14301689 0.021402568 0.300662 0.013389289
0.14880277 -0.014649952 -0.11092787 0.03554597 0.01686214 0.03782948 -0.056588154 0.0020389585
-0.0061301985 -0.024155905 0.1089069 0.0008253321 0.060616687 -0.0068072123 0.04512393 -0.0070823594
0.06907919 0.084092475 0.30760822 0.14914486 0.08992921 -0.004571512 0.009962557 -0.015034688
0.13161257 0.14706534 0.039968837 -0.027345648 -0.06520021 -0.022166325 -0.022811683 0.13543704
0.085258275 0.0435716 0.055978216 -0.25802284 -0.06326059 0.051593423 0.14564648 -0.07112211
-0.08301366 -0.07216312 -0.12243473 -0.26789707 -0.07232053 -0.085885815 0.10201782 -0.1328992
0.47535324 -0.12863772 -0.029862244 -0.47585335 -0.019330893 0.58835125 -0.08412328 0.023231791
-0.22254702 0.10345241 0.06570872 0.09590379 -1.9647216 0.3564061 0.22025354 0.14688219
0.80634844 0.18029858 -0.07357657 0.15588179 0.297103 0.3231143 -0.0024404877 -0.19984278
-0.022601087 -0.18385245 0.10777014 0.067159764 0.113530986 -0.3157458 -0.019192113 0.0399318
0.025671085 -0.42709956 0.2260585 0.36741313 0.08559002 0.12094601 0.49095568 0.4354592
0.25482363 0.06974492 -0.050908245 -0.55497766 0.26896897 0.39614508 -0.28228724 0.36422417
0.13552539 0.12298686 0.2494535 -0.07101213 -0.09573192 0.2822207 0.30070558 -0.34811348
0.2556903 0.31956193 -0.16066873 0.021221763 0.2425959 0.17393465 -0.19203442 -0.39942572
0.046424415 0.06081322 0.13908017 -0.09200818 -0.092153564 0.30904528 -0.08028283 0.22321558
-0.0026074483 -0.006832866 0.05104173 0.0023205713 0.006967595 -0.017780151 0.031299103 0.40049618
0.0025181167 -0.007480118 -0.004026208 -0.05523238 0.0076676696 0.03881294 -0.008935465 0.010052296

deconv1.bias f4 [16]
00000000: d0d5 b13e b36e 583e ed75 ea3d 8632 21be
00000010: ad27 16be 0080 423e 1ca8 b23e b0b0 803e
00000020: be1c cf3d c866 aabd 5bf8 a03e ca20 fbbd
00000030: 717c 533e 010c 043e 1928 853e d31f b13e
0.34733438 0.21135978 0.11448274 -0.1574193 -0.14663573 0.1899414 0.34893882 0.25134802
0.10112904 -0.08320385 0.3143948 -0.122621134 0.2065294 0.12895204 0.26007155 0.34594592

deconv2.weight f4 [16, 32, 5]
00000000: ab09 3abd 0379 683e d789 d8bd 3287 73bd
00000010: 7dd7 a33d a5b2 603e e63a a73d f80b 003f
00000020: 9f6f f73d 7a5c 763e ecac 9a3d 8484 283e
00000030: 046e a73e f140 f63d ad85 be3d cde1 39bd
00000040: 82fe 9b3c c404 3c3e 1639 f7bc 2cae 093d
00000050: 7256 7e3c f268 88bd 3ab0 64bd 67f3 28bd
00000060: 10f6 bf3c 376d 98bc 590d 31bd f13f 51bd
00000070: 869d c0bd fa2b ad3c cb04 153d 209f 3b3d
00000080: c9a5 3f3e 5ee6 41be c46e 4a3d 4c6c 613d
00000090: c4d4 243d 96f0 583b c079 3a3d f818 6dbc
000000a0: 9a94 3d3e 9667 93bd 3d09 8c3d 073f b5bc
000000b0: 22cf 0dbe 78a6 dd3d cf38 1bbe ae71 363d
000000c0: e91d 05bd 97d0 0abd 3e6c 64be bf8a 4f3d
000000d0: 6bb2 42bf 42a4 60bc eb84 2c3d d767 7fbc
000000e0: 1ef9 8bbc 0eef d4bb 2f0b 813c 5ac8 a43c
000000f0: 518d 5a3d f5a6 25bd c163 44bd f981 90bd
00000100: 5022 c3bd 2dc1 973f 2e72 bbbe 02df 9bbd
00000110: 33db b0be 314b d0be 19e4 c5be 4ae0 f4bd
00000120: d944 05bf a71d 77be 05c4 803e fffe 6abe
00000130: 84f7 b6bd 91d9 0dbc 95ec 5b3d 5944 a5b9
00000140: 7ce4 d13b 4b9c 09bd 3b0e 613d 7ef7 63bd
00000150: 2fb2 94bd 7f0b 00bf 3382 d0bd 70c2 28bd
00000160: 4873 493d 5c9f 9b3e 3050 173e f9a5 de3e
00000170: ce9b 583e fcab ba3b a121 9c3e 6f9e 23be
00000180: 5178 8e3d 776d 013e 1e8d 493b 53f3 1d3d
00000190: 0856 e33d 576d 113d 4177 a3bd 3ea6 1d3e
000001a0: 4606 8c3c b1b7 9d3c b624 c6bb b5f6 83bb
000001b0: c03c bdbe 8c83 89bc 00d3 93bc 5a11 9abd
000001c0: fc54 48bd 10f3 a6bd 0144 71bd 5f51 a8bd
000001d0: 5e79 b6bf da15 63be f0ab b83c 34a6 283c
000001e0: 595d ea3d c8c1 87bd 988d babd 5413 3fbd
000001f0: bbcc 7e3e 3cd5 b4bd 2ba3 823e 95ff 32be
00000200: 4678 623b b426 9b3d 01bc 153d ad26 383d
00000210: 0f7f 4fbd bd4d 8ebd 7a5c b23c 3e52 573e
00000220: 8669 0bbe e67a b9be b682 acbe 18e3 323e
00000230: 9bc3 b2bc 8a79 81bd f705 533e 586f 003e
00000240: e385 913d 212e 6dbd 5b22 413d c6fa c6bd
00000250: fd55 2b3d ec55 b2bc 3a2d 303d 28ba 8f3e
00000260: d445 9bbc bcfe c03d 0606 e43d e173 9ebc
00000270: 4fec 6c3e 7987 f13e 523f 79be 5da8 9c3d
00000280: 732e d43c 82d2 81bd 6649 af3d 0e80 b63d
00000290: a514 4f3d 471f 2bbe 37b1 c1bd 67b8 e8be
000002a0: 74ce 2e3e 5e1f 1b3e 699d 0fbd 0e09 a83d
000002b0: 3c5f 0f3e 309c 293e 1904 fb3d d8be 8fbd
000002c0: 7875 813b 544f afbb 2705 cdbb 0187 32bd
000002d0: 04f3 2abd 0297 ec3c 5d7b 71bd 2e6c b33c
000002e0: 231c 15bc a529 6b3e 43b8 bf3d 726a d8bc
000002f0: 4900 aebc 68f6 12be f619 aebd 4c4f 9cbd
00000300: c2dd 633e 91e4 de3d d44c 0e3d b8ed e1bc
00000310: 88e3 4a3e b6c5 5c3e 779b 803d 9629 c2bd
00000320: f26f c13e e588 4f3e d204 14bd bd1c 913d
00000330: 4c51 4fbd 4231 083e 8b6b f83d 3f14 4d3e
00000340: 9a79 4fbd db9d c3bd 0a7c 0b3e 7d19 8dbd
00000350: 621e 10be d2b7 fc3c c9fe 433d 29bf 15bd
00000360: bb63 f43b b5c7 aebd 3fa1 8dbd bf0a 883c
00000370: 6428 d63a 747c 8ebd 5616 96bd 89bc cf3c
00000380: 3dbc 2ebd 1179 043e f672 163e 0746 28be
00000390: 19f9 363e 3fef 65bd 8458 21bd b70b 0c3f
000003a0: 17e7 9cbe 2384 84be a085 9dbe 298c 613d
000003b0: 4c35 d7bd aab0 9cbd c4d2 113e 318f 183d
000003c0: 5eee c0bd 7c6e fe3b 17a9 b1bd 9c66 8cbe
000003d0: b639 c63c b5ce 0cbf 95e3 9ab9 4647 dd3b
000003e0: 587b e43d 322b dbbc 5919 c8bd 7b52 3cbe
000003f0: c91a 6f3e 840b 7bbe 37f9 a53d ea7b f73c
-0.045419376 0.22702412 -0.10573166 -0.059455104 0.080000855 0.21943147 0.08165531 0.5001826
0.12081837 0.24058715 0.075525135 0.164568 0.32701123 0.12024105 0.093028404 -0.045381356
0.019042257 0.18361193 -0.030178588 0.03361337 0.01552354 -0.06660642 -0.055832125 -0.04124775
0.023432761 -0.018606765 -0.04322562 -0.05108637 -0.09405045 0.021139134 0.036381524 0.04580605
0.18715586 -0.18935534 0.04942204 0.05503492 0.04024197 0.0033102385 0.045526266 -0.014471285
0.18513718 -0.07197492 0.068376996 -0.02212478 -0.13848546 0.10822767 -0.1515839 0.044542007
-0.032499228 -0.033890333 -0.22306916 0.050669428 -0.76053494 -0.013711037 0.042118948 -0.015588722
-0.017086562 -0.006498224 0.015752403 0.020115066 0.053357426 -0.040442426 -0.047946695 -0.0705604
-0.09528029 1.1855828 -0.3661055 -0.07610895 -0.34542236 -0.40682366 -0.38650587 -0.11956842
-0.5205818 -0.24132405 0.2514955 -0.22948836 -0.089339286 -0.008657829 0.05369242 -0.00031522175
0.0064054113 -0.03359632 0.05494521 -0.05565595 -0.07260548 -0.5001754 -0.101810835 -0.041201055
0.049182206 0.3039502 0.14776683 0.43486002 0.21153185 0.0056967717 0.30494407 -0.15978406
0.06956542 0.12639414 0.0030754278 0.03856213 0.111003935 0.035504665 -0.0798173 0.15395448
0.017092835 0.01925263 -0.0060468568 -0.0040272125 -0.3696041 -0.01678636 -0.018044949 -0.07522841
-0.048909172 -0.08151829 -0.058902744 -0.08218645 -1.4255788 -0.22176304 0.022542924 0.010293532
0.11443586 -0.06628758 -0.09109038 -0.046649292 0.24882786 -0.08829734 0.25515112 -0.1748031
0.0034556552 0.075757414 0.036556248 0.04495876 -0.050658282 -0.06948421 0.021772612 0.21027467
-0.13614473 -0.36226577 -0.33693475 0.17469442 -0.021821788 -0.0632201 0.20607744 0.12542474
0.07105615 -0.05790532 0.047151905 -0.097158 0.04183005 -0.021769486 0.04301188 0.28071713
-0.018954195 0.09423587 0.111339614 -0.019342365 0.2313702 0.4717367 -0.24340561 0.076493
0.025901055 -0.06338979 0.085589215 0.08911143 0.050556798 -0.1671115 -0.09457629 -0.45453188
0.17070943 0.15148684 -0.035062227 0.08204852 0.14001173 0.16563487 0.12256641 -0.070188224
0.003950771 -0.005350033 -0.0062567177 -0.04358578 -0.041735664 0.0288806 -0.05895554 0.02190217
-0.009100947 0.22965105 0.09361317 -0.026417945 -0.02124037 -0.14351809 -0.085010454 -0.07632312
0.22252563 0.10883439 0.034741238 -0.027579173 0.19813359 0.21559796 0.062796526 -0.09480588
0.3778072 0.20267065 -0.03613741 0.070855595 -0.05061464 0.1330004 0.12129887 0.20027255
-0.050653078 -0.09551593 0.13621536 -0.06889627 -0.1407409 0.030849371 0.047850404 -0.036559258
0.007458178 -0.08534185 -0.06915521 0.016606687 0.0016338942 -0.06957331 -0.07328479 0.025358455
-0.042659987 0.12936808 0.14692292 -0.16432963 0.1786846 -0.056136366 -0.039391056 0.54705375
-0.30645058 -0.25882062 -0.3076601 0.055065308 -0.105082124 -0.076508835 0.14240557 0.037245933
-0.09420465 0.0077646356 -0.086748295 -0.27422035 0.02419744 -0.5500291 -0.0002954273 0.006752881
0.111563385 -0.026753996 -0.0977046 -0.18390839 0.23350061 -0.24516112 0.081041746 0.030210454

deconv2.bias f4 [32]
00000000: ec8b 0e3e ae8e 633e a77f 083e 6ef7 d3bd
00000010: 52aa 87bd a18c d23d e750 86bd af9d 1cbe
00000020: 5b3f 93bc 5fa9 ae3d 9796 2c3e 38ae abbc
00000030: 01a3 d4bd 9862 1ebd 4c32 8f3e 0261 a93d
00000040: 2d86 02be ae35 9cbd ec2d 443e d72a c8bd
00000050: 03cb 043d a7fa 81bd ae70 a23d 5b46 bf3d
00000060: 2191 043e 7d13 b93d 6ba7 c7bd be49 8d3c
00000070: 5d40 c43d 5cea 15bd c968 913d 6104 78bc
0.13920563 0.22222397 0.13329946 -0.10349928 -0.06624283 0.10280729 -0.065584 -0.15294527
-0.017974546 0.08528399 0.1685432 -0.020957097 -0.10382653 -0.038668245 0.2796806 0.08270456
-0.12746496 -0.07627426 0.19158143 -0.09773796 0.03242017 -0.06346636 0.07931648 0.09339591
0.12945987 0.0903692 -0.09748729 0.017247077 0.09582589 -0.036600456 0.07100064 -0.015137763

deconv3.weight f4 [32, 1, 5]
00000000: 6e92 4ebe 4126 e13e 8eef 8b3e 94b6 b13d
00000010: e574 163d d4dd dcbd ea6e 23be 5b22 913e
00000020: ed56 0c3f 9ce9 b93e b35c cd3b 48ca 933e
00000030: 4ddc ec3e a4f3 ef3e 820f 093f d69e 53be
00000040: 1691 e5bd ec0f ecbe 8954 91be a9c5 f63e
00000050: 151c bdbe 9f86 a2be 57f7 89be cb2b a43e
00000060: adea 2abe 3c85 eabd fbf8 bfbe 9823 d53e
00000070: 924d e63d 5b46 d3be 1ed4 1b3e ce2a 06be
00000080: a8c5 273e 5836 c83e a79d a93e d58c ca3e
00000090: df35 d63e 2e91 dabd c677 2a3e 5b16 a73e
000000a0: 8b32 0cbe 826d e0be 3d72 debe b4b4 333d
000000b0: 9cc9 273e cb4d 0e3d 9738 053f 042f fd3d
000000c0: adc9 b83e 4114 7fbd f960 9b3e 0612 043e
000000d0: 48ce 213d 226d 43bf d362 c7bd 14d7 17be
000000e0: 8102 37be b325 e3bc 79b0 6e3d 2d7d 02be
000000f0: 87ce af3e 8680 fb3c b08a b2be 2bf3 42be
00000100: c9cf 8c3e 5af0 d0be f9e4 1abf 60fc 98be
00000110: 64ef 93be 5f6b 343d 3d89 58be 0d2d bfbe
00000120: b5a0 2c40 0372 fb3d 8a2b de3d 85bb ffbc
00000130: 92cd 94be 1f89 02bf 933d 343d bcc4 19bf
00000140: d6da babe 2763 d4bf 1f25 0440 ef5a 8cbd
00000150: 407a 07bd 34cc 79be b996 7dbe 3a9a 0ebf
00000160: fffa 1dbe 0851 b13d 0b40 a83e 8651 9d3e
00000170: 4544 11bf 8637 96be 4cca 90bd 2c9a b1bd
00000180: a815 5abe e8b0 ebbe b965 aabe e2f5 c53e
00000190: 38bd bdbe a6df 80be 3b80 ccbd d527 05bf
000001a0: 577d 5ebe 67e5 0e3f ede0 3f3e 2ce0 f03e
000001b0: ceb7 173f 4f64 fb3e 9676 bc3d 2c1d 863d
000001c0: eef0 943d ff12 a5be 475b 06bf e69e d0bd
000001d0: c025 533d d8d1 f3be 246a 6cbf f9fb 60be
000001e0: 1d5b 66be 04a5 a4be 5ff9 02bf e1ec 40be
000001f0: 58a0 ee3d d299 063f 6134 bd3e 4207 c03d
00000200: 1049 2bbe 689e 97bd 8ff4 7e3d c6de 183d
00000210: 1a19 1ebc cccd eebd 2413 df3e b546 02be
00000220: 05cc dbbe a866 1dbf 9fc4 96be 5e06 21bd
00000230: 8ab7 013d 0264 1abe 8e68 8f3e 25a4 513e
00000240: 7f6c cebc 7216 b3bb 3cef 65be 9742 393f
00000250: aaa5 a83e 7c3c d0bc ef10 c03e 7702 473e
00000260: de21 d73d 7fed e83e 5eda bcbd 26bf 36be
00000270: 1b89 d43e 2a01 b13e 575c 193e 4e5a c9bc
-0.20173046 0.43974498 0.27331203 0.08677402 0.036732573 -0.10784498 -0.15960279 0.28346524
0.5482014 0.36311042 0.006267154 0.28865266 0.46261826 0.4686557 0.5353929 -0.2066606
-0.112093136 -0.46105897 -0.28384808 0.48197678 -0.36935487 -0.31743333 -0.26946518 0.3206466
-0.16691084 -0.11451194 -0.37494645 0.41628718 0.11245264 -0.41264614 0.15217635 -0.13102266
0.16383994 0.3910396 0.33128092 0.3956057 0.41837975 -0.10672222 0.16647252 0.32634243
-0.13691156 -0.43833548 -0.43446532 0.043873504 0.16385502 0.034742158 0.52039474 0.12362483
0.36091366 -0.062275175 0.30347422 0.128975 0.039503366 -0.763384 -0.09735646 -0.1482814
-0.17872049 -0.027727937 0.058273766 -0.12743063 0.34337255 0.030700933 -0.34871435 -0.19038074
0.27502277 -0.40808374 -0.60505635 -0.29880047 -0.28893578 0.04404771 -0.21146102 -0.3733906
2.6973088 0.122776054 0.10848148 -0.031217346 -0.29063088 -0.5099048 0.044004034 -0.6006582
-0.36495084 -1.6592759 2.0647657 -0.06853282 -0.03307557 -0.24394304 -0.24764527 -0.5570408
-0.15427779 0.086580336 0.3286136 0.3072626 -0.56744796 -0.29339236 -0.07069835 -0.08671984
-0.21297324 -0.46033406 -0.33280733 0.38664156 -0.37058425 -0.2517063 -0.099853955 -0.52013904
-0.21727501 0.5581879 0.18738146 0.4704603 0.5926484 0.49099967 0.09202306 0.06548533
0.07272516 -0.32241055 -0.5248303 -0.101865575 0.051549673 -0.47621036 -0.9234946 -0.2197112
-0.22495694 -0.32157147 -0.5116176 -0.18840362 0.11651677 0.5257846 0.36954024 0.09376384
-0.1672709 -0.074032605 0.062244948 0.03732183 -0.009649539 -0.116603464 0.4356929 -0.12722285
-0.42929092 -0.61484766 -0.29446885 -0.039312713 0.031669177 -0.15077212 0.28009456 0.20472772
-0.02519822 -0.005465322 -0.22454542 0.72367233 0.32938892 -0.025419466 0.3751292 0.19434534
0.105045065 0.45493695 -0.09221338 -0.17846355 0.41510853 0.345712 0.14976631 -0.024579193
