models/SNN_QuantAutoencoder_tsri_quant8_new.pth (torch, 31637 bytes, 16 tensors)

encoder_conv1.weight f4 [24, 1, 5]
0.033963375 0.06693647 0.15831514 0.8658392 1.0816882 -0.3711223 1.4045724 0.24092615
-0.06687555 0.0066591203 -0.078157775 -0.05456175 0.7735811 0.84955543 0.83327377 0.16886549
0.16956347 0.04449543 -0.16603768 -1.6793095 -0.11353785 0.029270858 0.21111064 0.078225166
0.0058386754 -0.5980416 -1.4033347 -0.080283284 -0.07681627 0.12401499 0.18266459 1.0210261
0.75045025 0.5632917 0.15982102 -0.05910982 -0.41150132 -1.6530718 -0.3019117 -0.036744982
1.6172719 0.17189547 0.09013658 0.23902185 -0.10096584 -0.16923036 -0.25590894 -0.3170678
0.09401943 0.036902368 -0.0012946003 0.06437135 -0.3692438 0.98012763 0.50298715 -0.33173302
0.2948561 0.945298 0.2719697 -0.009494089 0.8812973 0.9026436 0.12016769 0.13325536
0.02919483 -0.12806267 -0.07068128 -0.4035856 -0.27429146 -0.14815584 0.3802023 -0.26050302
0.09731464 -0.41172037 -0.030176982 -0.24653083 -0.27474558 1.456771 -1.0189406 -0.8414969
0.24204223 0.99830395 0.81258476 -0.12700447 -0.095664434 0.0647126 -0.39018968 0.04463668
0.28204393 -0.08706231 0.21581595 -0.41315526 -0.78233844 -0.905532 0.016007576 0.40819964
0.044222116 0.33693346 0.7758949 0.008707641 -0.25113037 0.16781302 0.062054064 -0.20334855
-0.34974495 0.3013183 0.7868612 0.73278266 -0.023207018 0.29069296 0.1318226 0.19708908
0.64570063 1.1908684 0.32622534 0.50186765 0.012426073 0.20160858 0.016859341 0.70478445
00000000: 2e1d 0b3d fd15 893d 5d1d 223e a3a7 5d3f
00000010: c274 8a3f be03 bebe 07c9 b33f 58b5 763e
00000020: 0cf6 88bd c034 da3b 2f11 a0bd 247c 5fbd
00000030: 6909 463f 777c 593f 6e51 553f 13eb 2c3e
00000040: 0ca2 2d3e d740 363d c805 2abe 9df3 d6bf
00000050: 8886 e8bd 70c9 ef3c 632d 583e 8434 a03d
00000060: 5c52 bf3b 4119 19bf 79a0 b3bf 906b a4bd
00000070: d951 9dbd 92fb fd3d 6d0c 3b3e fcb0 823f
00000080: 821d 403f e333 103f 1fa8 233e 231d 72bd
00000090: 4db0 d2be db97 d3bf 2c94 9abe e881 16bd
000000a0: c402 cf3f 5e05 303e 8799 b83d 25c2 743e
000000b0: 2ec7 cebd b94a 2dbe 7f06 83be b656 a2be
000000c0: 428d c03d f026 173d 94af a9ba 20d5 833d
000000d0: 860d bdbe a5e9 7a3f c4c3 003f e9d8 a9be
000000e0: 61f7 963e 0dff 713f 9d3f 8b3e 188d 1bbc
000000f0: b39c 613f a713 673f 7a1a f63d 1874 083e
00000100: ff29 ef3c dc22 03be 59c1 90bd c6a2 cebe
00000110: ee6f 8cbe 2ab6 17be e0a9 c23e a760 85be
00000120: e64c c73d 03cd d2be b835 f7bc 9472 7cbe
00000130: 74ab 8cbe 7977 ba3f a56c 82bf 576c 57bf
00000140: ebd9 773e d990 7f3f 8e05 503f 760d 02be
00000150: b7eb c3bd 0a88 843d f1c6 c7be f4d4 363d
00000160: 1068 903e b94d b2bd dbfe 5c3e 1689 d3be
00000170: 5547 48bf f2d0 67bf 5222 833c 8bff d03e
00000180: 4022 353d 8b82 ac3e 0ca1 463f 7eaa 0e3c
00000190: 2994 80be 2dd7 2b3e 672c 7e3d 9a3a 50be
000001a0: c511 b3be 6446 9a3e bc6f 493f a597 3b3f
000001b0: a51c bebc b5d5 943e 81fc 063e b8d1 493e
000001c0: a34c 253f 606e 983f 0207 a73e 667a 003f
000001d0: ba96 4b3c 7b72 4e3e 9a1c 8a3c c16c 343f

encoder_conv1.bias f4 [24]
-0.6920689 0.33630478 -0.33487913 1.2368755 -0.2423963 1.0847839 -0.31414792 1.4128735
-0.4748841 0.096930146 0.06710372 0.1332781 -0.51626265 -0.42995745 -0.23084424 0.24316101
-0.3433596 -0.12891354 1.1956314 -0.04637432 -0.1293747 0.0013166724 -0.6328144 0.37985435
00000000: 6d2b 31bf 2430 ac3e 4775 abbe f051 9e3f
00000010: bc36 78be 33da 8a3f ffd7 a0be 0ad9 b43f
00000020: 0224 f3be 5083 c63d ad6d 893d 0e7a 083e
00000030: ca29 04bf 6223 dcbe 6f62 6cbe 33ff 783e
00000040: d4cc afbe e901 04be 730a 993f 00f3 3dbd
00000050: cd7a 04be 3294 ac3a 2000 22bf 457c c23e

encoder_conv1.bias_quant.frozen_k f4 [24]
-7.0 -6.0 -7.0 -6.0 -9.0 -6.0 -7.0 -6.0
-6.0 -9.0 -7.0 -7.0 -7.0 -8.0 -8.0 -6.0
-7.0 -8.0 -7.0 -7.0 -9.0 -7.0 -7.0 -7.0
00000000: 0000 e0c0 0000 c0c0 0000 e0c0 0000 c0c0
00000010: 0000 10c1 0000 c0c0 0000 e0c0 0000 c0c0
00000020: 0000 c0c0 0000 10c1 0000 e0c0 0000 e0c0
00000030: 0000 e0c0 0000 00c1 0000 00c1 0000 c0c0
00000040: 0000 e0c0 0000 00c1 0000 e0c0 0000 e0c0
00000050: 0000 10c1 0000 e0c0 0000 e0c0 0000 e0c0

encoder_conv2.weight f4 [12, 24, 5]
0.1249827 -0.70594776 0.22937025 -0.18934502 0.09941898 -0.035772324 0.12880215 0.02975062
0.07619294 0.057899363 -0.13064447 -0.15499754 0.054434028 -0.0045836666 -0.07678665 0.43154782
0.4203493 -0.27227 0.27595818 0.032371666 -0.07440286 -0.001099512 0.045948997 -0.07525663
0.05630386 -0.09659363 -0.12595733 -0.08957271 -0.04706221 -0.022364952 0.035439987 0.06591863
-0.051346224 0.06353992 -0.03883072 -0.038689762 -0.53098387 -0.3405 -0.22482279 0.041868586
-0.020304296 -0.16904819 -0.2236362 0.23939075 -0.8645824 -0.04658931 0.050304145 -0.026086114
-0.0023312792 0.012264416 -0.041028943 -0.38818815 0.123274416 -0.032924484 -0.042681053 -0.056636985
0.1239056 -0.061941925 0.16568398 0.032747783 -0.056421354 0.046545636 -0.15656407 0.14556263
-2.0190587 0.0003636405 0.05504556 -0.060097247 -0.06996421 0.08413611 -0.030560357 0.08703708
0.05895914 0.08288471 -0.06146279 0.016437665 0.4561816 0.07160783 0.14571892 -0.041766256
-0.03420386 0.18290696 -0.009494112 0.105147764 -0.03617255 0.03276212 0.08845088 0.032293957
-0.07383464 -0.058119543 -0.10166772 -0.06399355 -0.14049838 -0.040668488 0.056054804 0.073041655
-0.20792685 -0.02230633 0.12053571 -0.08236613 -0.060125373 -0.03381625 0.052874684 0.037845775
-0.021232493 -0.110348575 0.1425744 -0.028786132 0.12941928 0.008945888 0.060569897 -0.29062086
0.10172916 0.11218321 0.38419273 -0.08082165 -0.1192496 -0.037494387 0.06699613 0.018510954
0.16320017 0.095384166 -0.04716249 -0.014505461 -0.008317042 0.042126905 -0.08267092 -0.20589542
-0.052703314 0.009641128 0.0121754445 0.022934275 -0.0034083761 -0.064150594 0.09697018 -0.08126171
0.063048124 -0.0072760843 -0.07036759 -0.051204883 -0.049667623 0.04246439 0.021492362 0.04100716
-0.06970421 0.074746184 0.107851155 0.22649224 0.09524417 -0.05242621 0.029961154 -0.10933166
-0.15249136 -0.13097568 0.071018614 0.16053918 0.012390405 0.7067782 0.34619674 0.021390911
-0.03935274 0.32248035 0.18602633 0.06903962 0.1262917 0.057840273 -0.08030066 0.038036406
-0.08366986 -0.07783109 0.02945545 -0.049448133 0.041274507 0.012200016 0.10337432 -0.0434761
-0.04995587 -0.3849676 -0.040807504 -0.022753833 0.046183035 -0.031344384 -0.48330674 -0.19613625
-0.021196553 -0.09121456 0.060885847 -0.048226483 -0.08894007 -0.028905474 0.00911825 0.035510566
-0.036245152 0.028294073 -0.0021820234 -0.07668553 0.068132 -0.018406061 -0.041481614 -0.06615326
-0.11682296 -0.080126226 -0.0373053 -0.16383508 -0.026769577 -0.062281776 0.006103326 -0.045655902
0.030123696 -0.06520326 0.054432124 0.0647901 0.2098597 0.114441775 -0.1414379 -0.16024163
0.07110298 0.0055042533 -0.03946564 0.044741023 0.06274961 -0.046268035 -0.0135181695 -0.09087068
-0.010364853 -0.06027559 0.041921303 -0.26248154 -0.10251185 -0.03884618 -0.041108575 -0.011222797
0.064114794 -0.13999914 0.10912341 -0.034705896 0.028015196 -0.010531862 -0.07260477 -0.08384892
0.025644468 -0.021895502 -0.094912775 -0.0075717377 0.15355934 0.04660514 0.0061924644 0.003384218
0.16314542 0.04365683 -0.027273 0.115348056 -0.008798243 0.021694465 0.11744916 -0.017100371
00000000: eef6 ff3d feb8 34bf 09e0 6a3e a9e3 41be
00000010: 2e9c cb3d 0086 12bd b6e4 033e 92b7 f33c
00000020: 0b0b 9c3d e227 6d3d aac7 05be adb7 1ebe
00000030: 37f6 5e3d 9532 96bb 5242 9dbd d6f3 dc3e
00000040: 0638 d73e f966 8bbe 644a 8d3e 2798 043d
00000050: 8760 98bd 801d 90ba 0435 3c3d 2620 9abd
00000060: e09e 663d e2d2 c5bd f5fa 00be e671 b7bd
00000070: 4ec4 40bd b436 b7bc 8529 113d 5900 873d
00000080: 6b50 52bd 3821 823d f60c 1fbd 2879 1ebd
00000090: 8fee 07bf 0456 aebe f237 66be 657e 2b3d
000000a0: 3255 a6bc f81a 2dbe e300 65be d922 753e
000000b0: 4655 5dbf 6fd4 3ebd b80b 4e3d 8cb2 d5bc
000000c0: 60c8 18bb b0f0 483c f70d 28bd 99c0 c6be
000000d0: 4c77 fc3d d3db 06bd 54d2 2ebd 2ffc 67bd
000000e0: 38c2 fd3d d1b6 7dbd 10a9 293e 8a22 063d
000000f0: 141a 67bd a3a6 3e3d 5552 20be 5f0e 153e
00000100: 4238 01c0 00a7 be39 7477 613d 8828 76bd
00000110: 6549 8fbd 8e4f ac3d b759 fabc 7f40 b23d
00000120: 247f 713d 75bf a93d 68c0 7bbd 48a8 863c
00000130: a290 e93e 20a7 923d 5737 153e 1813 2bbd
00000140: 5919 0cbd f64b 3b3e 318d 1bbc b657 d73d
00000150: ab29 14bd 9331 063d bc25 b53d ab46 043d
00000160: 9e36 97bd c20e 6ebd 2a37 d0bd 0d0f 83bd
00000170: cfde 0fbe 0094 26bd b999 653d dd96 953d
00000180: c7ea 54be c4bb b6bc 6ddb f63d 93af a8bd
00000190: 0646 76bd e882 0abd 2093 583d 2c04 1b3d
000001a0: c4ef adbc 6ffe e1bd 06ff 113e e5d0 ebbc
000001b0: 7d86 043e c691 123c 2418 783d 42cc 94be
000001c0: 6157 d03d 50c0 e53d e9b4 c43e d285 a5bd
000001d0: 2239 f4bd b793 19bd 4435 893d 49a4 973c
000001e0: f21d 273e c658 c33d 752d 41bd 50a8 6dbc
000001f0: 3444 08bc 438d 2c3d 5f4f a9bd 40d6 52be
00000200: 6edf 57bd d2f5 1d3c 847b 473c a9e0 bb3c
00000210: 105f 5fbb 6361 83bd 4d98 c63d 8a6c a6bd
00000220: 601f 813d 386c eebb e21c 90bd 36bc 51bd
00000230: 4770 4bbd 24ef 2d3d c010 b03c 20f7 273d
00000240: 15c1 8ebd 8714 993d 11e1 dc3d 95ed 673e
00000250: 600f c33d debc 56bd 1871 f53c 47e9 dfbd
00000260: b226 1cbe 7d1e 06be 3572 913d 6264 243e
00000270: 2001 4b3c 6bef 343f b340 b13e fe3b af3c
00000280: 5730 21bd 251c a53e b07d 3e3e a564 8d3d
00000290: 9d52 013e ece9 6c3d ac74 a4bd 10cc 1b3d
000002a0: 1b5b abbd e865 9fbd 8e4c f13c 208a 4abd
000002b0: 750f 293d 93e2 473c eab5 d33d ff13 32bd
000002c0: 879e 4cbd 791a c5be c525 27bd 3f66 babc
000002d0: 6c2a 3d3d f862 00bd fb73 f7be f1d7 48be
000002e0: 65a4 adbc b3ce babd 7063 793d 2289 45bd
000002f0: 3626 b6bd 2ccb ecbc b664 153c 8773 113d
00000300: cc75 14bd f9c8 e73c 4700 0fbb 4e0d 9dbd
00000310: ca88 8b3d 4fc8 96bc a0e8 29bd 5c7b 87bd
00000320: e040 efbd 3819 a4bd 71cd 18bd 62c4 27be
00000330: df4b dbbc 2d1b 7fbd 69fe c73b af01 3bbd
00000340: f8c5 f63c 4989 85bd 38f4 5e3d acb0 843d
00000350: 76e5 563e 7360 ea3d 19d5 10be 6216 24be
00000360: 709e 913d 065d b43b b9a6 21bd 5d42 373d
00000370: de82 803d 8d83 3dbd 507b 5dbc 681a babd
00000380: 58d1 29bc 89e3 76bd acb5 2b3d fb63 86be
00000390: bcf1 d1bd 2c1d 1fbd 7761 28bd d3df 37bc
000003a0: 9e4e 833d ef5b 0fbe 187c df3d c527 0ebd
000003b0: 2080 e53c d58d 2cbc cfb1 94bd fcb8 abbd
000003c0: 5914 d23c 325e b3bc a161 c2bd 571c f8bb
000003d0: a93e 1d3e 08e5 3e3d 28ea ca3b c2c9 5d3b
000003e0: 980f 273e 81d1 323d a06b dfbc 9a3b ec3d
000003f0: 8126 10bc 97b8 b13c 2f89 f03d 1416 8cbc

encoder_conv2.bias f4 [12]
0.9520893 0.7300292 0.967559 1.0147727 0.8765342 0.8703168 0.92182153 0.5158099
0.8942622 0.73067594 0.68743885 1.02359
00000000: 20bc 733f 32e3 3a3f f2b1 773f 12e4 813f
00000010: 8c64 603f 15cd 5e3f 7ffc 6b3f 1e0c 043f
00000020: 5eee 643f 940d 3b3f fefb 2f3f ff04 833f

encoder_conv2.bias_quant.frozen_k f4 [12]
-6.0 -7.0 -7.0 -8.0 -7.0 -7.0 -8.0 -7.0
-6.0 -5.0 -8.0 -7.0
00000000: 0000 c0c0 0000 e0c0 0000 e0c0 0000 00c1
00000010: 0000 e0c0 0000 e0c0 0000 00c1 0000 e0c0
00000020: 0000 c0c0 0000 a0c0 0000 00c1 0000 e0c0

encoder_conv3.weight f4 [6, 12, 5]
-0.021163601 0.019256115 -0.108289704 -0.039758984 -0.009581483 0.013004336 0.026772609 -0.057709835
-0.050679594 -0.027293682 -0.010885452 -0.027487405 0.017657893 0.051611274 -0.026905552 0.025668785
-0.03484948 0.083473675 -0.09092905 0.057996813 0.02074319 0.006977338 -0.059423972 -0.02184693
-0.026268607 -0.013674987 0.031753324 -0.7637408 -0.060976874 -0.029000726 -0.009815599 0.015013089
0.1517344 -0.058143243 -0.012329257 -0.015210024 -0.005230357 0.12648281 -0.01869204 -0.009906047
-0.02187914 -0.015727656 0.09667508 0.0073311967 -0.02347813 -0.024787726 0.03808467 -0.093873695
0.051559035 -0.02319173 0.001172977 -0.0087241335 -0.12364543 -0.0024143576 0.004961313 0.029554723
-0.008387827 0.16695566 -0.004474765 0.004852939 -0.016831653 -0.025749566 0.031130422 -0.008815739
-0.032789856 -0.0071489303 -0.052638248 -0.8405603 -0.020884719 -0.027133718 -0.029913653 -0.002296238
0.068401374 -0.043056335 0.022917995 0.0075657214 0.020563643 0.042247172 -0.05969021 0.00036309034
-0.02543206 -0.017015126 -0.49699044 -0.010277661 -0.0150788305 -0.024358418 -0.05802554 0.015051351
0.0018212348 -0.0227467 -0.0061361575 -0.018437346 0.19387722 0.002673822 -0.024392553 -0.016552074
-0.007799711 -0.36447996 -0.007966623 -0.023790374 -0.024469668 0.0008519635 -0.053255152 -0.03205644
-0.02018197 0.04450729 -0.008764602 0.27407274 0.018317606 0.04016894 -0.00530414 0.0025067574
-0.03576747 0.004378429 -0.0054019783 -0.023636838 0.012595311 0.07944387 -0.021199057 -0.025387006
-0.013859285 0.01392327 -0.013563455 -0.041185074 -0.034915395 -0.026063612 0.02590726 -0.014627629
0.093163915 -0.07931445 -0.13451178 -0.00024370785 -0.11661372 -0.19890928 -0.08736348 0.00047586486
-0.13349931 -0.0068975543 -0.35295263 -0.071574315 -0.007901785 -0.02628522 0.09255834 0.075837165
-0.06468534 -0.012994993 -0.016803527 -0.01394818 0.06808962 -0.061226435 -0.056794524 -0.021824919
0.1302734 -0.026347818 -0.08389306 -0.027830362 0.0060293335 0.011035077 -0.011866594 -0.047272332
0.0056180987 0.040559027 -0.10927833 -0.09148521 0.011785554 0.05297571 -0.068222694 -0.16325042
-0.18248445 0.13645414 0.053700957 0.017129289 -0.14856587 -0.042739786 0.04506853 -0.06034245
-0.011508978 0.1341866 -0.15202455 -0.17046125 -0.014479871 0.71203417 -0.006820842 -0.019436277
-0.01226889 -0.022727417 -0.11657387 -0.058211524 0.013979729 -0.018049723 -0.04075843 0.0931561
-0.008239771 0.024875563 0.0039155586 -0.006096864 0.102611735 -0.062209766 -0.07928583 -0.13536055
0.010400967 -0.44971192 -0.05527449 -0.030431174 -0.009803498 -0.01635379 -0.024019107 -0.06788607
-0.032712087 -0.0433183 0.020606276 -0.017477984 0.013675436 -0.07835716 0.0104967095 -0.016019536
0.16666499 -0.03499196 0.026817856 -0.030560505 -0.03789977 -0.6681736 -0.0027145077 -0.049289893
0.018407768 -0.025228119 0.055985235 0.011645623 -0.07703222 0.012738228 -0.029882282 0.045968596
-0.0055058994 -0.016368326 0.009638988 -0.014859409 -0.19219987 -0.037117083 -0.022412974 -0.027110877
0.0076487423 0.0031022022 0.03339691 0.032717448 -0.0032866888 0.014605196 0.023242244 0.016499868
-0.038613632 0.0026487857 -0.028110102 -0.0017178494 -0.047351997 0.2574661 -0.044567123 0.011744951
00000000: 4a5f adbc 00bf 9d3c fec6 ddbd 51da 22bd
00000010: a7fb 1cbc 2310 553c 3b52 db3c 2661 6cbd
00000020: 6895 4fbd 0097 dfbc e558 32bc 442d e1bc
00000030: 49a7 903c 5866 533d 0869 dcbc 5847 d23c
00000040: 54be 0ebd 3ff4 aa3d 0339 babd 118e 6d3d
00000050: 9fed a93c 27a2 e43b 8d66 73bd 55f8 b2bc
00000060: 4331 d7bc 0d0d 60bc c60f 023d 8484 43bf
00000070: e3c2 79bd ee92 edbc 9bd1 20bc 76f9 753c
00000080: 4360 1b3e 9c27 6ebd a700 4abc 7733 79bc
00000090: 6a63 abbb b684 013e 0d20 99bc f94c 22bc
000000a0: e23b b3bc 49d7 80bc 96fd c53d 893a f03b
000000b0: 3555 c0bc a10f cbbc acfe 1b3d da40 c0bd
000000c0: 912f 533d 95fc bdbc 94be 993a abef 0ebc
000000d0: d139 fdbd 333a 1ebb 8392 a23b bf1c f23c
000000e0: 196d 09bc 6df6 2a3e 0da1 92bb 6705 9f3b
000000f0: 89e2 89bc c1f0 d2bc 3a05 ff3c e46f 10bc
00000100: a84e 06bd 9341 eabb 349b 57bd f62e 57bf
00000110: 6e16 abbc 8847 debc 7a0d f5bc 7b7c 16bb
00000120: 0516 8c3d d75b 30bd 85be bb3c dfe9 f73b
00000130: 1675 a83c 5f0b 2d3d b97d 74bd 295d be39
00000140: e556 d0bc 4e63 8bbc 8875 febe a263 28bc
00000150: 330d 77bc 4e8b c7bc 30ac 6dbd f199 763c
00000160: 80b6 ee3a 4a57 babc d211 c9bb eb09 97bc
00000170: c087 463e 4a3b 2f3b e4d2 c7bc 3798 87bc
00000180: b894 ffbb 1e9d babe 7086 02bc 08e4 c2bc
00000190: 9d74 c8bc 4d56 5f3a 1322 5abd 9d4d 03bd
000001a0: a954 a5bc 474d 363d 6899 0fbc 4353 8c3e
000001b0: ce0e 963c 3088 243d 5ace adbb 6948 243b
000001c0: e980 12bd ed78 8f3b 1403 b1bb 0ba2 c1bc
000001d0: 905c 4e3c 78b3 a23d a5a9 adbc 69f8 cfbc
000001e0: 0e12 63bc 6d1e 643c 4139 5ebc aeb1 28bd
000001f0: 7203 0fbd 5b83 d5bc 763b d43c b9a8 6fbc
00000200: b9cc be3d 9d6f a2bd 75bd 09be d48b 7fb9
00000210: 2dd3 eebd e0ae 4bbe a0eb b2bd 807d f939
00000220: 0bb4 08be e104 e2bb 35b6 b4be 8e95 92bd
00000230: 7d76 01bc 1a54 d7bc 3a8f bd3d 8450 9b3d
00000240: bf79 84bd f3e8 54bc 8da7 89bc e886 64bc
00000250: 9272 8b3d 92c8 7abd 60a1 68bd 2cca b2bc
00000260: 6466 053e 61d7 d7bc 20d0 abbd 80fc e3bc
00000270: b791 c53b 78cc 343c 1a6c 42bc a2a0 41bd
00000280: 0718 b83b 3921 263d 51cd dfbd 995c bbbd
00000290: 3218 413c 0ffd 583d 57b8 8bbd 1e2b 27be
000002a0: 34dd 3abe a2ba 0b3e 89f5 5b3d b952 8c3c
000002b0: a721 18be ea0f 2fbd c799 383d a529 77bd
000002c0: 2790 3cbc 3668 093e 53ac 1bbe 658d 2ebe
000002d0: fb3c 6dbc df47 363f 5f81 dfbb d438 9fbc
000002e0: 7403 49bc d92e babc 48be eebd 356f 6ebd
000002f0: 3c0b 653c 03dd 93bc 50f2 26bd a0c8 be3d
00000300: 1b00 07bc d6c7 cb3c 164e 803b 34c8 c7bb
00000310: 1a26 d23d abcf 7ebd 9c60 a2bd f59b 0abe
00000320: d168 2a3c a440 e6be 8167 62bd cc4a f9bc
00000330: da9e 20bc 62f8 85bc b8c3 c4bc da07 8bbd
00000340: 1cfd 05bd 886e 31bd 7ece a83c fd2d 8fbc
00000350: f00e 603c b879 a0bd 64fa 2b3c 673b 83bc
00000360: 3aaa 2a3e bb53 0fbd 1fb1 db3c 065a fabc
00000370: ca3c 1bbd 6d0d 2bbf e2e5 31bb 33e4 49bd
00000380: e3cb 963c 33ab cebc c650 653d 48cd 3e3c
00000390: 12c3 9dbd 00b4 503c b0cb f4bc 9149 3c3d
000003a0: d56a b4bb de16 86bc d9ec 1d3c e174 73bc
000003b0: 0bd0 44be 1508 18bd 6a9b b7bc a117 debc
000003c0: 4da2 fa3b 514e 4b3b 33cb 083d bb02 063d
000003d0: 7d65 57bb a24a 6f3c 8566 be3c bb2a 873c
000003e0: 5429 1ebd 4097 2d3b 2847 e6bc 7629 e1ba
000003f0: 2bf4 41bd 99d2 833e 048c 36bd e56d 403c

encoder_conv3.bias f4 [6]
1.0562042 1.115423 0.8970181 0.75618446 1.1099612 1.0682876
00000000: b331 873f 2ec6 8e3f faa2 653f 4e95 413f
00000010: 3513 8e3f a6bd 883f

encoder_conv3.bias_quant.frozen_k f4 [6]
-7.0 -7.0 -8.0 -7.0 -7.0 -6.0
00000000: 0000 e0c0 0000 e0c0 0000 00c1 0000 e0c0
00000010: 0000 e0c0 0000 c0c0

dec_deconv1.weight f4 [6, 12, 5]
-0.051282685 -0.013538373 -0.28885394 -0.03181022 -0.046853546 -0.08273085 -0.014720214 -0.41888222
-0.06556273 -0.11335002 0.030747645 -0.93961704 -0.025554363 -0.17519245 0.005556001 0.036391776
0.046016473 0.0501985 -0.02067658 0.0707539 -0.08041136 0.029575953 -0.06883551 0.16743827
-0.029733935 0.03293947 -0.015419048 0.06272032 -0.013266178 0.04789472 0.06787453 -0.020955216
-0.018046273 0.034796182 -0.018727269 0.05313031 -0.0633344 -1.4056096 -0.05752282 0.027092928
0.04671023 -0.028719667 0.110245064 0.019922271 0.02342108 -0.20478651 -0.031670853 -0.37536374
0.09144918 -0.15635854 0.016191203 -0.08240115 0.1157408 -0.11567433 0.00959584 -0.012251552
0.29446098 0.7411237 0.21776421 0.031146081 -0.07652934 -0.01749456 -0.15163442 0.018177805
-0.06011546 -0.109319925 -0.0048252195 0.22746538 -0.016473528 -0.05148614 -0.005815177 -1.1898175
-0.0013083696 -0.062746 -0.064717434 0.015559608 0.025292259 -0.69372916 0.015248405 0.05173521
-0.12972243 -0.0033916098 -0.73611253 0.20398249 -0.028435696 0.012238775 0.0068324176 1.1411617
-0.006620312 0.030917173 0.02475992 0.048600197 0.36281508 0.008546864 -0.08940977 0.04454725
-0.083491 0.27885336 -0.015762275 -0.012502085 -0.025073085 -0.00028988617 0.3693149 -0.015520617
0.026992965 -0.29272822 0.20422763 -0.4752535 0.015632099 -0.24809702 0.01987593 -0.08422483
-0.64183974 -0.02642248 -0.035591338 -0.029727908 0.7890018 0.09349042 0.16650252 0.031147197
0.69649255 0.0627284 0.25441065 -0.031772573 0.80456066 0.62809145 -0.3060728 1.409449
0.5771814 0.2639507 0.1454045 -0.9949907 -0.975181 -0.51173097 0.23082975 0.07943332
0.18606794 0.50065297 -0.45135877 -0.19060792 1.6650558 -0.097224176 -0.034959078 -0.06381166
-1.006198 -0.07624256 -0.015412381 0.17518473 0.10305064 -0.44155365 0.32117233 -0.13788871
-1.4048461 -0.51668125 0.2597644 -0.050501212 -0.061769243 0.3413619 0.0060090427 -0.057850234
0.26271078 0.032501183 1.4155368 0.012718454 0.2608246 -0.21074963 -1.4113591 -1.4638809
-2.8115609 -0.07846434 -0.30738014 0.39773738 0.048958354 1.4071631 -0.3595545 -0.012396493
-2.377383 0.15696478 -3.1055076 -0.030093707 -0.05618739 0.0048095845 0.02443446 -0.014181957
0.065645315 0.006017775 0.0050962404 0.021123096 -0.0102507835 -0.033267356 -0.025513306 -0.5158259
0.015746024 -0.027278414 -0.0002483117 0.012274555 -0.704371 -0.031475585 -0.007841496 -0.01840622
-0.03108015 0.07087015 -0.03544288 0.031729575 -0.0030133007 0.00069200445 -0.012760239 0.015567802
0.020880302 -0.0072704484 -0.015721481 0.07263073 0.039363734 -0.019610828 -0.050097965 0.021739205
0.503757 0.052673005 0.009268692 0.014003344 -0.043597363 -0.009965884 -0.016617132 0.030713541
-0.09097961 -0.24203782 0.10501395 -0.28730687 0.029830826 -0.16803673 0.016022144 0.07359582
-0.028451338 0.09393135 0.0075941235 0.026520986 0.47822773 0.028422542 0.10910021 0.032223698
-0.04496118 -0.016710468 -0.55613256 -0.08640618 0.017706657 -0.018554995 -0.018955577 -0.009461315
-0.31303734 -0.052796837 0.023312878 -0.89437073 -0.044544704 -0.26699978 -0.021127636 0.0022270859
00000000: cb0d 52bd 0dd0 5dbc aae4 93be 6f4b 02bd
00000010: 81e9 3fbd cb6e a9bd 0d2d 71bc bb77 d6be
00000020: c145 86bd 0e24 e8bd 7ce2 fb3c be8a 70bf
00000030: 6257 d1bc a665 33be 1d0f b63b 8b0f 153d
00000040: c57b 3c3d f19c 4d3d ee61 a9bc 6ce7 903d
00000050: b6ae a4bd 4549 f23c a2f9 8cbd f074 2b3e
00000060: 9594 f3bc 8aeb 063d 2da0 7cbc 8373 803d
00000070: 625a 59bc 412d 443d cd01 8b3d 46aa abbc
00000080: c7d5 93bc 7186 0e3d ee69 99bc 2b9f 593d
00000090: 77b5 81bd 04eb b3bf 0c9d 6bbd fdf1 dd3c
000000a0: 3a53 3f3d 8245 ebbc 2ac8 e13d 0834 a33c
000000b0: 91dd bf3c 8eb3 51be 4cb9 01bd ad2f c0be
000000c0: b549 bb3d 741c 20be 6aa3 843c efc1 a8bd
000000d0: 8309 ed3d aae6 ecbd df37 1d3c bcba 48bc
000000e0: 97c3 963e 48ba 3d3f 95fd 5e3e 1126 ff3c
000000f0: 6abb 9cbd c050 8fbc 0e46 1bbe 9fe9 943c
00000100: a13b 76bd 20e3 dfbd e01c 9ebb afec 683e
00000110: 7ef3 86bc 21e3 52bd 3e8d bebb f14b 98bf
00000120: 997d abba fa80 80bd 938a 84bd baed 7e3c
00000130: b631 cf3c 3c98 31bf 72d4 793c 4de8 533d
00000140: f5d5 04be c545 5ebb df71 3cbf c9e0 503e
00000150: faf1 e8bc 2585 483c 79e2 df3b 9611 923f
00000160: 34ef d8bb 0346 fd3c 51d5 ca3c 0011 473d
00000170: e6c2 b93e 2508 0c3c 781c b7bd 2d77 363d
00000180: 54fd aabd dec5 8e3e e31f 81bc 8cd5 4cbc
00000190: 1266 cdbc ddfb 97b9 d816 bd3e 304a 7ebc
000001a0: 5a20 dd3c 79e0 95be 0c21 513e 6d54 f3be
000001b0: e30e 803c 250d 7ebe d9d2 a23c 117e acbd
000001c0: 9c4f 24bf f573 d8bc 39c8 11bd f187 f3bc
000001d0: 06fc 493f e877 bf3d a37f 2a3e 6828 ff3c
000001e0: 564d 323f bf77 803d 1d42 823e f523 02bd
000001f0: b0f7 4d3f 9aca 203f 93b5 9cbe d368 b43f
00000200: 29c2 133f 8c24 873e ebe4 143e b6b7 7ebf
00000210: 76a5 79bf cd00 03bf a25e 6c3e f0ad a23d
00000220: 9888 3e3e cb2a 003f 7f18 e7be b92e 43be
00000230: 8c20 d53f 781d c7bd 4031 0fbd b0af 82bd
00000240: 19cb 80bf 0f25 9cbd 3684 7cbc a063 333e
00000250: 370c d33d 5213 e2be b370 a43e b332 0dbe
00000260: ffd1 b3bf 3945 04bf d7ff 843e 5cda 4ebd
00000270: bf01 7dbd fdc6 ae3e 81e7 c43b 5ef4 6cbd
00000280: 0782 863e f61f 053d 4f30 b53f 1061 503c
00000290: cd8a 853e c0ce 57be 6aa7 b4bf 7360 bbbf
000002a0: 9df0 33c0 e9b1 a0bd ee60 9dbe 3ca4 cb3e
000002b0: 8e88 483d ec1d b43f 8717 b8be a91a 4bbc
000002c0: 0b27 18c0 60bb 203e a3c0 46c0 1487 f6bc
000002d0: c024 66bd b899 9d3b c72a c83c 705b 68bc
000002e0: 0d71 863d c130 c53b 5dfe a63b 580a ad3c
000002f0: e7f2 27bc 5a43 08bd 4801 d1bc 2b0d 04bf
00000300: cefd 803c fb76 dfbc d52f 82b9 371b 493c
00000310: a851 34bf 8bec 00bd 9e79 00bc a4c8 96bc
00000320: cc9b febc 5f24 913d 8e2c 11bd dff6 013d
00000330: cc7a 45bb a267 353a 5210 51bc 1810 7f3c
00000340: 2b0d ab3c f13c eebb 56ca 80bc 6cbf 943d
00000350: de3b 213d e3a6 a0bc 8633 4dbd 6b16 b23c
00000360: 38f6 003f a6bf 573d b6db 173c 486e 653c
00000370: 2693 32bd f247 23bc a720 88bc f79a fb3c
00000380: 8553 babd c3d8 77be 8e11 d73d e319 93be
00000390: c75f f43c d211 2cbe df40 833c 68b9 963d
000003a0: c812 e9bc 145f c03d 20d8 f83b 8a42 d93c
000003b0: 44da f43e 64d6 e83c ee6f df3d fffc 033d
000003c0: 3729 38bd 64e4 88bc b45e 0ebf b9f5 b0bd
000003d0: 8d0d 913c a500 98bc ba48 9bbc a203 1bbc
000003e0: 6e46 a0be 7f41 58bd a6fa be3c 7bf5 64bf
000003f0: 8274 36bd 32b4 88be dd13 adbc 4df4 113b

dec_deconv1.bias f4 [12]
0.5719398 0.38081405 0.77331215 0.33830184 0.23666118 -0.2968043 0.5462619 0.22931437
-0.079639934 0.8461383 0.38990316 -0.18740596
00000000: a66a 123f 0ffa c23e c9f7 453f e635 ad3e
00000010: 4f57 723e bcf6 97be d2d7 0b3f 63d1 6a3e
00000020: 431a a3bd 859c 583f 63a1 c73e 59e7 3fbe

dec_deconv1.bias_quant.frozen_k f4 [12]
-7.0 -6.0 -7.0 -7.0 -6.0 -6.0 -6.0 -6.0
-6.0 -5.0 -6.0 -5.0
00000000: 0000 e0c0 0000 c0c0 0000 e0c0 0000 e0c0
00000010: 0000 c0c0 0000 c0c0 0000 c0c0 0000 c0c0
00000020: 0000 c0c0 0000 a0c0 0000 c0c0 0000 a0c0

dec_deconv2.weight f4 [12, 24, 5]
-0.06392046 0.5221989 -0.14714871 -0.15431966 -0.15237288 -0.10490794 0.59904724 -0.34528562
-0.12844747 -0.04656104 -0.030969908 0.05467388 0.78763133 0.4508995 0.03757689 0.09035106
0.33993497 0.18491042 0.10235494 -0.14387462 -0.23979856 0.4673074 0.032178346 -0.6507109
0.112568006 0.022300275 -0.11130972 -0.02175739 0.55908334 0.057191957 -0.0787266 -0.3849359
-0.06261488 -0.07629485 -0.2383802 0.0151915485 -0.122649185 0.065994635 -0.08250848 0.06315843
-0.051418092 1.0310771 0.5852695 -0.20746605 0.19526105 -0.016127048 0.42815346 -0.20430765
-0.13996452 -0.03886508 0.029505935 -0.20285402 -0.07979542 -0.36617368 0.048688587 -0.018388284
-0.2190221 0.35229114 -0.44405404 -0.2668537 -0.030943867 0.13075235 0.072854705 0.41176838
0.22349127 -0.04617005 -0.19902757 0.115037225 -0.8978243 0.03903855 1.4088099 -0.56817925
-0.3842045 -0.018338097 0.11205398 -0.14056703 0.062374048 -0.08438197 -0.7862637 -0.45974416
-0.26413068 -0.12377512 0.14470373 -0.14587209 -0.2679271 -0.025306063 -0.030292546 -0.06379465
1.4486461 0.09329448 -0.10217584 -0.4448409 0.13417256 0.14817138 -0.08676286 -0.0667904
-0.03628139 -0.6482461 -0.73433787 -0.024287412 -0.08361339 -0.08215724 -0.2059587 -0.044333864
0.14624444 -0.69534457 0.6442816 -0.13386624 0.02100929 -0.118234046 -0.15012924 -0.8364603
0.08528309 -0.34581652 0.10627955 0.02742619 -0.03745485 -0.013515511 0.22445965 0.24939157
-0.13789944 0.17635918 -0.34261534 0.42728645 0.06953844 -0.15240999 0.5068918 -0.11769594
0.13869508 0.1722994 -0.13157542 0.25202346 -0.3423343 0.021379514 0.14703377 0.04508882
-0.30972967 -0.046775695 -0.5006096 -0.18574555 -0.32816672 0.0046975273 0.33146966 -0.6827612
0.16367657 0.13718052 0.28206313 -0.20818187 -0.1817166 0.015421942 -0.17824729 -0.16956559
-0.31463212 -0.22713864 -0.5970055 0.12513971 -0.02634679 -1.21799 -0.47380838 0.06323802
-0.022045739 -0.24421324 0.21299921 0.40832877 0.24195606 -0.08945996 -0.8898937 -0.71663153
-1.3189296 -0.008914696 -0.07406899 0.13479587 0.15969382 -2.0111182 -0.036660552 -0.23397745
-0.07087012 -0.6332314 -0.19118197 -0.2175614 0.35056615 0.3957249 0.05062352 -0.1378302
0.19543272 -0.06485604 -0.64662254 -0.0056708762 -1.1352272 -0.0642141 -0.34642255 0.045098297
-0.026278459 0.06600316 0.1879016 0.058164265 -0.02283545 -0.093722664 -0.5066518 -0.65733916
0.12113535 -0.49336937 -0.0020126933 -0.27476156 -0.09189732 -0.15701637 -0.24903205 -0.20585571
-0.35636118 -0.5311939 0.2629283 0.24560057 0.2043205 -0.44068968 -0.012638698 -0.15692174
-0.809005 -1.134125 -0.6610112 -0.14888397 0.20803156 0.31744674 -0.34720173 -0.17730738
0.032183506 -0.20780522 -0.052984416 -0.43915886 0.08331866 -0.28867868 -0.14044802 0.058352128
0.530199 -1.1929913 0.600168 -0.030347686 0.054846875 0.18519002 -0.03847568 -0.072863296
0.034357183 -0.37472248 -1.9977713 -0.157266 -0.20972697 -1.9709815 -3.5291867 -0.3741702
0.24726452 0.24972624 -0.4697605 0.048023537 -0.36295873 3.6158285 1.3696269 -0.3774057
00000000: bbe8 82bd d4ae 053f 27ae 16be f905 1ebe
00000010: a307 1cbe f9d9 d6bd 295b 193f 47c9 b0be
00000020: bc87 03be cab6 3ebd 9bb4 fdbc b8f1 5f3d
00000030: 35a2 493f 4ddc e63e 3aea 193d fa09 b93d
00000040: f50b ae3e 2859 3d3e 779f d13d de53 13be
00000050: c18d 75be ea42 ef3e 71cd 033d fd94 26bf
00000060: 0e8a e63d 11af b63c 5af6 e3bd 8e3c b2bc
00000070: 1620 0f3f 1d42 6a3d 693b a1bd 5116 c5be
00000080: 3b3c 80bd 7940 9cbd f019 74be f9e5 783c
00000090: 7f2f fbbd 3228 873d 35fa a8bd 3559 813d
000000a0: c79b 52bd 56fa 833f 39d4 153f fb71 54be
000000b0: 83f2 473e df1c 84bc ee36 db3e 0636 51be
000000c0: dc52 0fbe fd30 1fbd 6eb6 f13c f7b8 4fbe
000000d0: c86b a3bd 1e7b bbbe af6d 473d 07a3 96bc
000000e0: 5447 60be 815f b43e 0d5b e3be 0ca1 88be
000000f0: fe7d fdbc f2e3 053e d934 953d 4ed3 d23e
00000100: e5da 643e ce1c 3dbd e2cd 4bbe a398 eb3d
00000110: d0d7 65bf e3e6 1f3d e253 b43f 3274 11bf
00000120: 74b6 c4be c739 96bc 8f7c e53d cef0 0fbe
00000130: ee7b 7f3d 74d0 acbd 9448 49bf 9663 ebbe
00000140: 233c 87be cf7d fdbd 372d 143e 7e5f 15be
00000150: be2d 89be a94e cfbc 1328 f8bc c5a6 82bd
00000160: 3c6d b93f 2d11 bf3d 9141 d1bd 30c2 e3be
00000170: 8864 093e 3dba 173e bab0 b1bd 68c9 88bd
00000180: cb9b 14bd 75f3 25bf 91fd 3bbf 65f6 c6bc
00000190: 7f3d abbd 0e42 a8bd d6e6 52be 6d97 35bd
000001a0: 1ac1 153e 1a02 32bf a4ef 243f 3b14 09be
000001b0: ad1b ac3c b124 f2bd 7bbb 19be 4322 56bf
000001c0: e7a8 ae3d dd0e b1be 18a9 d93d e4ac e03c
000001d0: 426a 19bd 2970 5dbc c0d8 653e 8160 7f3e
000001e0: 8335 0dbe 8097 343e 476b afbe 4ac5 da3e
000001f0: 2b6a 8e3d 5d11 1cbe a9c3 013f 920a f1bd
00000200: 1506 0e3e 416f 303e b5bb 06be 3809 813e
00000210: 7146 afbe 1724 af3c 0590 163e 0eaf 383d
00000220: e394 9ebe df97 3fbd f327 00bf 1534 3ebe
00000230: 7805 a8be b7ed 993b 64b6 a93e 70c9 2ebf
00000240: d59a 273e 0d79 0c3e 946a 903e a12d 55be
00000250: eb13 3abe 50ac 7c3c 7586 36be 9aa2 2dbe
00000260: 7617 a1be 0897 68be 5ad5 18bf a024 003e
00000270: 39d5 d7bc 19e7 9bbf 0397 f2be ef82 813d
00000280: 4499 b4bc 0913 7abe 771c 5a3e 7810 d13e
00000290: 54c3 773e c936 b7bd 13d0 63bf 2a75 37bf
000002a0: afd2 a8bf f20e 12bc 7cb1 97bd ee07 0a3e
000002b0: c786 233e 29b6 00c0 6029 16bd c997 6fbe
000002c0: 5a24 91bd 741b 22bf 35c5 43be 6ac8 5ebe
000002d0: 687d b33e 749c ca3e 9c5a 4f3d 5c23 0dbe
000002e0: 841f 483e 3ed3 84bd 0e89 25bf c2d2 b9bb
000002f0: 204f 91bf af82 83bd 4c5e b1be feb8 383d
00000300: ec45 d7bc aa2c 873d 4769 403e a73d 6e3d
00000310: 6911 bbbc abf1 bfbd efb3 01bf 6147 28bf
00000320: cf15 f83d e99a fcbe 64e7 03bb 8cad 8cbe
00000330: a934 bcbd e6c8 20be 4202 7fbe d7cb 52be
00000340: f974 b6be 53fc 07bf 8a9e 863e b77e 7b3e
00000350: 6539 513e 14a2 e1be 8b12 4fbc 18b0 20be
00000360: f41a 4fbf 022b 91bf 0838 29bf 0a75 18be
00000370: 3a06 553e 6188 a23e 6dc4 b1be 1190 35be
00000380: dad2 033d e4ca 54be 3006 59bd 6ed9 e0be
00000390: f9a2 aa3d b1cd 93be 9bd1 0fbe a402 6f3d
000003a0: 1fbb 073f f0b3 98bf 9ca4 193f b69b f8bc
000003b0: 1ea7 603d 74a2 3d3e ad98 1dbd 5a39 95bd
000003c0: 1eba 0c3d a0db bfbe f8b6 ffbf 570a 21be
000003d0: abc2 56be 1f49 fcbf 32de 61c0 3d93 bfbe
000003e0: e932 7d3e 3cb8 7f3e 7384 f0be 54b4 443d
000003f0: bad5 b9be bc69 6740 ef4f af3f 523b c1be

dec_deconv2.bias f4 [24]
-0.4999299 -0.043526404 -0.2355212 -0.19663599 -0.5000886 -0.35651243 -0.3092874 0.009209209
-0.37554434 -0.3389802 -0.1709834 -0.31357393 -0.16194932 -0.21865003 -0.17021255 -0.08119204
0.2317812 0.24959488 -0.18861197 0.47051078 -0.31533837 0.5679564 -0.2655349 -0.17157128
00000000: d0f6 ffbe be48 32bd 782c 71be f25a 49be
00000010: ce05 00bf cc88 b6be eb5a 9ebe 39e2 163c
00000020: 5947 c0be d08e adbe 4616 2fbe c38c a0be
00000030: 0bd6 25be cbe5 5fbe 334c 2ebe 0348 a6bd
00000040: 0d58 6d3e cd95 7f3e 7f23 41be cae6 f03e
00000050: 0874 a1be 9765 113f 31f4 87be 62b0 2fbe

dec_deconv2.bias_quant.frozen_k f4 [24]
-6.0 -5.0 -5.0 -6.0 -5.0 -6.0 -5.0 -5.0
-4.0 -5.0 -6.0 -6.0 -5.0 -5.0 -6.0 -5.0
-6.0 -5.0 -6.0 -5.0 -5.0 -5.0 -5.0 -6.0
00000000: 0000 c0c0 0000 a0c0 0000 a0c0 0000 c0c0
00000010: 0000 a0c0 0000 c0c0 0000 a0c0 0000 a0c0
00000020: 0000 80c0 0000 a0c0 0000 c0c0 0000 c0c0
00000030: 0000 a0c0 0000 a0c0 0000 c0c0 0000 a0c0
00000040: 0000 c0c0 0000 a0c0 0000 c0c0 0000 a0c0
00000050: 0000 a0c0 0000 a0c0 0000 a0c0 0000 c0c0

dec_deconv3.weight f4 [24, 1, 5]
-0.14729866 -0.012761898 0.00096938387 -0.00404277 -0.015439358 0.036308244 -0.057049442 -0.12174478
-0.028165318 -0.013540567 -0.010586145 -0.05321929 0.08588357 -0.004896876 -0.061829794 0.017559653
0.14470093 0.112896375 0.34207386 0.091512635 0.008071309 0.18703493 0.30456975 0.105692275
-0.012790947 0.2800074 0.002809504 -0.006706724 0.0032003468 0.0011729868 0.011986267 0.0405241
0.04754802 0.0366507 0.086270206 0.067421176 0.032648996 0.054828048 0.05598533 0.036545645
-0.0103474865 -0.0521964 -0.063417025 -0.050831947 0.00787936 -0.026407572 0.050911393 0.02861024
0.02885673 0.012661815 0.045998894 0.3367299 -0.007410567 -0.036106944 0.0056518815 0.018555207
0.051024966 0.19474699 0.22398947 0.17825444 0.029221917 0.06759033 0.070506506 0.068758994
0.017033523 0.056843083 0.058606014 0.024499374 0.031317823 0.0129718585 0.10103215 0.05571519
0.08114999 0.06660108 0.013032418 -0.007767317 0.018985147 0.08810596 0.17868736 0.00035463297
-0.0048362603 0.017536398 0.23800172 0.004105227 -0.01092382 0.13607204 0.35124236 0.19383028
0.08414681 0.008196254 -0.026220998 -0.14069052 0.041035727 0.0772284 -0.057054088 0.04710772
0.15158765 0.017158909 0.08980185 0.06467369 0.06042128 0.13413171 0.11102232 0.0538749
0.12091709 -0.047051296 -0.2045969 -0.16047238 -0.005231911 0.04157378 -0.16962539 -0.023792902
0.02607287 -0.046754565 -0.011631826 0.24012181 0.009331431 -0.004117739 -0.004270056 -0.0007356503
00000000: 76d5 16be 4817 51bc 401e 7e3a 3679 84bb
00000010: 5cf5 7cbc f4b7 143d adac 69bd 5455 f9bd
00000020: f4ba e6bc 41d9 5dbc 8371 2dbc 78fc 59bd
00000030: bae3 af3d f975 a0bb 3d41 7dbd 43d9 8f3c
00000040: 7b2c 143e 3736 e73d 4e24 af3e fa6a bb3d
00000050: 863d 043c 1686 3f3e 91f0 9b3e 3175 d83d
00000060: 1f91 51bc 215d 8f3e a81f 383b 14c4 dbbb
00000070: e9bc 513b e8be 993a 0c62 443c 99fc 253d
00000080: b6c1 423d 0b1f 163d 6fae b03d 1d14 8a3d
00000090: f4ba 053d 6093 603d e050 653d e3b0 153d
000000a0: 8188 29bc e4cb 55bd c9e0 81bd 2935 50bd
000000b0: 6e18 013c b154 d8bc 7788 503d 0660 ea3c
000000c0: f364 ec3c 8073 4f3c 5669 3c3d dd67 ac3e
000000d0: 57d4 f2bb e0e4 13bd 6b33 b93b 1701 983c
000000e0: 8eff 503d c16b 473e 7f5d 653e 5588 363e
000000f0: cd62 ef3c cd6c 8a3d b765 903d 84d1 8c3d
00000100: e389 8b3c 4bd4 683d dc0c 703d e9b2 c83c
00000110: 1e47 003d eb87 543c f2e9 ce3d 9c35 643d
00000120: f731 a63d 2666 883d ec85 553c fa84 febb
00000130: bd86 9b3c e670 b43d d2f9 363e 08ee b939
00000140: 7e79 9ebb 7ea8 8f3c b9b6 733e 2485 863b
00000150: d2f9 32bc 7856 0b3e 0ad6 b33e 727b 463e
00000160: 2a55 ac3d 9549 063c 6bcd d6bc 2d11 10be
00000170: 1415 283d ec29 9e3d 8cb1 69bd 06f4 403d
00000180: cb39 1b3e d790 8c3c 08ea b73d a473 843d
00000190: 4e7c 773d d359 093e ac5f e33d edab 5c3d
000001a0: 61a3 f73d dcb8 40bd da81 51be df52 24be
000001b0: 7370 abbb 4549 2a3d 47b2 2dbe 55e9 c2bc
000001c0: c596 d53c b781 3fbd 6a93 3ebc 7ee2 753e
000001d0: dce2 183c 19ee 86bb d3eb 8bbb a8d8 40ba
