models/SNN_QantAutoencoder_tsri_test.pth (torch, 37947 bytes, 11 tensors)

encoder_conv1.weight f4 [32, 1, 5]
00000000: 984b aa40 08d0 dc40 57d0 8640 03ce b540
00000010: c8aa c640 21ba a13f 184d 0b40 75f3 e83e
00000020: a7fc fc3f cfca 2b40 038e 9040 7444 d140
00000030: 5d63 8c40 4633 ac40 15d1 d740 247f 8b40
00000040: a02f d240 9681 9940 25ea d140 7aa5 e540
00000050: b4bf 8940 8c50 c740 1897 9940 b287 b240
00000060: bec6 d740 ffcb 3740 a8f3 ab40 c2e0 3540
00000070: 41fb 8540 ded9 9f40 d2d3 8e40 af73 cf40
00000080: 611d 8e40 0459 ab40 9e69 c140 49c8 fc3f
00000090: 4bde 9040 3f58 fb3f 2d92 7d40 eeef 9b40
000000a0: 5a06 9f40 0e85 c840 522c 8c40 0d75 c940
000000b0: 81b3 ce40 f592 8240 d6b2 ca40 e29a 9f40
000000c0: 234f c640 30e0 e040 2cb9 8b40 fcff c940
000000d0: 3e06 8a40 b395 c540 a5c4 c940 e259 8540
000000e0: 32c9 c140 1eef 7640 111f ad40 dfc3 de40
000000f0: 6951 a240 778e d640 c995 8b40 5a58 b040
00000100: a09b d640 39ce 8240 06cc c540 ec54 8240
00000110: 47f0 c040 59cc ce40 ddd3 a540 29e9 e140
00000120: ef0b 9c40 23f0 c740 49c9 d240 0245 4740
00000130: 097f af40 d66c 4740 1c3d 8740 0169 9840
00000140: f901 8b40 0a77 d040 0e57 9240 038a c740
00000150: 5518 ec40 6cc2 ab40 1d36 da40 2408 8140
00000160: 3237 b640 7f92 ce40 4c58 3f40 9b59 a840
00000170: 2914 3840 26f6 8840 33a6 9940 f9d2 5a40
00000180: 8ceb ab40 d0b1 5e40 99d8 9940 039e a940
00000190: c2ad 8340 acb7 d140 ed32 8f40 f9f0 c740
000001a0: 099a e040 a457 fa3f 4392 8540 3c54 0f40
000001b0: 1191 3f40 8c91 7940 9d12 8e40 86a9 c540
000001c0: 8791 9e40 0271 ca40 5e45 d340 cbc4 633f
000001d0: 29f2 ef3f f48b 853f 1ea1 e33f 1d7a 2540
000001e0: f15a 0c40 8105 8c40 5394 dc3f e2bb 4140
000001f0: 631b 8740 17e7 9440 905a c940 6b1f 9340
00000200: 8318 bb40 3e9d d840 035d 9d40 8fa0 df40
00000210: d24e 8a40 e3ed af40 85fa ca40 863e 8440
00000220: 35b8 ca40 0c9a 9c40 c417 c240 7218 e640
00000230: b191 8e40 2bd1 cb40 24ae 8340 bf3b b140
00000240: 4a3b d940 34e6 8f40 061b cd40 c021 9040
00000250: 3629 c540 489c cf40 58d5 2c40 90fc a740
00000260: a0f9 1f40 b7e2 6f40 7c89 a240 5fbe 1a40
00000270: 13fb 6b40 d294 0140 179e 3d40 3aef 8840
5.3217278 6.9003944 4.212932 5.681398 6.2083473 1.2634927 2.1765804 0.45498243
1.9764603 2.6842535 4.5173354 6.539606 4.3871293 5.381259 6.7442727 4.35927
6.5683136 4.7970686 6.559832 7.17645 4.3046513 6.2285824 4.799694 5.5790644
6.7430105 2.871826 5.373493 2.8418431 4.1869206 4.995345 4.463357 6.4828715
4.4410863 5.354616 6.0441427 1.9748622 4.5271354 1.9636306 3.9620469 4.8730383
4.9695253 6.266242 4.38041 6.2955384 6.459412 4.080439 6.3343306 4.9876566
6.1971602 7.0273666 4.366354 6.312498 4.313262 6.174524 6.3052545 4.167222
6.05581 3.8583446 5.4100423 6.96141 5.072438 6.7048907 4.3620343 5.510785
6.706497 4.0876737 6.181155 4.0728664 6.0293307 6.462445 5.182112 7.059712
4.8764567 6.2480636 6.587071 3.113587 5.484257 3.1160178 4.2262096 4.762818
4.343991 6.514531 4.573127 6.235597 7.37797 5.367483 6.8191056 4.0322437
5.6942377 6.455383 2.9897642 5.260938 2.8762305 4.2800474 4.801538 3.4191267
5.3725033 3.4796028 4.80769 5.3005385 4.1149607 6.553671 4.4749665 6.2481656
7.018803 1.9557996 4.174104 2.2395163 2.9932292 3.8995085 4.439772 6.176944
4.9552646 6.326295 6.6022177 0.8897216 1.8745776 1.0433335 1.7783544 2.5855782
2.1930506 4.375672 1.7232765 3.0270925 4.222093 4.653209 6.292305 4.597585
5.846742 6.7691946 4.917604 6.9883494 4.3221216 5.497789 6.343081 4.1326323
6.334986 4.8938046 6.065401 7.190484 4.4552846 6.369283 4.1150074 5.538543
6.7884874 4.496851 6.4095488 4.50412 6.1612806 6.4878273 2.7005215 5.2495804
2.499611 3.7482126 5.0792828 2.4178693 3.6871994 2.0247083 2.962774 4.2792025

encoder_conv1.bias f4 [32]
00000000: e853 6b3f bf7b 0e3f 9ef1 693f 45bf 603f
00000010: 6349 6a3f 85aa 633f 5314 703f 3d27 6c3f
00000020: 3b5e 613f 35ba 593f 052a 6a3f cd6d 6b3f
00000030: 780d 6a3f a7bc 663f 24ab 6a3f 6f34 5e3f
00000040: 1997 583f b8e3 693f f8f4 613f b9bc 673f
00000050: 0fce 693f a45d 4d3f 4bcd 623f 9e9b 0b3f
00000060: 17cc 463f 67be 5a3f 65a7 6d3f c34f 593f
00000070: 6d4e 6b3f b079 6b3f 645e 5a3f d5df 413f
0.91924906 0.5565757 0.91384304 0.87791854 0.9151823 0.8893207 0.9378101 0.9224737
0.8803441 0.85049754 0.91470367 0.9196442 0.914268 0.9013161 0.9166739 0.8679876
0.84605557 0.91363096 0.8826442 0.9052234 0.91330045 0.8022101 0.885945 0.5453433
0.77655166 0.8544678 0.9283355 0.8488733 0.91916543 0.91982555 0.8530028 0.75732166

encoder_conv2.weight f4 [16, 32, 5]
00000000: a99f 64c0 fd4e 34c0 54db 323f 7350 6d3f
00000010: 694b 583a 8694 18c0 cbb3 03c0 801c ebbe
00000020: fa9e a1be a1a5 19bf 79ac 66c0 44bb 35c0
00000030: 8406 273f 96bf 663f e2e7 fd3a 60ca 62c0
00000040: c261 36c0 040d 523f 3a7b 873f e6c5 943d
00000050: 52b7 6bc0 40b4 41c0 d48a 303f a344 613f
00000060: 683a 0dbc 6840 58c0 c729 2ac0 f322 ab3e
00000070: 22e9 f33e 1278 8dbe 5b73 65c0 e9f2 3dc0
00000080: 0a9d 143f 54ac 4e3f b161 80bd 8a5c 4fc0
00000090: 70eb 1dc0 e290 a43e 1277 de3e 6757 aebe
000000a0: b4d8 5fc0 7300 32c0 7e92 5a3f 9277 893f
000000b0: eb01 733e 76be 68c0 57e1 34c0 ec12 653f
000000c0: c954 9a3f 8a6a 3e3e 73f8 67c0 bcba 36c0
000000d0: c7c4 2f3f 7ef6 693f cc76 113d 79e1 64c0
000000e0: 7489 39c0 566e 3c3f 0e08 593f ab2e d2bc
000000f0: a82e 61c0 52b4 34c0 8f2b 453f 6fb3 843f
00000100: c225 b0bc be0e 61c0 555d 32c0 e16f 393f
00000110: 266f 673f ed33 873b 18a6 65c0 a62b 38c0
00000120: 9fd9 313f a258 733f 2db4 cebb 23a8 4ec0
00000130: c7df 28c0 561b bf3e c2fc 093f ab0b 8abe
00000140: bb55 5ac0 e997 28c0 b4fd 803f 496e a53f
00000150: f23b 9e3e dcc2 5dc0 0211 32c0 c3fc 293f
00000160: d480 803f 72e1 7f3d 0804 56c0 89fc 26c0
00000170: 106a c83e 445c 073f 4ef1 6dbe 9dd9 56c0
00000180: d801 2bc0 1b0b c33e 22d4 093f 825e 34be
00000190: 09bc 67c0 ef2a 37c0 fc67 3b3f 53e6 723f
000001a0: 00c9 2dbd a0d8 40c0 a9e5 22c0 043a 99bc
000001b0: c260 063e eb8e 00bf 2c56 67c0 ce58 31c0
000001c0: 0b07 503f 639d 863f 91e7 0b3e c1fb 0fc0
000001d0: 4ba7 00c0 ccac d6be 4f23 02bf e169 2abf
000001e0: 56f9 3ec0 2ace 1bc0 a419 c73d 1d6a 273e
000001f0: dc56 d0be ab6c 55c0 d9dd 2ac0 99a6 813f
00000200: 3fd4 a13f 1956 a43e b563 62c0 3468 31c0
00000210: 37f1 0e3f 37f0 613f 6f62 373d 6019 63c0
00000220: 69bf 2fc0 6faf 693f 9936 a53f 0a91 8a3e
00000230: fa7d 69c0 6dec 36c0 08be 343f b569 7c3f
00000240: 114a 6abc 6acc 64c0 52f4 32c0 49c8 203f
00000250: d4e3 6a3f 6d9c bebd 2336 4cc0 b279 22c0
00000260: a3b5 b63e 3df8 013f 2491 88be 47c9 44c0
00000270: 105a 19c0 19a8 ee3d 3df6 733e 91ee ffbe
00000280: 3117 45c0 34ca 1bc0 fefb 483f 5203 8d3f
00000290: 205e 6abe 2bfc 03c0 c0bd f6bf 8cbf ccbe
000002a0: 0239 d6be 3574 5cbf 26eb 43c0 81c6 22c0
000002b0: 8578 523f f8b2 813f 3706 c0be 3cab 46c0
000002c0: 6bed 26c0 9b5c 863f 03bf 953f 9363 3dbe
000002d0: 84e4 53c0 fee3 36c0 0348 783f f521 883f
000002e0: de90 babe 326b 3fc0 6505 16c0 f6bc f33e
000002f0: 85d5 0c3f e9c1 e6be a962 51c0 80a3 28c0
00000300: e89f 4b3f 11c2 763f fe04 c5be 200d 2fc0
00000310: 62e0 13c0 53a8 d03e 9e9a b43e fd89 1abf
00000320: 870a 47c0 83f7 21c0 edf0 6f3f c1d9 953f
00000330: 16ca 82bd b9f3 4ac0 4d75 29c0 b53b 873f
00000340: 4cf1 aa3f 7021 32be ae7e 46c0 5848 25c0
00000350: 146c 4d3f 0cdb 813f a6c5 a8be 5453 4dc0
00000360: 3e56 26c0 553d 633f 396c 893f b930 a7be
00000370: fd03 43c0 75bf 1dc0 40e4 6d3f bb33 863f
00000380: 30ef 2ebe 7b94 4ac0 c219 24c0 b9e7 693f
00000390: 9c84 893f 1ec7 39be 838a 4bc0 4c2d 23c0
000003a0: af4b 6c3f 9d03 7d3f c3e9 9dbe 3806 3ec0
000003b0: b442 17c0 deb2 f53e 1bd3 f93e 6668 eebe
000003c0: 2c7d 44c0 8970 1bc0 b775 a03f 7eca b33f
000003d0: f46e 3f3d b738 47c0 eb44 1fc0 9db7 593f
000003e0: ff5c 8b3f 6fb8 1ebe b908 33c0 232f 1bc0
000003f0: 7a15 c93e ef14 d43e 9a63 fdbe 7735 44c0
-3.572245 -2.817321 0.6986592 0.9270088 0.0008250983 -2.3840652 -2.0578487 -0.4592018
-0.31566602 -0.60018355 -3.604277 -2.8395548 0.6524432 0.90136087 0.0019371475 -3.543602
-2.8497167 0.8205111 1.0584481 0.07264309 -3.683064 -3.0266266 0.68961835 0.87995356
-0.008619882 -3.378931 -2.6588 0.33425102 0.47638804 -0.2763067 -3.5851657 -2.967951
0.5805212 0.807317 -0.06268633 -3.2400231 -2.467495 0.32141787 0.43450218 -0.34051058
-3.4976015 -2.7812774 0.8537978 1.0739615 0.237312 -3.6366248 -2.8262537 0.89482
1.2057124 0.18595329 -3.6245391 -2.8551474 0.68659633 0.9139174 0.035513684 -3.5762618
-2.8990145 0.7360586 0.84777915 -0.025657019 -3.5184727 -2.8235059 0.7701959 1.0367259
-0.02150238 -3.5165248 -2.7869465 0.7243634 0.90403974 0.004126063 -3.5882626 -2.877664
0.6947269 0.9505712 -0.0063080997 -3.2290123 -2.6386583 0.37325543 0.539013 -0.26962027
-3.4114826 -2.6342719 1.0077424 1.2924281 0.3090511 -3.4650183 -2.782288 0.6640131
1.0039315 0.06247086 -3.343996 -2.6091635 0.3914342 0.5287516 -0.23236582 -3.357032
-2.6719875 0.3809441 0.53839314 -0.17614177 -3.6208518 -2.8619955 0.7320554 0.94882697
-0.042428017 -3.0132217 -2.5452673 -0.018704422 0.13122848 -0.50218076 -3.6146345 -2.7710452
0.81260747 1.0516781 0.13662554 -2.2497408 -2.0102108 -0.4192871 -0.50835127 -0.6656781
-2.9839683 -2.4344583 0.097216874 0.16349073 -0.40691268 -3.3347576 -2.6697905 1.0128967
1.2642897 0.32096937 -3.5373356 -2.771985 0.55836815 0.88257164 0.044771608 -3.5484238
-2.7460577 0.91283315 1.2907287 0.2706378 -3.648314 -2.8581803 0.70602465 0.98598796
-0.014299885 -3.5749764 -2.7961621 0.6280561 0.9175389 -0.093071796 -3.1908042 -2.5386777
0.35685453 0.50769407 -0.26673234 -3.074785 -2.396122 0.11653156 0.23824401 -0.499867
-3.0795405 -2.4342165 0.7850951 1.1016638 -0.22887468 -2.062266 -1.9276657 -0.3998989
-0.41840369 -0.8611482 -3.0612273 -2.5433657 0.8221515 1.0132742 -0.37504742 -3.1042013
-2.6082408 1.0497011 1.1698917 -0.18495016 -3.3108225 -2.8576655 0.9698488 1.0635363
-0.3643865 -2.9909177 -2.3440793 0.47605103 0.55013305 -0.45069817 -3.2716467 -2.6349792
0.7954087 0.9638987 -0.3848037 -2.735176 -2.3105702 0.4075342 0.35274214 -0.60366803
-3.1100175 -2.530732 0.93727 1.1707078 -0.06386201 -3.1711257 -2.6477845 1.0565096
1.3354888 -0.17395568 -3.101482 -2.5825405 0.8024304 1.0144973 -0.32963294 -3.208211
-2.5990138 0.8876546 1.0736152 -0.3265436 -3.0471184 -2.4648106 0.92926407 1.0484537
-0.1708343 -3.1653125 -2.5640721 0.91369206 1.0743594 -0.18142363 -3.180329 -2.5496397
0.92302984 0.9883364 -0.3084241 -2.9691296 -2.3634462 0.47988027 0.48793873 -0.46564025
-3.07014 -2.4287436 1.2535924 1.4046171 0.046736673 -3.1128366 -2.4885814 0.85045797
1.0887755 -0.15500043 -2.7974074 -2.424752 0.39274198 0.4142222 -0.49490052 -3.0657632

encoder_conv2.bias f4 [16]
00000000: 8bb6 7dbf fd5c 96bf 533f 83bf e3ac 81bf
00000010: 3d71 a43e c139 99bf 0f0c 9cbf e953 bcbf
00000020: fd03 a1bf fa29 a0bf 400a 9bbf 846e 7ebf
00000030: 82dc 94bf 7586 0cbf f72c 8cbf f2f8 46bf
-0.99106663 -1.1747128 -1.02537 -1.0130886 0.32117644 -1.197075 -1.219118 -1.4713107
-1.2579342 -1.251281 -1.2112503 -0.99387383 -1.1629794 -0.54892665 -1.0951222 -0.7772361

encoder_conv3.weight f4 [8, 16, 5]
00000000: 20a2 3dc0 3f40 53c0 8ac1 053f 8381 763f
00000010: 9c33 febf b7e5 47c0 19b3 5bc0 4061 ca3e
00000020: cb69 6e3f 6e47 fdbf 7be4 4ac0 1f99 57c0
00000030: 3912 aa3e b22b 733f 05a7 01c0 f78a 4ac0
00000040: 608e 57c0 c9b2 063f 83e8 643f 2d2a fcbf
00000050: f97c 45c0 775a 35c0 1f7d 29bd 8e8c d9be
00000060: 5e12 e6bf 60f3 3dc0 4fbd 54c0 d407 943e
00000070: 5013 823f c802 f8bf 7c9e 42c0 1151 51c0
00000080: eb8e c03e 700b 2c3f ff12 fcbf 26da 45c0
00000090: 2e7f 4dc0 c9ca af3e c14e 053f 5ebd fabf
000000a0: f3cc 46c0 7d42 52c0 1642 c83e c2b5 4a3f
000000b0: 7b3b f8bf b72e 3fc0 8e2d 51c0 645a a13e
000000c0: 9368 683f 0001 03c0 b594 45c0 da5f 51c0
000000d0: 6abd b03e 22a1 7f3f 3b43 02c0 d5e3 42c0
000000e0: 8d0f 53c0 ff01 dd3e 8133 6a3f d0f5 f2bf
000000f0: 144a 42c0 f19d 53c0 1ff5 dc3e ffd1 4b3f
00000100: 001a f4bf 0026 3cc0 af32 5cc0 fbcd c53e
00000110: 1244 983f 4127 f1bf d02d 3bc0 4b1e 53c0
00000120: e9f7 e03e d2f7 8c3f 14d5 02c0 a149 46c0
00000130: 7476 51c0 aba7 d93e b27b 813f 3620 03c0
00000140: 5233 c2bf 779f 92bf 4db5 903f b91a 8b3f
00000150: ca52 a9bf c7b2 b7bf 6b2e 8fbf 4f8a 893f
00000160: fc52 a03f 393b a8bf dd42 cebf 1077 a6bf
00000170: eb71 9b3f 82d7 953f c588 aabf 6587 bbbf
00000180: 2295 a0bf 0aa6 873f 6c4e 993f 31a9 a3bf
00000190: ba36 21c0 630e 19c0 d431 b23d b402 25bd
000001a0: ad58 efbf f386 bcbf 8617 a5bf a725 8e3f
000001b0: 0a02 8e3f 62db b8bf 659f c2bf 24a2 9abf
000001c0: 35d7 8d3f ac8b 8e3f 790f b6bf 24aa b2bf
000001d0: e645 92bf 4e5e 8f3f 9e34 8b3f 1279 b0bf
000001e0: 216f c1bf d414 8ebf a248 873f 50fe 853f
000001f0: 2048 abbf 2d55 bfbf b872 97bf 3d21 8b3f
00000200: df41 8c3f 950d b6bf f40b c1bf 161b 9bbf
00000210: 12a3 893f 11e4 973f 9325 b5bf 5135 babf
00000220: 7f5a 8abf 34b6 913f 3802 9f3f 34f0 adbf
00000230: 5899 b9bf 6321 9abf 769c 8f3f 8652 933f
00000240: e759 b6bf 51b3 bcbf e79d 9cbf e906 963f
00000250: 7595 a33f f499 a1bf 6c89 c5bf a970 9abf
00000260: 4184 853f 9a24 a43f 2787 9dbf 5e63 b8bf
00000270: babc 9cbf ae8a 8d3f 302e 8a3f 8501 b7bf
00000280: 5f5f 33c0 e40b 4cc0 e6b8 403e 51a1 4b3f
00000290: 619b c6bf 7ca1 32c0 569a 51c0 7bb0 ce3d
000002a0: aaf4 423f 5494 cfbf 1b14 35c0 4acb 4bc0
000002b0: 4c60 e83d 8d96 4a3f 6813 d1bf 7b92 29c0
000002c0: e0ab 4ec0 e576 9d3e fdd6 483f 69d8 cebf
000002d0: a6bf 21c0 bfea 16c0 4964 15bd b09e 24bf
000002e0: 89a7 cfbf 3de2 33c0 125a 49c0 203b 953e
000002f0: b07c 5e3f 0240 bcbf 226e 2ac0 31b2 46c0
00000300: f64f 8f3e a313 4f3f a6fb c4bf 11c8 2ec0
00000310: 8eba 3cc0 1527 093e 50e6 e93e 014a c7bf
00000320: bd90 2fc0 58a5 4ac0 0383 8a3e b780 4f3f
00000330: 9236 c7bf b451 36c0 dc34 47c0 640b e43d
00000340: f405 453f 8e12 c8bf af47 29c0 8586 53c0
00000350: b766 003e 2738 313f 5470 d4bf 4211 33c0
00000360: e650 4fc0 317b fb3d ee2d 583f 78ce c8bf
00000370: 8faa 35c0 dc95 4fc0 7b7e 813e 8c7a 5e3f
00000380: 95bf c7bf cd7e 30c0 f025 53c0 22f4 1e3e
00000390: 7b6c 503f 2c61 cebf 9b9f 29c0 4b92 4cc0
000003a0: 1ad1 6e3e a700 5a3f 0846 bfbf 5d99 2ac0
000003b0: 6a46 4dc0 e2af 9d3e 07eb 5f3f 465f bfbf
000003c0: 21e9 0fc0 9471 18c0 4525 c33f a9b9 c73f
000003d0: d82d 00c0 c092 17c0 9c07 16c0 c0f1 a53f
000003e0: cdff 9e3f 1542 03c0 96f1 14c0 8410 16c0
000003f0: 0fa9 883f eb1e ac3f 6f0e fdbf 169d 0fc0
-2.9630203 -3.3007963 0.5224844 0.9629137 -1.98595 -3.1233957 -3.4328063 0.3952732
0.9313018 -1.9787424 -3.1701953 -3.3687208 0.33217028 0.9498855 -2.025819 -3.1647317
-3.3680649 0.52616554 0.89417285 -1.9700371 -3.0857527 -2.8336465 -0.04137909 -0.42490047
-1.7974355 -2.9679794 -3.3240545 0.28912222 1.0162144 -1.9375849 -3.040923 -3.270573
0.37609038 0.6720495 -1.9693297 -3.0914397 -3.2108874 0.343344 0.52073294 -1.958904
-3.106259 -3.2853081 0.3911292 0.7918359 -1.9393152 -2.9872262 -3.2684054 0.31514275
0.9078457 -2.046936 -3.0872014 -3.2714753 0.3451951 0.99855244 -2.0353534 -3.0451558
-3.2978241 0.43165585 0.9148484 -1.8981266 -3.0357714 -3.306515 0.43155763 0.79617304
-1.9070435 -2.9398193 -3.4405935 0.38633713 1.1895773 -1.8840104 -2.9246712 -3.298724
0.4393914 1.1013129 -2.0442553 -3.098244 -3.2728548 0.42510733 1.0115874 -2.048841
-1.5171912 -1.1454915 1.1305329 1.086753 -1.322839 -1.4351434 -1.1186041 1.0745333
1.2525325 -1.3143073 -1.6114155 -1.3005085 1.214414 1.1706393 -1.3322989 -1.4650694
-1.2545512 1.0597546 1.1977057 -1.2786008 -2.5189652 -2.391503 0.0870091 -0.04028578
-1.8698937 -1.4728683 -1.2897804 1.110524 1.1094372 -1.444195 -1.5204893 -1.2080731
1.1081301 1.1136374 -1.4223472 -1.3958173 -1.1427581 1.1200655 1.0875432 -1.3786948
-1.5112039 -1.1100106 1.0569041 1.0468235 -1.3381386 -1.4947869 -1.1831884 1.0869519
1.0957602 -1.4222895 -1.5081773 -1.2117641 1.075289 1.1866475 -1.4152092 -1.4547521
-1.0808867 1.1383729 1.2422552 -1.3588929 -1.4499922 -1.2041439 1.1219623 1.1509559
-1.4246186 -1.4742223 -1.2235688 1.1720859 1.2779986 -1.2625108 -1.5432563 -1.2065631
1.0430986 1.282367 -1.230687 -1.4405324 -1.2245095 1.1057947 1.0795345 -1.4297339
-2.802696 -3.1882257 0.18820533 0.79543024 -1.5516168 -2.7911062 -3.275045 0.10092255
0.7615458 -1.6217141 -2.8293521 -3.1842828 0.11346492 0.7913597 -1.6334047 -2.6495655
-3.2292404 0.30754772 0.78453046 -1.6159793 -2.5273223 -2.3580778 -0.036472593 -0.6430464
-1.6223003 -2.8106835 -3.1461225 0.2914667 0.8690901 -1.4707034 -2.662972 -3.104626
0.27990693 0.8088934 -1.5389297 -2.730961 -2.9488864 0.13393815 0.45683527 -1.5569459
-2.7432091 -3.1663418 0.2705308 0.8105578 -1.5563529 -2.8487368 -3.1126013 0.11134985
0.7696221 -1.5630662 -2.6450002 -3.3050854 0.12539183 0.69226307 -1.659678 -2.7979283
-3.2393126 0.12279356 0.84445083 -1.5688009 -2.838535 -3.2435217 0.2529181 0.8690574
-1.5605341 -2.7577393 -3.2991905 0.15522817 0.8141553 -1.6123405 -2.6503665 -3.196429
0.23321953 0.85157245 -1.4943247 -2.6656106 -3.2074227 0.3079825 0.87468 -1.495095
-2.248604 -2.3819323 1.5245749 1.5603534 -2.002798 -2.368332 -2.3442144 1.2964401
1.2421814 -2.0509083 -2.3272452 -2.344758 1.0676593 1.3446935 -1.977003 -2.2439628

encoder_conv3.bias f4 [8]
00000000: 99c3 c63e 5cb4 b33e 1260 b33e a45c c23e
00000010: 4f36 0b3b 5303 c83e b2fe a63e f0ea b1bc
0.38821104 0.3509854 0.35034233 0.37961304 0.0021242087 0.39065036 0.32616192 -0.021718472

deconv1.weight f4 [8, 16, 5]
00000000: 7d32 c3c0 1064 003e 4432 2fc0 a2dc f93f
00000010: e5b3 44c0 7681 533f f6ca 0bc0 7e22 1440
00000020: 83a0 febf 8d06 27bf ef67 28c0 512c 17c0
00000030: cf12 1ec0 96ed 4640 04da 48c0 0ccd 23c0
00000040: 582a b1c0 0f5f 2f40 bc06 25bf 0138 14c0
00000050: 25db 81c0 7fd8 e43f e510 0ec0 992a 0040
00000060: 4462 27c0 55d2 1b40 8713 71c0 db51 c13f
00000070: 4b70 a6bf cab1 073f e404 87bc a081 69c0
00000080: dc47 0940 3e94 10c0 21af 8cbf 9010 07c0
00000090: f761 ca3f 5329 29c0 bc2b c23f 005c 01c0
000000a0: 21dc 9dbf 8ea1 9bc0 5a99 3040 49b8 d0bf
000000b0: c063 d8bf 8dc4 2440 ec5a 8ec0 6edf 1dc0
000000c0: fc59 1540 1927 733f 4c36 d23f fab0 9ac0
000000d0: af6a 47bd ea63 f23f 320b a7bf adf8 66c0
000000e0: 3513 85c0 ef15 883f a17c b6bf ae19 703e
000000f0: 4d17 adc0 6cb4 8fbd 9e54 3dc0 0711 0640
00000100: 7277 6bc0 cd48 0040 d57d 52c0 055d fbbf
00000110: 5735 1340 f051 98be 0c71 463f 3fca 29c0
00000120: 783f 1040 784b 03c0 03dc 32bf cf37 3dc0
00000130: 398e d73d cb25 05c0 d0a3 0a40 74bb 55c0
00000140: b610 a3c0 c532 793e b19a c2bf 6d9c 7b3f
00000150: 3789 2ec0 250c 493f 381f 94bf 22ed ab3f
00000160: a1b7 75bf 8010 1abd 538c fabf 5e3d d5be
00000170: c3f7 d7bf a876 ae3f a326 f0bf c1d2 85bf
00000180: d1a3 3dc0 0c66 bb3f 4beb 6ebf f867 27bf
00000190: 2aa0 4dc0 10cc c83f 5b0e ccbf 0ec3 883f
000001a0: d2a1 ecbf 0cd6 c33f f12c 04c0 ff6b 9f3f
000001b0: c74a 5ebf 3347 61bd 639d 4fbe 6054 0ec0
000001c0: 1fc8 863f b570 bbbf 4b1e 50bf eaff fbbf
000001d0: ef38 0240 4aa9 b2bf 732d 3a3f 2813 0dc0
000001e0: a98b 0bbf a791 1bc0 4832 c13f a64e c1bf
000001f0: 02a4 2bbf 522f b73f addf 21c0 35ed 7fbe
00000200: 89b1 be3f c366 9cbd 437a da3f d9e6 4fc0
00000210: b567 443e 246e cd3f 0bab 80bd 5eff 30c0
00000220: 769f 3ac0 2ace e03f 2ac7 c6bf e49d 75be
00000230: 22b4 8ec0 6338 af3c ce3a e9bf 633f 953f
00000240: ed46 30c0 5f81 9c3f e6fd a0bf 8139 dbbe
00000250: 78df 9a3f 3d2e 87bf 38db 2c3f e5e8 babf
00000260: b4f4 a33f 87c6 87bf a3f5 03bf d349 edbf
00000270: c140 973e 35a4 a3bf 4d83 953f be34 11c0
00000280: 2b5c b9c0 14da 1e3f 27a4 55c0 7f08 0940
00000290: 5e3c 3fc0 1d8f 903f 4395 1ec0 a429 2140
000002a0: 70a2 0bc0 f3d9 59be 1ef4 1dc0 3def 1cc0
000002b0: 4aef 3bc0 7ce5 7040 eed6 3ac0 3ccb 1fc0
000002c0: 980d b3c0 0aa0 4f40 9a8f c53d 89a6 09c0
000002d0: 2a77 7dc0 7a21 f83f e197 2ac0 94e6 0e40
000002e0: 1c64 2bc0 ea4d 2640 2588 85c0 4b06 d83f
000002f0: 44ff a6bf 2c00 7a3f ec32 fd3e 30de 75c0
00000300: 89ad 1440 4596 08c0 2663 1dbf 18ab fcbf
00000310: 2148 c53f 93e2 44c0 32f0 0640 bd5d 05c0
00000320: e7b4 8abf 39b9 a3c0 1c80 4840 3984 88bf
00000330: 8272 cabf de08 3140 1406 9bc0 b04b 2dc0
00000340: a5d1 4040 d822 913f 5c11 e03f 6226 a3c0
00000350: 7463 a93d ce6f 2c40 be08 4fbf 7da7 4ac0
00000360: b278 84c0 c1e5 763f ccb0 99bf 74e7 563f
00000370: 2004 a6c0 7995 463e f62e 57c0 2237 1040
00000380: 6d29 5bc0 25c0 0d40 709b 52c0 29be 03c0
00000390: 4e54 2f40 de91 b13e f936 803f 5d70 34c0
000003a0: 9ad5 1a40 1935 06c0 31c1 8dbe 195d 3cc0
000003b0: 0d5e ed3e 3252 1fc0 ff88 1240 9254 50c0
000003c0: 1ae0 d5c0 391e e23e 5c4e 02c0 30cb bc3f
000003d0: a01c 53c0 6d86 bf3f e455 10c0 58cb fd3f
000003e0: 3dae e3bf 5a36 90be cd65 2fc0 ac7e d0bf
000003f0: b533 12c0 37c3 fb3f 7dbd 4ec0 1c9b fdbf
-6.099913 0.12538171 -2.737443 1.9520457 -3.07348 0.82619417 -2.1842628 2.3146052
-1.9892734 -0.6524437 -2.6313436 -2.3620799 -2.469898 3.108251 -3.1383066 -2.55939
-5.536419 2.740177 -0.644634 -2.3159182 -4.058001 1.7878569 -2.2197812 2.0026
-2.6153727 2.4347126 -3.7668169 1.5103105 -1.3003019 0.5300566 -0.016481824 -3.6485367
2.145011 -2.259048 -1.0990945 -2.110386 1.5811146 -2.6431472 1.5169597 -2.0212402
-1.2332803 -4.863471 2.7593598 -1.6306239 -1.6905441 2.5744965 -4.448599 -2.466762
2.3336172 0.94981533 1.642282 -4.8341036 -0.048685726 1.8936741 -1.3050292 -3.608928
-4.1585946 1.0631694 -1.4256784 0.23447296 -5.4090943 -0.070168346 -2.9582896 2.0947893
-3.6791654 2.0044434 -3.2889302 -1.9637762 2.3001306 -0.29750013 0.77516246 -2.6529691
2.2538738 -2.0514812 -0.6986696 -2.9565313 0.10525174 -2.0804317 2.1662483 -3.3395662
-5.09579 0.24335773 -1.5203458 0.9828556 -2.727125 0.78534156 -1.1572027 1.3431742
-0.9598332 -0.037613392 -1.9574074 -0.41648382 -1.6872486 1.3629961 -1.8761791 -1.0454942
-2.9631236 1.4640517 -0.9332778 -0.6539302 -3.2129006 1.5687275 -1.5941881 1.0684526
-1.8486884 1.5299697 -2.065243 1.2454833 -0.8683285 -0.05499954 -0.20274882 -2.2238998
1.0529822 -1.464377 -0.81296223 -1.9687474 2.034725 -1.3957913 0.727256 -2.2042942
-0.5450998 -2.430765 1.509347 -1.5102127 -0.6704713 1.4311316 -2.529277 -0.24992831
1.489793 -0.07636788 1.7068561 -3.2484648 0.19180186 1.6049237 -0.06282624 -2.7655864
-2.9159827 1.7562916 -1.552953 -0.23986012 -4.459489 0.021389192 -1.8221071 1.1659969
-2.754329 1.2226981 -1.2577484 -0.4281731 1.2099447 -1.0560986 0.67522 -1.4602324
1.2809052 -1.0607461 -0.51546687 -1.8538154 0.2954159 -1.2784487 1.1680695 -2.2688441
-5.792501 0.6205151 -3.338144 2.1411436 -2.9880595 1.1293675 -2.4778602 2.5181665
-2.1817894 -0.21274547 -2.4680247 -2.452102 -2.93648 3.7640066 -2.9193683 -2.4967794
-5.5954094 3.244143 0.096465304 -2.1507895 -3.9603982 1.9385216 -2.66552 2.2328234
-2.6779852 2.5985055 -4.172869 1.687692 -1.3046651 0.9765651 0.49452913 -3.8416862
2.3230917 -2.1341717 -0.61479414 -1.9739714 1.5412637 -3.076329 2.1084104 -2.0838463
-1.0836457 -5.11636 3.1328192 -1.0665351 -1.5816195 2.7661662 -4.844492 -2.7077446
3.0127957 1.1338758 1.7505298 -5.0984354 0.08270922 2.694324 -0.80872715 -3.1664727
-4.1397333 0.96444327 -1.2007079 0.8394692 -5.1880035 0.19392957 -3.3622413 2.253365
-3.4244034 2.2148526 -3.2907372 -2.0584815 2.7395205 0.346816 1.0016776 -2.819358
2.4192872 -2.0969908 -0.27686456 -2.9431822 0.46360818 -2.4893918 2.2896116 -3.2551618
-6.683606 0.44163683 -2.0360327 1.4749508 -3.2986221 1.4962898 -2.2552423 1.982768
-1.7787548 -0.28166467 -2.7405884 -1.6288657 -2.284406 1.966895 -3.2303154 -1.9812961

deconv1.bias f4 [16]
00000000: 4a99 513d 382b a83a ac89 633b ab47 513b
00000010: 4639 973d 187d 103b 7548 233b 3a40 ac3d
00000020: 519c ea3a 507a 31bf c55e 85be dcb1 ab3e
00000030: b572 613d a9a0 18bf 3dba 37bc a0f4 053b
0.05117158 0.0012830263 0.003471951 0.0031933587 0.07383971 0.0022047218 0.0024915014 0.08410688
0.0017899369 -0.6932726 -0.26048866 0.33534133 0.055041034 -0.5962015 -0.011213836 0.0020439997

deconv2.weight f4 [16, 32, 5]
00000000: f23d 1d40 3066 46c0 ebcf 51bf 6ed1 90bf
00000010: f800 9cc0 2e2e 6040 4c11 15bd 091a 51bd
00000020: bdcb a5bc b881 92c0 7c0d 4bbf 57c3 fd3d
00000030: 85bf a8bf 292e 65bc d71e 78bf 3d12 a13d
00000040: 3d51 6540 fd78 e03c 9fb6 0c3d 21b1 c8bf
00000050: 57af 5abe ca05 94c0 36e7 14c0 fa44 6ebf
00000060: 032d 91c0 29ac 13bf 0143 9dc0 a533 07c0
00000070: 330c 80bf 48f8 86c0 76f0 2b3f 936e 52c0
00000080: 528f 9dbf c0d4 febe 9465 9fc0 5ec2 2abf
00000090: 4762 4d40 02e1 1fc0 2f60 13be 2254 d6bf
000000a0: e437 f23d 4b38 f6bf b343 9ebf e5c7 60bf
000000b0: ef28 81c0 3892 5abe 43af a1c0 837c 2fc0
000000c0: 4b47 89bf cc81 90c0 3ee9 e7be 7880 97c0
000000d0: e575 00c0 e8e3 85bf 5722 77c0 e6eb 6540
000000e0: 150c 00c0 9264 8cbe 4d80 96bf e128 8bc0
000000f0: 482b 323d 81f9 a0bd 1141 8a3d 2261 c6bc
00000100: f9f4 05bd 8f7d 453f 1a6e 3dc0 47f4 88bf
00000110: 0f94 67be 8c23 8ec0 8260 8a3e f327 fb3c
00000120: f496 bbbd ade4 04bd a2e3 26bf 23a0 0d40
00000130: fa31 45bc 4adf b5bd b93d 31bd 30ba 1ac0
00000140: 9835 2940 ea85 33c0 1f92 81bf c51f 03bf
00000150: 8be4 a3c0 8ebf c7be 6c3a 9dc0 99e5 0dc0
00000160: b5a6 88bf 7ee5 84c0 1a1d 3540 a6e7 b6bf
00000170: cfba b4bf a728 24bf 7f53 9dc0 ad98 7b3f
00000180: 1cd1 f2bf 3e91 9abf 9939 01bf fb60 7fc0
00000190: bd9c 453f 6f49 d9bf 66e5 a7bf 789d 80be
000001a0: ab49 6cc0 7444 3c3f 7286 47c0 2e63 b3bf
000001b0: e11d c8be e813 98c0 9e65 f13f 8575 44c0
000001c0: bac9 89bf 432a 33bf 07ef 96c0 880c 413e
000001d0: 9130 6540 4bb7 9bbc da25 b0bd 5e24 c1bf
000001e0: 8a24 95bc 3e85 1c40 3e2b 19c0 6aac 93bd
000001f0: e88f bebf 457d 093f bc2e 64c0 7129 37c0
00000200: 3d66 80bf 3cf7 85c0 05c8 32bf 3227 d2bd
00000210: d1dd a8bf b5ea 943d 3fc3 8cbf 0aca 97bd
00000220: 577f 5d40 c40f b5bd 7e69 163d 77bd cdbf
00000230: 4b59 23bf 7482 a1bd 3946 a3bf 34ec 1a3d
00000240: 4f88 85bf 5432 c13f 53fe 7bc0 84bf 14c0
00000250: 9801 92bf bdc7 96c0 7a67 86be c403 8fc0
00000260: 08bd 19c0 5d3b 83bf 9337 7cc0 ba34 04bf
00000270: 7574 99c0 88d4 01c0 2509 6cbf 70b5 7cc0
00000280: eeaa 07c0 7862 97bc d8e9 c2be bed8 e63d
00000290: 0e52 eb3f 453d 22c0 5020 173d c0f7 a6bd
000002a0: cbc8 26bd 280a 2d40 f69f 52bf 7bd9 0cbe
000002b0: 20d9 243e e9ac 13bf 6e32 9cbe 8068 8fbf
000002c0: d9b5 11c0 4948 70bd bc9e 80bd c88e 0f3d
000002d0: ca67 3bbf 7c46 73bd 015b 7fc0 50e3 07bf
000002e0: b977 16bf f626 0abf b1c3 243d 9781 86c0
000002f0: 519c 81bf 64bc 64bf c517 82bf 0011 3e3d
00000300: 5a12 b6bf d989 893f 262f c33d 66cd 8bbf
00000310: 8e93 ffbf 610e 403d 4739 f6be 464b a2bd
00000320: 29c9 05bf 7a95 a93c 233f 0cc0 9b71 4a3f
00000330: 110c 9b3b 3748 24bf 0dc7 e63c f839 a1c0
00000340: e729 4cbf 3f20 26bf 1248 d3be 5403 913d
00000350: 50a2 7cc0 0c19 81bf f878 5abf f273 03c0
00000360: a42a ebbd b59b 35bf c377 f93d 0ec7 2940
00000370: b8ae 9abd 153f 8d3d 103c f93c 3c88 fd3c
00000380: 8324 93bd 1369 53bf 06ca 683c ffbd 88bf
00000390: 390a 873f fc89 923e 9690 c4be 2915 79be
000003a0: a4f6 59bc b13a c0bd 0e77 cb3d c7da fdbf
000003b0: 9970 cd3c 3e43 763c 30aa c73c 3240 e93f
000003c0: aace 38c0 0511 fabd 907b 92bf f3bc f3be
000003d0: c92c 1640 b2c0 18bf 7d03 023e c62d 84c0
000003e0: e254 6fbf 74c9 3abf fad8 2cc0 96cd 53be
000003f0: c51a fdbe f656 8fbd 49c0 1640 14d9 65bf
2.4569058 -3.099987 -0.8195788 -1.1313913 -4.8751183 3.5028186 -0.03639345 -0.05105022
-0.020238752 -4.578335 -0.7931745 0.12390774 -1.3183447 -0.013988056 -0.9692206 0.07864807
3.5830834 0.027401442 0.03435385 -1.5679055 -0.2135595 -4.6257067 -2.326612 -0.93074
-4.5367446 -0.5768457 -4.914429 -2.1125271 -1.0003723 -4.217808 0.6716379 -3.287999
-1.2309363 -0.4977169 -4.9811497 -0.6670283 3.2091234 -2.4981084 -0.1439216 -1.6744425
0.118270665 -1.9235929 -1.236441 -0.87805015 -4.036247 -0.2134484 -5.0526443 -2.7419746
-1.0724882 -4.5158443 -0.45295137 -4.734432 -2.0071957 -1.0460176 -3.861471 3.592523
-2.0007374 -0.2742048 -1.1757904 -4.34874 0.043498307 -0.07860089 0.06750692 -0.024216238
-0.032704327 0.7714471 -2.959845 -1.0699548 -0.22615074 -4.441839 0.27026755 0.030658698
-0.091596514 -0.032444645 -0.6519109 2.212899 -0.012035841 -0.0888048 -0.043271754 -2.417614
2.643896 -2.8050485 -1.0122718 -0.5122035 -5.1216483 -0.39013332 -4.9133816 -2.2171385
-1.0675875 -4.153014 2.8299012 -1.4289443 -1.411951 -0.6412453 -4.9164424 0.9827984
-1.8970065 -1.2075574 -0.5047851 -3.9902942 0.7719229 -1.6975535 -1.3116882 -0.2512014
-3.6919963 0.7354195 -3.117581 -1.4014642 -0.39085296 -4.75243 1.8859136 -3.0696728
-1.0764687 -0.6998636 -4.716678 0.18852437 3.5810893 -0.0190083 -0.086009696 -1.5089223
-0.0182059 2.4456325 -2.3932643 -0.0721062 -1.4887667 0.5370677 -3.5653524 -2.8619044
-1.0031201 -4.18643 -0.69836456 -0.10261382 -1.3192693 0.07271329 -1.0997084 -0.07411583
3.4608972 -0.08840898 0.0367217 -1.6073445 -0.63808125 -0.0788621 -1.2755805 0.037822917
-1.0432223 1.5093484 -3.9373977 -2.3241892 -1.1406736 -4.711882 -0.2625082 -4.4692097
-2.4021626 -1.0252491 -3.940892 -0.51642954 -4.795466 -2.0285969 -0.92201453 -3.948574
-2.1198077 -0.01847957 -0.38069034 0.11271809 1.8384416 -2.5349896 0.03689605 -0.08152723
-0.040718835 2.703745 -0.8227533 -0.13754837 0.16098452 -0.57685715 -0.30507225 -1.1203766
-2.276724 -0.058662686 -0.06280276 0.035048276 -0.73205245 -0.05939339 -3.9899294 -0.53081226
-0.5877643 -0.539657 0.04022569 -4.203319 -1.0125829 -0.8934996 -1.0163504 0.04640293
-1.422435 1.0745193 0.09530477 -1.0922058 -1.9966905 0.046888713 -0.48090574 -0.079245135
-0.5226007 0.020701159 -2.1913536 0.790796 0.004731663 -0.6417269 0.028171087 -5.0383263
-0.7975144 -0.64892954 -0.41265923 0.07080713 -3.9474068 -1.0085769 -0.85340834 -2.0539517
-0.114827424 -0.70940715 0.12181046 2.6527743 -0.07552856 0.068967976 0.030424148 0.03094875
-0.071846984 -0.82582206 0.014208322 -1.0682982 1.0549995 0.286209 -0.3839156 -0.24324478
-0.013303433 -0.093861945 0.09934817 -1.983239 0.025078105 0.01503068 0.024373144 1.8222716
-2.8876138 -0.122102775 -1.1443958 -0.47605094 2.3464835 -0.5966903 0.12696643 -4.1305876
-0.93488896 -0.72963643 -2.7007432 -0.20683894 -0.49434486 -0.06999008 2.3554862 -0.8978436

deconv2.bias f4 [32]
00000000: bb70 d3be a735 aebe 8603 14be ae7e 5fbf
00000010: 59da cbbd d392 b9bd 73d7 01be e720 a9be
00000020: 49fa b0be 2941 62be 4a7e 81bc b04d 08bf
00000030: 7077 7ebc 8236 07bd ea0b 9bbf b004 58bf
00000040: 159c 65be 96f2 82bd 0d72 80be b154 96be
00000050: 7171 86bd 7e94 13be 2745 9ebe 1c6b 4dbf
00000060: 72f8 2cbf f7a5 c3be c9d3 85be 406b 43bf
00000070: 784f 5cbe 6943 92be 62bd 19be 9c30 0fbd
-0.41296944 -0.34025308 -0.14454469 -0.8730267 -0.09953756 -0.090612076 -0.12679844 -0.33032915
-0.34565952 -0.22095169 -0.01580729 -0.5324354 -0.015531406 -0.033010967 -1.2113011 -0.8438215
-0.22422822 -0.06393926 -0.25087014 -0.2936149 -0.06564606 -0.14412114 -0.30912134 -0.8024156
-0.675666 -0.3821256 -0.26138142 -0.76335526 -0.2151469 -0.28567055 -0.1501365 -0.034958467

deconv3.weight f4 [32, 1, 5]
00000000: c60f e1bf 321d cbbe 8c3f 9abd 60fc 983f
00000010: f362 633f 23bd d9bf d243 9cbf 0fb6 d7be
00000020: a9ab a6be 3504 2e40 e43d d3bf 5c0d d73e
00000030: 65c7 55c0 fc2a 78bf fd22 25c0 2496 5040
00000040: 3fee 81be fa38 a4c0 57e5 19c0 9c46 10c0
00000050: 9bc3 8fbf c29a 6bbf fe4e 863f 3cf3 0b3f
00000060: 3ba8 91bf ffc7 b1bf 0564 8dbf bd6a 8f3f
00000070: 59fa a9bd 5832 cebf e70a e1bf c42b 8ebf
00000080: 2c68 eabe 292b d93e e9a0 7ebf 8e9a 1440
00000090: 8ad8 a23e 5f6c 77c0 7e1b b1bf e860 0fc0
000000a0: 15d3 b8bf 92e1 003e ab8c 313f e0ad 253f
000000b0: ee88 14bf 801c 71bf 74c2 a5bf baf9 8d3f
000000c0: 1ee2 db3d e229 04c0 020c d2bf 21a8 8dbf
000000d0: 50d7 833f 7786 c9bd d43d d0bf 93f5 11c0
000000e0: 316d 6fbf 6665 a2be 987f 573f d97e b73f
000000f0: bf53 13c0 77da 7dbf 85c9 26c0 e939 16bf
00000100: ae99 3bbf 0535 f6bf 4e1f aabf 1535 a2be
00000110: 12bd 113e dc2d a2bf b962 c0be 9b67 c13f
00000120: e2f3 87bf 9f37 523e 9543 1abf 74fb 85bf
00000130: b29d b53e 1d56 83bf 89ff 15bf 564d b33f
00000140: 6068 c0bf 58cd 07bf 7eca 8cbe b090 abbd
00000150: 95d9 0740 c505 f3bf 56b7 6fbf 6080 523f
00000160: f398 053c 2a0d dabf 1699 a8bf e686 2ebf
00000170: 86d1 3bbd ca2b e83e 756a 0c40 5824 eabf
00000180: 4e72 8dbd b184 fb3d e756 753f fe6b a2be
00000190: 0d12 01c0 de61 21be d38d 82be 9aeb 273f
000001a0: ff9e c3bf 1464 c9bf 37df 96bf c9c8 6fbe
000001b0: 15c6 ee3e 53e4 8dbf 1ac3 07c0 be41 c7bf
000001c0: 2f2c 4ebe 4416 833f 0f7e c33d 0448 3e40
000001d0: daef 633d 0722 9cc0 cc6f 00c0 d1a3 25c0
000001e0: 3be5 2540 d175 5d3f 9430 8fc0 0651 f1bf
000001f0: 78f6 42c0 58b4 40bf 3e6f 27bf b966 8f3f
00000200: 7c71 2e3f dccf 043f 5f98 8cbf 0168 153f
00000210: a71d 67c0 7c85 26bf 4a2c ecbf 42f0 3440
00000220: b34c 83be ba87 94c0 50fa a9bf 2ab1 0ec0
00000230: 732c b5bf 42d4 253f b108 48c0 53d5 febe
00000240: f869 06c0 5c2e 46bf 34e8 73be 7a1c 7d3f
00000250: 11ff a63e d637 843f 8a20 61bf be7d d8bd
00000260: e072 8f3f 0845 d13e d16d b2bf 514c e4bf
00000270: d276 76bf e08f 833f 41d7 fcbd 3802 c3bf
-1.7582939 -0.39670712 -0.07531652 1.1952019 0.8882286 -1.7010845 -1.2208197 -0.42131087
-0.3255284 2.7190068 -1.6503263 0.4200238 -3.340295 -0.9694059 -2.5802605 3.2591639
-0.2537708 -5.131955 -2.4046228 -2.2543097 -1.1231569 -0.92033017 1.0492857 0.5466802
-1.1379465 -1.3889159 -1.1046149 1.1204449 -0.08299703 -1.6109114 -1.7581452 -1.1107106
-0.45782602 0.4241574 -0.9946428 2.3219333 0.3180583 -3.8659894 -1.3836515 -2.2402897
-1.4439417 0.12586048 0.6935527 0.6471844 -0.5802144 -0.9418411 -1.2949967 1.1091835
0.10736488 -2.0650563 -1.6409914 -1.1066934 1.0300083 -0.098401 -1.6268868 -2.2806137
-0.9352599 -0.31717986 0.8417907 1.4335586 -2.3019865 -0.99161476 -2.6060498 -0.58682114
-0.7328137 -1.923493 -1.3290803 -0.31681123 0.14232281 -1.2670245 -0.3757532 1.5109743
-1.0621302 0.2052903 -0.6025937 -1.0467362 0.35471874 -1.0260655 -0.5859304 1.4007976
-1.5031853 -0.53047705 -0.2749824 -0.08377206 2.1226552 -1.8986136 -0.93639123 0.82227135
0.008154142 -1.7035267 -1.3171718 -0.6817459 -0.045854114 0.45345908 2.1939976 -1.8292341
-0.069065675 0.12281168 0.9583573 -0.31723017 -2.0167267 -0.1575999 -0.25498828 0.65593874
-1.5282897 -1.5733666 -1.178687 -0.23416437 0.466355 -1.1085304 -2.121283 -1.5566938
-0.20134042 1.024117 0.09545528 2.9731455 0.055648662 -4.8791537 -2.0068235 -2.5881236
2.592116 0.865079 -4.47468 -1.8852851 -3.0462933 -0.7527518 -0.6540412 1.1203223
0.68141913 0.5187967 -1.0984 0.5836182 -3.6111848 -0.6504743 -1.8451016 2.8271642
-0.25644454 -4.641568 -1.3279514 -2.2295632 -1.415419 0.64777005 -3.1255305 -0.49772128
-2.1002178 -0.7741449 -0.23819047 0.98871577 0.32616475 1.032954 -0.87940276 -0.105708584
1.1206932 0.4087298 -1.3939763 -1.783579 -0.96275055 1.0278282 -0.12345744 -1.5235052
