models/SNN_autoencoder_tsri_time2.pth (torch, 37205 bytes, 11 tensors)

encoder_conv1.weight f4 [32, 1, 5]
00000000: fd13 2c3d 090b a13d 27c3 d03d fc29 ab3d
00000010: b5a9 acbe 4026 483d b1aa 8a3d 1c78 f93d
00000020: 4cd4 f93d f33b 0a3d 6070 523b 1d53 983e
00000030: 25e8 1b3d 56de a3bc a8d7 57bd ad47 d63d
00000040: ee31 f7be f865 d13b 8097 d43c d558 09bd
00000050: 55c7 e1be 8d20 e2bd 1d8e 653d b5e0 8fbc
00000060: aada 7d3d 235f 49be c4a9 b2be b00d f43e
00000070: c788 023f 7333 533e 7c6c 3a3e ce69 a6bf
00000080: 51ca 893e 1fca e53e 24bc 353e e0a4 a23d
00000090: 72ec 8dbd 3d6b a93e f232 b6be 4d42 09be
000000a0: b168 2abe dbad db3e 9340 4ebe 7bdb 5f3e
000000b0: 6f17 e8bb 6705 543d c2ae 033e 737d 1e3d
000000c0: 6798 093f 8607 2ebf f0f3 863e 7887 fcbb
000000d0: 6f03 f3bb 4bca cfbd 3eea 1d3f 14e6 07be
000000e0: fe34 cf3e fb1f 803e fe0a 463c cec3 70bd
000000f0: 1c23 343f c427 063e 3bd7 7c3d 1d06 96bc
00000100: 4f08 473c 33f0 22bf 9b55 053f e6d7 123e
00000110: 2e8d 793c e6a7 f13d 0d5d 463d 6d5c b6bd
00000120: c1d7 4c39 aaf9 003d 254a af3e e9d9 b2bd
00000130: c2ae dcbe 5796 a8be 10ad e1be 4400 c8be
00000140: eaee 353e 24c0 143f 5cee 9d3e a810 923e
00000150: 15f3 8e3d 1eca e13c d770 4b3f 67eb 943f
00000160: eadc 773e afdd 473c 9fa2 a5bd 6ad8 a1bc
00000170: 6ad3 c6bd 6ac1 0f3f 8814 1cbe 9790 ba3e
00000180: d1fe eb3e 5f5a 603e f2be 903e f9ee 673e
00000190: 0c6b 953e f155 3f3d f7b7 923e aa73 943e
000001a0: af78 5b3f 52eb f13d b049 af3e c3ba e4bd
000001b0: 51f3 043c 0b61 813e e351 993c 0b9f 933e
000001c0: 36e8 a3be 47c7 f1bc 81c4 863e a52a c23e
000001d0: 5401 1b3f f977 003f c7ee 00bf a69e 043e
000001e0: d265 553e 41c6 513d 73b8 9cbe dd11 46be
000001f0: a6c7 e1bd 0778 c9bc 7919 23bf 58e8 7abe
00000200: fd61 e03e 999f 203e 9151 823e cd9e 923d
00000210: 42a5 053f 7c2e 0a3f cfd2 d43c 0f2a d8bb
00000220: 3132 af3b 5338 03be 95cd b63e a4c8 f63e
00000230: ba81 b03e 1796 7c3f f6a1 493d e10f d13e
00000240: fe7b 2f3e e799 e93c a85d 363e 329c 313e
00000250: 6602 3ebe 05bb 4dbe 5d27 d4be c722 fe3d
00000260: 3256 a53e af4d f6bc bb49 713c eef1 963d
00000270: 5bb2 093e d752 883e b089 883e 90e3 023e
0.04201125 0.07863433 0.10193472 0.08357617 -0.33723226 0.048864603 0.06770838 0.12181112
0.121986955 0.03374858 0.0032110438 0.2975091 0.038063187 -0.020003479 -0.0526959 0.1046289
-0.4828028 0.0063903295 0.025951147 -0.033531982 -0.4409739 -0.11041365 0.056043733 -0.017563203
0.061976112 -0.19665198 -0.34895146 0.47666693 0.50989956 0.20625095 0.18205446 -1.3001039
0.26912168 0.4488077 0.17747551 0.07941604 -0.06929864 0.3308963 -0.35585743 -0.13404198
-0.16641499 0.4290608 -0.2014182 0.21861069 -0.0070828716 0.051762965 0.12859634 0.038693856
0.5374817 -0.6798023 0.26357985 -0.007706579 -0.007416181 -0.10146006 0.6168555 -0.13271362
0.40470117 0.250244 0.012087582 -0.058780484 0.7036607 0.13101107 0.061728697 -0.018313462
0.012147977 -0.63647765 0.5208375 0.14340171 0.015231414 0.11799602 0.048428584 -0.089043476
0.0001953533 0.0314881 0.34236255 -0.08732969 -0.4310208 -0.329272 -0.4407735 -0.39062703
0.1776692 0.58105683 0.30845916 0.28528333 0.06979958 0.027562197 0.79469055 1.1634339
0.24205366 0.01219885 -0.08087658 -0.019756515 -0.09708293 0.561545 -0.15242207 0.36438438
0.46092847 0.21909474 0.2827068 0.22649755 0.29183233 0.04671282 0.2865598 0.28994495
0.85731024 0.11812462 0.34235907 -0.111684345 0.008114652 0.2526935 0.018715804 0.28832278
-0.320131 -0.029513968 0.26321796 0.3792316 0.605489 0.50183064 -0.50364345 0.12951145
0.20839623 0.05121446 -0.30609474 -0.19342752 -0.11024408 -0.024593366 -0.63710743 -0.24502695
0.4382476 0.15685882 0.25452855 0.07159195 0.5220529 0.5397718 0.025979428 -0.0065968107
0.0053465595 -0.12814455 0.35703722 0.48199952 0.34473974 0.9866652 0.049226724 0.40832427
0.17137143 0.02851577 0.17809165 0.1734474 -0.18555602 -0.20090874 -0.41436282 0.12408977
0.32292324 -0.03006634 0.014727051 0.07370363 0.13446943 0.26625702 0.26667547 0.1278212

encoder_conv1.bias f4 [32]
00000000: 2384 063f d358 b93e d003 ea3e 3961 2f3f
00000010: dd99 253f f64b b7bd e32a 0d3f fa6b 083d
00000020: c41c 0bbe c45d ed3e b05d 85bd e33d fb3d
00000030: 27c6 cebd f46c b63e b25c 023f 5920 81be
00000040: 2bda 083d d6cb cf3d 4235 67be 82f1 91be
00000050: c84a d2bd bf28 0b3d e9af 9ebe c4d0 fc3d
00000060: 57b1 8f3f c6ae b53e ebba f2bd 7cd4 1d3f
00000070: ca01 8b3e d5ac 34be 3a1c 733f 0422 bc3c
0.52545375 0.3620058 0.45706034 0.68507725 0.646879 -0.08950035 0.55143565 0.0333061
-0.13585192 0.463606 -0.0651201 0.12267663 -0.10096388 0.3563 0.5092269 -0.25219992
0.033411186 0.101463005 -0.2257891 -0.28504568 -0.1026817 0.033974405 -0.30993584 0.123445064
1.1225995 0.35484904 -0.11852058 0.6165235 0.27149802 -0.17644055 0.94964945 0.022965439

encoder_conv2.weight f4 [16, 32, 5]
00000000: 5070 f8bc 5a90 453d 25a2 93be aea1 e3bc
00000010: b431 67bd 786f 85bd 2384 3c3c 0e44 883d
00000020: c645 14bd 63e6 6838 6606 a2bd cb82 acbd
00000030: 48f7 38bc 405f d2be e789 1ebe 5e33 aebd
00000040: 1b1c 2abd d473 4cbd 204c c8bd e040 82bd
00000050: ec61 b9bc 2c6e 67bd 3833 41be 6ea6 48bf
00000060: 5cb6 51bd 7763 36bc b38d df39 f9d1 50bd
00000070: b4fa 013d 1229 b13c ad84 95bc 49a5 453b
00000080: 1a02 1e3d 5066 bbbc bffc 83bc efdb 2d3d
00000090: 47e2 833e d0ec 433e 68ef 8d3d 3803 363e
000000a0: 0759 49be 4bfb b6bd 1a17 2a3d c1fd 213d
000000b0: c569 0c3d e45e cf3b 70d1 313c 283b acbd
000000c0: 544f 773c 8b79 00bc 9cbd 23bd 5ec6 9cbb
000000d0: 9833 78be 5e01 f13c 0a82 40bd 70d5 debc
000000e0: 31a1 2bbc ec59 113d 900a 35be 9603 ccbc
000000f0: a420 5d3c 56a8 d73c a274 16bc d1bb ca3e
00000100: 9d0a bdbd f6b4 04bd 0ac0 ce3c 3a90 e13c
00000110: 174c 45bd d5e1 34bc 0917 65bd bd3c 20be
00000120: 25f1 873d 0f7e 04be 4920 c8bd 5eda 3f3d
00000130: cc5b 193d 204c 773c 8062 103a 80ef 82bb
00000140: 425f 17bd 02d4 1ebc c3a5 7f3c 972e 00bd
00000150: 6dd9 b83c a7d8 d63d 5af2 3d3b 526d 0e3d
00000160: a6d2 fb3d f993 63ba bf3d 64be 3fff 90bd
00000170: 39f7 31be a1c4 443e b7b9 033d 991b 7c39
00000180: b3f2 17bb 2119 a03d 7ee5 f53b 0815 18bd
00000190: 29c9 f53c 5463 c5bc 7b75 853e 1786 6c3d
000001a0: dcc6 4dbb 1383 02bd 5c77 333c 03b3 b03d
000001b0: b1d1 56bd 7a2a 6bbc 5bdf f03d 1f38 34ba
000001c0: 10a8 b3bb 11e3 c8bd 2ca6 443e 5cbf 0cbc
000001d0: 55f8 c33b 6b3a e5bc aa12 b03d a624 fb3c
000001e0: 1c5d d13b ad56 e43b 740b 0fbc 7a65 503e
000001f0: 40cd c93b fdf0 6b3d 6417 b9bc 79f4 133e
00000200: da7c 68bc f454 1bbc 3c1c 5c3c 57d1 3a3c
00000210: 4cf3 023d 0b9a d33a 9714 0cba 15eb 36bb
00000220: 2171 a4bc 8317 0c3e 6e60 fcbc 6cc3 4d3b
00000230: 71e1 a7bc 8699 bebb a58d 0dbd 3a83 973e
00000240: ecf6 083d 980b a13d 55f5 03bd 071a 2abd
00000250: 1eb8 b13c a85d 943d 3c0d 063d 7f3a 6e3c
00000260: 7afb e5bb e9dd 753d 26a2 843c 66da 93bc
00000270: a78c acbb f352 d63d 3edb 04bd b3c9 4c3d
00000280: 2066 4abe 6152 7c3d f83b 883d d109 273d
00000290: 53d8 103e 71a7 87bf 2dc7 42be a484 18be
000002a0: cfd8 b83e 9f02 0a3c 3b12 1ebf e165 c3be
000002b0: 33c4 ba3f c886 723b 156c be3d f5dd 44be
000002c0: 7d8c b3bc 31d7 99bf c4fc e13c e686 7f3c
000002d0: c76e b33e 2667 57bc c824 70be aaf6 243e
000002e0: f5a7 23be 7923 7a3d e1d0 5bbd 2c1c abbd
000002f0: 19b3 be3d 6dd0 a13d a5cc 8b3d 909d 1dbe
00000300: 3393 9c3d 697a 97bd 7651 0abc df7d e1bd
00000310: 246b f6bd 27c7 08be 74d6 c53d 1d66 3bbd
00000320: db4c 943d cc3a 783c 5790 e7bc ec44 47bd
00000330: 79b4 5a3d d35a 763d 6ab3 76bd 4c80 033e
00000340: 6597 803d 4c00 6f3d 4e3d 78be 0744 08be
00000350: 6ed7 bdbd 5707 683c b99e e93d 619c f6be
00000360: 428f b4be c42f 1c40 9f9e 553e 0629 5a3e
00000370: ec56 1dbf 4cf7 33be 8214 bb3d f0f4 e53c
00000380: 2c96 6c3e ebaa c13c 8bdf acbc d70f 693e
00000390: 44e1 01bd dee7 483d f950 2fbe 9788 98be
000003a0: f31f 17be 9ea0 33bd 5313 1abe 4cc5 9c3c
000003b0: 2819 5fbd 88b3 ac3c 12ad 74bd 90e0 19bc
000003c0: 09b1 c53d 8cb9 f83d 7fc4 223e 0133 11be
000003d0: 69b4 45bd cdae 213e aad8 25bd 0a2d c23d
000003e0: d7e4 b2bc a8f9 9fbd f75a a7be 496d 053d
000003f0: 8397 dbbc 2f28 4bbd 098a 1a3e 5b17 443c
-0.030326992 0.048233368 -0.28834644 -0.027787056 -0.056443885 -0.065154016 0.011506113 0.066536054
-0.036199354 5.5527675e-05 -0.07911377 -0.08423384 -0.011289425 -0.41088295 -0.15482293 -0.08505891
-0.04153071 -0.04991515 -0.09780145 -0.0636003 -0.0226297 -0.056501552 -0.18867195 -0.7837895
-0.051199302 -0.011132113 0.0004263945 -0.050981496 0.03173323 0.02162603 -0.018251741 0.0030158332
0.038576223 -0.022875935 -0.01611173 0.042446073 0.25758573 0.19133306 0.06930429 0.17774665
-0.19662867 -0.08934649 0.041525938 0.03954864 0.034280557 0.0063284505 0.010853156 -0.08409721
0.015094597 -0.007841478 -0.039975747 -0.0047843894 -0.24238431 0.029419597 -0.046999015 -0.027201384
-0.010475443 0.035486147 -0.1767981 -0.024904054 0.013496552 0.026325386 -0.009183081 0.39596418
-0.0923054 -0.03239914 0.025238056 0.027534593 -0.048168268 -0.011040171 -0.05593017 -0.1564817
0.066377915 -0.12938713 -0.09771783 0.04683911 0.03744106 0.015093833 0.00055078417 -0.003995836
-0.03695608 -0.009694101 0.0156034855 -0.03129443 0.022564614 0.10490542 0.0028983564 0.034772225
0.122960374 -0.00086814124 -0.2228918 -0.07079934 -0.17379464 0.19215633 0.032159533 0.00024042874
-0.0023185431 0.07817293 0.0075041642 -0.037129432 0.030003147 -0.024095215 0.26066193 0.057745066
-0.0031399047 -0.031863283 0.01095375 0.08627894 -0.05244607 -0.014353389 0.11761352 -0.0006874818
-0.005482681 -0.098089345 0.19204015 -0.0085905455 0.005980531 -0.027981957 0.0859731 0.030657124
0.0063892733 0.0069683404 -0.008730758 0.2035121 0.006158501 0.05760287 -0.022594161 0.14448728
-0.014189923 -0.009480704 0.013434466 0.01140245 0.031970307 0.0016143931 -0.00053436443 -0.0027911116
-0.020073475 0.13680844 -0.0308077 0.0031396998 -0.020493241 -0.0058166413 -0.03455891 0.29592305
0.033438608 0.078635395 -0.03221639 -0.041528728 0.02169424 0.07244426 0.032727465 0.014540314
-0.0070185037 0.060026083 0.0161906 -0.018048476 -0.0052657905 0.1046504 -0.03243565 0.049997043
-0.1976552 0.061602 0.06652063 0.040780846 0.14145021 -1.0597974 -0.19021292 -0.14894348
0.36102912 0.0084234765 -0.6174657 -0.38163665 1.4591125 0.0037006605 0.09297959 -0.19225295
-0.021917576 -1.2018796 0.027586348 0.015596127 0.35045454 -0.013147151 -0.23451531 0.1610972
-0.1598204 0.061068986 -0.053666 -0.08354983 0.09311504 0.07901082 0.06826142 -0.15392137
0.076452635 -0.07396395 -0.008442273 -0.11010336 -0.12032154 -0.1335722 0.09660044 -0.04575168
0.072412215 0.015150737 -0.028267069 -0.048649713 0.05339477 0.06014521 -0.060229696 0.1284191
0.06278876 0.058349892 -0.24242136 -0.133072 -0.092696056 0.014161906 0.11407227 -0.48166183
-0.35265547 2.4404154 0.2086129 0.21304712 -0.6146076 -0.17574805 0.09134771 0.028070897
0.23104161 0.02364107 -0.021102687 0.22759949 -0.03170897 0.04904925 -0.17120732 -0.2979171
-0.14758281 -0.04385435 -0.15046434 0.019137047 -0.05446735 0.0210817 -0.059735365 -0.009391919
0.096529074 0.12144765 0.1589527 -0.14179613 -0.048267756 0.15789337 -0.04048983 0.09481247
-0.021837635 -0.0781129 -0.32686588 0.032574926 -0.026805645 -0.04959887 0.15091719 0.011968459

encoder_conv2.bias f4 [16]
00000000: 0fe5 143f 2d10 903e 6dc7 793f c898 8f3f
00000010: 1b2f fc3e a28f b03e 8747 ad3f bd48 8a3f
00000020: bb06 143e 4cd4 623e 1418 0e3f 9cdc 31be
00000030: 3a94 133e 3b91 7ebd 4eea d33d a6e0 a53f
0.58162016 0.2813734 0.97569925 1.12185 0.4925469 0.34484583 1.3537453 1.0803448
0.14455692 0.22151297 0.5550549 -0.17369312 0.14412013 -0.06215022 0.103474244 1.2959182

encoder_conv3.weight f4 [8, 16, 5]
00000000: 2290 9539 5477 d6ba 1e8e 2437 21ed a2b9
00000010: 6afc 05bb 9420 453b 70c7 02bc c8fc 0dbb
00000020: 5a5e 4fba aed3 10b9 06e0 d2ba 45cc cfbb
00000030: 0063 90bb 9a33 8bbb 1430 feb9 d398 713d
00000040: 17e7 253c 4884 70bc c8b3 28bc bd99 70be
00000050: 0aac 15bb d118 17bd 2cb2 1fbd bb61 393f
00000060: 0b43 96bc d3f0 c43a 00e4 8cbc 2470 613c
00000070: cce2 3b3f d821 3c3a 5871 2d3b 69a5 653d
00000080: 6861 1ebb 83c1 c63b b319 55bb 984e 753a
00000090: eea8 2f3c 697e bab9 1d38 d4ba eb65 203a
000000a0: fb03 b43b 27b7 a5bb 55a4 903b 8ac7 31be
000000b0: f19d ca3a 242a 3e3a 4f2f 1abc 7993 acbb
000000c0: a9be 79ba 5d33 02bb cf0f 35ba 2c92 e3ba
000000d0: 4ce0 cf39 baa5 9cbb f584 49ba ea7b 56bb
000000e0: f23e 21bf 1824 373a d981 dcbc c136 3fbb
000000f0: dd4a 36bb 99b5 2fbc 7b2b a5ba 166b adbd
00000100: 896e a2bb 2edc 8ebb ae3a 8a3b 15a8 0fbb
00000110: 1929 523f 5fc0 37bb cea9 3abb 2ffc 1d3c
00000120: b930 14bb a608 04bc f29d e5ba fbe2 703a
00000130: 28f3 073b 01e3 11bb d5ec 63bb de75 beba
00000140: c3e4 89bb 4128 89ba 0fa0 a63c 8786 ba39
00000150: f1f3 9738 c86e 9b3c f73a 2dbc d619 393c
00000160: 7e7f 28bb 55c9 253b aaeb e8bc 62a7 3bbc
00000170: 1533 673c a5f4 0e3b db1f 4fbc 6a5d 783d
00000180: 1047 c7bd eed7 e83d 91f1 653e 7458 83be
00000190: 5f69 ec3c 82d3 c53c 0c49 46bc 9ffe bc3b
000001a0: 507f a2bc b600 833c e082 973d 0a18 ac3c
000001b0: 2dd2 0f3e 4eba aab9 29c1 4d3b 0a4b 213d
000001c0: 9708 16bc 75d8 823c 6e5e 7f3b 3c47 533b
000001d0: a265 6abb d6fa 57ba 3728 d03c 8436 273b
000001e0: bde8 ed3b efb3 92bd 832b 93bc 667a bebc
000001f0: 0c46 ae3a 6607 613c 6692 13bd ee3c 0cbb
00000200: ad9d 58bb 8438 0cbc 71d0 bb3a a82e 2fbc
00000210: 420b 2cbc 482d 4a3b 29fe 0c3b 82e3 4cbc
00000220: 73b1 93bc 470c f43a 50fb e53b 637e 013c
00000230: 856b a339 cd9b 6cbd 123d 34bb c932 713d
00000240: 324e 60ba 62a1 98bb 27b3 1b3b 51a2 36bc
00000250: 3f49 b93c ceb4 ad3b dacb 323a 496f 24be
00000260: 520b da3b 3d29 923d 41c1 bcbb 8ba7 a23c
00000270: 8480 6e3c 8cc0 813c 3f7e 3dbb 1cd1 623b
00000280: 9dd5 dd3b f6e2 dbbb b839 fdb9 e915 b03a
00000290: 51b6 053c 87cd edbb 4e45 193c 4039 c3ba
000002a0: 2348 00bd cf6a 95bb 88c7 6a3c daef 16bc
000002b0: 880c bd39 e985 18bd a11c 88bb b544 453c
000002c0: bbba 6e3c 8847 243d c022 74bd 8cf0 f93e
000002d0: 6f65 debb 779d 903b 22e0 32bc d797 4ebb
000002e0: 345d d5ba 31a3 5c3c 4cc7 d9bc 4aa5 a43a
000002f0: 7aaf 853e f48d 95bc 712c 43bb 9eb7 4b3b
00000300: 6ba0 6bbb d07a cabd 5ddb f33b a06a b7bb
00000310: 698c 92ba c7c1 9cbb ea21 69bc 3a49 38bb
00000320: cf3c 35bb 1046 013e d014 63ba 0c17 02be
00000330: cc1e bd39 4a25 af3c cfea 50bb e7bb 253b
00000340: 31e6 253a 35ae dab9 ffff 2fbc 29f7 e7b6
00000350: ad68 2c3a 98fb 02bc 8df6 d53b 29a5 423a
00000360: a765 c9bc 90a8 7ebb 83b8 afbc 0d31 a9bb
00000370: 8e2e 133a 024e 6cbc d18a 593b 52fc 5cbd
00000380: b67b 953b 0e60 84bb 9d76 d03c 3dfa 08ba
00000390: 6bd2 433d 74b8 b5ba 384d 8c3b eb26 233d
000003a0: 07d7 47b9 2611 5fbc c678 863b 6359 963c
000003b0: 6628 90bc 633e fe3c 3d3d 37bc cefa a93b
000003c0: a27e 80bc b210 bdbb 1872 283b 24bf 98bb
000003d0: 635f dfbc 8198 fa3c b8f1 8e3b 9110 07bd
000003e0: 6bfb 593c b695 413f f782 fcbc 9e05 4ebc
000003f0: d0e0 2b3d 2fb7 08bc 6cc2 19bd 6d12 77bc
0.00028526882 -0.0016362467 9.808251e-06 -0.00031075723 -0.002044464 0.0030079233 -0.00798212 -0.0021665562
-0.0007910483 -0.00013811767 -0.0016088493 -0.0063414895 -0.004406333 -0.0042480947 -0.00048482476 0.058983635
0.010125897 -0.014679976 -0.010296769 -0.23496147 -0.002283814 -0.0368889 -0.038988277 0.7241475
-0.018342515 0.0015025384 -0.017198563 0.013759647 0.7339294 0.0007176674 0.0026465263 0.05606595
-0.0024166945 0.006065549 -0.0032516539 0.00093577197 0.010721428 -0.00035570867 -0.001619104 0.00061187026
0.0054936386 -0.005057234 0.004414121 -0.17361274 0.0015458447 0.0007254204 -0.009410693 -0.0052666035
-0.0009527007 -0.001986704 -0.0006906958 -0.0017362288 0.0003964923 -0.0047804983 -0.00076873536 -0.0032727667
-0.6298667 0.00069862744 -0.026917385 -0.0029176923 -0.0027815618 -0.010724449 -0.0012601459 -0.08467691
-0.0049570245 -0.0043597436 0.004218421 -0.0021920253 0.8209396 -0.0028038246 -0.002848256 0.009642645
-0.0022612049 -0.008058703 -0.0017518385 0.0009189096 0.0020744298 -0.002226055 -0.0034778614 -0.0014530977
-0.0042081787 -0.0010464267 0.020339994 0.00035576915 7.245679e-05 0.018973723 -0.01057314 0.011297664
-0.0025710757 0.0025297005 -0.028432686 -0.011453481 0.0141113 0.00218133 -0.012641872 0.06063596
-0.09730351 0.1136931 0.22455432 -0.25653422 0.028858839 0.024148706 -0.012102377 0.005767658
-0.019836098 0.01599155 0.07398009 0.021007556 0.1404502 -0.00032563735 0.003139565 0.039378203
-0.009157321 0.015972355 0.0038966197 0.0032238504 -0.0035766144 -0.00082389766 0.025409801 0.0025514672
0.0072604106 -0.07163226 -0.017965084 -0.023251723 0.0013296022 0.013734674 -0.03602829 -0.0021398622
-0.0033052966 -0.008558396 0.0014329088 -0.010692276 -0.010500731 0.0030849744 0.0021513796 -0.012505414
-0.01802895 0.0018619382 0.007018484 0.007903668 0.0003116989 -0.05776577 -0.002750222 0.058886323
-0.0008556574 -0.00465791 0.0023757906 -0.011147098 0.022617934 0.0053010946 0.00068205374 -0.16058077
0.0066541815 0.07136772 -0.0057603423 0.019855281 0.014557008 0.015838884 -0.002891436 0.0034609502
0.0067698495 -0.0067104055 -0.00048298924 0.0013434264 0.008161143 -0.007257167 0.009354902 -0.0014894381
-0.031318795 -0.0045598517 0.0143297985 -0.0092124585 0.00036058226 -0.03723708 -0.0041538035 0.012040307
0.014570887 0.04010728 -0.059603453 0.48816335 -0.006786994 0.0044133025 -0.010917695 -0.003152361
-0.0016278387 0.013466642 -0.02658429 0.0012561467 0.2611044 -0.018256165 -0.0029781128 0.0031084786
-0.003595377 -0.09886706 0.0074419216 -0.0055974275 -0.0011180762 -0.0047838422 -0.014229277 -0.0028119818
-0.0027654653 0.12624383 -0.0008662464 -0.12704104 0.00036071835 0.021380085 -0.0031878238 0.0025289
0.00063285517 -0.00041709995 -0.010742187 -6.9131097e-06 0.0006576877 -0.007994555 0.0065296353 0.00074251235
-0.024584604 -0.0038857795 -0.021450287 -0.005163318 0.0005614542 -0.014422895 0.0033194313 -0.05395157
0.0045618666 -0.004039771 0.025447184 -0.00052252767 0.047808092 -0.0013864175 0.004281666 0.039832037
-0.00019058223 -0.013614928 0.004103753 0.01835317 -0.017597388 0.031035608 -0.011184034 0.005187369
-0.015685383 -0.0057698125 0.002570277 -0.0046614576 -0.027267164 0.030590298 0.004362311 -0.032974783
0.013304572 0.75619066 -0.030824168 -0.012574581 0.041962445 -0.008344456 -0.03753893 -0.015080077

encoder_conv3.bias f4 [8]
00000000: 42ec 923f ca97 6c3f d160 253f 4514 233f
00000010: c0c0 233f df77 cf3e e1e0 cc3e 169c 4b3f
1.147835 0.9241911 0.64600855 0.63702804 0.6396599 0.40521142 0.4001532 0.79535043

deconv1.weight f4 [8, 16, 5]
00000000: 3f56 06bd e6e9 c1be 4033 94bc 784b 7bbe
00000010: 23ba cebb 9f0d 373c 6dac 14bf 66ea 44ba
00000020: 6a51 e6be 70cf 353b 1350 193d 98cb edbc
00000030: d78e 2b3b 9d7b c7bb 95da 543c 3fbb b63a
00000040: 9280 14bf a75c 19b9 9f78 703e 1486 6c3a
00000050: 94d0 5abb 64c6 27bd 7ca0 aabd 4792 ec3d
00000060: e09c 28bd 6873 a1bd 3754 053c 10ee 05bd
00000070: e99b 2dbc 0b25 8dbd 0748 5c3a 9e63 dd3d
00000080: 1d01 6fbb 99c6 ecbd b30e 6f3b a6c6 fb3b
00000090: 723b 0bbf 50c8 6939 3d53 903e 1802 e03b
000000a0: ff03 423a 895c 7cbe d7e8 033b 161a 83be
000000b0: 9f0d 37ba 2ad9 08be de1c ff3c a8ee c5bd
000000c0: 740c ad3a 4186 9cbd 4b8b cbbb ebaa 3b3d
000000d0: 5771 acbc dff8 d7ba 529c 83bc e264 af3d
000000e0: 026e 853b 76c7 f53a 3ef4 133b 84e1 253d
000000f0: 3782 14be 5c4d 53bf 2fca 06bc 8cb5 dc3e
00000100: 59ac 39bc 989f 38bb af64 3d3f 5cf2 96ba
00000110: 4fe7 87bd 2b04 e6ba e5cf b8bc 5d2f 3e3b
00000120: 03fa 7bbb 5b0b ec3a 49af 6e3c 484a cfbf
00000130: 1286 37bd 6d1d 403f 183b 43ba c391 903c
00000140: 1caa 8b3e 53d5 4b3e 74a7 7c3e 1eb2 8cbe
00000150: 890e bcbc 23bb 51bd 1a87 86be 99a5 4dbe
00000160: f932 ecbe aa11 00bc 61ca 1dbb 2577 a7bc
00000170: 540b 51bc 0a1a b9bb c84c cdb8 bc2b d2ba
00000180: 0e4d 1cbf d7c1 783c ff4b a83d 4d01 063b
00000190: 1632 9bbc 2158 75bf a5c0 fabd 1be1 9b3d
000001a0: 55c7 92bd ec2b 09be 0eac 883d 9bbd ddbe
000001b0: 219a ffbc f78b 29bd a349 6fbc b382 f9be
000001c0: e916 b5bd cc45 a33d 90de ed3b 25dc dd3b
000001d0: 2d0a 35bf 72ee 03bf 34c1 5a3d 4428 38bd
000001e0: f5af f03c e345 4fbe a185 b5bd d6b5 3fbe
000001f0: ce77 8abb 9683 17be 5b8e 9e3b 1e3c aabe
00000200: cef1 05bc f06d 9bbd 0996 d5bd fbbe a4be
00000210: 7de5 b73e 2bed 363d be4e 7abd f181 c53d
00000220: 2b15 ed3e 9bc0 ccbf 5658 fd3e d569 d73d
00000230: ddb6 9e3f 558a 82bf 134a ebbd ce9c 8d3e
00000240: 82e5 2a3c 5435 f23b fee7 73bf ef6f 84bc
00000250: c2fa 203d a501 87bb f633 2e3c edbe f6be
00000260: 98b8 7abe 1ea4 153d f910 063d cbb2 ccbf
00000270: ec2f da3c ae55 bc3e 679e dfba a54f dbbc
00000280: a426 7fbe d5ba 653c fc17 113c e761 8cbf
00000290: 6a4f 9a3c 7fc0 19ba 88a9 14bf 28f1 1abc
000002a0: 6b5f 983d d4e0 80ba 6e97 683b b94a 9cbd
000002b0: 6fc1 a93d c944 fdbc a066 89b9 4643 a33b
000002c0: 808b 0e3f 15e2 a03a 9a85 cbbe 67f4 57b9
000002d0: 464e b13b 65be 183f e077 dabd aa46 25bf
000002e0: 3c95 413e 84ba 1bbd 8a84 ea3d dc18 163e
000002f0: f119 3fbe 1fef 10bf a831 bd3a 2660 513e
00000300: 54f4 e13a 7b62 27bf 3a6e 1439 9e14 11bb
00000310: a41a 1d3f eac3 0f3e 09ca 89be 3a64 cb3a
00000320: 2a05 a7b9 f49c 85be d97c 02b9 96a1 e83b
00000330: 8bea cc3a fdfb cabd c660 d23b 7f3b 5b3d
00000340: 37f0 c23c 9954 f7bd 9b84 833d 5a0c 743c
00000350: 0613 3cba a6dc ee3d d53d 113d 859c f73a
00000360: c149 4cbf a763 d93e 089f 793b b5ab a83a
00000370: ac64 36bc bc0f 5cbf 3754 6a3c e06c 04bf
00000380: 090d 9239 6e00 49bc 14cd f73e a7c4 6ebb
00000390: d39a 20bf ecb6 89b9 93ac dd3a 6b4c 0e3e
000003a0: 2c93 c2bb 249b 90be 9755 a6b9 7ff6 d2bf
000003b0: c1b3 50bb 3833 4dbd e4e2 51bc 500d 1f3b
000003c0: 3721 0ebb 4266 66be 9eb2 0abb 7144 88bf
000003d0: f8df bdbd f365 90b8 add7 d1be 3aff cc39
000003e0: 5e01 dbbd b43c 27bb 8616 513b 8b9a 8bbb
000003f0: 16b7 1a37 b9ab 8d39 db0b 60bb 35a6 453a
-0.032797094 -0.37873763 -0.018090844 -0.24540508 -0.0063088103 0.011172681 -0.580756 -0.0007511735
-0.4498399 0.002774205 0.03742988 -0.029027745 0.0026177668 -0.006087734 0.012991567 0.0013941302
-0.5800868 -0.00014625733 0.23483513 0.0009022665 -0.0033388482 -0.040960684 -0.08331391 0.11551338
-0.041165233 -0.0788334 0.008137754 -0.032697737 -0.010596254 -0.06891831 0.0008403067 0.10810016
-0.003646917 -0.11561317 0.0036477267 0.007683593 -0.5438758 0.00022295234 0.28188506 0.006836187
0.0007401108 -0.24644674 0.0020127797 -0.2560584 -0.00069829257 -0.13364092 0.031141695 -0.09664661
0.0013202564 -0.076427944 -0.0062116734 0.045817297 -0.021050138 -0.0016477368 -0.01606575 0.08564164
0.004071952 0.0018751461 0.0022576 0.04049827 -0.14502798 -0.82539916 -0.008226915 0.4310726
-0.011332595 -0.0028171297 0.73981756 -0.001151632 -0.066359155 -0.001754885 -0.02256007 0.002901993
-0.003844858 0.0018008755 0.014568158 -1.6194544 -0.044805594 0.750449 -0.00074474653 0.01764763
0.2727822 0.19905595 0.24673253 -0.27479643 -0.02295615 -0.051203858 -0.2627495 -0.20082702
-0.4613264 -0.007816711 -0.0024076926 -0.020442555 -0.0127590485 -0.005648856 -9.7894634e-05 -0.0016034762
-0.61055076 0.015182934 0.0821762 0.0020447553 -0.018944781 -0.958376 -0.12243775 0.07611295
-0.07166926 -0.13395661 0.06673442 -0.4330872 -0.031201424 -0.041393247 -0.014604959 -0.48732528
-0.088422604 0.07972297 0.0072591975 0.006770628 -0.7071865 -0.51535714 0.05340691 -0.044960275
0.029380778 -0.20241503 -0.08863378 -0.18721709 -0.0042257076 -0.1479629 0.0048387474 -0.3324899
-0.0081753265 -0.07589328 -0.104290076 -0.32176957 0.35917273 0.044659775 -0.06111025 0.09643925
0.46305212 -1.5996279 0.49481457 0.10518233 1.2399555 -1.0198466 -0.11488738 0.27658695
0.0104306955 0.007391611 -0.95275867 -0.016166655 0.03930164 -0.004120069 0.010632506 -0.4819254
-0.2448448 0.036533467 0.03273103 -1.5992063 0.026634179 0.36784118 -0.0017060757 -0.026771376
-0.24917084 0.014021595 0.008855816 -1.0967377 0.018836696 -0.0005865171 -0.58071184 -0.00945691
0.074400745 -0.0009832629 0.003549065 -0.0763144 0.08288848 -0.030916588 -0.00026207138 0.004982385
0.5568161 0.0012274409 -0.39750367 -0.00020595045 0.0054109422 0.5966552 -0.106673956 -0.6456095
0.18904585 -0.038019672 0.11451061 0.1465792 -0.1866224 -0.5661487 0.0014434354 0.20446834
0.0017238953 -0.65384644 0.00014155442 -0.0022137533 0.61368775 0.14039579 -0.26911953 0.0015517541
-0.0003185657 -0.26096308 -0.00012444275 0.0070993407 0.0015633864 -0.09911344 0.0064202277 0.053523537
0.023796184 -0.120766826 0.06421777 0.014895523 -0.00071744656 0.11663179 0.03545936 0.0018891251
-0.7980004 0.4245884 0.0038089175 0.0012868555 -0.0111324005 -0.8596151 0.014302305 -0.5172863
0.00027857002 -0.012268169 0.4839865 -0.0036433132 -0.62736243 -0.00026266964 0.0016912393 0.13896339
-0.0059379544 -0.28243363 -0.00031725757 -1.6481475 -0.0031845423 -0.050097674 -0.012810443 0.002426941
-0.0021687278 -0.22499946 -0.0021163593 -1.0645887 -0.09271234 -6.8854446e-05 -0.4098486 0.0003910007
-0.1069362 -0.002551836 0.0031904294 -0.0042603663 9.221743e-06 0.0002702156 -0.0034186754 0.00075397204

deconv1.bias f4 [16]
00000000: 3cb3 0ebe c52f f53e dfc6 f43d e000 bd3e
00000010: 2238 8abe f3c1 3f3d 18b0 3e3e 5e61 433e
00000020: fdf4 a43e c04a a03e 2745 df3d 6ace 07bf
00000030: fc76 8b3e d731 563e 12be 173d 5961 a73d
-0.1393556 0.47888008 0.11951994 0.3691473 -0.2699595 0.046815824 0.18621862 0.19080111
0.3221816 0.3130703 0.10901862 -0.5304934 0.27239215 0.2091745 0.0370465 0.081728645

deconv2.weight f4 [16, 32, 5]
00000000: bc07 84bc bc74 a0be 9ebd 1a3f 8c76 8c3b
00000010: 2df8 eebd f69e 20bd bac3 a63c 6d7d 43bd
00000020: 9bfc 383e f879 23bd 1c95 fe3c 5c00 933c
00000030: f59f b3bd 2f2b 6f3e 1e06 9e3c 8675 e13c
00000040: 6088 e03c be10 c5bc 3051 053d 64df 083d
00000050: 99c9 7e3e 38e4 9ec0 c829 373e 587c 58be
00000060: bebc bfbe 893e 213d c90e 243d 7ac7 6d3c
00000070: 518b ac3d 53d9 d13b 2cba 3ebf cca8 39bd
00000080: c6c0 173e 4b3a 49bc 11a9 bf3c fc70 603e
00000090: 8e3b 533e f92f 90bd d072 2cbe 2ca1 c33d
000000a0: 6fa0 06bd 9148 0bbd 4842 bebd 185e 043c
000000b0: 197b 83bd 4fa5 d6bc aabf babc 1482 35be
000000c0: e46e 11bf dd5c 383c 8156 e6bf 4707 6f3e
000000d0: 768f 243e 3ed1 2140 1ba9 4c3c 64d3 08bf
000000e0: 338c 203d 0c29 38be 2981 d0bc 109a 87be
000000f0: d100 0dbe 5980 c5bc ed90 afbe 79a2 093e
00000100: be60 0d3f 0eab 85be 13c4 62bd 25a3 24bf
00000110: 502b c03e ee48 f4bd 8516 503b 8306 ce3d
00000120: 350e c83d 4f81 ea3d 9fc7 5c3a 3ace d33d
00000130: 66d1 88bd 24e9 94bf 661e b1bd 7960 62be
00000140: 2ec5 883e 2c32 bcbe 4781 043d cf03 c63d
00000150: 23af dd3b 3307 c9bd a176 443d a580 6abd
00000160: 5599 c23c 1a0f abbd 2262 013e cb32 583e
00000170: 4db5 93bc 58cc 9e3d 3f40 90bd 2d52 383e
00000180: c480 e23c 6205 f93d ee6c 3fbd 6d3d de3b
00000190: 9a99 fabc a055 ecbe 5f77 713e 9116 933e
000001a0: 76ab a3bc 3b71 95be d203 4d3e 2662 9fbb
000001b0: 02c1 1f3d f973 6fbd 68bb 8bb9 2985 95be
000001c0: 1f1e 62be 4f6e 1abf 08e3 233e 1660 c73c
000001d0: 9d7a 7cbd 8277 30be 043c debd f3ee 23bf
000001e0: 07cc fabf a700 0f3f 0fe4 3a3e 18e0 093e
000001f0: 887b ff3e 4d4c 013e e9ca 32be 6e18 efbc
00000200: 0d02 9d3c ca52 d73c 4cd6 503e b246 843d
00000210: 7c30 21be 7c82 33be 3469 20be 86c2 51be
00000220: e938 a1be 9bc5 3dbf 581a 523e 59e1 f9be
00000230: e3b5 553d ff6b 0c3e 9feb 673d 5601 e13d
00000240: 947e 5b3d 46b6 443d 8722 cabc aeb5 76bc
00000250: becd 77bc 1125 3a3c f24d 09bb 80f9 1fbe
00000260: 10f9 a6be 5bc5 68bd 1557 d1be 15b7 173e
00000270: c8db 573e 6bf8 b0bc 85ec ed3d f6fd 743c
00000280: 13ac 80bd aee9 27be 1874 173e 1c35 14bf
00000290: b570 4c3e 05d7 48bd 803c fb3c d1fd 55bd
000002a0: b682 b7bc 3b17 afbc 3b8d d4bc cbbd 74bd
000002b0: d755 00bd bcb0 593e c3be 1c3d ba33 98bb
000002c0: 270f 0fbd b9f9 39bf 26c1 f9bc 60e4 f0bc
000002d0: da35 6b3e 0db2 72bf 2401 86bd 917a e33d
000002e0: 61ad c9be 907f 1fbb 2ecd 843d 8304 c9be
000002f0: 98f2 7b3d ec25 bfbd 3eeb 2cbf c6d1 9cbc
00000300: a89e 443d f60a a63d df1b e13c 8cd1 87be
00000310: 1896 81bc fdf7 a33e 2f7f e0be bcd9 88bd
00000320: c436 a0bd d452 fabc d21a b4bc ac89 803c
00000330: b323 4dbd aaa4 15be 6960 5dbe 6ba5 9fbe
00000340: 7a6b 543e ba0b 763c a3ee f0bf bfbe d83d
00000350: f316 b13d 1632 d73e aef8 613e d5d7 24bf
00000360: af48 663d 3704 913d caab 3d3e db73 9f3c
00000370: 8428 adbc 072f a1bd d41d 5ebe 1151 053f
00000380: 66fe 2bbe 0f77 00bd e6fd 6fbc 2b73 b03e
00000390: eaa8 8a3d 2779 d7bd 72ba 2bbc f055 0a3e
000003a0: 641a 1ebe b14a babe 0beb 10bd bb5d 253d
000003b0: 2356 a7bd e6b2 fa3e cadd e8bd e6c6 31be
000003c0: 505c 0cbe 65b9 b5be a1cc fa3e 7895 963e
000003d0: a4bf b0bd bff0 e43c 187d 1bbd 570d b2bd
000003e0: eeed 44bd 6501 bc3c ce56 3e3d 8072 1f3d
000003f0: c836 233e 9bb5 7cbe 0eee ad3c a8c1 ce3d
-0.01611697 -0.3133906 0.6044558 0.004286593 -0.116684295 -0.039214097 0.020357002 -0.047727037
0.18065111 -0.03991124 0.03107696 0.017944507 -0.08770744 0.23356317 0.019290026 0.02752186
0.027408779 -0.024055835 0.03254813 0.033416167 0.24881591 -4.9653587 0.17887032 -0.21141183
-0.37448686 0.03936628 0.040053163 0.014512891 0.0842501 0.006404081 -0.74502826 -0.045326993
0.14819631 -0.0122819645 0.023396047 0.219181 0.20628187 -0.070404 -0.16840672 0.095522255
-0.032867845 -0.03400475 -0.09289986 0.008079074 -0.064199634 -0.026201872 -0.02279647 -0.17725402
-0.5680983 0.011252609 -1.7995149 0.2334262 0.16070351 2.5283961 0.01249149 -0.53447556
0.039196204 -0.17984408 -0.025452213 -0.26484728 -0.13769843 -0.024109052 -0.34290257 0.13440885
0.5522574 -0.26107067 -0.055362772 -0.6431144 0.37533045 -0.11927973 0.0031751704 0.10059836
0.09768335 0.11450445 0.000842208 0.10342069 -0.066805646 -1.1633649 -0.08648376 -0.22107114
0.26712936 -0.36757028 0.03234985 0.09668695 0.0067652627 -0.09815826 0.047964696 -0.05725159
0.023754755 -0.0835249 0.12635091 0.21113126 -0.018030787 0.07753819 -0.07043504 0.18000098
0.02764929 0.1215923 -0.046734743 0.006782225 -0.030590821 -0.46159077 0.23580693 0.28728154
-0.01997922 -0.2918795 0.20020989 -0.004863995 0.039002426 -0.05846021 -0.00026651775 -0.29203156
-0.22081803 -0.6032457 0.16004574 0.02433781 -0.06164037 -0.17233089 -0.10851291 -0.6403648
-1.9593514 0.5586037 0.1825106 0.13464391 0.49898934 0.12626763 -0.17460217 -0.029186454
0.019166017 0.026284594 0.20394248 0.064587966 -0.15741152 -0.17530245 -0.15665132 -0.20484361
-0.31488732 -0.74129647 0.20517862 -0.4880474 0.052175414 0.13713072 0.05662119 0.10986583
0.05358751 0.048025392 -0.024674667 -0.015057964 -0.015124736 0.011361376 -0.0020951 -0.1562252
-0.32611895 -0.056828838 -0.4088675 0.14815934 0.21079934 -0.02160283 0.11617378 0.014953127
-0.062828206 -0.16397735 0.1479038 -0.5789354 0.1996487 -0.049033184 0.030668497 -0.05224401
-0.022401195 -0.021373382 -0.02594625 -0.059751313 -0.031331863 0.21258825 0.038267862 -0.004644838
-0.03492656 -0.7264667 -0.030487608 -0.029405773 0.22969761 -0.94802934 -0.06543186 0.11107362
-0.3939009 -0.0024337508 0.064844474 -0.39261255 0.061510652 -0.09333405 -0.6754645 -0.019142997
0.04800287 0.081075594 0.02747911 -0.2652706 -0.01581864 0.32025138 -0.43847033 -0.066821545
-0.07822946 -0.030557074 -0.021985445 0.015690647 -0.050082874 -0.14613596 -0.21618809 -0.3118089
0.20744124 0.015017444 -1.8822826 0.10583257 0.08646955 0.420304 0.2206752 -0.64391834
0.05622166 0.07080882 0.18522564 0.019464424 -0.021137483 -0.07870298 -0.21691066 0.5207682
-0.16796264 -0.031363543 -0.014647936 0.34462866 0.06770499 -0.10521155 -0.010481464 0.13509345
-0.15439755 -0.3638511 -0.035380404 0.04037259 -0.08170726 0.48964614 -0.11370428 -0.1736103
-0.1370709 -0.35493007 0.48984244 0.2941091 -0.086303025 0.027946828 -0.037961096 -0.086939506
-0.04807847 0.022949884 0.046469502 0.038927555 0.15938866 -0.24678652 0.021231677 0.10095531

deconv2.bias f4 [32]
00000000: 45a3 153e 7068 86be 430e 0cbe be26 8a3e
00000010: a4f7 043e 17c2 5f3e 47d1 163d 195f 4b3e
00000020: 00ae c1bd f8dc 743d 028d fc3d 8be6 a13d
00000030: ba8c f63b 84af 8d3d 8caf 443e c032 70bd
00000040: e40b 8c3d a80b 2dbe f138 243e 6052 05bd
00000050: c78f 6d3d b1a0 133e 0dab 97bd 512c ac3d
00000060: 0062 413c 0867 253e c6dc 19bd 1342 dd3d
00000070: a71d ab3e f0c0 0bbe d002 c6bd 2741 b43e
0.14613064 -0.26251554 -0.13677315 0.26982683 0.12985092 0.21851383 0.036820676 0.19860496
-0.09457016 0.059781045 0.123315826 0.07905301 0.0075241 0.069182426 0.19207591 -0.05864215
0.068382055 -0.16898978 0.16037346 -0.032549262 0.057998445 0.14416768 -0.07405672 0.0840689
0.01180315 0.16152585 -0.03756406 0.10803618 0.3342106 -0.13647819 -0.09668505 0.35205957

deconv3.weight f4 [32, 1, 5]
00000000: e205 ca3e d67f 303d 6565 fe3d aad2 233e
00000010: 3ade 6a3c 1be5 f4be d4d4 2ebe ab8e 12bf
00000020: 809a 47bf a10c dabe 0444 59bf 8be6 b0bf
00000030: 129f 58be b9b0 59be bc45 00be c3dc 963e
00000040: 23c0 883e 98a6 ae3d 63f7 983e cf04 033f
00000050: 271b 2fbf c6e8 4dbe 8c2f 923f b555 d73e
00000060: d2e5 713e b6ee 4f3d c1d0 a2bd 11bd 913e
00000070: 964d 893e 3701 b23e 4cd1 3abf 9c4e 36bf
00000080: f7b8 51bf b7fa d43d e986 043f 6872 853e
00000090: 038f a93e 2814 853e 8d97 a73e af7b debd
000000a0: eeb2 af3e ff92 b23e 4bab babe 96e2 813b
000000b0: dec3 a3be 2ce8 f83c a65e cbbe b23f f13e
000000c0: 9afb ec3e fdcd 4bbe e583 77be 91b6 2abf
000000d0: fd35 cdbe baf9 b6be f354 953d 1983 923d
000000e0: 671d 18bd cdfa 5bbe 73c6 d73e c3cb ce3d
000000f0: 2328 803e 5f43 c43e 0698 fc3e f8b5 fa3e
00000100: af38 313d ba58 05bf 6ca9 16bf 0a2a 823e
00000110: ad87 673e 03bc fbbc 203b d13e 4553 573e
00000120: 5eb6 b03e 6fd0 863d b832 c13e 3d2f fc3e
00000130: 3db2 a93e df8e c1be 8cae 88bd a142 9fbd
00000140: 85b5 a7be e7d7 d2be 61c6 73be 61e4 a8be
00000150: 0bef b0be 5856 d0be a756 4cbe 6ad5 1bbe
00000160: 8152 8bbd 91b3 ddbe bc2a 973e 7c6d 413e
00000170: ffd1 9d3e 4f63 b53e 535a aa3c 231e 63be
00000180: 7d38 f2be a29f 10bf 47fb 0fbf 317b 38be
00000190: e429 db3e 8b0e 423f eab6 bd3e ee3e a73e
000001a0: 7f1e 3c3e 3ba1 403e a5c9 893e 27e9 9f3e
000001b0: 6ec5 953e 4ffa 4c3d 3086 a03e ef29 cd3d
000001c0: 74ed 2d3f 4915 343f 557c a93e 0816 2c3e
000001d0: 4cc4 a33e 81ba f5be bbb2 b6be 752a 85be
000001e0: 2c3f 34be 76be 44be da9b d3be 23f0 d3be
000001f0: 3ad6 863e c9fb 083e 4305 c63e 54d2 e63e
00000200: 3426 e63e 9463 4dbe a6ac 1d3d c3fe b43d
00000210: 3156 0c3c 893e 893d 0e40 8d3f fde6 013f
00000220: 9aec 313f 3245 27be a67f 28bd 9e14 0c3d
00000230: 1625 48be a964 073f c5c3 e03e b3f7 a43e
00000240: 6148 063e 40fd 8ebe 8042 b43e fdb2 d43d
00000250: 276a cb3b 305a 8a3e fe20 17bd fae3 873d
00000260: c7ae 5bbf 72c7 5dbf 47de 85be 4258 8b3e
00000270: e598 cc3e ff8a d03e 58df b53e 2e06 e7bd
0.39457613 0.043090664 0.12421683 0.1599833 0.0143352095 -0.47831044 -0.17073375 -0.57248944
-0.77970123 -0.4258776 -0.8486941 -1.3820356 -0.2115443 -0.2125882 -0.12526602 0.29465303
0.2670909 0.08527869 0.2987624 0.5117921 -0.68400806 -0.20108327 1.142076 0.42057577
0.23622826 0.050764762 -0.07949973 0.2846456 0.26817006 0.34766552 -0.7297561 -0.712137
-0.8192286 0.103993826 0.51768357 0.26063848 0.33116922 0.2599194 0.32732812 -0.108634345
0.343162 0.34877774 -0.3645881 0.0039637787 -0.31985372 0.030384146 -0.3972065 0.47118908
0.46285707 -0.19902797 -0.24171408 -0.66684824 -0.40080252 -0.357374 0.072915934 0.07153911
-0.037137415 -0.21482392 0.42143592 0.10097458 0.25030622 0.3833265 0.49334735 0.48966956
0.04326695 -0.5208851 -0.5885227 0.25422698 0.2261035 -0.0307293 0.4086542 0.21027859
0.34514135 0.06582724 0.37734008 0.4925479 0.33143798 -0.37804314 -0.06673917 -0.0777638
-0.32755676 -0.41180345 -0.23806144 -0.3298674 -0.34557375 -0.40690875 -0.1995493 -0.1521813
-0.06802846 -0.4330106 0.2952479 0.18889421 0.30824277 0.3542733 0.020795023 -0.22179465
-0.47308722 -0.5649358 -0.56242794 -0.18015744 0.42805398 0.7580344 0.37053615 0.326652
0.18371008 0.18811505 0.26911655 0.3123257 0.2925219 0.0500434 0.31352377 0.10017764
0.6794045 0.7034498 0.3310267 0.16805279 0.319857 -0.47993854 -0.35683236 -0.26008955
-0.17602223 -0.1921328 -0.41329843 -0.41394147 0.26335317 0.13377298 0.3867589 0.45082343
0.44951022 -0.20057517 0.03849473 0.088376544 0.0085654715 0.06701381 1.1035173 0.50743085
0.6950165 -0.1633499 -0.04113736 0.03419935 -0.19545397 0.5288797 0.4389936 0.3222023
0.13113548 -0.2792759 0.35206985 0.10385702 0.0062077227 0.27021933 -0.0368967 0.0663528
-0.85813564 -0.86632454 -0.26146147 0.27215773 0.399604 0.40731046 0.3552196 -0.112804756
