models/SNN_autoencoder_tsri_time4.pth (torch, 37205 bytes, 11 tensors)

encoder_conv1.weight f4 [32, 1, 5]
0.48291335 0.063561976 -0.59533346 0.37540504 -0.056647044 -0.022588093 -0.024568554 0.9118315
-0.06964237 0.026113683 0.13399473 0.40672198 -0.1378501 -0.4546364 -0.084545024 -0.39392024
-0.8344742 0.145621 0.4563141 0.60953784 -0.10980686 -0.26428363 0.08817412 0.65723383
0.101254754 0.32271054 -0.55926037 0.18101794 -0.050538983 -0.14918481 0.3726607 -0.11453839
-0.82763064 -1.1264238 -0.14968826 -0.09098939 0.3668504 0.44093233 -0.011927788 0.30746862
-0.026997525 0.0086549595 -0.4021608 -0.38641694 -0.026067471 -0.0037891434 -0.021429291 0.4687175
0.61607903 0.004280772 -0.01960495 -0.028649544 -0.00523761 0.28730682 0.33083794 0.037408635
0.0690879 0.5953141 0.5026557 0.1901487 0.12309402 0.54987526 -0.012188516 0.16548939
-0.04648445 0.5570005 0.49234295 0.029361298 -0.5013343 -0.0030970534 -0.6434389 -0.7754092
0.61612487 -0.002370646 -0.027789516 0.009582088 0.0048034135 -0.032159504 0.029323779 0.043046862
0.2213794 0.03187625 -0.3296003 -0.23931992 -0.44885948 -0.00094962644 1.0486888 -0.0018136858
0.010403371 0.0020827707 0.0070352294 0.0049629034 0.21001443 -0.26121756 -0.01698988 0.53964597
0.35428935 -0.055842027 0.47791672 0.40844956 0.620241 0.6485262 -0.00489543 0.017568968
-0.0030263935 0.30024913 -0.36011976 -0.38723573 -0.30743703 -0.2817108 -0.5392737 0.3894789
0.45856732 0.43838218 -0.061411828 0.27084604 0.25501543 -0.029573932 0.2837165 -0.56676865
-0.009938145 -0.021184681 -0.026792591 0.5542164 0.57826906 0.63669556 0.28803256 -0.023240734
-0.27343094 0.00960981 -0.011373546 0.013759218 0.687369 -0.009972152 -0.045573127 -0.31827304
-0.34306863 -0.13866672 -0.1844285 -0.2166774 -0.20747176 -0.4048567 -0.40304527 -0.431876
-0.123580545 0.21369898 0.13728918 0.7566586 0.066781126 -0.06541335 0.31281313 0.30894196
0.35932902 0.3297504 0.0061915303 -0.021304518 -0.037653066 0.60403204 -0.26685074 0.37692192
00000000: 6b40 f73e c82c 823d c667 18bf 1735 c03e
00000010: bb06 68bd aa0a b9bc fe43 c9bc ca6d 693f
00000020: a9a0 8ebd 5dec d53c ea35 093e dd3d d03e
00000030: 9428 0dbe 1ac6 e8be f125 adbd eaaf c9be
00000040: 1aa0 55bf ac1d 153e 00a2 e93e ac0a 1c3f
00000050: 6be2 e0bd 2f50 87be a294 b43d 7a40 283f
00000060: a75e cf3d 513a a53e b02b 0fbf c45c 393e
00000070: f701 4fbd e7c3 18be 62cd be3e 1a93 eabd
00000080: 9adf 53bf a82e 90bf e147 19be a558 babd
00000090: d1d3 bb3e e2c1 e13e c56c 43bc 876c 9d3e
000000a0: ea29 ddbc 88cd 0d3c 05e8 cdbe 71d8 c5be
000000b0: 738b d5bc 4753 78bb 7b8c afbc bdfb ef3e
000000c0: 5bb7 1d3f b845 8c3b 8f9a a0bc 73b2 eabc
000000d0: 42a0 abbb e119 933e 9763 a93e cc39 193d
000000e0: f57d 8d3d 8166 183f 0bae 003f 57b6 423e
000000f0: b818 fc3d a0c4 0c3f 57b2 47bc 0d76 293e
00000100: 7b66 3ebd 9697 0e3f 6014 fc3e 1b87 f03c
00000110: 7257 00bf eff7 4abb 69b8 24bf 3881 46bf
00000120: 5cba 1d3f d75c 1bbb d7a6 e3bc 31fe 1c3c
00000130: f465 9d3b afb9 03bd 6c38 f03c e851 303d
00000140: 48b1 623e ac90 023d 5fc1 a8be 4810 75be
00000150: e9d0 e5be 5af0 78ba 6f3b 863f 32b9 edba
00000160: e772 2a3c 187f 083b c887 e63b da9f a23b
00000170: 060e 573e 4fbe 85be 5c2e 8bbc 3d26 0a3f
00000180: 6a65 b53e 9cba 64bd 80b1 f43e 4d20 d13e
00000190: 1dc8 1e3f d005 263f d869 a0bb ccec 8f3c
000001a0: 7556 46bb 41ba 993e 9e61 b8be c343 c6be
000001b0: 6368 9dbe 663c 90be d70d 0abf c769 c73e
000001c0: 56c9 ea3e a173 e03e f88a 7bbd 55ac 8a3e
000001d0: 6291 823e 0845 f2bc 4a43 913e c017 11bf
000001e0: 9ad3 22bc 7f8b adbc 237c dbbc 20e1 0d3f
000001f0: 7109 143f 7bfe 223f 0179 933e 5a63 bebc
00000200: 24ff 8bbe 7772 1d3c 1c58 3abc 586e 613c
00000210: 6af7 2f3f 3d62 23bc e3aa 3abd aff4 a2be
00000220: b1a6 afbe a6fe 0dbe d3da 3cbe aee0 5dbe
00000230: 7a73 54be 6149 cfbe f35b cebe da1e ddbe
00000240: cc17 fdbd e8d3 5a3e 8995 0c3e 61b4 413f
00000250: 8bc4 883d 6ff7 85bd 0b29 a03e a42d 9e3e
00000260: f9f9 b73e 0bd5 a83e 52e2 ca3b d086 aebc
00000270: 1a3a 1abd d8a1 1a3f a9a0 88be e9fb c03e

encoder_conv1.bias f4 [32]
0.16622713 0.19926587 0.1791543 -0.15267666 0.33436903 -0.3703395 0.7417573 -0.1818074
1.027339 0.030829718 0.12032206 -0.6733751 0.13478811 0.48792142 0.17486265 0.3094747
-0.29987907 0.28666344 0.42697263 -0.22597566 -0.48043248 -0.44455847 0.27220884 0.5318569
0.1437003 0.1763951 0.27995306 -0.27860337 -0.40168253 -0.086075634 0.047905296 0.049840674
00000000: 7237 2a3e 5a0c 4c3e 3a74 373e 4557 1cbe
00000010: 6b32 ab3e 249d bdbe cee3 3d3f b82b 3abe
00000020: d87f 833f 9b8e fc3c 6a6b f63d 5062 2cbf
00000030: e505 0a3e d6d0 f93e 320f 333e 7873 9e3e
00000040: c089 99be 8dc5 923e 289c da3e 2a66 67be
00000050: 3ffb f5be 2b9d e3be f55e 8b3e c627 083f
00000060: 2c26 133e eba0 343e 0256 8f3e 1aa5 8ebe
00000070: 55a9 cdbe 6c48 b0bd 5838 443d bc25 4c3d

encoder_conv2.weight f4 [16, 32, 5]
0.003900389 0.051771514 -0.00012825405 -0.0037710255 0.008694004 0.00028158803 -0.040864427 -0.016761588
0.014909829 0.0074975817 -0.008223401 -0.057490166 0.03656473 -0.0052589844 0.008672272 0.008321567
0.03282457 -0.034287356 0.0032764785 -0.011454937 -0.0065648286 0.07556677 -0.0073603154 0.0013446077
-0.014184561 0.009891719 0.025346013 0.073493525 0.099893525 0.05611078 -0.004682041 -0.052493237
-0.00329395 -0.0049813115 -0.004288705 -0.0027236342 -0.009292093 -0.029376475 -0.0060687973 -0.029017152
-0.0010167687 -0.1296665 -0.021964869 -0.021230288 -0.017689902 0.013985342 0.08792915 0.009654205
0.008931901 0.0069076717 -0.0027589714 0.07406178 -0.039966334 -0.0011697627 -0.013887773 0.011988933
0.028480068 0.0021491894 -0.009090081 -0.021437155 -0.00048842706 -0.008091489 -0.00090434396 -0.0043164175
0.0014165324 0.0073398715 -0.060532212 0.025899392 -0.00049462594 0.008774814 -0.0113782715 -0.11122031
0.03266085 -0.0005301277 -0.00818565 -0.0062757074 0.15720649 0.11628978 0.067907654 0.17355411
0.07589812 0.031572476 0.032218985 -0.076802835 0.057920747 0.013809392 -0.008420442 0.009235912
0.0015877376 0.004057445 -0.010577655 -0.033502404 -0.014842896 -0.01156332 -0.031688623 0.0066328025
0.07014618 0.035095252 0.0018227504 0.004085752 -0.00039714045 0.029730523 -0.014825072 -0.012094055
-0.011719543 0.014864713 -0.065972865 -0.02666546 -0.061210312 0.0015285313 -0.008874148 0.04101236
-0.017157508 0.0015528009 0.00038794812 -0.011189172 -0.019963767 0.0008999966 -0.013894607 -0.014085937
0.0014952302 0.7607258 -0.009277987 -0.009324527 -0.0059131207 -0.001882474 -0.04158581 0.02898349
-0.0069309077 -0.0010355777 -0.011783047 -0.051099643 -0.024100877 -0.01584863 -0.011726541 -0.0315528
-0.043682825 -0.0058023483 0.02148068 0.052157573 0.012359403 0.057711773 -0.031431623 0.05748596
-0.026699055 0.0064351354 -0.014974507 0.017648079 -0.0016515094 -0.008430313 -0.0040652705 0.025031477
0.022593835 0.009727851 0.00431307 0.0038045899 -0.049605377 -0.003765891 0.0014693514 -0.0020864005
0.019742014 0.0012645964 0.079884514 0.024688033 -0.020254236 0.0065237754 -0.0050666193 0.2728655
0.013383627 0.0149583565 0.0064171064 -0.034557287 0.078647494 0.017976742 -0.018948866 0.03984819
0.008963589 -0.04383215 0.00041214726 0.006654467 -0.008615894 -0.0024313622 -0.024627453 -0.06330737
-0.015261406 -0.04381174 -0.0153321335 0.050818793 0.021359822 -0.084203415 -0.0070031956 0.015855396
-0.20659137 0.11135276 -0.018607575 -0.006500939 0.04215685 0.08398658 0.019916264 -0.02080527
0.0056815273 0.015414289 -0.21155784 -0.071451016 -0.014046779 -0.012710836 0.049484853 0.19301283
0.017005546 0.03892468 -0.01660183 -0.015501781 0.09630157 -0.05411879 -0.029719695 0.011240161
0.12994488 0.27024665 -0.004867916 0.008117652 -0.021262087 -0.035489976 -0.030832155 -0.02807282
-0.04311611 -0.017528392 -0.00044014407 0.008964516 0.041080184 0.019739322 0.0305315 -0.006864747
0.049671255 0.0008466887 0.008859235 0.046612456 0.03894202 -0.034615293 0.014615362 0.024770878
-0.0340256 0.055433564 0.030222744 0.014323577 0.07479309 -0.014280093 0.010120243 0.11417167
-0.050913803 0.032677557 0.030765738 -0.0067790113 -0.064997725 0.014257848 0.01231339 -0.010643452
00000000: ab9d 7f3b 5e0e 543d ef7b 06b9 4f23 77bb
00000010: 4c71 0e3c 1ba2 9339 7561 27bd 994f 89bc
00000020: 5b48 743c 46ae f53b 72bb 06bc cf7a 6bbd
00000030: e6c4 153d 8f53 acbb 2516 0e3c 2f57 083c
00000040: 0e73 063d e670 0cbd 30ba 563b 7dad 3bbc
00000050: c61d d7bb c0c2 9a3d cd2e f1bb 8c3d b03a
00000060: 5c66 68bc e010 223c 71a2 cf3c c683 963d
00000070: fa94 cc3d 6bd4 653d ce6b 99bb 2603 57bd
00000080: 50df 57bb 453a a3bb 4488 8cbb 007f 32bb
00000090: dd3d 18bc efa6 f0bc c3dc c6bb 61b5 edbc
000000a0: 1945 85ba 4cc7 04be abef b3bc 24eb adbc
000000b0: 6aea 90bc c722 653c 3314 b43d ac2c 1e3c
000000c0: 1c57 123c c059 e23b dccf 34bb b4ad 973d
000000d0: bdb3 23bd b952 99ba 8b89 63bc 3b6d 443c
000000e0: 084f e93c 6ad9 0c3b 90ee 14bc f99c afbc
000000f0: c909 00ba 2a92 04bc 7f11 6dba bc70 8dbb
00000100: f1aa b93a 4e83 f03b a0f0 77bd f62a d43c
00000110: c9a9 01ba 3dc4 0f3c ee6b 3abc 79c7 e3bd
00000120: 62c7 053d 45f8 0aba 1b1d 06bc 73a4 cdbb
00000130: bdfa 203e 5629 ee3d 2b13 8b3d 2bb8 313e
00000140: 7970 9b3d 2452 013d 0ef8 033d ce4a 9dbd
00000150: 4e3e 6d3d ca40 623c e5f5 09bc 3952 173c
00000160: a21b d03a 51f4 843b e74d 2dbc d139 09bd
00000170: 9e2f 73bc 1474 3dbc eecb 01bd fb57 d93b
00000180: cda8 8f3d 0ac0 0f3d 5be9 ee3a c6e1 853b
00000190: 4a37 d0b9 6d8d f33c dce4 72bc 2526 46bc
000001a0: 5303 40bc 208b 733c c81c 87bd 8671 dabc
000001b0: aab7 7abd 0059 c83a e064 11bc 94fc 273d
000001c0: e78d 8cbc 5a87 cb3a 8465 cb39 ca52 37bc
000001d0: 0e8b a3bc c0ed 6b3a 35a6 63bc b4c8 66bc
000001e0: 9afb c33a edbe 423f b302 18bc e7c5 18bc
000001f0: dac2 c1bb 59bd f6ba e255 2abd c96e ed3c
00000200: ab1c e3bb 39bc 87ba ae0d 41bc dc4d 51bd
00000210: 346f c5bc fcd4 81bc ae20 40bc 823d 01bd
00000220: c3ec 32bd a021 bebb 40f8 af3c 2ea3 553d
00000230: 187f 4a3c 2e63 6c3d 72be 00bd 6676 6b3d
00000240: fab7 dabc d4dd d23b a257 75bc b492 903c
00000250: 7677 d8ba 4c1f 0abc f635 85bb d00e cd3c
00000260: b516 b93c 9061 1f3c a754 8d3b 6d56 793b
00000270: 022f 4bbd 2bcd 76bb 4097 c03a febb 08bb
00000280: 01ba a13c d0c0 a53a 7e9a a33d 8f3e ca3c
00000290: 36ec a5bc 65c5 d53b e205 a6bb 07b5 8b3e
000002a0: 0047 5b3c e513 753c 9746 d23b f18b 0dbd
000002b0: f011 a13d f643 933c a73a 9bbc db37 233d
000002c0: 04dc 123c 5789 33bd 7815 d839 b70d da3b
000002d0: ae29 0dbc 7d57 1fbb 83bf c9bc 4ba7 81bd
000002e0: fa0a 7abc f073 33bd a133 7bbc 5e27 503d
000002f0: cbfa ae3c d772 acbd 107b e5bb 2de3 813c
00000300: b08c 53be ea0c e43d ea6e 98bc d405 d5bb
00000310: a9ac 2c3d 2801 ac3d 6f27 a33c d06f aabc
00000320: 1b2c ba3b 378c 7c3c 9ea2 58be e954 92bd
00000330: 7624 66bc 1c41 50bc a1b0 4a3d 28a5 453e
00000340: 374f 8b3c 7c6f 1f3d 9000 88bc 2ffb 7dbc
00000350: c239 c53d aaab 5dbd b876 f3bc a728 383c
00000360: 4510 053e c55d 8a3e 0a83 9fbb e6ff 043c
00000370: d42d aebc f05d 11bd b793 fcbc f8f8 e5bc
00000380: 859a 30bd b497 8fbc 23c3 e6b9 e8df 123c
00000390: b243 283d 5cb4 a13c 321d fa3c acf1 e0bb
000003a0: 1674 4b3d 51f4 5d3a 5326 113c b4ec 3e3d
000003b0: ab81 1f3d c4c8 0dbd 4575 6f3c 4cec ca3c
000003c0: 6d5e 0bbd 4e0e 633d b095 f73c 70ad 6a3c
000003d0: 1f2d 993d 0df7 69bc 60cf 253c d6d2 e93d
000003e0: fe8a 50bd e7d8 053d 6e08 fc3c 7822 debb
000003f0: 871d 85bd c099 693c 1abe 493c e061 2ebc

encoder_conv2.bias f4 [16]
0.2472617 0.5826961 0.27060235 0.42225733 1.0597063 0.25455248 1.0894794 0.93861604
0.45577025 0.3424851 0.52635086 0.7699748 0.19459532 0.6602347 0.26269093 0.009562686
00000000: 2c32 7d3e 922b 153f 648c 8a3e 1d32 d83e
00000010: 75a4 873f b454 823e 1074 8b3f 2449 703f
00000020: b85a e93e 355a af3e eebe 063f 121d 453f
00000030: ff43 473e 2405 293f 6d7f 863e d0ac 1c3c

encoder_conv3.weight f4 [8, 16, 5]
0.027827224 0.024774544 0.00076283107 -0.02217053 -0.0033483251 0.0041662105 -0.03362435 0.017004782
0.13934667 -0.02110632 0.014094638 -0.043897364 -0.04249096 -0.00064027216 -0.010162811 0.0023498915
-0.071071684 -0.021566069 0.038272884 -0.0062642293 0.018857846 -0.11421879 -0.027812064 0.0031272331
-0.05340491 0.02321062 0.018420711 -0.009775822 0.0517447 -0.019654997 0.010191949 0.081863254
-0.0029873466 -0.029210888 -0.09621514 0.014444423 0.014056655 0.035234053 -0.011488096 -0.06141335
0.008326685 -0.053991813 -0.011289416 -0.45067057 -0.04158053 -0.015674474 -0.0064104693 0.015375414
0.10995723 -0.016274052 -0.005859724 0.07720867 -0.0037362126 0.021340486 -0.08374825 -0.011108209
-0.011559036 0.037731595 -0.21606593 -0.047091886 0.00077886955 -0.056710247 -0.022230709 0.23939946
-0.040690172 -0.008826268 0.031853605 0.06443624 0.013226494 -0.11553482 0.004542969 -0.016781997
0.0034742767 0.031225901 -0.012452284 -0.01998714 -0.07109666 0.0019832903 -0.00751424 -0.0170135
0.00701587 -0.021256963 0.0027727268 -0.018397426 -0.00032068923 -0.024301805 -0.01874559 -0.027670799
-0.007034535 -0.00075641606 -0.01294776 -0.022923175 0.4730414 -0.014618197 0.005061122 0.02822452
0.014973499 0.06971485 0.02510209 0.012291338 0.0073362337 -0.045692854 -0.015865982 -0.0025884595
0.008814334 0.026794925 0.018473053 0.03591433 -0.0050373385 0.021782208 -0.0010722314 0.025884468
-0.04743522 -0.0118116 0.00054936507 0.012658377 -0.023155756 0.112046205 -0.0008933226 0.012452788
-0.017446062 -0.025629869 -0.027359458 -0.010493205 0.005049356 -0.01994373 -0.0045085424 -0.020109883
-0.011786536 -0.013428038 0.010170197 0.010159449 -0.029642506 -0.0012934688 0.0022221128 -0.0006038935
-0.016503809 -0.0068741324 0.017261935 -0.020478584 0.011785753 0.0041973223 -0.0046217316 0.0066405074
0.018731046 0.012530298 -0.00058067637 -0.07550218 -0.02601199 0.00365408 -0.00082906854 0.017365346
0.3834683 0.0040528327 0.0066904244 0.010624725 0.04225527 0.2887246 0.018606411 -0.0061380905
-0.0039354763 -0.057687286 -0.0083706295 0.022478696 -0.017534478 -0.011422747 -0.02094662 -0.008414481
-0.02104095 0.005318157 -0.023414198 -0.081506014 0.024472533 -0.048475765 -0.016234634 -0.004647967
0.011057069 -0.029298037 -0.04190981 -0.0063737314 0.021440683 -0.055854607 -0.027483622 0.03595995
-0.030176807 0.0031864846 0.05603045 0.008483539 -0.46361145 -0.010987553 0.016101323 0.03434835
-0.005644436 0.10357405 -0.021955173 0.026815316 0.0064955824 0.24451509 -0.0019762153 -0.016199304
8.5984626e-05 -0.0012813892 -0.013495556 -0.048218433 -0.010215744 -0.005717623 -0.012571901 -0.014431877
-0.13923666 -0.005148923 -0.005472331 0.007002261 -0.04664945 -0.007879511 -0.036558796 0.020360207
-0.017233932 0.0031216636 0.0026119524 0.022881048 0.0159091 0.0069535603 -0.023752473 -0.013861581
-0.013346141 -0.006731895 -0.0136290835 -0.077025756 -0.18401806 -0.03939294 0.009647606 -0.039711438
-0.043996952 -0.020906305 -0.028257862 -0.006520651 -0.026397072 -0.077823736 0.042517666 0.0014227091
0.0060471883 -0.02662139 0.18633266 -0.006096329 -0.007823495 -0.018913267 -0.015149011 -0.01501927
-0.018976163 -0.019090634 -0.028820693 -0.023550555 0.018254658 0.0049326248 -0.025476132 0.03150226
00000000: ebf5 e33c fcf3 ca3c baf8 473a f99e b5bc
00000010: 936f 5bbb b584 883b b0b9 09bd 9d4d 8b3c
00000020: e5b0 0e3e 29e7 acbc 32ed 663c b9cd 33bd
00000030: 000b 2ebd f0d7 27ba eb81 26bc a300 1a3b
00000040: 088e 91bd 53ab b0bc 07c4 1c3d 2a44 cdbb
00000050: c57b 9a3c 8aeb e9bd 20d6 e3bc 44f2 4c3b
00000060: 1bbf 5abd 3324 be3c 08e7 963c c52a 20bc
00000070: 40f2 533d 8403 a1bc 22fc 263c eca7 a73d
00000080: 5cc7 43bb ac4b efbc 710c c5bd 4da8 6c3c
00000090: e24d 663c 9551 103d 9138 3cbc 918c 7bbd
000000a0: a66c 083c 8526 5dbd 3ef7 38bc 4bbe e6be
000000b0: 5950 2abd c167 80bc ea0e d2bb 29e9 7b3c
000000c0: 4231 e13d 2951 85bc ed02 c0bb 941f 9e3d
000000d0: 3fdb 74bb 3ed2 ae3c 3484 abbd 35ff 35bc
000000e0: 1c62 3dbc 728c 1a3d 6340 5dbe 6ce3 40bd
000000f0: 0d2d 4c3a 0149 68bd 2d1d b6bc 2225 753e
00000100: bdaa 26bd 0d9c 10bc ed78 023d 26f7 833d
00000110: f0b3 583c 859d ecbd 30dd 943b 667a 89bc
00000120: b1b0 633b 76cd ff3c aa04 4cbc 12bc a3bc
00000130: 209b 91bd 17fa 013b 043a f6bb e55f 8bbc
00000140: 62e5 e53b 1523 aebc a3b6 353b 33b6 96bc
00000150: 2e22 a8b9 9414 c7bc 5a90 99bc dfad e2bc
00000160: f581 e6bb 394a 46ba d722 54bc 62c9 bbbc
00000170: 7b32 f23e 2a81 6fbc c5d7 a53b 1c37 e73c
00000180: 6853 753c a9c6 8e3d e6a2 cd3c 9c61 493c
00000190: ca64 f03b 6e28 3bbd 60f9 81bc 25a3 29bb
000001a0: ff69 103c 0881 db3c cd54 973c e81a 133d
000001b0: 4210 a5bb 9a70 b23c 1e8a 8cba aa0b d43c
000001c0: 6f4b 42bd 7185 41bc 4403 103a 1565 4f3c
000001d0: 24b1 bdbc 7b78 e53d dd2d 6aba c706 4c3c
000001e0: 0beb 8ebc bbf5 d1bc f120 e0bc b1eb 2bbc
000001f0: 1175 a53b 0961 a3bc 65bc 93bb 7bbd a4bc
00000200: 511c 41bc 4601 5cbc e6a0 263c d173 263c
00000210: d7d4 f2bc 9c89 a9ba dea0 113b 9b4e 1eba
00000220: ff32 87bc 6740 e1bb e768 8d3c b4c2 a7bc
00000230: 0819 413c b189 893b e571 97bb 9d98 d93b
00000240: da71 993c e14b 4d3c 8838 18ba e3a0 9abd
00000250: 1917 d5bc 4a79 6f3b d955 59ba c541 8e3c
00000260: f555 c43e a0cd 843b 593b db3b 5413 2e3c
00000270: dd13 2d3d b6d3 933e 796c 983c 0922 c9bb
00000280: 2bf5 80bb 8149 6cbd f724 09bc 3e25 b83c
00000290: 77a4 8fbc 7926 3bbc 3f98 abbc e4dc 09bc
000002a0: 125e acbc ef43 ae3b 22cf bfbc a0ec a6bd
000002b0: 9f7a c83c 868e 46bd 7ffe 84bc f94d 98bb
000002c0: b528 353c 7002 f0bc 9fa9 2bbd bcda d0bb
000002d0: 5fa4 af3c cdc7 64bd 5525 e1bc be4a 133d
000002e0: 5a35 f7bc 57d4 503b 2f80 653d 8bfe 0a3c
000002f0: 7b5e edbe 2305 34bc ece6 833c dbb0 0c3d
00000300: f6f4 b8bb a21e d43d 56db b3bc cbab db3c
00000310: e5d8 d43b 2a62 7a3e 6483 01bb 67b4 84bc
00000320: a552 b438 49f4 a7ba 771c 5dbc b180 45bd
00000330: f05f 27bc e65a bbbb 60fa 4dbc ae73 6cbc
00000340: 0e94 0ebe 4cb8 a8bb 3d51 b3bb 3973 e53b
00000350: 7e13 3fbd 1119 01bc adbe 15bd 73ca a63c
00000360: 2d2e 8dbc d394 4c3b 4a2d 2b3b 0971 bb3c
00000370: cd53 823c b1da e33b 8c94 c2bc af1b 63bc
00000380: c6a9 5abc 3a97 dcbb 854c 5fbc aebf 9dbd
00000390: 3b6f 3cbe 7e5a 21bd fe10 1e3c 76a8 22bd
000003a0: 2636 34bd b343 abbc 087d e7bc 2fab d5bb
000003b0: ac3e d8bc 0d62 9fbd 0127 2e3d 327a ba3a
000003c0: 7e27 c63b 1a15 dabc fdcd 3e3e b7c3 c7bb
000003d0: 1e2e 00bc ffef 9abc 8f33 78bc 6213 76bc
000003e0: e673 9bbc f663 9cbc 6019 ecbc 18ed c0bc
000003f0: cb8a 953c dba1 a13b 52b3 d0bc 8408 013d

encoder_conv3.bias f4 [8]
1.0253851 0.22277725 1.3235803 0.622354 0.27999416 0.4701197 0.6641822 0.63628364
00000000: d23f 833f b81f 643e 146b a93f 9752 1f3f
00000010: 655b 8f3e 88b3 f03e d807 2a3f 7ce3 223f

deconv1.weight f4 [8, 16, 5]
-0.05269993 -0.016786115 0.018290225 0.1169001 0.013668835 -0.01814471 0.009809103 0.04801896
0.46856362 0.019031713 -0.01974946 -0.014764582 -0.023003144 0.13149774 -0.049144566 -0.0017538966
-0.049924262 0.008169661 0.03280165 -0.041541077 -0.01050394 -0.34125584 -0.0343793 0.21293558
0.01935881 -0.044163488 0.033565123 0.11415029 -0.20941147 0.04627356 -0.032939516 0.1081854
-0.18782765 -0.30269137 -0.49503532 0.070168726 -0.11651965 0.042651482 0.16761795 0.103250526
-0.05661859 -0.10730815 0.18239512 0.01665459 -0.013524786 0.25806367 -0.059545126 -0.008866928
0.27350014 0.029984811 0.12432962 0.07162821 0.040629037 0.423681 0.012030417 0.14560963
-0.04399725 0.02287729 -0.023431389 -0.074392 0.046974026 0.04464635 -0.10508984 0.046224076
0.07400911 -0.046025693 0.029729746 -0.053454973 0.35826993 -0.030322352 0.00017859075 -0.12317424
-0.018689381 0.13207693 0.0075097457 0.007714629 0.23432727 -0.009311931 -0.003589078 0.09281243
0.030116873 -0.08890593 0.013654806 -0.057375077 0.019086577 0.0008215349 0.043807093 0.09430976
0.024864033 0.022702496 -0.010705054 -0.0075382283 -0.023709506 0.00075242296 -0.016635543 0.019338386
-0.009047205 0.40867665 -0.0027420765 -0.021529183 -0.0057922103 -0.033546966 -0.02789488 0.07185647
0.021897351 -0.04743876 0.03953313 0.06430757 0.029130528 0.032739334 -0.059293777 0.051116094
-0.18377832 -0.014815964 -0.35222274 0.056931455 -0.072885275 0.46559218 -0.009966684 0.04744126
0.012043648 -0.005289606 0.07025085 0.024630152 -0.010285868 0.15987283 0.01615373 0.050593857
0.025392292 0.040269658 0.06976482 0.034718364 -0.20053989 0.0095299855 0.014405328 0.07374943
-0.024911128 0.18476999 0.010180406 -0.0133470865 0.048313767 0.024936574 0.22495644 -0.0024854785
0.022893785 -0.0402921 0.010794696 0.011740927 0.03508207 -0.030407846 -0.024306467 -0.040510274
0.05132184 0.0136474045 0.018153135 0.060560793 0.14503023 0.12512589 0.0103309415 0.038359202
0.060850795 0.066947 -0.33431312 -0.038799204 -0.037997156 -0.007128829 0.061716538 -0.020209052
-0.018459456 0.017683357 -0.01507405 0.007984293 -0.031997714 -0.11504011 -0.047735702 0.020068543
-0.06667779 -0.00029417253 -0.021974035 -0.03317971 -0.02997477 -0.034507524 0.0015701574 -0.21954502
-0.06268856 -0.06792176 0.04981196 0.14085022 -0.16502683 0.087134786 -0.42983314 0.05207662
-0.22762486 -0.091188505 -0.120375104 0.016442772 -0.07072527 0.07191572 -0.02276482 0.06384075
-0.00038968975 0.028254524 0.043522503 -0.044361386 0.11358212 0.17852587 0.04905093 0.17657226
-0.0481414 -0.02899926 0.08552588 0.02382029 0.14694795 -0.08359855 0.013466113 0.17724241
-0.076987185 0.011971341 0.15650412 -0.010752769 0.040224988 0.00448907 -0.08679722 -0.45382065
-0.077675395 -0.03618306 -0.01726857 -0.02273974 -0.098057054 -0.02229745 -0.03377407 -0.05451213
-0.026685797 0.13671416 -0.026666012 0.0072428733 0.13593365 0.05662241 0.0567791 -0.031143388
0.052404214 -0.050677203 -0.0025787272 -0.06203658 0.00557678 -0.00045324955 0.055498276 -0.013602811
-0.0093933 0.011130642 -0.018518675 -0.0071244445 0.6929303 -0.01240497 -0.019389313 0.041376185
00000000: e2db 57bd 0983 89bc 62d5 953c 5269 ef3d
00000010: 40f3 5f3c 37a4 94bc 5cb6 203c 87af 443d
00000020: 92e7 ef3e 65e8 9b3c 9fc9 a1bc 25e7 71bc
00000030: 1771 bcbc 58a7 063e d04b 49bd 01e3 e5ba
00000040: 627d 4cbd 0bda 053c 065b 063d fa26 2abd
00000050: b818 2cbc 16b9 aebe 4fd1 0cbd c90b 5a3e
00000060: 5e96 9e3c c6e4 34bd 957b 093d a1c7 e93d
00000070: f66f 56be 5889 3d3d 96eb 06bd 4f90 dd3d
00000080: e455 40be 5dfa 9abe 4575 fdbe 9fb4 8f3d
00000090: dba1 eebd 52b3 2e3d 0aa4 2b3e 0375 d33d
000000a0: e5e8 67bd 60c4 dbbd c9c5 3a3e 356f 883c
000000b0: 1097 5dbc ec20 843e 97e5 73bd 9746 11bc
000000c0: 3608 8c3e b5a2 f53c 87a0 fe3d d0b1 923d
000000d0: a26a 263d b7ec d83e 3a1b 453c b11a 153e
000000e0: 7636 34bd 2869 bb3c 2ff3 bfbc d55a 98bd
000000f0: d667 403d 17df 363d 5839 d7bd 7555 3d3d
00000100: 1792 973d 7085 3cbd cc8b f33c 9af3 5abd
00000110: 286f b73e 9566 f8bc 1744 3b39 c742 fcbd
00000120: 791a 99bc 2d3f 073e 5014 f63b 00cb fc3b
00000130: 7df3 6f3e 1291 18bc bd36 6bbb 7114 be3d
00000140: a9b7 f63c 5014 b6bd 68b8 5f3c 2102 6bbd
00000150: 745b 9c3c 465c 573a 116f 333d 7a25 c13d
00000160: a8af cb3c 96fa b93c 4064 2fbc 3e03 f7bb
00000170: 703a c2bc 403e 453a 4347 88bc 896b 9e3c
00000180: ba3a 14bc 113e d13e 69b4 33bb f85d b0bc
00000190: 95cc bdbb 8b68 09bd ce83 e4bc 7c29 933d
000001a0: 1362 b33c 254f 42bd 7eed 213d b0b3 833d
000001b0: 25a3 ee3c ae19 063d 08de 72bd 1c5f 513d
000001c0: 6230 3cbe a8be 72bc 8a56 b4be f530 693d
000001d0: e044 95bd 1962 ee3e 4d4b 23bc c451 423d
000001e0: b952 453c 6e54 adbb addf 8f3d 2cc5 c93c
000001f0: 0f86 28bc b4b5 233e d454 843c 813b 4f3d
00000200: 7f03 d03c ccf1 243d dce0 8e3d d834 0e3d
00000210: 545a 4dbe a823 1c3c 5304 6c3c f109 973d
00000220: 6c12 ccbc 5834 3d3e b8cb 263c bdad 5abc
00000230: a8e4 453d c947 cc3c fb5a 663e 69e3 22bb
00000240: bf8b bb3c 5409 25bd 3ddc 303c 045d 403c
00000250: 37b2 0f3d e019 f9bc 5b1e c7bc 1aee 25bd
00000260: da36 523d 5d99 5f3c e2b5 943c 980e 783d
00000270: ce82 143e 0021 003e 1c43 293c 8a1e 1d3d
00000280: af3e 793d 821b 893d 172b abbe eaeb 1ebd
00000290: e8a2 1bbd f498 e9bb 7bca 7c3d 748d a5bc
000002a0: 4938 97bc b0dc 903c 26f9 76bc 8dd0 023c
000002b0: 0910 03bd 269a ebbd 8386 43bd c966 a43c
000002c0: 5d8e 88bd 2b3b 9ab9 e402 b4bc 73e7 07bd
000002d0: a68d f5bc c357 0dbd bdcd cd3a 69d0 60be
000002e0: dc62 80bd 901a 8bbd a007 4c3d 0a3b 103e
000002f0: cbfc 28be b973 b23d 1713 dcbe 4b4e 553d
00000300: 7e16 69be 0ac1 babd 3987 f6bd feb2 863c
00000310: 69d8 90bd 8d48 933d 4a7d babc f0be 823d
00000320: 464f ccb9 0876 e73c a744 323d 49b4 35bd
00000330: be9d e83d 7ccf 363e a1e9 483d 5ccf 343e
00000340: eb2f 45bd db8f edbc 3128 af3d c522 c33c
00000350: 8679 163e b735 abbd f9a0 5c3c 097f 353e
00000360: 75ab 9dbd 7223 443c 9e42 203e 622c 30bc
00000370: f5c2 243d 0c19 933b bec2 b1bd 2e5b e8be
00000380: 4714 9fbd b034 14bd d176 8dbc b148 babc
00000390: 23d2 c8bd 24a9 b6bc ae56 0abd 1c48 5fbd
000003a0: 2c9c dabc ccfe 0b3e ae72 dabc a055 ed3b
000003b0: 3132 0b3e e6ec 673d 3491 683d 6b20 ffbc
000003c0: cda5 563d e692 4fbd ddff 28bb 121a 7ebd
000003d0: 6cbd b63b 20a2 edb9 2952 633d 53de 5ebc
000003e0: 5be6 19bc 4c5d 363c 7ab4 97bc 2c74 e9bb
000003f0: e163 313f 373e 4bbc 56d6 9ebc 137a 293d

deconv1.bias f4 [16]
0.2949995 0.12774801 0.16276321 0.109335564 0.45659676 0.2607322 0.5103533 0.16688675
0.017534874 -0.16989721 0.09234172 0.14277968 0.39899096 0.41577598 0.15167509 -0.011051902
00000000: 2d0a 973e 60d0 023e 66ab 263e 53eb df3d
00000010: 0dc7 e93e b17e 853e 84a6 023f 5ce4 2a3e
00000020: 4ca5 8f3c 89f9 2dbe a81d bd3d d634 123e
00000030: 8b48 cc3e 97e0 d43e b750 1b3e 0913 35bc

deconv2.weight f4 [16, 32, 5]
0.07573152 -0.04289067 -0.019237295 -0.04181407 -0.60676587 0.026314963 -0.007389286 0.08376919
0.047719683 0.19642368 0.061648943 0.018036764 -0.043000653 -0.058765996 -0.028423442 0.09239422
0.015248996 0.019623023 0.0011506394 0.09126579 -0.10378657 -0.059629947 -0.14616825 -0.6881424
-0.106392555 0.084768906 -0.010802513 0.10024851 0.0037481654 0.036807153 0.03045444 3.8856642
0.20797443 0.1387941 0.111734614 0.019983513 0.06249688 -0.16112716 0.49228948 -0.05834286
-0.01246457 -0.0421351 0.5457474 -0.049913846 -0.20489252 0.07471146 -0.019512255 0.09503793
0.021231072 0.09155181 0.07446063 -0.007939114 0.31564972 -0.103576556 0.13582386 0.110260054
-0.10902737 -0.0075279437 0.065499194 0.039639227 -0.0014781229 0.02820679 -0.06250703 0.010374804
-0.124020055 -0.00776009 0.053502806 -0.033133384 -0.34882507 0.35050178 0.046635214 0.141916
0.03733434 -0.012785715 0.29866353 0.0013364203 0.056482397 0.036532238 -0.016067203 -0.0735951
-0.34848958 -0.19866537 -0.01790908 -0.03618658 -0.36751303 0.07194958 0.06942273 -0.013758993
0.23762426 0.4052052 -0.99424654 0.09456565 -0.034769386 -0.026567852 -0.52327466 0.1741747
0.16993864 0.07922253 0.019033875 0.044252522 0.1232982 0.06940331 0.5730688 0.06523228
0.116983525 -0.036218304 0.11482805 -0.20739113 -0.054000434 0.092354394 -0.07590658 -0.061736375
0.27612373 -0.02814355 -0.03077377 0.072174154 0.042192023 -0.1440372 0.045756754 -0.09999697
0.67728025 -0.09359266 -0.05687803 -0.21113372 0.18062305 0.01747594 0.0038766088 -1.1021724
-0.4463707 -0.12962116 -0.057256937 0.16863573 0.05473333 0.09465361 -0.04273111 -0.32912418
0.17554262 0.1099817 -0.008259826 0.09988657 -0.08310593 -0.04856431 -0.31649452 -0.096622095
0.03831364 0.008200176 0.02262453 0.034695648 0.019385353 0.17316458 -0.7470267 -0.026023358
-0.14133178 0.14554532 -0.10728974 -0.095339276 -0.06005604 0.07960609 0.121025115 -0.014305204
-0.0550336 0.04047567 -0.0018256278 0.10858002 -0.3090024 0.018813098 0.23349243 0.29925847
0.094216354 0.06546783 -0.01178857 0.16738528 0.02807199 -0.0070685507 0.035439026 0.08354987
-0.057731695 0.21257019 0.18977712 0.13587713 0.0032410359 -0.022260537 -0.10964119 -0.19598256
-0.099519834 0.079287104 0.045201875 0.1642445 0.17647375 0.048407804 0.19434094 0.7029439
0.11403632 -0.043202557 0.08724385 -0.067009486 0.17067108 0.12085732 0.11106469 0.09226972
0.24190503 0.23543087 -0.036604986 -0.06891313 -0.009717952 0.16220185 -0.06740419 0.10271239
-0.06235122 -0.12814684 -0.12312541 0.054418355 0.40631586 0.18666126 0.16622236 0.025799448
0.0040636947 0.04316426 -0.030665822 0.09132806 0.062834054 0.017453197 0.004754478 0.03477386
0.017855821 -0.061442904 -0.22489575 -0.042992305 -0.73759216 -0.09525811 -0.031370584 -0.07620115
0.14164436 0.1181126 -0.24215792 -0.029249506 0.052436695 0.062425382 0.07679922 -0.035528556
-0.4395618 0.1928595 -0.24807082 -0.11189678 0.07917691 -0.07445528 0.09984842 -0.08606542
-0.09082848 0.08833314 -0.2965073 0.022567336 0.11501128 -0.012023034 0.13108662 -0.1859613
00000000: 2119 9b3d 21ae 2fbd 8897 9dbc 3b45 2bbd
00000010: 0255 1bbf 7a92 d73c d321 f2bb 2e8f ab3d
00000020: b775 433d 4a23 493e 9a83 7c3d d6c1 933c
00000030: 7421 30bd 9db4 70bd 47d8 e8bc 2e39 bd3d
00000040: edd6 793c 76c0 a03c 0dd1 963a 8fe9 ba3d
00000050: 0e8e d4bd 883e 74bd 21ad 15be 1a2a 30bf
00000060: 57e4 d9bd 529b ad3d 06fd 30bc 174f cd3d
00000070: c8a3 753b 19c3 163d 977b f93c b9ae 7840
00000080: 40f7 543e 0a20 0e3e 1ed5 e43d 77b4 a33c
00000090: bafc 7f3d 85fe 24be 5e0d fc3e ecf8 6ebd
000000a0: 3238 4cbc db95 2cbd 1ab6 0b3f 7672 4cbd
000000b0: 58cf 51be 5202 993d 2ad8 9fbc 3fa3 c23d
000000c0: c9ec ad3c 847f bb3d d17e 983d 0f13 02bc
000000d0: d79c a13e f21f d4bd 6915 0b3e 06d0 e13d
000000e0: be49 dfbd f8ac f6bb 7124 863d be5c 223d
000000f0: 93bd c1ba ed11 e73c b003 80bd 15fb 293c
00000100: 3afe fdbd 5a48 febb c225 5b3d dfb6 07bd
00000110: 3399 b2be f874 b33e 9104 3f3d 6e52 113e
00000120: e5eb 183d 2d7b 51bc 6dea 983e d32a af3a
00000130: 165a 673d d4a2 153d 5e9f 83bc 07b9 96bd
00000140: 3a6d b2be ef6e 4bbe 10b6 92bc 6138 14bd
00000150: ab2a bcbe 4d5a 933d 812d 8e3d 666d 61bc
00000160: c653 733e 0e77 cf3e f186 7ebf a3ab c13d
00000170: 586a 0ebd d3a4 d9bc 54f5 05bf da5a 323e
00000180: 6504 2e3e 6c3f a23d eeec 9b3c 2242 353d
00000190: c483 fc3d 5323 8e3d a3b4 123f 8098 853d
000001a0: 0f95 ef3d a559 14bd f82a eb3d 575e 54be
000001b0: 8f2f 5dbd 4d24 bd3d e974 9bbd 48df 7cbd
000001c0: 1760 8d3e 4d8d e6bc 4619 fcbc 0bd0 933d
000001d0: 8bd1 2c3d 7d7e 13be 6f6b 3b3d 36cb ccbd
000001e0: 3d62 2d3f 82ad bfbd f0f8 68bd 7033 58be
000001f0: 40f5 383e b429 8f3c b40e 7e3b fc13 8dbf
00000200: b38a e4be 69bb 04be 4086 6abd d8ae 2c3e
00000210: 0e30 603d c0d9 c13d d106 2fbd f782 a8be
00000220: 72c1 333e 163e e13d 3954 07bc 5491 cc3d
00000230: 7133 aabd 5feb 46bd 920b a2be cee1 c5bd
00000240: c3ee 1c3d 085a 063c 1457 b93c 061d 0e3d
00000250: 08ce 9e3c 0e52 313e 243d 3fbf f02e d5bc
00000260: 47b9 10be d509 153e b9ba dbbd 3d41 c3bd
00000270: 52fd 75bd 8508 a33d 04dc f73d 6060 6abc
00000280: ea6a 61bd d1c9 253d e749 efba 345f de3d
00000290: 9035 9ebe ed1d 9a3c a418 6f3e 6838 993e
000002a0: 81f4 c03d ff13 863d d924 41bc 0c67 2b3e
000002b0: 3bf7 e53c 4d9f e7bb 8328 113d 321c ab3d
000002c0: 1278 6cbd 00ac 593e ef54 423e 6023 0b3e
000002d0: 8f67 543b bb5b b6bc 8f8b e0bd a7af 48be
000002e0: 0ed1 cbbd 4761 a23d 9a25 393d b62f 283e
000002f0: 89b5 343e 4347 463d 5001 473e 22f4 333f
00000300: e08b e93d 2af5 30bd e7ac b23d 453c 89bd
00000310: 66c4 2e3e 0b84 f73d e275 e33d e8f7 bc3d
00000320: f4b5 773e ca14 713e 1cef 15bd 5422 8dbd
00000330: 0c38 1fbc 3e18 263e 350b 8abd e05a d23d
00000340: fe63 7fbd ed38 03be 2d29 fcbd c8e5 5e3d
00000350: a208 d03e 2124 3f3e 3236 2a3e 5d59 d33c
00000360: be28 853b 02cd 303d e436 fbbc 350a bb3d
00000370: 24af 803d 02fa 8e3c 74cb 9b3b 096f 0e3d
00000380: 5f46 923c 8eab 7bbd 124b 66be b318 30bd
00000390: d7d2 3cbf af16 c3bd 717e 00bd 590f 9cbd
000003a0: 380b 113e 05e5 f13d 3ff8 77be a99c efbc
000003b0: dcc7 563d c2b1 7f3d e948 9d3d 6486 11bd
000003c0: 3f0e e1be f67c 453e 4706 7ebe 242a e5bd
000003d0: 8127 a23d 037c 98bd 547d cc3d 1143 b0bd
000003e0: 4804 babd 01e8 b43d cecf 97be 22df b83c
000003f0: 098b eb3d 42fc 44bc 923b 063e a46c 3ebe

deconv2.bias f4 [32]
0.05891483 0.10424441 -0.056660067 0.10757227 0.14318192 0.14819677 -0.012536678 0.07150664
-0.009749765 -0.15548077 0.007150656 0.17503077 -0.0027093592 0.059106085 0.17927755 -0.05397976
0.1593593 0.16695483 0.033953425 0.17774116 0.12677872 0.15612112 -0.075441584 0.111354835
0.17035523 0.08923501 0.13821036 0.031102823 0.07014724 0.144719 0.06255339 0.13177094
00000000: ad50 713d 187e d53d 6314 68bd da4e dc3d
00000010: 489e 123e e5c0 173e a466 4dbc 1372 923d
00000020: 7abd 1fbc 5a36 1fbe 0d50 ea3b 443b 333e
00000030: 818f 31bb 3919 723d 8994 373e e119 5dbd
00000040: 162f 233e 35f6 2a3e bf12 0b3d c701 363e
00000050: 48d2 013e 37de 1f3e 1e81 9abd 010e e43d
00000060: 9a71 2e3e d8c0 b63d 0487 0d3e 59cb fe3c
00000070: 5ba9 8f3d 3831 143e fe1b 803d f6ee 063e

deconv3.weight f4 [32, 1, 5]
0.28191772 0.45794758 0.06283536 -0.050393727 -0.2060098 0.12732217 0.4004914 0.123317696
0.2331558 -0.10679169 0.5229041 0.14352927 0.011122623 0.03705764 -0.17215504 -0.23609373
0.1278165 0.2517827 0.48498535 0.29092926 -0.10236984 -1.9051607 0.17721318 0.07791549
-0.03146913 0.05881848 0.45160958 0.055012446 0.37736833 0.12165124 -0.11905762 -0.29593772
0.66830534 0.011282588 0.016121633 0.31388807 0.21111207 -0.06816698 -0.36245412 -0.25644895
-0.081083834 -0.43179768 -0.5851758 -0.45469847 -0.2462013 0.2076806 -0.10427584 -0.6169498
0.09518145 0.03544333 -0.08706089 0.5924549 0.27160928 0.055548813 -0.05312364 -0.09455795
0.013487397 0.3811939 0.13126044 0.23368183 -0.042278353 -0.04521681 -0.15561974 -0.04531434
-0.20085949 0.3537367 0.5828596 0.012168117 0.13680854 0.2510632 -0.15564902 0.294224
0.1061557 0.33738264 0.32093626 -0.05738857 -0.4345947 -0.059918046 0.2743093 -0.33199534
0.26446953 -0.25013214 0.10099539 0.30161673 -0.048360188 -0.092526264 -0.49792925 -0.40601733
-0.39040253 -0.13305177 0.09096173 0.46286467 0.35937938 0.09154473 0.09710479 -0.0034870354
0.26752523 0.35367957 -0.15269265 -0.10180874 0.00965687 -0.25449088 0.39699787 0.4759871
0.19756795 -0.0043713017 -0.44723818 0.20942895 -0.091229364 0.13341767 -0.047479097 -0.11569351
-0.23965241 0.010891148 0.59636253 0.17184106 0.14885813 -0.15236978 -0.052488357 0.3399488
-0.11907333 -0.18317334 -0.08675384 -0.49392962 -0.96751225 -0.06919959 -0.094954975 1.3949628
-0.028130062 0.05175786 0.04790831 0.13569172 0.18726546 0.07941951 0.3677781 -0.40951037
-0.61584276 0.59902716 -0.0026662722 -0.15004131 0.029005101 -0.0009978611 -0.7909588 -0.14557777
-0.028614843 0.42413136 0.2344192 0.29843736 0.09820735 -0.08245632 -0.0484139 -0.6258221
0.20421235 0.37924543 0.25222406 0.16085213 0.4204223 -0.486439 -0.23391429 -0.02511065
00000000: 8557 903e 1b78 ea3e d3af 803d a769 4ebd
00000010: 3cf4 52be be60 023e 350d cd3e fd8d fc3d
00000020: 65c0 6e3e 9ab5 dabd 0bdd 053f 56f9 123e
00000030: aa3b 363c c0c9 173d 6949 30be 8ec2 71be
00000040: 54e2 023e a9e9 803e 0050 f83e aef4 943e
00000050: 47a7 d1bd 4edc f3bf 5f77 353e 2892 9f3d
00000060: c6e5 00bd a6eb 703d 5f39 e73e bb54 613d
00000070: 6c36 c13e 4924 f93d 7bd4 f3bd 2685 97be
00000080: 0f16 2b3f 9bda 383c 8411 843c f0b5 a03e
00000090: c32d 583e 219b 8bbd 9693 b9be 474d 83be
000000a0: 480f a6bd 9614 ddbe 15ce 15bf 3dce e8be
000000b0: 321c 7cbe 39aa 543e 928e d5bd 6cf0 1dbf
000000c0: 7eee c23d 062d 113d fb4c b2bd 20ab 173f
000000d0: 5f10 8b3e 2787 633d 2d98 59bd 99a7 c1bd
000000e0: 3efa 5c3c d92b c33e 2369 063e 4a4a 6f3e
000000f0: 112c 2dbd 4335 39bd c85a 1fbe 889b 39bd
00000100: 1cae 4dbe fa1c b53e 4936 153f c85c 473c
00000110: 8a17 0c3e 5b8b 803e 7562 1fbe 87a4 963e
00000120: 2968 d93d 6bbd ac3e c251 a43e 4710 6bbd
00000130: 3283 debe a06c 75bd 4572 8c3e 4bfb a9be
00000140: 8d68 873e 5211 80be acd6 ce3d 826d 9a3e
00000150: 5515 46bd 697e bdbd 95f0 febe 81e1 cfbe
00000160: d7e2 c7be b93e 08be 254a ba3d 99fc ec3e
00000170: 9300 b83e ce7b bb3d e0de c63d bf86 64bb
00000180: 11f9 883e 7d15 b53e 765b 1cbe 1a81 d0bd
00000190: d937 1e3c a14c 82be 4e43 cb3e 95b4 f33e
000001a0: 414f 4a3e 233d 8fbb 67fc e4be 8b74 563e
000001b0: 76d6 babd a49e 083e 7179 42bd b8f0 ecbd
000001c0: 7167 75be c970 323c 37ab 183f 1af7 2f3e
000001d0: 446e 183e d306 1cbe 08fe 56bd c50d ae3e
000001e0: b8dc f3bd cb91 3bbe ffab b1bd 58e4 fcbe
000001f0: e2ae 77bf 84b8 8dbd c177 c2bd 248e b23f
00000200: 0471 e6bc 0d00 543d 813b 443d c5f2 0a3e
00000210: 84c2 3f3e b2a6 a23d 694d bc3e 58ab d1be
00000220: dfa7 1dbf d859 193f a0bc 2ebb 6ea4 19be
00000230: 1b9c ed3c aaca 82ba 477c 4abf 5712 15be
00000240: ad69 eabc bf27 d93e 960b 703e c8cc 983e
00000250: ef20 c93d dcde a8bd a74d 46bd e135 20bf
00000260: 0b1d 513e 752c c23e 8323 813e 6cb6 243e
00000270: 9741 d73e 880e f9be 3a87 6fbe dab4 cdbc
