models/SNN_autoencoder_tsri_time10.pth (torch, 37239 bytes, 11 tensors)

encoder_conv1.weight f4 [32, 1, 5]
-0.2833587 -0.31523466 0.66308594 0.27959034 0.6668685 0.65130246 0.7549333 0.24157578
0.18972293 0.51788706 0.32107282 0.7791168 -0.2249377 0.107174754 -0.08940401 0.27151066
-0.14277193 -0.2547646 0.038882215 -0.26472226 -0.3749746 0.4691001 0.21993642 0.42780197
-0.012891758 0.046868794 0.09548566 0.48279327 0.032181177 -0.08872091 -0.11939425 0.040943034
0.391764 0.4375418 0.62921894 0.4103422 0.5872513 0.07469986 -0.39132398 0.14450596
0.29893774 0.2440061 -0.114976704 0.025092466 0.35227647 0.32736748 0.2114979 -0.081989475
0.53044724 -0.25188324 0.38031623 0.70868206 0.36013636 -0.22531138 -0.22530511 0.47956038
-0.39093634 -0.04118474 0.09556058 0.47878936 0.3022667 -0.42841128 0.34485763 0.62148815
-0.3179552 0.27637273 0.59083337 -0.3388151 -0.14997046 0.2321868 -0.068317026 0.46702704
0.8202298 0.0056207348 0.08421625 0.6162363 0.6515293 0.016206175 0.16658391 -0.25472853
0.085619524 -0.4149731 0.17233615 -0.17349903 0.0031095066 0.34741074 0.0968825 0.58596253
0.036369987 -0.468929 0.6767318 0.5037067 -0.16847111 0.1951623 0.26929778 0.15961933
0.3340897 0.56516844 -0.051646326 -0.16446039 -0.030080723 0.009579485 -0.00076278404 1.1475265
0.0110144615 -0.21654306 0.22192359 0.97650546 0.5409194 -0.49149212 -0.19638294 0.6191307
0.014843505 0.13908139 0.584063 -0.28122744 0.12560992 0.20740928 0.57061493 0.20224623
0.1266365 0.3205894 0.43608105 0.45620772 -0.0026656573 -0.38224277 -0.22178043 -0.43076724
-0.24701373 -0.2192824 -0.1250111 -0.31170377 -0.024875116 0.03992879 -0.08839397 -0.44388238
-0.3325975 0.64667386 0.5234476 -0.08097975 0.34091672 0.31745934 0.3390446 -0.4160417
0.4283993 0.39718452 -0.5749927 0.42693067 0.40202984 0.013554305 0.037418313 -0.0058362605
-0.7977427 0.012766761 0.059733626 0.49576572 0.30117983 0.044299785 0.025392545 0.052875552
00000000: 6414 91be 7066 a1be 00c0 293f 7726 8f3e
00000010: e5b7 2a3f c2bb 263f 4f43 413f a45f 773e
00000020: ba46 423e 3f94 043f a863 a43e 3374 473f
00000030: 1256 66be 707e db3d 7319 b7bd 7203 8b3e
00000040: ce32 12be 8170 82be f542 1f3d ad89 87be
00000050: acfc bfbe e32d f03e 0337 613e dc08 db3e
00000060: f437 53bc 7ef9 3f3d fc8d c33d ae30 f73e
00000070: 69d0 033d 4fb3 b5bd f984 f4bd e2b3 273d
00000080: 4a95 c83e 7b05 e03e 7e14 213f 5f18 d23e
00000090: 1a56 163f 3dfc 983d 9e5b c8be 5ff9 133e
000000a0: 5e0e 993e bcdc 793e e878 ebbd b78e cd3c
000000b0: 955d b43e b69c a73e e892 583e 19ea a7bd
000000c0: 64cb 073f d7f6 80be cfb8 c23e 306c 353f
000000d0: cb63 b83e 07b8 66be 62b6 66be f088 f53e
000000e0: cf28 c8be 54b1 28bd 44b5 c33d e123 f53e
000000f0: b3c2 9a3e b958 dbbe 2e91 b03e d919 1f3f
00000100: 06cb a2be ba80 8d3e db40 173f 2c79 adbe
00000110: db91 19be 60c2 6d3e cce9 8bbd 2b1e ef3e
00000120: 95fa 513f 242e b83b 9279 ac3d aac1 1d3f
00000130: a0ca 263f d0c2 843c f994 2a3e c76b 82be
00000140: 4a59 af3d 5b77 d4be e378 303e bba9 31be
00000150: ddc8 4b3b d2df b13e 556a c63d a401 163f
00000160: b2f8 143d 7617 f0be 4c3e 2d3f ecf2 003f
00000170: b183 2cbe a0d8 473e 66e1 893e 4073 233e
00000180: ce0d ab3e e1ae 103f 198b 53bd 4e68 28be
00000190: d96b f6bc 46f3 1c3c 92f5 47ba 26e2 923f
000001a0: 0076 343c 77bd 5dbe f03f 633e 43fc 793f
000001b0: b279 0a3f dba4 fbbe 9c18 49be 597f 1e3f
000001c0: 2c32 733c 5a6b 0e3e 2785 153f 0bfd 8fbe
000001d0: e39f 003e 1963 543e d213 123f a319 4f3e
000001e0: 00ad 013e 4b24 a43e 0446 df3e 0f94 e93e
000001f0: 4fb2 2ebb 53b5 c3be 691a 63be 868d dcbe
00000200: 2bf1 7cbe 918b 60be e902 00be a397 9fbe
00000210: e6c6 cbbc 5f8c 233d e607 b5bd 8d44 e3be
00000220: 384a aabe 6b8c 253f a900 063f b6d8 a5bd
00000230: a38c ae3e 088a a23e 4197 ad3e 6b03 d5be
00000240: 2757 db3e c55b cb3e b932 13bf a896 da3e
00000250: dbd6 cd3e e012 5e3c f243 193d 1a3e bfbb
00000260: de38 4cbf ad2b 513c 3fab 743d 01d5 fd3e
00000270: 3e34 9a3e b173 353d 0704 d03c 0994 583d

encoder_conv1.bias f4 [32]
0.37714228 0.2879496 0.21938689 -0.4061081 0.17110364 0.55434436 -0.34700242 -0.09859697
0.26143476 0.20577899 -0.05020089 0.0348162 0.14570738 0.6261324 0.22106066 -0.075035535
-0.2534205 -0.13381979 -0.4222587 0.3542803 0.10819608 0.3062125 -0.13267255 0.15001304
-0.31727165 -0.33647433 -0.21401525 0.6494983 -0.2108735 0.28236806 0.901673 0.71053845
00000000: cb18 c13e 216e 933e f5a6 603e 67ed cfbe
00000010: cb35 2f3e 83e9 0d3f 4daa b1be 35ed c9bd
00000020: c7da 853e bab7 523e 739f 4dbd 6f9b 0e3d
00000030: 5134 153e 374a 203f ba5d 623e 3bac 99bd
00000040: 55c0 81be 0e08 09be 4b32 d8be 3a64 b53e
00000050: e895 dd3d e3c7 9c3e 50db 07be 059d 193e
00000060: 6e71 a2be 5d46 acbe d026 5bbe 8545 263f
00000070: 39ef 57be 8c92 903e 0bd4 663f d9e5 353f

encoder_conv2.weight f4 [16, 32, 5]
-0.16436537 -0.6166425 0.00833499 -0.16394286 0.076355726 -0.25834087 -0.3300266 -0.17605172
-0.082837954 -0.026199099 -0.037059803 -0.06500426 -0.02802133 0.14615443 -0.050840642 0.057592742
0.025272176 0.02433756 -0.035767335 -0.052828554 -0.06816664 -0.15174557 -0.0019351068 -0.05937711
-0.027040664 -0.15317811 -0.25632444 -0.2675957 0.06599746 0.11425922 0.030727444 -0.17694207
0.04396997 -0.04918584 -0.028366437 0.04696145 -0.069919884 -0.1422992 0.3323742 -0.021757767
-0.107192464 -0.094537646 0.2715702 0.025024394 -0.06002071 -0.13148886 -0.22054441 0.24698788
0.09647223 -0.14187123 0.027854018 -0.10149417 -0.11597305 0.23864956 -0.08570414 0.043066584
-0.12109136 0.2844594 0.298661 -0.058440644 -0.012161198 -0.17242935 -0.05192332 0.112374626
-0.14370412 -0.14174695 -0.13315557 0.12799159 0.18868136 0.118234456 0.023368364 -0.07468857
-0.23575889 -0.039310854 0.015683994 0.07859095 -0.11843713 -0.25214684 0.059733648 -0.12955293
-0.01975597 -0.027049784 0.042566545 -0.041756485 0.022980787 -0.07255665 -0.18645124 -0.2832164
0.08682132 -0.10464902 0.123362966 -0.07410703 -0.19166283 0.21870439 -0.07554715 -0.12231476
-0.04109885 -0.41486996 0.08101935 0.03331941 -0.035757974 -0.33579525 0.20315878 -0.022311708
-0.02536033 -0.13549684 -0.25643387 -0.18263763 -0.05533327 -0.053364176 0.007385913 -0.19950339
-0.020912332 0.13475014 0.023282614 0.014366098 -0.20134334 0.121605895 -0.049061354 -0.02828797
0.08707145 -0.077496275 -0.06275677 -0.06263527 -0.048377275 0.008286983 0.072942786 0.01794196
-0.023025502 -0.078979716 -0.06720735 -0.034437668 0.019252576 -0.07624635 0.022758089 -0.37644112
-0.5022962 0.008810037 -0.03412337 0.04561992 -0.015010435 -0.13139932 -0.2299555 0.07637224
-0.055512242 -0.18987067 -0.17587371 -0.01227501 0.1580412 -0.089912206 -0.5849194 -0.45333824
0.64424264 0.060456313 0.15777914 -0.16406341 -0.0804312 -0.046841517 0.17451663 0.18838386
0.05981277 -0.02268891 -0.04765969 -0.06548864 -0.039288785 0.17305623 0.12094876 0.09791591
0.06991192 0.1301221 0.07741659 0.069011524 0.045740757 0.0314799 0.053679865 0.03946002
-0.057520736 0.0057893917 -0.07184412 0.00280153 0.0068487795 -0.0454267 -0.048842598 -0.016528837
0.011681227 0.03921526 -0.04783013 -0.018763086 -0.023788152 0.026290985 -0.011706458 0.05273227
0.012826815 -0.06085759 0.020702101 0.087203644 0.07329162 0.030985486 0.052946016 0.014639493
0.14758429 0.04220495 0.057770155 0.006193301 0.023633134 -0.050710384 -0.034367952 -0.05367223
-0.019603329 0.013472659 0.031322155 0.03627824 0.0864183 0.03705499 -0.004885839 0.12229263
0.06498353 0.022537762 0.037676994 0.013633408 0.04013103 -0.011108768 -0.086890176 -0.021998042
-0.019563945 0.0057232087 -0.012795004 0.0023971598 -0.0059371595 -0.03348399 0.11092024 0.027491538
0.033412807 -3.4661745e-05 0.039824434 0.12911136 0.07758956 0.030154083 0.054887205 0.03735484
-0.05868081 -0.062299866 -0.006758891 0.015601076 0.035632424 -0.040612854 -0.039145555 -0.09344845
0.029173529 0.011379945 0.16965483 -0.03680682 -0.025245968 0.114367954 -0.07591454 0.09003094
00000000: 654f 28be 48dc 1dbf 7b8f 083c a3e0 27be
00000010: 6460 9c3d 4145 84be 3ff9 a8be e746 34be
00000020: f2a6 a9bd 7e9f d6bc 05cc 17bd f420 85bd
00000030: fd8c e5bc 82a9 153e 473e 50bd 5ee6 6b3d
00000040: 9807 cf3c 905f c73c c580 12bd c162 58bd
00000050: f49a 8bbd 3163 1bbe 69a3 fdba 6a35 73bd
00000060: 6284 ddbc b9da 1cbe f53c 83be 4e02 89be
00000070: ad29 873d bd00 ea3d 1fb8 fb3c 4d30 35be
00000080: db19 343d 1777 49bd bb60 e8bc a65a 403d
00000090: 2832 8fbd e2b6 11be f32c aa3e 583d b2bc
000000a0: b987 dbbd f49c c1bd 400b 8b3e f5ff cc3c
000000b0: 47d8 75bd 04a5 06be 65d6 61be 64ea 7c3e
000000c0: 3c93 c53d b146 11be 1c2e e43c 2ddc cfbd
000000d0: 4783 edbd 8d60 743e a785 afbd 9666 303d
000000e0: bffe f7bd aaa4 913e 18ea 983e 755f 6fbd
000000f0: c33f 47bc 5291 30be 8cad 54bd ab24 e63d
00000100: 2c27 13be 1d26 11be ef59 08be 3a10 033e
00000110: b035 413e e824 f23d 036f bf3c 52f6 98bd
00000120: c76a 71be 6b04 21bd b87b 803c 4bf4 a03d
00000130: 2a8f f2bd 6419 81be 45ab 743d 86a9 04be
00000140: 46d7 a1bc 8297 ddbc 425a 2e3d d908 2bbd
00000150: 3442 bc3c 9598 94bd 13ed 3ebe bd01 91be
00000160: 60cf b13d 3a52 d6bd b9a5 fc3d 6dc5 97bd
00000170: 4343 44be 0bf4 5f3e 77b8 9abd 2980 fabd
00000180: 4557 28bd d669 d4be 79ed a53d ef79 083d
00000190: f476 12bd 5bed abbe db08 503e 0bc7 b6bc
000001a0: 77c0 cfbc afbf 0abe 4d4b 83be 5c05 3bbe
000001b0: 24a5 62bd 6594 5abd 8705 f23b 9e4a 4cbe
000001c0: 5750 abbc f1fb 093e 2ebb be3c c85f 6b3c
000001d0: f32c 4ebe 830c f93d 8ff4 48bd 2cbc e7bc
000001e0: 8452 b23d 5eb6 9ebd 9f86 80bd ec46 80bd
000001f0: 4027 46bd 20c6 073c 0763 953d 04fb 923c
00000200: fa9f bcbc 1ec0 a1bd 02a4 89bd 830e 0dbd
00000210: 94b7 9d3c 0c27 9cbd 2c6f ba3c e4bc c0be
00000220: 7c96 00bf f957 103c f2c4 0bbd f4db 3a3d
00000230: 54ee 75bc 8b8d 06be 7479 6bbe 0d69 9c3d
00000240: ce60 63bd 756d 42be 3d18 34be 201d 49bc
00000250: 8dd5 213e e423 b8bd 47bd 15bf f31b e8be
00000260: 16ed 243f 0aa1 773d db90 213e 3d00 28be
00000270: 1db9 a4bd e4dc 3fbd 7db4 323e b3e7 403e
00000280: 3cfe 743d 18de b9bc cf36 43bd e81e 86bd
00000290: 47ed 20bd a735 313e fcb3 f73d 2388 c83d
000002a0: fb2d 8f3d ba3e 053e 978c 9e3d ea55 8d3d
000002b0: a95a 3b3d 11f1 003d 6bdf 5b3d d4a0 213d
000002c0: dd9a 6bbd f0b4 bd3b 0323 93bd e099 373b
000002d0: ba6b e03b 5911 3abd 2d0f 48bd 7c67 87bc
000002e0: 9e62 3f3c 2ea0 203d 87e9 43bd 0bb5 99bc
000002f0: 5fdf c2bc 3160 d73c 72cc 3fbc cbfd 573d
00000300: 9027 523c cf45 79bd 7497 a93c d397 b23d
00000310: eb19 963d 46d5 fd3c ecdd 583d 7cda 6f3c
00000320: 5620 173e 19df 2c3d 66a0 6c3d 2df1 ca3b
00000330: 469a c13c b1b5 4fbd 69c5 0cbd 6ad7 5bbd
00000340: 2997 a0bc 6dbc 5c3c a94b 003d 7e98 143d
00000350: 14fc b03d f9c6 173d 6319 a0bb 8f74 fa3d
00000360: 1616 853d 1da1 b83c 3153 1a3d a85e 5f3c
00000370: 6f60 243d 8d01 36bc 7af3 b1bd 3d35 b4bc
00000380: 9144 a0bc c189 bb3b 23a2 51bc ab19 1d3b
00000390: 818c c2bb 8226 09bd 272a e33d ef35 e13c
000003a0: dedb 083d c461 11b8 f21e 233d c535 043e
000003b0: 46e7 9e3d b205 f73c 68d1 603d 6401 193d
000003c0: 4a5b 70bd 252e 7fbd b079 ddbb a89b 7f3c
000003d0: 4ef3 113d aa59 26bd 1757 20bd e761 bfbd
000003e0: 53fd ee3c f372 3a3c ffb9 2d3e c0c2 16bd
000003f0: a2d0 cebc bf39 ea3d 1579 9bbd 2462 b83d

encoder_conv2.bias f4 [16]
-0.09575666 0.1408246 -0.26235324 0.12557851 -0.09504189 0.24060602 0.081429444 0.0983833
-0.060202125 0.15465558 -0.225799 0.5532192 -0.13863355 -0.02082117 0.23295674 -0.19955587
00000000: 111c c4bd 5334 103e 2a53 86be a797 003e
00000010: 53a5 c2bd 6d61 763e 7bc4 a63d 2f7d c93d
00000020: 8196 76bd 085e 1e3e da37 67be c69f 0d3f
00000030: f4f5 0dbe 2991 aabc 368c 6e3e 6058 4cbe

encoder_conv3.weight f4 [8, 16, 5]
-0.10411327 0.003827504 -0.24340515 0.032538343 0.007816836 -0.074742965 0.045142505 -0.028380722
0.15453824 -0.033861917 0.022574503 0.28520927 0.14832972 0.032843806 -0.04763187 0.22900899
0.09794064 0.24389784 0.07390897 0.037749138 -0.03583676 0.070750244 -0.050797977 0.13624986
0.013376796 -0.0009929554 0.20936178 0.16617088 -0.024498101 -0.08006358 -0.24875398 0.05420818
0.22080626 0.17861637 -0.049559522 -0.029817903 0.0015998257 -0.0053243646 0.06872406 0.050146356
-0.039094567 -0.38503945 -0.29069313 0.017728956 0.089863054 -0.071016125 0.0682162 0.10907226
0.12592936 -0.045354523 0.097498044 0.061729778 0.04891124 0.07366591 -0.14508586 -0.08999811
-0.08033373 0.12020643 0.058507003 -0.08166186 -0.057014093 -0.0024148563 -0.0022341325 0.029462518
-0.029857544 0.10489147 -0.10499984 0.013168985 0.13014002 -0.013977002 0.015265417 0.0115347905
-0.026024569 -0.06809302 0.016611602 -0.018950425 0.0146554755 0.025992624 0.022575641 0.009408134
0.07273599 0.019682605 -0.27309427 0.116822496 -0.03860964 0.08041636 0.4276814 0.0950219
0.10277656 0.029907117 -0.06857232 -0.05256249 0.06039522 0.008679551 -0.025350353 -0.06799122
-0.0043948684 0.29460853 0.06911795 -0.043273162 0.03989271 0.228268 0.050678693 0.09992761
0.04315351 -0.09301133 -0.06943287 -0.039049897 -0.04404335 -0.1602302 0.09231035 -0.064911686
-0.11298932 0.18166974 -0.07181383 -0.077377506 0.0041135415 -0.2229258 0.03477366 0.061912104
0.10231464 0.09098667 -0.107627735 -0.018956942 0.04579538 0.02021971 -0.056971695 0.00438188
0.17585808 -0.0818408 -0.23063704 0.03884887 0.92660767 0.02442622 0.05522714 -0.00018293488
0.012563712 0.026262866 -0.03592202 0.12095445 0.08811177 0.20712529 0.076073326 -0.011958839
-0.017630659 -0.21632561 0.023958974 -0.15884133 -0.07009231 0.06484819 -0.043159537 0.15743306
0.051597983 -0.029687628 0.040345475 0.03921094 0.036861964 -0.13040644 0.0052140644 0.0037219087
-0.01146289 0.01725531 0.081535324 0.09343356 -0.06533055 0.03420063 0.015369644 0.25274092
-0.07585807 -0.020768072 0.01736244 -0.08360249 0.1257261 0.014735524 -0.024632288 0.04816324
-0.026394268 -0.40743354 0.1581709 0.15276496 -0.00277923 -0.018188832 0.167712 0.09876208
-0.0005876619 0.036330327 -0.2667792 0.28552264 -0.07657063 -0.034778822 -0.04821533 -0.021671811
0.07579389 0.45790464 0.051653348 0.005858668 -0.04893281 0.07638409 0.038163 -0.042625774
-0.033446033 0.061832003 -0.16864575 -0.028620817 -0.01526302 0.0077047436 0.013402822 0.0360977
0.39657944 -0.048993036 0.09422951 -0.01275498 0.3849053 0.049252782 -0.0006508792 0.084429696
0.05394882 0.066162206 0.13191701 -0.029970976 0.061839666 0.0121650975 0.09533121 -0.21473162
-0.0032023634 0.017427854 -0.069453016 -0.2592448 -0.27174124 -0.069796175 -0.041665196 -0.11692105
0.28413275 -0.0960077 0.02353447 -0.003494496 -0.001337866 0.15544263 -0.043393314 0.07320802
0.025322324 0.05322845 0.08567103 0.045624685 0.041555174 0.01469083 -0.04227409 0.10649588
0.2397039 -0.025837565 -0.0006021533 -0.114403546 -0.042048596 -0.0069977427 -0.084121555 -0.08095437
00000000: 5739 d5bd ddd6 7a3b 333f 79be ed46 053d
00000010: 3012 003c d712 99bd 59e7 383d b07e e8bc
00000020: 463f 1e3e cbb2 0abd 2aee b83c f306 923e
00000030: bfe3 173e 3a87 063d a319 43bd 5581 6a3e
00000040: 1a95 c83d 5bc0 793e 965d 973d d79e 1a3d
00000050: 91c9 12bd 81e5 903d 8a11 50bd 1585 0b3e
00000060: 592a 5b3c 0e26 82ba ef62 563e b328 2a3e
00000070: 3eb0 c8bc 60f8 a3bd 5db9 7ebe 6609 5e3d
00000080: 091b 623e 36e7 363e edfe 4abd ad44 f4bc
00000090: 3eb1 d13a 0278 aebb 33bf 8c3d 4466 4d3d
000000a0: a021 20bd e423 c5be bbd5 94be 513c 913c
000000b0: 1f0a b83d e770 91bd efb4 8b3d 4761 df3d
000000c0: a0f3 003e aac5 39bd 0ead c73d 5dd8 7c3d
000000d0: 2757 483d 27de 963d 6391 14be ee50 b8bd
000000e0: 0386 a4bd ca2e f63d 0aa5 6f3d 553e a7bd
000000f0: 9c87 69bd 9142 1ebb 866a 12bb 615b f13c
00000100: cf97 f4bc 57d1 d63d 280a d7bd bac2 573c
00000110: 6d43 053e ccff 64bc cd1b 7a3c 6bfc 3c3c
00000120: 7a31 d5bc 5a74 8bbd 0e15 883c ec3d 9bbc
00000130: 851d 703c 7cee d43c 8df0 b83c 9324 1a3c
00000140: 9bf6 943d 6a3d a13c 03d3 8bbe a240 ef3d
00000150: 2425 1ebd 55b1 a43d 0ef9 da3e d89a c23d
00000160: 847c d23d c5ff f43c a56f 8cbd c44b 57bd
00000170: fa60 773d ad34 0e3c 8bab cfbc fb3e 8bbd
00000180: d402 90bb eed6 963e b68d 8d3d 333f 31bd
00000190: 8a66 233d 16bf 693e 7694 4f3d d9a6 cc3d
000001a0: bcc1 303d b97c bebd d232 8ebd c9f2 1fbd
000001b0: cd66 34bd 6313 24be 350d bd3d 6bf0 84bd
000001c0: f266 e7bd a207 3a3e 2113 93bd 1978 9ebd
000001d0: e3ca 863b a946 64be d36e 0e3d 8c97 7d3d
000001e0: 578a d13d 3857 ba3d ee6b dcbd 974b 9bbc
000001f0: f093 3b3d cea3 a53c 275b 69bd e095 8f3b
00000200: 2414 343e 269c a7bd 1e2c 6cbe fe1f 1f3d
00000210: 2936 6d3f 7f19 c83c db35 623d 35d2 3fb9
00000220: 07d8 4d3c 3925 d73c f822 13bd f7b6 f73d
00000230: f273 b43d a718 543e 55cc 9b3d 02ef 43bc
00000240: 2c6e 90bc 7684 5dbe 9c45 c43c 4da7 22be
00000250: 8f8c 8fbd 21cf 843d 0ec8 30bd 2236 213e
00000260: 6858 533d 7833 f3bc 4c41 253d a79b 203d
00000270: 92fc 163d 4489 05be beda aa3b 44eb 733b
00000280: d8ce 3bbc 025b 8d3c fefb a63d 185a bf3d
00000290: 06cc 85bd f615 0c3d f6d0 7b3c 4267 813e
000002a0: 7a5b 9bbd ce21 aabc ad3b 8e3c c837 abbd
000002b0: 58be 003e 446d 713c a7c9 c9bc d146 453d
000002c0: cb38 d8bc 219b d0be 8df7 213e 6b6e 1c3e
000002d0: be23 36bb bf00 95bc b2bc 2b3e c643 ca3d
000002e0: 530d 1aba 1ccf 143d 4997 88be 0630 923e
000002f0: 10d1 9cbd 3d74 0ebd 707d 45bd 1589 b1bc
00000300: d439 9b3d 7a72 ea3e 7692 533d 12fa bf3b
00000310: c56d 48bd 436f 9c3d ce50 1c3d 5d98 2ebd
00000320: b5fe 08bd 8e43 7d3d 79b1 2cbe 3476 eabc
00000330: bf11 7abc 1378 fc3b 8397 5b3c 2fdb 133d
00000340: 760c cb3e ecac 48bd 67fb c03d 43fa 50bc
00000350: 4f12 c53e 49bd 493d c49f 2aba 7ae9 ac3d
00000360: 70f9 5c3d 0d80 873d 4115 073e b185 f5bc
00000370: 974b 7d3d 1e50 473c 023d c33d 9be2 5bbe
00000380: bede 51bb dcc4 8e3c 623d 8ebd bcbb 84be
00000390: ab21 8bbe 4cf1 8ebd 20a9 2abd 4e74 efbd
000003a0: d979 913e af9f c4bd 5ccb c03c ea03 65bb
000003b0: 555b afba 5a2c 1f3e 30bd 31bd 16ee 953d
000003c0: c370 cf3c 1306 5a3d 4b74 af3d f3e0 3a3d
000003d0: c235 2a3d cfb1 703c 9927 2dbd 831a da3d
000003e0: f074 753e 4da9 d3bc d3d9 1dba 684c eabd
000003f0: 263b 2cbd 524d e5bb ec47 acbd 68cb a5bd

encoder_conv3.bias f4 [8]
0.10781139 0.12999168 0.18739367 -0.040337496 0.30673388 0.22520128 0.056327876 0.23257029
00000000: 38cc dc3d 8a1c 053e 20e4 3f3e ee38 25bd
00000010: 390c 9d3e 2a9b 663e 0fb8 663d e826 6e3e

deconv1.weight f4 [8, 16, 5]
0.073411256 0.016416207 -0.014055334 0.12240172 0.015562619 0.031962298 0.22910246 0.12467396
0.008533236 -0.028578175 0.10012795 0.044511005 0.124279484 0.06727304 0.0593592 0.097218655
0.017321376 0.05440796 0.042836457 -0.76210487 -0.0021976389 0.022948768 -0.008491486 0.004852271
0.020931296 -0.044721827 -0.0005201647 0.03396516 0.00084956374 0.07784473 0.10239394 0.009326708
0.041094895 0.114580944 0.022472192 -0.0022843666 0.27227423 0.25482014 0.031298738 -0.042933427
-0.022078821 -0.053423088 -0.02239902 0.033131022 0.04323994 0.13973293 -0.64715475 0.22213605
0.061004546 -0.065652095 -0.09884718 -0.00846009 -0.07056479 0.0059477706 0.02512413 -0.12981787
0.1214587 0.17674172 0.11501024 -0.01678524 -0.0030245623 0.18540153 -0.0494718 -0.021104252
0.017249653 0.14198637 0.12538598 -0.07106304 0.034035705 -0.006712992 0.21880908 0.08527841
0.12316599 0.110866144 0.06289003 -0.10387861 -0.07690717 0.0017322068 0.20367616 0.036443725
0.14065799 0.07093502 -0.11339374 0.043794878 0.08904295 -0.021141768 0.031644743 0.060432117
-0.0055495435 -0.15056743 -0.020649135 0.34307426 0.08158407 0.0114812795 0.031929556 -0.20461376
0.04261699 0.42155817 -0.020596726 -0.82222503 0.12949389 0.18606348 -0.0054410906 0.013879774
0.09773267 -0.04827222 0.11417586 0.13931149 -0.04894742 0.107661 -0.094096586 0.16087948
-0.20470534 0.020194246 0.023167118 -0.06824653 -0.10809426 0.019333549 0.049528528 0.04380142
0.3513091 0.25695148 0.051879615 0.0638975 0.033019952 0.33580938 -0.60118765 0.10006211
-0.020075537 -0.015832704 0.21451958 0.08961062 0.059730582 0.003776621 -0.00044714732 0.18306294
0.22572412 0.07636795 0.09270318 -0.04489531 0.11979484 0.10123559 0.050280143 -0.021766175
0.10407884 -0.39208817 -0.0044518565 -0.027957808 0.05729239 0.014534261 0.041480742 0.012196638
0.44111946 0.056798927 0.012898423 -0.042781714 0.07493227 -0.07721366 0.053612597 0.058964
0.08225122 0.064793974 -0.1106907 -0.010993867 -0.047474355 0.027543386 -0.060075756 0.20586187
-0.028953286 -0.030004308 0.02121642 -0.100673184 -0.048831515 -0.071864195 0.059672944 -0.0061890827
0.019030517 0.09963181 0.028251097 -0.7967512 0.030861262 -0.033077646 0.3420466 0.00016577427
-0.03543159 -0.12079153 0.04671963 0.13577631 -0.073081665 0.050666075 0.02925493 -0.033361144
0.050710473 -0.06408545 -0.026040906 -0.0071648317 -0.008547155 -0.007027104 0.14390726 0.0033257422
-0.0108045265 0.12785847 -0.013572836 0.14564662 -0.0005786946 0.09563983 -0.64899296 -0.032710645
-0.046928447 -0.052823745 0.068264395 -0.0366422 0.031561498 -0.021183241 0.016056351 0.017149733
0.008665428 0.21616992 0.11536352 0.055485614 0.027947586 -0.02168723 0.19152983 -0.06754652
-0.02951524 0.07279677 0.0135109555 0.019783963 0.0995786 -0.0065632956 0.090590484 -0.014795591
-0.09163835 0.15744063 0.09436525 -0.022700535 -0.1882366 0.21674503 0.18442805 0.004106932
-0.0002982201 0.04290377 0.46571344 -0.01704423 0.0339496 -0.006579204 -0.0035475 0.24129179
0.10031015 -0.03514824 -0.10007847 -0.031591915 0.56804395 0.18582925 0.07853405 -0.024504464
00000000: a458 963d 487b 863c 5848 66bc c1ad fa3d
00000010: 5bfa 7e3c e6ea 023d d699 6a3e 1055 ff3d
00000020: fcce 0b3c c71c eabc e20f cd3d 2c51 363d
00000030: 3e86 fe3d 73c6 893d a222 733d 931a c73d
00000040: 8fe5 8d3c e2da 5e3d 4875 2f3d 4e19 43bf
00000050: 4306 10bb 0eff bb3c e01f 0bbc cdff 9e3b
00000060: 1c78 ab3c 3c2e 37bd aa5b 08ba 0d1f 0b3d
00000070: 42b5 5e3a 0f6d 9f3d eab3 d13d 0ccf 183c
00000080: 1f53 283d 6aa9 ea3d 9a17 b83c 50b5 15bb
00000090: 8767 8b3e c977 823e 1b33 003d f6da 2fbd
000000a0: a5de b4bc 2bd2 5abd 267e b7bc 65b4 073d
000000b0: 5d1c 313d 2616 0f3e efab 25bf a277 633e
000000c0: e7df 793d 9b74 86bd 6470 cabd 309c 0abc
000000d0: 4684 90bd 84e5 c23b 1fd1 cd3c faee 04be
000000e0: 57bf f83d c8fb 343e 7d8a eb3d 3381 89bc
000000f0: bc37 46bb e6d9 3d3e f1a2 4abd d3e2 acbc
00000100: 254f 8d3c e064 113e 2f65 003e 8089 91bd
00000110: 0669 0b3d a9f8 dbbb 7d0f 603e 72a6 ae3d
00000120: 733e fc3d ca0d e33d 7dcc 803d 4fbe d4bd
00000130: 8281 9dbd 370b e33a 7c90 503e 0446 153d
00000140: a608 103e 6146 913d fa3a e8bd 4262 333d
00000150: 265c b63d 8031 adbc eb9d 013d ab87 773d
00000160: f2d8 b5bb 592e 1abe 6028 a9bc 6ea7 af3e
00000170: 8d15 a73d fa1b 3c3c 91c8 023d 4586 51be
00000180: 278f 2e3d 79d6 d73e 77ba a8bc 577d 52bf
00000190: 0c9a 043e 6d87 3e3e 2d4b b2bb fe67 633c
000001a0: 1128 c83d 17b9 45bd 09d5 e93d aca7 0e3e
000001b0: 177d 48bd 5f7d dc3d b6b5 c0bd 97bd 243e
000001c0: 479e 51be 676e a53c f8c8 bd3c d6c4 8bbd
000001d0: 8660 ddbd 6461 9e3c 6dde 4a3d 1e69 333d
000001e0: c9de b33e 258f 833e b87f 543d b1dc 823d
000001f0: ee3f 073d 35ef ab3e 6fe7 19bf 5ded cc3d
00000200: 7475 a4bc 96b3 81bc 05ab 5b3e c685 b73d
00000210: 0ea8 743d 3081 773b 196f eab9 da74 3b3e
00000220: 3924 673e cd66 9c3d 2adb bd3d 25e4 37bd
00000230: ff56 f53d 9b54 cf3d 8df2 4d3d fa4e b2bc
00000240: 4927 d53d c8bf c8be e1e0 91bb c607 e5bc
00000250: 6dab 6a3d 1c21 6e3c b6e7 293d 68d4 473c
00000260: 69da e13e fea5 683d e853 533c e13b 2fbd
00000270: 1776 993d 3222 9ebd e298 5b3d 3c84 713d
00000280: 5473 a83d b4b2 843d ceb1 e2bd 9f1f 34bc
00000290: 7874 42bd aba2 e13c ff11 76bd 74cd 523e
000002a0: 712f edbc 98cb f5bc 0fce ad3c be2d cebd
000002b0: 8e03 48bd 892d 93bd 9e6b 743d cacd cabb
000002c0: e3e5 9b3c c30b cc3d d86e e73c e3f7 4bbf
000002d0: c2d0 fc3c 6d7c 07bd bb20 af3e b1d3 2d39
000002e0: b720 11bd 8d61 f7bd 155d 3f3d f208 0b3e
000002f0: d7ab 95bd 3b87 4f3d 09a8 ef3c b2a5 08bd
00000300: c9b5 4f3d 3b3f 83bd bd53 d5bc f7c6 eabb
00000310: 5e09 0cbc 9f43 e6bb 6d5c 133e b2f4 593b
00000320: 7805 31bc 55ed 023e 9a60 5ebc 6324 153e
00000330: 8ab3 17ba d1de c33d 6724 26bf 99fb 05bd
00000340: 0b38 40bd b65d 58bd 34ce 8b3d 2216 16bd
00000350: a146 013d 7a88 adbc 9c88 833c 997d 8c3c
00000360: 70f9 0d3c a65b 5d3e b643 ec3d e244 633d
00000370: 56f2 e43c 6ba9 b1bc 6520 443e d455 8abd
00000380: f2c9 f1bc 7916 953d 0e5d 5d3c fa11 a23c
00000390: ddef cb3d ea10 d7bb 8187 b93d 3569 72bc
000003a0: e3ac bbbd 1e38 213e 9142 c13d 79f6 b9bc
000003b0: 18c1 40be 69f2 5d3e b5da 3c3e 7193 863b
000003c0: 6d5a 9cb9 ddbb 2f3d fe71 ee3e 57a0 8bbc
000003d0: bc0e 0b3d 5d96 d7bb 2c7d 68bb 3215 773e
000003e0: 686f cd3d 9af7 0fbd f1f5 ccbd 8666 01bd
000003f0: 546b 113f 064a 3e3e 76d6 a03d 96bd c8bc

deconv1.bias f4 [16]
0.28266135 0.07491875 0.22757438 0.12760861 -0.23134935 0.29060853 0.16079022 0.24564248
0.17686015 0.09931542 0.26113796 0.13460149 -0.049100507 -0.18718958 -0.0018884375 0.10432865
00000000: fdb8 903e 006f 993d 4209 693e d5ab 023e
00000010: d8e6 6cbe a4ca 943e 31a6 243e b489 7b3e
00000020: d41a 353e e265 cb3d e0b3 853e f9d4 093e
00000030: 9d1d 49bd a0ae 3fbe 7385 f7ba 42aa d53d

deconv2.weight f4 [16, 32, 5]
-0.23366615 -0.24121833 -0.21814296 -0.19206566 0.029936597 0.05552664 -0.027319776 0.12112706
0.060273282 -0.15207338 -0.13846111 -0.053026885 0.10923597 0.09119497 0.06055802 0.026943173
0.088209085 -0.13357836 0.24227604 0.1872896 -0.051862635 0.032310035 -0.2004485 -0.029894743
-0.15998134 -0.042684227 -0.06553528 -0.04240915 -0.0020869982 0.05456602 -0.045325555 0.14406572
0.08516893 -0.05431954 -0.08807021 -0.15525419 0.085671455 0.12289129 0.0479455 -0.039642774
-0.37716177 0.009690159 -0.05011054 -0.27988514 0.04865916 0.031821333 -0.19584055 -0.006930273
0.15258591 0.09221037 0.13419102 -0.037107896 0.016042892 0.16555373 0.11611665 0.12091015
0.09811352 -0.20405373 0.21223882 0.15100771 0.07626146 -0.031645417 0.089277655 -0.11897593
0.057998452 -0.15370049 0.42712396 0.076792374 0.1082547 0.028260665 -0.011996646 0.029313067
-0.038442936 -0.074531205 0.03664955 -0.08681948 0.21168695 0.032373123 0.028577782 -0.02901262
-0.10823458 -0.17024232 -0.16090141 -0.13815801 -0.1545933 0.17582977 0.039244797 -0.03972307
0.14563213 -0.018153558 0.15262038 0.09474715 0.27112696 -0.25054687 -0.022556005 -0.23401564
-0.17849822 0.101819925 0.0086459415 0.037045546 0.0022403193 -0.02569352 -0.07897189 -0.061782602
-0.07647196 0.01220826 0.02405818 0.011203828 0.27790114 0.02976673 0.07178096 -0.0488589
0.06030892 0.19515571 0.047496043 -0.1791772 -0.18741079 -0.076198176 -0.085075125 -0.030042714
0.009506226 0.088831246 0.104535505 -0.016412709 -0.09181315 0.018247219 0.015072639 -0.03427272
0.18103346 0.08257858 0.09332202 0.015706683 -0.0058548884 0.15664695 0.017818106 0.016068865
0.025852874 0.11619659 0.05545806 -0.013514033 -0.21623428 0.08618257 0.12886097 -0.06950196
0.008732248 0.14184617 0.063674375 -0.11645814 -0.07784395 0.052041247 0.094818145 -0.015987854
0.083714925 0.110811 0.029975498 0.019311316 -0.083645925 -0.20012823 0.022022327 -0.15988581
0.14130805 -0.15310656 0.22474325 -0.52837676 -0.043834895 -0.13980456 -0.06619729 -0.055516314
-0.08068759 -0.07650667 -0.013390331 0.13862793 0.1998224 0.06648332 0.0005928027 -0.14803647
0.18010898 0.038246665 0.032791104 0.09611442 -0.556495 0.036645245 -0.3399212 -0.04458058
0.2944995 -0.06541707 -0.04984134 -0.05513049 -0.025009366 -0.023341814 3.600872e-05 -0.123815864
-0.15729292 -0.052094888 -0.025678871 0.029952755 0.13554798 0.08887927 0.05613898 0.08114036
0.11396469 0.23357314 -0.19361019 0.090775646 0.15423954 -0.06096424 0.23186994 0.100725174
0.18873328 -0.0667328 -0.09388907 -0.0033604912 -0.006856836 -0.015806727 0.09753703 -0.21414295
0.1774436 -0.084027715 0.054879673 0.03452464 0.09898426 0.0022669851 0.065689966 0.10458801
0.0692149 0.0034038173 0.10859817 -0.28984806 -0.0339994 0.018397333 -0.047632694 -0.3457029
0.11368614 -0.08544254 -0.09967262 -0.14396176 -0.2907328 0.3668221 0.069935724 -0.026654342
0.14787959 -0.22002563 -0.36838952 -0.022371229 0.096011624 -0.020074964 -0.078357466 -0.016481254
-0.23993787 0.012375668 0.12372764 -0.06150866 0.28135002 -0.06766547 -0.059514835 -0.088543884
00000000: 2e46 6fbe f001 77be de60 5fbe dcac 44be
00000010: 983d f53c e76f 633d b9cd dfbc 7711 f83d
00000020: 1ee1 763d 20b9 1bbe c0c8 0dbe b832 59bd
00000030: 1cb7 df3d 6ec4 ba3d b00b 783d eeb7 dc3c
00000040: f7a6 b43d c4c8 08be 3617 783e d8c8 3f3e
00000050: ea6d 54bd 8757 043d 5f42 4dbe d2e5 f4bc
00000060: 26d2 23be a8d5 2ebd 5c37 86bd 38b5 2dbd
00000070: 05c6 08bb 9e80 5f3d 4aa7 39bd f785 133e
00000080: 0c6d ae3d 2a7e 5ebd 275e b4bd f4fa 1ebe
00000090: 8474 af3d 6eae fb3d 8062 443d 7660 22bd
000000a0: 591b c1be 79c3 1e3c b640 4dbd 1b4d 8fbe
000000b0: d44e 473d 1657 023d 6d8a 48be 5817 e3bb
000000c0: 7b3f 1c3e cad8 bc3d 5f69 093e 73fe 17bd
000000d0: 626c 833c eb86 293e 91ce ed3d be9f f73d
000000e0: beef c83d 76f3 50be 2255 593e c4a1 1a3e
000000f0: f82e 9c3d a09e 01bd 34d7 b63d a7a9 f3bd
00000100: c98f 6d3d a963 1dbe feaf da3e 5245 9d3d
00000110: a4b4 dd3d e982 e73c 958d 44bc f521 f03c
00000120: 5776 1dbd d1a3 98bd d71d 163d 69ce b1bd
00000130: 77c4 583e ae99 043d f41b ea3c e0ab edbc
00000140: 17aa ddbd 0154 2ebe 57c3 24be 4b79 0dbe
00000150: b54d 1ebe b80c 343e 27bf 203d a8b4 22bd
00000160: 9720 153e c5b6 94bc 8448 1c3e cb0a c23d
00000170: 27d1 8a3e ae47 80be 5fc7 b8bc cca1 6fbe
00000180: 3dc8 36be f786 d03d b5a7 0d3c 12bd 173d
00000190: 52d2 123b 387b d2bc 04bc a1bd c10f 7dbd
000001a0: 559d 9cbd 2705 483c a915 c53c 4390 373c
000001b0: 0f49 8e3e 5bd9 f33c e501 933d 4520 48bd
000001c0: 7c06 773d e6d6 473e 368b 423d 3a7a 37be
000001d0: 9de8 3fbe ca0d 9cbd de3b aebd 231c f6bc
000001e0: 00c0 1b3c 28ed b53d b616 d63d f273 86bc
000001f0: 8808 bcbd 317b 953c 3bf3 763c 8d61 0cbd
00000200: d660 393e f51e a93d 9d1f bf3d 4dab 803c
00000210: 5dda bfbb 0f68 203e 47f7 913c daa2 833c
00000220: 68c9 d33c 7af8 ed3d fe27 633d f669 5dbc
00000230: 856c 5dbe 7d80 b03d 21f4 033e 0b57 8ebd
00000240: b411 0f3c 1f40 113e b667 823d 9b81 eebd
00000250: a66c 9fbd 3429 553d 0430 c23d f6f8 82bc
00000260: bb72 ab3d e1f0 e23d 2d8f f53c c432 9e3c
00000270: 8e4e abbd 6aee 4cbe 2b68 b43c 1bb9 23be
00000280: 0fb3 103e f7c7 1cbe 1823 663e b343 07bf
00000290: 388c 33bd ed28 0fbe 7292 87bd 1365 63bd
000002a0: 893f a5bd 87af 9cbd 1e63 5bbc 7bf4 0d3e
000002b0: 3e9e 4c3e 6828 883d 5166 1b3a df96 17be
000002c0: 7d6e 383e 89a8 1c3d f74f 063d a3d7 c43d
000002d0: 7576 0ebf 5319 163d 270a aebe 209a 36bd
000002e0: a3c8 963e 63f9 85bd 6f26 4cbd 82d0 61bd
000002f0: 71e0 ccbc 5537 bfbc 1208 1738 2c93 fdbd
00000300: 6511 21be 7361 55bd 7f5c d2bc 7b5f f53c
00000310: 17cd 0a3e 5606 b63d fdf1 653d eb2c a63d
00000320: 5266 e93d cc2d 6f3e c041 46be 95e8 b93d
00000330: f8f0 1d3e a4b5 79bd 506f 6d3e 0049 ce3d
00000340: 4c43 413e 35ab 88bd ea48 c0bd b03b 5cbb
00000350: 4faf e0bb 1c7d 81bc 7fc1 c73d 4a48 5bbe
00000360: c6b3 353e b916 acbd 82c9 603d b569 0d3d
00000370: 42b8 ca3d b391 143b 7688 863d 3d32 d63d
00000380: 8bc0 8d3d 9412 5f3b b868 de3d f766 94be
00000390: f442 0bbd 01b6 963c 801a 43bd f8ff b0be
000003a0: 47d4 e83d 80fc aebd 2921 ccbd b66a 13be
000003b0: eeda 94be 1bd0 bb3e 763a 8f3d 355a dabc
000003c0: bf6d 173e 664e 61be 8d9d bcbe de43 b7bc
000003d0: bea1 c43d 4074 a4bc e179 a0bd b203 87bc
000003e0: 46b2 75be 50c3 4a3c eb64 fd3d 81f0 7bbd
000003f0: 1c0d 903e 3294 8abd d4c5 73bd 7f56 b5bd

deconv2.bias f4 [32]
0.14050697 0.059761815 0.0088250395 0.10867982 -0.014215178 -0.104344614 0.090160884 0.06770601
0.0695564 0.0150663275 0.081973344 0.16620688 0.06930872 0.11975051 0.06715127 0.07514159
0.07207913 0.0870096 0.04470712 0.0125229 -0.16045895 -0.049181834 0.027948707 0.0019995307
0.020182535 -0.015596923 0.03349192 0.0032723998 0.055206914 0.17608911 0.060379803 0.13446277
00000000: 0fe1 0f3e cec8 743d e696 103c 8793 de3d
00000010: c7e6 68bc a1b2 d5bd 45a6 b83d 73a9 8a3d
00000020: 9673 8e3d c2d8 763c a4e1 a73d 2332 2a3e
00000030: bbf1 8d3d c13f f53d 9b86 893d d5e3 993d
00000040: 399e 933d 1732 b23d d01e 373d d92c 4d3c
00000050: 5a4f 24be e472 49bd b0f4 e43c 8f0a 033b
00000060: d855 a53c 3d8a 7fbc d32e 093d c275 563b
00000070: a520 623d b450 343e d050 773d 9cb0 093e

deconv3.weight f4 [32, 1, 5]
0.47642577 0.12921585 -0.5481065 -0.038592666 0.017511116 -0.22056517 -0.11976137 -0.2746505
0.55181605 -0.3268181 0.045978498 0.24752474 -0.22754176 0.4319693 -0.19174676 0.21921115
0.42463982 0.44278282 0.40824136 -0.19250818 -0.15347096 -0.18947266 0.49199992 0.79822886
0.5996016 -0.17169374 -0.43385625 -0.21569896 0.17442301 -0.13102943 -0.16579367 -0.05079448
-0.52894235 0.040628478 0.4422258 0.020555753 -0.24611679 0.055787526 0.3617671 0.27156222
-0.37653998 -1.1873611 1.954008 0.056530867 0.0154868765 0.49959657 0.43176746 -0.0065180035
0.12926829 0.12130567 -0.16312401 0.3203025 0.36205927 -0.12819538 0.11757852 0.17948112
0.34996969 0.44511688 -0.14699836 -0.39930475 -0.0023083033 0.014654457 -0.34127527 -0.52234465
-0.0039084665 -0.45814762 -0.43260297 0.42549545 0.4017203 0.18739702 -0.017567521 0.50266474
-0.014423181 -0.38281357 0.15152667 0.082561485 -0.44218016 -0.17774357 -0.3763149 -0.0018085456
-0.14642899 -0.27015543 -0.095140085 0.14734079 -0.04157268 0.025075814 0.1311982 0.31243074
-0.021083863 0.31483948 -0.039294306 -0.17354389 -0.426678 -0.51349676 -0.15752923 0.36469135
0.25259358 -0.26280802 0.020619798 -0.1230926 0.44346386 0.45608926 -0.016189398 -0.04883062
0.2943193 -0.18225269 0.43719813 0.2549246 0.39331007 0.18024042 -0.43577325 0.029471165
0.12424463 -0.09351645 0.06041935 0.27117196 0.23495105 -0.43674052 -0.084378906 0.18018466
-0.64971894 -0.39908373 -0.11414094 0.025137579 -0.098844655 0.30849323 0.15257137 0.23550552
0.1927807 0.2796909 0.050377827 0.10787081 0.32956812 0.085641965 0.22862622 -0.25087038
-0.39655238 -0.088655405 0.06107858 0.3961893 -0.7679034 -0.6194654 -0.18124512 0.19260694
0.108494826 -0.27728117 -0.2884962 0.63198507 -0.69751126 -0.2849272 -0.08411322 0.13180569
0.22910365 -0.036119226 0.35602444 0.20943151 -0.014770534 -0.65723145 -0.54376423 -0.062249184
00000000: 14ee f33e 2951 043e b550 0cbf 5813 1ebd
00000010: 7973 8f3c d6db 61be 7345 f5bd fe9e 8cbe
00000020: d143 0d3f b454 a7be f353 3c3d 2077 7d3e
00000030: b500 69be 152b dd3e 4359 44be e378 603e
00000040: 646a d93e 6eb4 e23e 0305 d13e dd20 45be
00000050: 7e27 1dbe 1f05 42be 6ae7 fb3e ba58 4c3f
00000060: 7e7f 193f 7cd0 2fbe 6822 debe 30e0 5cbe
00000070: f29b 323e 942c 06be d1c5 29be df0d 50bd
00000080: c468 07bf 0c6a 263d 6c6b e23e 8a64 a83c
00000090: 0a06 7cbe 7681 643d 8a39 b93e 340a 8b3e
000000a0: d9c9 c0be 73fb 97bf ef1c fa3f e98c 673d
000000b0: abbc 7d3c 1fcb ff3e a010 dd3e fa94 d5bb
000000c0: e85e 043e 1b6f f83d fb09 27be b0fe a33e
000000d0: d55f b93e a645 03be 02cd f03d e6c9 373e
000000e0: 3a2f b33e 5ce6 e33e bd86 16be ac71 ccbe
000000f0: e746 17bb 3f19 703c a2bb aebe 61b8 05bf
00000100: 9812 80bb 5392 eabe 237e ddbe 8ada d93e
00000110: 48ae cd3e 01e5 3f3e c3e9 8fbc a3ae 003f
00000120: 354f 6cbc 2400 c4be cf29 1b3e ff15 a93d
00000130: 7065 e2be 6902 36be 59ac c0be b80c edba
00000140: 7bf1 15be d051 8abe ced8 c2bd 81e0 163e
00000150: 1d48 2abd cb6b cd3c d258 063e ecf6 9f3e
00000160: 11b8 acbc a432 a13e 11f3 20bd 7db5 31be
00000170: 8a75 dabe 8674 03bf 584f 21be d3b8 ba3e
00000180: f253 813e c68e 86be daea a83c f917 fcbd
00000190: b20d e33e 8884 e93e a19f 84bc 9e02 48bd
000001a0: 05b1 963e 73a0 3abe 6fd8 df3e 7a85 823e
000001b0: f05f c93e f290 383e ac1d dfbe 836d f13c
000001c0: f873 fe3d 8d85 bfbd 487a 773d 0dd7 8a3e
000001d0: 0297 703e 749c dfbe d9ce acbd 5482 383e
000001e0: fb53 26bf b454 ccbe bac2 e9bd 53ed cd3c
000001f0: 116f cabd d3f2 9d3e ab3b 1c3e 5c28 713e
00000200: 4e68 453e a533 8f3e fb58 4e3d 5feb dc3d
00000210: 27bd a83e 0e65 af3d fe1c 6a3e 1572 80be
00000220: ea08 cbbe f790 b5bd 882d 7a3d 53d9 ca3e
00000230: 5195 44bf 4995 1ebf 5298 39be c13a 453e
00000240: 8932 de3d ccf7 8dbe c6b5 93be c6c9 213f
00000250: 1990 32bf fae1 91be 8d43 acbd 12f8 063e
00000260: 269a 6a3e c1f1 13bd d648 b63e 3775 563e
00000270: 1c00 72bc 5240 28bf 2234 0bbf 00f9 7ebd
