models/SNN_autoencoder_tsri_time8.pth (torch, 37205 bytes, 11 tensors)

encoder_conv1.weight f4 [32, 1, 5]
0	0x3e8e11ea	0.27748042
1	0xbe7a0591	-0.24416186
2	0x3f372a17	0.715486
3	0x3c437db7	0.011931828
4	0x3ad8a7ce	0.0016529502
5	0xbefdb29f	-0.4955034
6	0xbedb613d	-0.42847624
7	0x3e80e72f	0.2517638
8	0x3f070860	0.52747154
9	0x3d862977	0.065508775
10	0xbdfa129f	-0.12210583
11	0xbee761be	-0.4519176
12	0xbf3bef3b	-0.7341191
13	0xbe929685	-0.28630462
14	0xbf38a96c	-0.7213352
15	0x3f31e366	0.6948761
16	0x3f096906	0.5367588
17	0x3effd28d	0.49965325
18	0x3cbee1af	0.023300974
19	0xbd853bb8	-0.06505531
20	0xba47a070	-0.00076151546
21	0x3eca754b	0.39542612
22	0x3ec9bb96	0.3940093
23	0x3d163a78	0.036676854
24	0x3a12c655	0.0005599012
25	0xbe1fc7dc	-0.15603584
26	0xbe4b43e0	-0.19850111
27	0xbdbad213	-0.091221
28	0xbe7e5978	-0.24838817
29	0xbe92033b	-0.2851809
30	0x3eaa955e	0.33317083
31	0x3eb3597e	0.35029215
32	0x3ea01788	0.31267953
33	0x3ea7d3b3	0.327787
34	0x3ebfe5d8	0.37480044
35	0xbeb10466	-0.34573668
36	0xbdf2d5f4	-0.118572146
37	0x3e6440ac	0.22290295
38	0xbeb70721	-0.35747626
39	0xbe8f6f10	-0.2801442
40	0xbf0583df	-0.52154344
41	0x3d0a9430	0.03383273
42	0x3f0d6d8f	0.552453
43	0x3f0cd79b	0.5501649
44	0x3c23112c	0.009952825
45	0x3dcd6d7b	0.10030647
46	0x3dc67b8a	0.09691532
47	0xbbb2bbd4	-0.0054545198
48	0x3e4252ee	0.18976948
49	0x3e1d6c10	0.15373254
50	0xbe780253	-0.24219637
51	0x3ea4a6ab	0.32158408
52	0x3f16860b	0.58798283
53	0x3eb0e4c2	0.34549528
54	0x3eb87e32	0.3603378
55	0x3ebebc7d	0.3725318
56	0xbe566f85	-0.20940979
57	0xbe2b8789	-0.16750921
58	0x3ec28167	0.3798935
59	0xbee7f17e	-0.4530143
60	0x3d724548	0.059148103
61	0x3f015fbe	0.50536716
62	0x3ed17a5c	0.40913665
63	0x3e5f4ad0	0.21805882
64	0xbe83bea2	-0.2573138
65	0x3e40acca	0.18815914
66	0x3de7ee50	0.113247514
67	0x3ea0e55a	0.3142498
68	0x3efec3e2	0.49758822
69	0xbd54b4ba	-0.051930167
70	0xbd52c549	-0.051457677
71	0x3f10e57a	0.56600153
72	0x3e95f9b4	0.2929207
73	0x3e81ec61	0.25375655
74	0x3c32e28e	0.010918273
75	0xbe974320	-0.295434
76	0x3c8bb348	0.017053261
77	0x3f6036a2	0.87583363
78	0x3e1f31a1	0.15546276
79	0xbe9b9c5b	-0.30392727
80	0xbc725caf	-0.014792605
81	0xbb40bb9c	-0.00294087
82	0x3ef2282c	0.47296274
83	0x3f0f7c53	0.5604908
84	0xbc333f4a	-0.010940382
85	0x3ed1e323	0.40993604
86	0x3f1282a4	0.5723059
87	0xbed21914	-0.41034758
88	0xbe26e3e5	-0.16297872
89	0x3e945d45	0.2897741
90	0x3e7c6e66	0.24651489
91	0x3d5f1092	0.054459162
92	0x3db4041b	0.087898456
93	0xbdf31ebc	-0.118710965
94	0x3e623c93	0.2209342
95	0x3f010523	0.50398463
96	0x3f4b7558	0.7947593
97	0x3e5a9063	0.21344142
98	0xbe34efd5	-0.17669614
99	0xbf23e519	-0.6402145
100	0x3f3adb99	0.7299133
101	0x3e4ed278	0.20197475
102	0xbf0cd361	-0.5501004
103	0xbf19c29a	-0.60062563
104	0xbf0e9738	-0.5569949
105	0xbe67d80a	-0.22641006
106	0xbe1c0f39	-0.15240182
107	0xbef081c6	-0.4697401
108	0x3e5ccb0e	0.21561834
109	0xbec546de	-0.3853063
110	0xbea945db	-0.33061108
111	0x3ed6c6a3	0.41948423
112	0xbe3f6749	-0.18691744
113	0x3f03fbff	0.5155639
114	0x3eaca76d	0.33721486
115	0x3f4907e8	0.7852769
116	0x3e815455	0.25259653
117	0x3e78adfc	0.2428512
118	0x3e738d86	0.23784456
119	0xbe8e5c05	-0.2780458
120	0x3ee222a1	0.44167045
121	0x3ee78563	0.45218953
122	0x3cc60b8d	0.02417543
123	0x3e8f2844	0.27960408
124	0x3e83301f	0.2562265
125	0xbef5540e	-0.4791569
126	0x3dee79c7	0.11644321
127	0xbeda4a87	-0.42634985
128	0xbee927cc	-0.45538175
129	0x3ecca84d	0.39972153
130	0xbe79953d	-0.24373336
131	0xbeadd1f6	-0.3394925
132	0xbf103acb	-0.5633971
133	0xbe8992eb	-0.26869902
134	0x3e9c5053	0.30530033
135	0xbdb3d561	-0.08780933
136	0xbe95a274	-0.29225504
137	0x3ceda0d2	0.02900735
138	0x3f152776	0.5826334
139	0x3f26c6fb	0.6514737
140	0xbdbab90a	-0.09117325
141	0xbdf07211	-0.117405064
142	0xbec7d32d	-0.39028302
143	0xbebe6806	-0.3718874
144	0x3e8a4fab	0.27013907
145	0x3ecf9c2e	0.40548843
146	0x3f62d32e	0.88603485
147	0x3d62bfac	0.055358574
148	0xbf14f7aa	-0.58190405
149	0xbd364a44	-0.04450442
150	0x3edfdb89	0.4372218
151	0x3f37ddea	0.7182299
152	0xbf07d741	-0.53062826
153	0x3e704ad8	0.2346605
154	0xbd1b651a	-0.037938215
155	0xbeb99f98	-0.36254573
156	0x3d66d8d5	0.05635913
157	0xbee09d38	-0.43869948
158	0xbd6c7250	-0.057726204
159	0x3da5de6d	0.08099065

encoder_conv1.bias f4 [32]
0	0x3eb8b3b2	0.36074597
1	0x3f24bd1d	0.64351064
2	0x3f2ecd1d	0.6828173
3	0xbf1aa68b	-0.60410374
4	0x3e0a230d	0.13489933
5	0xbe1dbcdb	-0.15404074
6	0x3d7f6101	0.06234837
7	0xbe957659	-0.29191855
8	0x3ef7a593	0.4836851
9	0x3f4dff18	0.8046737
10	0xbf07e362	-0.53081334
11	0xbec54e8f	-0.38536498
12	0x3ee4d765	0.44695583
13	0xbe4d5d64	-0.20055157
14	0xbca05633	-0.019572353
15	0x3f11db45	0.56975204
16	0x3d883f49	0.06652696
17	0xbe8691c1	-0.26283076
18	0x3f5b4f90	0.8566828
19	0xbde704e5	-0.112802304
20	0x3ec977e8	0.39349294
21	0xbe9fb866	-0.31195372
22	0x3da7fe96	0.08202855
23	0x3d4a93d6	0.049457394
24	0xbf2ddf45	-0.6791881
25	0xbe89243b	-0.26785454
26	0x3f6a70af	0.9157819
27	0xbe011805	-0.12606819
28	0xbec45685	-0.3834726
29	0x3eceaabf	0.40364644
30	0x3e62956b	0.22127311
31	0xbe80013d	-0.25000945

encoder_conv2.weight f4 [16, 32, 5]
0	0x3cfb6bc3	0.030691033
1	0x3d75dfe5	0.060027976
2	0x3dd9e123	0.106386445
3	0x3d9ec9aa	0.07753308
4	0x3e06c404	0.13160712
5	0x3e1f965f	0.15584706
6	0xbd5fa482	-0.054600246
7	0x3dbf2694	0.0933353
8	0x3e41e813	0.18936186
9	0xbdb73a7a	-0.089467004
10	0xbe41e1a2	-0.18933728
11	0x3e39adc5	0.18132694
12	0x3e9c17ea	0.30486995
13	0xbd9af479	-0.07566161
14	0x3edc00a2	0.42969233
15	0xbdd385c8	-0.10328251
16	0xbd228e9f	-0.039686795
17	0xbd5c420b	-0.05377392
18	0xbdc437b6	-0.095809385
19	0xbdf37c53	-0.11888947
20	0x3ee0beea	0.43895656
21	0x3bae3f28	0.0053175874
22	0x3e4c0909	0.19925322
23	0x3e97c710	0.2964406
24	0x3cce2c51	0.025167616
25	0xbd8e98f9	-0.06962771
26	0xbd267e83	-0.040647995
27	0xbd300193	-0.04297025
28	0x3cc47284	0.023980387
29	0x3d4c7bc2	0.049922712
30	0x3d496ce5	0.049176116
31	0xbd63d92c	-0.055627033
32	0xbdd7fd69	-0.10546381
33	0x3c028d62	0.007968279
34	0xbe329a86	-0.17441759
35	0x3d7cf09a	0.061752893
36	0x3d91e517	0.071237735
37	0xbcf71154	-0.03015963
38	0x3d3af0dc	0.045639858
39	0xbd2ad25b	-0.041704517
40	0xbd2a73f5	-0.04161449
41	0x3c9dfdd8	0.019286081
42	0xbd205ef5	-0.039153058
43	0xbc02ebab	-0.007990758
44	0xbd8bc3bc	-0.06824443
45	0x3d4b022e	0.049562626
46	0x3e0aecf4	0.13566953
47	0x3e170dd5	0.1475137
48	0x3d0ecbcd	0.03486233
49	0x3de10ee3	0.109891675
50	0xbe17c247	-0.14820205
51	0xbe41d85d	-0.18930192
52	0x3d93e692	0.07221712
53	0xba8eb025	-0.0010886235
54	0x3bf69251	0.0075247665
55	0xbd850a74	-0.064961344
56	0xbd25b90c	-0.040459678
57	0x3c5c51af	0.013447209
58	0x3d8b28a4	0.06794861
59	0x3bd6007d	0.00653082
60	0x3ca3adb5	0.01998029
61	0x3cce47a7	0.02518065
62	0x3cd18f91	0.025581153
63	0x3ceb024d	0.02868762
64	0x3d869a09	0.065723486
65	0x3ecdd81d	0.40203944
66	0xbc81cbf8	-0.01584433
67	0x3e039240	0.12848759
68	0x3ec90aee	0.3926615
69	0x3e713890	0.23556733
70	0x3d5f38eb	0.05449764
71	0x3e7ac80f	0.24490379
72	0xbbc26e95	-0.0059335926
73	0x3bfb9dfa	0.0076787444
74	0x3ea0e265	0.31422725
75	0xbddc8c45	-0.10768942
76	0xbe0900f5	-0.13379271
77	0x3d60a340	0.054843187
78	0xbcaf5031	-0.021400543
79	0xbdcdde08	-0.10052115
80	0x3cda5da6	0.026655983
81	0xbe18c8c3	-0.14920335
82	0xbd84286a	-0.06453021
83	0xbd01746d	-0.031605173
84	0xbe1f8ab9	-0.15580262
85	0x3d60b502	0.054860123
86	0x3c1df297	0.009640357
87	0x3c5cda83	0.013479832
88	0x3c2fde38	0.010734133
89	0xbb8e2c82	-0.004338802
90	0x3d1d56c7	0.038412835
91	0x3d0f1e39	0.034940932
92	0x3c87a327	0.01655729
93	0x3c9bf0d6	0.019035738
94	0xbd156035	-0.036468703
95	0x3dcc8e9b	0.09988137
96	0xbdc4891e	-0.095964655
97	0xbe09dcd8	-0.13463151
98	0xbcdf94dd	-0.027292663
99	0xbca9a2f2	-0.020707581
100	0xbd3ffe39	-0.046873305
101	0x3be42985	0.0069629573
102	0x3d59fdf0	0.05322069
103	0xbb2df862	-0.0026545753
104	0xbd1e91b4	-0.038713172
105	0xbb5f6160	-0.003408514
106	0xbc291ad8	-0.010321341
107	0xbd9adc27	-0.07561522
108	0x3d20f9f2	0.039300866
109	0xbccf5ab0	-0.025311798
110	0x3db37293	0.08762088
111	0x3dee01ac	0.11621413
112	0x3da2c12d	0.079470016
113	0x3dc47e2c	0.09594378
114	0x3e0a6fa6	0.13519153
115	0x3c6c1f53	0.014411765
116	0x3bb99d30	0.00566449
117	0xbe04422f	-0.12915872
118	0xbd1f9b35	-0.038966376
119	0x3d91288f	0.07087814
120	0x3e1db768	0.15401995
121	0x3dc266e1	0.09492279
122	0x3e0406e0	0.12893248
123	0x3de28d13	0.11062064
124	0x3e1183fb	0.14210503
125	0xbd62f093	-0.05540521
126	0xbcaabf6a	-0.020843226
127	0xbcfc4ac2	-0.030797366
128	0x3ac2d4af	0.001486441
129	0xbd15845f	-0.036503192
130	0x3db454f0	0.08805263
131	0x3e984400	0.2973938
132	0x3eaf08f2	0.34186512
133	0x3e6ecd98	0.23320615
134	0x3e6b4bf4	0.22978193
135	0x3c89fd98	0.016844556
136	0xbdf48fa6	-0.11941461
137	0x3de77f89	0.11303622
138	0x3c624496	0.0138102975
139	0x3d967952	0.07347359
140	0x3d96c98b	0.0736266
141	0x3d26b596	0.040700518
142	0xbc8a9ca6	-0.016920399
143	0x3c3a39f0	0.011366352
144	0xbd6ab610	-0.057302535
145	0xbc4450bf	-0.011982142
146	0x3db2b81d	0.08726523
147	0x3d93247a	0.07184692
148	0x3d0fd2c4	0.03511311
149	0x3d9a3c8d	0.075310804
150	0x3be8e6aa	0.0071075754
151	0xbd6022ff	-0.054720875
152	0x3a830b20	0.0009997822
153	0x3db356ac	0.08756766
154	0xbd848b1c	-0.064718455
155	0xbccb6468	-0.02482815
156	0xbd882028	-0.06646758
157	0xbcd3de60	-0.025862873
158	0x3d2e5580	0.042562008
159	0xbd838c48	-0.06423241
160	0x3cddd3da	0.027078558
161	0x3b6f1f84	0.003648729
162	0x3cd058ec	0.025433026
163	0x3d1c31b9	0.038133357
164	0x3df58f76	0.119902536
165	0xbd0eb293	-0.03483827
166	0xbcf1c126	-0.029511046
167	0xbd5a01a1	-0.05322421
168	0xbd1802f5	-0.037112195
169	0xbdded7e3	-0.10881021
170	0xbc720a65	-0.014772986
171	0xbd5adbbb	-0.053432208
172	0x3dc5fbfb	0.09667202
173	0xbd01c79a	-0.031684496
174	0xbd0d4626	-0.034490727
175	0xbd5de4b1	-0.054173175
176	0x3d1dc761	0.03852022
177	0x3ab4a24b	0.0013781277
178	0x3cc078dd	0.023495132
179	0x3d878055	0.06616274
180	0x3d821717	0.0635206
181	0x3da3311d	0.07968352
182	0x3d35cda5	0.04438557
183	0x3e09d619	0.13460578
184	0x3e4c01c8	0.19922554
185	0xbd218d56	-0.03944143
186	0xbd6bd702	-0.057578094
187	0xbd7d44e9	-0.061833296
188	0x3ceae254	0.028672375
189	0x3ce89260	0.02839011
190	0x3c317399	0.010830783
191	0x3d5eadf9	0.054365132
192	0x3d8011e0	0.062534094
193	0x3db8545b	0.090004645
194	0x3d8773f0	0.0661391
195	0xbca5230c	-0.020158313
196	0xbbcd7db0	-0.0062710866
197	0xbcbc81ae	-0.023011055
198	0x3d53cb96	0.051707827
199	0xbd901d39	-0.07036824
200	0xbcb7b72d	-0.022426212
201	0xbd46b60f	-0.04851347
202	0xbcff32f4	-0.031152226
203	0xbc92198b	-0.017834445
204	0xbd3b747f	-0.045765396
205	0xbb146053	-0.0022640422
206	0xbd591185	-0.052995224
207	0xbc8b450e	-0.017000701
208	0xbe076d77	-0.13225351
209	0xbe2d21fb	-0.16907494
210	0xbc789b3b	-0.015173729
211	0x3d803e1f	0.06261849
212	0x3c1dafe3	0.009624454
213	0x3def5ff3	0.11688223
214	0x3d9a01e8	0.07519895
215	0x3d3a2d78	0.04545352
216	0x3c10173e	0.008794604
217	0x3d5f88fc	0.054573998
218	0xbd3a700d	-0.045517016
219	0xbd092958	-0.033486694
220	0x3cc92d2a	0.024557669
221	0x3b90f9ab	0.004424294
222	0xbd29b174	-0.041428998
223	0x3c95f463	0.01830501
224	0x3d616fec	0.055038378
225	0x3d25797e	0.040399067
226	0x3c0081ee	0.007843478
227	0x3db01feb	0.08599838
228	0x3e0a984a	0.13534656
229	0x3d9eb646	0.0774961
230	0x3d07fe1a	0.033201315
231	0x3d939484	0.072060615
232	0x3da740ed	0.081666805
233	0x3e0af80d	0.13571186
234	0x3e13599a	0.14389649
235	0x3d6da8d5	0.05802234
236	0xbd444acd	-0.047922898
237	0xbd0f4fed	-0.034988333
238	0xbd30a11d	-0.0431224
239	0x3d36aee7	0.044600394
240	0x3da76804	0.08174136
241	0xbadb5a66	-0.0016735315
242	0x3d919815	0.071090855
243	0x3e0a660a	0.13515487
244	0x3d8dc116	0.06921594
245	0x3d119e9f	0.035551663
246	0xbaf043be	-0.0018330736
247	0x3cae46ce	0.021273997
248	0x3d1a4b82	0.037669666
249	0x3c118bf6	0.008883467
250	0xbcb7e187	-0.022446407
251	0x3cd684a4	0.026186295
252	0xbb8c0c9c	-0.004273964
253	0xbcfd45e7	-0.030917121
254	0x3c53089b	0.01288047
255	0xbc031358	-0.008000217

encoder_conv2.bias f4 [16]
0	0x3dd60782	0.10450651
1	0x3d381e7a	0.04495094
2	0x3e903c16	0.28170842
3	0x3e867381	0.26259997
4	0x3d88d13b	0.066805325
5	0x3e8347c9	0.25640705
6	0x3ee3a109	0.44458798
7	0x3e227455	0.1586469
8	0x3cf54054	0.0299379
9	0x3d3f100b	0.04664616
10	0x3f094bbd	0.5363119
11	0xbd82a297	-0.06378668
12	0x3eb791c5	0.358534
13	0xbc122cdb	-0.008921827
14	0x3e027846	0.12741193
15	0x3e524dd8	0.20537508

encoder_conv3.weight f4 [8, 16, 5]
0	0x3cf4a91a	0.02986579
1	0xbd6c1a8a	-0.057642497
2	0xbd6727cc	-0.056434438
3	0x3dc63c99	0.09679527
4	0xbd6da2c6	-0.05801656
5	0x3cfa9604	0.030589111
6	0xb92ae0d6	-0.00016296221
7	0x3f0ce992	0.550439
8	0x3d392601	0.04520226
9	0xbd367430	-0.0445444
10	0x3cffbac0	0.031216979
11	0xbcf967e1	-0.030445041
12	0x3dcdb473	0.100441836
13	0xbd7042e9	-0.05865756
14	0xbe098848	-0.13430893
15	0xbceb25a5	-0.028704474
16	0xbbf88a21	-0.0075848256
17	0x3c30fa64	0.010801885
18	0xbd9f48eb	-0.0777758
19	0xbbdd074a	-0.0067452537
20	0x3c9ee95f	0.01939839
21	0xbbfc51bc	-0.007700173
22	0x3dcd00a1	0.100098856
23	0x3bc748d1	0.0060816784
24	0xbbe1795c	-0.0068809222
25	0xbb92828d	-0.0044711293
26	0xbd05cde9	-0.032667074
27	0x3e07a23a	0.13245478
28	0x3da04dc0	0.0782733
29	0xbcd52fd5	-0.026023785
30	0xbcd32d43	-0.025778418
31	0xbc75d8ae	-0.015005274
32	0x3d8fa111	0.07013143
33	0x3d51cf27	0.051222946
34	0xbd404529	-0.046940956
35	0xbd0a71fd	-0.033800114
36	0x3cc82d7c	0.024435751
37	0xbd08d093	-0.033402037
38	0x3d9e4465	0.07727889
39	0xbcdca2a5	-0.026933024
40	0xbc08aad1	-0.008341507
41	0x3abf6dee	0.0014604905
42	0xbc24c987	-0.0100578135
43	0x3c6fe523	0.014642033
44	0x3ca5e04b	0.020248553
45	0xbd5e7265	-0.054308314
46	0xbdbcd251	-0.09219802
47	0x3e7452e1	0.23859741
48	0xbe32802d	-0.17431708
49	0x3da59dee	0.08086763
50	0x3a3ec40f	0.000727714
51	0x3ccde7e8	0.025134996
52	0xbc042844	-0.008066241
53	0xbd11f473	-0.035633516
54	0x3d19a9aa	0.03751532
55	0xbcdf6ac8	-0.027272597
56	0xbc9630e8	-0.018333867
57	0x3d16cc2c	0.036815807
58	0xbdd6c011	-0.104858525
59	0xbc2fcb64	-0.010729644
60	0x3c9e8347	0.019349707
61	0xbb16643f	-0.0022947935
62	0x3e871986	0.2638666
63	0xbd54ec6a	-0.051983275
64	0x398762ed	0.00025822912
65	0x3c9e4bef	0.019323317
66	0xbce7c498	-0.028291985
67	0x3db3b439	0.08774609
68	0x3da30826	0.079605386
69	0x3b92ba39	0.004477766
70	0x37b22836	2.1237978e-05
71	0xbcfad6b0	-0.03061995
72	0x3db2d941	0.08732844
73	0xbdf9308b	-0.12167462
74	0x3cc5e881	0.024158718
75	0x3bf5fddd	0.0075070695
76	0x3d120f32	0.035659023
77	0xb9ab7d78	-0.00032709143
78	0x3bf081dc	0.007339699
79	0xbd403b88	-0.046931773
80	0x3d527d2b	0.0513889
81	0xbd4ce9cd	-0.050027657
82	0x3e7194a8	0.23591864
83	0x3dcf5473	0.10123529
84	0xbd284954	-0.041085556
85	0x3d9e701f	0.07736229
86	0x3ce2b4c6	0.02767409
87	0xbd93f293	-0.07224002
88	0xbd347594	-0.044057444
89	0x3cd9c3df	0.026582656
90	0xbccd6d26	-0.02507646
91	0xbda417ee	-0.08012377
92	0x3e46ea96	0.19425425
93	0x3ea5174f	0.32244346
94	0xbd8879de	-0.06663869
95	0xbdb2022d	-0.08691821
96	0x3e2e5a97	0.17026745
97	0xbc23dc20	-0.010001212
98	0xbe07e990	-0.13272691
99	0x3d80c2d3	0.0628716
100	0xbac4db85	-0.0015019035
101	0x3dd01b34	0.101614386
102	0xbd5288e5	-0.051400084
103	0xbe055ebb	-0.13024418
104	0xbc536119	-0.012901568
105	0xbd555b83	-0.052089226
106	0xbda0e4d9	-0.07856149
107	0x3d9089a9	0.070575066
108	0xbcf3a25b	-0.029740503
109	0x3e73efaf	0.23821901
110	0xbd1c9da5	-0.03823628
111	0xbda21092	-0.07913317
112	0xbde45459	-0.111489005
113	0x3d9a31b9	0.07529015
114	0x3e306ea9	0.17229713
115	0xbd2a3931	-0.04155845
116	0x3eb31049	0.34973362
117	0x3d04474f	0.032294568
118	0x3d2b44ce	0.041813664
119	0x3ebb905f	0.36633584
120	0xbd1d3d73	-0.03838868
121	0xbcb19870	-0.021679133
122	0xba469e58	-0.00075766956
123	0xbc8f2106	-0.017471801
124	0xbd8b3f47	-0.067991786
125	0xbe31b730	-0.17355037
126	0xbd94c4f3	-0.072641276
127	0x3bea0c63	0.00714259
128	0xbe74f539	-0.2392167
129	0xbee65215	-0.449845
130	0xbc777122	-0.015102657
131	0x3e5177b5	0.20455821
132	0xbd91c64e	-0.07117902
133	0xbcf86c45	-0.030325064
134	0x3bc364bc	0.005962936
135	0x3d5c63a5	0.053805966
136	0xbef48d84	-0.47764218
137	0x3d51b982	0.051202305
138	0x3c83b2f2	0.016076539
139	0xbde25e22	-0.11053111
140	0xbd3a2a46	-0.04545047
141	0x3e6e0773	0.23245029
142	0xbd83e8aa	-0.064408615
143	0xbc8bd65b	-0.017069986
144	0x3d7b244b	0.06131391
145	0xbc846098	-0.01615934
146	0xbce38e01	-0.027777674
147	0x3cd1fdea	0.025633771
148	0xbe149929	-0.14511551
149	0xbc5cce60	-0.013476938
150	0x3c81daa1	0.01585132
151	0xbdf55ce9	-0.11980612
152	0x3cb6022f	0.022217838
153	0x3d0230fc	0.031784996
154	0xbe5b8935	-0.21439059
155	0x3d74b446	0.059742235
156	0x3d7edd2f	0.062222656
157	0xbd6b441c	-0.057438
158	0x3c9dce26	0.019263338
159	0x3d989ebc	0.07452151
160	0xbe649456	-0.2232221
161	0x3deeca50	0.11659682
162	0xbdfa8f15	-0.12234322
163	0x3e0baff5	0.13641341
164	0x3d0ce185	0.03439476
165	0xbd19e0d4	-0.03756793
166	0x3e393fb0	0.18090701
167	0xbce29171	-0.027657242
168	0xbd16e4d8	-0.036839336
169	0xbd08276b	-0.033240717
170	0xbb279981	-0.0025573673
171	0xbe52c393	-0.20582418
172	0xbe35ae60	-0.177423
173	0xbe623f29	-0.22094406
174	0x3e26d99b	0.16293947
175	0xbc33cf29	-0.010974684
176	0x3e19e36e	0.15028164
177	0x3d17df70	0.03707832
178	0xbe17c1bb	-0.14819996
179	0xba017185	-0.0004937875
180	0xbb08e696	-0.0020889393
181	0x3e9fc1d9	0.31202582
182	0x3d871234	0.06595269
183	0xbe057f7d	-0.13036914
184	0x3d5600ac	0.052246734
185	0xbd6d1797	-0.057883825
186	0x3e028499	0.12745894
187	0x3b145d30	0.0022638552
188	0x3c880b0e	0.016606834
189	0x3cd3b8ce	0.025844958
190	0x3d21a2a9	0.039461765
191	0x3dbfcc89	0.09365184
192	0x3caa9801	0.020824434
193	0x3d61e633	0.055151176
194	0x3c3cf4f0	0.011533007
195	0xbd4d7ddc	-0.050168857
196	0xbcabbd52	-0.020964298
197	0x3cb41c6a	0.021986205
198	0xbd6b9172	-0.057511754
199	0xbd77d22b	-0.060503166
200	0xbc0f91e5	-0.008762811
201	0x3d04b9fb	0.032403927
202	0xbd0f0062	-0.034912474
203	0x3d1c3d33	0.0381443
204	0x3dbec5dd	0.09315083
205	0xbda55418	-0.0807268
206	0x3d979e40	0.07403231
207	0xbd944ee1	-0.072416075
208	0x3ca6eb2c	0.02037581
209	0xbd5f756a	-0.054555334
210	0x3c8f531d	0.017495686
211	0x3ce3cefb	0.027808657
212	0x3d28bc70	0.041195333
213	0x3c442545	0.011971776
214	0xbbda9b58	-0.0066713504
215	0x3d2e7aac	0.042597458
216	0xbbb07711	-0.0053852876
217	0xbdbec9ad	-0.0931581
218	0xbd7b0b0b	-0.06128983
219	0x3ad11808	0.0015952596
220	0x3da4b84f	0.080429666
221	0x3d21d5c5	0.039510507
222	0xbb815017	-0.003946315
223	0xbbc6d35b	-0.006067676
224	0x3c84c354	0.016206421
225	0xbca3f944	-0.02001632
226	0x3e1dd72c	0.15414113
227	0x3cc131cc	0.023583315
228	0xbca16188	-0.019699827
229	0x3cf758e7	0.03019376
230	0x3e037626	0.12838039
231	0x3d8a3753	0.067488335
232	0xbdeea8c7	-0.116532855
233	0xbdd2dc50	-0.102959275
234	0x3dc8063e	0.097668156
235	0xbd09083a	-0.03345511
236	0x3abc4328	0.0014363276
237	0x3d20c8e8	0.0392541
238	0xbd6e82f2	-0.058230348
239	0x3cabf060	0.020988643
240	0x3d8dea5b	0.069294654
241	0xbe153f05	-0.14574821
242	0x3e64e813	0.22354154
243	0x3ea7122d	0.32631055
244	0x3bd95729	0.0066327048
245	0xbbec175d	-0.0072049336
246	0xbdbd1b81	-0.092337616
247	0xbe5fbe9c	-0.21850055
248	0xbc854d99	-0.016272353
249	0xbbbec7fe	-0.005822181
250	0xbd1f39b3	-0.038873386
251	0x3c3193de	0.010838477
252	0x3e93383c	0.2875384
253	0x3ed2285a	0.4104641
254	0x3e296f0c	0.16546267
255	0x3ad11efa	0.0015954666

encoder_conv3.bias f4 [8]
0	0x3e417bed	0.1889493
1	0x3ec6fe61	0.3886595
2	0x3f19a33b	0.60014695
3	0x3ec9f4fe	0.39444727
4	0x3f02ee76	0.5114511
5	0x3e9e53da	0.3092335
6	0x3ee9341a	0.45547563
7	0x3ed79c83	0.42111596

deconv1.weight f4 [8, 16, 5]
0	0x3ba049ba	0.0048916014
1	0x3d918931	0.07106245
2	0x3e6aa7cb	0.2291557
3	0x3d03652a	0.0320789
4	0x3d0e75ba	0.03478024
5	0x3db8448e	0.08997451
6	0x3d724627	0.059148934
7	0xbc26f9c3	-0.010191384
8	0x3e27661c	0.16347545
9	0x3da63a4a	0.081165865
10	0xbc0b8079	-0.008514517
11	0x3ccf4cb2	0.025305126
12	0xbd28f8b4	-0.041252807
13	0xbd19eb9c	-0.03757821
14	0xbb9137ae	-0.0044316864
15	0x3d4a3f3c	0.04937671
16	0xbd1d2b6e	-0.038371496
17	0x3ec26247	0.37965605
18	0xbdd298de	-0.10283063
19	0x3da0dde0	0.07854819
20	0xbc19feb9	-0.0093991095
21	0xba3e87cc	-0.000726816
22	0x3ec16e55	0.3777949
23	0x3cb665b5	0.022265295
24	0xbd59f3b0	-0.053210914
25	0x3d8036fb	0.06260487
26	0x3d047906	0.03234198
27	0x3edcc51a	0.43119127
28	0x3dc64f0c	0.09683046
29	0x3db1e0b8	0.0868544
30	0xbd3d7bea	-0.04626075
31	0xbcf9e572	-0.030504916
32	0xbd58be78	-0.05291602
33	0xbb8eb3ef	-0.004354946
34	0xbcd4b20e	-0.02596381
35	0x3d0f3e8c	0.03497176
36	0x3cd17698	0.025569245
37	0x3b9ab6b5	0.0047214874
38	0x3e8a3f0d	0.2700123
39	0x3c7edee4	0.015556071
40	0xbb40abc1	-0.0029399248
41	0xbf95ac91	-1.1693288
42	0x3db16e85	0.08663658
43	0x3e83c78b	0.25738177
44	0x3aef5fc5	0.0018262794
45	0x3dfe4c4b	0.124168955
46	0x3de8ab35	0.1136078
47	0xbd012287	-0.03152707
48	0x3d8c6b67	0.06856423
49	0x3cecdcca	0.028913874
50	0x3cd6c409	0.026216524
51	0x3c8dccf2	0.01730964
52	0x3ec4fa90	0.38472414
53	0x3da9f9bb	0.082995854
54	0xbd910bfb	-0.07082363
55	0xbb71810a	-0.0036850595
56	0x3bd2f8a7	0.006438333
57	0xbd1f081c	-0.038826093
58	0x3d8a7e6a	0.06762393
59	0xbbcf8491	-0.006332942
60	0xbc9e9f40	-0.019363046
61	0xbc921190	-0.01783064
62	0x3b7358e3	0.0037131838
63	0x3ce192b4	0.027535774
64	0x3cb2daf7	0.021832926
65	0xb909147c	-0.00013072969
66	0x3d600651	0.054693524
67	0x3e0a149c	0.13484424
68	0x3e66a916	0.22525439
69	0x3dbd6b9f	0.09249043
70	0x3da76572	0.08173646
71	0x3db30c00	0.08742523
72	0x3dba5b81	0.09099484
73	0x3ce453c2	0.02787197
74	0x3d7f5d20	0.06234467
75	0x3d00dd6b	0.03146116
76	0x3d246b49	0.040141378
77	0xbd758f80	-0.059951305
78	0x3dbd79c6	0.09251742
79	0x3d560855	0.05225404
80	0x3c8b2cc3	0.016989117
81	0x3e09715e	0.13422152
82	0x3ca2970d	0.019847417
83	0xba2e67c0	-0.0006653033
84	0x3d0d63d2	0.034519024
85	0x3dc9b722	0.09849383
86	0xbdb3e319	-0.0878355
87	0xbd7de074	-0.061981633
88	0x3d660fc4	0.05616738
89	0xbd0ec718	-0.03485784
90	0xbb3d71d2	-0.0028906954
91	0x3dbfb157	0.09359997
92	0xbcaaaa5f	-0.020833192
93	0xbd46a637	-0.04849836
94	0x3d83e04c	0.064392656
95	0x3d1b0bb8	0.037852973
96	0xbd95ff77	-0.07324117
97	0xbbd1ea05	-0.006406071
98	0xbd457772	-0.048209615
99	0xbdb64ad4	-0.08900991
100	0xbd42c9fe	-0.047555916
101	0xbd36e6fd	-0.04465388
102	0xbd9e192b	-0.07719644
103	0xbb981c75	-0.004642064
104	0x3e0539aa	0.13010278
105	0xbc1d244d	-0.009591174
106	0x3dff0ee9	0.12454016
107	0x3dcb2b5b	0.09920379
108	0xbe1dde70	-0.15416884
109	0xbe20da17	-0.15708195
110	0xbca3839c	-0.019960217
111	0x3c350240	0.0110479
112	0xbc5ff491	-0.013669149
113	0xbdb1a44e	-0.08673917
114	0xbdb09cef	-0.08623683
115	0x3d8d7bdd	0.06908391
116	0x3e1be7ed	0.15225191
117	0xbcbc07b7	-0.022952897
118	0x3d243d47	0.0400975
119	0x3dbfc932	0.09364547
120	0x3c639f3d	0.013892946
121	0xbf90e0ca	-1.13186
122	0xbc4d1eb0	-0.0125195235
123	0x3d357771	0.04430336
124	0xbc34d4fb	-0.011037107
125	0x3e55c40d	0.20875569
126	0x3e094b48	0.13407624
127	0x3cfe99c7	0.031079186
128	0x3dcea5b4	0.10090199
129	0x3df1696e	0.11787687
130	0xbc25c94e	-0.010118796
131	0x3e1a8c35	0.15092547
132	0xbd1b5d55	-0.037930805
133	0xbaabbf68	-0.0013103308
134	0x3e9dcd0d	0.30820504
135	0x3caf4aec	0.02139803
136	0xbe5fcc1d	-0.21855207
137	0x3db1602e	0.08660923
138	0xbcc7e773	-0.024402356
139	0x3d00c549	0.031438146
140	0xbcc45fc8	-0.023971453
141	0x3dcfc293	0.10144534
142	0x3b382b1c	0.0028101867
143	0xbd3fb345	-0.046801824
144	0x3d73fb88	0.05956605
145	0x3af55dcc	0.001871997
146	0x3e64cccd	0.2234375
147	0x3d584af2	0.05280585
148	0x3d42160c	0.047384307
149	0x3e68affb	0.22723381
150	0x3da9f3ca	0.08298452
151	0x3e57cb2b	0.21073596
152	0xbd24944a	-0.040180482
153	0x3c1760b3	0.0092393635
154	0xbc6ea6ff	-0.014566182
155	0x3d8177a4	0.06321648
156	0x3c263fd7	0.010147057
157	0x3d77689d	0.0604025
158	0x3d2948ab	0.041329067
159	0x3e8bf7fb	0.27337632
160	0x3d5d27e9	0.05399314
161	0x3c36323e	0.011120377
162	0x3df9954c	0.12186679
163	0xbdd4bf9a	-0.103881076
164	0xbe44553d	-0.19173141
165	0x3e78c4df	0.2429385
166	0x3e99286b	0.2991365
167	0x3eb0aee9	0.34508446
168	0x3eed0a09	0.4629672
169	0xbd09c826	-0.033638142
170	0x3d5e4ada	0.054270603
171	0x3e8cff0d	0.27538338
172	0x3e4cc7d7	0.19998108
173	0xbf2e290a	-0.6803137
174	0x3c15a158	0.009132706
175	0xbda50272	-0.08057107
176	0x3ec3f211	0.3827062
177	0xbde0b823	-0.10972621
178	0x3dc5fc14	0.09667221
179	0x3cd46b9a	0.025930215
180	0x3ec4a7ba	0.38409215
181	0x3eeb3de8	0.45945668
182	0x3d8b9047	0.06814628
183	0xbcbd381a	-0.02309804
184	0x3e05a676	0.13051781
185	0x3e869d5e	0.26291937
186	0x3e6d02a6	0.23145542
187	0xbe26b84e	-0.16281244
188	0xbee84a4c	-0.45369184
189	0x3d169c55	0.036770184
190	0xbf0d2ca0	-0.5514622
191	0x3edaf389	0.42763928
192	0xbcff9d32	-0.031202886
193	0x3db3e865	0.0878456
194	0xbd45ac4c	-0.04826002
195	0xbf4f9dae	-0.81099975
196	0x3ed3c0ac	0.41357934
197	0xbba20063	-0.0049438938
198	0x3df18ec5	0.11794809
199	0x3dbf3570	0.09336364
200	0xbddfcae6	-0.10927372
201	0xbf839f65	-1.0283018
202	0xbe14ee19	-0.14543952
203	0xbee07f6d	-0.43847218
204	0x3c737d11	0.014861361
205	0x3d49212e	0.04910391
206	0xbe9c1ca7	-0.3049061
207	0xbd2ecfee	-0.042678766
208	0xbe7e0546	-0.24806699
209	0x3d8bc92d	0.068254806
210	0x3df389e4	0.11891535
211	0x3ed9b3b1	0.42519906
212	0x3e0e79ce	0.13913652
213	0xbef62b03	-0.4807969
214	0xbe078273	-0.13233356
215	0x3e239857	0.15976082
216	0x3e7106fa	0.23537818
217	0xbb2e1dfe	-0.002656817
218	0xbeec78b2	-0.46185833
219	0xbd61326d	-0.05497973
220	0xbe77f611	-0.2421496
221	0xbdfff6dc	-0.124982566
222	0x3e24d6b5	0.16097529
223	0x3d1f41b6	0.038881026
224	0xbe7c8e3a	-0.2466363
225	0xbc95f97a	-0.018307436
226	0x3dad1213	0.08450713
227	0x3e7807ec	0.24221772
228	0x3e7d40ee	0.247318
229	0xbd83ef55	-0.06442133
230	0x3ebc7ede	0.36815542
231	0x3ef27a63	0.47359
232	0x3eadc4a7	0.33939096
233	0xbc1868cf	-0.009302332
234	0xbcfbd41e	-0.030740794
235	0x3cd8c0d6	0.026459139
236	0x3e255dc3	0.16149049
237	0xbd2b7594	-0.041860178
238	0x3e38184f	0.17978023
239	0x3ed5c0af	0.41748568
240	0x3bd9d094	0.006647179
241	0x3d7aefae	0.061263733
242	0x3e93349b	0.28751072
243	0xbd8b738e	-0.0680915
244	0x3d471128	0.048600346
245	0x3d8e995f	0.06962847
246	0x3de374e3	0.11106279
247	0x3d1166ec	0.035498545
248	0x3cff5283	0.031167274
249	0x3ba6ae4d	0.0050866962
250	0xbc1a4430	-0.009415671
251	0xbcb4b20b	-0.022057554
252	0x3ced2651	0.028948935
253	0xbe3a64ea	-0.18202558
254	0xbd0ee85c	-0.034889564
255	0x3bc77c29	0.006087799

deconv1.bias f4 [16]
0	0x3e815902	0.2526322
1	0xbcfa69c1	-0.030568006
2	0x3e085de2	0.13317063
3	0x3e919c49	0.2843955
4	0x3e889b0d	0.26680794
5	0x3e37b278	0.17939174
6	0x3e8ff296	0.28114766
7	0x3e81346f	0.25235316
8	0x3e19e883	0.15030102
9	0x3e755ffd	0.23962398
10	0x3e0cfe3b	0.13768856
11	0x3ee929c3	0.45539674
12	0x3ee7c016	0.45263737
13	0x39b6dee7	0.0003487982
14	0xbc076199	-0.008263015
15	0xbddbdbd1	-0.10735286

deconv2.weight f4 [16, 32, 5]
0	0x3db514bf	0.08841848
1	0x3e62b4cb	0.2213928
2	0x3c580909	0.013185748
3	0x3e497288	0.19672596
4	0x3d0c3f1d	0.034239877
5	0x3d766363	0.060153376
6	0x3db41c34	0.08794442
7	0xbd1a688d	-0.037697364
8	0xbd5628ba	-0.052284934
9	0x3c420664	0.011842344
10	0xbe1e7f42	-0.15478233
11	0x3e2f542a	0.1712195
12	0xbe502ec8	-0.20330346
13	0x3e32de89	0.17467703
14	0x3c4ffc76	0.012694469
15	0x3ca4a227	0.020096852
16	0x3eab8b7a	0.3350485
17	0xbb0f2090	-0.0021839477
18	0x3c9c392b	0.019070229
19	0xbd3dbac6	-0.0463207
20	0x3e3cd69f	0.18441246
21	0x3dda164b	0.10648783
22	0x3e237574	0.15962774
23	0x3cfc202a	0.030777056
24	0xbdbc2dbe	-0.09188412
25	0x3da39fea	0.079894856
26	0x3f2f510b	0.68483037
27	0x3c17afee	0.0092582535
28	0x3e1bb5e6	0.15206107
29	0x3d5b3783	0.053519737
30	0xbd445d4b	-0.047940534
31	0x3e6281ea	0.22119871
32	0xbd5bc277	-0.053652253
33	0xbcac2f20	-0.021018565
34	0x3e01c3f0	0.126724
35	0xbe98b6e9	-0.2982705
36	0x3e2e630c	0.17029971
37	0xbf40cb4b	-0.753102
38	0x3e03ba70	0.12864089
39	0xbc765737	-0.015035442
40	0x3e955c27	0.2917187
41	0x3eb54f9e	0.35412306
42	0x3daf0625	0.08546094
43	0x3d167049	0.036728177
44	0x3b86e03d	0.0041160868
45	0xbd3f06cb	-0.046637338
46	0x3e8703f4	0.26370203
47	0xbf0f4326	-0.55961835
48	0xbe00064b	-0.125024
49	0x3d10a482	0.035313137
50	0xbd393471	-0.045216028
51	0x3b04b206	0.0020247712
52	0x3e0d2870	0.13784957
53	0x3b8afb40	0.004241377
54	0x3dd0db35	0.101980604
55	0x3c4c1d58	0.012458168
56	0xbe9373e3	-0.28799352
57	0xbd5bca5a	-0.053659774
58	0x3e8915b5	0.26774374
59	0xbd2cb115	-0.042161066
60	0xbdd1e828	-0.102493584
61	0x3d9dad1d	0.07699034
62	0x3deba8f0	0.11506832
63	0xbdb9011a	-0.09033413
64	0xbd7faf2f	-0.062422927
65	0x3c58f557	0.013242087
66	0x3e10c634	0.14138108
67	0xbd0401b4	-0.032228187
68	0xbd1ceac4	-0.038309827
69	0xbda4c2f1	-0.080449946
70	0x3d8d1ed4	0.068906456
71	0xbcd30ac9	-0.025761979
72	0x3d9bcbae	0.07607208
73	0xbd822f4f	-0.0635668
74	0xbcbd241f	-0.023088513
75	0x3df40499	0.119149394
76	0xbe3568f5	-0.17715819
77	0x3cd93baf	0.026517717
78	0x3cb84a37	0.022496326
79	0x3db1a009	0.086731024
80	0x3c7fe9bf	0.015619694
81	0xbe235471	-0.1595018
82	0xbf0d8ae9	-0.55290085
83	0x3e3e52fb	0.18586342
84	0x3c925735	0.01786385
85	0xbb9f8970	-0.0048686787
86	0x3e662505	0.2247506
87	0x3cdf7941	0.027279498
88	0x3c1f92d2	0.0097395945
89	0x3d1441bf	0.036195513
90	0x3c8290a6	0.015938114
91	0xbe9f4db1	-0.3111396
92	0xbe1f167f	-0.15535925
93	0xbebe77df	-0.3720083
94	0x3cb8bb45	0.022550235
95	0xbd3f7c2d	-0.046749283
96	0xbc9760d3	-0.018478787
97	0xbd928488	-0.071541846
98	0xba449604	-0.0007499161
99	0xbd973cab	-0.07384618
100	0xbd8ef1f9	-0.06979746
101	0x3cf5704a	0.02996077
102	0xbd22d184	-0.03975059
103	0xbd9c3242	-0.076267734
104	0x3d3e6986	0.046487354
105	0xbdb5d0b3	-0.08877697
106	0x3c2a477c	0.01039302
107	0xbd8475be	-0.0646777
108	0x3d07202c	0.032989666
109	0xbd0d3fa5	-0.034484524
110	0xbc2616f0	-0.010137305
111	0x3e355156	0.17706808
112	0x3c04eca4	0.00811306
113	0x3bb048ee	0.0053797876
114	0xbc47394b	-0.012159656
115	0xbd2f8aa4	-0.042856827
116	0x3c018114	0.00790431
117	0x3dd56c7e	0.10421084
118	0xbdcf9153	-0.1013514
119	0xbc6dd219	-0.014515423
120	0x3d3cd4fd	0.04610156
121	0xbc968e6a	-0.018378455
122	0xbd5a3b79	-0.053279374
123	0xbd67088f	-0.056404646
124	0x3d1ff967	0.039056208
125	0xbcc2326f	-0.02370569
126	0x3e8a7e4f	0.2704949
127	0x3d4b2e1e	0.049604528
128	0x3be53d0a	0.006995802
129	0xbdae466f	-0.08509528
130	0x3e8386e6	0.25688857
131	0xbba9a2fc	-0.0051769
132	0x3d9aa99c	0.07551882
133	0xbd60b702	-0.05486203
134	0x3d23d494	0.039997652
135	0x3d8d07c9	0.068862505
136	0xbd7e964b	-0.06215505
137	0x3df62838	0.1201939
138	0xbd845b23	-0.064626954
139	0xbd181fa5	-0.037139554
140	0xbd8586b7	-0.065198354
141	0x3d7618f6	0.0600824
142	0xbc29ef12	-0.01037194
143	0xbdcaa4b6	-0.09894697
144	0xbca73c97	-0.020414634
145	0x3cfbde47	0.030745639
146	0x3e1f4d45	0.1555682
147	0x3d10a2e1	0.035311583
148	0x3dc3dee0	0.095639944
149	0xbd5213d0	-0.051288426
150	0xbe01901c	-0.1265263
151	0x3e9eff76	0.31054276
152	0x3cb52ba1	0.02211553
153	0x3dff3795	0.12461773
154	0xbdb5d234	-0.08877984
155	0xbcd914a2	-0.026499096
156	0xbd691645	-0.056906004
157	0x3d262df9	0.040571187
158	0xbdb929df	-0.090411894
159	0x3c28bb03	0.010298493
160	0xbe2b12de	-0.16706416
161	0x3d2d7094	0.04234369
162	0xbdb96f2d	-0.09054408
163	0x3e3b2eed	0.1827962
164	0x3d83eb68	0.064413846
165	0xbd82368e	-0.06358062
166	0x3ca679ea	0.020321805
167	0xbdfd7501	-0.12375832
168	0xbd0752ec	-0.033038065
169	0xbc8bb2e9	-0.017053084
170	0xbe048f3a	-0.12945262
171	0xbb00ca9a	-0.001965201
172	0x3e2d57ab	0.16927974
173	0xbd97597d	-0.073901154
174	0xbdb5ae71	-0.08871163
175	0x3cbb82a2	0.022889439
176	0x3d91d29c	0.07120249
177	0xbd954bb8	-0.07289833
178	0x3afafb71	0.0019148422
179	0x3d9a7944	0.07542661
180	0xbd3c2cbd	-0.045941103
181	0x3e2ac32e	0.16676018
182	0xbdb1208b	-0.08648785
183	0x3d7345f4	0.059392884
184	0x3d7eaadd	0.062174667
185	0x3d32f1c5	0.0436876
186	0xbf233a55	-0.6376088
187	0xbe8562c3	-0.26051912
188	0xbdb5186f	-0.08842551
189	0x3c62bdd1	0.013839201
190	0x3d2ff049	0.042953763
191	0xbdeb1833	-0.11479225
192	0x3d49a8a0	0.04923308
193	0x3d10ba9c	0.035334215
194	0x3e167b85	0.14695556
195	0xbe9bcea7	-0.304311
196	0xbe0ac014	-0.13549834
197	0xbef2c024	-0.47412217
198	0xbdaa35d8	-0.08311051
199	0x3e083423	0.13301139
200	0xbf3ea180	-0.7446518
201	0x3c495a75	0.012289633
202	0xbd377d64	-0.044797316
203	0xbd4f3098	-0.050583452
204	0xbe1b6efa	-0.15179053
205	0xbd96c069	-0.07360918
206	0x3d8502e1	0.0649469
207	0x3d83c650	0.064343095
208	0xbde32d10	-0.11092579
209	0x3c30ee9f	0.010799079
210	0x3df62b91	0.120200284
211	0x3e121ab7	0.14268003
212	0xbcef8077	-0.029236061
213	0x3d954501	0.07288552
214	0x3e0450e6	0.12921485
215	0x3d990aa5	0.074727334
216	0xbfb45624	-1.4088788
217	0xbcd83c81	-0.026396038
218	0xbfdb3b0f	-1.7127398
219	0x3d76733e	0.060168497
220	0xbd1ef793	-0.038810324
221	0xbd797885	-0.060905952
222	0xbd86a40f	-0.065742604
223	0xbd1f0c06	-0.038829826
224	0xbdffaf49	-0.12484605
225	0x3d4b84b6	0.04968711
226	0xbd7588c7	-0.059944894
227	0xbe32433b	-0.17408459
228	0xbd22686d	-0.03965037
229	0xbb95797d	-0.0045616017
230	0xbe4b7161	-0.1986747
231	0xbdad577c	-0.08463952
232	0x3e424592	0.18971851
233	0xbc772d82	-0.0150865335
234	0x3dd14685	0.10218529
235	0x3c8d4e0a	0.017249126
236	0x3bec39b3	0.0072090267
237	0xbc931897	-0.017956061
238	0x3cef8954	0.029240288
239	0x3d5a1d75	0.05325075
240	0xbdccf3cf	-0.1000744
241	0x3e9ac323	0.30227003
242	0xbf07b446	-0.5300945
243	0xbccd27b9	-0.025043355
244	0xbcef0f07	-0.02918197
245	0x3e029693	0.12752752
246	0x3e09196a	0.13388601
247	0xbcfc8df8	-0.030829415
248	0xbcbb3be6	-0.02285571
249	0xbc37a693	-0.011209148
250	0x3c8e9244	0.01740373
251	0x3e75c0c2	0.23999313
252	0xbcab0bdc	-0.020879678
253	0xbf3c9d4f	-0.73677534
254	0x3c821e9e	0.01588374
255	0xbd9604f0	-0.073251605

deconv2.bias f4 [32]
0	0x3d624c1f	0.055248376
1	0x3e29b236	0.16571888
2	0x3e329ce0	0.17442656
3	0x3dbcc573	0.09217348
4	0x3cfd56d5	0.030925194
5	0x3d8a2120	0.06744599
6	0x3d0b6f71	0.034041826
7	0x3d39b4f4	0.045338586
8	0x3e3347a9	0.17507805
9	0x3daab1e3	0.083347104
10	0x3d6c523a	0.057695605
11	0x3d7535a5	0.059865613
12	0x3d394c25	0.045238633
13	0xbce65ef4	-0.028121449
14	0xbde1d4e3	-0.11026933
15	0x3d7eacb4	0.06217642
16	0x3d78fd49	0.060788427
17	0xbd5be19d	-0.05368196
18	0x3d320dba	0.043470122
19	0xbd0c7be2	-0.03429783
20	0x3d98131b	0.07425519
21	0xbdaf24b2	-0.08551921
22	0x3d56f644	0.05248095
23	0x3d18386f	0.037163194
24	0xbd93cbef	-0.072166316
25	0x3df1a5c6	0.11799197
26	0x3ccbf573	0.024897313
27	0x3dde307c	0.108490914
28	0xbdbabe0e	-0.09118281
29	0x3e14f137	0.14545141
30	0x3d04fa8e	0.03246551
31	0xbb52d489	-0.0032170138

deconv3.weight f4 [32, 1, 5]
0	0x3e13654e	0.14394113
1	0xbeb1518e	-0.34632534
2	0xbef9e6e3	-0.48808965
3	0xbd0b7cc5	-0.034054536
4	0x3eae8599	0.34086302
5	0xbd7c40b9	-0.06158516
6	0x3ee853bf	0.45376393
7	0x3e69cbfb	0.22831719
8	0xbc1aeffb	-0.00945663
9	0x3eb6d99b	0.35712895
10	0xbeaf78e9	-0.34271935
11	0xbd90bc73	-0.07067194
12	0xbd5f5f22	-0.054534085
13	0x3ed0d84f	0.4079003
14	0x3e2f5edc	0.1712603
15	0xbe37c7d8	-0.17947328
16	0xbc8b6e3c	-0.017020337
17	0x3ec3f221	0.38270667
18	0x3ecda476	0.40164536
19	0xbd96b228	-0.07358199
20	0x3e53aa90	0.20670533
21	0x3eab390a	0.33441955
22	0x3d0e625b	0.034761768
23	0x3d8bd044	0.06826833
24	0xbe6d87c9	-0.23196329
25	0xbc4c22fe	-0.012459515
26	0xbeb0acb1	-0.34506753
27	0x3f06607a	0.5249096
28	0x3efc8151	0.4931741
29	0x3d4d83f8	0.050174683
30	0x3d289bf6	0.04116436
31	0xbc2be7c0	-0.010492265
32	0xbd28cf40	-0.041213274
33	0x3e5288b5	0.20559962
34	0x3eb14942	0.34626204
35	0xbcb236ad	-0.021754587
36	0xbde50c3e	-0.11183976
37	0x3f777bed	0.9667347
38	0x3e88560c	0.2662815
39	0x3ea52c91	0.32260564
40	0x3df3e3ff	0.11908721
41	0xbd69cdc3	-0.057080995
42	0x3f32a6be	0.6978568
43	0x3dfd0b23	0.1235564
44	0xbda30232	-0.07959403
45	0x3f0236da	0.50864947
46	0x3e94534b	0.28969797
47	0x3d2aaea4	0.041670457
48	0xbe8c7f25	-0.27440754
49	0xbedfed12	-0.43735558
50	0x3ec1bf33	0.37841186
51	0x3e95963a	0.29216176
52	0xbeba97a9	-0.36443833
53	0x3e864121	0.26221564
54	0x3c1ceb52	0.009577589
55	0xbf027e39	-0.5097385
56	0xbf86dc91	-1.0536062
57	0x3f166b3a	0.58757365
58	0xbea55cf7	-0.3229749
59	0xbd144720	-0.036200643
60	0x3e47ee34	0.19524461
61	0x3eb07fba	0.34472448
62	0x3eb21bab	0.34786734
63	0xbe2defc8	-0.16986
64	0x3ea63d1d	0.324685
65	0x3d151706	0.03639891
66	0x3ed4002b	0.41406378
67	0x3df53cd3	0.11974492
68	0x3ecc61f6	0.39918488
69	0x3e5bd76e	0.21468899
70	0x3e3fb8db	0.1872286
71	0x3eec47c6	0.4614851
72	0xbe9f12e3	-0.31069097
73	0xbee04855	-0.43805185
74	0xbdce0ad6	-0.100606605
75	0xbefd49d0	-0.49470377
76	0xbee47567	-0.4462082
77	0xbe460d5f	-0.19341038
78	0xbf25219c	-0.6450441
79	0xbe0e67dc	-0.13906807
80	0xbd697cc1	-0.05700374
81	0x3e3df116	0.18548998
82	0x3ea5662e	0.3230452
83	0xbf1e5b1a	-0.6185776
84	0xbecb82bf	-0.3974819
85	0xbeab11c7	-0.33412
86	0x3e454d23	0.19267707
87	0x3ea28b63	0.3174697
88	0x3f1f71cc	0.62283015
89	0x3e627474	0.22114736
90	0x3e843263	0.25819692
91	0xbdded8fa	-0.10881229
92	0xbf7058f0	-0.9388571
93	0xbeb5b1b3	-0.35487136
94	0x3e89b2b9	0.26894167
95	0xbe06600c	-0.13122576
96	0xbda9a261	-0.082829244
97	0x3dccd645	0.10001806
98	0x3d6fafbe	0.05851721
99	0xbeb46ca6	-0.35239142
100	0xbd74ef9e	-0.05979883
101	0xbed84863	-0.42242727
102	0x3e90a67d	0.2825202
103	0x3e6f3b73	0.23362522
104	0x3e98ed74	0.29868662
105	0xbe5afa40	-0.21384525
106	0xbe05addd	-0.13054605
107	0xbcc69bfb	-0.0242443
108	0xbe983734	-0.29729617
109	0x3e370237	0.17871939
110	0xbd356cad	-0.044293094
111	0x3ed8a46b	0.4231294
112	0xbdaee3dc	-0.085395545
113	0xbd941d25	-0.072321214
114	0x3ec86dfa	0.39146405
115	0xbe2dd6f2	-0.16976526
116	0xbf30ee2b	-0.69113415
117	0xbd8969b7	-0.06709617
118	0x3c56ab73	0.0131024
119	0xbd7e197d	-0.062036026
120	0xbea089d3	-0.31355152
121	0xbc875200	-0.016518593
122	0xbe6fb27e	-0.23407933
123	0xbecf003a	-0.4042986
124	0x3eb35db8	0.3503244
125	0xbd3a9a6c	-0.045557424
126	0x3ecd19aa	0.40058643
127	0x3e63b76a	0.22237936
128	0x3e78e90c	0.2430765
129	0x3d3de4b5	0.04636069
130	0x3eb35033	0.35022125
131	0x3e99e543	0.30057725
132	0xbdcf1638	-0.1011166
133	0xbcbafc67	-0.022825433
134	0xbd01c37d	-0.031680573
135	0x3e970dc8	0.29502702
136	0x3e8bf5a9	0.2733586
137	0xbdc4635f	-0.09589266
138	0x3dad15f0	0.0845145
139	0xbe15bce2	-0.14622834
140	0xbeba0de6	-0.3633873
141	0x3e936fae	0.28796142
142	0xbe62336e	-0.22089931
143	0xbe03f90f	-0.12887977
144	0xbe1cc0fa	-0.1530799
145	0x3eda9758	0.4269359
146	0x3e87e5f3	0.26542625
147	0x3f021453	0.5081226
148	0x3ec1c830	0.37848043
149	0xbeb0a9a9	-0.3450444
150	0xbed43dce	-0.41453403
151	0xbeec67d7	-0.46172974
152	0x3e229aed	0.15879412
153	0x3e30e1d6	0.1727365
154	0x3e85afac	0.2611059
155	0xbe89f4fa	-0.26944715
156	0xbf19f78f	-0.6014337
157	0xbeeddbc7	-0.4645674
158	0xbde38f7d	-0.111113526
159	0xbe30c876	-0.1726397
