models/SNN_autoencoder_tsri_time3.pth (torch, 37205 bytes, 11 tensors)

encoder_conv1.weight f4 [32, 1, 5]
000000 fe b4 a9 3e ab 89 b2 3e 2b f6 8e 3c 19 67 bc 3e
       0.331459 0.34870657 0.017451366 0.36797407
000010 67 1c b9 3e c8 3b fe bc bf 98 28 3d 3e bb f6 3e
       0.36154482 -0.031034365 0.041161295 0.4818973
000020 9a b1 d6 3d 64 f0 89 bd 73 79 c9 3e bc 96 7b bd
       0.104830936 -0.06735304 0.3935047 -0.06142305
000030 cd 24 e1 3e 5a d8 0b bd 1f 45 04 3e fd 71 be 3e
       0.4397339 -0.034141876 0.12916993 0.3719634
000040 be 85 b8 3e 14 de 04 3f ae 38 48 be 55 ab 7e 3d
       0.36039537 0.51901364 -0.19552872 0.062175114
000050 00 6f 06 bd 7f 68 ea 3b ab 94 77 be bf 68 eb bd
       -0.0328207 0.00715357 -0.24177806 -0.11494588
000060 88 78 92 3d ca 10 3c bf 3e d2 79 bf d0 17 34 be
       0.07151896 -0.7346312 -0.9758643 -0.17587209
000070 25 c6 08 3d 42 2e b1 3e 7b c1 0a 3d 68 d5 9c be
       0.03339209 0.34605604 0.033875924 -0.30631566
000080 88 64 e8 be 1a 58 fc bc bb 3c ab bc 27 b1 66 3e
       -0.453892 -0.030803729 -0.020902982 0.22528516
000090 fb e6 4e 3f 48 b0 1e 3d 0f 73 c1 3c f4 67 15 3d
       0.808212 0.038742334 0.023614435 0.03647609
0000a0 4c 21 9d be 09 94 a9 be 5f d5 56 be 1b 7d 58 bd
       -0.30689466 -0.33120754 -0.20979832 -0.052853685
0000b0 9d 97 ec 3e 64 21 d0 bd ea 9f 93 be f2 44 2f be
       0.46209422 -0.10162619 -0.28832942 -0.17116144
0000c0 a7 8a 00 3e 11 34 4a be ea bc dd 3c c5 e4 1d 3d
       0.12552892 -0.19746424 0.02706762 0.03854825
0000d0 cd 46 5d 3c ca 4a 30 3d 51 c5 05 3d ba 2a c8 3d
       0.01350565 0.043040074 0.03265888 0.097737744
0000e0 dc 94 64 3f f2 76 2e bd ca c8 4c 3c d8 ad 85 3c
       0.8928964 -0.042593904 0.012499044 0.016318247
0000f0 28 5e 36 bb ee b6 f7 3e e8 15 01 3f df 13 4f 3d
       -0.0027827118 0.48381752 0.5042405 0.05055606
000100 3d 48 12 3d 49 b0 b1 be d4 c6 e9 be a0 0c 8c 3e
       0.035713423 -0.34704807 -0.45659506 0.27353382
000110 4d a3 7f be 44 6f d9 bd d6 42 bf bd f7 2c d1 3d
       -0.24964638 -0.10616925 -0.0933892 0.102136545
000120 bc ee 2e 3e d1 28 0c 3f 68 70 dc 3e 02 a0 4a be
       0.17083257 0.5474978 0.4305451 -0.197876
000130 2c 27 06 be 5e b7 67 be 75 9a 6e be c4 bf 5a 3e
       -0.1310088 -0.22628543 -0.23301108 0.21362215
000140 85 bc 04 bf 5d 61 04 3f 5e ac fc 3c ed 66 14 3f
       -0.5185016 0.51711065 0.03084391 0.5796955
000150 16 38 02 3f 76 eb 8b 3e 4b b2 d1 3d 2e 74 da 3e
       0.5086683 0.2732808 0.10239085 0.42666763
000160 83 e8 c4 3e 67 0a 71 3d a1 1f a9 3d a2 71 b5 3d
       0.38458642 0.05884781 0.08257986 0.08859564
000170 01 e6 da 3d d3 50 29 be 5e f7 92 3c 44 24 65 bd
       0.10688401 -0.16534738 0.01794022 -0.05594279
000180 c5 e4 d0 bd 01 7e 49 3f b0 28 9f 3a cd a7 36 3e
       -0.10199884 0.7870789 0.0012142863 0.17837448
000190 9a 90 14 be e8 26 a8 3e d6 93 38 3f a1 4f 5f 3e
       -0.14508286 0.32842183 0.7210058 0.2180772
0001a0 c0 3d 9e bd 48 73 28 3e 61 79 91 be 36 d4 a3 3e
       -0.07726622 0.16450226 -0.28412917 0.31997842
0001b0 09 4b 64 3f 06 51 5c 3d a7 2a 66 3d d9 c4 a1 3d
       0.89176995 0.053788207 0.05619302 0.07898874
0001c0 3e ac 2d 3d d1 06 3d 3d 75 27 16 3e ea 06 79 bd
       0.04240059 0.04614908 0.14663489 -0.06079761
0001d0 27 a9 b4 3e 63 cd bf be 31 09 ac 3d f5 8e 86 bd
       0.35285303 -0.37461385 0.084001906 -0.06570236
0001e0 6f 23 15 be f3 df c3 be cd d4 b7 be a3 31 49 be
       -0.14564298 -0.38256797 -0.35904542 -0.19647841
0001f0 d6 89 f4 bc 38 48 ec be 64 a0 9e bf a8 a8 28 3f
       -0.029850882 -0.4614885 -1.2392697 0.6588235
000200 5b cf f7 3e 73 b3 48 bb 66 b4 15 3f df e4 cf 3d
       0.48400387 -0.0030624538 0.5847839 0.101510756
000210 dd 30 ba bb 0f ed 81 39 c7 71 f8 3a fb 81 c5 bd
       -0.0056820945 0.0002478142 0.0018954807 -0.096439324
000220 2d 05 3f 3e b8 9f a6 be fd 2a 50 3d f3 d1 67 be
       0.18654318 -0.3254373 0.050822247 -0.22638683
000230 7e 97 f9 be 2b 2d 47 3e a4 36 fd be 4a 24 37 be
       -0.48748392 0.19450824 -0.4945575 -0.17884937
000240 0e f7 65 be 45 3e d9 bd 96 3b ad bd f4 1f 14 3f
       -0.22457525 -0.1060758 -0.08458631 0.57861257
000250 14 c0 aa 3e 0e c8 49 be f2 8b 0d be 8a 7b 10 be
       0.3334967 -0.19705221 -0.13822916 -0.14109626
000260 ba 99 f1 be 15 56 15 bf 70 ed 1f be f5 c8 3c bf
       -0.47187597 -0.58334476 -0.15617919 -0.73744136
000270 54 06 43 bf 8b e4 39 3f d3 c4 34 be 6a 60 b0 bd
       -0.7618153 0.72614354 -0.17653207 -0.086121395

encoder_conv1.bias f4 [32]
000000 59 5c 66 bc 78 0d 6b 3e e3 d7 90 3e c3 81 56 be
       -0.014060103 0.22954357 0.28289708 -0.20947938
000010 1f 6c f6 3e a1 6d f1 bc 39 0f f4 3e 57 ef 89 3d
       0.48129365 -0.02947122 0.47667864 0.067351036
000020 04 ca 09 3f f3 2c 1f 3f 36 b3 a0 3e 85 bc 76 3e
       0.53823876 0.6217796 0.31386727 0.24095352
000030 9e 8f 80 be b2 07 9f be 1f 15 e5 bd c6 c8 fd be
       -0.2510957 -0.3106056 -0.11185669 -0.4956724
000040 89 2d 13 bd 30 41 6f be 08 56 e3 3e 76 50 8a 3e
       -0.035932098 -0.23364711 0.44401574 0.27014512
000050 15 a1 0e 3d 04 ca 2b 3b da 49 09 3f b6 fa 00 3f
       0.03482159 0.002621294 0.53628314 0.50382555
000060 1f e3 52 be 94 a5 bb be c3 28 0e 3e ec 8e f0 be
       -0.20594452 -0.36649764 0.13882737 -0.4698404
000070 11 2f a2 3d ad e6 d0 3e 41 c7 92 3f b7 51 44 3e
       0.079191335 0.40800992 1.1467057 0.19171797

encoder_conv2.weight f4 [16, 32, 5]
000000 8c dc d3 3b bd 13 bb 3c 20 cc 5b bd ac d8 aa bc
       0.0064655 0.02283656 -0.053661466 -0.02085527
000010 eb 8a a3 bc 98 32 ea bc 1c 75 98 bc 01 cb 85 3e
       -0.019963702 -0.028588578 -0.01861053 0.26131442
000020 6b 07 1c bd e4 1c 3c bd a2 df 5d 3b 5d a3 56 bc
       -0.03809301 -0.04592599 0.003385522 -0.013100472
000030 30 49 dd 3e 85 9f 1d 3b 04 4f 68 3c ea 08 37 bc
       0.432199 0.002405138 0.014178995 -0.011171559
000040 be c1 b7 3c 7e 21 0a 3e 02 83 18 3d 68 93 46 3b
       0.02243125 0.13489339 0.037234314 0.0030300263
000050 26 af 0e 3d f4 25 08 3d d4 a1 9c bd 4c eb d0 bc
       0.034835003 0.03323932 -0.07648054 -0.025502823
000060 ce 5c f0 3c 90 66 a0 3d 16 95 e5 bd ba 5d a0 bc
       0.029341128 0.07832062 -0.112100765 -0.019575942
000070 ad f1 36 3e ae 7d c8 3c 1b ff 54 3c fe 04 8a bc
       0.1786563 0.024473991 0.013000275 -0.016848084
000080 18 84 bc be bb e2 98 3d 64 18 02 bd 48 cc 43 3b
       -0.3681953 0.074651204 -0.031761542 0.00298764
000090 c8 72 5e bc 73 3b 94 bd 37 f9 ca 3c bb 9b ff 3b
       -0.013577171 -0.072379015 0.024777038 0.007800547
0000a0 72 c4 bd bc 17 b5 76 bd ad bb 0f be f1 36 6e bb
       -0.023164961 -0.060231294 -0.14036436 -0.0036348666
0000b0 c5 ae f5 bc 7d 34 1f 3c c8 ca e2 3c 16 cf 31 be
       -0.029990563 0.009717104 0.027684584 -0.17364153
0000c0 57 4c 18 bd 28 7b 0d bc de f8 4a bd c0 8a 5b bc
       -0.03718218 -0.00863532 -0.049553744 -0.01339978
0000d0 83 3c d8 bd 5b 3a 87 bc 52 2d f3 bd ce 2d 18 3c
       -0.10558417 -0.016507318 -0.118738785 0.009288264
0000e0 46 f4 d8 3c 44 fe 16 3d 29 ff c7 3c e9 3e ea 3c
       0.026483666 0.03686358 0.024413662 0.028594451
0000f0 34 29 0f bb cc b5 19 3d d0 91 4b 3e d2 43 08 bd
       -0.0021844627 0.03752689 0.19879842 -0.033267803
000100 bf b7 f3 bc 8a f2 93 bc 9e b4 15 3d 58 48 07 bc
       -0.029750703 -0.018059988 0.036549203 -0.008256994
000110 11 ef 84 3d b1 07 0e bd df cb 8f bb 34 06 06 bc
       0.06490911 -0.034675304 -0.004388317 -0.00818019
000120 04 dd af bc 33 ff 11 3a c2 59 b1 3a 97 36 9b 3d
       -0.021467693 0.00055693387 0.0013530778 0.075787716
000130 72 41 32 bd 90 4c 44 bd 12 e1 68 3d b3 ac 9b 3d
       -0.043519445 -0.04792458 0.05685527 0.07601299
000140 7b 22 84 bb d6 e8 8d 3c 8b 20 65 bd 20 63 b1 bc
       -0.0040324307 0.017322939 -0.05593924 -0.021653712
000150 a4 22 ee bb e7 83 2b 3c 01 4e b2 3b 70 26 91 3d
       -0.007267313 0.01046846 0.0054414277 0.070874095
000160 bc 5c 7e bd d5 56 9f bc d8 95 08 bc 39 60 18 bd
       -0.062100157 -0.019450584 -0.008336507 -0.03720114
000170 a4 c1 05 3e 5a fd 47 bd 66 b0 9d bd 5e f5 76 bc
       0.1306215 -0.0488256 -0.07699661 -0.0150731485
000180 e6 1b 84 3c a5 db e5 3e f1 21 28 3c 14 1c fb 3c
       0.016126584 0.44894138 0.0102619985 0.030653037
000190 85 33 af 3c fb 7a 66 3c 6c 54 d8 3e 05 16 b3 bc
       0.021386871 0.014067407 0.4225191 -0.021861086
0001a0 de f6 22 3d a2 53 2d bb 8d e9 07 3c 85 86 55 3d
       0.039786212 -0.0026447554 0.008295429 0.05213024
0001b0 c7 70 b5 ba 23 74 d7 3b 86 49 ad bd 14 d2 22 be
       -0.0013842814 0.006575124 -0.08461289 -0.15900451
0001c0 75 79 01 be e8 40 0d be 15 92 1e be 3f 2f b2 bc
       -0.12643988 -0.13794291 -0.15485413 -0.021751044
0001d0 71 0a 0b 3c fd 01 8b be f3 22 ca bc 36 bb d7 bc
       0.008486376 -0.27149954 -0.024674868 -0.026334386
0001e0 51 f8 85 3d 40 94 a1 bd bd 99 98 3d 2a b5 7b 3d
       0.06541503 -0.078896046 0.07451198 0.06145207
0001f0 70 bd d2 3c c2 c7 eb 3d 49 30 cb bd 46 79 a7 3e
       0.025725096 0.1151271 -0.09921319 0.32709712
000200 b0 d8 0c 3c 2b 97 41 bd 4f f5 5e ba c2 37 e3 3c
       0.008596584 -0.047263306 -0.0008505182 0.027736548
000210 63 68 1c be 7c 8f 1f 3c fe 9a 87 3c 94 92 a2 bc
       -0.15274195 0.009738799 0.016553398 -0.019845285
000220 61 f8 60 bd 92 bd 42 3d 2c 0b 98 3c ce 1e 70 bd
       -0.054924373 0.04754407 0.018560015 -0.058623128
000230 cd 4c 34 bd 9d cb 88 3d 83 58 dc 3d fc 06 c8 bd
       -0.044018555 0.06679461 0.1075907 -0.09766957
000240 fc a2 e8 bd ec c0 b5 bb e7 cf de 3c 3a 04 fb 3d
       -0.11359212 -0.0055466797 0.027198745 0.122566655
000250 7f b7 a5 3b 39 d6 62 3d 34 26 95 3c 60 82 25 bc
       0.005057275 0.05538008 0.018206693 -0.010101885
000260 0e a0 da bd fd 2f b9 bc 2a da 82 3d 17 22 44 3d
       -0.10675059 -0.02260589 0.06389268 0.047884073
000270 da e7 89 bc 23 eb 8e 3c 6e 56 ab 3c fc 47 dd bc
       -0.016834188 0.017446106 0.020915236 -0.027011864
000280 34 f9 f2 3c fe 21 49 3d bc 76 f7 3d 03 3e 07 3e
       0.029659845 0.049104683 0.12083194 0.1320725
000290 5b 24 8e 3d d6 bf 6c bc 02 22 1f bc 48 b5 3d bd
       0.06940528 -0.014450034 -0.009712698 -0.04631546
0002a0 03 2f 77 bd 7b 60 c3 bd d4 55 a3 3d f9 25 fd 3c
       -0.06034757 -0.095398866 0.07975355 0.030901896
0002b0 57 19 9b 3c 33 f8 db 3d 07 d6 d8 3d 63 f6 92 bc
       0.018932981 0.107406996 0.105876975 -0.017939752
0002c0 13 0d 45 3c cf f9 2e 3d 9e aa cc 3c 62 d4 c6 3c
       0.012027043 0.042718705 0.0249837 0.024271194
0002d0 f1 53 19 be 75 20 92 be 2a 76 a1 3b 41 8b a0 be
       -0.14973427 -0.28540388 0.0049274163 -0.31356242
0002e0 93 3e df bd dd 23 70 3d 4e 9a ba bd 61 de 9f 3e
       -0.10900607 0.058627952 -0.091114625 0.3122435
0002f0 5f cb 49 3e 32 be bc bd dc 09 23 be 36 d3 99 bd
       0.19706486 -0.092159644 -0.1592173 -0.075109884
000300 14 ed f4 3d 67 7f 0d 3e 4a 2f 20 3d 90 bb 5e 3d
       0.119592816 0.13818131 0.0391076 0.054378092
000310 2f 4b 24 bc 28 77 86 bc 3f 29 60 3d bb d6 e3 3c
       -0.010027691 -0.01641424 0.054726835 0.027812352
000320 3e 6e a9 bd 7e c5 ac bd e1 c0 a4 3d 9c 60 1e 3b
       -0.0827298 -0.08436106 0.08044601 0.002416647
000330 39 c2 1d be 88 b3 a7 bd 0f ad 08 3e 7e ae 93 bd
       -0.15406121 -0.0818854 0.13347267 -0.07211016
000340 5e d0 bd bb 02 dd 60 bd a6 cc 1f bf ca 1d d1 be
       -0.0057926616 -0.05489827 -0.62421644 -0.4084304
000350 5d 7a 25 bf e0 d0 dc be 39 61 42 bf 13 32 bf 3d
       -0.64639837 -0.4312811 -0.759296 0.09335723
000360 6a 8d 8e 3d 68 60 ff 3c 50 d2 bf 3c 51 0c a7 3d
       0.06960566 0.0311739 0.023415715 0.08156646
000370 3f b8 41 3d 29 68 99 bd d4 a1 f6 bd 78 9f 24 be
       0.04729485 -0.0749057 -0.12042585 -0.16076458
000380 dc 76 10 bc 5a 6b 57 3d e6 29 6f 3d d0 2e cc 3b
       -0.008817401 0.052592613 0.058389567 0.0062311664
000390 66 0f 48 3d 84 63 38 bd 55 b8 10 3c 47 b5 12 bd
       0.04884281 -0.04501678 0.008833011 -0.03581741
0003a0 63 3a ad 3e dd be 0a 3d b9 b7 16 bd aa 25 3f 3d
       0.33833608 0.033873428 -0.036796305 0.04666678
0003b0 f4 bf 80 bd 84 56 63 bd c4 3a 15 bd f0 bc eb 3b
       -0.06286612 -0.05550243 -0.036432996 0.007194154
0003c0 3e 36 43 3c a1 b3 72 3c f8 4e 2a 3e 51 0e d6 3d
       0.011914788 0.014813335 0.16631687 0.104519494
0003d0 b6 e3 46 3d 1d c8 de bb bf 4b 21 3d fd 28 70 3d
       0.048557006 -0.0067987577 0.039378878 0.05863284
0003e0 b0 0d ec 3d 08 c2 5f 3d e3 42 09 3d 4a a9 25 bd
       0.11526048 0.054628402 0.033511054 -0.04044465
0003f0 f5 9c d1 bd 41 17 22 bc e9 59 08 bd 34 d0 89 3b
       -0.10235015 -0.0098932395 -0.03328887 0.004205728

encoder_conv2.bias f4 [16]
000000 51 1a 19 3f 04 43 d4 3e 5f 11 ee 3e 6a 3e ff 3e
       0.5980578 0.4145738 0.46497628 0.49852306
000010 de 56 13 3f 80 e1 73 3e 98 6f 22 3f 1f 92 08 3f
       0.57554424 0.2381649 0.6345153 0.53347963
000020 71 57 86 3d 64 31 ce 3e bb 28 c3 3e ad 65 bc 3e
       0.06559647 0.40272057 0.38117012 0.36796322
000030 28 21 fc 3e bb 25 50 3e 37 01 08 3f 54 e3 eb 3e
       0.49244046 0.20326893 0.53126854 0.46071875

encoder_conv3.weight f4 [8, 16, 5]
000000 5e 70 b3 3d 2f 4d 22 3c ac b8 b2 bc ca ff 2a 3d
       0.08761667 0.009906097 -0.021816574 0.041747846
000010 fd 00 1c bb 29 06 9e bb 2f 39 7e 3d 19 66 bf 3c
       -0.00238043 -0.0048225117 0.062066253 0.023364114
000020 d0 96 2f bb 95 b8 98 3c 13 c9 09 3c fa 75 c5 bc
       -0.0026792772 0.018642703 0.008409756 -0.024104107
000030 c6 90 6f bc d6 4a da bc d1 f8 bc bc 78 0a b0 3c
       -0.014621919 -0.026647013 -0.023067864 0.021489367
000040 33 7e 5b bd cd fa fe bc 0d e0 08 bd 80 1d c6 bc
       -0.05358715 -0.03112545 -0.033416796 -0.024183989
000050 ca a0 bb bb 68 0d a8 ba fb d2 57 bc af 78 f9 bc
       -0.0057259547 -0.0012821378 -0.01317286 -0.030453054
000060 43 62 dd bb 24 e8 eb 3d ef 9a a1 3a 4c ae 1c 3c
       -0.0067560985 0.11518887 0.0012329499 0.00956304
000070 22 36 f1 bc 89 bd 04 3d c2 0b 2e bd 0c e3 c5 be
       -0.029444758 0.032407317 -0.042491682 -0.38649786
000080 18 b8 1e bd cc d9 82 bc b2 d7 46 bd 8b 3b 23 3d
       -0.038749784 -0.015972994 -0.048545547 0.039851706
000090 76 67 4a bc 38 d2 a0 bd 0e d1 b6 bc 09 c6 2a bd
       -0.012353769 -0.07852596 -0.022316482 -0.041692767
0000a0 5f af 0a 3d 24 d5 8a 3d 4d 2f 03 bd 33 b9 42 bd
       0.033858653 0.067789346 -0.03202753 -0.0475399
0000b0 63 04 0a bd 7b 96 3b 3d 51 fe 94 bd 00 be a2 bb
       -0.03369559 0.045797806 -0.072750695 -0.0049664974
0000c0 c3 68 ba 3b ae 0a 6e bc fe 85 88 3c fa fc 42 3c
       0.005688758 -0.014528913 0.016665455 0.011901135
0000d0 c1 61 7d 3c d9 d5 8e 3d f0 2e 21 3c fb 1e cc bd
       0.015465201 0.06974382 0.009837851 -0.099668466
0000e0 5b e0 1a 3d 69 00 c3 bc 9a 35 85 bb d7 96 6a 3a
       0.03781162 -0.023803907 -0.0040652277 0.00089488685
0000f0 c0 61 f1 bc b0 d1 8f 3b b0 eb 0d 3c 8d 9f 9b 3c
       -0.029465556 0.0043890104 0.008662149 0.018996978
000100 4e 35 a6 ba 77 0e 73 3d 09 40 00 3c a1 79 55 3c
       -0.0012680681 0.059339967 0.007827767 0.013029487
000110 15 47 20 3c a1 7e 2e 3c 28 b2 ef ba b9 c5 39 3e
       0.009782572 0.010650308 -0.0018287348 0.18141831
000120 1d 5d e2 ba 4d 48 f5 bb 26 b4 0a bc 47 20 db 3c
       -0.0017270182 -0.0074854256 -0.008465802 0.02674879
000130 ff ef b7 3e a7 e2 d2 bc 43 2b 16 3c af 25 04 bc
       0.3592529 -0.025742842 0.009165588 -0.008065625
000140 48 fd 54 3e 3c 9b 4d 3e 57 29 17 bd 41 f2 d4 3b
       0.20799744 0.20078748 -0.03690466 0.0064986055
000150 5a 8e ab 3c 28 6c 60 3d f8 2a 50 3e c6 3d e8 3c
       0.020941902 0.054790646 0.20328891 0.028349768
000160 e9 92 0c bd 33 48 02 3d 40 6c b6 3b 11 15 18 3e
       -0.034319792 0.031807136 0.0055671036 0.14851786
000170 a1 84 85 bd 39 62 42 bd 46 0b 35 bc f6 1e a8 bb
       -0.065194376 -0.047456954 -0.011050051 -0.005130644
000180 5d c0 7b bd 19 1f 2c bd 96 bf 49 bd c4 8c ba bb
       -0.06146275 -0.042021845 -0.049254976 -0.00569305
000190 fc 9c 26 bd 9c 36 d0 bd 37 f9 2b bc cd 3f 66 bd
       -0.040677056 -0.10166666 -0.010496429 -0.05621319
0001a0 a1 f5 30 bc dc d2 18 bb 80 d9 37 3e 4a 10 4e 3c
       -0.01080075 -0.0023319041 0.17954063 0.012577126
0001b0 63 72 25 bd 1e 1b fa 3c 53 62 8a bd 83 81 7a 3d
       -0.04039229 0.030530509 -0.06757035 0.06115867
0001c0 70 ce 80 bd 82 43 96 bd b4 3f 05 bd 17 51 2c 3d
       -0.06289375 -0.07337095 -0.032531455 0.04206952
0001d0 53 0f a5 3d d7 1b fb bd 7b 17 b9 bc 3e b3 c1 bc
       0.080595635 -0.122611694 -0.022594204 -0.02364504
0001e0 fb 04 1a bd f6 7f 34 be 3b fd 54 bd 85 71 73 bd
       -0.037602406 -0.17626938 -0.051999312 -0.059434433
0001f0 38 06 cd bc 60 b2 3a bc 1a 38 d5 3c a9 2e fe bc
       -0.02502738 -0.011395067 0.026027728 -0.031028109
000200 cd 49 30 3c fc 3e 07 bb 80 b2 43 3d 64 3c 5d bc
       0.010759783 -0.0020636907 0.047777653 -0.013503168
000210 ba 61 e2 bc 78 fa 45 3d 34 57 b6 3d ad 2f 36 3f
       -0.02763449 0.04833457 0.089033514 0.711665
000220 da 4a 54 bd cd 98 f4 3c cb c1 4a 3d 89 b9 4b 3c
       -0.051829197 0.029858017 0.04950122 0.012434372
000230 e3 54 8e bb a1 24 dc 3c 8b 28 ea bc b5 f0 9e 3d
       -0.0043436154 0.026872935 -0.028583786 0.07760755
000240 1b c3 67 3d 35 ac 3e 3d fd 7f 66 3c 69 4a f6 b9
       0.05658255 0.04655095 0.014068601 -0.00046976216
000250 f5 c9 59 bd f3 c4 78 3c 44 44 1e 3c ad 15 52 bd
       -0.053171117 0.015183675 0.0096598305 -0.051290203
000260 ee b3 71 3b af ef 52 bc e2 d9 42 bc 8c 23 66 bc
       0.0036880928 -0.012874528 -0.011892768 -0.014046561
000270 09 da 87 3c 85 64 af 3c 80 de 9a bc c3 f6 91 bc
       0.01658346 0.021410236 -0.018904924 -0.01781786
000280 04 ae 4f 3c 15 48 8b 3b d2 e1 f9 3a b8 dc f7 3d
       0.012675766 0.004250536 0.0019064492 0.12102646
000290 54 81 dd bc c2 4f f2 3b 9e 6a 15 be 35 74 20 b8
       -0.027039208 0.007394762 -0.14591452 -3.82552e-05
0002a0 8e 1b b3 3d 1a 3b 1a bb a2 63 3c bd c0 26 99 3d
       0.0874549 -0.0023533762 -0.045993455 0.07478094
0002b0 57 43 39 3d eb 27 81 bc 05 6d 5e bd 31 9f 0d bc
       0.045230236 -0.015766105 -0.054303188 -0.008643911
0002c0 5f db 96 bd 3f a1 8e ba 05 18 f0 bc a3 31 9c bc
       -0.073660605 -0.0010881795 -0.029308328 -0.019066637
0002d0 cd a9 85 3c b8 7c 7a 3c c7 ad f8 bb 26 6f 59 bc
       0.016316319 0.015288524 -0.0075890752 -0.013271129
0002e0 1d 5c 09 bc 29 65 40 3c 62 f7 d4 bb 64 36 f1 ba
       -0.008383778 0.011742868 -0.006499217 -0.001840305
0002f0 9f a2 9d 3d ca 6e 21 bc 06 9b 72 3b 88 e2 43 3d
       0.07697033 -0.009853074 0.003701867 0.04782346
000300 14 63 83 3b 45 8b e3 3c 2f 32 7e bd b6 36 fb bb
       0.004009614 0.02777637 -0.062059578 -0.007666434
000310 05 1c 1e 3c 51 ae 8d 3c 0b e6 e7 3c 2c fa 0f bd
       0.009650235 0.017295035 0.028307935 -0.035150692
000320 f4 2e 88 3c bb b3 55 bc d8 06 1b bd a2 5f 48 bd
       0.016623951 -0.013043339 -0.037848324 -0.048919328
000330 ac 61 dd ba cb ce 4a bd 10 f0 b8 bd 4f f2 b7 3b
       -0.001689007 -0.04951362 -0.09030163 0.005613602
000340 8f bd 58 3a 82 43 0b bd 57 14 19 3b f9 d1 a3 bc
       0.00082679925 -0.033999927 0.002335807 -0.019997584
000350 e8 c5 b6 ba 6f 73 50 bc 05 4d 9e bc 13 14 1f 3d
       -0.0013944479 -0.012722834 -0.019323835 0.038837504
000360 24 54 01 be a2 85 c5 bd 1e 94 39 bc fc 2b 75 bc
       -0.12629753 -0.09644629 -0.011326818 -0.0149641
000370 d4 86 02 bb 16 03 d3 bb 24 d8 28 3c 2c cf 68 bd
       -0.001991679 -0.006439577 0.010305438 -0.0568382
000380 8b 30 e4 bc 3d 71 67 bc d9 72 ab be 76 3c 9b bb
       -0.027855178 -0.014126119 -0.3348606 -0.004737432
000390 a0 8d ef 3a 53 3f 4c bc a4 e7 2b 3d 15 9d d1 3c
       0.001827646 -0.01246627 0.041968957 0.025587598
0003a0 b9 b1 8e 3b 58 43 84 bc fc 97 76 3c c5 3b c3 3c
       0.0043546823 -0.016145393 0.015050884 0.023832211
0003b0 89 e7 c7 bc ed 3e 01 bd 11 10 3f 3c 36 2e 5c ba
       -0.024402397 -0.03155415 0.011661545 -0.000839922
0003c0 05 ef 83 be 6b ec 03 bd 6b 9b c3 3a 56 75 36 3d
       -0.25768295 -0.032207888 0.0014923638 0.044545494
0003d0 91 98 4f bc 66 53 3f ba 55 0c 90 bd c2 fb 9b 3c
       -0.012670652 -0.0007298499 -0.07033602 0.019040946
0003e0 bf 10 d3 3c ab 3d 96 3b f0 cf 93 3e 3b 23 2a be
       0.025764821 0.004584988 0.2886958 -0.16615002
0003f0 aa b8 89 bc 44 8a 60 3c f3 00 c4 bd e0 0d 69 39
       -0.016811687 0.01370484 -0.095704935 0.0002222578

encoder_conv3.bias f4 [8]
000000 2a 7a 1d 3f 63 fb af 3e 05 88 8e 3f 69 51 3b 3f
       0.6151453 0.3437148 1.113526 0.731711
000010 8e af 7f 3f 40 4a 40 3f 9a c6 c2 3e 7c 74 c6 3e
       0.9987725 0.75113297 0.38042146 0.38760746

deconv1.weight f4 [8, 16, 5]
000000 35 41 7b 3d 6e 20 ad 3e 42 73 cc 3d 00 54 36 bd
       0.061341483 0.33813804 0.09982921 -0.044513702
000010 ab b5 9a 3c 31 21 81 be a0 d3 d0 3d e4 6b 01 bd
       0.018885454 -0.25220636 0.10196614 -0.031597033
000020 4c 49 25 3d 99 71 7b 3c 65 a1 ce bc 7f 53 0e 3f
       0.040353104 0.015346908 -0.025223443 0.55596155
000030 8c 86 c5 3d 81 0b a3 bd 93 42 8c bd 00 78 c7 bf
       0.096448034 -0.079611786 -0.068486355 -1.5583496
000040 8d 42 29 bf 14 4b bd 3c 7a 43 1e 3c 9a d6 01 bd
       -0.66117173 0.02310709 0.009659642 -0.0316988
000050 4c 4a ee bd 6a 62 32 bd 7c 8b e0 bd 5b 55 e5 3c
       -0.11635265 -0.043550886 -0.109641045 0.027994802
000060 ef 58 88 3d 3c 26 ce bd 70 2a 1c 3e b6 28 e9 bd
       0.06657588 -0.100658864 0.15250564 -0.11384718
000070 53 b1 2d 3d 6c 10 9a 3d df 74 84 3d ed ae e8 bd
       0.042405438 0.075226635 0.06467604 -0.113614894
000080 35 62 01 bd 84 a6 99 3c 70 1d bb bc e9 32 8e 3e
       -0.0315878 0.018756159 -0.022841185 0.27773216
000090 a9 62 a4 3e 09 5c 56 3d 3d a2 8f 3d ea 19 b3 3c
       0.32106522 0.052333865 0.07013366 0.021862943
0000a0 86 d9 85 3e c4 ad 6d be e3 fc 68 3d a9 2a 1c 3d
       0.2614252 -0.23210818 0.056881797 0.03812662
0000b0 d1 19 bd bc 94 16 50 3d cf f3 b5 3c 94 f4 a2 3c
       -0.0230836 0.050802782 0.022210984 0.019892015
0000c0 26 16 a5 3d 3b 60 5f bc a4 2c fc 3d 65 bc ce 3e
       0.08060865 -0.013633783 0.12313202 0.4037811
0000d0 e2 75 d0 3c 5d 5d 2e bd 73 c2 bf ba 81 a3 a1 3e
       0.025446836 -0.042569507 -0.0014630094 0.31570056
0000e0 d0 4c 96 39 b3 27 c6 bc 90 7f ed 39 26 b1 6c 3d
       0.0002866746 -0.024188852 0.00045299204 0.05778613
0000f0 b4 cb 1b 3e 4b 6d 93 3d 0c 53 8f 3d 7c 6d 1b 3d
       0.15214425 0.0719858 0.06998262 0.03794621
000100 37 2c 32 bc a7 57 11 3e e8 f3 5f 3e 71 d3 18 3d
       -0.010874799 0.14193593 0.21870387 0.03731102
000110 5b df 6e 3d dd 62 5a bb ff 30 02 3f 80 5f 12 3e
       0.058318477 -0.0033323087 0.5085601 0.14294243
000120 e9 ba ec 3a 0d 23 8b 3b e6 ba b5 bb 0a 6c 24 3e
       0.0018061075 0.0042461217 -0.0055459617 0.16056839
000130 99 db 87 bb 98 f2 22 bb f1 53 90 3c da 1b 1f bd
       -0.004146051 -0.0024863835 0.017618151 -0.03884492
000140 ea e8 05 3d 0a e1 21 3d 42 4f ec b9 42 8e 0c bd
       0.032692827 0.039521255 -0.0004507248 -0.034315355
000150 9a 8b a6 3c 4e e5 b6 3d 28 97 76 3d 2a e0 e9 3b
       0.02033024 0.08930455 0.060202748 0.007137318
000160 de d6 92 3c 5d 3d 47 3c 3e 52 75 3d 87 5c 75 3d
       0.017924722 0.012160626 0.059892885 0.059902694
000170 c3 f8 58 3d 08 06 a7 bd 26 41 68 bd 9b 21 cf bf
       0.052971613 -0.08155447 -0.056702755 -1.618213
000180 e1 52 2a bf e4 55 3e 3d d2 e7 02 bc cd dc 1d bd
       -0.66532713 0.04646863 -0.007989841 -0.03854065
000190 39 0e ca 3d b1 c6 9f 3d 6c d9 13 ba 75 fc e4 3b
       0.09865994 0.07801569 -0.00056400034 0.006988103
0001a0 ca c6 2b 3d 2d 1b 07 bd 8e be 28 3d 15 a3 92 bc
       0.041937627 -0.0329849 0.041197352 -0.01790003
0001b0 6c 42 37 3d 40 10 76 3d 0b 4e 18 3e 92 fb 4d bd
       0.04474108 0.06007409 0.14873521 -0.050288744
0001c0 78 a8 f2 3c ca d5 a0 3b f5 ec f0 bc 04 4d a3 3e
       0.029621348 0.004908298 -0.029409865 0.31894696
0001d0 6c c1 71 bc a9 e8 c3 3b 3c ce 9b 3d 73 a7 2c 3c
       -0.014755588 0.005978663 0.076076955 0.01053797
0001e0 06 42 84 3e 9d 09 08 3e 71 66 4c 3c ee 79 97 3b
       0.25831622 0.13284917 0.012475596 0.0046226894
0001f0 3f 1c 81 3b 62 d6 da bd 21 b0 f9 3c b9 52 ab 3c
       0.003940135 -0.106854215 0.030479493 0.020913469
000200 54 93 3d 3d 38 f1 d0 bc 25 ec 48 bd 38 a3 89 3e
       0.04628308 -0.025505647 -0.04905333 0.2688234
000210 cb ee 19 3b 8a bf a4 bd e0 07 da b8 b5 2b a9 bd
       0.002348828 -0.08044346 -0.00010396517 -0.082602896
000220 43 80 35 3c 0a fe 93 bc f1 23 a7 bb a7 88 0a 3d
       0.011077943 -0.018065471 -0.00510072 0.033821728
000230 15 1e 18 be 41 ea 3c bd 41 1a 29 3d 6c ed 5c 3d
       -0.14855225 -0.04612184 0.041284803 0.05393736
000240 7e 0d 4f bc 83 13 76 3d 23 30 04 3e 20 9d cd 3c
       -0.012637494 0.0600772 0.12908988 0.025099337
000250 c9 f8 be 3c 29 96 64 3b bd 93 7d 3d af f4 c7 3b
       0.02331199 0.0034879541 0.061908472 0.0061021666
000260 27 f9 47 3d b9 de f2 bb 16 bb 77 bc 6f c6 8d bd
       0.048821595 -0.0074118045 -0.015120288 -0.06922614
000270 fc b4 d8 3d 38 c8 64 3d ca a0 71 3b a1 ae 68 bd
       0.10581395 0.055855006 0.003686952 -0.056807164
000280 93 d6 2a 3e 5e 99 74 3d ac 31 14 bc a1 7b d2 3c
       0.16683416 0.059716575 -0.009045046 0.025693716
000290 9b 63 09 bc 67 b1 81 3d 42 da 71 be 86 0e 17 bb
       -0.008385564 0.06332665 -0.23618415 -0.0023049428
0002a0 fd 4d f3 3d 31 65 1f bb 82 98 96 3d c0 55 1b bf
       0.118801095 -0.002432179 0.07353307 -0.6067772
0002b0 13 d9 33 bd fe 46 e0 bc 58 de 05 3e e6 c5 cc bf
       -0.04390819 -0.027377602 0.13073099 -1.5997894
0002c0 19 0c 2a bf 1b 27 e6 bc c1 7e 48 3d 51 b4 b5 3d
       -0.6642471 -0.028094819 0.048949007 0.08872283
0002d0 3a da 0c 3e e3 82 8e 3e 99 e0 27 3e 0a fc 3b 3e
       0.13755122 0.27834234 0.16394271 0.18357864
0002e0 c0 a0 d8 3c db 88 9e 3d 3c 82 9d be 44 8e f8 3d
       0.02644384 0.07740947 -0.30763423 0.1213651
0002f0 a7 bf 31 3d d0 ca 26 bd d6 b5 b2 3d 7f 5d 4d be
       0.043395665 -0.04072076 0.08726089 -0.20055197
000300 ff ea 10 be 8d 8d bc 3d f0 05 c9 3d ea 91 d8 ba
       -0.14152144 0.09206686 0.098155856 -0.0016522978
000310 c2 f4 8f bd c0 b5 92 3c b1 6a d3 bc 7d 19 08 3c
       -0.07029106 0.01790893 -0.02580771 0.008306858
000320 24 1b af bd 80 bb 48 3c d5 50 4d bc 79 00 57 3e
       -0.085500985 0.012251735 -0.012531479 0.20996274
000330 33 11 cf bd 2c 62 1c 3d 9c 41 77 3e 9f e3 d2 3d
       -0.10110702 0.03817956 0.24146122 0.102973215
000340 d1 37 38 3e 02 c1 b9 3d 8c 9b 10 bd 92 28 31 bf
       0.17990042 0.090700164 -0.03530459 -0.6920253
000350 f2 80 4e 3d dc 00 94 3e 39 7d b0 bb a6 5b 9a bd
       0.05041594 0.28906906 -0.0053860215 -0.07537012
000360 c3 af df be 89 bb af 3e dd c1 12 bc 1e f0 85 3c
       -0.43688783 0.34322765 -0.008957353 0.016349848
000370 7a 6a c1 3d c1 d6 f6 3e 59 b4 28 3e 12 6b c4 bd
       0.09444137 0.4821072 0.16475047 -0.095907345
000380 d3 7a 9e 3d 58 7f 18 3d c6 e3 1d 3e 92 86 6a 3d
       0.077382706 0.03723082 0.1541892 0.057257243
000390 24 9b 87 3e aa d6 70 3d 30 28 9a 3c 0c e7 5f be
       0.2648555 0.05879847 0.018817991 -0.21865481
0003a0 2b 96 9b 3d 7a 40 b9 3d e8 30 d2 3d 98 01 27 3c
       0.07597002 0.09045501 0.102632344 0.010193251
0003b0 3a 0d 0a 3d 2c 85 8b 3c 1e 22 21 3e d7 c2 ed 3d
       0.03370402 0.017031275 0.15735671 0.116094284
0003c0 c2 c8 00 be 9c 40 a4 3c 9e 50 46 bc 49 ff 50 3c
       -0.12576583 0.02005034 -0.012104182 0.012756177
0003d0 22 85 00 bd 76 53 b9 3d 94 fa 63 bd 0c 0a 00 3c
       -0.031376965 0.09049122 -0.05565889 0.007814895
0003e0 df ca 12 bd 15 72 a4 3d 3a 21 65 3d 8c d4 ec bd
       -0.035838004 0.08029572 0.05593989 -0.115639776
0003f0 55 13 e9 3c b4 c9 60 bc c4 6c 3d 3e 47 20 cd bf
       0.028451601 -0.013719965 0.18498522 -1.6025475

deconv1.bias f4 [16]
000000 63 15 ac 3e d5 4f b4 3e 05 93 d2 3d a0 9c d6 3e
       0.33610067 0.35217157 0.10281948 0.4191637
000010 56 20 68 bc 0f a0 76 3e 18 0c ba 3e 7a 29 25 3e
       -0.014167866 0.24084495 0.36337352 0.16129103
000020 82 5f 4e 3e 8b 7b 18 3e 67 e7 7c 3e f4 a6 7e 3e
       0.20153621 0.14890878 0.24697648 0.24868375
000030 5e f8 cd 3d d0 7e 57 be 3d 3c 5a 3e 77 3f 4b 3e
       0.10057138 -0.21044469 0.21312042 0.19848429

deconv2.weight f4 [16, 32, 5]
000000 69 57 ce bd 60 10 c0 3d 47 c3 2e 3a 20 5c bb 3c
       -0.10075266 0.09378123 0.0006666672 0.022871077
000010 8f 40 7b 3d 94 b7 a5 3d 45 2b b2 bc c7 5c 34 3d
       0.061340865 0.080916554 -0.021749148 0.044033792
000020 57 c7 30 3d f5 ad 8a 3d 9c da 0f 3e ba 55 37 bf
       0.043158855 0.06771461 0.14048237 -0.71615183
000030 1a a0 77 3d 30 31 df 3c 35 fd 2b be d3 12 d9 3d
       0.06045542 0.027245134 -0.1679581 0.105992936
000040 26 91 99 bd e5 9d 6c bd 9f d2 59 bd fb 83 86 3c
       -0.07498388 -0.057767767 -0.05317938 0.016420355
000050 9a 4c 4e be e8 40 c9 bd 86 82 21 be 8c 70 01 be
       -0.20146409 -0.09826833 -0.15772447 -0.1264059
000060 86 a5 8f 3d 58 d1 94 be 86 fa 0a 3e 92 56 da 3d
       0.07013993 -0.29065967 0.1357213 0.10661043
000070 e7 ad 7f 3d 2a 2d de 3e 3a 55 00 3e a5 3e 2a be
       0.062421706 0.43393832 0.12532511 -0.1662546
000080 4a 11 47 3e e5 22 71 3c e6 5f 2e 3c e9 44 b1 3c
       0.19440189 0.014717792 0.010642981 0.021639304
000090 21 8c f2 bd 93 b7 50 3e 3f 30 b6 bd 54 2e 63 bd
       -0.11843134 0.20382528 -0.08895921 -0.055464104
0000a0 37 f2 6c ba eb bb bc bd fc ba 84 3c 58 88 7c 3d
       -0.00090387784 -0.0921553 0.016202442 0.061653465
0000b0 11 f4 2d 3b f3 9f ba 3d 7b e0 f9 bd 77 a4 be 3c
       0.002654318 0.09112539 -0.122010194 0.023271782
0000c0 fd 45 c4 3d 00 79 15 3e ba 11 93 3d 5c c3 b8 be
       0.09583662 0.14596939 0.071811154 -0.36086547
0000d0 e6 fd aa 3e 6f 38 28 bd a3 5d 18 3c 92 66 a2 bd
       0.33396834 -0.041069444 0.0092996685 -0.0792972
0000e0 1b 18 46 3d bb ed 57 3e 06 80 c7 3d ed 1e 17 3e
       0.048362833 0.2108678 0.097412154 0.14757891
0000f0 cd b0 0b 3e fa b3 04 3f e7 50 e2 bc 97 ca 68 3d
       0.13641663 0.5183712 -0.027626468 0.05683383
000100 bc 83 45 bc fd 7b 17 3b 20 5a f7 bd 1e da 97 3c
       -0.012055334 0.0023114674 -0.12077737 0.018536624
000110 a2 ea dd bb b0 48 b7 bd 3c 96 95 3d d3 75 96 bd
       -0.006772355 -0.08949411 0.073040456 -0.07346692
000120 88 1d 56 bd c1 91 82 bd 5f 2b d6 3c 28 39 15 bd
       -0.052274257 -0.063754566 0.026143728 -0.03643146
000130 c7 09 87 3d 6a 09 61 bd 8b 8e 24 3e 2a 1d 9c bd
       0.06593662 -0.05494062 0.16070001 -0.0762275
000140 f1 d1 5e be 8f 5c 6a 3d d7 b3 f2 bd 3f e2 88 3d
       -0.21759774 0.057217177 -0.11850708 0.06683778
000150 c3 b4 58 3e 4c d7 83 3d 43 aa b7 3c 56 79 45 3d
       0.21162705 0.06437549 0.022420054 0.048211418
000160 e7 a8 28 bc 12 41 df 3d e8 5a 4d 3e ab 48 e0 3b
       -0.010294176 0.10901083 0.20054209 0.0068446
000170 c0 a1 02 3e 56 75 c6 3d 3e 31 5b 3c 5f 0d d8 bc
       0.12757015 0.09690349 0.0133784395 -0.026373563
000180 80 cd a4 bf 4b b3 2e 3e cf 37 02 3e 2f 91 81 3d
       -1.2875214 0.17060582 0.12716602 0.0632652
000190 71 63 0d 3e 95 3b 38 be 1a ec 16 3e 69 8c 46 bb
       0.13807465 -0.17991479 0.14738503 -0.0030296093
0001a0 49 2b 15 bd 1e 82 70 bd c8 d6 1d 3e 72 d1 bc bc
       -0.036418233 -0.05871784 0.15413964 -0.02304909
0001b0 1b cb 1f 3e 5e 92 06 3e 5e 55 9d 3e 99 0c 36 3d
       0.15604822 0.13141772 0.30729192 0.044445608
0001c0 84 6c ee 3e 13 73 de bc 98 7e 05 3d ed f7 8e 3e
       0.46567166 -0.027154481 0.032591432 0.27923527
0001d0 ab 08 b0 3d 2a 08 f4 bd 63 37 3b be e9 0f 07 3e
       0.08595403 -0.1191562 -0.18282847 0.13189663
0001e0 45 7b 9d be 63 2e c2 3d d0 22 57 bd 19 72 c2 bd
       -0.3075811 0.09481504 -0.052523434 -0.09494419
0001f0 ec 55 ac 3e 7d c4 8e bd 43 27 1c 3e f0 a1 e8 3d
       0.33659303 -0.06971071 0.15249352 0.11359012
000200 31 5f 72 bd 88 e2 8e bc 69 5d c2 bc bc 39 9b 3e
       -0.059172813 -0.017442003 -0.023726182 0.30317485
000210 cd 8a a7 bd 1b 80 6f 3d b5 4f 20 3e 27 2c 9d 3e
       -0.08180771 0.05847178 0.15655406 0.30697748
000220 bf 0e 72 bb 31 2f 0a 3d 9d 4c 39 3d 79 7d 73 3e
       -0.003693506 0.03373641 0.04523908 0.23778333
000230 fa 42 ce 3d 05 38 5f bd e6 9e b8 3d 61 b1 44 3d
       0.100713685 -0.054496784 0.090146825 0.048020724
000240 06 96 90 3d 2c cd cf 3d 18 48 5a 3e dc ff b7 bc
       0.07059865 0.10146555 0.21316564 -0.02246087
000250 6f b6 e5 bc 83 e4 c7 3d c7 0e 41 be d1 ed ad 3d
       -0.028041093 0.09760382 -0.18853293 0.084926255
000260 ce cc 89 3d 92 0c ca 3b 5f 33 05 3e 44 e5 e6 3c
       0.067285165 0.0061660493 0.13007878 0.028185494
000270 42 aa f1 3d 58 19 17 3e 1b f0 69 bd dc 17 95 3d
       0.11800052 0.14755762 -0.057113748 0.072799414
000280 7b d6 9b bd d1 96 f4 bb d4 31 f5 3d ec f9 ba bd
       -0.07609268 -0.007464268 0.119723946 -0.091297
000290 fa c1 9f 3d 6b 75 85 3d f9 bb 1a bc 6a 64 0c 3e
       0.0780067 0.06516536 -0.00944423 0.1371018
0002a0 7a 53 fe 3d 97 ba fc 3d 10 20 14 be 14 e1 9b be
       0.12418266 0.12340277 -0.14465356 -0.30445158
0002b0 d1 5f 8f 3e f8 aa 51 bc 1b a8 9d 3d 94 5d 63 3d
       0.2800279 -0.01279711 0.07698079 0.055509165
0002c0 31 49 e1 3e 1e ed 9a bd 67 5e a5 bd db 5e 93 3d
       0.44001153 -0.07564758 -0.080746464 0.071958266
0002d0 ca 38 03 be 87 5b 76 bd 2a d5 42 3d 45 97 00 be
       -0.12814632 -0.06014588 0.04756657 -0.12557705
0002e0 4b 0b 1f 3e 3b 1a 4c 3d 62 f4 cd 3e 88 9c 6c 3e
       0.15531652 0.049829703 0.40225512 0.23106587
0002f0 27 05 90 b9 bd a0 92 3e e8 8a 0d bc 7b fa d4 3c
       -0.0002746966 0.2863826 -0.008639075 0.025998345
000300 29 44 be 3d 26 3a 0c 3e ef 16 dd bc 7c 16 f9 3c
       0.09290344 0.13694057 -0.026988475 0.03040623
000310 95 54 94 bc c0 f2 75 3e 2c 17 21 3d b1 8b 0f 3d
       -0.018106738 0.24018383 0.03932874 0.03504533
000320 77 fc 25 3c ab e1 e2 ba 70 7f ca bc f4 73 4a be
       0.010130993 -0.0017309686 -0.02471897 -0.19770795
000330 3e a7 43 bd b7 00 db 3c ce f4 64 3e 9f 36 4b bd
       -0.047766916 0.02673374 0.2235901 -0.049612638
000340 ae 45 ca 3d a9 51 b7 3d 2a e3 7c bd f3 79 88 be
       0.098765716 0.08951122 -0.061740078 -0.2665554
000350 27 45 05 3e 9c 60 aa bc 0a 24 89 bd 20 15 b5 3d
       0.13014661 -0.02079802 -0.06696327 0.0884192
000360 f2 05 4b 3d 97 52 5b be 9a df 28 3d 32 d6 4b 3d
       0.049566217 -0.21418224 0.041228868 0.04976482
000370 5d 36 99 3c e2 9d db 3e 5f fe d7 bc 13 f8 a1 3d
       0.01870268 0.42893893 -0.02636641 0.079086445
000380 07 69 05 3e 99 81 a2 3c 4f f6 ab 3e e2 a2 47 3e
       0.13028346 0.019837188 0.33586356 0.19495729
000390 e9 bd 33 3e 08 36 e9 bd c7 7c 65 bd 7f c8 99 bc
       0.17552914 -0.11387259 -0.0560272 -0.018772362
0003a0 8c 94 28 bd 47 bc 5f 3b 17 35 8a be 83 c8 6f 3d
       -0.04115729 0.0034139322 -0.2699363 0.058540832
0003b0 e5 4e 56 3d 43 fb 1a bd b1 6e 41 bd 2c 62 b5 bc
       0.052321333 -0.037837278 -0.047224704 -0.022141539
0003c0 cd 0f 12 3e db a8 e1 be f9 db 40 3e d9 bc f7 bd
       0.1426384 -0.4407414 0.18833913 -0.12096567
0003d0 59 a6 85 3e 6e ed ee 3d 9e 6e f2 3d 4d cf 3c 3e
       0.26103476 0.1166638 0.11837505 0.18438454
0003e0 87 0b 97 3d 6b 7d 93 bd cf 0c 36 3b f9 5e 25 bc
       0.073752455 -0.07201656 0.002777863 -0.010093444
0003f0 c3 f5 53 bd 6c f0 40 3e e5 96 bd bd 9c 24 b3 3c
       -0.05174805 0.18841714 -0.092572965 0.021868043

deconv2.bias f4 [32]
000000 35 45 a6 3d cf 5c 57 3d a5 c8 c0 3d 8c e6 8a bd
       0.08118669 0.052578744 0.0941327 -0.067822546
000010 20 d9 45 3d 0c cc 9e bd 82 7e ad 3d b8 f1 d4 bd
       0.04830277 -0.077537626 0.08471395 -0.10397667
000020 ba 48 5c be 06 9a 21 bc 9f ae 9d be c5 db 2d 3d
       -0.21512118 -0.009863382 -0.30797288 0.042445917
000030 f7 e1 82 3d e2 b1 47 bd 5b d6 b2 bc 64 11 18 3d
       0.063907556 -0.048753627 -0.021830728 0.03712596
000040 02 a0 bc 3d db 33 1a 3e 98 a0 27 3e bf 75 98 3d
       0.092102066 0.15058844 0.16369855 0.07444333
000050 97 f1 d8 3d 22 7e 83 bd 43 6f 11 bc 10 cb d5 bc
       0.105929546 -0.06420542 -0.0088766245 -0.026097804
000060 d3 21 9a 3d 16 63 98 bb 27 66 b3 3d 18 df c6 bd
       0.07525983 -0.004650484 0.087597184 -0.097105205
000070 55 57 12 3e 7e 8b 47 bd 29 36 80 3d 1b cf 5b 3d
       0.14291127 -0.048717014 0.0626033 0.053664308

deconv3.weight f4 [32, 1, 5]
000000 33 c7 ae be 70 cf 05 bf 21 7d 3e be d8 bd 9a be
       -0.34136352 -0.5226965 -0.1860242 -0.30222964
000010 25 da 5e be 8e c7 a2 3e 2c 54 aa 3e 6c aa d4 bd
       -0.21762903 0.31792873 0.33267343 -0.10384068
000020 a7 b2 a7 3e d6 34 8e 3e 9a ee 32 bd a4 df 07 bf
       0.32753488 0.27774686 -0.04368458 -0.53075624
000030 21 09 be 3e 3d e4 8b 3e d0 03 a6 3e 5b ab b3 bd
       0.3711634 0.2732257 0.32424784 -0.08772918
000040 3f ba b4 3e 32 22 89 3d 5c ae e4 bb 04 a8 83 be
       0.35298344 0.06695975 -0.006978793 -0.25714123
000050 ef ae 97 be 8f 5f 4b be 40 08 0c bd a5 44 1c 3e
       -0.2962565 -0.19860671 -0.034187555 0.15260561
000060 81 0d 88 3d 21 e6 8c be 38 97 c5 be a1 05 ee be
       0.06643201 -0.27519324 -0.38591933 -0.4648867
000070 d4 c4 0f bf fd a2 87 be 58 b6 48 3d 3a 78 78 3e
       -0.5615971 -0.26491538 0.04900202 0.24264613
000080 fd 54 06 3f 93 eb a6 3e e9 d5 81 3d 09 68 97 3c
       0.5247343 0.32601604 0.06339628 0.018482225
000090 00 54 aa be 0f 8e 34 3f 72 5d 39 3f a3 b4 c7 3e
       -0.33267212 0.70529264 0.7240821 0.39005002
0000a0 c4 be 0b 3d f8 53 51 bf 5b 68 b5 bd 0d 35 aa 3e
       0.034117475 -0.8176875 -0.08857795 0.332436
0000b0 30 63 b9 3e bf ec fd bd e0 c1 45 3f f0 e9 6e 3d
       0.36208487 -0.12398671 0.77248955 0.05832857
0000c0 66 e6 5a bd ac 7d aa 3c 16 74 05 3e 94 42 58 be
       -0.05344238 0.020811878 0.13032565 -0.21119148
0000d0 69 eb 08 40 3e 32 89 be 1e 2a 5f bd c9 c8 ba 3d
       2.1393683 -0.26796144 -0.054483525 0.09120328
0000e0 70 bf 51 be b6 53 ff be 4f 8c a6 bd f4 dc c7 3e
       -0.20483184 -0.49868554 -0.081322305 0.3903576
0000f0 70 38 58 3d f0 47 97 3e cc 25 46 3d 70 76 71 be
       0.052788198 0.2954707 0.04837589 -0.23580337
000100 f5 86 60 3d e6 67 7a be a9 48 65 3f 55 92 ca be
       0.054816205 -0.24453697 0.89563996 -0.39564767
000110 64 5d 4d 3e bd 11 a1 3d f0 55 33 3e 8f 9a 1d be
       0.20055157 0.078647114 0.17513251 -0.1539099
000120 cd 63 f0 3e a2 08 54 bc c0 1d 22 bd a8 37 70 3d
       0.46951142 -0.012941511 -0.039579153 0.058646828
000130 9b 27 85 bf 8a 05 6d bb 81 6e b9 3e 7f 75 c5 3c
       -1.0402712 -0.0036166632 0.3621712 0.024103878
000140 8e ac 3d bd ed 79 87 be 0c 2e 82 be 7b 7b 80 3d
       -0.04630714 -0.2646021 -0.25425756 0.06273552
000150 d3 43 e1 3e e2 49 63 be db d5 96 3e 87 aa 82 3e
       0.43997058 -0.22196153 0.29460034 0.25520727
000160 bb 89 25 3e fb 02 7e 3e ff 2a f0 b8 95 66 4e 3e
       0.16165821 0.24805824 -0.000114521004 0.2015632
000170 cc 3f bd 3e fc 7e 18 be b0 bd f3 bb 0b 20 35 bf
       0.36962736 -0.1489219 -0.007438384 -0.7075202
000180 05 68 66 bc ee f4 53 3f 11 60 4b bd 95 8f e7 3c
       -0.014062886 0.8279561 -0.049652163 0.028266707
000190 b8 55 1a 3e b5 e7 43 3e 2c 9d 32 3e 0c e6 ac 3e
       0.15071762 0.19131358 0.17442769 0.33769262
0001a0 32 77 25 be 56 24 23 be aa 50 25 bf e1 d9 30 be
       -0.1615875 -0.1593183 -0.6457621 -0.17270614
0001b0 ab 08 82 bd d6 b1 7e 3e ac 42 e1 3c 62 f9 86 3d
       -0.063493095 0.24872527 0.027497612 0.06590535
0001c0 9a b9 85 3f 9f 4b 85 3f 2f 9b e7 bc a2 8b 91 be
       1.0447266 1.0413703 -0.02827224 -0.28426844
0001d0 c6 cb 3a bf 8d 78 94 3e 13 73 de bd 81 16 cc bd
       -0.72967184 0.28998223 -0.108617924 -0.0996523
0001e0 c9 f6 63 be 3a e9 9d be 0b 53 4b be be b1 b2 be
       -0.2226211 -0.30842 -0.19855897 -0.34901232
0001f0 fe b1 c8 be 5d df 96 bd 4e 3a 65 3f 67 83 96 3e
       -0.39198297 -0.07366822 0.8954209 0.29397127
000200 71 d2 26 bd 97 bc a2 3d 79 3c a6 be cd a6 24 be
       -0.040728036 0.07946127 -0.32468012 -0.16079254
000210 93 f5 6f be 02 1a 84 3d 8e 34 9b be d9 96 bd 3d
       -0.23433523 0.06450273 -0.30313534 0.092572875
000220 d1 f5 a2 3e 7d 42 e2 3e d3 98 40 3f 68 d9 50 3e
       0.31828168 0.44191352 0.7523319 0.20395434
000230 1c d5 88 bc 8b 17 c6 3e aa 8c ef bc 23 b9 13 be
       -0.016703181 0.38689837 -0.029241879 -0.14426093
000240 84 e1 94 3e 13 ef c6 bc ec 01 4f 3e b5 18 42 3e
       0.29078305 -0.024283921 0.20215577 0.18954737
000250 98 0b 91 3e 73 1f 2e 3f 9e 83 70 be 54 13 17 bf
       0.28329158 0.6801674 -0.23487708 -0.5901387
000260 69 8b 48 3c 66 02 b0 be 68 71 f4 bd 82 25 af 3e
       0.012240269 -0.3437683 -0.11935693 0.34208304
000270 0e bf 80 3e 76 f1 fb be 8c a9 2b bd 4d fc a6 3e
       0.25145763 -0.49207658 -0.04190974 0.32614365
