models/SNN_QuantAutoencoder_tsri_quant8_test.pth (torch, 31685 bytes, 16 tensors)

encoder_conv1.weight f4 [24, 1, 5]
000000 be 02 a1 3e 4f 25 27 3f 3d 1f 11 bf f8 ac 92 3f
       0.31447405 0.65291303 -0.5668829 1.1459036
000010 14 cd 6b 3e 7c 6e 26 bc 25 5c 2a be d9 f1 6e 3f
       0.2302745 -0.010158177 -0.16636713 0.9333778
000020 e6 71 82 bc 66 a0 8a 3c 51 9e 18 3f 59 48 0d bf
       -0.015923452 0.016922187 0.5961657 -0.5518852
000030 07 0b ba bf a2 1f e3 bd 74 96 90 3e 93 a8 2d 3e
       -1.4534615 -0.11090018 0.28239787 0.16958837
000040 01 23 8d be 68 71 8e bd e7 44 dc bd e7 1c 78 bd
       -0.27565768 -0.06955224 -0.107553296 -0.06057444
000050 30 d0 95 3c 45 52 cf 3d a6 79 a4 be 13 0a 9f 3e
       0.018287748 0.101231135 -0.3212406 0.31062374
000060 95 bf ab be ea 65 57 3e 7b d6 c3 3f 6c c3 5c 3e
       -0.33544603 0.21034971 1.5299829 0.21558923
000070 d7 c9 f5 b9 12 d2 9a b9 f4 ae ae be 9d 13 c4 bd
       -0.00046880424 -0.00029529684 -0.34117854 -0.095740534
000080 04 2c 1b 3e 6e 47 48 bd a9 ad b6 be a4 da 38 be
       0.1515351 -0.048896246 -0.35679367 -0.18052155
000090 c2 4f 92 3e 02 25 33 bd 8e 1d 51 be b1 a4 b1 3e
       0.28576475 -0.043736465 -0.2042143 0.34695962
0000a0 94 58 ac 3e a4 29 15 3f ae 8e c3 3e 45 b2 59 3d
       0.3366133 0.58266664 0.38194793 0.053148527
0000b0 32 8c e6 bf 03 93 71 bd 2c c9 1e be ab 26 d6 bf
       -1.8011534 -0.058978092 -0.15506428 -1.673055
0000c0 d3 aa 96 be 38 7b 1a be 27 fb d2 bd 0b c6 f9 bf
       -0.29427204 -0.15086067 -0.1030181 -1.9513563
0000d0 aa ee dc be 11 10 a3 bd bd 37 33 bd 44 45 1f bd
       -0.43150836 -0.07962049 -0.043754328 -0.038884416
0000e0 45 27 74 3f 23 32 b6 3d a7 e5 9a bb a7 b3 57 3d
       0.9537242 0.088962816 -0.0047270837 0.052661564
0000f0 52 74 4a be e7 7c a0 be 20 70 41 be 36 de 90 be
       -0.19770935 -0.31345293 -0.18890429 -0.28294533
000100 ce 58 a3 3e fe 0f b4 3d 92 f2 b2 3d 32 0d 78 3f
       0.3190369 0.08792113 0.08737673 0.96895134
000110 21 96 44 3f 76 f6 b5 3e 6c 96 5f 3e 57 52 c9 be
       0.7679158 0.35539597 0.21834725 -0.39320633
000120 01 6b f1 bd 64 58 f1 3c ab 08 7a bc 89 39 52 3d
       -0.117879875 0.029461093 -0.015260856 0.0513244
000130 93 95 00 3d 54 95 88 3b 66 5c b7 3f b4 ef 12 3f
       0.031392645 0.004168192 1.4325073 0.5739701
000140 0e c0 d7 3a 3f 05 2d bb f7 68 1c bd 24 51 5d 3f
       0.0016460435 -0.0026400832 -0.03818604 0.86451936
000150 d3 9a 1c 3d 7d f5 3a bd cd c5 1e 3d b9 da b8 be
       0.03823359 -0.045644272 0.038762856 -0.36104372
000160 2a 82 40 be 1d bb f5 bd 7d e6 42 3b ab 5c be 3d
       -0.18799654 -0.1199858 0.0029739433 0.09295019
000170 d3 a6 b3 3f 3d 9c 2f 3e 32 26 a8 3d 26 10 42 3e
       1.4035286 0.17149444 0.0821041 0.18951473
000180 93 ab ef bd bd 8b f0 bd 76 ed 54 bd 0d 68 73 be
       -0.11702647 -0.11745403 -0.051984273 -0.23770161
000190 c7 7e 1d bc 80 f6 0a bc 6f 11 93 bd d0 c4 b3 bf
       -0.009612746 -0.008481622 -0.071810596 -1.4044437
0001a0 3e e7 76 bf 2a 2c dc bf ea 44 69 be 10 6e 97 3d
       -0.964466 -1.7200978 -0.22780195 0.0739404
0001b0 e3 59 61 3d 3a e3 a9 3d ca 09 47 ba 77 52 96 3d
       0.055017363 0.08295293 -0.0007592706 0.07339948
0001c0 95 1b d7 3c 69 cc 8b 3e d8 04 c6 3f a3 e3 42 3f
       0.02625827 0.2730439 1.5470228 0.76128596
0001d0 73 55 39 3f 59 82 2a 3f 40 87 cc 3e 8b da 7f 3e
       0.7239601 0.66605145 0.39946938 0.24985711

encoder_conv1.bias f4 [24]
000000 98 0b 98 be c2 9f 94 3e 82 d6 12 3f 10 05 e1 be
       -0.29696345 0.29028136 0.5735856 -0.43949175
000010 32 65 1b be 33 00 d0 be 35 02 36 be 23 05 c8 be
       -0.15175322 -0.40625152 -0.1777428 -0.3906642
000020 db fe b4 3e ac 1d c8 3f e1 48 b6 3f c1 a2 9a 3e
       0.3535069 1.5634055 1.4240991 0.30202296
000030 52 fb 6c bd b5 33 15 bf 72 76 19 bd c7 27 1b bf
       -0.057856865 -0.58282024 -0.037466474 -0.6060757
000040 04 f0 9f 3e 22 ce 0d 3e 9b f6 a7 be 6b 02 39 bc
       0.31237805 0.13848165 -0.32805333 -0.01129208
000050 ba f7 b3 3f 50 3a aa 3f 81 db d4 be 10 14 82 be
       1.4059975 1.3299046 -0.41573718 -0.2540593

encoder_conv1.bias_quant.frozen_k f4 [24]
000000 00 00 e0 c0 00 00 e0 c0 00 00 c0 c0 00 00 10 c1
       -7.0 -7.0 -6.0 -9.0
000010 00 00 10 c1 00 00 c0 c0 00 00 00 c1 00 00 10 c1
       -9.0 -6.0 -8.0 -9.0
000020 00 00 c0 c0 00 00 c0 c0 00 00 c0 c0 00 00 e0 c0
       -6.0 -6.0 -6.0 -7.0
000030 00 00 10 c1 00 00 e0 c0 00 00 00 c1 00 00 c0 c0
       -9.0 -7.0 -8.0 -6.0
000040 00 00 e0 c0 00 00 00 c1 00 00 c0 c0 00 00 10 c1
       -7.0 -8.0 -6.0 -9.0
000050 00 00 c0 c0 00 00 c0 c0 00 00 c0 c0 00 00 e0 c0
       -6.0 -6.0 -6.0 -7.0

encoder_conv2.weight f4 [12, 24, 5]
000000 09 3f da 3d 58 0b 08 be ed 89 f7 3b 74 2a 6e 3d
       0.10656554 -0.13285577 0.007554284 0.058145955
000010 c2 6c 26 3d f8 17 58 be 9b ec a5 be 78 60 62 be
       0.040631063 -0.21102893 -0.32407078 -0.22107112
000020 56 f3 c9 bc 7c 22 61 bd 96 33 ad 3d bb d9 5e bd
       -0.024652164 -0.054964527 0.08457105 -0.054406863
000030 dd 57 27 bd 25 9b 42 bc bb 8f 07 be 34 05 a8 3d
       -0.040855277 -0.01187781 -0.13238423 0.082041174
000040 be 92 ab 3d 78 26 7f 3c b0 8d 88 bc ee 58 f1 bc
       0.08377598 0.0155731365 -0.016669124 -0.02946135
000050 10 20 4d 3d 03 d4 af bd bc 33 dc 3c d8 2c d7 bc
       0.050079405 -0.0858536 0.026880138 -0.0262665
000060 a4 6f f8 3c e9 03 08 be 65 80 d5 bf e0 cb ad be
       0.030326672 -0.13282742 -1.6679808 -0.33944607
000070 51 22 1f be 8b 96 13 be 8c 92 8d 3c b0 49 12 3d
       -0.15540434 -0.14412896 0.017281793 0.035714805
000080 f8 98 63 3d 80 a9 3a 3c 8c 6b b3 3d 07 e6 e2 bb
       0.055565804 0.011392951 0.08760747 -0.006924394
000090 23 66 c7 bc 4d b5 90 bd c9 3c 5e 3c 49 d3 95 3d
       -0.024340695 -0.070658304 0.013564297 0.0731569
0000a0 36 e9 99 3e 41 6e 73 bd ed 89 b5 3d 9a 78 96 3e
       0.30060738 -0.05943132 0.08864198 0.29388887
0000b0 e7 c3 de bc 85 27 08 3c e1 3a 9c 3d 34 09 9a bd
       -0.027193023 0.008310203 0.07628418 -0.075212866
0000c0 0b d7 8f bb 52 0c 51 be e1 8d 37 bd 6d 18 3d 3d
       -0.004389649 -0.20414856 -0.04481304 0.046165872
0000d0 f3 5d 36 3d 13 c8 71 ba c2 2a 95 bd 2d 9e 5e be
       0.04452319 -0.0009223234 -0.07283546 -0.21740027
0000e0 c2 18 09 bf 4c af 54 be b8 52 36 be 97 f7 a9 bd
       -0.535534 -0.20769995 -0.17804992 -0.08299177
0000f0 00 d1 f7 b9 d2 aa 8b bd 99 bd 4e bd 7e 54 90 3d
       -0.00047267228 -0.06819691 -0.050473783 0.070473656
000100 04 59 52 3d 58 eb 90 3d 2b 01 2b be 8b 4e 58 bd
       0.051354423 0.07076138 -0.16699664 -0.05280928
000110 43 4a e0 be 72 85 f7 3d 30 75 b8 3b 0e a5 3d bd
       -0.43806657 0.120859995 0.005629204 -0.046299987
000120 56 a3 83 bd 64 e5 93 3c fd 4b 99 bd 68 55 b8 bd
       -0.06427638 0.018053718 -0.07485197 -0.09000665
000130 57 e7 81 bc 50 f8 5c bd df 15 62 be 84 7f 95 3d
       -0.015857382 -0.053947747 -0.22078656 0.07299712
000140 24 74 67 bc c4 9e 39 be 4b 1c 83 bc 3f 47 b4 bd
       -0.014126811 -0.1812697 -0.016004702 -0.088026516
000150 f5 0a 7c 3d 34 43 37 3d aa 6e 2a bd f0 d5 78 3d
       0.061533887 0.044741824 -0.041609444 0.0607509
000160 94 f9 a8 3d 98 11 45 bc 12 33 b1 bd 91 f5 4b be
       0.08250728 -0.01202812 -0.08652319 -0.19917895
000170 a8 7b cb bc 12 73 e2 bd 9b dd 62 3c 5e 18 16 bd
       -0.024839237 -0.11057104 0.01384678 -0.036644332
000180 f0 ef 79 3c 64 85 d1 bc 36 bb 4e bd d8 80 af 3c
       0.015254959 -0.0255763 -0.050471507 0.021423742
000190 63 97 50 bb ee 1a 7f bd 51 67 e1 bc 27 ec 4f 3c
       -0.0031828515 -0.06228154 -0.027515085 0.01269058
0001a0 54 f1 27 bd 77 22 34 bd 23 a5 b1 3e d7 3c 5c 3c
       -0.041001633 -0.04397818 0.34696302 0.01344224
0001b0 7f 38 84 3d 59 f3 9b 3e 79 40 d9 be 67 8a 04 bd
       0.06456088 0.30459097 -0.42432 -0.032358553
0001c0 89 81 e3 bd 68 d2 fe be 07 6f 6e 3d c9 f9 09 be
       -0.11108691 -0.49769902 0.058211353 -0.13474192
0001d0 29 ba 9b be 17 86 5d 3d 60 c3 67 bc a7 4a 77 3c
       -0.30415466 0.054082956 -0.014145702 0.015093482
0001e0 b9 f0 76 bc 21 f4 ab 3c 0f 84 90 3d c2 f8 94 3d
       -0.015072041 0.020990433 0.07056438 0.07274009
0001f0 1d 46 04 3d 54 a5 1f be 65 cc 0a be 4b 62 c7 3d
       0.032293428 -0.15590411 -0.13554533 0.09735545
000200 88 98 17 3d c8 cd c3 3c 37 48 f6 bc 4a 7a fc bd
       0.0370107 0.023901835 -0.030063732 -0.12328012
000210 f9 60 50 3c 48 26 cd bb 62 51 82 bd c4 ca 27 3d
       0.012718433 -0.006260667 -0.06363179 0.040964857
000220 d5 d7 39 bd 02 c0 ae 3d 05 d0 45 bd 00 78 05 b8
       -0.04537185 0.08532716 -0.048294086 -3.182143e-05
000230 2c 3e 37 3d 24 41 ad bd 5e 2f 06 bd 80 e7 94 bb
       0.044737026 -0.0845969 -0.032760017 -0.0045441985
000240 54 b7 51 3d 07 38 b0 3c 03 1e 3d 3d 1c 6b a7 bb
       0.051200226 0.02151109 0.0461712 -0.005109204
000250 03 6d af 3e 78 b1 68 3e 40 e0 c5 ba 00 88 20 bb
       0.34262857 0.22723949 -0.0015096739 -0.0024495125
000260 8b 4c 42 bd 30 1a 7b bc 70 26 3f bc 9b 05 12 3d
       -0.04743628 -0.015326068 -0.011666879 0.035649877
000270 65 0b a1 bd 09 73 26 3d 21 2b 7f bd e5 60 49 3d
       -0.078635015 0.04063705 -0.06229699 0.04916467
000280 05 cd 20 bd fa b8 16 be 55 a3 1a be 08 fd 20 3d
       -0.03925802 -0.14719 -0.15101369 0.03930381
000290 fe c5 b4 bd 00 49 90 bd 2b ec 44 be 2e 6d eb 3c
       -0.088268265 -0.07045174 -0.19230716 0.028738584
0002a0 0b 2f b7 be be 0a 3a be ff 2a 95 bd 20 75 38 3c
       -0.35778078 -0.1816816 -0.072835915 0.0112583935
0002b0 cc e4 93 bd 0e ae 2f be 04 79 10 bf b0 dc ce bd
       -0.07221374 -0.1715624 -0.56434655 -0.101006866
0002c0 dd 2a b7 bd 9b 0a f1 bd 0b 16 1f 3e 41 d4 d8 bd
       -0.089437224 -0.11769601 0.15535752 -0.10587359
0002d0 c8 68 48 bd 0c 34 65 3d 18 5e 1e bd 57 d0 37 bd
       -0.048928052 0.05595784 -0.038663954 -0.044876423
0002e0 b8 01 9b bd e1 34 c4 3d ea 75 c3 3d 13 c1 94 3e
       -0.07568687 0.09580398 0.09543975 0.29053554
0002f0 16 d8 57 3d 03 57 ff 3d 67 d1 1c bd 28 e0 96 bc
       0.05269631 0.12467768 -0.03828564 -0.018417433
000300 bc 0f 68 bd 8c 22 a8 bc 18 60 13 3d 96 e5 ae 3d
       -0.05665563 -0.020524286 0.035980314 0.08539884
000310 f0 93 22 3e 79 40 88 3e 2d 5e 1b 3e e5 9c 34 3e
       0.15876746 0.2661169 0.15172644 0.17637976
000320 e4 86 cb bd 35 f3 1f be 44 91 31 3e 4c 80 aa 3d
       -0.09937838 -0.1562012 0.1734057 0.08325252
000330 94 8a ba 3d a0 72 b3 3c 08 c7 c4 bc 00 ac 2c 3d
       0.09108463 0.021905243 -0.024020687 0.04215622
000340 f4 8a e6 3c 0d df 58 bd 76 9a 30 3d bb 33 33 3d
       0.02814243 -0.052947093 0.043116055 0.043750506
000350 e5 cc c6 3e 1d 9a 75 3e 48 f6 6b 3e 3c a1 e7 bc
       0.38828197 0.23984571 0.23043168 -0.028275125
000360 0a 06 5f bd c8 97 b4 bc 80 15 5b bd 8c 31 b2 bd
       -0.05444912 -0.022045031 -0.0534873 -0.087008566
000370 45 51 6d 3d 73 4b 42 be 8b 42 7f be 71 34 cd bd
       0.057938833 -0.18974094 -0.24927728 -0.10019768
000380 8c d3 12 be cb bd 75 bd 0e ce f6 3d 83 d5 36 bd
       -0.14338511 -0.059995454 0.120510206 -0.044637214
000390 4e 4f 0c be 5b 38 88 be 87 3b 87 3c 37 67 75 3d
       -0.13702127 -0.26605496 0.016507877 0.059912886
0003a0 b9 76 81 3e 84 b4 5c 3e 0b d3 c3 3d 25 49 be bd
       0.2528589 0.21553236 0.095617376 -0.09291295
0003b0 11 3b dd bd a2 b5 86 3d 6a 54 e2 bd 2c 46 da 3c
       -0.10802282 0.065776125 -0.11051257 0.026644789
0003c0 75 b0 ac 3d be d2 d6 bd d9 3a e6 bc 4a 00 6f 3d
       0.08432094 -0.10489415 -0.028104233 0.058349885
0003d0 af e4 e5 bd dc 53 15 be f3 cd 69 bd c1 3c 1e be
       -0.112252586 -0.14582771 -0.057081174 -0.15452863
0003e0 9c 75 f3 3c 93 63 2a 3d e2 7e b8 3d 09 02 e1 3c
       0.029719166 0.041598868 0.09008576 0.02746679
0003f0 bf ef 93 3d 7d 03 92 3d b6 47 02 3e 76 d7 a4 bd
       0.07223462 0.071295716 0.12722668 -0.080489084

encoder_conv2.bias f4 [12]
000000 da 84 8d 3f 84 7e 48 3f 43 de 83 3f dd 55 5f 3f
       1.1056168 0.7831805 1.0302204 0.8724039
000010 b5 62 93 3f 95 e9 32 3f b8 89 4d 3f 21 b2 7e 3f
       1.1514498 0.6988767 0.8028827 0.99490553
000020 40 02 83 3f 2a 84 1e 3f 15 76 49 3f 35 18 2a 3f
       1.0235062 0.61920416 0.78695804 0.66443187

encoder_conv2.bias_quant.frozen_k f4 [12]
000000 00 00 c0 c0 00 00 00 c1 00 00 c0 c0 00 00 e0 c0
       -6.0 -8.0 -6.0 -7.0
000010 00 00 e0 c0 00 00 e0 c0 00 00 00 c1 00 00 c0 c0
       -7.0 -7.0 -8.0 -6.0
000020 00 00 c0 c0 00 00 00 c1 00 00 00 c1 00 00 e0 c0
       -6.0 -8.0 -8.0 -7.0

encoder_conv3.weight f4 [6, 12, 5]
000000 49 75 8a bc 51 de ab 3c be 78 f8 3b 60 4b a8 be
       -0.016901629 0.020980032 0.007582753 -0.32870007
000010 9f 92 98 bb 62 22 cd bb e1 5a b1 bb fe 41 f8 bb
       -0.0046561505 -0.0062602023 -0.005412445 -0.0075762263
000020 ea df b4 bd b3 7c 5c bc 4a 85 6b 3c 98 5d 98 bc
       -0.08831771 -0.013457465 0.01437504 -0.018599316
000030 19 26 26 bc b2 02 e0 3c de 27 7a 3c ac 87 ea 3c
       -0.010140919 0.027345035 0.015268294 0.028629147
000040 7c 46 6d 3b a7 e9 23 bb 32 36 53 bc 01 dd 04 3d
       0.0036205342 -0.0025011094 -0.012891339 0.03243733
000050 f9 4a 1c 3b 7d be 03 3c 3f 15 b5 bb ac 37 14 3e
       0.0023848398 0.008041021 -0.0055262144 0.14474362
000060 66 2b cf 3c cc 89 19 bc 1c cb 1c 3c e5 b5 85 3c
       0.025289249 -0.009371232 0.009569909 0.016322086
000070 d2 d7 12 be 7e e0 5e bb 55 51 60 3c 30 c3 a8 3b
       -0.14340141 -0.003400832 0.013691266 0.0051502213
000080 03 e7 e0 bb 17 9a f8 bc 2d 77 7a 3c 88 95 e8 3b
       -0.0068634762 -0.030346913 0.015287203 0.0070979036
000090 e3 4a fe bc e7 b9 0f 3b 7a f1 0f bf ff ee 65 3c
       -0.031041568 0.0021930875 -0.5622784 0.014034032
0000a0 04 0a ec 3c 28 f7 6e bb 80 fb e5 bc 29 db 53 39
       0.02881337 -0.0036463235 -0.028074026 0.00020204172
0000b0 c5 77 8e 3d ab c9 d0 3c 82 8f 70 3c f7 e3 3b 3b
       0.06956438 0.025486788 0.014682652 0.0028669813
0000c0 f5 29 4c bf 76 96 43 3c 9e 0f 13 bc b7 06 96 3b
       -0.7975152 0.011937728 -0.008975891 0.004578437
0000d0 81 aa 6f 3c e0 23 0b 3d 91 5b a8 bb 4d a9 a0 bb
       0.014628054 0.03396976 -0.0051378687 -0.0049029947
0000e0 0b dd 36 3c bc 94 7a bb d5 f7 30 bc 34 ae ba 3a
       0.011161099 -0.0038235625 -0.010801275 0.001424259
0000f0 f2 c5 84 3b 19 aa ec 3c 45 ef 0d bf df 29 4a bd
       0.004051917 0.028889703 -0.5544322 -0.049356338
000100 02 f4 da 3b 79 1a 23 be 89 0a 51 3d e6 dc d7 3c
       0.00668192 -0.15928067 0.051035438 0.02635045
000110 f4 53 a0 3c 10 0a 4f bd 40 e8 51 bc 23 db 47 3c
       0.019571282 -0.050546706 -0.01281172 0.012198242
000120 aa df 37 bf 60 cc 54 3d 70 b6 a0 bb 39 f1 f9 bc
       -0.7182566 0.05195272 -0.0049045607 -0.030510532
000130 de f2 2a bc 30 01 ba 3c 93 91 b5 bc f5 2e 6d bc
       -0.010433881 0.022705644 -0.022164142 -0.014476527
000140 4d 57 b8 3c ff 65 bf 3b 6e e2 af 3e 17 54 10 bd
       0.022502566 0.0058410163 0.3435244 -0.035236444
000150 28 ec 21 3d 4d 6e 01 bd b8 6c db bc 3f 41 f1 bd
       0.039531857 -0.03159933 -0.02678524 -0.11780023
000160 e9 29 4e bc 65 35 0c bc 34 8d bb 3c 13 c3 9b bc
       -0.012583234 -0.008557652 0.02289448 -0.019013917
000170 f0 16 ea 3c d0 f0 5b bd d1 4a 09 bb 79 41 23 3d
       0.02857539 -0.053696454 -0.0020949135 0.03985736
000180 04 22 04 bc 37 09 5e bd a1 44 18 bd b0 ad 09 3d
       -0.008064751 -0.054208007 -0.037174825 0.033612907
000190 1a a5 22 3d ef 93 34 bb 45 9c 86 3e 80 d2 14 bd
       0.039708234 -0.0027553996 0.262911 -0.03633356
0001a0 3a 84 44 3c ea b4 46 bd ec fb 1b bc 2f 2f 0e be
       0.011994416 -0.048512377 -0.009520512 -0.13885187
0001b0 7f 07 55 bc 77 d8 53 bd 50 11 93 bb e9 58 fe bc
       -0.0130022755 -0.05172011 -0.004488148 -0.031048255
0001c0 60 b3 8c 3d bc 51 9a bc 2e 75 7d 3a de 5d e6 bb
       0.068701506 -0.018837802 0.0009668645 -0.007030233
0001d0 97 0f a2 bc 15 21 24 bd 4b 58 ed bc f0 25 20 3c
       -0.019782824 -0.040070612 -0.028972765 0.00977467
0001e0 80 4b 04 3d f2 98 2a 3d aa 0f 5a ba f4 ca 54 bd
       0.032298565 0.041649766 -0.0008318374 -0.051951364
0001f0 d9 9a a0 bb 9f b3 50 bc 52 4c 1f 3d 03 b6 b0 bd
       -0.004901272 -0.0127381375 0.038891144 -0.08628466
000200 99 ca 9b 3d 60 1c 19 bd 8b c3 13 bc 1c fa 2e 3d
       0.07607002 -0.037380576 -0.009018789 0.04271899
000210 78 38 3a 3d 23 8e c0 bc 7c 5f f7 bc 08 25 91 bc
       0.04546401 -0.023505276 -0.030196898 -0.017717853
000220 9e b8 33 bf 16 18 4e bc 68 57 2b bc 9d 93 87 bc
       -0.7020358 -0.012578985 -0.010457851 -0.01654988
000230 bd 9d b1 3c 8a 3e 13 3e 5d 9a cb 3c 37 68 92 bb
       0.02168166 0.14379326 0.02485388 -0.00446799
000240 30 4b fc bc 47 ea cc bc ab 21 8c be 62 20 01 bd
       -0.030797571 -0.025014056 -0.27369437 -0.031525023
000250 64 d1 94 3d 3a 47 45 ba e5 b6 13 bc 31 ea 85 bd
       0.072665006 -0.0007525567 -0.009015773 -0.06538809
000260 1f fc a6 3b 11 d0 74 3c 40 34 16 bd b8 1f d8 3c
       0.005095973 0.014942185 -0.036670923 0.026382312
000270 2e 03 25 3d dc 40 53 3d 53 19 22 bc d2 88 1f bd
       0.040286236 0.051575527 -0.009893733 -0.03894884
000280 99 9f 74 bc 2b 99 c3 bc f8 7c 63 3d f7 a6 c5 bc
       -0.014930629 -0.023876747 0.0555391 -0.024127467
000290 d6 64 1a bd 1f c6 df bb e6 5a dd 3a 2c 22 56 bd
       -0.03769382 -0.006829038 0.0016888052 -0.052278683
0002a0 47 8e cb 3c 81 ba bd bc c6 58 e4 3b 00 aa 90 bb
       0.024848117 -0.023160221 0.0069685904 -0.004414797
0002b0 99 f5 87 bc 96 0f 00 bd 9c b8 55 3c 9d df dd bb
       -0.016596602 -0.031264864 0.013044503 -0.0067710415
0002c0 82 d2 21 bb 57 f4 2a 3d c6 93 4a 3e e8 16 64 3c
       -0.0024692123 0.041736927 0.19782934 0.013921477
0002d0 8a be e0 3c a6 5b 17 bc 59 d5 2d 3b 1a a0 8e 3c
       0.027434606 -0.009238159 0.002652487 0.017410327
0002e0 bb e3 e9 bc ed 85 dc 3c 0a 0e 71 bd bd 5b 4b 3d
       -0.028550973 0.02691933 -0.05885128 0.049648035
0002f0 0d 97 cd be 09 44 96 3c 18 f0 af 3c 7f 2f 33 bb
       -0.40154305 0.018342989 0.02147679 -0.0027341542
000300 7e 28 ab 3b 97 0f 84 3b 75 ff 2b bc 73 b2 5d 3c
       0.005223333 0.0040301788 -0.010497917 0.013531315
000310 70 7e 42 bc 71 c8 fc 3c 2b ec 84 bc 40 8a 11 bd
       -0.011870965 0.030857297 -0.016225895 -0.035532236
000320 61 01 53 3c 38 ab 80 bc 3f a8 c9 bb 08 e7 09 bd
       0.012878747 -0.015706643 -0.0061540897 -0.033667594
000330 65 70 75 bc 8f 38 2b 3d 64 86 e3 3b cb c3 5c 3d
       -0.01498041 0.041801985 0.006943511 0.05389766
000340 a1 ae f7 3b d5 99 cc 3d 74 f6 11 bc b9 f8 03 3d
       0.007558659 0.09990279 -0.008908857 0.032219622
000350 1f 25 f1 bb bf a6 e7 3c bd 1b e7 bc a6 f0 4b bc
       -0.0073591615 0.028277753 -0.028211469 -0.012447512
000360 9a fa c7 ba 13 be 3c bc 80 33 86 3d 34 68 b1 bd
       -0.001525718 -0.011519927 0.065527916 -0.08662453
000370 61 44 1d bd 5a 2b a3 3c 53 fd 6a 3d 5c 3e 01 3e
       -0.03839529 0.019918133 0.057370495 0.12621444
000380 71 58 dc bc 35 9b 6b 3c 2a 47 5d 3c 81 e7 c2 3c
       -0.02689764 0.014380266 0.013505736 0.02379203
000390 9a b9 15 bd 9b ae a7 3c 5c 21 b4 bc 73 3a 16 3c
       -0.036553957 0.020469 -0.021988563 0.009169209
0003a0 dc 19 f1 bc 6b 92 a8 bf 2e 75 b4 3b 5b 62 34 bb
       -0.029431276 -1.3169683 0.005507133 -0.0027524445
0003b0 fc 41 7c 3c 7b b5 89 3b 88 c2 83 3d 4d d7 ba bc
       0.015396591 0.0042025424 0.06433588 -0.022807742
0003c0 ad 27 43 3d aa 41 73 3b 0e cb a6 bc 68 f4 80 3d
       0.04764526 0.0037117996 -0.020360496 0.06296617
0003d0 21 9a 16 3c d8 c0 ea 3d 20 36 9e bd ed 31 d2 be
       0.009192021 0.11462563 -0.07725167 -0.41053715
0003e0 c5 ef 8f bd 44 89 31 3e 81 4d 80 bd d0 4f 43 3d
       -0.07028154 0.17337519 -0.06264783 0.047683537
0003f0 b3 fd 25 bd 48 eb ed 3d d5 d0 e5 bd 7d 9c a5 bc
       -0.04052515 0.11617142 -0.11221472 -0.020216221

encoder_conv3.bias f4 [6]
000000 c4 ed 86 3f f3 47 89 3f c1 f8 96 3f c7 3d 5e 3f
       1.054131 1.0725082 1.1794664 0.86813015
000010 4c 77 91 3f 78 39 93 3f
       1.1364532 1.1501913

encoder_conv3.bias_quant.frozen_k f4 [6]
000000 00 00 e0 c0 00 00 e0 c0 00 00 e0 c0 00 00 e0 c0
       -7.0 -7.0 -7.0 -7.0
000010 00 00 00 c1 00 00 e0 c0
       -8.0 -7.0

dec_deconv1.weight f4 [6, 12, 5]
000000 8e 04 b1 bc 2a 95 59 be 83 bf 6e bc db 83 3e bf
       -0.021608617 -0.21248308 -0.014572027 -0.74419945
000010 07 67 b3 3b 72 04 6b bc 27 d2 e4 3d 6f c7 b7 bd
       0.0054749283 -0.014344322 0.11172896 -0.08973586
000020 98 e6 d1 3d ce 55 65 bd c9 6e 00 be 9a a8 8c 3c
       0.102490604 -0.055990033 -0.12542261 0.01717024
000030 08 3a 05 bd e1 7a 85 3c a8 57 41 3c da 1f 8c 3c
       -0.032526046 0.016293945 0.011800684 0.017105032
000040 55 b7 99 3b 42 fc 8c 3c 36 c9 37 bd 6a 1b 1a bc
       0.0046910443 0.01721013 -0.044869624 -0.00940595
000050 1b 4d 77 bb ae 70 44 3f 33 64 e0 3b 50 0f 9b 3f
       -0.0037735167 0.76734436 0.006847882 1.2114048
000060 04 8d 9d bc 02 36 a1 be 1f 0f cc 3c 9b 35 4c be
       -0.01923228 -0.31486517 0.024909554 -0.19942324
000070 66 cb e7 3b ae ec e8 be 2b e9 6e bc ef b7 76 bc
       0.0070738075 -0.45493072 -0.014581959 -0.015058502
000080 d7 df 1b bc e6 a9 b3 bf f8 0c 0f bd 46 70 8b 3c
       -0.009513817 -1.4036224 -0.034924477 0.01702131
000090 97 18 0b 3d 7e 70 c3 3c c9 51 40 bd ff 5f 83 3c
       0.033958998 0.023857351 -0.046952996 0.016036985
0000a0 44 6e 86 3d ce 93 5a 3c 5a e3 2d 3e e5 55 70 3d
       0.06564 0.013340903 0.16981259 0.058675665
0000b0 d7 da 65 bd 35 1a a5 bc 56 c5 09 bd fc cf 35 3d
       -0.056116905 -0.020154098 -0.03363546 0.044387802
0000c0 15 9d c3 3f fa ea bf 3c 8e f5 f1 be f3 aa 91 3e
       1.5282313 0.023427475 -0.47257656 0.28450736
0000d0 36 48 d5 be 0d 1b 9b 3f 6b 08 4a bf c7 d5 4d bc
       -0.41656655 1.211763 -0.78919095 -0.0125631755
0000e0 24 d6 34 3d 4f aa 9c 3c 82 fe b5 bd 78 75 e8 bc
       0.044149533 0.019124178 -0.08886434 -0.028376326
0000f0 c0 1e a6 bc 8c 71 46 3b 52 d9 57 3e b3 3e 87 3d
       -0.020278335 0.0030280082 0.21078995 0.06603756
000100 d2 11 e1 3c 1c 03 97 bc c5 e9 d7 3c fe f0 50 3f
       0.027474318 -0.0184341 0.026356587 0.81617725
000110 de 66 36 3d 45 b9 28 bd 63 5c b4 bd 80 10 0d bd
       0.044531696 -0.04119231 -0.08806684 -0.034439564
000120 04 c6 85 bd bf 88 ca bc 96 24 c5 bc b7 2a 36 3c
       -0.06531909 -0.024723409 -0.024065297 0.011118582
000130 0f 61 9d bc a0 05 b1 3c ea 9d 18 3c 03 7f 7b bc
       -0.01921132 0.021609128 0.009314993 -0.015350106
000140 f8 08 2a 3c 80 6d 27 3f 08 9e 31 bd dc 48 12 3f
       0.010378115 0.6540146 -0.0433636 0.57142425
000150 b1 23 93 bc fd 57 00 be 9d 6a cd 3c c5 2b 0f bf
       -0.017961355 -0.12533565 0.025075251 -0.5592616
000160 22 73 6b 3c c7 ea 85 be 01 8d 83 bc 73 d5 4b 3c
       0.0143707115 -0.26155683 -0.016058447 0.012441027
000170 8f 0d 63 bf a1 3b 81 3c 4b 83 95 3b 8a f3 9d 3c
       -0.88692564 0.015775504 0.0045627705 0.019281168
000180 1c 7a fc 3c 8a f5 5b 3e 74 84 7c 3c 30 ff 88 3c
       0.030819945 0.21480384 0.015412439 0.016723245
000190 2b 51 88 3d 4b 9f f0 bc 31 e5 2a 3e 03 17 de bc
       0.066561066 -0.029372832 0.16688992 -0.027110582
0001a0 1a 04 f8 bc 0e 56 c2 3d 3f e8 06 3d a6 b8 ee 3e
       -0.030275393 0.0948907 0.03293633 0.4662525
0001b0 b8 2d c6 3c a9 d8 00 3e 30 06 85 be 6d eb ba 3d
       0.024191722 0.1258265 -0.25981283 0.09126935
0001c0 3f 91 1e 3d 04 fc 1b 3e d7 f1 5b bf f1 c5 64 3c
       0.038712736 0.15232855 -0.85915893 0.0139632085
0001d0 74 2a 3d 3c e8 65 c0 3c c3 e8 e2 bc 52 8d 59 bc
       0.011545766 0.023486093 -0.02769888 -0.013278322
0001e0 69 f0 a7 bd 45 41 c9 3c 1e c1 7f bd c5 45 f9 3c
       -0.082001515 0.024567256 -0.06244003 0.030428777
0001f0 9a ef ad bc 9a 52 71 bd 53 06 12 3e 83 1d 8f be
       -0.021232415 -0.058916666 0.14260225 -0.27952203
000200 c6 d6 59 3e 15 b0 b1 bd ae 4f 89 be de 04 ac bd
       0.21273336 -0.08676163 -0.26818603 -0.08399366
000210 a8 e0 28 be ae 26 54 bd 42 62 03 3d 06 86 04 3d
       -0.1649195 -0.0517947 0.032076128 0.032354377
000220 8c 91 16 bd a6 c9 ec 3c 50 1c c8 bc 35 2d db bc
       -0.036759898 0.028904747 -0.024427563 -0.026754955
000230 96 f3 62 3d 35 47 ed 3d f9 d2 34 3d 63 10 49 3f
       0.055408083 0.11585847 0.04414651 0.7854063
000240 8f 3d 48 bd 7f 5a 85 be 62 87 f2 3c 0b 86 23 bf
       -0.04888683 -0.26045606 0.029605571 -0.6387641
000250 dc 63 ab 3d 04 44 03 bf 1d c5 ec bc 31 40 e2 bc
       0.08368656 -0.5127566 -0.028902585 -0.0276185
000260 90 98 4d bd 01 8a 0b 3d 91 e0 62 bd 8c 60 03 3c
       -0.050194323 0.034067158 -0.055389944 0.008018624
000270 62 e6 95 bc c4 b1 0a 3d 2c ec de 3e ad d3 99 3c
       -0.018298332 0.033860937 0.4353956 0.018777693
000280 e9 dc ac 3e ef be c2 3f ae 5e b6 3e 7b 97 af bc
       0.3376229 1.5214518 0.3561911 -0.021434536
000290 ba 92 7e 3d e3 48 33 3e ae 6c 8f bb 8e 4b 6b 3e
       0.062151648 0.17508273 -0.0043769693 0.2297804
0002a0 01 85 db 3c df 85 d9 3d f8 90 40 be e9 7f 97 3e
       0.02679682 0.10621237 -0.18805301 0.29589775
0002b0 80 9e 9d be f4 3c df 3e 9e d8 2b bf ec d1 8d 3c
       -0.30784988 0.4360119 -0.67127407 0.017312013
0002c0 f0 a1 34 3d b8 52 33 3c 42 cd 2f bd 2a c3 c4 bc
       0.044099748 0.010945015 -0.04292036 -0.024018843
0002d0 1c e1 1c 3c 0b 18 13 be 25 58 ec bc b5 cc 2b 3e
       0.009575155 -0.1436464 -0.028850624 0.16777308
0002e0 6f 37 4a 3d 2d d1 93 bc 24 e4 83 3c 5a e8 1b bd
       0.04936927 -0.018044079 0.016099997 -0.038063385
0002f0 34 19 b4 bf 0a b4 07 bd 48 50 fc 3d 53 a7 0b 3d
       -1.4070191 -0.033130683 0.1232 0.03409512
000300 64 c0 b8 bc 25 61 00 3e 5a 85 06 3d c0 bf 59 3d
       -0.022552676 0.12537058 0.032842018 0.053161383
000310 59 54 a2 bc eb 86 07 3d 5c 15 e5 be 84 a8 5f 3c
       -0.01981561 0.033087652 -0.44742858 0.013651017
000320 0b ca 85 bc 58 61 1b 3f 1b f6 24 bd 37 12 92 3f
       -0.016331693 0.6069541 -0.040273767 1.1411809
000330 f6 58 c1 bd d3 17 01 3e 59 fa 1d bd 10 a0 8e be
       -0.09440796 0.12606744 -0.03856883 -0.27856493
000340 12 a7 1f 3e 3f b0 84 3e db 5c e3 bc 93 0d 04 3d
       0.15591076 0.25915715 -0.027754238 0.032239508
000350 c3 92 1c bd c2 82 15 bb 21 31 33 bd c0 f6 a4 3b
       -0.0382259 -0.0022813533 -0.043748025 0.0050342977
000360 18 e3 cf bb 24 31 e4 3b ae 00 ba 3d fd 4f e0 3c
       -0.0063442104 0.006963866 0.09082161 0.027381891
000370 72 b8 19 3f 1e b4 fb bc de 23 bf 3c cc 3d 5e bd
       0.60047066 -0.030725535 0.023332532 -0.054258153
000380 02 8f 40 3e 97 92 79 bd 5a 02 84 3c 21 5d 90 bd
       0.18804553 -0.060930815 0.016114403 -0.07049013
000390 e4 b2 84 bc 24 59 c9 bd af 02 80 be b7 ed e4 3e
       -0.016198583 -0.09831455 -0.25002047 0.44712612
0003a0 fa 1f 03 bf ea fc 80 3d ee fd 4e bf 7a 0e 96 3c
       -0.5122067 0.062982395 -0.80856216 0.01831745
0003b0 4f 95 02 3d c4 6f bc 3b ef 55 d2 3f 37 96 f5 bc
       0.031880673 0.005750628 1.6432475 -0.029978855
0003c0 cd c6 eb 3d ca c4 22 bf 1c 9c 25 be e3 c1 97 bb
       0.115125276 -0.63581526 -0.16172832 -0.0046312674
0003d0 c3 b3 ee 3d 15 d3 7b bc 4e 64 9e 3d 2c 04 19 bd
       0.116553806 -0.01537015 0.07733975 -0.037357494
0003e0 78 8e 1d bc b1 33 3c bd 79 7b 5e 3f a2 1a f3 bd
       -0.009616487 -0.045947734 0.86907154 -0.11870314
0003f0 44 b3 bb 3f 5e a7 14 3f db 5e 51 3f c7 f7 47 3d
       1.4664083 0.5806788 0.8178536 0.048820283

dec_deconv1.bias f4 [12]
000000 ee bd 4b 3f 16 69 e0 3e b7 ea eb 3d ac 71 15 3f
       0.79586685 0.43830174 0.11519378 0.58376575
000010 8c 7b dc 3d 3c 0e 29 3f 53 0e 53 3f 0e 5d b8 3e
       0.10765752 0.66037345 0.8244373 0.36008495
000020 32 2a 87 be 44 e8 ca be 53 45 0b be 19 57 14 bd
       -0.2639938 -0.3963033 -0.13600664 -0.036215875

dec_deconv1.bias_quant.frozen_k f4 [12]
000000 00 00 e0 c0 00 00 c0 c0 00 00 c0 c0 00 00 e0 c0
       -7.0 -6.0 -6.0 -7.0
000010 00 00 e0 c0 00 00 c0 c0 00 00 c0 c0 00 00 e0 c0
       -7.0 -6.0 -6.0 -7.0
000020 00 00 a0 c0 00 00 c0 c0 00 00 c0 c0 00 00 c0 c0
       -5.0 -6.0 -6.0 -6.0

dec_deconv2.weight f4 [12, 24, 5]
000000 20 0d 3b 3d 3e 25 14 bd 78 bd 2d 40 2d 1e 92 3e
       0.045666814 -0.03616833 2.7146893 0.28538647
000010 07 47 0b be 8c 95 8c bd e7 54 8d bf 8f b7 a1 3d
       -0.13601314 -0.06864461 -1.1041535 0.07896339
000020 b5 44 6d 3c 3b de bf 3d af 6b 89 3d b7 a1 69 3d
       0.014481713 0.09368559 0.06709992 0.05703899
000030 b3 bc 5f bf d3 c0 2a 3e 6d 21 5f be b3 ae 8c 3d
       -0.8739731 0.16675119 -0.21790095 0.06869259
000040 85 97 46 3d ee 85 b0 3e 29 c6 79 3e 77 68 d9 3c
       0.048484344 0.3447718 0.24391998 0.02653907
000050 35 6c 68 be e6 9c 29 3e f9 72 f1 3d 8d bc bb bb
       -0.22697528 0.16563758 0.117895074 -0.005729264
000060 2c 94 c5 bd e5 39 05 be 59 20 77 3d 11 f5 16 bf
       -0.09647402 -0.13010366 0.060333584 -0.5896769
000070 cf 38 8a bf 21 74 4c be 5a 7a 22 3c 1d a4 3c bd
       -1.0798587 -0.19966175 0.009916866 -0.046054948
000080 76 2f 89 3e 02 13 33 3d 4e 6e 5d bd 8c e0 84 bd
       0.26794022 0.0437193 -0.054060273 -0.064881414
000090 7f b2 c5 3c 2d 23 a8 3b 88 07 89 bc 26 c8 0c be
       0.024132965 0.0051311464 -0.016727224 -0.13748226
0000a0 29 c2 51 bb 03 bc e1 bd e1 3a d1 be ad 19 00 bf
       -0.0032006598 -0.110221885 -0.40865234 -0.5003918
0000b0 7e 6f f5 bc e4 03 43 be 45 f4 66 3d d9 cd 1d 3e
       -0.02996039 -0.19044453 0.056385297 0.15410556
0000c0 6f ca 45 be 2e 82 8e bd 15 b9 c6 3e 9c 5f 29 bd
       -0.19315504 -0.069584236 0.3881308 -0.041350946
0000d0 55 67 e8 bd 07 5f 33 3f db c2 20 3e 89 50 fb bc
       -0.11347834 0.70066875 0.15699331 -0.03067805
0000e0 8a 2b 5f 3f b6 be e5 3f ea d7 09 3e 1c ae 8c bd
       0.8717581 1.7948825 0.13461271 -0.06869146
0000f0 63 50 51 be 5d e5 fa 3d ed eb 5b bd 11 66 1d c0
       -0.20440821 0.12250779 -0.053691793 -2.4593546
000100 96 ed 3f bd 78 ce 28 3d d4 4c 1d bc d3 81 8a bd
       -0.04685744 0.04121253 -0.009600837 -0.06763043
000110 e0 45 3c 3f eb 45 f7 bb 53 9e 9a 3d 71 29 0a 3e
       0.7354412 -0.0075461767 0.07549729 0.13492371
000120 e3 2b b8 3f f1 40 37 3d fe 7f 8d bd e0 12 01 3d
       1.4388393 0.044739667 -0.06909178 0.03151214
000130 38 4c ae bd f4 8b 38 3f bb 89 b4 bf 8a 2c 87 bd
       -0.08510631 0.7208855 -1.4104532 -0.06600292
000140 5e 3a 94 3c 19 f7 89 3d 7e ab 6e bc e6 78 76 bd
       0.018094238 0.06736583 -0.014567254 -0.06017389
000150 84 e5 17 3e e6 7a d3 3d a0 f5 16 be 34 cc 5f 3d
       0.14833647 0.103261754 -0.14742136 0.054638103
000160 1b b0 1f 3e 2a ed 06 3e c9 f7 35 bc 49 9a 06 3e
       0.15594523 0.13176408 -0.01110644 0.13144793
000170 8b c5 b0 bd 27 8b 57 bd 62 50 a3 3b 15 74 cb bd
       -0.08631428 -0.05262294 0.0049839476 -0.0993425
000180 0a cd 4c bf 57 0e 9b bc 30 bc 82 bf f5 b8 ac be
       -0.80000365 -0.018927736 -1.021368 -0.3373486
000190 1c c8 1c 3e cd 22 3c 3d 16 fe 4a 3e a1 2b bc bc
       0.1531071 0.045931626 0.19823489 -0.022970023
0001a0 ff 83 1f be 24 71 45 3e 51 55 a9 bd 44 49 9f bd
       -0.15577696 0.19281441 -0.08268226 -0.07777646
0001b0 a6 ec 19 3e 8d 7d 53 3e da 28 66 bc 13 c5 98 3e
       0.1503168 0.20653363 -0.014047826 0.29837856
0001c0 24 0f 72 3d 8c 92 8d 3e 3d b7 8d 3d bf 62 44 3d
       0.05909647 0.2765087 0.069197156 0.047945734
0001d0 d1 8b 00 3d 14 3a 83 bf b8 11 ea 3e 91 6a 06 3e
       0.03138334 -1.0252099 0.45716643 0.1312659
0001e0 da 2a 04 3f 5a 53 b4 bf 24 00 a4 bd 71 cc c3 3e
       0.51627886 -1.4087937 -0.08007839 0.38241914
0001f0 6c c9 65 bd b2 9a b8 3e 57 a5 95 be 1b 9d e7 3d
       -0.056100294 0.36055523 -0.29227707 0.11309262
000200 3f c9 43 3e ab f4 94 3d f1 30 ed bd aa 76 89 c0
       0.19119738 0.07273229 -0.115816005 -4.2957354
000210 ee 6e 0b be ab 0d 34 c0 77 16 c7 bd ef 02 fb 3d
       -0.13616535 -2.8133342 -0.09721082 0.12256419
000220 12 60 9b 3f ee f8 4e 3f 9a 44 1b 3e a5 8e 93 3e
       1.2138693 0.80848587 0.15162888 0.28819767
000230 cc dd e8 be ed ba 99 3c c3 79 a6 3d fb 6e e1 be
       -0.45481718 0.018765891 0.08128693 -0.44029984
000240 80 59 9c bd ec 48 ff 3d d8 4e f2 bd c8 0e c1 bd
       -0.07634258 0.124650806 -0.118314445 -0.094266474
000250 3f 7e fe be 39 23 21 bf 0b e1 5d 3e c7 01 3f 3d
       -0.49705693 -0.6294437 0.21667878 0.046632554
000260 ce 68 66 bd 81 b0 e8 3e e6 c4 c7 bd 6e 8f c4 be
       -0.056252293 0.45447162 -0.09754352 -0.38390678
000270 77 41 74 bd e7 10 48 bd 64 00 30 be 64 e3 3e be
       -0.059632745 -0.048844244 -0.17187649 -0.1864143
000280 34 03 19 be f6 e7 71 3f 87 fe e1 3d 22 4e 5b 3f
       -0.14942628 0.9449457 0.11034875 0.85666096
000290 fa 01 41 bc 37 23 1e bf 99 35 fc 3d c4 a3 80 3e
       -0.011780256 -0.61772484 0.123149104 0.25124943
0002a0 52 d0 84 3e 57 e7 1c 3f 0e 88 a0 3e 5e c5 97 3e
       0.25940186 0.61290497 0.313538 0.29642767
0002b0 27 8b 5e be db 1c a1 3e a3 df c9 bd 3d a2 99 3d
       -0.2173277 0.31467327 -0.098571084 0.075016476
0002c0 0d cb 45 3e 84 7c 22 3e 39 ed f3 3e a9 c7 b7 3d
       0.19315739 0.15867811 0.47641924 0.08973629
0002d0 14 61 87 bd ab a1 88 3e 59 d6 70 bd 1a 76 04 bf
       -0.06610313 0.26685843 -0.058798168 -0.5174271
0002e0 51 5f cc be 9c 28 f3 3c 5e 67 af 3c bf 02 04 bd
       -0.3991647 0.02968245 0.021411594 -0.03222918
0002f0 32 8f 03 3d 3c f5 df 3d e9 03 39 be 8d 9c 57 bd
       0.032118984 0.109354466 -0.18067898 -0.052639533
000300 98 99 a2 be 99 d8 30 3f 99 95 9f be 94 63 8a 3c
       -0.31757808 0.690805 -0.3116882 0.016893186
000310 b3 8f 80 3e 47 bc 67 3f 45 44 b9 3e b0 17 c3 3d
       0.25109634 0.90521663 0.36184898 0.095260024
000320 55 cf ad 3d 9d 16 ba be d2 d6 79 bb d2 6a a8 be
       0.08486811 -0.36345378 -0.0038122428 -0.32893997
000330 5b d3 ae 3d 05 cd 3e 3e 0e a4 3e 3d e1 ef 43 3d
       0.085364066 0.18632896 0.046543173 0.04783619
000340 18 0b 9b 3f 76 d4 d1 3e 62 54 c8 3c c6 98 87 3d
       1.211276 0.40982407 0.0244543 0.06620936
000350 a3 70 0c bf 5a 9c 24 be a4 19 c6 bd 87 27 2c bd
       -0.5485937 -0.16075268 -0.09672859 -0.042029884
000360 96 03 3f bf b4 4c 6b 3d f6 5a 81 3f 2c e0 fb 3d
       -0.74614847 0.057446197 1.0105884 0.12298617
000370 77 ad 81 3e a8 22 00 3e 01 22 80 3e 56 5d 07 bd
       0.25327656 0.1251322 0.25025943 -0.033047996
000380 d1 ca a8 3f 4a 39 1f 3e 5d 44 3d be 0b fe f5 bd
       1.3186895 0.15549198 -0.1848311 -0.120113455
000390 8f dd b1 3e 68 00 39 3e 71 c2 9a bc 95 f2 39 3f
       0.34739348 0.18066561 -0.018891545 0.72635776
0003a0 1f a5 46 bf 6d 42 06 3f 8c 80 69 3d 60 52 81 3e
       -0.77595705 0.5244511 0.057007357 0.2525816
0003b0 fe 08 ab bf 32 02 fb bd 1f 96 ad bc 3c 67 f9 3e
       -1.3362119 -0.12256278 -0.021189747 0.48711574
0003c0 e6 81 a0 be d9 74 8e be fd 05 4e 40 9c b1 de bf
       -0.31349105 -0.27823523 3.2191155 -1.7397952
0003d0 82 65 53 bd 7b 55 91 bd ad 09 32 bf 07 4b ef bf
       -0.051610477 -0.07096382 -0.69546014 -1.8694772
0003e0 3c 9b c6 bf cf 7d 34 3e 5f 02 03 3e f8 49 ab bf
       -1.5516124 0.17626117 0.12793873 -1.3381948
0003f0 34 d7 12 c0 c5 eb 75 bf df 60 95 3e de 86 42 3e
       -2.294385 -0.9606288 0.2917547 0.1899676

dec_deconv2.bias f4 [24]
000000 7d 90 3f 3e 8f 97 8b bf ab 93 c1 3d 38 b7 80 3e
       0.18707462 -1.0905627 0.094519936 0.25139785
000010 91 22 fc be cc cb de be 9e 38 15 bf d2 30 47 bf
       -0.49245122 -0.4351486 -0.58289516 -0.7780887
000020 44 26 c9 bc 57 40 89 bd 30 df e7 bc a4 7a 1a bf
       -0.02455438 -0.06701725 -0.028304666 -0.60343385
000030 d4 68 85 bf d5 7a 22 bf ac d1 87 bf 3c 0a fb 3e
       -1.0422616 -0.63468677 -1.0610862 0.49031246
000040 05 dc 26 bf 20 cf 3f 3e 79 e8 a3 bf cf dd bc be
       -0.65179473 0.18731356 -1.280532 -0.36887977
000050 f4 c7 00 3d ed d8 8c be f2 f0 25 be 6a b5 bb 3d
       0.03144069 -0.2750925 -0.16205195 0.09165461

dec_deconv2.bias_quant.frozen_k f4 [24]
000000 00 00 a0 c0 00 00 a0 c0 00 00 a0 c0 00 00 a0 c0
       -5.0 -5.0 -5.0 -5.0
000010 00 00 c0 c0 00 00 c0 c0 00 00 c0 c0 00 00 a0 c0
       -6.0 -6.0 -6.0 -5.0
000020 00 00 c0 c0 00 00 c0 c0 00 00 a0 c0 00 00 a0 c0
       -6.0 -6.0 -5.0 -5.0
000030 00 00 a0 c0 00 00 c0 c0 00 00 80 c0 00 00 a0 c0
       -5.0 -6.0 -4.0 -5.0
000040 00 00 c0 c0 00 00 a0 c0 00 00 c0 c0 00 00 a0 c0
       -6.0 -5.0 -6.0 -5.0
000050 00 00 a0 c0 00 00 a0 c0 00 00 a0 c0 00 00 a0 c0
       -5.0 -5.0 -5.0 -5.0

dec_deconv3.weight f4 [24, 1, 5]
000000 54 a7 1f bc 71 fc f5 3b 3b 53 51 3e f7 31 0e 3c
       -0.009744484 0.0075069 0.20441906 0.008678905
000010 29 c9 f9 3b 15 e1 ab 3b 72 c8 04 3d 25 f2 72 bc
       0.007622857 0.0052453377 0.032417722 -0.01482824
000020 c1 cc 3b 3c 45 41 ff 3d fc 66 8c bc 9b 38 6e 3c
       0.011462391 0.12463621 -0.01713895 0.014539863
000030 01 e1 51 be cc 69 83 bb 96 e7 06 3c f8 ba be 3d
       -0.20495988 -0.0040104147 0.008233925 0.09313005
000040 3a 63 62 3e 94 8f 46 3c 45 b1 1f 3d 89 ef 40 bc
       0.22108164 0.012119193 0.038987417 -0.01177586
000050 2c 19 10 3d 8f ba 0b 3d f1 f5 82 3e d3 52 3f 3e
       0.035180256 0.034113463 0.25578263 0.18683939
000060 00 0b b0 3d 6d 45 85 bd 4e a3 b7 bd bb 4b 92 bc
       0.08595848 -0.065073825 -0.08966695 -0.017858377
000070 16 3c 80 3c 3d 82 13 3b c7 fd ac bb 90 ed 4e bb
       0.015653651 0.0022508048 -0.005279276 -0.0031574704
000080 75 09 ff 3b 59 b1 c3 bb 0a 5e b7 3e df 85 00 bd
       0.00778311 -0.005972069 0.35813934 -0.03137767
000090 4a 62 12 bd 44 95 f1 bd 2c b0 09 3c 6f 7c 36 3e
       -0.035738267 -0.11796048 0.008403819 0.17820905
0000a0 ac 04 15 bc 19 2d f6 3d 80 1e f1 3d cc da 59 3e
       -0.009095352 0.120203204 0.117733955 0.2127487
0000b0 6f 97 b5 3e bd d6 8c bb fc 0b af bd a8 38 15 3d
       0.35467097 -0.0042980597 -0.08547208 0.036430985
0000c0 4b 8d 63 3e e9 73 47 3d 13 09 0f 3d 6f 1a df 3d
       0.22221868 0.048694525 0.034920763 0.10893714
0000d0 ea 73 6c 3e d9 18 ed 3d f0 37 f5 3b c7 bd e8 bc
       0.23091093 0.11577005 0.007483475 -0.028410805
0000e0 12 6d ab 3d 7f 1a bb 3c af 3e 60 bb 41 c6 81 3c
       0.08370413 0.022839783 -0.003421705 0.015841605
0000f0 e6 7a 24 be a6 67 0f be 38 49 09 be f5 76 74 bd
       -0.16062507 -0.14004382 -0.13406837 -0.05968376
000100 fb e0 86 3c a8 d8 de 3c f8 07 a4 3e ee 7a a9 3e
       0.0164647 0.02720292 0.3203733 0.331016
000110 13 8e 7f 3d a5 3b f2 3a ec de f8 bc 80 bf 8a 3b
       0.062391352 0.001848091 -0.030379735 0.0042342544
000120 56 d7 64 3e 6b e8 46 3e e9 5a 52 bb c0 ba ff 3d
       0.22347769 0.19424598 -0.0032097644 0.124867916
000130 2d 86 48 3d 27 46 1d 3e df 30 5b 3d 46 14 5f 3e
       0.048956085 0.15358792 0.053513404 0.21785077
000140 54 61 86 3b a9 d7 03 be e0 fd 6f be 91 45 82 bd
       0.004100958 -0.12875237 -0.2343669 -0.06360925
000150 da 85 27 3c ff ce 4d 3c fa 03 00 3e 9e b5 53 bc
       0.010224784 0.012561559 0.12501517 -0.012921719
000160 75 db 0a bd 18 83 93 3b d4 2d 87 3c 98 70 16 3d
       -0.033900697 0.0045017116 0.016501345 0.03672847
000170 a1 1f 15 3e d8 a6 e3 3c f3 6d 8c 3c c0 d1 21 3d
       0.14562847 0.027789518 0.017142272 0.039506674
000180 a1 d7 6a 3d 5a 7f 2f 3d d1 b8 25 3d 6a ea ad bc
       0.057334546 0.04284606 0.040459458 -0.021229941
000190 64 22 8d 3c 21 9a ea 3d 61 d3 03 3e f2 ba a7 3d
       0.017228313 0.11455179 0.12873603 0.08189954
0001a0 9a 40 02 3d 11 0b 17 3e d7 67 4f 3e 17 8b d3 3d
       0.03179989 0.14750315 0.20254456 0.10329264
0001b0 1e 42 10 3e 7b ac 0d bd b0 85 ab 3c d7 00 76 3c
       0.14087722 -0.03458832 0.02093777 0.015014849
0001c0 10 6c 51 3d 8b c1 e2 3d 30 5b 10 3c 37 cd df bd
       0.051128447 0.11072072 0.008810803 -0.109278135
0001d0 3f 28 ba bd 23 d7 de bb 2a be 3f 3c e8 8c 4c 3c
       -0.090897076 -0.0068005486 0.0117030535 0.012484767
