models/SNN_Autoencoder_tsri_test.pth (torch, 25395 bytes, 11 tensors)

encoder_conv1.weight f4 [24, 1, 5]
000000 e2 51 ad 3f f9 33 ac 3f a7 69 77 3c 2d e8 87 bb
       1.3540614 1.3453361 0.015100873 -0.0041475506
000010 b2 1c 7a 3c 37 3a 0c bf 1e 1c 6c bf 2d 23 fb bf
       0.015265631 -0.5477633 -0.92230403 -1.962011
000020 7e 0c 9b 3e 1e cf 9d 3e 05 c9 33 be 98 fa 1b 3f
       0.30282968 0.3082208 -0.17557152 0.6092925
000030 fe 87 82 3f 47 bd 2e 3f 35 24 1f 3f e0 11 1c 3d
       1.0197752 0.68257564 0.6216462 0.038102984
000040 38 59 40 3d d4 a3 67 bc 9b 26 c6 3f f1 2d ca 3f
       0.046960086 -0.014138181 1.5480531 1.579527
000050 b2 73 2b 3e ea c2 ce bd 98 8b 23 3d ca 2d b6 be
       0.16743353 -0.10095771 0.03992805 -0.3558181
000060 0c ca d4 be cb 8e 50 3e 6c ac 4e 3f 52 0e 96 3f
       -0.415604 0.20366971 0.80731845 1.172312
000070 38 5d 36 3f 3c 65 b9 3f b1 ba d2 3e ca b5 2b 3f
       0.7123599 1.4484019 0.4115806 0.67074263
000080 18 8c ab 3f cd fe 86 bf 50 13 95 bf d1 47 84 3e
       1.3402128 -1.0546509 -1.1646519 0.25836042
000090 6b 0d 86 bc 28 0c 82 3f 12 53 9e 3f 24 7f ee 3e
       -0.01636382 1.015996 1.2369101 0.46581376
0000a0 62 1b 88 3f 21 e0 71 3f 34 25 7f be 62 33 6b be
       1.0633357 0.9448262 -0.24916536 -0.2296882
0000b0 28 1a b2 bf 29 b6 06 be 64 d7 36 be 56 c1 c8 be
       -1.3914232 -0.13155426 -0.17855603 -0.39210004
0000c0 e8 91 d2 be b3 cf b2 bc a8 0c ea 3d e3 8a b7 3a
       -0.41126943 -0.021827554 0.11428195 0.0014003183
0000d0 ca d6 0f be d9 d3 91 be 6b 71 83 be 96 7f c3 be
       -0.1404678 -0.2848194 -0.2567247 -0.38183278
0000e0 ad 70 99 be 86 36 23 be 42 a3 89 be d5 cf ee bd
       -0.29968777 -0.15938768 -0.26882368 -0.116607346
0000f0 8e 44 90 3f e9 7f aa be a7 45 be bf 8c c6 b5 be
       1.1270921 -0.33300713 -1.4865006 -0.35503042
000100 78 6e 53 be 0d c9 ab bf fc 61 49 3f 6d 0c 24 3f
       -0.20647609 -1.3420731 0.7866514 0.6408146
000110 e0 ea bb 3b 8c ab d3 bd 08 b0 da 3d 7b 89 8d 3f
       0.0057347864 -0.10335454 0.106781065 1.1057581
000120 79 2a 7e 3f 71 59 d4 3d 74 81 ca 3b 18 39 a3 3e
       0.9928356 0.10368622 0.006179983 0.31879497
000130 e8 3f 0d be 60 e8 40 be 8e c7 50 3e 22 83 29 be
       -0.1379391 -0.18838644 0.20388624 -0.1655393
000140 38 29 52 bb 65 2a c1 3c bc b4 39 3d 55 d3 b3 3f
       -0.0032068025 0.023579786 0.045338377 1.4048868
000150 bb c7 0d 3d 4c ed 95 3f 8b ce 90 3f 5c bb a8 bd
       0.034614306 1.1713042 1.1313032 -0.08238861
000160 65 1f 1a 3e 78 c7 62 3e 25 94 c0 bd 29 b0 25 bd
       0.15051039 0.22146404 -0.09403256 -0.040451203
000170 c7 63 a8 3e 97 a2 c2 3f 3e c5 05 3e c9 09 41 bf
       0.32888624 1.5205868 0.13063523 -0.75405556
000180 67 df 46 bf 60 9f 2c bd 67 1b 01 bc 52 f6 12 bd
       -0.77684635 -0.04214418 -0.007880068 -0.03587944
000190 86 74 be ba 32 6c b7 3b 5f 23 ab 3f a3 65 d7 3b
       -0.0014530576 0.0055976147 1.3370169 0.0065733953
0001a0 e6 c1 0c 3c 69 bf 00 be 2c f5 24 be cc 5d 1b 3e
       0.008591151 -0.12573017 -0.1610915 0.151725
0001b0 46 f6 95 3f 18 72 a5 3f de 96 8e 3f 0f 80 96 3f
       1.1715782 1.2925444 1.1139791 1.175783
0001c0 ca 7e be 3c 10 a2 09 be d0 39 df 3d e3 e4 b8 bb
       0.023253817 -0.13440728 0.10899699 -0.00564252
0001d0 65 ee 7e 3f 0f 65 c2 3f 71 53 dc 3f ab 11 8c bc
       0.9958251 1.5187091 1.7212964 -0.017098268

encoder_conv1.bias f4 [24]
000000 2f f9 fd bd d9 86 9d 3f ac 0d 80 bf 29 36 ae be
       -0.124010436 1.2306777 -1.0004172 -0.34025696
000010 39 17 0f be 73 b3 09 bf 99 83 d7 3d 6c 36 3b bf
       -0.13973702 -0.5378944 0.10523147 -0.73129916
000020 a7 71 0e 3f 1d 43 ae be 53 94 d6 be 20 f7 60 3e
       0.5564217 -0.34035578 -0.41910037 0.2196927
000030 07 15 dd 3e 7a 14 5b 3f c3 36 5b bf 91 e9 b1 be
       0.43180105 0.8557812 -0.85630435 -0.3474851
000040 33 21 6f be d1 5d 2e bf 19 44 04 be 9b 1d e7 3f
       -0.23352508 -0.681119 -0.12916602 1.805591
000050 ea fe c7 bd 16 b0 70 bf 18 b7 7c bf d6 82 7a bc
       -0.09765418 -0.94018686 -0.9871688 -0.015289983

encoder_conv2.weight f4 [12, 24, 5]
000000 9b ff 82 3d 67 f7 28 3d f0 a3 55 3d 0c 3c 0f 3e
       0.06396409 0.041251566 0.052158296 0.1398775
000010 9c 4f 20 3e 6b a6 48 3d 75 0a d8 3d 86 04 5e 3e
       0.15655369 0.048986834 0.105488695 0.21681413
000020 42 f1 ed 3d c7 d1 0a 3e bd 3d a7 bd 00 ce 22 3e
       0.11618282 0.13556586 -0.081660725 0.15898895
000030 65 4d b3 bd a8 0d d0 bd a1 56 f2 bc 13 da f9 bc
       -0.08754996 -0.10158855 -0.029582324 -0.030499494
000040 15 72 06 3c ba f4 b5 3d 20 08 72 bd 46 58 5b 3d
       0.00820591 0.088845685 -0.05908978 0.05355098
000050 ca f2 54 bd 03 67 08 bd fc 15 85 3d c0 bd 76 3c
       -0.051989354 -0.033301365 0.06498334 0.015059888
000060 d0 1e 94 bd c1 04 95 bd 33 54 eb bd 7d 5b 04 be
       -0.072324395 -0.07276297 -0.11490669 -0.12925525
000070 a0 d5 0b bd 87 48 d8 3b c7 ba d7 bc a5 af 26 bc
       -0.034139276 0.006600443 -0.02633418 -0.010173713
000080 2e 95 99 3c c5 53 88 3c 52 94 e8 3c 94 c6 fa bd
       0.018747892 0.016641507 0.028391037 -0.12244907
000090 7b 4d 64 3d cb e5 2e be 1e ee 6c bd 35 21 46 bd
       0.055737954 -0.17079847 -0.057844274 -0.048371512
0000a0 9b dc 52 bd c4 a0 6d bd ea 0c 88 3d 6d fa 18 3d
       -0.051479917 -0.058014646 0.06643088 0.0373482
0000b0 90 4d f6 3c 00 e7 68 bd 5e a3 ae 3d 2e c8 a3 3d
       0.030066282 -0.056860924 0.085272536 0.079971656
0000c0 c8 61 74 3d 1a 0c 40 bd 2c 08 9e 3d b1 dc 00 bd
       0.059663564 -0.04688654 0.077164024 -0.031460468
0000d0 f2 23 f8 bc 57 11 6b bd 74 da 0c 3d 08 36 74 3d
       -0.030290578 -0.057389583 0.03438802 0.05962184
0000e0 b8 3d 12 3d 93 61 3e bd 86 d6 05 bd 9f b6 a8 bd
       0.03570339 -0.046479773 -0.03267529 -0.08237957
0000f0 02 cc ab bd e2 59 c0 3c 84 8b 25 3e ea 44 08 3d
       -0.08388521 0.02348036 0.16166502 0.033268847
000100 cd 10 33 3e 0e 0f d0 3b c2 37 23 3d 8c da 00 bd
       0.17486878 0.006349451 0.039848097 -0.031458423
000110 5b 62 5a 3d c9 7f 49 3d 9c 00 15 3e 4c 05 8b 3e
       0.053316455 0.04919413 0.14551014 0.2715248
000120 4c 86 c9 bd 7e 7d f4 bc b8 d1 89 bd 28 1a e8 3c
       -0.09840068 -0.029844996 -0.06729454 0.028332785
000130 28 cd 55 3d 81 ea 3a bd c0 4b af 3d 70 f1 dd bb
       0.052197605 -0.045633797 0.0855937 -0.0067731664
000140 86 0c 1d 3d 2c 4c 85 bc 56 05 71 3d c2 54 ef 3d
       0.03834202 -0.016271673 0.05884298 0.11686088
000150 f0 23 93 3d 6b 51 92 3d 2b 90 93 3b c9 f3 fc bd
       0.07184589 0.071444355 0.00450327 -0.12351186
000160 36 88 79 3b 94 49 f1 bc 3b 7f 2f 3e 32 4d 92 ba
       0.0038075573 -0.02945403 0.17138378 -0.0011161922
000170 ee a2 96 be 5f f8 d2 bc e8 88 cc 3d db b7 6a 3d
       -0.2942118 -0.025753198 0.0998705 0.057304244
000180 95 ad 89 3d d6 9d 15 3e 1b 9b b6 3d 83 3d bb 3d
       0.06722561 0.14610991 0.08916303 0.09142592
000190 3e 64 ad 3d e7 61 c2 3d c5 22 9d bf d3 41 af 3d
       0.08466385 0.0949133 -1.2276236 0.08557477
0001a0 42 e2 18 3e 45 0c 22 3d 31 62 74 3d c9 5f 21 3e
       0.1493006 0.039562482 0.059663955 0.15759195
0001b0 05 a9 1c bd f7 b6 39 3c 3c 07 6d 3e f0 67 a1 3d
       -0.038247127 0.011335126 0.23147291 0.07881153
0001c0 96 df f4 3d 06 28 97 3d 55 43 29 3e f3 ad 19 bd
       0.11956708 0.07380681 0.16529591 -0.037519407
0001d0 54 6d c6 bc 4e 91 6a 3d cb 7c 1c bd c3 43 a5 3c
       -0.024222054 0.05726748 -0.03820495 0.020173913
0001e0 81 0e c7 3e 90 7a cb 3c 9c d9 00 3d 32 bb 91 ba
       0.38878253 0.024838716 0.03145753 -0.0011118411
0001f0 5f f1 51 3c 73 af ef bd b3 9e 7c bd 73 80 48 bd
       0.012813895 -0.11703386 -0.061674785 -0.048950624
000200 7f 8f 26 bd 38 f7 5f bd 75 7f 9d 3d 2a ec 92 3a
       -0.040664192 -0.054679126 0.07690326 0.0011209298
000210 17 0f a0 bd be de 8b bd 26 de fc bc fa 76 05 3d
       -0.07815378 -0.06829594 -0.030867647 0.032584168
000220 24 27 20 bd b0 dd 8d bc 78 94 ae 3c 3c 05 bb 3c
       -0.039099827 -0.017317623 0.02131103 0.022829644
000230 b4 ab b9 3d 88 51 26 3d 63 95 08 bd 10 f5 ad 3b
       0.09065953 0.040605098 -0.03334559 0.0053087547
000240 48 61 92 bd 58 de 21 3e e3 bf ce 3c b3 2a 07 bd
       -0.07147461 0.15807474 0.025237983 -0.032999706
000250 d0 7d 0b bc 37 01 4a 3d 88 9a ca 3d ab 83 4f 3c
       -0.008513883 0.049317565 0.09892756 0.012665669
000260 02 52 9e ba 8c 42 18 3d 4b bd 01 3d 8c 2c 98 3d
       -0.0012078884 0.03717284 0.031674664 0.07430372
000270 dd d7 9b bc 61 c0 4c bd 05 e5 02 bd f0 7c fd 3c
       -0.01902383 -0.049988154 -0.03195669 0.030943364
000280 c2 cb f1 3d f9 93 81 bb 0f d9 55 3c 7e e2 6b bc
       0.11806442 -0.0039544073 0.013052239 -0.014397262
000290 80 ac 06 bd 5c 74 90 bd ce c5 1a bd 2c 84 a7 3c
       -0.032879353 -0.07053444 -0.037786298 0.020448767
0002a0 18 12 6f bc b2 a2 b9 3d a4 90 84 3d 80 85 b3 3c
       -0.014591716 0.09064235 0.064729005 0.021914244
0002b0 e0 b4 ec bc 1c 11 9b bc 08 36 0e 3c 00 36 db bb
       -0.028894842 -0.018929057 0.008679874 -0.006689787
0002c0 d6 24 66 bd aa e6 4a bd a3 c6 32 bd d1 72 8d bd
       -0.056187473 -0.049536385 -0.043646466 -0.06906665
0002d0 f3 a7 7f bb 96 90 f5 bc f7 9b 36 3d 48 50 00 3d
       -0.0039010018 -0.02997617 0.044582333 0.031326562
0002e0 9f e5 18 3d f5 2d ae bd 73 cd 48 bd a9 41 49 bd
       0.03732836 -0.08504859 -0.049024057 -0.049134884
0002f0 fd ab 53 bd 8d 32 8e bd bb 57 0b 3d d2 a5 b1 bb
       -0.051677693 -0.069432355 0.034019213 -0.0054213786
000300 cd cf e3 bd 1b a6 e7 bc ef bc 51 bd 94 21 24 3d
       -0.11123619 -0.028277447 -0.05120557 0.040071085
000310 08 27 51 3c 52 e8 a2 bd 5c db ad 3c 2c 7a 3d 3d
       0.012765653 -0.07954468 0.021222763 0.04625909
000320 e0 36 91 3c 03 c5 ec bd f8 f3 90 bc 4e 9d b6 bc
       0.017726362 -0.115610145 -0.017694458 -0.022291806
000330 f9 b3 d9 bb 91 5a 8f 3e 5d 9c ce 3c a1 2b ae 3c
       -0.006643769 0.27998784 0.025221044 0.021261038
000340 b8 4a 14 3c 8f 8e 02 bd fd 0b 2b 3d cb 24 e1 bd
       0.009051017 -0.031874236 0.04175948 -0.10993346
000350 67 7c 67 bd 08 97 e4 3c df 26 97 bc 85 85 91 be
       -0.056515124 0.027904049 -0.018451152 -0.2842218
000360 cf 9f 87 bb 65 9b d3 3b 7d a2 a4 3b 97 47 84 bb
       -0.0041389237 0.0064577335 0.005024253 -0.0040368545
000370 6c 96 b8 3e 65 48 22 bd e8 a2 ab bd ae a5 22 bd
       0.36052263 -0.039619822 -0.08380681 -0.039708786
000380 4c 74 fd 3c 42 ae 23 3d 4a 2d 68 bd cf d1 da 3b
       0.030939244 0.039961107 -0.056683816 0.006677843
000390 c3 ad a0 3a 50 0c a6 bd b7 60 42 3e f7 30 2b 3d
       0.0012258816 -0.08107817 0.18982206 0.041794743
0003a0 8c 5c 32 3c 25 1a 3c 3c 5c 6f 87 bd ae 14 80 3d
       0.010886323 0.011480843 -0.06613037 0.06253944
0003b0 f6 a3 5d 3d f8 8f 5c 3c 36 f2 36 3d d1 ec 12 3d
       0.054111443 0.013462059 0.044664584 0.035870377
0003c0 91 d0 01 bd c4 6f 2c bd e2 c6 8b 3e 01 85 1c 3e
       -0.031693045 -0.042098776 0.27300173 0.15285112
0003d0 26 4b 75 3d 54 b8 15 3c 25 34 46 3d 10 da 02 3e
       0.05988612 0.0091381855 0.048389573 0.12778497
0003e0 d6 60 58 3c 5f 6d b1 bc 23 19 95 3c 03 30 89 bd
       0.013206681 -0.021658598 0.018200463 -0.06698611
0003f0 2d 95 02 bd 61 70 be bb e7 0c 65 3e 90 57 a2 bd
       -0.031880546 -0.0058117365 0.22368203 -0.079268575

encoder_conv2.bias f4 [12]
000000 1e fb 08 3f ea e2 be 3d 53 a6 25 be 65 fa 50 be
       0.53508174 0.09320624 -0.16176729 -0.20408018
000010 4e ad cd be 01 c2 45 bd ee 66 fa bc 2e fe 8b be
       -0.40171283 -0.04828072 -0.030566659 -0.2734236
000020 6f e2 d8 3e 77 69 35 3e 57 d9 18 3e 49 88 0b 3f
       0.42360255 0.17716013 0.14926659 0.5450483

encoder_conv3.weight f4 [6, 12, 5]
000000 29 3d 67 3c 2b 30 e8 bc 66 e2 b4 be a8 c3 f1 3d
       0.014113703 -0.02834328 -0.35328978 0.118048966
000010 1b a1 8b bd 0d 2b 50 3d a6 bb 0e bc bc e5 20 3e
       -0.06817838 0.050822306 -0.008711731 0.15712637
000020 3f d1 61 bd 59 45 13 3d a1 9d de bc b9 b7 14 bd
       -0.055131193 0.035954807 -0.027174773 -0.036308024
000030 64 43 18 3d 29 d3 2a 3c 06 08 01 3d eb 6e b1 ba
       0.037173644 0.010426321 0.031501792 -0.0013537084
000040 f5 b7 11 3b 9f ca 77 3d 30 72 9f 3d 53 57 1c bd
       0.002223489 0.06049597 0.077854514 -0.038169216
000050 bf 7f 16 3b b6 54 20 3d ba 71 cd 3e 2c 95 0d be
       0.0022964326 0.039143287 0.4012583 -0.13826436
000060 c6 08 2a 3c 90 4b 99 bb b0 b0 ad bd 53 4f d5 3e
       0.010378068 -0.004678197 -0.08480966 0.41662082
000070 69 63 d5 3d d1 5e 84 3c 5c 8e 0b 3c 3c 7b f5 3b
       0.104193516 0.016158493 0.008517828 0.0074914973
000080 6b 5b 4d 3e 4b 2a 78 bc 10 65 67 3d 75 ae f8 bc
       0.20054404 -0.015146802 0.056492865 -0.030356625
000090 63 59 19 3d 34 e5 64 3e 5a 9d 5e 3b 96 91 32 3c
       0.03743876 0.22353059 0.00339683 0.010898968
0000a0 2b d4 0f 3d 36 4d fe bb e8 4a 5c 3e 6a 2a 30 bc
       0.03511445 -0.007760669 0.2151295 -0.0107523
0000b0 a8 87 0f 3b 69 bb 1b bd b1 21 79 3a 0a e9 64 3d
       0.0021900926 -0.038020525 0.00095036166 0.055886306
0000c0 52 5a 05 3d e2 c5 17 bd ef d8 1f bb 22 df b3 3b
       0.03255684 -0.03705395 -0.0024390777 0.005489246
0000d0 a0 49 40 3e 19 32 78 bd 61 16 2f 3b 1a e5 ab bc
       0.18778086 -0.06059465 0.002671622 -0.020983268
0000e0 9b fe 74 3c 09 5d 6b 3d 68 a0 85 bb f9 4c b0 bc
       0.014953281 0.057461772 -0.00407796 -0.021521078
0000f0 5e 0d 05 bd f9 a6 39 bd be b6 6b be 7f dd 29 3a
       -0.03248345 -0.045325253 -0.2301893 0.0006479844
000100 fd d8 cc 3c e5 75 3a bd 43 8c 71 3d d8 04 00 3f
       0.025005812 -0.04552259 0.058971655 0.5000739
000110 71 a4 c7 3d 24 6c 60 3d 4c 04 3a 3c 7d ff da bb
       0.097481616 0.05479063 0.0113535635 -0.0066832886
000120 8b 05 5d bd ea 81 99 3d 51 cb 40 bc 38 b2 d3 3b
       -0.053960364 0.07495482 -0.011767224 0.0064604543
000130 51 c5 90 bd 30 e9 e3 3c 7b b5 95 bf f4 0a 17 bd
       -0.07068885 0.027821153 -1.1696008 -0.03687568
000140 f2 be 01 bc 6a f6 3e 3d e6 38 82 bd 5d 27 1d 3e
       -0.00791906 0.046621718 -0.06358509 0.15347047
000150 79 89 ac bb fe cd 0e bc 5a 3e be bc 04 84 0c 3d
       -0.0052654115 -0.008716105 -0.02322309 0.034305587
000160 3f cb b9 3b 8e 60 fe bb 7b ff 16 bd 3c 00 f9 ba
       0.005669981 -0.007762975 -0.03686474 -0.0018997262
000170 1e 2a 16 3d ea 52 a0 3d 51 6c 78 3c e1 58 3d bd
       0.03666126 0.078283146 0.015162543 -0.04622734
000180 0d b3 f4 3c 47 f7 04 3e b2 b8 e8 3d 7c af 24 bd
       0.029870534 0.12984954 0.11363353 -0.040206417
000190 5e 80 85 3c b5 3b 06 3d 29 ba 47 bf d0 5f 00 3d
       0.016296562 0.032771785 -0.7801843 0.031341374
0001a0 36 74 0e 3e fe 8a cf 3a 1e da cb 3c a1 08 c8 be
       0.13911518 0.001583427 0.02488428 -0.39069083
0001b0 4a 01 36 bd 35 ed b6 bc e2 3a 66 bb ed c0 2c bc
       -0.044434823 -0.022329906 -0.0035130312 -0.010544044
0001c0 cb a4 e9 bc ea 8b 27 3d 3e ab ac 3c 3c e8 6a 3c
       -0.028520962 0.040904917 0.021077748 0.014337596
0001d0 d4 51 a9 3c 48 0d 1a be d4 66 11 bd dd 72 3c 3d
       0.020668902 -0.15044129 -0.035498455 0.04600798
0001e0 e6 89 08 3d 34 05 35 3e a2 9d 15 bc 9f 98 d3 bc
       0.033334635 0.17677766 -0.009131821 -0.025829611
0001f0 5b fe a3 ba 74 6f ae bd e4 08 14 3f 58 05 c9 bc
       -0.0012511717 -0.08517352 0.57826066 -0.02453868
000200 16 f3 52 3a ab 66 ad 3c c5 0b 01 3e c4 01 e4 3c
       0.0008047087 0.02116712 0.12602146 0.027832873
000210 4d 9c 25 3d 5b 83 f0 bc e2 40 5e 3c 0b ee 00 3e
       0.040432263 -0.02935951 0.013565274 0.12590806
000220 3b 60 12 3d 7e 30 61 bd 46 12 e6 bc 4e 65 31 3b
       0.035736304 -0.054977886 -0.028084885 0.002706844
000230 0e 20 55 bd 0d a5 81 be c3 e9 50 bb f6 ef 1d bc
       -0.052032523 -0.25321236 -0.0031877614 -0.009639731
000240 65 34 14 bc d2 19 4d 3d 70 23 bf 3d e5 c8 5d 3d
       -0.009045695 0.050073452 0.09332931 0.054146666
000250 d2 d0 aa bc 95 d9 ae 3b 55 39 3a 3d 51 f7 07 3e
       -0.020851526 0.0053359964 0.045464832 0.13277937
000260 04 ef d2 3c 8e b8 43 3c 56 57 a3 bb 6c 7c d9 3c
       0.025748737 0.011945857 -0.0049847765 0.026548587
000270 c0 d8 14 3d 3e e0 ca 3c a6 c6 37 bc 39 fd a5 3c
       0.03633952 0.02476513 -0.011216795 0.020262348
000280 3d c6 00 be 55 15 4a bd 0b 10 21 bd b2 5f 22 3b
       -0.12575622 -0.04933675 -0.03932194 0.0024776277
000290 ed 4a 42 3c 5e b1 a1 3d ee 40 94 be 44 11 10 3c
       0.011858684 0.07895158 -0.28955787 0.008793179
0002a0 4e 38 24 bc 1e 65 19 bc 44 03 21 bd 98 23 af bd
       -0.01002319 -0.009362487 -0.039309755 -0.08551711
0002b0 c3 e0 71 3b 66 9d 9c 3c 05 6c 24 ba 86 a3 9d 3c
       0.003690765 0.019118022 -0.00062721997 0.019243013
0002c0 d7 fa c2 3d ac 42 66 bb d8 21 39 3c 22 6c fc ba
       0.095205 -0.0035134954 0.011299573 -0.00192583
0002d0 55 fa 88 3c a5 ad c1 bc f3 11 ee 3d f0 80 0b 3e
       0.01672093 -0.02364237 0.11624517 0.13623405
0002e0 09 88 77 3c de b8 a2 3b 0b 15 34 3b 2b 0e 90 bb
       0.015108117 0.0049658855 0.0027478363 -0.00439622
0002f0 e7 9c 5f bd 52 c1 3a bb 79 0e 69 3c 82 6a 19 3a
       -0.054592993 -0.0028496576 0.014224642 0.0005852358
000300 2c ce 18 3e 18 85 26 3e b2 6e 04 3c 61 83 99 3c
       0.14922398 0.16261709 0.008083032 0.018739404
000310 35 c3 81 bc ef 22 df 3d c8 d9 9f bc eb b2 98 bd
       -0.015840152 0.10895335 -0.019513026 -0.07456001
000320 e5 6f 46 3c d0 06 3d 3c e4 b1 74 3c fa c7 81 bc
       0.012111639 0.011537269 0.014934991 -0.015842427
000330 75 62 05 3c 64 0e af 3c 6a f9 30 bd a1 a4 f0 3d
       0.00814115 0.021369167 -0.04320661 0.117501505
000340 06 69 19 3d 3d b7 de 3b e1 f1 f7 bb 2c a1 e6 bb
       0.037453674 0.006796746 -0.007566676 -0.007038256
000350 03 32 1c 3d aa 40 ca 3e 28 bd 31 3b 87 79 8d bc
       0.038133632 0.3950246 0.0027120803 -0.017269863
000360 86 63 07 3b 8b 82 bc bd 4c e6 06 3c 44 2b d5 3b
       0.0020658686 -0.092045866 0.008233618 0.006505402
000370 8d de 16 3c fd 3f 18 3c 9e 0a e2 bd 77 3f 2a 3e
       0.009208334 0.0092926 -0.11037181 0.16625772
000380 02 89 20 3d 7a 85 ea bc 4f 08 db bb ad 41 8c 3d
       0.03919316 -0.0286281 -0.00668434 0.06848464
000390 c3 a1 aa 3d 99 cc 07 3b fd f9 63 bb cf f1 9c 3c
       0.08331635 0.0020721315 -0.0034786456 0.019158272
0003a0 4d 18 f2 bc 14 45 e4 bc 63 c1 b7 ba 46 60 8f bc
       -0.029552603 -0.02786497 -0.0014019426 -0.017501961
0003b0 43 5c d5 3b 7b df 82 3c 8a 96 a1 be c5 35 c5 3a
       0.0065112426 0.015975704 -0.31560165 0.0015045932
0003c0 51 44 23 3d 4f 48 88 bd c7 95 c1 bd b4 bd db bd
       0.039860073 -0.06654417 -0.09452396 -0.107295424
0003d0 a5 14 bb 3d d8 3d 4f bb f9 d2 f1 ba c7 d9 71 bd
       0.09134797 -0.0031622555 -0.0018449716 -0.05904558
0003e0 d6 d2 1b 3c 5d 18 04 3e 3f 2c a8 3d c4 1f 8e 3c
       0.009510716 0.12899919 0.08211564 0.017349131
0003f0 cb de 64 3d 99 20 44 3e af 32 2d bd fb 21 02 3d
       0.055876534 0.1915306 -0.042284664 0.031770688

encoder_conv3.bias f4 [6]
000000 4e df e8 3d 7c a2 cd 3f 4d 52 ac 3e 1b 38 6a 3e
       0.11370717 1.6065211 0.3365654 0.22872965
000010 12 de 06 3f f8 1c 70 3f
       0.526826 0.937942

deconv1.weight f4 [6, 12, 5]
000000 cc ec eb 3c cb db 5b bc 17 50 a9 3e b9 de 08 3c
       0.028799437 -0.013419102 0.33068916 0.0083538825
000010 de 07 ca 3d 58 cb 02 3c b5 f0 91 3b 12 0b 9b 3e
       0.09864782 0.007983051 0.0044537433 0.30281883
000020 3a 4c 42 bc 35 94 24 3d af 94 04 be fa e0 dd bb
       -0.011858994 0.040180404 -0.12947343 -0.006771204
000030 fa 0e 9f 3e 75 5d 32 3c 72 02 28 be 1f ba 37 bd
       0.31066114 0.01088654 -0.16407183 -0.044855233
000040 cb 73 61 bb b8 ea 39 3e 4e 06 86 3c 8d 98 99 bd
       -0.0034401293 0.18155944 0.016360428 -0.074998
000050 59 cc 59 bc fe b0 ef ba c7 8c 5b 3f 92 30 23 bb
       -0.013293349 -0.0018287001 0.85761684 -0.0024900776
000060 36 b7 16 3d f4 6a 98 ba 8a 88 2f be da 86 eb bc
       0.036795817 -0.0011628554 -0.1714193 -0.028750826
000070 58 0a 53 3e 8a 94 5e bb f2 a0 7b bc 8e 6c 86 bb
       0.20609415 -0.0033963048 -0.015358197 -0.004102296
000080 65 3b c7 3d a7 d3 83 3d af 4a 9f bd c7 6b 55 3d
       0.097281255 0.06436854 -0.07777917 0.052104738
000090 87 18 3a bb 8a cd 81 bd b1 48 5e 3c 0e 15 d5 3d
       -0.0028395967 -0.063380316 0.013567136 0.104044065
0000a0 2f 08 95 bd 07 ee d1 bb c2 c3 75 3e 4b 64 ad 3c
       -0.072769515 -0.006406549 0.24000457 0.021165987
0000b0 1f 4c 47 bc 66 0b 36 bb 9b 46 16 bb 13 2b 36 bd
       -0.012164145 -0.002777779 -0.0022930268 -0.044474673
0000c0 24 e4 27 3a 61 67 03 3d 60 b0 9f ba 18 e1 02 3a
       0.000640454 0.03208101 -0.0012183301 0.0004992648
0000d0 fb 93 73 bd 5e cc 1e 3c a6 22 67 bc aa 0a 10 3d
       -0.059467297 0.00969228 -0.014107382 0.03516642
0000e0 dd 42 2c bb 36 38 22 be 3d dc ae 3b f7 9e d4 3c
       -0.002628497 -0.15841755 0.005336313 0.025954707
0000f0 93 83 a4 38 36 67 da bb 49 51 59 b9 4a 45 19 be
       7.844637e-05 -0.0066651357 -0.00020725014 -0.14967838
000100 76 19 76 3c 94 c0 85 3a 98 d7 e3 b8 82 b8 e4 bc
       0.015020719 0.0010204487 -0.00010864361 -0.027920011
000110 d7 70 ee b9 3a 20 a4 3c 45 a9 b3 3d 9d 1d e9 ba
       -0.0004547897 0.020034898 0.0877252 -0.0017785315
000120 4b 08 14 3e 60 a0 2c bc 73 91 3a 3c 20 6f 23 bc
       0.14456289 -0.010536283 0.011387217 -0.009975225
000130 6b 3c f3 b8 1b 1a 58 3c 2a d4 46 3a 69 bb 94 bd
       -0.00011598397 0.013189818 0.00075847155 -0.07262308
000140 ca 21 e8 bc 9e 21 20 bb 91 cb e8 bb dd 14 89 ba
       -0.028336424 -0.00244341 -0.007104345 -0.0010458488
000150 f7 7d c3 bb 48 c2 32 bb 3c 0f 93 bd a9 81 08 3c
       -0.005965944 -0.0027276445 -0.0718064 0.008331695
000160 e3 da 4b 3d 61 24 76 ba 94 b6 b6 bb 0a b0 de bc
       0.049769294 -0.0009389576 -0.005575964 -0.027183551
000170 61 be 01 3d 4d 64 60 be 6c 76 4c bd d0 8a 60 3c
       0.0316757 -0.21913262 -0.049917623 0.0137049705
000180 61 97 9c bb 46 a2 80 3c 82 f2 85 bb c0 a8 73 3d
       -0.004778788 0.015702378 -0.004087747 0.059487104
000190 d4 96 ae bc 7a 74 bf 3b 8c fb f5 3d de 80 a1 3e
       -0.021312155 0.0058427425 0.120108694 0.3154363
0001a0 e0 bc 9a bd ce a7 df b9 d0 42 6e bb 6d 7e bf 3e
       -0.07555556 -0.000426589 -0.0036355741 0.37401143
0001b0 20 d1 b4 39 ff f3 5c bc c4 3c 82 bb 47 e4 eb ba
       0.00034488086 -0.013485908 -0.003974529 -0.0017997109
0001c0 d6 06 52 bd fc db b8 b8 04 48 61 bc 23 af 80 bc
       -0.05127605 -8.814779e-05 -0.01375008 -0.015708512
0001d0 83 cd 4d bb fd 39 5e 3d 46 59 c8 ba d9 95 20 3b
       -0.0031403012 0.05425452 -0.0015285395 0.0024503379
0001e0 d3 cd 93 bc 25 0f bc bc 75 5a 04 3d ef e3 16 bc
       -0.01804248 -0.02295644 0.03231283 -0.009209617
0001f0 da cd 76 bb 4b 76 85 bd 63 fa 61 be 1b eb c8 3c
       -0.0037659318 -0.06516703 -0.22068171 0.02452617
000200 d8 2b 55 ba f2 fb 14 bb d8 18 d9 3d 5f 85 98 3b
       -0.00081318384 -0.002273318 0.10600442 0.004654571
000210 49 31 04 be f1 a9 ae ba e5 cc df 3d 6c 33 ad 3e
       -0.12909426 -0.0013325793 0.109277524 0.33828294
000220 bf 17 81 3c f1 30 33 3d 51 15 77 bb 3a f3 0b 3d
       0.015758393 0.043747846 -0.0037701915 0.034167506
000230 dd e1 a2 bc 92 9d 27 3e 0e a6 96 3c fb 04 e5 b9
       -0.01988309 0.16368702 0.018389728 -0.00043681994
000240 94 fb 2d bc d9 1d 5d bc 23 73 dd 3c cd 04 14 bc
       -0.010619063 -0.013495886 0.02703244 -0.009034348
000250 d0 20 5b bd ad 68 0c bb d7 f9 3a 3e 0c e6 8d 3e
       -0.05349809 -0.0021424696 0.18259369 0.27714574
000260 6b 1e ce bc 40 ae e1 bc 01 89 86 3b 66 e3 81 be
       -0.025160989 -0.02754891 0.0041056876 -0.25368804
000270 69 d0 fa 3d 1f c8 25 3d 2b 78 f3 ba 13 e6 2d bb
       0.12246782 0.040474053 -0.0018575242 -0.002653484
000280 e0 23 4c 3e 47 d2 88 3e 64 ff 85 3d 11 f5 c0 bc
       0.1993556 0.2672293 0.065428525 -0.023554357
000290 0e 59 1a 3d bd ae fe 3c 62 79 78 3e 9b 0d 4e 3c
       0.037682585 0.031089181 0.24265054 0.012576486
0002a0 e7 b7 b4 39 4c 23 84 ba d8 1d 91 3d 5f 4e a5 3c
       0.00034469293 -0.001008132 0.0708577 0.020178972
0002b0 25 40 8c ba 63 18 d1 39 e5 bd 31 3b 09 e4 90 bb
       -0.0010700269 0.00039881756 0.0027121243 -0.004421715
0002c0 30 03 0c 3f 4f 7a 2b 3d 2b e5 fa b8 bc 84 bc 3b
       0.54692364 0.04186469 -0.00011963615 0.005753128
0002d0 96 1d 40 39 a9 89 24 bc fa 96 5d ba 60 e3 4d 3c
       0.00018321568 -0.010042586 -0.0008452978 0.012566417
0002e0 06 90 ec 3c 6b 75 f5 ba b2 5e 1a 3b f4 55 e5 bc
       0.02887727 -0.001872701 0.0023554978 -0.027995087
0002f0 2c 54 ec 3d 57 90 bd 3c ab be 21 be 4e 9d 06 bc
       0.11539492 0.023140116 -0.1579539 -0.008216215
000300 f5 93 04 bd 0f 84 9a be 17 fa c6 bd ee 62 9c 3d
       -0.032367665 -0.30178878 -0.097156696 0.07636057
000310 b9 6b a4 3b 91 2d f3 3e 4a 20 f3 3d c2 b8 b2 3d
       0.0050177244 0.47495702 0.11871393 0.08726646
000320 2b 38 5f 3c a2 d2 55 3a 24 f9 6b bc 63 ca 80 3e
       0.013624231 0.0008156692 -0.0144026615 0.2515441
000330 82 bc 5a 3d 8f cb 79 bb 51 ac 6e be 06 a6 0b bd
       0.05340243 -0.0038115715 -0.23307921 -0.03409388
000340 63 da c3 bd 4c 08 65 bb 67 87 90 3d b6 ef 6f 3c
       -0.09563138 -0.0034947572 0.07057076 0.014644554
000350 d6 f4 91 3e 96 c8 97 3e f8 a7 8b bc 7e fc f1 bc
       0.28507107 0.29645222 -0.017047867 -0.029539343
000360 bf 03 cf 3b 9f 4f 27 be 9c e3 f0 3e 50 f3 af 3c
       0.0063175852 -0.16338967 0.47048652 0.021478325
000370 93 9e 9d 3a ec f0 02 3b de 9d 53 3e ab 35 49 3e
       0.0012025408 0.0019980026 0.2066569 0.19649379
000380 81 39 42 3e 98 e9 db 3a dd 84 f8 39 d7 2d 64 bd
       0.18967248 0.001677799 0.00047401237 -0.05570778
000390 48 fd bb be 17 78 3d bc 37 2f 36 3c 60 10 25 3b
       -0.36716676 -0.011564276 0.011119655 0.0025186762
0003a0 43 bf bf 3d 91 c0 49 3f 69 bd db 3b b4 e3 8b 3c
       0.09362652 0.7880946 0.006705929 0.01707635
0003b0 f0 9e 2e 3b a9 49 70 3e 04 98 9f bd 79 c6 87 3d
       0.0026645027 0.23465599 -0.077926666 0.066296525
0003c0 26 98 70 3d 00 9a 8d bd 43 c3 25 3d c8 5b bc 3e
       0.05873885 -0.06914139 0.04046942 0.36788774
0003d0 32 ee dd 3e 9d 11 44 3d 53 74 fb 3a 36 e3 17 be
       0.4334579 0.04786836 0.0019184448 -0.14832768
0003e0 11 44 26 3f 29 f9 09 3e 40 88 24 bf a9 3b 0d be
       0.6494761 0.13473953 -0.642704 -0.1379229
0003f0 8c 45 f0 3e 58 7d 59 3e b0 d2 e1 be 94 01 d1 3d
       0.4692806 0.21239221 -0.44106054 0.10205379

deconv1.bias f4 [12]
000000 0f d8 fd bc 30 3c 82 3e 19 cd 94 bc 1c 3e c9 b9
       -0.030986814 0.25436544 -0.018164204 -0.00038383983
000010 45 fe b3 3d 70 50 20 3e 86 8c 71 be de 26 27 bc
       0.087887324 0.15655684 -0.23588762 -0.010202138
000020 e8 4d 08 bf 32 90 64 3c 8c 07 03 3e 32 74 a8 3d
       -0.53243876 0.0139503945 0.12795848 0.082252875

deconv2.weight f4 [12, 24, 5]
000000 81 04 65 3d 56 ec b9 3d 37 24 82 3e 0c 8b 38 be
       0.0559125 0.09078281 0.25418255 -0.18021792
000010 dc ef e8 3d 70 74 40 bd 05 1d c0 be a1 6e 6d be
       0.113738745 -0.046986043 -0.3752214 -0.23186733
000020 31 fe 23 3e d7 4c ce bd 46 f3 30 3c c9 95 aa 3e
       0.16014935 -0.1007325 0.010800188 0.33317402
000030 dc c3 7d be c8 b1 03 3e 51 ce a7 be 51 cc 9b bd
       -0.24781746 0.12860787 -0.32774594 -0.0760733
000040 2a 6b 03 be 12 6a fc bd fc ae ef 3c 3e 76 4b bd
       -0.12833849 -0.12324919 0.029258244 -0.04967331
000050 f0 3e c1 3e 4c 6c 4e 3e b3 b2 15 3d 2a 15 05 bd
       0.3774333 0.201585 0.036547374 -0.032490887
000060 8c c9 c7 3c 73 ca 36 3e 11 43 ac bb e9 0a de bd
       0.024388097 0.17850666 -0.0052570184 -0.10841925
000070 d2 05 8e bd fb 8d 90 3c ed 88 5a 3d e4 c5 8d 3e
       -0.06934704 0.017645827 0.05335324 0.2769004
000080 97 9a 6d 3e cb 08 4e 3e 4b c9 08 3e 81 3f b4 bd
       0.23203503 0.20120542 0.13358037 -0.08801175
000090 76 33 e4 3e d4 2e cf 3e 67 37 b0 bf 63 ef 04 be
       0.44570512 0.40465415 -1.3766907 -0.12981944
0000a0 60 69 2a bf d0 64 c6 3d 0a 7a 51 3d 74 99 d9 3e
       -0.6656704 0.09687197 0.051141776 0.42499888
0000b0 45 80 58 bd bd 90 1c bd 8f f3 b4 bc 5f 5c 01 3e
       -0.052856702 -0.03822397 -0.022088794 0.12632893
0000c0 fc c4 0f bc 01 6c fd 3d 77 29 e4 3c 13 b2 50 3d
       -0.008774992 0.12374116 0.027851803 0.050951075
0000d0 fc a0 19 bf fd db 16 bd e9 2c 22 3c bd 18 22 be
       -0.6001127 -0.03683089 0.009898403 -0.1582975
0000e0 05 fc 54 3e ee 71 ec 3e da b1 f4 bc b1 ff ac bd
       0.20799263 0.4618067 -0.029869962 -0.08447207
0000f0 de ec 20 bc 1c 09 b7 3d 59 eb 59 3e 2f 79 85 bc
       -0.009822099 0.08937284 0.21281184 -0.016293136
000100 08 dc c7 3c 31 61 87 3a 9e f3 42 bb ac dc 82 bc
       0.024396911 0.0010328648 -0.0029747258 -0.015974365
000110 1f 3a 12 3e a3 36 54 3d 15 23 79 3c 8d 44 9d be
       0.14279984 0.051809918 0.015206118 -0.30716363
000120 30 b0 42 bd 0d 0a d9 3d a4 8a 00 3c 89 a1 4b 3d
       -0.047531307 0.1059762 0.0078455545 0.0497146
000130 74 c7 68 3c 5a b9 95 3e 5f 2b c1 bc d7 76 85 3d
       0.01420771 0.29242975 -0.023580251 0.065168075
000140 26 86 d3 3d a1 c4 13 3d ee 0a d3 3d d5 5a e6 bd
       0.10328321 0.03607619 0.10304819 -0.112477936
000150 59 40 d3 3c 1b 86 ba be e0 71 d4 3b 43 b9 82 bd
       0.02578752 -0.3643044 0.0064833015 -0.06382992
000160 dd a4 24 be 87 93 c1 3d ce c6 6b 3d b5 8f 6e 3e
       -0.16078515 0.09451967 0.05756264 0.23297007
000170 10 a1 79 3e 64 96 a2 3c 4e a5 bc bd bf 43 05 3e
       0.24377847 0.019847102 -0.09211217 0.13014124
000180 70 34 46 3e fc cd 50 3d 5c 65 52 3d 0f 84 34 be
       0.19355941 0.050977692 0.051366195 -0.17628501
000190 78 95 8a bb f7 96 47 3e b4 58 77 3e 55 55 0c 3e
       -0.004229244 0.19491182 0.24154931 0.13704427
0001a0 80 fe 1c 3a 5b fe 5d be dd db 3c bf b3 8c 54 be
       0.0005988851 -0.2167906 -0.73772985 -0.20756797
0001b0 cc 9d 85 bc 13 37 0d be 88 7b c2 bd 93 a2 00 c0
       -0.016310595 -0.1379054 -0.09496218 -2.0099227
0001c0 20 d7 81 3e 2b 25 91 bd 84 5b b8 bd c2 54 41 3e
       0.2535944 -0.07087167 -0.0900183 0.18879989
0001d0 92 00 24 3c 29 24 c0 bb c5 da 94 be 10 fe 0c be
       0.010009902 -0.0058636856 -0.29073158 -0.13768792
0001e0 93 7f 2c 3d ac aa 19 3e 4f 9a f6 bd 85 1d 22 bd
       0.04211385 0.15006512 -0.12041151 -0.039578933
0001f0 97 42 12 3d f6 d0 1d 3e 37 80 15 bd ec 7b eb 3e
       0.035708036 0.15411744 -0.03649923 0.45992982
000200 7d eb ff 3d 67 8d c9 3d e5 48 d7 3e 4d 55 77 be
       0.12496088 0.098414235 0.42047802 -0.24153633
000210 7d 6c 0e 3e ad 3f 0d 3c c2 6e 55 3d 33 84 29 3d
       0.13908572 0.0086211385 0.05210758 0.04138584
000220 20 2b 63 3e b3 1d 1b 3f fa fb 9b be 6d a9 41 3d
       0.2218442 0.6059219 -0.3046568 0.047280718
000230 72 47 83 3e e0 16 0c be 5f bb 3a 3e 87 bc 29 bd
       0.25640446 -0.13680601 0.18235539 -0.04143956
000240 94 70 1a 3d c0 f2 32 bc 53 e6 9f bd d1 b1 2a bd
       0.03770502 -0.010922134 -0.07807603 -0.041673485
000250 16 d7 f3 ba ee 89 e0 bc 8c 75 af 3c 25 28 7f 3d
       -0.0018603529 -0.02740952 0.021418355 0.062294144
000260 d1 39 4e 3e b2 a3 3f bd 89 be 59 3c 8b 73 a8 3c
       0.20139243 -0.04678697 0.013290056 0.020562908
000270 c3 b5 44 3e f7 5d a6 be 83 37 c4 3e dd a0 bb 3d
       0.19209962 -0.32493564 0.38323602 0.091615416
000280 c2 1e 1a bd 45 e4 17 bd 73 78 11 3e 03 bc f8 bd
       -0.03762699 -0.03708293 0.14206104 -0.121452354
000290 8e ad ef 3d dc e2 85 3d 3d d2 01 3d 82 a7 c2 3d
       0.11703025 0.065374106 0.03169464 0.09504606
0002a0 95 03 ed 3b 89 14 2c bc e6 1a 0d 3d e5 72 3e 3e
       0.007233093 -0.010502943 0.03444948 0.18598516
0002b0 83 df 75 3d 36 16 b2 3c 7b 02 05 3c 11 ba 95 bd
       0.06002761 0.021739107 0.008118267 -0.0731088
0002c0 f5 4b e2 3c d0 a9 1e be 10 d7 c0 3b 95 81 08 be
       0.02762411 -0.15494466 0.0058850124 -0.13330682
0002d0 73 1d 6b 3d 41 6e 8e 3d 1c 1b 8c 3e 3d 0d 25 3e
       0.05740113 0.06954623 0.27364433 0.16118331
0002e0 cb 2d 6d 3d d2 3d bb 3d 06 da 84 3d 54 6b 8b be
       0.057905 0.09142651 0.06486897 -0.27230322
0002f0 0f 5b cc bc ff 83 21 be a7 5a 5c 3d 0b ad 21 3e
       -0.024945764 -0.15773009 0.05379739 0.15788667
000300 aa f6 b8 bd 29 39 cb bc 88 bf ff bc 33 69 63 3e
       -0.090314224 -0.02480753 -0.031219259 0.22208099
000310 60 a9 82 bd 1a 26 d2 bd a5 27 78 bc a3 c4 ee 3b
       -0.06379962 -0.102611735 -0.015146171 0.0072866245
000320 11 a5 8b be a7 52 bb 3e 80 dc 77 3e f2 2f 41 3e
       -0.27274373 0.36586496 0.24205208 0.18865946
000330 97 c1 a5 3d 5c a0 d1 bc b5 af 21 3e 59 9b 58 3e
       0.08093565 -0.02558916 0.15789683 0.2115301
000340 07 a9 1e 3d 2e a7 01 3e f6 7b a1 3c 92 15 1f 3f
       0.038735416 0.1266143 0.01971243 0.6214229
000350 90 79 ae 3e fc 5d ad 3b cc 9d 1d 3b 0d 77 42 be
       0.3407712 0.005290745 0.0024050353 -0.18990727
000360 f9 30 ca bd 87 64 e7 3e 46 a5 89 3d 66 4b 7c bc
       -0.09872622 0.45193884 0.067209765 -0.015398836
000370 01 5a 83 bc 25 26 64 3d 54 c8 45 3f 74 56 ea bb
       -0.016034128 0.05570044 0.772588 -0.0071514193
000380 36 eb 5c bd 10 61 9a 3e 38 0f 49 bd 12 07 fe 3d
       -0.053935252 0.30152178 -0.04908678 0.12403692
000390 24 c5 c7 bc 64 f1 80 3e 90 01 2c 3d eb f7 05 3e
       -0.024385996 0.25184166 0.041993678 0.13082854
0003a0 c1 9f a1 3d 86 8e 0c 3d 2a 13 ad bd 58 94 39 3f
       0.07891799 0.03431561 -0.08450921 0.7249198
0003b0 38 ae e6 3b 85 5f 74 bd 42 3f a7 3e e4 d8 a2 3e
       0.0070398115 -0.059661407 0.3266545 0.318061
0003c0 4b 13 f1 3b 8a ab 71 be 47 32 31 bf b5 84 6f 3f
       0.007357036 -0.23600593 -0.6921734 0.9356187
0003d0 36 4b aa 3d fd f7 00 3e bd 01 3a 3e 4d 48 39 bf
       0.083151266 0.125946 0.18164726 -0.7237595
0003e0 aa 8e 3d be bd ce 99 bd 3b f7 d9 bf 8f 20 9e bf
       -0.18511453 -0.07510135 -1.7028574 -1.2353686
0003f0 07 84 23 3f bb b3 6b 3d 11 bd d3 bc 65 6d c6 3d
       0.6387333 0.05754445 -0.02584699 0.09688834

deconv2.bias f4 [24]
000000 dc cc 90 bb 1d c8 f9 bd ae f1 a8 3d 1c df ac bd
       -0.0044189524 -0.12196372 0.08249222 -0.08440992
000010 f2 af b2 3d 1c a5 72 be 65 34 1f 3e 24 cb d7 bd
       0.08724965 -0.23695797 0.1554733 -0.10536793
000020 dc 6d 10 bd 63 e5 a0 3d be 86 8f 3d 6f db 91 3d
       -0.03526102 0.07856252 0.07008122 0.07121932
000030 5b 9a 5e 3e a1 a6 51 3e 30 d1 b5 be f2 ee 35 bd
       0.2173857 0.2047372 -0.3551116 -0.04441733
000040 90 38 50 be 80 07 3c 3e 27 49 d5 3d 35 44 bd 3d
       -0.20334077 0.18362236 0.10414343 0.09241525
000050 c6 53 51 3e 3e c5 b0 3d 8a c9 f4 bb 48 3d 05 3e
       0.20442113 0.08631371 -0.0074703144 0.13011658

deconv3.weight f4 [24, 1, 5]
000000 d6 12 88 3d 4a 8f 59 3e c0 11 af be 1e 16 ec 3d
       0.06644218 0.21246067 -0.3419323 0.11527656
000010 1a e0 8c 3e b3 08 42 3e a9 6a 0c 3f 45 6b 4e 3e
       0.27514726 0.18948631 0.5485025 0.20158108
000020 62 e4 a8 3e 1c 2f 80 3e 78 e5 1f 3e 06 b1 52 be
       0.32986742 0.25035942 0.15614879 -0.20575342
000030 a3 75 97 3e 8b cf e9 3e 36 58 26 3e 9c 83 27 be
       0.29581937 0.45666155 0.16244587 -0.16358799
000040 7c cd fd 3d ca fb 0c 3f 7c d6 2e 3f f5 da 01 3e
       0.12392709 0.550717 0.6829603 0.12681182
000050 d3 b4 e5 be 95 96 5b be c7 29 9f be 31 4d 43 3e
       -0.4486452 -0.21444161 -0.3108656 0.19072415
000060 06 c4 7b 3e 7d da 1c be 95 19 00 bf 15 75 d1 be
       0.24586496 -0.15317722 -0.50039035 -0.4090964
000070 8d 02 07 bf 35 4a 11 bf 32 7c 8e 3d 11 81 4d bb
       -0.5273827 -0.56753856 0.06957282 -0.0031357447
000080 f5 65 e0 3d 45 d2 b7 bd e3 b0 8f 3e ba 6b 0d 3d
       0.10956947 -0.089756526 0.2806464 0.034526564
000090 61 4e d3 bd 30 93 17 bf 3a ac 18 bf 45 d4 5e be
       -0.10317684 -0.59208965 -0.59637797 -0.21760662
0000a0 69 ff 29 3e 5a 4d 96 3e da 32 14 3f 0d 04 48 3f
       0.16601337 0.2935589 0.57890093 0.7813118
0000b0 f7 36 b3 be a0 d2 6e 3e 78 de 37 be 93 67 33 3e
       -0.35002872 0.23322535 -0.17955959 0.17519979
0000c0 2c 4a 84 3e 73 c4 1f be 8b 5b b9 3d 75 e4 84 be
       0.2583784 -0.15602283 0.090506636 -0.2595555
0000d0 f5 b2 78 be 38 fd 2a 3e ab 9e 8e 3d b2 af 18 be
       -0.24287017 0.16698158 0.06963857 -0.14910772
0000e0 4f 06 ed bd 51 f8 e4 3e f2 dc 67 3e bd 4b b7 3e
       -0.11573469 0.447207 0.22642878 0.3579997
0000f0 64 7d 80 3e 56 a8 89 3e d4 25 d3 3e b6 fa 0c 3e
       0.25095665 0.26886243 0.41239798 0.13767514
000100 de 07 1b be 52 77 c9 3d 91 04 b0 3e 0c 2d 54 3e
       -0.1513972 0.09837212 0.34378484 0.20720309
000110 af d5 23 3e 9a 60 1a 3e 6a 5c d6 be 8e a4 9c bf
       0.15999483 0.15075913 -0.4186738 -1.2237718
000120 eb e1 cf be 78 b7 8e be 3b c4 25 3e 36 b2 e1 bd
       -0.4060205 -0.2787435 0.16188137 -0.11020319
000130 69 32 80 be c6 e0 50 bd f9 a2 82 be dc de a0 be
       -0.2503846 -0.05099561 -0.25514963 -0.31420028
000140 84 51 56 3f d8 06 5a 3f 75 76 00 bd cf 37 69 bd
       0.8371813 0.8516669 -0.03136297 -0.05693799
000150 1e 9b 0d be db 52 04 3e 81 0f 78 3e b6 18 dd 3e
       -0.13828704 0.12922232 0.24224664 0.43182915
000160 87 00 81 3e 37 5a 08 bd fe 45 9b bd b3 16 c4 3e
       0.25195715 -0.03328916 -0.07581709 0.38298568
000170 92 8f 88 3e ba 96 ad 3e 61 cd 91 3d d3 18 d2 3e
       0.26672035 0.33904058 0.07119251 0.41034564
000180 59 47 c7 3e c2 eb f8 3c 8d 30 f7 be 73 db fa be
       0.3892162 0.030385856 -0.4827923 -0.4899555
000190 b0 a1 a8 be af c0 5a be b9 ec be be a6 17 e6 3c
       -0.32935858 -0.21362565 -0.3728998 0.028087448
0001a0 da fb 96 3d 03 54 eb bd c7 1f 53 3e 78 97 de 3e
       0.073722556 -0.11490633 0.20617591 0.43474936
0001b0 9b 63 9d be a5 b1 63 3e 30 9b 39 be 13 45 14 3f
       -0.30740055 0.22235735 -0.18125606 0.579179
0001c0 a1 81 b7 3f d9 ef e8 bd b7 0d 0a be 9e 13 51 3d
       1.4336435 -0.11373872 -0.13481794 0.0510441
0001d0 0a 0e 28 be 13 9e 32 bf 98 5c 46 be 88 db ac 3d
       -0.16411605 -0.6977245 -0.19371259 0.0844031
